models/lstm_encoder/checkpoint/trained_irdpg_20.pth (torch, 409346 bytes, 22 tensors)

weight_ih_l0 f4 [192, 64]
00000000: cfc6 883d c47b 3cbd 764d d43d 23b9 263d
00000010: f954 193d f7e6 dc3d e966 a53c d6f3 183d
00000020: d031 8c3d 4ba0 733d 917d 7cbd c127 debd
00000030: 5efd 34bd fb29 0fbc 5c80 ac3d c5ed 72bd
00000040: 5e7b ecbd baf1 f73d 4c9a f2bb fd08 e5bd
00000050: 87a6 a0bd c102 0dbd 499a a43d aa9d a23d
00000060: 5c18 f6bc 4be4 6cbd be31 893d 7bed 643d
00000070: a2e6 963b 61ef 2d3d 2271 cb3d cccc 5a3d
00000080: aea9 e6bd 5a05 ebbd 0fb5 b93c 51cb 8c3d
00000090: 8ac0 8e3d 5a05 3bbc 7c61 e8bd 0964 e33d
000000a0: ce63 713c 5ea4 f53c 8def afbd c527 bf3d
000000b0: ca5e 0ebc b59b c03c 8bf8 cabd 7f7d f83d
000000c0: f24b cdbd d384 9abd 40b6 b0bd 0b97 4e3c
000000d0: 4b2b d93d d2bc 4ebd 173a e73d 94b0 353d
000000e0: 657f 1f3d 5b33 b43d 3103 8fbd e8d1 e6bd
000000f0: e005 7f3b a049 733d e505 af3d 1963 4fbd
00000100: d454 5a3c 7aca 3bbc ddfb f43b 2164 fa3d
00000110: cb9c b3bd 3326 143d 0c78 61bc 7c4f 71bd
00000120: 0aa2 613c 55dc a53c 1706 9dbc e9be 0dbd
00000130: f97b 3fbd 05cf 8ebd c31b 72bd 29ff 833c
00000140: 2285 25bd b3d8 3e3c 534d e1bd fb74 21bc
00000150: 94ae 2dbd 3178 e8bd 8fc4 cb3d a035 31bd
00000160: 813b 973c e58c 903d 5fd2 db3d 66f4 d63d
00000170: 095b be3b eeb7 0ebd 3794 c7bd dde4 08bc
00000180: 995d d13d 9e3f d03b 156a 273d 5e80 a6bd
00000190: 37ba f93d b741 ef3d a2cb 063d ee8f 33bb
000001a0: f75f e9bd 1c9c b63d 0915 783c abb1 60bd
000001b0: 9e00 0cbd fe8a cdbc 478d b8bc 3033 e2bd
000001c0: 23bc b1bd 54fd fbbc 85d7 553b eba8 f9bc
000001d0: 050a 683d d0ec 84bd 1c14 8c3d 56ac cbbb
000001e0: 9dac fdbd b7d0 9c3c e711 2bbd a55c a4bd
000001f0: cd65 483d f4ee 56bd ecef 063d 1276 773c
00000200: 1a42 973c d056 183d cfda fabc 57d4 9f3d
00000210: e553 a53d 7d54 6ebd 643a 26bd f02a 863d
00000220: d091 fa3d 7331 a33d 29c9 18bd 7691 823b
00000230: 76b9 cbbd b11e 34bd 9673 7e3b 53dd 823d
00000240: fbdb d63d 1aa1 2dbd fa0d c03c 96f8 a63d
00000250: efde 67bd f859 273d fe5c 183d f1ea 783b
00000260: 058c dd3d bf22 cebd a5e5 323d 6ef4 c0bd
00000270: 5542 dd3d 3f5c 03bd d123 06bd 2b67 ffb8
00000280: 431c 8d3c 64c6 94bd a845 c5bd 3e06 7e3c
00000290: a475 b3bd cc98 0bbc e744 df3d a983 033d
000002a0: 7b89 bdbc 6149 fa3d 9687 be3d 3a5f 2abd
000002b0: 89cb 093d 621f b13c cd8a 98bd c3db 603d
000002c0: 495b b2bd 00b0 97bd 9309 773d 310d cabd
000002d0: 09b0 ff3d 548a 423d b1ff a13b 67c9 a83a
000002e0: 4bf1 4c3d 6f04 db3c 8491 c9bc 9138 ff3c
000002f0: a3ab e5bd f180 3abd 4bb4 7d3d 34d0 f83c
00000300: 3bd8 263d 1614 0a3d 288b e2bc db2f b9bd
00000310: c7ed 66bd c228 80bd ce39 de3d f258 efbd
00000320: c49d 2abd ce6c b23d 9ff3 a23d 06ae 24bd
00000330: c278 a6bd 3192 6bbd c6e7 15bd cbed 9e3d
00000340: a98e f83d e009 c1bc 2f06 173d 5fc6 9cbd
00000350: 6125 dcbd a739 cdbd 09e8 b83c b802 55bc
00000360: 17a0 d4bd 7d10 fbbc fba0 8fbd f151 f53d
00000370: 6e7a edbd 03da 2cbd cbc9 c43d 2e1f e63c
00000380: 3721 7dbd d756 803d 0907 f2bc 9d18 b83d
00000390: cf87 db3d cf0a 9d3d 44b7 003e cb5c d03c
000003a0: 52cb 6f3c 2d40 e5bd aa58 9fbd 19e9 fa3c
000003b0: 2144 283d c30a 7f3d 001b 103d d1a2 cb3d
000003c0: c9dc c43d 2ee9 87bd 7eee 2bba 52a8 efbd
000003d0: 05c8 563d d614 69bb 86ac f53d df55 d23c
000003e0: d1e9 4f3d 7d66 993d 9a2b f13d cf30 113d
000003f0: 2907 cdbd 8e33 663b b469 3dbd a1a4 ba3d
0.06678545 -0.04601647 0.10366337 0.040703904 0.037434552 0.107862405 0.020190673 0.037341915
0.068454385 0.05947904 -0.061643187 -0.10847426 -0.044186942 -0.008738036 0.0842292 -0.059308786
-0.11546968 0.121066526 -0.0074036475 -0.11183355 -0.078442626 -0.034426454 0.0803724 0.07940228
-0.030040912 -0.057834905 0.06698941 0.05589054 0.0046051303 0.042464618 0.09933688 0.053417966
-0.112628326 -0.1147563 0.022669343 0.06874717 0.06970318 -0.01141485 -0.11346719 0.111030646
0.014733268 0.029985603 -0.085906126 0.09333757 -0.008689592 0.023511747 -0.09910687 0.121333115
-0.10024251 -0.075448655 -0.086285114 0.012609254 0.106039606 -0.05047304 0.11290377 0.04435785
0.038939852 0.08798858 -0.069830306 -0.11270505 0.0038913414 0.059396386 0.08546046 -0.050631616
0.013325889 -0.011461848 0.0074763135 0.12226129 -0.0877014 0.036169242 -0.013761532 -0.058913693
0.013771543 0.020246664 -0.019167943 -0.034605894 -0.04674909 -0.069730796 -0.059108507 0.01611288
-0.04041017 0.011648345 -0.110010765 -0.0098545505 -0.04240282 -0.1135105 0.099496 -0.04326403
0.01846099 0.070581235 0.107334845 0.10495834 0.005809192 -0.034843378 -0.097450666 -0.0083553465
0.102229305 0.00635524 0.040872652 -0.08129953 0.12193721 0.11682456 0.032909043 -0.0027399021
-0.11395257 0.08916494 0.015141734 -0.054856937 -0.034180276 -0.02509069 -0.022528304 -0.110449195
-0.08678462 -0.030760445 0.003262968 -0.030476054 0.05665018 -0.06490481 0.06839773 -0.0062156124
-0.12386439 0.019142492 -0.04176512 -0.08025483 0.04892521 -0.052473977 0.03294365 0.015103834
0.018464137 0.037192166 -0.030621914 0.078041725 0.08072642 -0.058186043 -0.04058303 0.065511584
0.12234843 0.07968416 -0.037301216 0.0039846255 -0.09947483 -0.043974582 0.0038826219 0.063898705
0.10491177 -0.042389967 0.023444165 0.08152883 -0.05660909 0.040857285 0.03719806 0.0037981833
0.10817722 -0.10065221 0.043676037 -0.09421621 0.108036675 -0.032070395 -0.032749 -0.00012178564
0.01722539 -0.072644025 -0.096324265 0.015504418 -0.087626725 -0.008520316 0.10901814 0.032107983
-0.023136845 0.12221027 0.09303205 -0.04159472 0.033641372 0.02162141 -0.07448349 0.05489708
-0.087088175 -0.07406616 0.060311865 -0.09865797 0.12484748 0.0474952 0.004943811 0.0012877405
0.050034802 0.026735513 -0.02460552 0.031154903 -0.11214378 -0.045533124 0.06193952 0.030372716
0.040733557 0.03371056 -0.027654245 -0.09042331 -0.056379106 -0.06257774 0.10850869 -0.11686887
-0.041654363 0.08712159 0.07956623 -0.040205024 -0.081285015 -0.057512466 -0.03659799 0.07760199
0.12136585 -0.02356428 0.03687113 -0.07655024 -0.10749317 -0.10020762 0.02257158 -0.0130011365
-0.10382097 -0.03064751 -0.070131265 0.1197852 -0.11595617 -0.0422001 0.096088015 0.02809104
-0.061799254 0.062665634 -0.02954437 0.089890696 0.10719263 0.07668077 0.1256991 0.025434872
0.014635878 -0.11193881 -0.07780583 0.030628728 0.041080598 0.062266123 0.035182 0.09943164
0.09612424 -0.06636272 -0.00065586704 -0.117020264 0.052436847 -0.0035565398 0.11995797 0.025675712
0.050760094 0.07490251 0.117758945 0.035446938 -0.10011131 0.0035125944 -0.046243384 0.09113432

weight_hh_l0 f4 [192, 64]
00000000: 8aa9 f63d 6915 793c fbf5 323d 1666 a03d
00000010: 6530 8cbd 39c6 8ebd f542 9c3c b28b 19bd
00000020: ccd3 a23d 45f9 f33d 4981 8ebb 4086 f73d
00000030: a7e3 b2bc 8e2e 9a3d d703 45bd 4771 cebd
00000040: 8918 e5bb 6b2e 2dbb 1a86 053c 80ec 193d
00000050: 1c04 763d 9128 ce3d 86eb cb3d 48ce c1bd
00000060: 9a9e 55bc 4194 e5bc ffcb f13d 1979 e3bd
00000070: bd1d 273c add2 4ebd 8a25 a7bc 8a56 13bd
00000080: 40bb 9abd d414 8cbd 6102 b5bd b330 d53d
00000090: 1a95 dd3c e8b5 d73d fe7f 00be c7b6 c03d
000000a0: fba1 54bd fe83 8a3d 3c9b 44bd 0973 3e3d
000000b0: 3336 b03c 16d5 c4bc 4667 3e3d 2a4a cb3d
000000c0: 5b8b 153d dde9 1ebd e862 7ebd 27f8 943d
000000d0: 13da 6abd 7c6a 7d3d a6a7 a0bd 9cf6 633d
000000e0: a616 f1bc 1477 f63c 38c9 ccbd 3c9c ec3d
000000f0: 9374 72bd d43a 263d 0463 32bd 43a3 c4bd
00000100: ff90 923d ba64 75bd 8951 643d 625e 8a3c
00000110: 9c6b 983d 44aa dcbb 9ed2 a63d 5a60 0bbd
00000120: 8921 ca3d a10c 873d e0ad 49bd 6682 f4bd
00000130: 7f9b bd3d cd97 bcbd 4d03 aebd 981e acbd
00000140: 069b 373d 3b69 29bc 45cf 3a3d afc8 c2bd
00000150: 15d0 213c a711 c93d 2232 c73d 92f7 023c
00000160: 042d 073d 1ee7 5cbd 0309 d43d ca5a 18bd
00000170: 63ae 013d 3d54 b7bd f578 a73d f33e cf3d
00000180: 3219 cdbd aa42 333b ccbf 3a3d 02c4 e73d
00000190: cb4b 12bd 5f72 ca3d 5eb3 eebd 8928 68ba
000001a0: da1c cc3d cee7 06bc 04a7 3b3d 578c 64bd
000001b0: 8f90 873d 50da e53d e844 5e3d 2605 9c3d
000001c0: 6545 6cbc ce82 f73d d468 e03d 3ae8 c0bc
000001d0: 8a59 bdbd 0458 213d 6a6d ef3d e241 3e3c
000001e0: a92a 9ebd e247 013d f1d0 133d 22d7 5e3d
000001f0: 0ac1 79bb 2764 d33d f448 9bbd 7a2d ca3d
00000200: 4dec 9dbd 3a6a acbc 3c8d 5bbd ae77 ebbb
00000210: e5a7 f4bc bb60 debd 9ecf d1bd d075 803d
00000220: 1e34 603d cac6 e1bd 6440 cd3d b5f4 733c
00000230: bb48 953d 0d8d fa3d 5081 4a3d 84b0 cabd
00000240: 60cf 41bd 2c98 993d da86 9dbd 64fa e93d
00000250: 4633 b23d f279 ccbd d1c6 013d ffa0 d8bc
00000260: d04f b2bd 39ce de3c 3236 a23d 30a8 5f3b
00000270: 4f1b d53d 3cb6 0a3d 1efa 983d c919 373d
00000280: 4330 1e3c 593b c0bb c3fe 1a3b 66f5 b33d
00000290: 9ecb ad3d 5773 613d efd2 de3d ba32 543d
000002a0: bda0 a63d 5f32 7dbd d01f 163d 3f96 33bd
000002b0: b39d 46bd c5c8 4dbd 62b1 4b3d 90f7 e8bd
000002c0: a59e 423d 7095 ec3b 8a86 173a 24be 85bc
000002d0: 3747 88bd 28e1 dfbd b145 9dbd 8100 f03d
000002e0: cf49 c23d b979 f33d d82b ccbd cad8 44bd
000002f0: 5970 c5bd 8364 0ebd 5d37 94bd ed02 bb3c
00000300: bbaa 833d 4a57 7d3d c54d 4cbc 995b 3abd
00000310: 3657 eabd b3c0 82bd 3e52 da3d 90be 88bd
00000320: 3a6f c83d 3f8e 11bd acf0 353d 01c2 f7bd
00000330: 4d91 98bd a0f2 17bd c073 9c3d 5a8b 14bd
00000340: d757 c53d cb59 4a3d b6f4 e63d 5ea8 e9bd
00000350: 8275 723d c5c6 d73c 2075 323d 63d3 dbbd
00000360: 960a e03d 8324 b23c 922d 493d 996f fb3c
00000370: b0a0 7c3d 83a6 c1bd b155 82bd 79ec 0abd
00000380: 481e e63d fa4c 5ebd f267 efbd c3c2 f03d
00000390: 7374 aabb 280b d3bd 3918 88ba aff6 cd3d
000003a0: 54d7 ddbd 9b4a 6ebd 12c8 933d ed00 1e3d
000003b0: d3c4 0dbd 6936 393d 119d 5cbd fbbb fc3d
000003c0: 243a 0cbd 727f ca3d 3f43 f63d 538b 9b3d
000003d0: adc3 84bd 30f1 fb3d cc5b ad3d fa74 e3bb
000003e0: eddd d1bc 36c5 ab3d 0ced aa3d 3da7 00be
000003f0: 482f 7dbd fe46 cd3d 3cd9 96bc f19a 8d3d
0.12044056 0.0152028585 0.043691617 0.07831971 -0.06845168 -0.06971402 0.019074896 -0.03748674
0.07950553 0.11912779 -0.004348908 0.12086153 -0.021837069 0.07528411 -0.048099365 -0.100802
-0.00699145 -0.0026425372 0.008149648 0.03757906 0.060062513 0.10066331 0.09957032 -0.09463173
-0.013038302 -0.028024795 0.11806487 -0.11107082 0.010199961 -0.050493885 -0.020403642 -0.035971202
-0.07555246 -0.0683991 -0.08838344 0.10409679 0.027048636 0.10532743 -0.12548825 0.09409862
-0.05191229 0.06763457 -0.047999606 0.046496425 0.02151022 -0.024027389 0.046485208 0.09926255
0.036509853 -0.03879725 -0.062106043 0.07273894 -0.057336878 0.06186913 -0.078444764 0.055655107
-0.029429745 0.030086078 -0.09999317 0.11553237 -0.059193205 0.040583447 -0.04355146 -0.09601452
0.07156562 -0.059910513 0.05574182 0.016890708 0.074424 -0.0067341644 0.08145641 -0.034027435
0.098696776 0.06594206 -0.049238086 -0.11938934 0.09258174 -0.09208641 -0.08496723 -0.08404273
0.044825576 -0.01034003 0.045607824 -0.095109336 0.009876271 0.0981782 0.09726359 0.007993596
0.033001915 -0.053931348 0.10353281 -0.03719596 0.03166045 -0.08951614 0.081773676 0.101194285
-0.10014571 0.0027352967 0.045593068 0.113166824 -0.035716813 0.09885096 -0.11655305 -0.0008856138
0.099664405 -0.0082339775 0.045813575 -0.0557979 0.06619369 0.112232804 0.054264933 0.076181695
-0.014420842 0.12085496 0.109574944 -0.023548234 -0.09245594 0.03939058 0.11690791 0.011612387
-0.077229805 0.031562693 0.036087934 0.054404385 -0.0038109445 0.10321837 -0.07582274 0.09871955
-0.077110864 -0.021046747 -0.05360149 -0.007185898 -0.029865215 -0.108582936 -0.10244678 0.06272471
0.054737203 -0.11024244 0.10022047 0.014889886 0.07289263 0.122339346 0.04943973 -0.09896949
-0.04731691 0.074997276 -0.076917365 0.11424711 0.08701186 -0.09984197 0.031683747 -0.026443956
-0.08706629 0.027197944 0.07920493 0.0034127347 0.10405599 0.0338652 0.07469581 0.044702325
0.009655061 -0.00586645 0.0023650385 0.087870404 0.084861025 0.055041637 0.10880076 0.05180619
0.08136127 -0.061815616 0.036651433 -0.043844458 -0.048490237 -0.050240297 0.049729712 -0.11375344
0.047514576 0.007219963 0.0005780241 -0.016326018 -0.06654208 -0.10931617 -0.07679308 0.11718846
0.09486734 0.11888451 -0.099693 -0.04805831 -0.09640569 -0.034763824 -0.07237122 0.022828544
0.06429049 0.061850823 -0.012469714 -0.04549751 -0.114424154 -0.06384411 0.10660218 -0.06676972
0.0978684 -0.035536047 0.044418976 -0.1209755 -0.07449589 -0.03709662 0.07639265 -0.03626571
0.09635895 0.04940204 0.11277144 -0.114090666 0.059194095 0.026339898 0.04356873 -0.10733678
0.10939519 0.021745926 0.049115725 0.030692862 0.06167668 -0.09455588 -0.063640006 -0.033916924
0.112362444 -0.05427263 -0.11689748 0.11755898 -0.00520187 -0.10304862 -0.0010383195 0.10056817
-0.10832086 -0.058176618 0.07215895 0.0385751 -0.034611534 0.045217905 -0.053860728 0.12340542
-0.034235135 0.098875895 0.12024545 0.07594933 -0.06482635 0.12301862 0.084647745 -0.006941435
-0.025618518 0.083872244 0.08345994 -0.12563796 -0.06181267 0.10023306 -0.018414132 0.06914318

bias_ih_l0 f4 [192]
00000000: 9105 2c3b b38b 873d c156 91bd bc43 963d
00000010: a01c 063d f5a4 39bc b6de be3d dfd4 303d
00000020: 30a5 983d 82aa a63d 8004 2dbd cb1e f03d
00000030: 7db7 973d 09be 41bb ceea 95bd 169d 463d
00000040: 1604 723d 6254 e9bb cc5a 85bd c290 873d
00000050: f6aa ff3d f119 973c 58c2 bfbd 283b 8b3d
00000060: 98a5 00be c4ed cabd 9c3a 7abd f4bd 42bc
00000070: c04d c43d a30e be3d e173 273c f9d4 283c
00000080: 848d 59bd d432 9cbd de39 df3d d457 9bbd
00000090: 8de4 073d 5751 74bd d328 843d ded3 1cbd
000000a0: e86a c9bc e5eb ecbd c809 0e3d 440e 903d
000000b0: b6d2 e83d 7493 023d e216 a23d a5f5 e1bd
000000c0: 39b7 c8bd 075e 973d e748 98bd f60e debd
000000d0: 80df e33b 1fe6 e83c 9bbe 33bd d121 e2bd
000000e0: b737 a4bd 3409 193d e31d a53a 4e38 733c
000000f0: ad21 633c de78 cf3d 6560 bfbc 2455 d2bd
00000100: 9417 9dbc b9bb dfbc caa1 8a3c a8dc c83d
00000110: 1e21 6a3d 2ea5 e83d 487d 24bc a12c b73d
00000120: a906 ad3c cd3b 70bd 6b91 95bd d1f9 f2bb
00000130: 25fb 2ebd a91b edbd 82e5 bcbd 84b2 ecbd
00000140: 36b9 ea3d 4c3a 8ebd c468 69bd 30ae 85bc
00000150: 1622 c73d 4fcc 95bd cdee 3a3d 77e2 ad3d
00000160: aa84 bcbd 4795 983d f0b4 2c3d e8df f7ba
00000170: 9e0c 373c a2f4 bc3d eb99 e63d a961 2abd
00000180: 612d e2bd 013f b7bd 18c7 e939 b8a2 ac3d
00000190: 0b22 cfbc efd0 883d d93c 883c 0e8d 9dbc
000001a0: 3e72 013e 2773 393d 973b 9a3d 7dd5 d23d
000001b0: 0eba a2bb 5a16 863c 563d 543d 5fab 3ebd
000001c0: cfdc c83d 357d 29bd d65c 943c 54fb d6bd
000001d0: a108 7dbd 1837 46bd 8f2d 98bd a002 dd3d
000001e0: e230 013e 82ac 1dbd 2031 57bd b679 90bd
000001f0: b68b 79bd a9f4 a13d 18ad df3d e274 96bd
00000200: c79b cf3d acf9 9dbd 8303 9d3c d7a6 89ba
00000210: 5336 943d 13b4 fabd 74df 80bd 0f46 f53d
00000220: 53da cb3d 6cd2 e13d 3008 ec3d dacc f23d
00000230: 9e6b 52bc 93f5 bdbd e570 fb3d 38cb 21bd
00000240: dbe6 b33c 3a86 133d e4ce cf3c d411 633d
00000250: 471e c8bd 12fe a0bd 18b8 0bbd bc3b 963c
00000260: 1f92 d53d 80fa fa3c 5b3f 76bd 63ef c23d
00000270: 5def 02bd 7629 f33d 6e7d b23d f316 7c3d
00000280: 08ed f1bd 9b6c c9bd ad37 c8bd 8547 d7bd
00000290: ab4b a7bd c9cf 77bd e9f0 a03d 6a2d 813d
000002a0: 0633 99bd f039 9b3d 8613 4a3d ebb6 f7bd
000002b0: c9eb 03bd fb66 a33d fb5b 57bc 57c7 ebbd
000002c0: 1929 ba3c 7ba8 403a 83a7 29bd 84e3 c73d
000002d0: e4ea ff3d faf4 cd3d 81ce 593d 0e5c ac3d
000002e0: cc84 e83d 9119 57ba cad8 e83d db39 b1bc
000002f0: 2344 d5bd 7145 ea3b c426 b13d d88e c63d
0.0026248435 0.066184424 -0.07096625 0.07337138 0.032742143 -0.011330833 0.093198225 0.04317176
0.07453382 0.081379905 -0.04224062 0.11724623 0.074080445 -0.0029562733 -0.07320176 0.048489653
0.059085928 -0.007120655 -0.06511459 0.06619407 0.1248378 0.018444987 -0.0936324 0.067983925
-0.12563169 -0.099086314 -0.06109105 -0.011886109 0.09585142 0.092801355 0.010220499 0.010304683
-0.053113475 -0.07626882 0.10899709 -0.07585111 0.033176947 -0.059647884 0.06453099 -0.03828799
-0.02458711 -0.11568431 0.034677297 0.07033971 0.11368315 0.031878904 0.07914521 -0.11033181
-0.09800572 0.07390981 -0.0743578 -0.10842697 0.0069541335 0.028430043 -0.043882947 -0.11041606
-0.08018439 0.037362292 0.0012597408 0.014844967 0.013863009 0.101304755 -0.023361394 -0.102701455
-0.019176282 -0.027311193 0.01692285 0.09807712 0.05716049 0.113596305 -0.010039635 0.08944059
0.02112134 -0.05865078 -0.07303127 -0.0074150343 -0.04271998 -0.115775414 -0.09223463 -0.11557487
0.114611074 -0.06944713 -0.056984678 -0.01631841 0.09723298 -0.073143594 0.045637894 0.0849046
-0.09204991 0.074503474 0.042164743 -0.0018911334 0.011172442 0.092263475 0.11259826 -0.041597042
-0.110438116 -0.08947564 0.0004458956 0.08429474 -0.025284788 0.06680476 0.016630577 -0.0192323
0.12641236 0.045275833 0.07530897 0.10294626 -0.004966027 0.01636808 0.051816307 -0.04655015
0.09807741 -0.041379172 0.018110674 -0.10497156 -0.061775807 -0.048392385 -0.074305646 0.10791516
0.12616304 -0.038494594 -0.052537084 -0.070544645 -0.060924254 0.07907993 0.10921687 -0.073465124
0.10137134 -0.07713637 0.019166714 -0.0010501993 0.07236924 -0.12241378 -0.0629262 0.11976253
0.099537514 0.11026463 0.11524999 0.118554786 -0.012843041 -0.09275355 0.12277392 -0.039500445
0.021960666 0.03601668 0.025367208 0.055436924 -0.097714 -0.0786096 -0.034111112 0.01833903
0.10428261 0.030637026 -0.060119014 0.09518316 -0.031966556 0.118731424 0.0871533 0.061545324
-0.11812788 -0.09835168 -0.09776244 -0.10511688 -0.081687294 -0.060500894 0.0785845 0.0630749
-0.07480435 0.0757941 0.049335025 -0.12095436 -0.032207284 0.07978626 -0.013144488 -0.115126304
0.022724675 0.00073493243 -0.041419517 0.09760192 0.12495974 0.10056491 0.053175453 0.084159955
0.11353454 -0.0008205409 0.11369474 -0.021634033 -0.10413387 0.0071493913 0.08649972 0.09695214

bias_hh_l0 f4 [192]
00000000: 07dc f8bd e734 823d 7fe3 74bc abbb df3c
00000010: 01aa f1bb 1bb1 893d 08bb c4bd 5300 e23d
00000020: 8b54 0a3d de37 3fbd e225 bc3d fb7f 85bd
00000030: ef3a cd3d 8904 86ba 6ec7 703c fd70 3d3c
00000040: 5649 13bd 0bc2 653d be98 d1bd 1695 5b3d
00000050: d870 9c3d ddff f4bd 0af3 3a3d 2c06 34bd
00000060: 8508 263b 70ad 163c 7479 6f3d 3f15 b4bd
00000070: 3c82 893d 6806 5b3c 50fe 753c 6a70 283d
00000080: 2840 4cbd 67ac 13bd 8bac d0bc 85f9 b73c
00000090: 0690 aabd 4e67 743c 7f33 9bba 9115 8a3d
000000a0: 38ec 8dbd dbb0 193d efac 723c 65b9 7eba
000000b0: 5ef3 943d 6af0 f2bd 1929 4ebd dd8d c8bd
000000c0: bf2d b43d af29 4a3a 1d3d 3abc 68e5 c0bd
000000d0: da99 8f3d 2d8c d8bd 79d8 9ebd 7b0e d5bd
000000e0: e20f d5ba a0f8 903a 81ea e13d f2b4 09bc
000000f0: 8bd6 f5bd b2bf 91bd 539a 9c3d 3c88 2bbd
00000100: c494 f6bc dcd3 063c 9068 d93d abdd 4bbd
00000110: ced9 673d a5e1 cfbc 605a ecbd 635c c73d
00000120: 24cb e2bd 01de c63c 4faf 053d 3738 453d
00000130: 3ccd ce3d fdb7 bbbd 007c acbd b0e3 4d3c
00000140: 12c5 49bd b676 e23d 6d91 b93d 85f3 02bd
00000150: 42f7 893b 1444 92bc f4b4 c5bd 253c 943d
00000160: 4e9b ba3d c2ed 40bd d01b 56bc ab19 ce3d
00000170: c112 aebc b29e a8bd ce9d 183c a140 d83b
00000180: 045f 6f3d 45e5 abbd 1730 0dbc 5884 f93d
00000190: 5d4d d33c bf3c 953d 0094 e6bc 7cc2 133d
000001a0: ebae 753b 37c5 1c3d 7e5e 663d d009 e4bc
000001b0: 59ac bf3d ffb0 3cbd 6e17 a4bd 6588 99bd
000001c0: 891b aebc 810f 29bd a952 3a3a 963c 74bb
000001d0: aa10 823d 8cae 1cbd c3e8 3ebb 1e98 b6bd
000001e0: e821 a03d d8d3 933d c8df 96bc 764c 88bd
000001f0: 6581 033d 0b80 c53d 9a38 f3bd 3c71 883d
00000200: f7ee 1fbd 8bf8 963b 95a2 083c 614c 89bd
00000210: 9b5a f7bd 793d b6bd bfd1 123d 9db0 c53d
00000220: fbcb adbd d3fb f7bd 0460 e73d 0e4f cf3d
00000230: 541c df3d 267f 42bd 4b96 1e3d 4425 bf3d
00000240: 214e ad3d 32cf 9abd 03be eabd f065 cc3d
00000250: 3b51 b5bd 92de bd3d cde6 ebbd 1b66 b13d
00000260: 50cf fabd 7aa5 58bd 85e0 d23d 1a1c a7bd
00000270: 1fdb 263d 2146 8cbc 4489 10bd 902b 9cbd
00000280: bae7 263d bd78 9b3c 7a3f 97bb dfff bfbc
00000290: bc33 f8bd 6acc c43d 1f70 9abd f4cf c6bd
000002a0: 0f42 a63c ff56 563d 50f7 cd3d af65 d5bd
000002b0: 5d2b ae3d 16f7 d2bd 9ff5 5ebd 0153 3c3c
000002c0: 78de c33c 018a f4bc 90bd d6bd fb01 c43d
000002d0: 1b5f 60bd 0ddd adbd 3144 13bd a786 3ebd
000002e0: 1433 76bd 7e87 e1bd 979d 44bd 0beb d7bd
000002f0: e591 d6bd e073 fcbb e129 cb3d f32a 6e3d
-0.12151342 0.063577466 -0.014946817 0.027311167 -0.0073750024 0.06723233 -0.09605986 0.11035218
0.033772033 -0.04668414 0.09186913 -0.06518551 0.10021006 -0.001022474 0.014695985 0.011562583
-0.03595861 0.056093257 -0.102342114 0.053608976 0.07638711 -0.119628645 0.045641936 -0.0439512
0.0025334668 0.009196624 0.058465436 -0.08793115 0.06714293 0.013368227 0.015014246 0.04112283
-0.04986587 -0.036053088 -0.0254729 0.022457847 -0.083282515 0.014917208 -0.0011840909 0.06742395
-0.06929821 0.03752218 0.014811738 -0.0009716957 0.07272981 -0.118622616 -0.050332163 -0.09792683
0.08797788 0.00077119 -0.01136711 -0.09418756 0.07011767 -0.105736114 -0.07756133 -0.104031526
-0.0016255344 0.0011060424 0.11031056 -0.008404957 -0.120038114 -0.07116641 0.076466225 -0.04187797
-0.030100234 0.008229222 0.10615647 -0.049771946 0.0566042 -0.02537615 -0.11540675 0.09734418
-0.11073902 0.024275782 0.03263789 0.048149314 0.10097739 -0.09165952 -0.084220886 0.012566492
-0.049260207 0.110577986 0.09060941 -0.03197052 0.0042103836 -0.017854728 -0.09653655 0.07238034
0.09111653 -0.047101744 -0.013068154 0.100634895 -0.021249177 -0.08233394 0.009314967 0.0065995012
0.058440223 -0.08393339 -0.008617423 0.12183446 0.025793726 0.07286977 -0.028146744 0.036074147
0.0037488292 0.038274016 0.05624246 -0.02783671 0.093590446 -0.046067234 -0.08012281 -0.07496718
-0.021253364 -0.04127455 0.0007107654 -0.0037267557 0.06350835 -0.0382524 -0.0029130436 -0.08915733
0.07818967 0.0721814 -0.018417254 -0.06655209 0.032105822 0.09643563 -0.1187603 0.06662223
-0.039046254 0.0046072653 0.008339544 -0.06704021 -0.120778285 -0.08898444 0.03584456 0.09652827
-0.08486172 -0.121085785 0.112976104 0.101225 0.10894075 -0.04748454 0.03871755 0.0933328
0.084621675 -0.075590506 -0.11462023 0.099803805 -0.08853384 0.092709675 -0.11518631 0.08662053
-0.12246573 -0.052892186 0.1029673 -0.08159657 0.040736314 -0.017123284 -0.035287157 -0.076254964
0.040748335 0.018978471 -0.0046157213 -0.023437439 -0.121192425 0.096093014 -0.07540917 -0.09707633
0.020295171 0.05232906 0.10056937 -0.10419785 0.08504365 -0.10301034 -0.05443346 0.011494399
0.023909792 -0.029850962 -0.10485375 0.0957069 -0.0547782 -0.08489428 -0.035953704 -0.046515133
-0.060107306 -0.11012171 -0.048001852 -0.10542878 -0.10477046 -0.007704243 0.09920097 0.05814643

weight f4 [2, 64]
00000000: b19e cdbd a517 903d 28ed e3bc c948 813d
00000010: 7222 f63d 8a22 c03d 76d1 3a3d 6d5c dcbd
00000020: dc6f dc3d c983 b1bd af02 ccbd d51e a23d
00000030: 06bc 963d 4cd3 8cbd 71b0 f33c 3fdb a7bd
00000040: 715d b23c 3328 f93c f670 9a3d ab77 dc3d
00000050: 0df0 debd 5c44 babd 1460 89bd db17 95bc
00000060: d7bc 1a3d 4a0d d73d 212e ad3d 72a0 fc3c
00000070: f492 273d 0117 f63d 1762 4cbd 5ae5 0ebc
00000080: c594 f93d 0645 4b3d 6468 37bd 9056 e43d
00000090: 74b1 cc3d 44c9 4a3d c129 eb3d 0f06 37bd
000000a0: 0bf2 bdbd 0a49 3c3c 586b ebbc 81cd d4bd
000000b0: f3dc 29bb aaf9 51bc c6a6 5c3d df8d 21bc
000000c0: 8f6e 103d 7147 30bd 7501 1dbd 3470 a63d
000000d0: 2fc5 d83b 5656 a6bd 0173 c2bb d548 58bd
000000e0: 6b75 6abd b943 a2bd 5905 92bd c316 7dbd
000000f0: 9ac3 003b 352d b1bd 1995 fbbd 91b4 ddbd
00000100: a779 aabd 7beb 9ebd 4216 b83d 38de afbc
00000110: dc1f 503c ac51 7c3b 731c 323a 7172 3d3d
00000120: 5687 f73c dabc da3c ac2b ddb8 33c7 98bd
00000130: 97fe 2abd 6099 e13d c12f fabc d925 68bd
00000140: b17d 263d 9b07 42bd 2340 af3c 9944 f5bd
00000150: 6939 a1bd ba50 d1bd 6a95 f6bc 472b 14bd
00000160: 0584 65bc 1a74 cabd 93f2 85bd 9784 143d
00000170: 202b 3e3d 6d56 c33d 31bc 5dbd a80b 30bd
00000180: bdeb dabd 8fae c9bc f925 c43c bee5 c43c
00000190: d225 95bd ec48 2d3d 3831 4d3d d1fe 2cbd
000001a0: 72bb 0bbd 4640 50bd 7135 5b3d c1f1 fe3b
000001b0: d128 f1bd 929d 3a3d 1413 e3bd 9701 f2bd
000001c0: 04b1 fabd 56ed 90bd 2bed 92bd b6f0 8dbd
000001d0: a04c 6f3b 65ac 0aba ba2a 3d3d 5137 91bd
000001e0: 2e2a a13d 7d50 cb3d ed17 81bd 4868 adbd
000001f0: 13b2 d9bd 650b bbbd 8219 50bd 109b 0d3d
-0.100400336 0.0703576 -0.027823046 0.06312711 0.12018289 0.09381588 0.045609914 -0.10759816
0.10763523 -0.08667714 -0.09961449 0.07916037 0.073600814 -0.06876239 0.02974722 -0.08196115
0.021773072 0.030414676 0.07541077 0.10765012 -0.1088563 -0.0909507 -0.067077786 -0.018199852
0.037777748 0.105005816 0.08456064 0.030838225 0.04091163 0.120161064 -0.049898233 -0.008721674
0.12186579 0.049626373 -0.04477729 0.11149323 0.09994784 0.049508348 0.11482573 -0.044683512
-0.09274682 0.011492023 -0.028737709 -0.10390759 -0.002591905 -0.012815872 0.053869985 -0.009860485
0.035261687 -0.04303688 -0.038331468 0.0812687 0.006615303 -0.08121936 -0.0059341197 -0.052803833
-0.057240885 -0.07923073 -0.07129926 -0.061789285 0.0019647838 -0.08651201 -0.122842975 -0.10825456
-0.083239846 -0.07759758 0.0898862 -0.021468267 0.012702908 0.0038500829 0.00067944004 0.046251718
0.0302159 0.02670138 -0.00010546236 -0.07459869 -0.041746702 0.11015582 -0.030540349 -0.05667672
0.040647212 -0.047370534 0.021392887 -0.119759746 -0.07872278 -0.102204755 -0.030100543 -0.036174085
-0.014008527 -0.09885426 -0.06540408 0.03625926 0.046427846 0.09537969 -0.05413455 -0.042979866
-0.10689495 -0.024619369 0.023943888 0.02403533 -0.07282604 0.04230587 0.050095767 -0.0422352
-0.03411431 -0.050842546 0.053517763 0.007780284 -0.11775363 0.045560427 -0.11087623 -0.118167095
-0.12240794 -0.07076518 -0.071741425 -0.069306776 0.0036514178 -0.0005289971 0.046183325 -0.07090629
0.07869373 0.09927461 -0.063033916 -0.08467156 -0.10629668 -0.09133033 -0.050805576 0.034571707

bias f4 [2]
00000000: 4007 563d 9cdb 0d3d
0.052253008 0.034633264

weight_ih_l0 f4 [192, 66]
00000000: 4632 aebd fd42 bb3d e865 0cbd 7eb8 463d
00000010: 55c5 a8bd b184 4abd e733 2dbd 38a9 1dbb
00000020: 3351 a3bd f1fb 843d 32a4 9dbb 8a3b d5bd
00000030: d5e2 98bd 7ef1 05bd 6a4e 71bd 914c ca3d
00000040: 59a7 5dbc 12ed 54bd bb83 21bd ed12 cdbd
00000050: a07f 2dbc a2c8 af3d 19d7 fdbd 0a36 3cbd
00000060: 4b96 733d 224c 60bc 6c98 99bd 484a 8d3d
00000070: 56b8 a83c 1ba1 5b3d b04b d73c e21f b4bd
00000080: 71c2 dd3c b53a 533d 4c50 a83d 0609 e73c
00000090: a3dd 403c e268 003e cb26 9b3d 3f13 b2bd
000000a0: 519e 6c3d ec93 8c3d cfdf 383d 2b4d ea3d
000000b0: 9b43 093d b31a 213d 73fd 6b3d bdb0 d4bc
000000c0: 2c4e cd3c d857 ed3d 1510 e2bd 5f1d dd3d
000000d0: 2d04 7ebd 94b0 b13d 1684 cdbd 0b07 d63d
000000e0: ccf8 cf3c d6bf dd3d 4e40 ac3d 1b97 de3d
000000f0: 7f46 c33d 798d 113b b536 9a3d cb6b a2bc
00000100: 6649 b0bd fb15 01bd 9a3a c4bd 4ddc c23d
00000110: ab82 f73d 07c2 eabd 73e7 83bd c590 a4bd
00000120: a18a b73d bef5 8e3d 56bb 403d a882 493c
00000130: 7dfe d9bd bee9 efbd e918 aabd 6be2 bf3d
00000140: 3d06 4bbd 07f9 e8bb 435b d13d f42a 1d3d
00000150: ab4a c53c ee14 e43c bc8d 78bd b4a1 e1bd
00000160: f683 64bd 72be fb3d 858f 8abc a6b0 2fbd
00000170: 8fd6 aebd da88 a93c 73b5 bc3c 03b9 093e
00000180: 8936 fd3d 3d2a 3d3c e678 833d c906 e73c
00000190: 5e43 023d fedd 2ebd 3db0 c5bc 97db 683d
000001a0: 526e d4bc e9bb e2bd 83b1 763d fa74 3a3d
000001b0: f9bd a3bd 0b57 79bd 422c 273d ad68 8ebd
000001c0: 5924 c33d 8dbc 31bd 5449 023e e089 67bc
000001d0: 3fb7 82bd a15c 95bd f441 f33d 9184 c73d
000001e0: 2363 0f3e 516b da3a b508 db3c 0508 5cbd
000001f0: cebd 473d e301 0abe 4108 ebbd 0c8a 963b
00000200: 87ae b13d 415e a13d 108a fdbc 47a8 d53d
00000210: 9fb9 273b 31c1 30bd 244e 633d 2c54 06bd
00000220: 66dc bcbd 0ac0 023d 74ef 993d d5cd d63d
00000230: 7414 f43d 335e adbc 02bc d1bd 1a9b 48bd
00000240: 05b1 24bd 5376 0dbd a65d efbd c88f f1bc
00000250: 140d 46bd dc62 473d 4aa4 d0ba 9e2c 17bd
00000260: 17e4 eb3d e140 8fba c565 c43c 83d2 f5bd
00000270: 51b6 553d 1b26 4dbd 492a d43d 7861 793d
00000280: 4502 ff3d 0a53 3bbd b1dd e83d b69c ff3c
00000290: ce73 3abd 0be8 88bd f069 d33d 32a9 d93d
000002a0: 07ed ad3c e650 b63d fd83 62bd be4f d13c
000002b0: 5ede 3a3d 73fc 75bd 3f5d 9d3a b579 42bc
000002c0: 7394 ad39 68c3 dfbd 690a ec3c 035a e9bc
000002d0: 64c5 843d ed4c ebbd b5de 9d3d 3acc 4bbd
000002e0: 0091 e83d 142c 203d b3d0 b4bd be28 313d
000002f0: f67f f2bd ba19 c9bd 174c 883d 56f2 e1bc
00000300: 34f3 f33d b1b7 e0bc 68a2 6a3c a38b 07be
00000310: e1be eabd 1079 9b3d d900 abbb 453f 263d
00000320: 09b3 94bd 60db 27bc e2ec ab3d 116e 0cbd
00000330: eb47 12bd 5248 c0bc 8621 cf3d 0168 953d
00000340: a17b 793d 388e 0f3c da9a 693d e79c b93d
00000350: 72ba 4cbd 5fee 1a3d 9d82 8b3d 84e9 a13d
00000360: ba1e 323d 65fb cebd 927f 97bd 8870 eb3d
00000370: d5a3 a2bd 19ba 3f3c 0500 02be a812 f33d
00000380: 53db dd3d 24d2 c0bd 7c59 813d b4d2 74bd
00000390: 1866 f1bc 25bb 313c dc69 3dbd d748 97bc
000003a0: 3443 003e 8d4e f63d 2d20 1a3d efda a33d
000003b0: 0ca7 8abb 82bd c2bc 60b2 95bc 29ad 17bd
000003c0: d40a e93d ad8a abbc 0979 ba3d e64b 0d3e
000003d0: bf25 b43a b10d e53d 0429 cb3d 5738 82bc
000003e0: eebd bfbc d7fa eabd 0324 4c3d 5891 e13d
000003f0: c76e 073e d0c0 dbbd a910 fd3d 5d0c 1b3d
-0.08505683 0.091436364 -0.034276873 0.04851579 -0.08240763 -0.04944295 -0.042285826 -0.002405716
-0.07974472 0.064933665 -0.0048108334 -0.10411747 -0.0746514 -0.032701008 -0.058912672 0.09877885
-0.013528668 -0.0519839 -0.03943227 -0.100133754 -0.01058951 0.085831895 -0.12394542 -0.045949973
0.059469502 -0.0136900265 -0.07499775 0.06898934 0.02059571 0.05362044 0.026281208 -0.08795144
0.027070256 0.05156966 0.082184404 0.028202545 0.011771592 0.1254001 0.075757585 -0.08695077
0.05776817 0.06864151 0.045135316 0.114405 0.03351174 0.039332103 0.057614755 -0.025963182
0.02506169 0.115890205 -0.11038224 0.10796618 -0.0620157 0.08676258 -0.10034959 0.10450562
0.02538719 0.108276054 0.08410703 0.10868665 0.095349304 0.0022209568 0.07529966 -0.01982679
-0.0860775 -0.031515103 -0.0958149 0.09514675 0.1208547 -0.11462789 -0.0644063 -0.08035425
0.08961988 0.06980465 0.047053657 0.012299217 -0.10644243 -0.11714505 -0.083055325 0.09369358
-0.049566496 -0.0071097645 0.10222485 0.03837104 0.024083456 0.027842011 -0.060682043 -0.110171705
-0.05578991 0.12292184 -0.016914139 -0.042893074 -0.085370176 0.020695139 0.02303574 0.13449483
0.123639174 0.011545715 0.06419544 0.028201478 0.031802528 -0.042692177 -0.024131889 0.056850042
-0.025931511 -0.11070997 0.060227882 0.045521714 -0.07995219 -0.060874026 0.040813692 -0.06953559
0.09528417 -0.043392707 0.12723285 -0.014131993 -0.06382608 -0.07293058 0.11877814 0.09742082
0.14002661 0.0016664063 0.02673755 -0.053718586 0.048764996 -0.13477282 -0.11476184 0.004594093
0.086758666 0.07879306 -0.030949622 0.10432487 0.0025592817 -0.04315299 0.055494443 -0.032795116
-0.09221725 0.031921424 0.07516375 0.10488478 0.119179636 -0.021163082 -0.10240938 -0.04897604
-0.04020788 -0.03453667 -0.11687784 -0.029487506 -0.048352316 0.048678264 -0.0015918103 -0.036907785
0.11518114 -0.001092937 0.023974309 -0.120030425 0.052175824 -0.05008517 0.10359628 0.06088397
0.12451605 -0.04573349 0.11370409 0.031202655 -0.045520596 -0.06684884 0.1032294 0.106279746
0.021231188 0.08902149 -0.055301655 0.02555072 0.045622222 -0.060055207 0.0012005939 -0.0118698375
0.00033107735 -0.10925943 0.028813558 -0.028485304 0.06482962 -0.11489282 0.077084936 -0.049755313
0.113557816 0.039104536 -0.08828869 0.043251745 -0.11840813 -0.0981936 0.06655138 -0.027581375
0.11911622 -0.02743134 0.014320947 -0.13236861 -0.114621885 0.0759145 -0.005218607 0.040587682
-0.07260711 -0.010245174 0.08394791 -0.034284655 -0.035713118 -0.023471985 0.10113816 0.07295228
0.060908917 0.008761935 0.057032444 0.0906313 -0.049982496 0.037824985 0.06812022 0.07905868
0.043486334 -0.101065435 -0.07397379 0.11496073 -0.07941405 0.011702084 -0.1269532 0.11868793
0.108328484 -0.09415081 0.06315896 -0.059771255 -0.029467627 0.010847841 -0.046243533 -0.01846735
0.12525636 0.12026701 0.03762834 0.08000743 -0.0042313393 -0.023772005 -0.018273532 -0.037030373
0.113790184 -0.02094015 0.09105117 0.13798484 0.0013744159 0.11184252 0.099199325 -0.015896006
-0.023405995 -0.11473625 0.04983903 0.1101405 0.13225852 -0.107301354 0.12356693 0.037853587

weight_hh_l0 f4 [192, 64]
00000000: 9064 4d3d 74e4 a7bd 9bf3 d03d dbae a73d
00000010: 6d8c f23c fb2d 923d 417f 29bd e109 633d
00000020: ad53 b63d fc67 e13c 8e54 773d 2833 933d
00000030: 122d d9bd c99b 37bc 0665 b1bd 561e d6bd
00000040: 8f5d 63bc 815e 83bd 1c6a 0abe 2916 593d
00000050: 8dea 3f3c be24 833d 283e d7bd 931a 653c
00000060: 7972 8b3d f691 f43c e39a aebd cbac 453d
00000070: 92f0 77bc b1ea a2bd f951 823d 5dc3 c9bd
00000080: e465 dcbd 6996 29bd 09d9 a83d 1387 b2bd
00000090: 34b6 693d d015 043e 83b9 c73d c8b7 853d
000000a0: a6a9 55bd 3e27 433d 0013 bbbd 2d66 0d3d
000000b0: c1d1 6cbd 6224 eabc da9d efbd d95a ab3c
000000c0: f955 e73c 92df 003e 59a3 f43d 66ca 873d
000000d0: e90d d63c ca2d bc3c 68db e43c 63b2 5fbc
000000e0: 78c2 963d 4e22 de3d 8aed acbd 4975 babd
000000f0: e138 92bc 9f6a ad3d aada 45bd 0b1c d2bd
00000100: c054 073e 97d0 bd3c 5cdd 313c b9fb efbd
00000110: c100 82bd 7af7 d93b 3215 debc e1b1 3c3d
00000120: b1e8 28ba 575e b4bd 802f 7b3d ba67 f4bc
00000130: fd20 72bd 6e45 323d 8406 ddbd 0bea 95bd
00000140: 15f1 763d 06e7 a33d 9569 193d 2c43 cdbd
00000150: f7cb 443c 143f 2abd 18e2 df3d 53ec af3d
00000160: 9c7f e23c 1595 573d 5525 d53d f1cc f6bb
00000170: 5ff3 393d 7c12 813d 0524 acbd e4af 903d
00000180: f292 c33d 58c1 b53d 8425 f43d 2b9b 27bc
00000190: ce4a b93d 2ea9 f73d 1a4a 2d3d ab38 debd
000001a0: a248 05bd b37c 51bd ce56 ca3d e18b bebc
000001b0: 6923 23bd 2e11 073e 9738 8a3d 4d51 01be
000001c0: 1519 573d ed15 5dbd 2253 71bd d66d 9cbd
000001d0: bcee 5b3d 5d33 5abd ef13 e839 8bd5 c8bc
000001e0: 4faf 7cbd 9ec0 aabd 183c e9bc 2092 863d
000001f0: 9cdc 8a3d 7dc0 0abe 98d9 f43c dcf3 003e
00000200: e539 cdbc 4d8c 783c f1cc 753d 6053 863d
00000210: ed11 b2bd 4b55 15bd 79ed 0cbd bd82 c03d
00000220: 596a adbb ef5b c43d 043a bb3d 255c a53d
00000230: 3f5d 9dbd 7d64 b93d d683 c53d 6157 ecbd
00000240: 190f e9bd 323d e5bd 54ee 24bd 89b0 39bd
00000250: 9c8f a23d 6bce 8ebd d87b 933c d46f 97bd
00000260: 3df4 edbd 4c34 d03c af22 163c 19c5 abbc
00000270: e5cc e43d ba13 ad3d ac59 e93d 983c 8cbd
00000280: d701 a0bd 6d5d d8bd 3b63 c53c 1894 1abd
00000290: ebcc 003d 30c2 71bc b736 85bd 7a1b 1ebc
000002a0: 28ff 4bbd 011d eb3d 0305 18bc 7252 e7bc
000002b0: 522b 3c3d 3139 89bd 6f62 bfbd 7947 c93d
000002c0: 2de1 9b3d a3ce fdbd c205 2d3b f497 ed3d
000002d0: 55cb 103d 5a0b c43c f30b 993d 3dc6 0a3c
000002e0: 7a35 503d c205 573d 4be6 9abd 894b 23bd
000002f0: 9642 76bd edd2 b7bd c5fa 7abd 0f07 c2bd
00000300: 4319 e03d 6bda 143d a89a 2f3d 28e1 e9bc
00000310: d3f7 0a3c c002 503d db2d f8bd 4954 883d
00000320: c8fe 64bd a7b3 413c a3b1 fd3d 2708 0e3d
00000330: 9745 2e3c 9dba 27bc 215a 0b3e f9cb c4bd
00000340: 8daa 493d db61 c13d ea9d c5bd 382b e5bd
00000350: 9c21 cabd 8dc7 7f3c bcd3 95bd 7225 063d
00000360: 820f 7f3d 1632 d63d 76ef 283a e56a ac3d
00000370: b0b0 183d d25a c03d aa16 933d 18da b13d
00000380: 0139 d23d b556 d03a 8db4 c9bd 5376 d43c
00000390: 8c11 113c f973 ad3d 3bd6 04be 6de0 dbbd
000003a0: 06a5 fcbd e5f9 433d 1695 26bd a0b3 a03c
000003b0: 0308 d8bb ef88 dcbd 527e debd 5bbb 993d
000003c0: a0a4 e63d 65ff 9d3b db91 77bd 72d4 8e3d
000003d0: edaf 163c e91c c63d 8cd2 aa3d 25f2 393d
000003e0: 6b4f c8bc a205 44bd 1613 e6bd c1ba d1bb
000003f0: a3aa 03bd 975d 07be 4da1 5d3d 312f 903c
0.050144732 -0.08197871 0.10202714 0.08187648 0.029607976 0.07137676 -0.041381124 0.055429343
0.08902679 0.027515404 0.060383372 0.07187492 -0.106042996 -0.011206576 -0.08661847 -0.10455005
-0.013877287 -0.064145096 -0.1351704 0.05299965 0.011713636 0.064034924 -0.10509902 0.013983387
0.06808943 0.029854756 -0.08525636 0.04826049 -0.01513304 -0.0795492 0.06363291 -0.09851716
-0.107616216 -0.041403208 0.08244521 -0.087171696 0.057058528 0.12898946 0.097521804 0.06529194
-0.052163742 0.047644846 -0.09134483 0.03452127 -0.057817224 -0.028581802 -0.1170003 0.020917343
0.028239237 0.12585285 0.119452186 0.06630401 0.02612968 0.022971053 0.027936652 -0.013653371
0.07361311 0.10846387 -0.084437445 -0.091044016 -0.017849388 0.08467602 -0.048304237 -0.10259255
0.13215923 0.023170752 0.010855999 -0.11717934 -0.063478 0.006651816 -0.027109716 0.046068076
-0.0006443365 -0.088070564 0.061324596 -0.029834617 -0.05911349 0.043523245 -0.107922584 -0.07320031
0.060288507 0.080030486 0.037454206 -0.10022578 0.01201152 -0.041564062 0.10931796 0.08589997
0.02764874 0.05263241 0.10407511 -0.007531755 0.045398112 0.06302354 -0.08405308 0.070647985
0.09549512 0.08874768 0.11921218 -0.010229866 0.09047471 0.12092815 0.042306997 -0.10850652
-0.03253997 -0.051144313 0.09879838 -0.023260059 -0.03982869 0.13190147 0.06749075 -0.1262867
0.052514154 -0.05397599 -0.058917172 -0.07638137 0.05369447 -0.05327164 0.0004426534 -0.024515888
-0.061690625 -0.0833752 -0.028471038 0.0657084 0.06780359 -0.13549991 0.029888913 0.12593025
-0.02505202 0.015170169 0.0600099 0.06558871 -0.08694825 -0.036458295 -0.03440616 0.09399936
-0.0052922186 0.095878474 0.09141925 0.08074216 -0.07683801 0.0905237 0.09644286 -0.11540104
-0.11379833 -0.11193313 -0.04026635 -0.045334373 0.079375476 -0.06972965 0.01800339 -0.073943764
-0.116188504 0.025415562 0.009163543 -0.020968007 0.11171893 0.08451028 0.11394057 -0.06847495
-0.07812851 -0.105646946 0.024095168 -0.03773889 0.031445425 -0.014755771 -0.06504577 -0.009650106
-0.049803883 0.114801414 -0.009278539 -0.028237555 0.04593975 -0.067003615 -0.093449466 0.098280855
0.07611308 -0.123929285 0.0026401137 0.116012484 0.035350163 0.023931194 0.07472982 0.008470115
0.05083225 0.052495725 -0.07563456 -0.039866958 -0.060122095 -0.08975778 -0.06127431 -0.094740026
0.10942318 0.036341112 0.0428721 -0.028549746 0.008481937 0.050783873 -0.12118121 0.06656701
-0.05590704 0.011822618 0.12387397 0.034675743 0.010636709 -0.010237363 0.136086 -0.09609217
0.049234916 0.094424926 -0.0964926 -0.11189884 -0.09869692 0.015611541 -0.07315776 0.032750554
0.06227065 0.10458772 0.0006444374 0.08418826 0.037277877 0.093923226 0.07182057 0.08684176
0.10264779 0.0015894981 -0.098488905 0.025935328 0.008854281 0.08469386 -0.12972347 -0.10736165
-0.12336163 0.04784574 -0.040669523 0.019616902 -0.006592752 -0.107683055 -0.108639374 0.07506438
0.112618685 0.004821705 -0.060441833 0.069741145 0.009197217 0.09673483 0.0834094 0.045396943
-0.024451932 -0.047856934 -0.11234109 -0.0064004366 -0.032145154 -0.13219295 0.054108907 0.017600628

bias_ih_l0 f4 [192]
00000000: 07ad debd b817 793b cce5 44bc 28dc 243d
00000010: 6d3f c53b 3aa0 00be 4d6d cebd 50e2 153c
00000020: 3401 0d3d 5272 71bd 2e99 873d ca84 39bd
00000030: 077d fb3a edbd 103e bb64 adbd 71c6 3cbd
00000040: e110 a13d 3056 9b3d ad0c 8c3c 0805 8abc
00000050: e5ce 7fbc f025 a23b 5353 013e 6bcc dd3c
00000060: b3bf d23c 6cbb e73d fd1b 8bbd b7cc f9bd
00000070: 1e1a cbbc a1af 19bc 5153 68b9 ec26 f3bd
00000080: 8eaf 833d e915 8fbd c44c abbd 0ee2 9f3d
00000090: 172e 95bd e7c8 d03c 4a35 c8bd 736c 9b3d
000000a0: 49ea a83c 79b2 8ebd dd6a d73d bf5f f83d
000000b0: 2e84 ddbd 0878 2dbd a94d 9bbd 8bfa af3b
000000c0: e97f cebd 261b 123d d77e 7a3d b220 113d
000000d0: f025 6d3d 05cf f93d aaba a4bd 0f5d 64bd
000000e0: 0672 ebbc e2bd c3bc 2eaf e93c d4cd 983d
000000f0: b7e1 c83d 96d1 14bd fb72 e03c e26d 153c
00000100: 4064 bb3d a0b5 243d c3d9 b13d cce9 a03c
00000110: b990 ee3b 646d 72bd 3154 1f3d b9c9 6dbc
00000120: 5bb5 153c be7c cf3d c251 05be 1b40 453d
00000130: 6b5f 393d 36cb 18bd a36c adbd 3aba aabd
00000140: aad4 9cbd aa34 4bbd 8b5d 743c 8ad0 383d
00000150: e873 2bbd 1ead 8f3d a68b b5bd 5d13 f93c
00000160: a80c c53d 0e5d 55bd cf59 703d c4b4 973d
00000170: 2a37 f53d fe25 e9bd c4c3 df3c 1fe4 b4bb
00000180: f90a b23d 5062 8cbd f65a fc3c d220 b53d
00000190: e18c dfbd 21b2 793d 6fb7 06be 6ca5 9a3d
000001a0: f61e 97bd 22fe 71bd 6689 0a3c e895 0bbd
000001b0: e5ba f1bd c551 793d 52ab 6d3d 780d 66bd
000001c0: dd64 b7bd d994 9fbd aaf3 dfbd 8602 d2bd
000001d0: 8326 d7bc 9f38 4f3d da7a 03be 58d7 1f3b
000001e0: 4ae5 1ebd 0613 6b3c ad5e 94bd 73c1 dbbd
000001f0: 2864 1f3d f74e d43c 97bf c839 4257 f5bc
00000200: a435 dcbd 9b8c d7bd 3f76 983d daa6 1fbc
00000210: ac51 3b3a 61f1 f1bd b60e 033e 3e53 c8bd
00000220: 0bcc 61bd 989c dd3d 3225 f7bd 4293 803d
00000230: 62ce ca3d ec24 733d 3b03 c93c 86f7 933c
00000240: de97 b63d a0d4 f73b 5a2d c43d cb1e df3d
00000250: 7cf9 003d 1801 e8bd f0b0 083e 12de 083e
00000260: c5ef d53d 6dc6 ee3c eebd 0dbd 164a d0bd
00000270: fe3c db3b ec82 c3bd 0267 b83b e363 a63d
00000280: 4588 8dbd 4da6 fd3c 21ec ad3d 130c 58bd
00000290: 866d 79bd 16bc a3bc 5c7c 053d 4590 a6bd
000002a0: 581f 25bd ce61 ca3d 6634 48bd a234 b93c
000002b0: b589 c03d 84b4 093d a6dc af3c 131e 3ebd
000002c0: c37b 653d 22f3 e23d 801e f4bd 8662 c13d
000002d0: bc96 c5bc 7195 8b3c 126f 233b 3168 013e
000002e0: 8755 3ebd b960 7f3b ef08 9b3c a53c da3c
000002f0: 3569 b8bb 00e8 e53d 4698 02be dfa2 9dbd
-0.10872846 0.0038008522 -0.0120176785 0.04024902 0.006019524 -0.12561122 -0.10079441 0.009148195
0.034424976 -0.058946915 0.066210136 -0.045292653 0.0019187041 0.14134951 -0.084664784 -0.046087686
0.078645475 0.07584798 0.017095888 -0.016848102 -0.015613292 0.00494837 0.12629442 0.027075013
0.025726175 0.11315045 -0.06792448 -0.121972494 -0.024792727 -0.009380252 -0.00022156282 -0.11872658
0.06429969 -0.06986601 -0.08364251 0.078067884 -0.072841816 0.025486423 -0.09775789 0.075890444
0.020619528 -0.06967635 0.105184294 0.12127637 -0.10816227 -0.0423508 -0.07583172 0.005370443
-0.10082991 0.035670422 0.06115612 0.03543157 0.05789751 0.12197689 -0.08043416 -0.05575281
-0.028740894 -0.023894254 0.028525915 0.074611336 0.09808677 -0.03633269 0.027398577 0.009120436
0.091499805 0.040212274 0.08684113 0.019642733 0.007280436 -0.059186354 0.03889865 -0.014513426
0.009137477 0.101312146 -0.1301947 0.04815684 0.045257013 -0.037303172 -0.084679864 -0.08336301
-0.0765775 -0.04961077 0.0149148805 0.045120753 -0.041858584 0.07015441 -0.088645265 0.030404741
0.096215546 -0.052090697 0.0586794 0.07407525 0.11973412 -0.113841996 0.027315028 -0.005520358
0.08693499 -0.06854689 0.030805092 0.088441506 -0.109155424 0.060960893 -0.13155912 0.07551083
-0.07378952 -0.05908025 0.00845561 -0.03407851 -0.118032254 0.060868997 0.058024712 -0.05616519
-0.08954785 -0.07792062 -0.10935147 -0.102543876 -0.026263481 0.050591107 -0.12839833 0.002438983
-0.038792886 0.014347797 -0.072446205 -0.10730257 0.038913876 0.02591656 0.00038289718 -0.029948834
-0.10752419 -0.10524865 0.07444429 -0.00974437 0.0007145654 -0.118136175 0.1279858 -0.09781502
-0.05512623 0.108208835 -0.12067641 0.06278087 0.09902646 0.059361383 0.024537673 0.018062364
0.08915685 0.0075631887 0.095789626 0.10894545 0.031487927 -0.113283336 0.13348746 0.13365963
0.10446123 0.029147351 -0.03460496 -0.10170381 0.0066906204 -0.09546456 0.005627514 0.08124521
-0.06910757 0.030963087 0.08492304 -0.05274589 -0.060895465 -0.019987147 0.0325893 -0.08132986
-0.040313095 0.09881936 -0.048878096 0.022608105 0.094012655 0.03361942 0.021467518 -0.0464154
0.05602623 0.1108153 -0.1191988 0.0944262 -0.024119727 0.017039033 0.002493803 0.12637402
-0.046468284 0.0038967563 0.018925158 0.026640246 -0.005627776 0.11225891 -0.127534 -0.07697081

bias_hh_l0 f4 [192]
00000000: 3b29 433b 4b40 963d 9de7 a5bd c748 bebd
00000010: a482 7b3d a3e3 eaba d92a 03bd d351 82bd
00000020: 6c54 a83b 3eb8 ca3c 94b8 6cbd ee46 b43c
00000030: 8793 bc3d 51a7 9b3d e92e e43d 9535 713d
00000040: 7564 ddbd b4d6 8abd 5061 bd3d cf1d b1bd
00000050: 9d5e 633d 987d 063e 45ad 2bbd 712d 97bd
00000060: d6c1 07be 4317 263d 60b7 cb3d 7187 b0bd
00000070: fe14 19bd daea a53d 44cf cbbd 4925 4f3d
00000080: 9a1a b6bc da0f c9bb ce6e a53d d9ca 34bc
00000090: 239b d53d b2be e73d 9c4b 013e b34a 013d
000000a0: 0969 adbd b785 a837 d30c e83d 2916 bdbd
000000b0: 84e9 a43d 130d cebd 3c52 043c 0d45 333d
000000c0: 1eb1 86bc 74e1 be3d 2514 48bd d241 f63d
000000d0: ee0a 5cbd 0923 c4bd 06af 313d 8a12 a73d
000000e0: 348e 0f3c a78d 8f3d aa46 2e3c bb40 a93a
000000f0: 8c35 3e3c de1f 6fbd 65c4 80bc ec15 b4bd
00000100: 62be 993d b4ff 7abd f172 e2bc d98f 92bd
00000110: f99b c8bc fa35 26bd 66fd 7f3d 920a 883d
00000120: 1899 96bd 7c50 9ebc 4585 0abe ef5c 42bc
00000130: daaf b23d 123a dbbd ff5b cf3d 0e8b 893d
00000140: 1970 063d 162c 8fbd 92bd c63d 3aa3 7cbd
00000150: 9a04 c63b 568a cfbd 4a3a afb9 8390 0f3d
00000160: 084b 2bbd e32a a63d b5f1 093d 0e80 4d3c
00000170: a791 bf3d bd19 b739 dbea 593d eb52 cabd
00000180: ff87 493d df8b cebd beb6 74bd c2a5 c23d
00000190: 35eb 363d 96d4 063d 30ca 813d 2511 713d
000001a0: 12d1 b73b f49e 913d 03d8 8bbd dbb1 e0bd
000001b0: e139 d23d 9825 fd3d 69c6 ed3a decd 363d
000001c0: 18b4 393c 014c 4cbd c800 52bd 28cb 143c
000001d0: 9c48 f43d 5647 0c3d 52d5 71bc 83c4 8ebd
000001e0: 0aa6 b6bd 0b5f 10be 4d41 e8bc bfa2 8c3d
000001f0: 534e dc3c 443f cdbd ceba d2bd 4d0e 923d
00000200: 4149 9e3d a2f9 b8bd 8d43 59bd 5fa5 c7bc
00000210: ec4b f0bd 3339 883d 661c b6bd 31d5 8bbd
00000220: 73c1 afbc 19e5 763d 2429 d63d 2d23 4c3c
00000230: 7877 d7bd 5b71 2c3d 049b 0ebe 8fe5 fb3c
00000240: 9674 a03d 4d75 bb3c 5601 103e 98eb 073e
00000250: 7226 8bbd 3fce fcbd 8789 283d 26f6 c1bd
00000260: a60a 55bc 6274 ea3d cbbd b2bd 82b2 93bd
00000270: 6f95 093e f9ae 0bbe 45de 633d aafe 53bd
00000280: 0d7d f4bc 5b96 72bd 9bad 363d 3a43 d43d
00000290: 6fc7 0fbd 54f6 913b a493 ef3d 5fd4 d73c
000002a0: e5ad f93c 038d b23d dbcc d33c 20fd ce3c
000002b0: ea0a 063e 111f 86bd 0638 7a3c d1f8 4ebd
000002c0: 9c12 0f3e 0d77 79bc 001a 8e3d 0f62 173c
000002d0: 7de6 bc3d 0f92 cabd 49df f03d eef4 f6bc
000002e0: a5bc 293d 25e4 a43b 334d 68bd b3e3 b0bd
000002f0: 7c47 ac3d c08e cdbd bc95 4abc 3082 a1bd
0.0029779214 0.07336482 -0.08100817 -0.09291225 0.061403885 -0.0017920624 -0.032023285 -0.06363263
0.005137017 0.024746057 -0.057793215 0.022006478 0.09207826 0.076002724 0.1114176 0.05888899
-0.10810176 -0.067792326 0.092470765 -0.08648264 0.055510152 0.13133848 -0.04191329 -0.07381714
-0.13257536 0.040549528 0.099470854 -0.086195834 -0.037373535 0.08101435 -0.09951642 0.050572667
-0.022229481 -0.006135923 0.08077775 -0.011034691 0.104299806 0.11315669 0.12626499 0.03156538
-0.084672995 2.0089426e-05 0.11330571 -0.09232742 0.08052352 -0.100610875 0.008076247 0.043767024
-0.016441878 0.093203455 -0.048847336 0.12024273 -0.05372136 -0.09576995 0.043379806 0.08157833
0.008761931 0.0700944 0.010636965 0.0012912968 0.011609446 -0.05838 -0.015718648 -0.08793244
0.07507016 -0.061279014 -0.027642699 -0.07156343 -0.024488436 -0.04057882 0.06249752 0.06642641
-0.07353419 -0.019325487 -0.13527401 -0.011862977 0.08724947 -0.107044354 0.10124969 0.06715976
0.03282175 -0.069908306 0.097041264 -0.061679102 0.006043029 -0.10133807 -0.0003342203 0.035049926
-0.041819602 0.08113649 0.033677775 0.012542738 0.09353953 0.00034923656 0.05320249 -0.098790966
0.04920196 -0.10085272 -0.05974459 0.09504272 0.044657905 0.03291758 0.06337392 0.05885424
0.00560964 0.07110396 -0.0682831 -0.10971423 0.10264946 0.12360686 0.0018140796 0.044629924
0.011334442 -0.04987717 -0.051270276 0.009081639 0.11927912 0.03424772 -0.014760332 -0.069710754
-0.08918388 -0.14098756 -0.02835145 0.06866979 0.026892817 -0.100218326 -0.102895364 0.07131634
0.07728816 -0.09031989 -0.053042937 -0.024370847 -0.11733231 0.06651535 -0.08892135 -0.068277724
-0.021454548 0.06027708 0.10457066 0.012459558 -0.10520834 0.04210029 -0.13926321 0.03074911
0.07834737 0.022883082 0.1406301 0.13273466 -0.06794442 -0.12344026 0.04114678 -0.09470777
-0.013003027 0.114479795 -0.087276064 -0.07211782 0.1343591 -0.13640966 0.055631895 -0.05175654
-0.029844785 -0.05922542 0.044599157 0.10364385 -0.035102304 0.0044544134 0.11698082 0.026346384
0.030478427 0.08718302 0.025854519 0.025267184 0.13090101 -0.06548894 0.015272146 -0.05053026
0.13971943 -0.015226138 0.06938553 0.009239688 0.0922365 -0.0989114 0.11761338 -0.030146088
0.04143967 0.0050320798 -0.056714248 -0.0863718 0.08412072 -0.10036993 -0.012364801 -0.078861594

weight f4 [1, 64]
00000000: e544 9e3d 2478 6b3d 303f d93d acb2 e83d
00000010: 12e5 8ebd 7eaf c1bb ef27 d0ba ab38 443d
00000020: 266e fc3d a6d5 1b3d a8a1 85bd cd50 b0bd
00000030: 7fda a1bd 5ef3 a53c abf2 b9bd 033b e43c
00000040: 7897 b2bd d867 ad3d d99a d63d e570 923d
00000050: 8b78 3e3d a41e b4bd 4b42 963d 4e44 dc3d
00000060: c1f1 af3d da71 bf3d afba a63d 038d c1bd
00000070: 821d ab3d fb2d bfbd 6d22 fd3d 2765 7dba
00000080: 5493 fb3d 2026 c3bd 4951 a03d 113f 5fbd
00000090: 6441 c93d 7259 b3bd 1b32 fe3d 39df d1bb
000000a0: 10a9 cbbd a52d 86bd 03c5 be3c 567c 8b3d
000000b0: f181 443c 88c0 6d3c 3e5b d73c 9b39 a1bd
000000c0: ff6e 223d 136c 703d 8ae5 f4bd cf0f c0bd
000000d0: fd9d 1f3c 3740 c3bb d17d e23d b65e f43c
000000e0: be0d 30bd b69c a7bd f354 153c 9524 9bbd
000000f0: 0a7c 8b3d d08b 6f3d 9b85 9cbc eb71 b33b
0.07727984 0.057487622 0.10607755 0.11362204 -0.069772854 -0.005910813 -0.0015881042 0.047905605
0.12325697 0.038045548 -0.06524974 -0.086091615 -0.07903003 0.020257648 -0.09079488 0.02786017
-0.087202966 0.08467072 0.104787536 0.07150439 0.046501677 -0.08794907 0.07336863 0.107552156
0.08591033 0.09347887 0.08141076 -0.09450724 0.083552375 -0.09334942 0.12360082 -0.0009666257
0.1228396 -0.09528756 0.07828004 -0.054503504 0.098269254 -0.08757295 0.124119006 -0.006404784
-0.099443555 -0.06551675 0.023287302 0.068108246 0.011993871 0.014511235 0.026288625 -0.078723155
0.039656635 0.058696818 -0.119578436 -0.09378015 0.009742257 -0.0059585827 0.11059154 0.029830318
-0.042981856 -0.08184187 0.009114492 -0.07575337 0.06810768 0.058482945 -0.019106677 0.0054762266
