models/lstm_encoder/checkpoint/trained_irdpg_40.pth (torch, 409346 bytes, 22 tensors)

weight_ih_l0 f4 [192, 64]
0.06678545 -0.046016444 0.10385399 0.04051358 0.03762519 0.107862465 0.020190693 0.037341915
0.068454385 0.05947904 -0.061832845 -0.10847426 -0.044186957 -0.008817385 0.0842292 -0.059308786
-0.115279056 0.1208759 -0.007593091 -0.11183355 -0.078442626 -0.034426466 0.08052546 0.07940228
-0.030228954 -0.057834905 0.06718003 0.05589054 0.0042859497 0.042655256 0.0995275 0.053418543
-0.112628326 -0.1147563 0.022669343 0.068686314 0.0698938 -0.011224215 -0.11327672 0.111030646
0.01473331 0.029985633 -0.085906126 0.09333757 -0.008498956 0.023690306 -0.09910687 0.121333115
-0.10007206 -0.075448655 -0.08501833 0.012609312 0.106039606 -0.050472997 0.11305618 0.04435785
0.038977064 0.08798861 -0.069830306 -0.112895675 0.0038913589 0.05939639 0.08546046 -0.050822254
0.013326179 -0.011461528 0.00758809 0.122150615 -0.08758961 0.036169946 -0.013761295 -0.058913615
0.013771708 0.020246819 -0.019276826 -0.03460618 -0.046749324 -0.07018068 -0.05910862 0.016112816
-0.04029839 0.011536568 -0.110119455 -0.009854819 -0.04240273 -0.11351071 0.099618345 -0.043263942
0.018356115 0.07058133 0.10744664 0.10495821 0.0055106687 -0.0347316 -0.09733888 -0.008347782
0.1022291 0.006355481 0.040872585 -0.08159455 0.122049 0.11693635 0.033020165 -0.0027398453
-0.11395216 0.08916528 0.015141925 -0.05485671 -0.0340685 -0.024947498 -0.02252822 -0.11044922
-0.08664651 -0.030760182 0.0045414534 -0.030475467 0.05665026 -0.064904295 0.06850281 -0.0062157065
-0.1236298 0.01914293 -0.0417653 -0.08036662 0.04892539 -0.05247381 0.03294383 0.014992057
0.018464148 0.03719217 -0.029416105 0.07683367 0.08193224 -0.058186013 -0.04058303 0.065511584
0.12234843 0.07968416 -0.038514335 0.00398461 -0.09947483 -0.04525234 0.0038826163 0.063898705
0.106117584 -0.043595776 0.022230642 0.08152883 -0.05660909 0.040857285 0.03691054 0.0037981875
0.1069549 -0.10065221 0.044881847 -0.09421621 0.10797071 -0.030864583 -0.03154319 -0.00012206646
0.017225385 -0.072644025 -0.096324265 0.015532793 -0.08642091 -0.0073145027 0.11022523 0.032107983
-0.023136828 0.12221027 0.09303205 -0.04159472 0.03484718 0.02288587 -0.07448349 0.05489708
-0.085821845 -0.07406616 0.061809838 -0.09865797 0.12484748 0.04749522 0.006140571 0.0012877356
0.050018042 0.026735531 -0.024605524 0.02994909 -0.11214378 -0.045533124 0.06193952 0.029166905
0.040733404 0.033710394 -0.027603526 -0.09047483 -0.056328382 -0.06257811 0.10850858 -0.11686889
-0.04165444 0.087121524 0.079513274 -0.04020487 -0.081284896 -0.057215355 -0.036597937 0.077602
0.121416554 -0.023614999 0.03681799 -0.0765501 -0.1074932 -0.100207515 0.022424603 -0.013001182
-0.10387719 -0.030647565 -0.07008056 0.11978526 -0.115658306 -0.042149376 0.096138716 0.028086025
-0.061799154 0.062665515 -0.029544337 0.09012429 0.10724333 0.07673148 0.12575035 0.025434846
0.014635673 -0.11193897 -0.07780592 0.030628614 0.04113132 0.06229564 0.035181966 0.09943164
0.09615953 -0.06636285 -0.0016960312 -0.11702057 0.052436814 -0.0035568029 0.12001158 0.02567576
0.050587032 0.07490228 0.11775902 0.035396215 -0.10011139 0.0035125085 -0.046243474 0.091083616
00000000: cfc6 883d bd7b 3cbd 67b1 d43d 91f1 253d
00000010: df1c 1a3d ffe6 dc3d f466 a53c d6f3 183d
00000020: d031 8c3d 4ba0 733d 7044 7dbd c127 debd
00000030: 62fd 34bd cb76 10bc 5c80 ac3d c5ed 72bd
00000040: 6d17 ecbd c98d f73d 77cf f8bb fd08 e5bd
00000050: 87a6 a0bd c402 0dbd 88ea a43d aa9d a23d
00000060: b6a2 f7bc 4be4 6cbd af95 893d 7bed 643d
00000070: 2771 8c3b 47b7 2e3d 13d5 cb3d 67cd 5a3d
00000080: aea9 e6bd 5a05 ebbd 0fb5 b93c 69ab 8c3d
00000090: 7b24 8f3d c5e5 37bc a0fd e7bd 0964 e33d
000000a0: fb63 713c 6ea4 f53c 8def afbd c527 bf3d
000000b0: 353f 0bbc 2c12 c23c 8bf8 cabd 7f7d f83d
000000c0: 95f2 ccbd d384 9abd 171e aebd 4a97 4e3c
000000d0: 4b2b d93d c6bc 4ebd 008a e73d 94b0 353d
000000e0: 6aa6 1f3d 5f33 b43d 3103 8fbd d935 e7bd
000000f0: 2b06 7f3b a149 733d e505 af3d ff2a 50bd
00000100: 0c56 5a3c 22c9 3bbc 83a5 f83b 1a2a fa3d
00000110: 2e62 b3bd f026 143d 0e77 61bc 674f 71bd
00000120: bba2 613c a8dc a53c 6fea 9dbc 36bf 0dbd
00000130: 387c 3fbd e3ba 8fbd e11b 72bd 06ff 833c
00000140: ed0f 25bd e003 3d3c 4f86 e1bd 1b76 21bc
00000150: 7cae 2dbd 4e78 e8bd b404 cc3d 8835 31bd
00000160: 905f 963c f28c 903d fc0c dc3d 54f4 d63d
00000170: d792 b43b b942 0ebd 9b59 c7bd 23c5 08bc
00000180: 7e5d d13d a441 d03b 036a 273d 0b1b a7bd
00000190: d3f4 f93d 537c ef3d 2740 073d fa8e 33bb
000001a0: c05f e9bd 499c b63d d615 783c 6eb1 60bd
000001b0: 698b 0bbd b25e ccbc 1a8d b8bc 3333 e2bd
000001c0: ba73 b1bd c7fc fbbc 79d0 943b b0a7 f9bc
000001d0: 1a0a 683d 8bec 84bd 344b 8c3d 20ad cbbb
000001e0: 9f31 fdbd a2d1 9c3c 1712 2bbd 4197 a4bd
000001f0: fd65 483d c7ee 56bd 1cf0 063d 3fa1 753c
00000200: 2042 973c d156 183d 0bfa f0bc f95a 9d3d
00000210: 17cc a73d 7554 6ebd 643a 26bd f02a 863d
00000220: d091 fa3d 7331 a33d 35c1 1dbd 5591 823b
00000230: 76b9 cbbd 855a 39bd 7e73 7e3b 53dd 823d
00000240: 2d54 d93d 7c91 32bd 091d b63c 96f8 a63d
00000250: efde 67bd f859 273d 822f 173d 03eb 783b
00000260: 2c0b db3d bf22 cebd 07d6 373d 6ef4 c0bd
00000270: bf1f dd3d b9d7 fcbc 6f33 01bd effd ffb8
00000280: 401c 8d3c 64c6 94bd a845 c5bd 417d 7e3c
00000290: 72fd b0bd 7fae efbb c4bd e13d a983 033d
000002a0: 7289 bdbc 6149 fa3d 9687 be3d 3a5f 2abd
000002b0: ebbb 0e3d 267b bb3c cd8a 98bd c3db 603d
000002c0: 5dc3 afbd 00b0 97bd 502c 7d3d 310d cabd
000002d0: 09b0 ff3d 598a 423d d836 c93b 3dc9 a83a
000002e0: b8df 4c3d 7904 db3c 8691 c9bc cb57 f53c
000002f0: a3ab e5bd f180 3abd 4bb4 7d3d 6fef ee3c
00000300: 12d8 263d e913 0a3d ca20 e2bc de4a b9bd
00000310: 97b8 66bd f428 80bd bf39 de3d f558 efbd
00000320: d99d 2abd c56c b23d dbd7 a23d ddad 24bd
00000330: b278 a6bd a65a 6abd b8e7 15bd cced 9e3d
00000340: 3ea9 f83d 3e74 c1bc 76ce 163d 4dc6 9cbd
00000350: 6525 dcbd 9939 cdbd cdb3 b73c e902 55bc
00000360: 90bd d4bd 9a10 fbbc 6686 8fbd f951 f53d
00000370: 43de ecbd d3a4 2cbd 60e4 c43d aa14 e63c
00000380: 1c21 7dbd c756 803d f706 f2bc 1593 b83d
00000390: 64a2 db3d 6525 9d3d b3c4 003e bd5c d03c
000003a0: 76ca 6f3c 4240 e5bd b658 9fbd dce8 fa3c
000003b0: 5179 283d b729 7f3d f71a 103d d1a2 cb3d
000003c0: 4aef c43d 3fe9 87bd 5d4d deba 7ba8 efbd
000003d0: fcc7 563d 4019 69bb a2c8 f53d f955 d23c
000003e0: 5934 4f3d 5e66 993d a42b f13d 9ffb 103d
000003f0: 3307 cdbd 1d32 663b cc69 3dbd 0c8a ba3d

weight_hh_l0 f4 [192, 64]
0.120846584 0.015364694 0.04346866 0.07806251 -0.06881883 -0.07000705 0.018692553 -0.037632532
0.07942306 0.11948652 -0.0045683715 0.120660655 -0.022138871 0.075522095 -0.048468288 -0.1010049
-0.0072215726 -0.0028602302 0.007888767 0.037717067 0.060329765 0.10096948 0.09980776 -0.094904825
-0.012808996 -0.02775872 0.11777102 -0.11090378 0.00991708 -0.050915666 -0.020647937 -0.03617528
-0.07574372 -0.06869844 -0.08809156 0.10367346 0.027080016 0.105612144 -0.12510763 0.094183505
-0.05209026 0.06711196 -0.04812691 0.046756044 0.02129173 -0.023736835 0.046225835 0.09825938
0.03592989 -0.039071415 -0.062214445 0.073186964 -0.057097685 0.062118895 -0.07833216 0.05621123
-0.029603047 0.029979745 -0.100226775 0.11532662 -0.05903059 0.040249906 -0.043798994 -0.09620683
0.071923845 -0.059987254 0.055574022 0.01670433 0.074109025 -0.0069837607 0.08106076 -0.034136143
0.098593734 0.06623993 -0.04939938 -0.11956474 0.09235295 -0.09187894 -0.085239395 -0.08432109
0.04464517 -0.01051687 0.045404837 -0.0950252 0.010079725 0.09838495 0.09744999 0.007794123
0.033169895 -0.05375344 0.10330006 -0.0370792 0.031444546 -0.08983472 0.08158712 0.101116315
-0.10027659 0.0024923028 0.045831267 0.11278888 -0.035747904 0.099085905 -0.1162356 -0.0007722277
0.099548355 -0.008656006 0.045734916 -0.05559121 0.06602696 0.11244903 0.054055355 0.07520614
-0.014908495 0.120649815 0.109435104 -0.02316319 -0.09227388 0.039590146 0.116949655 0.012123092
-0.077327155 0.031461306 0.035895586 0.054259922 -0.00371182 0.10293901 -0.07600228 0.09858104
-0.0761453 -0.021108275 -0.054359857 -0.007993615 -0.030831633 -0.10947678 -0.102880366 0.061968282
0.054941893 -0.10941878 0.09939251 0.014123481 0.07205958 0.12320077 0.048656162 -0.099767104
-0.04815817 0.074277654 -0.077764876 0.1149126 0.08784414 -0.09912679 0.032467563 -0.02712595
-0.08626846 0.027954137 0.07839969 0.0040606186 0.10324864 0.03297833 0.073868774 0.044193223
0.0090029985 -0.00673104 0.0032372 0.08690253 0.0851408 0.05598138 0.10982737 0.051651686
0.08078368 -0.0627513 0.03598205 -0.043039057 -0.04929586 -0.049428098 0.048871506 -0.114769004
0.04735912 0.0064311554 0.0008383418 -0.01527796 -0.06576158 -0.10847238 -0.07659582 0.11830168
0.09422825 0.11891095 -0.10051634 -0.04876238 -0.09576243 -0.035668716 -0.0731813 0.022067536
0.0640957 0.062003516 -0.012424399 -0.045434766 -0.114265695 -0.06373213 0.10693094 -0.06676761
0.09801376 -0.03569242 0.044459928 -0.12091396 -0.07439971 -0.037179835 0.076516405 -0.036131695
0.09641446 0.049469415 0.11284664 -0.114071734 0.059119176 0.026260776 0.04350271 -0.10725728
0.1093476 0.021693444 0.049214646 0.030676067 0.061749883 -0.09439161 -0.063577235 -0.03393678
0.11238887 -0.054166485 -0.11700114 0.117777035 -0.0051093143 -0.1031481 -0.0011972716 0.10042384
-0.10831441 -0.05792633 0.07214059 0.038496375 -0.034562714 0.04513099 -0.053778697 0.124183804
-0.033827405 0.09895115 0.120420605 0.07574516 -0.06488574 0.122942366 0.084673144 -0.007225957
-0.025627026 0.08392724 0.08353041 -0.12560852 -0.061809484 0.10037187 -0.018359892 0.069169596
00000000: 6a7e f73d 33bc 7b3c 320c 323d 3ddf 9f3d
00000010: e3f0 8cbd db5f 8fbd 2021 993c 9224 1abd
00000020: 8fa8 a23d 59b5 f43d 47b2 95bb ef1c f73d
00000030: 945c b5bc 54ab 9a3d af86 46bd a8db cebd
00000040: f1a2 ecbb b372 3bbb e33f 013c 367d 1a3d
00000050: 581c 773d 16c9 ce3d 0368 cc3d 765d c2bd
00000060: d3dc 51bc 4166 e3bc ef31 f13d 8521 e3bd
00000070: 407b 223c f28c 50bd dd25 a9bc 882c 14bd
00000080: 861f 9bbd c5b1 8cbd 5969 b4bd c052 d43d
00000090: e9d6 dd3c 2e4b d83d 371c 00be 48e3 c03d
000000a0: 995c 55bd ff71 893d b920 45bd 4483 3f3d
000000b0: ff6b ae3c c073 c2bc 4d57 3d3d 373c c93d
000000c0: 382b 133d 5909 20bd 93d4 7ebd 0ce3 953d
000000d0: 43df 69bd 6270 7e3d 9d6c a0bd bf3d 663d
000000e0: 1782 f2bc 1598 f53c b243 cdbd 5d30 ec3d
000000f0: 0fca 71bd 16dd 243d 9366 33bd 1608 c5bd
00000100: cf4c 933d 32b5 75bd 96a1 633d 85d7 883c
00000110: 79c6 973d 08d8 e4bb 2f03 a63d 57d2 0bbd
00000120: 83eb c93d cda8 873d 0157 4abd 5cde f4bd
00000130: 8b23 bd3d 072b bcbd fe91 aebd 89b0 acbd
00000140: dbdd 363d f34e 2cbc 6cfa 393d 929c c2bd
00000150: 6e25 253c 0c7e c93d dc93 c73d d865 ff3b
00000160: 28dd 073d 912c 5cbd fb8e d33d 5ce0 17bd
00000170: ffcb 003d 44fb b7bd 2617 a73d 1216 cf3d
00000180: d05d cdbd e755 233b 91b9 3b3d dbfd e63d
00000190: 656c 12bd 8ded ca3d ee0c eebd 536f 4aba
000001a0: 02e0 cb3d ecd1 0dbc 8954 3b3d 9cb3 63bd
000001b0: 2539 873d ad4b e63d 2669 5d3d ad05 9a3d
000001c0: c342 74bc 4017 f73d 831f e03d bbc0 bdbc
000001d0: 17fa bcbd 4729 223d 4d83 ef3d ef9f 463c
000001e0: b35d 9ebd 92dd 003d 4007 133d a73f 5e3d
000001f0: 0242 73bb b0d1 d23d 15a7 9bbd dbe4 c93d
00000200: 11f2 9bbd 43eb acbc 71a8 5ebd a7f7 02bc
00000210: 9f92 fcbc 5d35 e0bd f1b2 d2bd 74d2 7d3d
00000220: c00a 613d f416 e0bd 4d8e cb3d 2c66 673c
00000230: f993 933d af50 fc3d af4b 473d b252 ccbd
00000240: 8041 45bd e21e 983d 3143 9fbd 4c57 eb3d
00000250: a1e7 b33d fd02 cbbd b5fc 043d 3e37 debc
00000260: 85ad b0bd 1300 e53c 0490 a03d f00e 853b
00000270: 0674 d33d 4914 073d 8348 973d f403 353d
00000280: 5081 133c 0e90 dcbb 3427 543b f4f9 b13d
00000290: 4d5e ae3d bb4c 653d 2ced e03d b890 533d
000002a0: ea71 a53d c183 80bd ea61 133d b949 30bd
000002b0: 75ea 49bd 1e75 4abd 7d2d 483d 030c ebbd
000002c0: a3fb 413d 71bc d23b 2ac4 5b3a 6950 7abc
000002d0: 02ae 86bd c426 debd 45de 9cbd 2748 f23d
000002e0: befa c03d 9687 f33d 83db cdbd 10bb 47bd
000002f0: 181f c4bd 5c19 12bd 14e0 95bd fac6 b43c
00000300: 9b44 833d 66f7 7d3d b58f 4bbc ce19 3abd
00000310: 2204 eabd fe85 82bd 9cfe da3d 75bd 88bd
00000320: 70bb c83d 3732 12bd 9d1b 363d bda1 f7bd
00000330: e05e 98bd e249 18bd a2b4 9c3d d4fe 13bd
00000340: f274 c53d 71a0 4a3d 241c e73d 719e e9bd
00000350: f326 723d d720 d73c e62f 323d b4a9 dbbd
00000360: a2f1 df3d 73b6 b13c 4c95 493d 604c fb3c
00000370: 72ed 7c3d 6350 c1bd c834 82bd 4b01 0bbd
00000380: 232c e63d addd 5dbd 4b9e efbd 1635 f13d
00000390: 096c a7bb 503f d3bd c5ed 9cba 04ab cd3d
000003a0: f2d3 ddbd 2944 6dbd 72be 933d 60ae 1d3d
000003b0: a291 0dbd 46db 383d 0d47 5cbd 1454 fe3d
000003c0: 9b8e 0abd e7a6 ca3d 149f f63d 4720 9b3d
000003d0: d1e2 84bd 35c9 fb3d 1d69 ad3d b8c7 ecbb
000003e0: c5ef d1bc 0be2 ab3d fe11 ab3d 859f 00be
000003f0: f12b 7dbd c48f cd3d 7c67 96bc caa8 8d3d

bias_ih_l0 f4 [192]
0.0024341675 0.066072635 -0.072177984 0.073320664 0.031978622 -0.012184363 0.09400487 0.043132886
0.07434587 0.08152584 -0.042411365 0.117227405 0.07408355 -0.0030447233 -0.07207992 0.04804158
0.058899496 -0.007552943 -0.065886945 0.06697185 0.12486878 0.018949827 -0.093356006 0.0679741
-0.12567262 -0.09944293 -0.060997263 -0.011563087 0.095611796 0.092984624 0.010603963 0.00983317
-0.05282189 -0.07644918 0.10850397 -0.07649968 0.03241891 -0.059924413 0.06338194 -0.03832914
-0.024701444 -0.11545199 0.03459832 0.07048732 0.11364133 0.032040827 0.0785307 -0.11046318
-0.09808393 0.073568396 -0.07444943 -0.10765474 0.0066358037 0.028497646 -0.043665316 -0.110371605
-0.08018242 0.03750324 0.0010110522 0.014557724 0.013272975 0.10102542 -0.023866197 -0.10269906
-0.01993037 -0.026494259 0.01761269 0.09740475 0.056368828 0.112919435 -0.009362956 0.08999445
0.021558376 -0.059375525 -0.072396934 -0.0079916995 -0.04343006 -0.11634746 -0.093038306 -0.11633823
0.11526189 -0.070013955 -0.057659056 -0.015624395 0.096561424 -0.07271079 0.044939183 0.08425706
-0.09141931 0.07516482 0.041503202 -0.0024744796 0.011810797 0.091530524 0.11181109 -0.042257797
-0.11108832 -0.090099685 -0.0002318945 0.08353459 -0.024658399 0.06744188 0.017399162 -0.01876765
0.12708198 0.044501662 0.07594351 0.10226734 -0.005607641 0.015609907 0.051153805 -0.046266258
0.09718816 -0.042079017 0.018502077 -0.10404064 -0.061230484 -0.049069002 -0.07501372 0.10856129
0.12680596 -0.039398775 -0.052808836 -0.07145157 -0.060278606 0.07824937 0.10988525 -0.07284038
0.101370916 -0.07687502 0.018721389 -0.0008991334 0.07248023 -0.1222934 -0.062148463 0.11963519
0.09973191 0.110100746 0.11497335 0.11869808 -0.012725078 -0.09288159 0.12309138 -0.04054476
0.021653378 0.036043532 0.025599066 0.055617325 -0.09779595 -0.07780181 -0.034516547 0.018349353
0.104419276 0.03073899 -0.05995711 0.095248684 -0.032002814 0.11889621 0.086847916 0.062255666
-0.11792572 -0.098215915 -0.09788664 -0.10476631 -0.08147459 -0.05989276 0.07956334 0.063079655
-0.0753305 0.07594585 0.049254987 -0.12102673 -0.032096703 0.07959341 -0.0130521525 -0.1148944
0.02294292 0.0012185388 -0.04128304 0.0977669 0.12536731 0.100350246 0.05286993 0.08421404
0.11336906 -0.0009559613 0.11350715 -0.021400718 -0.10396674 0.007104648 0.08637852 0.0967764
00000000: 8e86 1f3b 1751 873d 0dd2 93bd 2529 963d
00000010: 04fc 023d eca0 47bc a085 c03d 1cac 303d
00000020: a642 983d 05f7 a63d 8ab7 2dbd ec14 f03d
00000030: 1eb9 973d fb89 47bb a39e 93bd 3fc7 443d
00000040: 9940 713d ae7e f7bb bcef 86bd 8a28 893d
00000050: 34bb ff3d ab3c 9b3c 6f31 bfbd 0136 8b3d
00000060: 53b0 00be bca8 cbbd 44d8 79bd 1a73 3dbc
00000070: 1ed0 c33d b96e be3d 3fbc 2d3c 4e1b 213c
00000080: c45b 58bd 6391 9cbd 5437 de3d ddab 9cbd
00000090: b1c9 043d 4d73 75bd 64ce 813d 04ff 1cbd
000000a0: af5a cabc 1872 ecbd f8b6 0d3d a85b 903d
000000b0: c9bc e83d 3e3d 033d b4d4 a03d 853a e2bd
000000c0: 3ae0 c8bd 07ab 963d f178 98bd 177a dcbd
000000d0: 2871 d93b e573 e93c 67da 32bd 820a e2bd
000000e0: ae36 a4bd ff9c 193d 4885 843a 8583 6e3c
000000f0: e476 593c 6ae6 ce3d 0b83 c3bc e353 d2bd
00000100: 0445 a3bc 7d0a d9bc 7d48 903c 247c c73d
00000110: 00e3 663d 4e42 e73d 1567 19bc 034f b83d
00000120: 319b b03c c033 73bd d844 94bd 9eef 02bc
00000130: b8e3 31bd 9447 eebd de8a bebd bd42 eebd
00000140: 6d0e ec3d 7a63 8fbd e72b 6cbd 76fd 7fbc
00000150: ffc1 c53d 65e9 94bd 2612 383d f78e ac3d
00000160: 0c3a bbbd 03f0 993d 43ff 293d e12a 22bb
00000170: 1382 413c 5b74 bb3d 36fd e43d 8316 2dbd
00000180: 4682 e3bd 2f86 b8bd b528 73b9 2f14 ab3d
00000190: 6900 cabc f81e 8a3d b088 8e3c 9dbe 99bc
000001a0: c721 023e 6047 363d 4588 9b3d 8a71 d13d
000001b0: 4dc0 b7bb b2c0 7f3c a786 513d b081 3dbd
000001c0: 960a c73d 0c5b 2cbd ab91 973c 4213 d5bd
000001d0: d1cc 7abd 94fc 48bd cba0 99bd 6255 de3d
000001e0: 6cd9 013e 9c60 21bd 144e 58bd 3355 92bd
000001f0: b3e6 76bd 3541 a03d 850b e13d 562d 95bd
00000200: 8e9b cf3d a770 9dbd 995d 993c d2b3 6bba
00000210: 8470 943d f674 fabd 638f 7ebd 4b03 f53d
00000220: 3e40 cc3d 807c e13d 2677 eb3d fb17 f33d
00000230: d87c 50bc b438 bebd 5517 fc3d 4312 26bd
00000240: 6d62 b13c 62a2 133d 22b5 d13c fece 633d
00000250: 3e49 c8bd 8e56 9fbd 3961 0dbd 6251 963c
00000260: c6d9 d53d 56d0 fb3c 9695 75bd be11 c33d
00000270: 6215 03bd db7f f33d 52dd b13d ccff 7e3d
00000280: 0a83 f1bd 6d25 c9bd ca78 c8bd b88f d6bd
00000290: 26dc a6bd 1c52 75bd 1bf2 a23d e82f 813d
000002a0: e146 9abd 7f89 9b3d 99bf 493d dddc f7bd
000002b0: d577 03bd df01 a33d b2d8 55bc c14d ebbd
000002c0: caf2 bb3c 61b7 9f3a 6818 29bd 033a c83d
000002d0: 4a60 003e 6e84 cd3d 248e 583d 6978 ac3d
000002e0: 0a2e e83d 7a99 7aba 7076 e83d 8f50 afbc
000002f0: 84ec d4bd 1bce e83b 39e7 b03d b532 c63d

bias_hh_l0 f4 [192]
-0.12170408 0.06346568 -0.016158562 0.027260441 -0.00813852 0.06637881 -0.095253214 0.11031331
0.033584062 -0.04653821 0.0916984 -0.06520434 0.10021317 -0.0011109245 0.015817827 0.011114514
-0.036145043 0.055660967 -0.10311447 0.054386765 0.07641809 -0.11912379 0.045918327 -0.04396103
0.0024925303 0.008839998 0.058559224 -0.087608136 0.06690331 0.013551481 0.015397711 0.040651318
-0.049574286 -0.03623345 -0.025966031 0.021809274 -0.08404055 0.0146406805 -0.0023331342 0.067382775
-0.069412544 0.037754513 0.014732761 -0.0008241007 0.07268799 -0.118460685 -0.050946664 -0.0980582
0.08789967 0.0004297779 -0.011458745 -0.09341533 0.06979935 -0.105668515 -0.0773437 -0.10398707
-0.0016235588 0.0012469877 0.11006187 -0.0086922 -0.12062813 -0.07144575 0.07596142 -0.041875567
-0.030854322 0.009046152 0.106846325 -0.05044432 0.055812538 -0.026053037 -0.114730075 0.09789804
-0.11030198 0.023551038 0.033272244 0.047572646 0.10026732 -0.09223157 -0.085024565 0.011803118
-0.0486094 0.11001116 0.08993502 -0.031276494 0.0035388141 -0.017421924 -0.09723524 0.0717328
0.091747135 -0.046440393 -0.013729695 0.10005154 -0.02061082 -0.08306689 0.008527797 0.0059387437
0.05779 -0.08455744 -0.009295212 0.12107431 0.026420115 0.07350689 -0.027378159 0.036538802
0.00441842 0.037499845 0.056876987 -0.028515618 0.09294883 -0.04682541 -0.08078531 -0.074683286
-0.022142611 -0.041974396 0.0011021673 -0.002795831 0.06405367 -0.038929015 -0.0036211535 -0.0885112
0.07883263 0.07127722 -0.01868901 -0.06745901 0.03275147 0.09560507 -0.11809192 0.06724697
-0.03904993 0.004853262 0.007900181 -0.06688107 -0.1206727 -0.088881426 0.036628734 0.09639697
-0.08465052 -0.12125457 0.11270676 0.10137181 0.10907621 -0.04761399 0.03902587 0.09230007
0.084316835 -0.075558595 -0.11436902 0.099984355 -0.08860037 0.09352081 -0.115568854 0.08662671
-0.12233046 -0.052789267 0.10311756 -0.08152342 0.040676218 -0.016969917 -0.035584275 -0.07553991
0.04094625 0.01910191 -0.0047128904 -0.023079107 -0.12097173 0.09668893 -0.07443832 -0.0970728
0.01977254 0.05246899 0.100504 -0.10426184 0.085148215 -0.10322621 -0.05434302 0.011753331
0.024141038 -0.029370315 -0.10469748 0.09586302 -0.05436142 -0.08510614 -0.03624848 -0.046465736
-0.06026319 -0.11025562 -0.048198268 -0.105199136 -0.10461154 -0.007739766 0.09908128 0.057971478
00000000: fd3f f9bd 4bfa 813d f65e 84bc 4a51 df3c
00000010: 6d57 05bc 9df1 873d 1e14 c3bd f2eb e13d
00000020: 718f 093d da9e 3ebd 5fcc bb3d da89 85bd
00000030: 903c cd3d 719c 91ba 6394 813c a719 363c
00000040: d30c 14bd c1fc 633d ae2d d3bd a8c4 5e3d
00000050: 1681 9c3d 2cf7 f3bd db14 3c3d 7b10 34bd
00000060: b859 233b a4d5 103c ccdb 6f3d e56b b3bd
00000070: 9a04 893d 0807 5e3c ae46 7c3c ff81 263d
00000080: 680e 4bbd 8769 14bd b7b6 d4bc 5da9 b23c
00000090: 741d acbd 77df 6f3c 7fe7 18bb fbff 893d
000000a0: 2a28 8ebd 7aa4 1a3d ae61 713c 7608 58ba
000000b0: 71dd 943d 849b f2bd 73ad 50bd bdd2 c8bd
000000c0: be04 b43d d053 e139 76bd 3bbc 8950 bfbd
000000d0: f6f2 8e3d bc68 d8bd 6066 9ebd 2cf7 d4bd
000000e0: 98cd d4ba f771 a33a 1e68 e13d bb69 0ebc
000000f0: e20b f7bd 2652 92bd a991 9b3d b785 2bbd
00000100: 34c2 fcbc 5036 143c 3fd2 da3d b49e 4ebd
00000110: b09b 643d 2e6d d5bc 9af7 eabd c57e c83d
00000120: 01e6 e1bd 1bee c03c 7a48 083d 89db 423d
00000130: f458 cd3d e8e3 bcbd 5c21 aebd dd61 413c
00000140: a61a 47bd 884d e13d da2f b83d c81b 00bd
00000150: 73eb 673b 6cb8 8ebc 4523 c7bd a5e8 923d
00000160: ece5 bb3d 4838 3ebd 84f2 60bc d2e7 cc3d
00000170: 06d8 a8bc f91e aabd 2cb8 0b3c cb99 c23b
00000180: 35b5 6c3d 732c adbd f24a 18bc cff5 f73d
00000190: ff6e d83c c88a 963d 2948 e0bc b6a9 153d
000001a0: 65c8 903b 7099 193d d8f7 683d 9699 e9bc
000001b0: f55b be3d 00cc 3fbd c572 a5bd 8df3 98bd
000001c0: 6c64 b5bc 58ed 2bbd 9976 903a 433a 37bb
000001d0: 922e 833d 0874 1fbd e050 6dbb 5c45 b5bd
000001e0: 0073 a13d cbf9 913d b219 99bc f327 8abd
000001f0: 6826 063d 97cc c33d 2dda f1bd c8b8 893d
00000200: d2f2 1fbd 1d08 9f3b c36f 013c f1f8 88bd
00000210: 4023 f7bd 7707 b6bd 0308 163d c66b c53d
00000220: 405d adbd 5154 f8bd cdd2 e63d 069c cf3d
00000230: 5963 df3d e306 43bd 97d9 1f3d d207 bd3d
00000240: 4eae ac3d 77be 9abd 4e3a eabd 99c4 cc3d
00000250: 1c74 b5bd d787 bf3d 5daf ecbd 5869 b13d
00000260: 6488 fabd 8f39 58bd 4d2f d33d c0f5 a6bd
00000270: 1b9c 263d 7f04 8bbc d1c0 11bd abb4 9abd
00000280: 41b7 273d 9c7b 9c3c 976e 9abb 6510 bdbc
00000290: 07c0 f7bd d904 c63d 1e73 98bd 1bce c6bd
000002a0: 06fa a13c b9e9 563d 0bd5 cd3d 3b87 d5bd
000002b0: 3062 ae3d 4368 d3bd c996 5ebd 0b91 403c
000002c0: 6dc3 c53c 049a f0bc a26b d6bd d553 c43d
000002d0: 15aa 5ebd 214c aebd 4979 14bd db52 3ebd
000002e0: 89d6 76bd b3cd e1bd 8c6b 45bd a572 d7bd
000002f0: 933e d6bd dd9d fdbb 20eb ca3d 8073 6d3d

weight f4 [2, 64]
-0.10040643 0.069785714 -0.027658053 0.063302755 0.12018548 0.0938487 0.045185667 -0.10748484
0.10740285 -0.08681635 -0.09946931 0.07924516 0.073767796 -0.06881635 0.029974934 -0.08303339
0.021875616 0.030516509 0.07554306 0.107509434 -0.1089958 -0.09119263 -0.06720631 -0.01800718
0.037617784 0.104755476 0.08467446 0.030635972 0.041057784 0.12034803 -0.049752604 -0.008403946
0.12208867 0.049739625 -0.04489172 0.11147882 0.09963302 0.049466603 0.114787385 -0.04437376
-0.09251149 0.011591783 -0.028559748 -0.104030706 -0.0024497006 -0.012998653 0.053962383 -0.010478626
0.03502881 -0.04286916 -0.038580537 0.081324056 0.0064453217 -0.08132674 -0.006258842 -0.052551642
-0.0569904 -0.07966018 -0.07120432 -0.061570812 0.0017404326 -0.08644652 -0.12266535 -0.1080934
-0.08323375 -0.0770257 0.08972122 -0.021643927 0.012700321 0.0038172537 0.0011036899 0.04613839
0.030448273 0.026840584 -0.00025064047 -0.07468348 -0.041913666 0.11020978 -0.030768063 -0.05560447
0.040544666 -0.04747236 0.021260604 -0.11961906 -0.07858328 -0.10196282 -0.029972 -0.036366753
-0.013848556 -0.09860392 -0.0655179 0.036461506 0.04628169 0.09519272 -0.05428018 -0.0432976
-0.10711783 -0.024732621 0.024058323 0.024049744 -0.072511226 0.042347617 0.050134107 -0.04254495
-0.03434963 -0.050942313 0.053339794 0.007903392 -0.117895834 0.04574321 -0.11096863 -0.11754895
-0.12217508 -0.0709329 -0.071492344 -0.069362134 0.0038213995 -0.0004216119 0.046508055 -0.07115846
0.07844324 0.09970406 -0.06312886 -0.08489004 -0.106072314 -0.09139581 -0.050983187 0.03441056
00000000: e3a1 cdbd d0eb 8e3d 2493 e2bc e0a4 813d
00000010: ce23 f63d bf33 c03d 9b14 393d 0321 dcbd
00000020: 07f6 db3d c5cc b1bd 91b6 cbbd 494b a23d
00000030: 9213 973d 96ef 8cbd fe8d f53c 690d aabd
00000040: 7e34 b33c c2fd f93c 52b6 9a3d e82d dc3d
00000050: 3139 dfbd 34c3 babd 76a3 89bd cb83 93bc
00000060: 1b15 1a3d 0a8a d63d ce69 ad3d 4af8 fa3c
00000070: 352c 283d 0779 f63d 63c9 4bbd b4b0 09bc
00000080: a009 fa3d c7bb 4b3d 61e0 37bd 024f e43d
00000090: 660c cc3d 7e9d 4a3d a615 eb3d 43c1 35bd
000000a0: aa76 bdbd 76eb 3d3c 22f6 e9bc 0d0e d5bd
000000b0: 288b 20bb 4df8 54bc a907 5d3d 8bae 2bbc
000000c0: 5f7a 0f3d 9397 2fbd a006 1ebd 3a8d a63d
000000d0: 4733 d33b a28e a6bd f916 cdbb 6440 57bd
000000e0: c46e 69bd e024 a3bd 92d3 91bd ad31 7cbd
000000f0: 3a1f e43a e00a b1bd f937 fbbd 1360 ddbd
00000100: 7576 aabd a6bf 9dbd c2bf b73d 9b4e b1bc
00000110: 0215 503c e42a 7a3b b0a9 903a 9cfb 3c3d
00000120: a86e f93c c9e0 db3c 6568 83b9 a7f3 98bd
00000130: aaad 2bbd aab5 e13d 4e0d fcbc 83c1 63bd
00000140: 2a12 263d 6172 42bd b82a ae3c d6fa f4bd
00000150: 45f0 a0bd e2d1 d0bd d787 f5bc 4ef5 14bd
00000160: 0ee5 62bc daf0 c9bd 402e 86bd a958 153d
00000170: df91 3d3d 67f4 c23d e554 5ebd d358 31bd
00000180: 9860 dbbd 119c cabc f615 c53c f803 c53c
00000190: c480 94bd b274 2d3d 6c59 4d3d 9d43 2ebd
000001a0: 33b2 0cbd e3a8 50bd d47a 5a3d 3b7d 013c
000001b0: 5f73 f1bd 3b5d 3b3d 8543 e3bd 81bd f0bd
000001c0: ee36 fabd 4545 91bd 946a 92bd bc0d 8ebd
000001d0: 7270 7a3b cb0b ddb9 3b7f 3e3d 87bb 91bd
000001e0: d9a6 a03d a431 cc3d b449 81bd d4da adbd
000001f0: 713c d9bd ba2d bbbd bfd3 50bd 16f2 0c3d

bias f4 [2]
0.052531682 0.03435459
00000000: 762b 573d 66b7 0c3d

weight_ih_l0 f4 [192, 66]
-0.08552566 0.0909578 -0.027784435 0.04202228 -0.075915195 -0.04998015 -0.042732805 -0.0027080958
-0.08014782 0.064538576 -0.011306275 -0.10364899 -0.07420277 -0.03459077 -0.058564298 0.09904347
-0.0070362207 -0.058476333 -0.0459223 -0.099672146 -0.010907096 0.08626768 -0.121367976 -0.046265714
0.052971467 -0.014034688 -0.0685053 0.0693781 0.02207184 0.060112894 0.032773625 -0.08879092
0.027500037 0.051119972 0.0824684 0.033055183 0.018264003 0.13189256 0.08225054 -0.08720161
0.057268903 0.068160556 0.044712525 0.11396365 0.040004194 0.044049703 0.057308234 -0.025757188
0.029769693 0.11543144 -0.1009644 0.107440464 -0.06232156 0.086244695 -0.09672603 0.104829706
0.020996025 0.10776986 0.08451924 0.102194235 0.094938986 0.001812648 0.074888915 -0.026319213
-0.09285804 -0.037691448 -0.095975615 0.09497403 0.113208756 -0.106974415 -0.07205224 -0.0806388
0.089482225 0.06974899 0.046950534 0.012201182 -0.098773845 -0.11698474 -0.08291609 0.10122881
-0.049492933 -0.007065684 0.09457891 0.046017002 0.031749737 0.027994528 -0.0607431 -0.11004411
-0.058267094 0.12286146 -0.0092111295 -0.042964987 -0.09301612 0.02078937 0.027209764 0.12684886
0.11599323 0.0124758845 0.064318 0.028061226 0.03185226 -0.04747608 -0.03177785 0.049204044
-0.03358196 -0.11075036 0.060024854 0.04534589 -0.080069244 -0.061006483 0.033167727 -0.071286805
0.09522706 -0.043362826 0.12550588 -0.014281442 -0.07495727 -0.07318568 0.118721284 0.09718312
0.14147492 0.001729915 0.03166316 -0.05393356 0.04887429 -0.12712686 -0.114869826 0.0044874973
0.0866504 0.086439 -0.022956345 0.11157973 0.0022042412 -0.04352223 0.06747991 -0.044775996
-0.0802318 0.031453665 0.07483881 0.104710996 0.118908376 -0.021425383 -0.11438004 -0.04862151
-0.039880753 -0.049902014 -0.11666331 -0.029343301 -0.036366843 0.036692802 -0.0135613745 -0.036562983
0.114994474 -0.0007824757 0.03221971 -0.12021549 0.040227417 -0.05029619 0.11558173 0.061139368
0.12193877 -0.033748012 0.12568955 0.03155977 -0.0452177 -0.067177385 0.10338839 0.101588495
0.03321664 0.10100694 -0.043319125 0.025416581 0.045220867 -0.06042798 0.0009062678 -0.012187399
0.01231655 -0.09754616 0.028636321 -0.02838144 0.0765218 -0.11523364 0.09204975 -0.050201822
0.113381125 0.038671914 -0.07902269 0.043444064 -0.113450594 -0.098606326 0.066833116 -0.039566826
0.118836686 -0.027708545 0.014040915 -0.14435408 -0.1267537 0.06414226 -0.005679309 0.040116817
-0.0633775 -0.01947437 0.09317752 -0.03481749 -0.03615103 -0.023762511 0.10074558 0.07256792
0.05168149 0.009222262 0.05747206 0.078962326 -0.049645726 0.038077965 0.07734984 0.06982907
0.034264155 -0.1006123 -0.07427955 0.11538705 -0.06893756 0.011398184 -0.13617745 0.11835492
0.1175581 -0.09377294 0.06415162 -0.05054164 -0.020238044 0.010595292 -0.045823466 -0.01890807
0.12552854 0.1181074 0.046857923 0.08923705 0.0049978895 -0.024011364 -0.018766169 -0.03750373
0.11337733 -0.021372193 0.10028079 0.14495097 0.0010797576 0.11203793 0.106114045 -0.016346162
-0.011172228 -0.11525689 0.049545027 0.10962816 0.1365444 -0.10698905 0.12606025 0.03735363
00000000: 1428 afbd 1548 ba3d 2f9c e3bc 8e1f 2c3d
00000010: 6d79 9bbd fcb7 4cbd 9808 2fbd 4f7a 31bb
00000020: 8a24 a4bd cd2c 843d f43d 39bc ec45 d4bd
00000030: 9ff7 97bd 0daf 0dbd 1ee1 6fbd 4ed7 ca3d
00000040: 1990 e6bb e184 6fbd 0619 3cbd e920 ccbd
00000050: adb3 32bc 1cad b03d c68f f8bd 1e81 3dbd
00000060: 9cf8 583d bff1 65bc 824c 8cbd 1b16 8e3d
00000070: 01d0 b43c f038 763d a33d 063d 04d8 b5bd
00000080: c247 e13c 2d63 513d 31e5 a83d df64 073d
00000090: 649e 953c d80e 073e f972 a83d c296 b2bd
000000a0: cc92 6a3d c397 8b3d 7b24 373d c665 e93d
000000b0: 70db 233d 766d 343d 0abc 6a3d bd00 d3bc
000000c0: 92df f33c 5267 ec3d 6cc6 cebd bf09 dc3d
000000d0: e444 7fbd 0fa1 b03d 4c18 c6bd f5b0 d63d
000000e0: dbff ab3c 72b6 dc3d 6c18 ad3d 364b d13d
000000f0: 5f6f c23d 6096 ed3a 5c5f 993d 649b d7bc
00000100: 5b2c bebd 5962 1abd dd8e c4bd bf81 c23d
00000110: fed9 e73d 6715 dbbd 2090 93bd f525 a5bd
00000120: 7542 b73d 8fd8 8e3d 344f 403d 77e7 473c
00000130: f149 cabd b295 efbd e9cf a9bd 0d51 cf3d
00000140: 1ab9 4abd 4187 e7bb 96b2 c13d 537c 3c3d
00000150: 030c 023d c854 e53c c2cd 78bd ce5e e1bd
00000160: 7aa9 6ebd ca9e fb3d 47ea 16bc 0efc 2fbd
00000170: 3c7f bebd 784e aa3c 03e7 de3c abe4 013e
00000180: dc8d ed3d a767 4c3c 28b9 833d a8e0 e53c
00000190: 8477 023d 4776 42bd 7e29 02bd 2e8a 493d
000001a0: 3d8d 09bd 16d1 e2bd 9fdc 753d 9dbc 393d
000001b0: 58fb a3bd efe1 79bd e2da 073d d1fe 91bd
000001c0: 6806 c33d 389d 31bd 9d84 003e b6fc 69bc
000001d0: 3283 99bd 60e2 95bd 2524 f33d f207 c73d
000001e0: cdde 103e 51be e23a 3bb1 013d 70e9 5cbd
000001f0: 6830 483d 8b2d 02be df40 ebbd db0b 933b
00000200: c475 b13d ee06 b13d f20e bcbc ea83 e43d
00000210: 0875 103b 5e44 32bd e832 8a3d 0967 37bd
00000220: 9250 a4bd 8fd5 003d 1745 993d b872 d63d
00000230: 3c86 f33d 4984 afbc 1540 eabd 5927 47bd
00000240: 005a 23bd 0e66 4cbd 2ced eebd 5d61 f0bc
00000250: 66f5 14bd 314b 163d 8730 5ebc 11c3 15bd
00000260: 3982 eb3d 0e1f 4dba d1f8 033d 8a33 f6bd
00000270: 81c5 243d 6103 4ebd 1db6 ec3d 466d 7a3d
00000280: 09bb f93d 5b3b 0abd c3b4 003e d144 013d
00000290: 3236 39bd 4c94 89bd 4bbd d33d a10d d03d
000002a0: 2c0e 083d badc ce3d 656f 31bd 6f36 d03c
000002b0: 8439 393d 5483 77bd 9a92 6d3a a8ad 47bc
000002c0: 5bcb 493c 48c6 c7bd b896 ea3c 3280 e8bc
000002d0: 76b7 9c3d 9dff ebbd 9484 bc3d 6da0 4dbd
000002e0: 5d34 e83d 7166 1e3d a6d6 a1bd 67f2 313d
000002f0: c958 e8bd 1df2 c9bd cddf 883d d310 22bd
00000300: a660 f33d 08fd e2bc de0b 663c 8ed1 13be
00000310: b9cb 01be 045d 833d 7f19 babb 8851 243d
00000320: 10cc 81bd b788 9fbc dbd3 be3d c99c 0ebd
00000330: 1a13 14bd 99a9 c2bc b353 ce3d 7d9e 943d
00000340: f8af 533d f818 173c d367 6b3d 00b7 a13d
00000350: 5159 4bbd a4f7 1b3d 9869 9e3d 8b02 8f3d
00000360: 9258 0c3d d20d cebd e01f 98bd 0c50 ec3d
00000370: 232f 8dbd 73bf 3a3c 1a72 0bbe 1064 f23d
00000380: 4dc2 f03d 070c c0bd ed61 833d c004 4fbd
00000390: 41ca a5bc e097 2d3c 63b1 3bbd 19e5 9abc
000003a0: 8e8a 003e 4be2 f13d 18ee 3f3d eac1 b63d
000003b0: 56c5 a33b 7bb3 c4bc 82bb 99bc 839d 19bd
000003c0: 6032 e83d bd14 afbc 0460 cd3d 076e 143e
000003d0: a786 8d3a 2474 e53d 5252 d93d 63e8 85bc
000003e0: b80b 37bc ce0b ecbd baef 4a3d bb84 e03d
000003f0: 4cd2 0b3e 131d dbbd f015 013e 1f00 193d

weight_hh_l0 f4 [192, 64]
0.044261772 -0.09286593 0.08865846 0.070794165 0.04498994 0.0707683 -0.048300587 0.041295473
0.07505015 0.016230082 0.07514801 0.08490037 -0.09036985 -0.026949054 -0.0730458 -0.114233576
0.002445996 -0.07626081 -0.14799257 0.037106067 0.0037125524 0.080592476 -0.11474425 -0.0018795487
0.072589874 0.020751802 -0.08245329 0.061355885 -0.032700356 -0.07072814 0.04967448 -0.11094623
-0.11841166 -0.025659077 0.08242709 -0.07698902 0.045670096 0.13829727 0.08158448 0.07472074
-0.058371358 0.06075043 -0.10003056 0.02644892 -0.07054075 -0.027318759 -0.12944481 0.015141762
0.011495417 0.12717399 0.13071549 0.07126144 0.028102892 0.038867544 0.013153602 -0.028208064
0.08168728 0.12240952 -0.07622053 -0.07424424 -0.03162018 0.075301096 -0.04446039 -0.100458175
0.15098742 0.0374865 0.027167244 -0.09882719 -0.07992943 -0.006562809 -0.023770887 0.06446994
0.015996382 -0.072310284 0.044801705 -0.048135452 -0.07769764 0.061642084 -0.12249313 -0.058679607
0.042815063 0.0983489 0.053649854 -0.08417135 0.031239 -0.059066594 0.12278543 0.102926694
0.017942043 0.06633477 0.10019468 -0.023376342 0.063927025 0.04910093 -0.06750738 0.08047115
0.10976802 0.06983037 0.13263732 -0.029219612 0.105736494 0.1068728 0.059640467 -0.12384724
-0.020196885 -0.06657974 0.118315935 -0.00445088 -0.024552707 0.14347231 0.08348841 -0.11450944
0.06974822 -0.05033082 -0.074175745 -0.095555745 0.06338882 -0.07101157 0.016832955 -0.0056584254
-0.080625586 -0.09941795 -0.047300417 0.04783088 0.08431688 -0.1208177 0.011349104 0.13493808
-0.039491877 0.0029751426 0.047025196 0.051669545 -0.07337313 -0.03173399 -0.044828206 0.079966836
-0.018473556 0.08299829 0.10462489 0.09475594 -0.06283667 0.07704105 0.10964477 -0.12789994
-0.100136355 -0.12631762 -0.053426947 -0.058521915 0.065062955 -0.056227837 0.005587069 -0.087470695
-0.1088199 0.013086916 0.010068237 -0.007717398 0.097766824 0.096549086 0.100721985 -0.080709316
-0.09093419 -0.09133023 0.012578919 -0.023221001 0.018322939 -0.0026180288 -0.07876014 0.003303629
-0.060646027 0.1277335 -0.023523526 -0.042133212 0.032790363 -0.066318735 -0.10643654 0.08860556
0.0624989 -0.13390593 0.0152924 0.12956867 0.038009647 0.037804548 0.061357003 -0.0056157224
0.06459634 0.06561884 -0.06192528 -0.026177598 -0.0734646 -0.10249931 -0.047542267 -0.091784514
0.09809791 0.021842005 0.026308095 -0.043219406 0.025248215 0.052883457 -0.12965843 0.05024775
-0.072784066 -0.0034856433 0.14060828 0.050282173 0.027640812 -0.027143486 0.1514628 -0.10980816
0.066669196 0.07944247 -0.112687506 -0.12831804 -0.11159154 0.03310564 -0.08637721 0.015635177
0.069389895 0.091643006 0.0038666928 0.10005621 0.019540533 0.10655882 0.054916173 0.07335122
0.08818627 0.018630529 -0.10123241 0.039938267 -0.006020882 0.09776549 -0.14708272 -0.0936574
-0.13320345 0.06352391 -0.05442152 0.0066306167 -0.022088911 -0.10820938 -0.124540016 0.06586323
0.095429964 0.0049496316 -0.04553653 0.07975016 0.009710193 0.113568395 0.06669552 0.028855348
-0.011571597 -0.03147527 -0.09957416 0.011072139 -0.04875166 -0.14566545 0.06327702 0.018874682
00000000: d54b 353d 7e30 bebd 9192 b53d 88fc 903d
00000010: 5f47 383d f8ee 903d d6d6 45bd 7125 293d
00000020: e5b3 993d f3f4 843c 33e7 993d 3fe0 ad3d
00000030: d413 b9bd 43c4 dcbc 0999 95bd 4bf3 e9bd
00000040: 014d 203b a12e 9cbd 5d8b 17be 88fc 173d
00000050: 4b4e 733b ab0d a53d 09ff eabd 305b f6ba
00000060: 00aa 943d afff a93c 45dd a8bd 4f50 7b3d
00000070: cff0 05bd ead9 90bd 7877 4b3d c737 e3bd
00000080: d081 f2bd fc32 d2bc 89cf a83d 6bac 9dbd
00000090: 9110 3b3d cd9d 0d3e c415 a73d 3007 993d
000000a0: ce16 6fbd 71d5 783d d2dc ccbd 68ab d83c
000000b0: ab77 90bd 97cb dfbc 2e8d 04be 2715 783c
000000c0: 4657 3c3c e639 023e 48da 053e 85f1 913d
000000d0: 0938 e63c 9333 1f3d 3582 573c 9914 e7bc
000000e0: a94b a73d d8b1 fa3d 8219 9cbd 5d0d 98bd
000000f0: 2984 01bd 7637 9a3d 191c 36bd 04bd cdbd
00000100: 729c 1a3e 728b 193d d78d de3c e965 cabd
00000110: 0ab2 a3bd d50c d7bb 2abb c2bc d108 843d
00000120: d80a 833c 6a17 94bd fe81 373d ae29 45bd
00000130: f11f 9fbd 697c 7c3d aedd fabd 075a 70bd
00000140: d95e 2f3d 266b c93d f3bf 5b3d 0762 acbd
00000150: eee8 ff3c d0ef 71bd ed76 fb3d 3bcb d23d
00000160: 31fb 923c 86da 873d de32 cd3d be7f bfbc
00000170: 2cec 823d 0f1e 493d 4f41 8abd 0fce a43d
00000180: 0ece e03d 3a03 8f3d 14d2 073e f85d efbc
00000190: 608c d83d 20e0 da3d 9049 743d 9fa3 fdbd
000001a0: f073 a5bc f55a 88bd a04f f23d b0d8 91bb
000001b0: c222 c9bc 68ea 123e f9fb aa3d ed83 eabd
000001c0: 28d8 8e3d b127 4ebd 74e9 97bd bbb2 c3bd
000001d0: ffd1 813d 846e 91bd 44e5 893c 506a b9bb
000001e0: 071f a5bd a39b cbbd 15be 41bd 50ea 433d
000001f0: 54ae ac3d 456f f7bd 98f1 393c 352d 0a3e
00000200: 3cc2 21bd 9cfa 423b 7e9d 403d 72a3 533d
00000210: a744 96bd 80fb 01bd c89d 37bd a7c5 a33d
00000220: db55 97bc 02fb a93d 9345 d63d 670f c23d
00000230: 83b0 80bd b3c7 9d3d 708d e03d 34f8 02be
00000240: 4a14 cdbd 6859 01be 37d6 5abd adb4 6fbd
00000250: ba3f 853d 294f 66bd bb13 b73b d623 b3bd
00000260: f8dc debd 816a 563c 3ff5 243c 3ae2 fcbb
00000270: f939 c83d 87bb c53d 5447 ce3d ed4a a5bd
00000280: b43b babd 580b bbbd cf17 4e3c f839 bebc
00000290: fd19 963c 3c93 2bbb ff4c a1bd b381 583b
000002a0: f867 78bd 92cc 023e 69b4 c0bc e093 2cbd
000002b0: 304f 063d 1ed2 87bd 67fb d9bd d576 b53d
000002c0: d9fe 7f3d a31e 09be f98c 7a3c a6ad 043e
000002d0: 01b0 1b3d f1d8 1a3d 7b51 7b3d 1804 b8bb
000002e0: 164b 843d 2c63 863d 5da5 7dbd 6772 d6bc
000002f0: 9c74 96bd 29eb d1bd aebb 42bd 85f9 bbbd
00000300: 8fe7 c83d 01ee b23c 1384 d73c d506 31bd
00000310: 58d5 ce3c 539c 583d 2ec5 04be 96d0 4d3d
00000320: d00f 95bd 646f 64bb 9efb 0f3e aef4 4d3d
00000330: fc6e e23c 045c debc 1019 1b3e 1ae3 e0bd
00000340: dc89 883d bcb2 a23d b5c8 e6bd ce65 03be
00000350: 1b8a e4bd c899 073d 89e6 b0bd 5815 803c
00000360: 4a1c 8e3d 54af bb3d 5768 7d3b 45ea cc3d
00000370: 7813 a03c 833b da3d c8ef 603d 2a39 963d
00000380: 019b b43d 0d9f 983c f052 cfbd 4f96 233d
00000390: d24a c5bb 4639 c83d da9c 16be 73cf bfbd
000003a0: 7c66 08be d318 823d 1ae9 5ebd a545 d93b
000003b0: cef3 b4bc e19c ddbd d60e ffbd 4de3 863d
000003c0: c970 c33d 8530 a23b 8384 3abd 0d54 a33d
000003d0: 8017 1f3c 8c96 e83d a997 883d 0d62 ec3c
000003e0: cc96 3dbc 36ec 00bd 8aed cbbd eb67 353c
000003f0: d2af 47bd 5329 15be 6297 813d 149f 9a3c

bias_ih_l0 f4 [192]
-0.11522068 0.011446793 -0.024003074 0.031019613 0.0035576394 -0.12845148 -0.08392624 0.0047348323
0.02736725 -0.06906228 0.064241454 -0.051676225 0.0012259914 0.14734708 -0.07861294 -0.03217517
0.06682444 0.07223113 0.013627498 -0.004458278 -0.029685654 0.004427871 0.14208804 0.0143924905
0.023776673 0.11289103 -0.07897284 -0.10728331 -0.020411128 -0.009047221 -0.009126866 -0.13296014
0.076116316 -0.059644215 -0.077173606 0.07160566 -0.0631362 0.04478396 -0.1011537 0.062410884
0.023193777 -0.07088353 0.12417156 0.11210618 -0.11200913 -0.048609138 -0.08960305 0.009300721
-0.10709394 0.036692653 0.052286346 0.03622205 0.07711464 0.11277677 -0.08403818 -0.042248983
-0.029229645 -0.034550473 0.045909464 0.068330966 0.09327488 -0.02675818 0.029733405 0.0027269726
0.08670183 0.03189954 0.07692544 0.0075110476 -0.003755824 -0.05670949 0.026508909 -0.028243927
-0.00068217237 0.09099836 -0.14183915 0.03276899 0.035883635 -0.052745517 -0.09688451 -0.093072474
-0.08926881 -0.058449242 0.006262499 0.03366379 -0.045735687 0.05907061 -0.09730019 0.019922981
0.10126732 -0.060525775 0.06343526 0.064147644 0.10608614 -0.12205492 0.018768743 -0.0025095313
0.07710278 -0.07935339 0.031493213 0.07920575 -0.11813925 0.052373312 -0.14128458 0.0630963
-0.068660505 -0.068952665 0.0064430623 -0.03774628 -0.13034357 0.06411087 0.047338683 -0.050983936
-0.10262104 -0.07461807 -0.11774631 -0.10693318 -0.027201675 0.035111982 -0.1382041 -0.009993863
-0.047387414 0.005491317 -0.05916022 -0.118667506 0.028241651 0.017072607 0.0027479443 -0.026657479
-0.10429096 -0.10720647 0.07421859 -0.007323586 0.00059277395 -0.121282406 0.11631409 -0.094636984
-0.052535973 0.10603526 -0.12059763 0.05953017 0.09652875 0.06548253 0.024654498 0.013491501
0.08753166 0.010071904 0.09806066 0.10976919 0.033071615 -0.11402049 0.1327975 0.13608046
0.10543687 0.02812188 -0.034326542 -0.10017656 0.012262167 -0.09652698 0.0059879697 0.0673536
-0.07021242 0.024639133 0.08763807 -0.056493726 -0.060618915 -0.018102106 0.034655284 -0.07624654
-0.042660125 0.09912889 -0.041231602 0.023714526 0.090059035 0.041886874 0.021794653 -0.047029715
0.05673518 0.11437283 -0.12151673 0.090137854 -0.008285659 0.016786767 0.0031309836 0.13503884
-0.051199898 0.0026924764 0.011812112 0.025933346 -0.0062527624 0.11194904 -0.13183983 -0.06774718
00000000: d2f8 ebbd 548b 3b3c 18a2 c4bc d81c fe3c
00000010: 4927 693b c988 03be 85e1 abbd a726 9b3b
00000020: 4831 e03c 8670 8dbd 0691 833d 73aa 53bd
00000030: 72b1 a03a 27e2 163e d2ff a0bd 1cca 03bd
00000040: 41db 883d eaed 933d df45 5f3c bf16 92bb
00000050: 542f f3bc ad17 913b 877f 113e 7bce 6b3c
00000060: 4cc7 c23c 6a33 e73d 83bc a1bd 5ab7 dbbd
00000070: 3d35 a7bc cc3a 14bc da88 15bc b426 08be
00000080: dfe2 9b3d 7e4d 74bd 320d 9ebd fda5 923d
00000090: 8d4d 81bd 636f 373d ac29 cfbd 8ea2 7f3d
000000a0: e000 be3c 622b 91bd a94d fe3d ed97 e53d
000000b0: 0b65 e5bd 601a 47bd ce81 b7bd 0d62 183c
000000c0: 1154 dbbd 094b 163d 352a 563d 935d 143d
000000d0: 48ee 9d3d 82f7 e63d 361c acbd 450d 2dbd
000000e0: 0273 efbc cc84 0dbd 900b 3c3d 1bf1 8b3d
000000f0: e606 bf3d f933 dbbc 7893 f33c 02b7 323b
00000100: bb90 b13d 18a9 023d 168b 9d3d 3c1f f63b
00000110: 4524 76bb 3648 68bd 3629 d93c cf5f e7bc
00000120: d0d3 32ba 595d ba3d 483e 11be c738 063d
00000130: b8fa 123d af0b 58bd 636b c6bd c89c bebd
00000140: 91d2 b6bd 7968 6fbd a635 cd3b 0be3 093d
00000150: 5855 3bbd 06f4 713d 5245 c7bd 8535 a33c
00000160: 3e65 cf3d e0e9 77bd 58ea 813d d75f 833d
00000170: b143 d93d eef7 f9bd e8c0 993c f376 24bb
00000180: 10e8 9d3d 0884 a2bd 07ff 003d a036 a23d
00000190: fef2 f1bd 6685 563d e8ac 10be a238 813d
000001a0: e19d 8cbd 0e37 8dbd 5320 d33b d89b 1abd
000001b0: c978 05be 8f4c 833d 35e6 413d 88d4 50bd
000001c0: fb2a d2bd 5cd1 98bd fa24 f1bd c8ff dabd
000001d0: 0cd6 debc 95d1 0f3d 6085 0dbe 4dbd 23bc
000001e0: 4e19 42bd 81f0 b33b fd51 72bd f307 f3bd
000001f0: 095b e73c dadb 8b3c db16 343b c960 dabc
00000200: 8096 d5bd 118f dbbd ebff 973d b1fa efbb
00000210: 6364 1b3a e962 f8bd 1536 ee3d 09d1 c1bd
00000220: f62f 57bd 0429 d93d e4fb f6bd e8d5 733d
00000230: deb0 c53d b41b 863d 3bf8 c93c 750b 5d3c
00000240: cd43 b33d a104 253c 07d4 c83d abce e03d
00000250: 1a76 073d 9383 e9bd 11fc 073e ad58 0b3e
00000260: 49ef d73d db5f e63c fd99 0cbd 5e29 cdbd
00000270: 42e7 483c f0af c5bd bb36 c43b aff0 893d
00000280: 87cb 8fbd 02d8 c93c 977b b33d f765 67bd
00000290: 8a4b 78bd de4a 94bc b3f2 0d3d 2527 9cbd
000002a0: 62bc 2ebd 1604 cb3d 78e2 28bd f744 c23c
000002b0: df70 b83d 9291 2b3d b38a b23c 3ba2 40bd
000002c0: 2663 683d 4d3c ea3d c3dd f8bd 329a b83d
000002d0: 93c0 07bc 6784 893c 3031 4d3b 9f47 0a3e
000002e0: fcb6 51bd 4274 303b 9787 413c 2b72 d43c
000002f0: f9e3 ccbb 8a45 e53d 0501 07be 09bf 8abd

bias_hh_l0 f4 [192]
-0.0035143155 0.08101075 -0.09299357 -0.10214163 0.058942 -0.00463231 -0.015155113 -0.06804597
-0.0019207137 0.014630695 -0.059761897 0.015622923 0.09138556 0.08200029 0.117469445 0.07280152
-0.119922794 -0.07140918 0.08900236 -0.0740928 0.041437782 0.130818 -0.02611966 -0.086499676
-0.13452488 0.040290125 0.08842249 -0.07150665 -0.032991927 0.081347376 -0.10842172 0.03633911
-0.010412853 0.004085857 0.08724666 -0.017496902 0.114005424 0.13245425 0.12286917 0.018085822
-0.08209877 -0.0011870975 0.13229296 -0.10149761 0.07667666 -0.1068692 -0.005695089 0.047697302
-0.022705901 0.0942257 -0.05771711 0.1210332 -0.034504235 -0.10497007 0.039775796 0.095082164
0.008273179 0.05943818 0.028020516 -0.0049890634 0.0067975684 -0.04880549 -0.013383818 -0.094325915
0.070272185 -0.06959174 -0.03755839 -0.08369512 -0.035524692 -0.038101956 0.05010777 0.052695904
-0.08335383 -0.02963928 -0.14691846 -0.02725083 0.07787613 -0.1224867 0.08904504 0.05745028
0.020130452 -0.07874677 0.08838886 -0.07313605 0.002165918 -0.112421885 -0.008989143 0.024568165
-0.03676783 0.072701424 0.038433637 0.0026151359 0.07989155 -0.007863688 0.044656202 -0.09578014
0.03936977 -0.11165922 -0.05905647 0.085806966 0.035674073 0.024329992 0.05364847 0.046439707
0.010738663 0.061231557 -0.070295654 -0.11338201 0.09033815 0.12684876 -0.008871943 0.049811177
-0.0017387597 -0.04657461 -0.05966512 0.004692344 0.11834093 0.018768592 -0.024566095 -0.08214361
-0.09777841 -0.14984404 -0.015065482 0.05730486 0.016220596 -0.10906228 -0.10053033 0.074607685
0.08076702 -0.09362005 -0.052663762 -0.021425951 -0.11690956 0.06350256 -0.10023025 -0.06486321
-0.01884283 0.05906407 0.10292286 0.008641818 -0.1074661 0.048597477 -0.13831605 0.025848806
0.07673931 0.02537392 0.14253554 0.13412818 -0.06588342 -0.12370459 0.040271685 -0.09182236
-0.010991093 0.112146355 -0.08643083 -0.071272045 0.14004017 -0.13768949 0.056074724 -0.06533393
-0.031238724 -0.065894425 0.04707883 0.099954106 -0.03430897 0.008096686 0.118818894 0.029168764
0.028543767 0.085714325 0.03361019 0.02678432 0.12584418 -0.058500618 0.015878763 -0.050528444
0.13949649 -0.011608677 0.06679483 0.0048591187 0.10927725 -0.09805187 0.118342295 -0.021564567
0.036878377 0.002566308 -0.065186314 -0.08733196 0.08338671 -0.09874652 -0.016648317 -0.07102517
00000000: 6e50 66bb f7e8 a53d 6a73 bebd a22f d1bd
00000010: 2b6d 713d a2ca 97bb 274d 78bc af5b 8bbd
00000020: 75c0 fbba 95b5 6f3c e4c8 74bd 4af7 7f3c
00000030: 5a28 bb3d c5ef a73d d293 f03d f718 953d
00000040: 159a f5bd fa3e 92bd df46 b63d f7bd 97bd
00000050: aaba 293d 27f5 053e e6f8 d5bc be26 b1bd
00000060: e4c0 09be 4207 253d da16 b53d 1472 92bd
00000070: 8b22 07bd 7499 a63d 350c debd 52d8 143d
00000080: ac9a 2abc a7e2 853b 60ae b23d aa55 8fbc
00000090: ad7b e93d 16a2 073e d5a2 fb3d b828 943c
000000a0: 6623 a8bd 6298 9bba ce77 073e fbdd cfbd
000000b0: a708 9d3d 3dde dabd df9d babb 3f5e 433d
000000c0: ba01 babc 67f9 c03d c768 6cbd 41e0 f73d
000000d0: 5054 0dbd 8cfa d6bd f2eb 223d 70ba c23d
000000e0: 3a8c 073c 7375 733d 488b e53c 4c7b a3bb
000000f0: 23be de3b 44e8 47bd cd47 5bbc f22d c1bd
00000100: ddea 8f3d 1d86 8ebd d4d6 19bd 5968 abbd
00000110: 5782 11bd cc10 1cbd ce3d 4d3d a9d7 573d
00000120: 6ab5 aabd 13ce f2bc cb71 16be 223d dfbc
00000130: 857d 9f3d 4fda fabd 3f5d b63d fc50 6b3d
00000140: 9ee8 a43c fd45 a1bd 3805 b53d 5ac8 95bd
00000150: 13f2 0d3b 723d e6bd 3347 13bc 2d43 c93c
00000160: dd99 16bd 7ce4 943d 976c 1d3d b362 2b3b
00000170: 2e9e a33d b3d6 00bc 6ce9 363d 6128 c4bd
00000180: 3242 213d 97ad e4bd 32e5 71bd 90bb af3d
00000190: fa1e 123d b14f c73c 80be 5b3d 9037 3e3d
000001a0: 38f1 2f3c f1cd 7a3d 2bf7 8fbd d434 e8bd
000001b0: 3503 b93d a4e4 013e a05b 11bc ce06 4c3d
000001c0: 18e7 e3ba 05c5 3ebd 6a63 74bd 3cc2 993b
000001d0: bb5c f23d 97c0 993c d63e c9bc e93a a8bd
000001e0: 0c40 c8bd b770 19be 36d5 76bc 80b8 6a3d
000001f0: 0ee1 843c 0b5c dfbd d8e2 cdbd eacb 983d
00000200: 2e69 a53d debb bfbd f5b5 57bd 7a85 afbc
00000210: 486e efbd a10d 823d 8445 cdbd 01d7 84bd
00000220: 475c 9abc 2bed 713d 38c9 d23d 6996 0d3c
00000230: 3017 dcbd 260e 473d b9a2 0dbe e0c0 d33c
00000240: 8029 9d3d f8dc cf3c d6f4 113e e658 093e
00000250: e3ed 86bd d558 fdbd ecf3 243d 5d0d bcbd
00000260: fc13 34bc fdac e53d a602 b1bd 14f7 91bd
00000270: b166 0f3e 79fe 0cbe 9cae 653d cccd 85bd
00000280: 5ae8 ffbc a8f3 86bd bbd5 403d bdb4 cc3d
00000290: 9087 0cbd f6a7 043c 5257 f33d 55f3 ee3c
000002a0: 9ed4 e93c fe8a af3d d7aa 093d ca6a db3c
000002b0: 4cdd 003e 589e 6fbd 2e14 823c eaf6 4ebd
000002c0: 2bd8 0e3e 5232 3ebc bacb 883d 3e39 9f3b
000002d0: c0cc df3d 6bcf c8bd 725d f23d 2da8 b0bc
000002e0: c80d 173d 812f 283b 6780 85bd 19db b2bd
000002f0: a7c6 aa3d 9e3b cabd 0d62 88bc a575 91bd

weight f4 [1, 64]
0.06745499 0.057902977 0.104942314 0.10766287 -0.06836998 -0.001117432 0.0024345322 0.03876562
0.120921485 0.03667762 -0.063938715 -0.078682356 -0.067442015 0.015546123 -0.09437973 0.028221037
-0.08171359 0.07291988 0.102524295 0.07062137 0.036605798 -0.08075966 0.075069815 0.1041072
0.08437331 0.09479277 0.07795099 -0.09342098 0.071471564 -0.09435316 0.120803945 -0.0005410568
0.12394814 -0.082539834 0.07406994 -0.04396102 0.09894983 -0.08860216 0.119312085 -0.0052864696
-0.098765954 -0.0660665 0.010758674 0.05863824 0.012757163 0.009547581 0.024611356 -0.07770392
0.03480223 0.05454369 -0.119333714 -0.08708894 0.0044696797 -0.001004284 0.10952855 0.017199142
-0.0335993 -0.08031034 0.021066668 -0.06851962 0.06508335 0.05870945 -0.010159998 0.001397847
00000000: d825 8a3d ac2b 6d3d ffeb d63d 5a7e dc3d
00000010: 8f05 8cbd cc76 92ba ac8c 1f3b b3c8 1e3d
00000020: afa5 f73d 463b 163d 4df2 82bd 3724 a1bd
00000030: 0a1f 8abd 2ab5 7e3c 294a c1bd ce2f e73c
00000040: 7459 a7bd 0557 953d 42f8 d13d f0a1 903d
00000050: f6ef 153d 5265 a5bd 34be 993d 2836 d53d
00000060: eacb ac3d b622 c23d c5a4 9f3d 8053 bfbd
00000070: af5f 923d 3b3c c1bd 0f68 f73d b5d5 0dba
00000080: 86d8 fd3d a50a a9bd fbb1 973d 7810 34bd
00000090: 35a6 ca3d 0d75 b5bd e559 f43d 1f3a adbb
000000a0: ce45 cabd e04d 87bd 2645 303c a72e 703d
000000b0: 6b03 513c 756d 1c3c c19d c93c 3c23 9fbd
000000c0: c88c 0e3d 3469 5f3d 3c65 f4bd b05b b2bd
000000d0: 6476 923b 2ea2 83ba 8150 e03d 37e5 8c3c
000000e0: 6b9f 09bd bf79 a4bd 0194 ac3c 0454 8cbd
000000f0: 6b4a 853d 5279 703d 1f76 26bc f637 b73a
