models/lstm_encoder/checkpoint/trained_irdpg_80.pth (torch, 409346 bytes, 22 tensors)

weight_ih_l0 f4 [192, 64]
0.06678545 -0.045605004 0.1035275 0.040916007 0.037300285 0.10691881 0.020190693 0.037341915
0.068454385 0.05947904 -0.0611901 -0.10847426 -0.044186957 -0.008270344 0.0842292 -0.059308786
-0.115604766 0.121202394 -0.0067502 -0.11183355 -0.078442626 -0.034426466 0.085071824 0.07940228
-0.029135844 -0.056878474 0.06685359 0.05589054 0.0042312667 0.042329658 0.09920334 0.05423803
-0.11168467 -0.1147563 0.022669343 0.06641768 0.06956731 -0.011550756 -0.11364482 0.111030646
0.014733312 0.029985633 -0.085906126 0.09333757 -0.008825443 0.02373928 -0.09910687 0.121333115
-0.10003546 -0.075448655 -0.08666544 0.012609317 0.106039606 -0.050472997 0.113108486 0.04435785
0.039919365 0.08798861 -0.069830306 -0.11256918 0.0038913605 0.05939639 0.08546046 -0.050495777
0.013326214 -0.010653019 0.0067959675 0.12305186 -0.088380165 0.03476911 -0.013761268 -0.058913615
0.013771727 0.020246834 -0.018111046 -0.034606207 -0.046749342 -0.06947837 -0.05910862 0.016112816
-0.04108973 0.01232869 -0.108793765 -0.00985485 -0.04240273 -0.11351071 0.10430655 -0.043263942
0.02002452 0.07195349 0.10665456 0.10495821 0.0054590637 -0.035522904 -0.09812947 -0.006214999
0.103630036 0.006355511 0.040872585 -0.08621525 0.12125685 0.11614325 0.032156903 -0.0027398386
-0.11395213 0.08916529 0.015141946 -0.05485669 -0.03486062 -0.024942523 -0.022528216 -0.11044922
-0.0866287 -0.030760154 0.0029435724 -0.030475399 0.05665026 -0.06490425 0.06848568 -0.006215717
-0.121031225 0.019142982 -0.04176531 -0.07957447 0.048925396 -0.052473802 0.032943837 0.01578418
0.018464148 0.036339797 -0.03263657 0.079735406 0.07871113 -0.058105208 -0.04058303 0.065511584
0.12234843 0.07968416 -0.03623013 0.00398461 -0.09947483 -0.0465163 0.0038826163 0.063898705
0.10289681 -0.04037531 0.023996675 0.08152883 -0.05660909 0.040857285 0.032008402 0.0037981875
0.10629327 -0.10077408 0.04166133 -0.09421621 0.10796161 -0.034086164 -0.03477369 -0.0013671397
0.01714458 -0.072644025 -0.096324265 0.018771397 -0.08964135 -0.010521481 0.10724553 0.032107983
-0.023136828 0.12221027 0.09303205 -0.04159472 0.031626716 0.022888616 -0.07448349 0.05489708
-0.085551225 -0.07406616 0.062414113 -0.09865797 0.12484748 0.04749522 0.0057971054 0.0012877355
0.048652183 0.026735531 -0.024605524 0.03316956 -0.11214378 -0.045533124 0.06193952 0.032387372
0.0407334 0.0333576 -0.026870696 -0.091301724 -0.055597022 -0.061429065 0.10850858 -0.11686889
-0.04165444 0.087121524 0.07843005 -0.040204868 -0.081284896 -0.05776763 -0.036597937 0.077602
0.12214866 -0.024347829 0.03557978 -0.0765501 -0.1074932 -0.100207515 0.017736254 -0.013001185
-0.10543283 -0.03174604 -0.069347784 0.11978526 -0.115606874 -0.041417304 0.0968702 0.026436953
-0.06294823 0.062665515 -0.029544337 0.09420274 0.10797615 0.077465415 0.12654033 0.025434846
0.014635649 -0.11193897 -0.07780592 0.030628605 0.041864146 0.06229582 0.035181966 0.09943164
0.09616649 -0.06636285 0.00023745066 -0.11702058 0.052436814 -0.0035568366 0.12000936 0.02567576
0.048545144 0.07490228 0.11775902 0.03466339 -0.10011139 0.0035124978 -0.046243474 0.09035079
00000000: cfc6 883d 50cc 3abd 3a06 d43d 8b97 273d
00000010: 2fc8 183d 40f8 da3d f466 a53c d6f3 183d
00000020: d031 8c3d 4ba0 733d 78a2 7abd c127 debd
00000030: 62fd 34bd 5680 07bc 5c80 ac3d c5ed 72bd
00000040: 31c2 ecbd f638 f83d c830 ddbb fd08 e5bd
00000050: 87a6 a0bd c402 0dbd 233a ae3d aa9d a23d
00000060: 4bae eebc 67f9 68bd 89ea 883d 7bed 643d
00000070: 70a6 8a3b dd61 2d3d 1f2b cb3d b228 5e3d
00000080: efba e4bd 5a05 ebbd 0fb5 b93c fe05 883d
00000090: 4e79 8e3d 623f 3dbc 9ebe e8bd 0964 e33d
000000a0: fd63 713c 6ea4 f53c 8def afbd c527 bf3d
000000b0: 9798 10bc e178 c23c 8bf8 cabd 7f7d f83d
000000c0: 64df ccbd d384 9abd a67d b1bd 4f97 4e3c
000000d0: 4b2b d93d c6bc 4ebd 6ca5 e73d 94b0 353d
000000e0: 7d82 233d 5f33 b43d 3103 8fbd ac8a e6bd
000000f0: 3206 7f3b a149 733d e505 af3d a9d4 4ebd
00000100: 3156 5a3c 008a 2ebc b5b0 de3b 9d02 fc3d
00000110: a900 b5bd 0e6a 0e3d f176 61bc 674f 71bd
00000120: cfa2 613c b0dc a53c 9e5d 94bc 3dbf 0dbd
00000130: 3d7c 3fbd ad4a 8ebd e11b 72bd 06ff 833c
00000140: b44d 28bd 46fe 493c 44cf debd 3d76 21bc
00000150: 7cae 2dbd 4e78 e8bd ac9e d53d 8835 31bd
00000160: 760a a43c 5a5c 933d b56d da3d 54f4 d63d
00000170: f2e1 b23b 7780 11bd 1bf8 c8bd 31a7 cbbb
00000180: fc3b d43d e441 d03b 036a 273d 9f91 b0bd
00000190: 8355 f83d 83dc ed3d f5b6 033d dd8e 33bb
000001a0: bc5f e9bd 4b9c b63d ed15 783c 69b1 60bd
000001b0: 02ca 0ebd 4354 ccbc 188d b8bc 3333 e2bd
000001c0: 636a b1bd b8fc fbbc f3e8 403b 8ba7 f9bc
000001d0: 1a0a 683d 85ec 84bd 3842 8c3d 37ad cbbb
000001e0: 38df f7bd bed1 9c3c 1a12 2bbd f1f7 a2bd
000001f0: ff65 483d c5ee 56bd 1ef0 063d d34d 813c
00000200: 2042 973c 0ad9 143d edad 05bd 514c a33d
00000210: 4d33 a13d baff 6dbd 643a 26bd f02a 863d
00000220: d091 fa3d 7331 a33d 0b66 14bd 5591 823b
00000230: 76b9 cbbd e087 3ebd 7e73 7e3b 53dd 823d
00000240: 90bb d23d 9560 25bd ad94 c43c 96f8 a63d
00000250: efde 67bd f859 273d 3e1b 033d 03eb 783b
00000260: 49b0 d93d a462 cebd 12a5 2a3d 6ef4 c0bd
00000270: fa1a dd3d ef9d 0bbd db6e 0ebd 9931 b3ba
00000280: ca72 8c3c 64c6 94bd a845 c5bd 79c6 993c
00000290: e295 b7bd 4a62 2cbc 8ba3 db3d a983 033d
000002a0: 7289 bdbc 6149 fa3d 9687 be3d 3a5f 2abd
000002b0: 048b 013d e880 bb3c cd8a 98bd c3db 603d
000002c0: 7b35 afbd 00b0 97bd f1a5 7f3d 310d cabd
000002d0: 09b0 ff3d 598a 423d a5f5 bd3b 3cc9 a83a
000002e0: 8347 473d 7904 db3c 8691 c9bc cedc 073d
000002f0: a3ab e5bd f180 3abd 4bb4 7d3d 9fa8 043d
00000300: 11d8 263d fba1 083d ef1f dcbc 66fc babd
00000310: b4b9 63bd 0b9d 7bbd bf39 de3d f558 efbd
00000320: d99d 2abd c56c b23d ef9f a03d dcad 24bd
00000330: b278 a6bd c09d 6cbd b8e7 15bd cced 9e3d
00000340: 1429 fa3d 1975 c7bc 1abc 113d 4dc6 9cbd
00000350: 6525 dcbd 9939 cdbd 9f4b 913c ec02 55bc
00000360: 2bed d7bd 2308 02bd 3606 8ebd f951 f53d
00000370: 4cc3 ecbd 31a5 29bd e263 c63d 4f92 d83c
00000380: 00eb 80bd c756 803d f706 f2bc 5eed c03d
00000390: 9a22 dd3d 30a6 9e3d ca93 013e bd5c d03c
000003a0: 5cca 6f3c 4240 e5bd b658 9fbd d7e8 fa3c
000003b0: bd79 2b3d e729 7f3d f71a 103d d1a2 cb3d
000003c0: f0f2 c43d 3fe9 87bd 2dfc 7839 7ca8 efbd
000003d0: fcc7 563d d119 69bb 78c7 f53d f955 d23c
000003e0: 46d7 463d 5e66 993d a42b f13d 33fb 0d3d
000003f0: 3307 cdbd ef31 663b cc69 3dbd d609 b93d

weight_hh_l0 f4 [192, 64]
0.12116557 0.013480451 0.043739673 0.0784391 -0.06839992 -0.06974233 0.019659486 -0.037251484
0.07989449 0.11871658 -0.0041367793 0.12059354 -0.021678764 0.07549894 -0.0470301 -0.09951214
-0.0068328944 -0.0026264235 0.008245739 0.03730478 0.060100187 0.10094024 0.09956453 -0.09493009
-0.013277534 -0.029225264 0.11859431 -0.11111243 0.009787045 -0.05082675 -0.020239204 -0.035317596
-0.07555607 -0.06850763 -0.08819868 0.102791086 0.027222365 0.104935855 -0.12573665 0.09434454
-0.0523932 0.06751057 -0.04735267 0.046687387 0.02160639 -0.02418951 0.046684477 0.09710604
0.036867484 -0.038956314 -0.06298984 0.07254203 -0.057230983 0.06186198 -0.0773909 0.054974545
-0.029451363 0.026668048 -0.10011155 0.11555416 -0.05931833 0.040873613 -0.04316317 -0.095891245
0.07173753 -0.061996307 0.05616545 0.017546855 0.07501088 -0.006220529 0.08146593 -0.03329919
0.098741174 0.06601055 -0.048505876 -0.119265355 0.09325373 -0.09233572 -0.08372793 -0.08263409
0.04550806 -0.009830702 0.046195734 -0.095989704 0.009338159 0.09793765 0.09673153 0.008325937
0.03229818 -0.05503368 0.10442356 -0.037666433 0.031845983 -0.08926464 0.082437344 0.102440156
-0.09970058 0.0030380916 0.045286994 0.11240693 -0.036099438 0.09797083 -0.11729722 -0.00035158946
0.099469066 -0.0077170995 0.046893764 -0.056143776 0.06680649 0.1115306 0.05497788 0.0736881
-0.013428595 0.12127508 0.1082299 -0.024312297 -0.09258312 0.03883405 0.1173456 0.010887249
-0.0767364 0.027608143 0.036488768 0.054742776 -0.0044491733 0.103952 -0.074998975 0.09935624
-0.07922149 -0.022990935 -0.052254625 -0.0050086463 -0.027440093 -0.10631174 -0.10723571 0.06493822
0.052591845 -0.105578594 0.10217968 0.016350163 0.074475765 0.120734096 0.046690624 -0.10197027
-0.044912633 0.07621932 -0.07567381 0.110948175 0.08449443 -0.10060656 0.02984328 -0.023260118
-0.088507235 0.031006755 0.079680204 0.0031902166 0.10609677 0.03503742 0.07652781 0.04603565
0.009924314 -0.0074606068 0.001375014 0.08869676 0.08214616 0.05335921 0.108921014 0.04904004
0.08367221 -0.059310038 0.038022354 -0.045440022 -0.04663329 -0.052324764 0.051503684 -0.11855331
0.051729135 0.009670418 -0.0023550538 -0.019140974 -0.06547021 -0.1115367 -0.08069391 0.121228114
0.09629461 0.12345177 -0.097585626 -0.048480604 -0.09851199 -0.033330157 -0.07124809 0.024633374
0.06430221 0.06395746 -0.013007448 -0.04623892 -0.11513871 -0.06447018 0.1065302 -0.06756509
0.09796013 -0.03544932 0.043618366 -0.12123217 -0.07525694 -0.036720797 0.075081944 -0.037713923
0.09558893 0.048823997 0.11210431 -0.11317581 0.059826855 0.026690034 0.044177122 -0.107786715
0.11017551 0.022839317 0.048141547 0.031221703 0.061371475 -0.09492913 -0.06438685 -0.035168603
0.11185975 -0.054641087 -0.11648662 0.11813554 -0.004754726 -0.10208829 -0.00020011228 0.10012072
-0.10833687 -0.058870476 0.07105715 0.03900358 -0.035295043 0.04600597 -0.054651827 0.12566371
-0.035295174 0.098350465 0.12155043 0.076900676 -0.064594194 0.123655535 0.08436074 -0.0062303254
-0.026168952 0.087720916 0.08295589 -0.12605667 -0.061117712 0.09939356 -0.019310165 0.068442084
00000000: a825 f83d 1cdd 5c3c 5f28 333d aea4 a03d
00000010: 4215 8cbd 11d5 8ebd ee0c a13c 0395 18bd
00000020: b99f a33d ae21 f33d d28d 87bb bff9 f63d
00000030: aa97 b1bc 309f 9a3d a2a2 40bd 05cd cbbd
00000040: 79e6 dfbb 1320 2cbb 2319 073c e6cc 183d
00000050: 9d2b 763d c2b9 ce3d 7de8 cb3d b56a c2bd
00000060: 048a 59bc d269 efbc 93e1 f23d ea8e e3bd
00000070: d859 203c b62f 50bd b0cc a5bc 2fa9 10bd
00000080: 24bd 9abd ba4d 8cbd 82a1 b4bd 2284 d23d
00000090: 7001 df3c 9ce8 d63d 1cc1 00be b637 c13d
000000a0: 419a 56bd fb42 8a3d e0f4 41bd 463b 3f3d
000000b0: e2ff b03c 1429 c6bc 3938 3f3d 88df c63d
000000c0: 5c02 173d a890 1fbd d100 81bd ea90 943d
000000d0: 096b 6abd fd62 7d3d 1f7f 9ebd fd2c 613d
000000e0: fc43 f1bc f376 da3c 4907 cdbd a9a7 ec3d
000000f0: c7f7 72bd 176b 273d ddcb 30bd a162 c4bd
00000100: 20eb 923d d7ef 7dbd be0d 663d 6cbe 8f3c
00000110: 4e9f 993d 94d5 cbbb 9cd7 a63d bb64 08bd
00000120: d038 ca3d 8a30 873d 19ae 46bd 6541 f4bd
00000130: d0fb be3d 831a bdbd 8d79 abbd 103c a9bd
00000140: a966 3a3d f410 21bc bd37 3d3d 4096 c4bd
00000150: 14ff 183c 8993 c83d 2e1b c63d 8369 083c
00000160: 194b 043d ff6a 61bd 05dc d53d 1e48 1abd
00000170: ef70 023d 61d0 b6bd e9d4 a83d 25cc d13d
00000180: d12f ccbd b81a 473b db7e 393d 9b35 e63d
00000190: 01dd 13bd eea4 c83d 8639 f0bd 8a55 b8b9
000001a0: 70b6 cb3d b9df fcbb ad13 403d 04f7 65bd
000001b0: d7d1 883d 286a e43d 7c30 613d c9e9 963d
000001c0: 9c03 5cbc 125f f83d a3a7 dd3d 952a c7bc
000001d0: 389c bdbd 7410 1f3d e452 f03d 6f60 323c
000001e0: f927 9dbd 792a e23c 3f75 153d f639 603d
000001f0: 5fca 91bb c9e4 d43d 1099 99bd 497b cb3d
00000200: e03e a2bd 7c57 bcbc f208 56bd 921f a4bb
00000210: 0cca e0bc f8b9 d9bd 659e dbbd 54fe 843d
00000220: 8c6a 573d 9739 d8bd 9443 d13d c7f0 853c
00000230: c086 983d 7043 f73d ab3e 3f3d cad5 d0bd
00000240: 4ff6 37bd e018 9c3d dffa 9abd cc38 e33d
00000250: 6a0b ad3d d00a cebd e579 f43c 018c bebc
00000260: 4843 b5bd e101 fe3c 602f a33d f412 513b
00000270: 4349 d93d 6683 0f3d 9dba 9c3d e18f 3c3d
00000280: 9799 223c 1b78 f4bb d039 b43a a6a6 b53d
00000290: 3f3c a83d 308f 5a3d fb11 df3d 35de 483d
000002a0: 565c ab3d 15ef 72bd 54bd 1b3d 511f 3abd
000002b0: 8c02 3fbd 7e52 56bd 87f5 523d 14cc f2bd
000002c0: eee1 533d ac70 1e3c 3f57 1abb 88cd 9cbc
000002d0: 3f15 86bd 5a6d e4bd d942 a5bd 7246 f83d
000002e0: 1c36 c53d 48d4 fc3d f9da c7bd 9993 46bd
000002f0: a7c0 c9bd 3485 08bd 85ea 91bd eecb c93c
00000300: e1b0 833d 21fc 823d 311d 55bc 0665 3dbd
00000310: d8cd ebbd f108 84bd 812c da3d 915f 8abd
00000320: 529f c83d 4e33 11bd 2ca9 323d 9248 f8bd
00000330: 5020 9abd 8c68 16bd 90c4 993d ea79 1abd
00000340: 21c4 c33d acfb 473d f296 e53d b8c8 e7bd
00000350: 010d 753d 0fa5 da3c 12f3 343d 48bf dcbd
00000360: b3a3 e13d 8519 bb3c 1230 453d a8c4 ff3c
00000370: a860 7b3d 346a c2bd 41dd 83bd f40c 10bd
00000380: b916 e53d 55cf 5fbd 8990 eebd 0cf1 f13d
00000390: 88cd 9bbb aa13 d1bd 3bd5 51b9 180c cd3d
000003a0: b9df ddbd 2b22 71bd 6986 913d 38c2 1f3d
000003b0: 8991 10bd c270 3c3d 98da 5fbd fdad 003e
000003c0: ac91 10bd f86b c93d 6fef f83d 1a7e 9d3d
000003d0: f649 84bd 1d3f fd3d 53c5 ac3d c227 ccbb
000003e0: 4560 d6bc 06a7 b33d c7e4 a93d 0015 01be
000003f0: 9156 7abd da8e cb3d 5a30 9ebc 5d2b 8c3d

bias_ih_l0 f4 [192]
0.002760753 0.0668648 -0.06894617 0.072587766 0.03270776 -0.012702062 0.09406548 0.042888798
0.07466104 0.08137347 -0.042923305 0.11784999 0.07430238 -0.0025692086 -0.07260991 0.048350077
0.058315266 -0.0083693005 -0.06535845 0.06534823 0.12510778 0.018152801 -0.093157224 0.06867991
-0.12611751 -0.098665275 -0.0603745 -0.01189493 0.0951501 0.092195265 0.010210953 0.010271462
-0.05301044 -0.07571007 0.10866347 -0.07837736 0.033251114 -0.059809353 0.063598774 -0.037757427
-0.02634781 -0.11550731 0.03402635 0.07098421 0.11407904 0.032675844 0.07915768 -0.11013646
-0.09859433 0.07237676 -0.074967235 -0.10863059 0.0073524015 0.029011639 -0.04464914 -0.11142017
-0.0797935 0.037395112 0.0011996615 0.014925987 0.012618204 0.101657264 -0.024768127 -0.103312425
-0.018603966 -0.026832387 0.017388849 0.09747279 0.05679041 0.11299169 -0.008724782 0.09003705
0.021184111 -0.059887767 -0.07233059 -0.007876615 -0.043539606 -0.116290174 -0.093119405 -0.11712702
0.11510811 -0.070814155 -0.05789297 -0.015674943 0.09667904 -0.07301238 0.044709455 0.08496831
-0.09132071 0.075358406 0.041289113 -0.00304641 0.011679594 0.091692664 0.1119469 -0.042315185
-0.1112166 -0.090392604 -0.0002475556 0.083626024 -0.024850577 0.065968215 0.017567668 -0.017883776
0.12680578 0.045212682 0.07655038 0.10218655 -0.005766105 0.015564787 0.050736774 -0.04654629
0.101453006 -0.041878216 0.018791934 -0.10517284 -0.06142546 -0.049148384 -0.07462879 0.110798925
0.12687205 -0.043336365 -0.052882522 -0.07104131 -0.060266487 0.07754704 0.11000697 -0.07271163
0.100840315 -0.07649796 0.018439537 -0.0005079996 0.07290978 -0.121837236 -0.062209185 0.11920963
0.100133725 0.109635934 0.11463039 0.11913556 -0.012291838 -0.09335392 0.12335038 -0.040240426
0.021203978 0.03651572 0.025967212 0.056035303 -0.09825505 -0.07846906 -0.034725267 0.018837454
0.10485087 0.031213017 -0.05956522 0.094702035 -0.032452825 0.11923581 0.087224185 0.061647266
-0.117519215 -0.09775748 -0.09831991 -0.104456075 -0.081075564 -0.059984174 0.07931735 0.06256663
-0.07525966 0.07634753 0.04883498 -0.121494606 -0.03166774 0.0792273 -0.012631651 -0.11452206
0.023303565 0.0015032178 -0.04078153 0.0982002 0.12583587 0.099975646 0.052479923 0.08473783
0.11293535 -0.0014038114 0.114113964 -0.021950675 -0.10352265 0.007611573 0.08597509 0.09636243
00000000: c0ed 343b 6af0 883d a633 8dbd e5a8 943d
00000010: 92f8 053d 4f1c 50bc 67a5 c03d 2aac 2f3d
00000020: e3e7 983d 22a7 a63d 59d0 2fbd 565b f13d
00000030: d92b 983d 2b60 28bb 81b4 94bd bb0a 463d
00000040: fddb 6e3d 641f 09bc a7da 85bd 4bd5 853d
00000050: 411c 003e 2fb5 943c 37c9 bebd 0da8 8c3d
00000060: f324 01be 0511 cabd 404b 77bd f4e2 42bc
00000070: 0ede c23d dfd0 bc3d d74b 273c a249 283c
00000080: 7a21 59bd e20d 9bbd f48a de3d 4f84 a0bd
00000090: 5232 083d a7fa 74bd 1340 823d 88a7 1abd
000000a0: 5dd7 d7bc 198f ecbd 375f 0b3d 2b60 913d
000000b0: 46a2 e93d 1bd7 053d 6c1d a23d 398f e1bd
000000c0: d3eb c9bd 443a 943d 6c88 99bd b779 debd
000000d0: 6aec f03b d1a9 ed3c 04e2 36bd 4230 e4bd
000000e0: c66a a3bd 9e2b 193d f63d 9d3a 218c 743c
000000f0: 95bc 4e3c af31 d03d 87e6 cabc 7795 d3bd
00000100: 5867 98bc 98cf dbbc 0f73 8e3c d09f c73d
00000110: 109d 683d 3068 e73d 63f2 0ebc 5865 b83d
00000120: 4d8a ad3c e04c 75bd 0f22 94bd eb0c 01bc
00000130: 9656 32bd 8b29 eebd 63b5 bebd 4be0 efbd
00000140: cdbd eb3d 0307 91bd 2e21 6dbd bd68 80bc
00000150: a9ff c53d 8487 95bd 4321 373d de03 ae3d
00000160: 5a06 bbbd 8255 9a3d c61e 293d 47a6 47bb
00000170: c55b 3f3c 5dc9 bb3d 6b44 e53d b052 2dbd
00000180: 87c5 e3bd c21f b9bd 5aca 81b9 1f44 ab3d
00000190: 7093 cbbc 581a 873d 12ea 8f3c ff80 92bc
000001a0: 60d9 013e ef30 393d 72c6 9c3d 2f47 d13d
000001b0: 98f1 bcbb 7303 7f3c 5dd1 4f3d 53a7 3ebd
000001c0: 98c6 cf3d 7e88 2bbd 8bf1 993c dc64 d7bd
000001d0: 4399 7bbd d14f 49bd fbd6 98bd 8cea e23d
000001e0: bfea 013e 7981 31bd 589b 58bd 1b7e 91bd
000001f0: fed9 76bd fcd0 9e3d 564b e13d d6e9 94bd
00000200: 5e85 ce3d f6aa 9cbd 830e 973c 472b 05ba
00000210: b951 953d cd85 f9bd 0fcf 7ebd 2e24 f43d
00000220: e912 cd3d ce88 e03d 57c3 ea3d 58fd f33d
00000230: b563 49bc 5730 bfbd 209f fc3d 25d3 24bd
00000240: f7b3 ad3c 8291 153d 31b9 d43c 4685 653d
00000250: f239 c9bd 63b4 a0bd 153c 0ebd 0151 9a3c
00000260: 0ebc d63d 71b2 ff3c a9fa 73bd 24f3 c13d
00000270: 41ed 04bd e831 f43d 98a2 b23d d881 7c3d
00000280: eaad f0bd 1335 c8bd f35b c9bd 11ed d5bd
00000290: f20a a6bd f7b1 75bd 2371 a23d ef22 803d
000002a0: bd21 9abd 185c 9c3d 3007 483d 2ad2 f8bd
000002b0: 08b6 01bd ec41 a23d fcf4 4ebc 8b8a eabd
000002c0: 1ee7 be3c 9f07 c53a 890a 27bd 301d c93d
000002d0: 1edb 003e 08c0 cc3d 30f5 563d 078b ad3d
000002e0: a64a e73d 1800 b8ba 95b4 e93d e7d1 b3bc
000002f0: af03 d4bd 816a f93b b513 b03d aa59 c53d

bias_hh_l0 f4 [192]
-0.12137751 0.064257845 -0.012926752 0.026527537 -0.0074093696 0.06586113 -0.095192604 0.1100692
0.033899233 -0.046690553 0.09118646 -0.06458175 0.100432 -0.0006354093 0.015287833 0.011422999
-0.036729272 0.05484462 -0.10258598 0.05276313 0.07665709 -0.1199208 0.046117138 -0.04325523
0.0020476587 0.0096176565 0.05918199 -0.08793996 0.06644161 0.012762128 0.0150047 0.041089606
-0.049762838 -0.03549436 -0.025806515 0.019931596 -0.08320835 0.014755733 -0.0021162946 0.067954466
-0.07105889 0.037699193 0.0141607905 -0.00032720063 0.073125705 -0.11782567 -0.05031967 -0.09773148
0.08738927 -0.0007618705 -0.011976556 -0.094391175 0.07051594 -0.1051545 -0.078327544 -0.10503563
-0.0012346638 0.0011388655 0.11025048 -0.008323937 -0.1212829 -0.0708139 0.07505949 -0.042488966
-0.029527918 0.008708032 0.10662249 -0.050376263 0.05623412 -0.025980769 -0.11409189 0.09794064
-0.110676244 0.023038786 0.03333858 0.04768772 0.10015777 -0.092174284 -0.085105665 0.011014324
-0.048763182 0.10921096 0.0897011 -0.031327035 0.003656444 -0.017723516 -0.09746495 0.07244405
0.091845736 -0.04624681 -0.013943783 0.099479586 -0.02074202 -0.08290475 0.008663619 0.005881353
0.05766173 -0.084850356 -0.009310872 0.121165745 0.026227936 0.07203323 -0.027209653 0.037422683
0.0041422495 0.038210865 0.057483833 -0.028596403 0.09279036 -0.046870522 -0.08120234 -0.074963346
-0.017877787 -0.041773595 0.0013920211 -0.0039280383 0.0638587 -0.039008398 -0.0032362186 -0.086273566
0.07889866 0.06733966 -0.018762687 -0.06704875 0.03276359 0.09490274 -0.1179702 0.06737572
-0.039595492 0.0052478733 0.007595953 -0.06646208 -0.1202431 -0.08844262 0.036545075 0.09599674
-0.08427456 -0.12174305 0.11235882 0.1018331 0.10954353 -0.048008468 0.03934949 0.09260262
0.083882 -0.07507412 -0.114092104 0.10041574 -0.08901571 0.0928956 -0.1158134 0.087108545
-0.12192831 -0.052320417 0.1035667 -0.082024574 0.040224306 -0.016633233 -0.035145566 -0.07619251
0.041387618 0.019504424 -0.0051487694 -0.022774598 -0.120595105 0.09662904 -0.07466209 -0.09758277
0.01986245 0.052835643 0.10004491 -0.104701355 0.08556005 -0.10360421 -0.05393928 0.012090741
0.024524467 -0.029069498 -0.10416541 0.09626487 -0.053871095 -0.08543209 -0.03666453 -0.045947358
-0.060686808 -0.11075223 -0.047568403 -0.105759695 -0.10416558 -0.0071750334 0.09862562 0.057540454
00000000: c694 f8bd 9e99 833d baca 53bc 4750 d93c
00000010: 4cca f2bb 33e2 863d 57f4 c2bd f66b e13d
00000020: ecd9 0a3d 983e 3fbd f7bf ba3d 7043 84bd
00000030: 4baf cd3d 9991 26ba d279 7a3c 8827 3b3c
00000040: 6f71 16bd c1a4 603d 9918 d2bd 271e 583d
00000050: 64fe 9c3d 0999 f5bd 53e5 3c3d 652c 31bd
00000060: 0332 063b 6093 1d3c d068 723d de19 b4bd
00000070: 8a12 883d 3f18 513c 46d6 753c 934d 283d
00000080: 1ed4 4bbd 8962 11bd 2f68 d3bc 9647 a33c
00000090: 2469 aabd 08c2 713c 88b1 0abb b62b 8b3d
000000a0: 5387 91bd 786a 1a3d a902 683c 208c abb9
000000b0: eec2 953d 964e f1bd 001c 4ebd 7127 c8bd
000000c0: 25f9 b23d 44b8 47ba 5139 44bc 2950 c1bd
000000d0: a96a 903d 3e5b d7bd 316a a0bd ec1c d7bd
000000e0: 71d4 a1ba fc45 953a 01cb e13d 1f61 08bc
000000f0: 2b63 f8bd e106 91bd cab8 993d e908 2ebd
00000100: 88e4 f1bc 22ac 0e3c e45c da3d 5757 4ebd
00000110: c055 663d 9fd5 d4bc 02a9 e9bd 1a95 c83d
00000120: 3aaa e2bd d6bb bc3c 098e 083d 3354 433d
00000130: 841f cd3d dfc5 bcbd e14b aebd 6c75 343c
00000140: e7bb 47bd ffa9 df3d 36b5 b73d c750 00bd
00000150: f3a0 6f3b e830 91bc b49b c7bd 8c5d 943d
00000160: 9e19 bc3d 4c6d 3dbd 7774 64bc f4bb cb3d
00000170: 2beb a9bc f7c9 a9bd daf1 0d3c 5db8 c03b
00000180: b52e 6c3d 06c6 adbd a18c 18bc bf25 f83d
00000190: f8db d63c 2886 933d c7e6 debc 8748 193d
000001a0: b5bb 873b ff82 1c3d 2b74 6b3d 0143 eabc
000001b0: df08 be3d 4efb 3fbd 6a4d a6bd 6286 99bd
000001c0: 7074 92bc ca1a 2bbd 7a74 b63a c6b6 80bb
000001d0: 5ac8 823d 45c7 1fbd bd16 54bb 32b0 b0bd
000001e0: 9f95 a13d 60e9 893d 35b4 99bc db50 89bd
000001f0: 1d33 063d 5e5c c23d 5c9a f1bd 48fc 893d
00000200: e22e 22bd 5af6 ab3b 79e7 f83b 451d 88bd
00000210: 0442 f6bd 6821 b5bd 4ab0 153d f099 c43d
00000220: 2498 acbd 6c54 f9bd 621c e63d df8d d03d
00000230: 5c58 e03d 87a4 44bd ee2c 213d 71a6 bd3d
00000240: 53ca ab3d 76c0 99bd 1fa9 e9bd c4a6 cd3d
00000250: de4d b6bd 0c40 be3d 932f edbd f765 b23d
00000260: 8db5 f9bd ef4d 56bd c71a d43d 80fc a7bd
00000270: 3ec2 243d 6b42 88bc ccf4 0fbd d20a 9cbd
00000280: 1086 293d bec7 9f3c 02b7 a8bb cb91 babc
00000290: 91fa f6bd 72e5 c53d 70e8 98bd 7ad9 c7bd
000002a0: 94b6 a23c 306a 583d 59e4 cc3d aa6d d6bd
000002b0: 1c3a af3d 722e d4bd 6fef 5cbd 3e18 463c
000002c0: 89e7 c83c 2823 eebc ad54 d5bd 8426 c53d
000002d0: f0a7 5cbd 05f7 aebd 8c2d 16bd 4c33 3cbd
000002e0: bb92 78bd 11d2 e2bd 16d7 42bd 8a98 d8bd
000002f0: c354 d5bd 8b1c ebbb 3bfc c93d 8aaf 6b3d

weight f4 [2, 64]
-0.100094974 0.06849759 -0.0274474 0.063758515 0.120704845 0.0942318 0.04614737 -0.10700178
0.10781185 -0.08754996 -0.098903075 0.07926629 0.07434095 -0.06894014 0.031324044 -0.081191294
0.0223605 0.030973403 0.07605414 0.10694766 -0.10932093 -0.09129249 -0.067617096 -0.018046705
0.037062228 0.103594124 0.08557461 0.030262401 0.04099587 0.120522656 -0.049235266 -0.00741989
0.122428715 0.050178986 -0.045145597 0.11081989 0.09973344 0.048594594 0.11388977 -0.043782998
-0.09293225 0.011972434 -0.027620424 -0.104275994 -0.001983656 -0.01356033 0.0545995 -0.011327358
0.03588148 -0.042695034 -0.039436482 0.08070714 0.006246383 -0.08174685 -0.0051874756 -0.054455645
-0.056745112 -0.083906986 -0.070984855 -0.061299115 0.0013648757 -0.08568851 -0.12196098 -0.10763697
-0.08354521 -0.07573757 0.08951056 -0.022099685 0.012180955 0.003434172 0.00014199463 0.045655306
0.030039271 0.027574226 -0.0008169041 -0.07470461 -0.042486828 0.11033357 -0.032117166 -0.057446573
0.040059775 -0.047929257 0.02074951 -0.11905728 -0.07825815 -0.10186296 -0.029561218 -0.03632723
-0.013293008 -0.09744257 -0.06641805 0.03683508 0.046343606 0.0950181 -0.05479752 -0.04428166
-0.107457876 -0.025171982 0.0243122 0.02470868 -0.072611645 0.043219626 0.05103172 -0.043135714
-0.033928905 -0.051322963 0.052400474 0.008148696 -0.11836187 0.046304878 -0.11160575 -0.11670023
-0.12302773 -0.071107045 -0.0706364 -0.06874522 0.0040203384 -1.5046728e-06 0.0454367 -0.06925445
0.078197934 0.103950866 -0.06334832 -0.08516176 -0.10569675 -0.092153825 -0.05168758 0.033954125
00000000: 98fe ccbd 7748 8c3d 5fd9 e0bc d393 823d
00000010: 1a34 f73d 9afc c03d 0605 3d3d c023 dbbd
00000020: 76cc dc3d 654d b3bd b28d cabd 5d56 a23d
00000030: 1140 983d 7d30 8dbd a44d 003d 9f47 a6bd
00000040: 5e2d b73c efbb fd3c 46c2 9b3d 6007 db3d
00000050: a7e3 dfbd 8ff7 babd d57a 8abd afd6 93bc
00000060: 90ce 173d 2829 d43d be41 af3d dbe8 f73c
00000070: 49eb 273d 95d4 f63d ebaa 49bd 8c22 f3bb
00000080: e8bb fa3d 7b88 4d3d 97ea 38bd 8af5 e23d
00000090: 0c41 cc3d 200b 473d 0a3f e93d cd55 33bd
000000a0: 4353 bebd 0728 443c 3a44 e2bc a78e d5bd
000000b0: 3a00 02bb 252c 5ebc baa3 5f3d 6296 39bc
000000c0: 75f8 123d fde0 2ebd 2688 21bd c949 a53d
000000d0: 75ae cc3b e46a a7bd b3fb a9bb e20c 5fbd
000000e0: 906d 68bd 6dd7 abbd 8260 91bd c814 7bbd
000000f0: a1e5 b23a 757d afbd aec6 f9bd c670 dcbd
00000100: c019 abbd 4d1c 9bbd 5051 b73d 660a b5bc
00000110: a192 473c d80f 613b 65e4 1439 0f01 3b3d
00000120: eb14 f63c 58e3 e13c 8225 56ba bbfe 98bd
00000130: ab06 2ebd 91f6 e13d 4a8d 03bd 194d 6bbd
00000140: b815 243d 7851 44bd e0fa a93c 4ed4 f3bd
00000150: cf45 a0bd 879d d0bd 5e2a f2bc ddcb 14bd
00000160: ebca 59bc f88f c7bd 3006 88bd 61e0 163d
00000170: cbd2 3d3d da98 c23d 5d73 60bd b060 35bd
00000180: e012 dcbd 7935 cebc 612a c73c dc69 ca3c
00000190: 6ab5 94bd 1007 313d a306 513d 13af 30bd
000001a0: 09f9 0abd 0738 52bd e1a1 563d 1c82 053c
000001b0: b567 f2bd 2faa 3d3d 8e91 e4bd 8800 efbd
000001c0: f6f5 fbbd 92a0 91bd d1a9 90bd 4bca 8cbd
000001d0: 0bbd 833b 2af4 c9b5 d51b 3a3d 47d5 8dbd
000001e0: 3d26 a03d 31e4 d43d c4bc 81bd 4a69 aebd
000001f0: 8a77 d8bd 25bb bcbd 5bb6 53bd 7b13 0b3d

bias f4 [2]
0.05288007 0.0340062
00000000: c698 583d 164a 0b3d

weight_ih_l0 f4 [192, 66]
-0.08560167 0.09481329 -0.02754288 0.041805502 -0.07567191 -0.067294896 -0.042804405 -0.0027529625
-0.08021089 0.06447707 -0.011535663 -0.10357305 -0.074130826 -0.03515415 -0.05851136 0.099081986
-0.0067937993 -0.058717873 -0.04618072 -0.09959758 -0.010954588 0.08633707 -0.14213486 -0.046312883
0.052862354 0.0037874174 -0.06826374 0.069438435 0.022329416 0.060355082 0.03301676 -0.092517905
0.047031928 0.05104782 0.08251016 0.015315479 0.018505557 0.13213526 0.08240735 -0.08723788
0.057186563 0.06808207 0.044645675 0.113893166 0.040245738 0.043780614 0.057262655 -0.025728064
0.029422374 0.11535748 -0.1042197 0.107352436 -0.062367026 0.08615838 -0.09597012 0.10487831
0.015534739 0.107686035 0.08458408 0.101952694 0.09487453 0.0017485963 0.07482439 -0.026560763
-0.093151964 -0.037867643 -0.09599783 0.09939353 0.10350732 -0.09588672 -0.08175199 -0.09022667
0.0894634 0.069741644 0.046936657 0.0121880155 -0.08514224 -0.116962574 -0.08289702 0.10556213
-0.04948318 -0.007059912 0.08487832 0.05571841 0.04656687 0.028015543 -0.060751166 -0.11002677
-0.014325078 0.12285348 0.010071934 -0.030914469 -0.102717504 0.020802004 0.027938046 0.117148586
0.106297545 0.061888035 0.073883995 0.028042017 0.031858794 -0.10335639 -0.04147926 0.039449107
-0.044540778 -0.11075562 0.05999619 0.04532141 -0.08008509 -0.061024547 0.023466319 -0.065069035
0.09521956 -0.04335893 0.13166597 -0.014302001 -0.07371543 -0.07322267 0.118713796 0.09714898
0.14342794 0.0017383056 0.08153413 -0.05396409 0.04888904 -0.117425434 -0.11488441 0.004473129
0.0866358 0.09614043 -0.012940425 0.120903976 0.002150102 -0.034559846 0.05631135 -0.0326232
-0.09139832 0.022629594 0.074790046 0.1046868 0.11886875 -0.021463517 -0.10013269 -0.048567448
-0.039831582 -0.049989875 -0.11663285 -0.029323516 -0.047534402 0.04786138 0.0016727548 -0.03651069
0.114968374 -0.0007362182 0.07002569 -0.1202414 0.058933686 -0.03911909 0.104413256 0.061176375
0.12148905 -0.04491509 0.11452684 0.077183515 -0.03640767 -0.06722682 0.10341036 0.044392418
0.022048082 0.089794084 -0.055402413 0.025398262 0.045158144 -0.06048535 0.00086277537 -0.012234885
0.0011479878 -0.09188278 0.028611613 -0.028367456 0.08183654 -0.1152852 0.094982475 -0.05027332
0.11335649 0.03860313 -0.0764113 0.043471076 -0.06578044 -0.098671235 0.066874474 -0.028398255
0.11879569 -0.027749147 0.013999834 -0.13318554 -0.11556087 0.07526058 -0.005753679 0.042343173
-0.059271246 -0.023427071 0.0972837 -0.032484937 -0.036220845 -0.023805361 0.100684516 0.072508395
0.047963012 0.009296558 0.057542216 0.07735133 -0.049594864 0.03811458 0.081456065 0.065722786
0.030664159 -0.10053947 -0.074324995 0.115454584 -0.019822504 0.011353057 -0.13943951 0.11580473
0.12166438 -0.09371464 0.06432483 -0.04643539 -0.016131703 0.026375592 -0.0504449 -0.018978441
0.1255683 0.07476723 0.05096416 0.093342625 0.009031839 -0.024045767 -0.018847132 -0.037580676
0.113312386 -0.02144085 0.10438708 0.14563257 0.0010362087 0.11206542 0.10664576 -0.01641841
-0.010384843 -0.11534379 0.049501587 0.10954302 0.13739422 -0.10694248 0.14628097 0.03727112
00000000: ee4f afbd 782d c23d 9ba1 e1bc 3f3c 2b3d
00000010: e0f9 9abd e8d1 89bd ac53 2fbd 0c6b 34bb
00000020: 9b45 a4bd 8e0c 843d 1400 3dbc 1b1e d4bd
00000030: e7d1 97bd ccfd 0fbd 9ca9 6fbd 7feb ca3d
00000040: 859e debb 2782 70bd ff27 3dbd d1f9 cbbd
00000050: df7a 33bc 7dd1 b03d cd8b 11be 94b2 3dbd
00000060: 3286 583d 5236 783b dccd 8bbd bd35 8e3d
00000070: 2eec b63c e436 773d 953c 073d 077a bdbd
00000080: 8da4 403d 8517 513d 16fb a83d c6ed 7a3c
00000090: f798 973c 774e 073e 2fc5 a83d c6a9 b2bd
000000a0: 753c 6a3d 9d6e 8b3d 62de 363d d240 e93d
000000b0: b7d8 243d 4d53 333d 3f8c 6a3d a9c3 d2bc
000000c0: 3107 f13c 8b40 ec3d 2371 d5bd 98db db3d
000000d0: 9174 7fbd ce73 b03d fb8b c4bd 70ca d63d
000000e0: 6b85 7e3c 7f8a dc3d 6b3a ad3d 93cc d03d
000000f0: 944d c23d 2831 e53a 883d 993d f595 d9bc
00000100: 75c6 bebd 1a1b 1bbd 839a c4bd d68e cb3d
00000110: a5fb d33d 4260 c4bd 966d a7bd c3c8 b8bd
00000120: 9638 b73d b5d4 8e3d a740 403d 3eb0 473c
00000130: 0e5f aebd 138a efbd eac5 a9bd f530 d83d
00000140: e0ae 4abd d656 e7bb afd4 ad3d fd38 643d
00000150: e7bc 3e3d da80 e53c 37d6 78bd b755 e1bd
00000160: bbb3 6abc 9b9a fb3d c104 253c 5740 fdbc
00000170: 8e5d d2bd f768 aa3c 54de e43c 99eb ef3d
00000180: 87b2 d93d 4f7e 7d3d 7e50 973d 5fb8 e53c
00000190: 5e7e 023d 84ac d3bd 28e6 29bd 6395 213d
000001a0: 6470 36bd d8d3 e2bd 91be 753d f1a2 393d
000001b0: a703 a4bd e0f4 79bd 703c c03c ea42 85bd
000001c0: 7902 c33d 2299 31bd 72d3 063e f152 6abc
000001d0: 1ef8 96bd c4f5 95bd 3820 f33d 0bf6 c63d
000001e0: c6de 123e dbd7 e33a 5efb a63d 7309 5dbd
000001f0: e03f 483d bf7c f0bd 8448 ebbd 5393 923b
00000200: 1c6e b13d 46e5 c43d 1404 54bc 819c f73d
00000210: bae8 0c3b a08e 0dbd bba6 663d e89f 05bd
00000220: 0b2f bbbd b361 b93c 862b 993d 0866 d63d
00000230: 7671 f33d 42d4 afbc 5e12 cdbd a9ee 46bd
00000240: 7126 23bd 2fc2 4cbd 34dd eebd df37 f0bc
00000250: 6fb3 42bd 4b0a 443d 5640 db3a 3c8c 15bd
00000260: 8a74 eb3d c4fe 40ba a169 8f3d 2041 f6bd
00000270: 7364 713d 573b 20bd 9ed6 d53d 1494 7a3d
00000280: 40cf f83d e3f8 37bd 0c8d ea3d 6412 9e3d
00000290: 3520 15bd 37ae 89bd d0c8 d33d d3d4 353d
000002a0: 2e9e b43c f6e5 b73d a4ed 62bd 0410 d03c
000002b0: bff7 383d 7dbf 77bd e02b 623a d474 48bc
000002c0: 1478 963a 0a2d bcbd e762 ea3c de62 e8bc
000002d0: ea99 a73d a61a ecbd 2c86 c23d 66eb 4dbd
000002e0: 7327 e83d 511e 1e3d 877d 9cbd ba0e 323d
000002f0: e5b7 86bd 2514 cabd 7cf5 883d 75a3 e8bc
00000300: 284b f33d 2e52 e3bc 8f5f 653c ca61 08be
00000310: 2dab ecbd 3822 9a3d 5c89 bcbb 0970 2d3d
00000320: 68c6 72bd 21ea bfbc ad3c c73d ed0e 05bd
00000330: 4f5c 14bd 7603 c3bc af33 ce3d 487f 943d
00000340: dd74 443d 9750 183c 63b1 6b3d 606a 9e3d
00000350: fc23 4bbd 091e 1c3d 70d2 a63d ab99 863d
00000360: 6733 fb3c a3e7 cdbd b437 98bd 7473 ec3d
00000370: ce62 a2bc 2c02 3a3c 3bc9 0ebe 082b ed3d
00000380: 2d2b f93d 76ed bfbd bdbc 833d 0933 3ebd
00000390: a226 84bc a011 d83c 509f 4ebd ad78 9bbc
000003a0: fa94 003e 901f 993d ccbf 503d 6b2a bf3d
000003b0: 47fa 133c a1fb c4bc 4d65 9abc 32ee 19bd
000003c0: 5310 e83d b9a4 afbc e5c8 d53d b420 153e
000003d0: 65d1 873a 8e82 e53d 1869 da3d e77f 86bc
000003e0: 3025 2abc 5d39 ecbd 2dc2 4a3d 1758 e03d
000003f0: 12b1 0c3e a904 dbbd aeca 153e 9aa9 183d

weight_hh_l0 f4 [192, 64]
0.043929987 -0.09703128 0.08645137 0.071370885 0.046299774 0.070940785 -0.049603775 0.035371777
0.071449876 0.012454967 0.078590475 0.09011948 -0.08607558 -0.029295929 -0.07279072 -0.11734702
0.0050638434 -0.08035994 -0.15070175 0.036884062 0.0012325229 0.082852356 -0.11481598 -0.00617146
0.074432336 0.01974415 -0.08265395 0.06225399 -0.036844317 -0.06967704 0.046243463 -0.11384113
-0.12261837 -0.023722678 0.08333311 -0.07551546 0.04327893 0.14104281 0.07612014 0.0772916
-0.060354915 0.065346785 -0.10461033 0.022761852 -0.07195142 -0.02827729 -0.13300627 0.013323843
0.0052183964 0.12707639 0.13245611 0.07619313 0.028555403 0.04285183 0.011011784 -0.033181705
0.08535549 0.12642246 -0.07403661 -0.07148153 -0.03546384 0.073520996 -0.04300266 -0.10003315
0.16526277 0.047432605 0.038324717 -0.08853439 -0.0809357 -0.024646087 -0.04603415 0.08236704
0.03120261 -0.056182206 0.032506235 -0.06574419 -0.09247483 0.0793437 -0.112361 -0.048033595
0.030438904 0.10164464 0.066870734 -0.07541114 0.046207964 -0.069862545 0.11656516 0.11818986
-0.0045305514 0.0668596 0.0848772 -0.03215338 0.081074625 0.036815125 -0.05499402 0.06178669
0.106706195 0.053580303 0.11713615 -0.03773565 0.11400129 0.09539997 0.07543697 -0.133413
-0.0008602128 -0.08002276 0.14008018 0.0117748305 -0.019012487 0.1665858 0.09943321 -0.09431759
0.08628053 -0.06933917 -0.08736429 -0.11671867 0.08586634 -0.084555276 0.026074149 0.013850214
-0.1005039 -0.11416464 -0.06759012 0.037953638 0.096512094 -0.11249556 -0.009408392 0.15558985
-0.02767974 0.007157925 0.051906727 0.058592156 -0.06750637 -0.049634263 -0.06760027 0.09538675
-0.0077128303 0.094886735 0.09615 0.07813658 -0.07117172 0.09419343 0.12445353 -0.12324272
-0.107222065 -0.13165279 -0.04480704 -0.05251343 0.07436708 -0.06040509 -0.0069958046 -0.07498735
-0.13087688 0.00782748 -0.009088206 -0.011480287 0.111489646 0.08678488 0.10672594 -0.10182278
-0.10130497 -0.104659185 -0.011498978 -0.024929151 0.021364393 -0.0104658585 -0.06719349 0.00093723566
-0.04304137 0.11784627 -0.002157726 -0.032370828 0.032473076 -0.03950938 -0.09381282 0.10761796
0.076471955 -0.15765306 0.0051127565 0.11319991 0.06375025 0.0286262 0.0651932 0.0136377765
0.045367964 0.05393032 -0.082971275 -0.028521765 -0.06775542 -0.099544115 -0.06745801 -0.0682879
0.09149497 0.018040093 0.020150024 -0.049524706 0.028882602 0.056739923 -0.1249851 0.043211125
-0.07972954 -0.009789739 0.1470624 0.057404667 0.034733206 -0.0361257 0.15107247 -0.1140581
0.07313405 0.07689637 -0.11926161 -0.13397667 -0.11771483 0.03996516 -0.088482454 0.008876257
0.07431849 0.08892795 0.0067147803 0.10622364 0.011111418 0.11200639 0.048712816 0.07596306
0.08772959 0.026927726 -0.101382524 0.04409451 -0.010069063 0.1023635 -0.15377958 -0.089323506
-0.1389206 0.0679878 -0.06413055 0.0011770737 -0.026164038 -0.1128157 -0.13150762 0.060108267
0.08884194 0.007360399 -0.03898782 0.083257996 0.0048733847 0.11923143 0.061229564 0.019711247
-0.0030535946 -0.025122054 -0.089078866 0.017463492 -0.054398686 -0.14975552 0.071497105 0.016080497
00000000: eeef 333d 56b8 c6bd 6a0d b13d e62a 923d
00000010: d5a4 3d3d 6749 913d 542d 4bbd ffe1 103d
00000020: 5054 923d eb0f 4c3c 0bf4 a03d 9090 b83d
00000030: 6548 b0bd 04fe efbc 4d13 95bd a253 f0bd
00000040: 99ee a53b c193 a4bd 8f51 1abe be13 173d
00000050: 9b8c a13a 7fae a93d a424 ebbd f539 cabb
00000060: fb6f 983d 7cbe a13c 7946 a9bd 0afe 7e3d
00000070: 11ea 16bd d6b2 8ebd c969 3d3d 8a25 e9bd
00000080: 571f fbbd 1056 c2bc 8daa aa3d d9a7 9abd
00000090: 3f45 313d 876d 103e e0e4 9b3d 0f4b 9e3d
000000a0: b736 77bd 89d4 853d f13d d6bd 1077 ba3c
000000b0: 445b 93bd c6a5 e7bc cc32 08be 3f4c 5a3c
000000c0: 15ff aa3b 5020 023e 93a2 073e 250b 9c3d
000000d0: 05ed e93c 6785 2f3d c56a 343c 8ae9 07bd
000000e0: dcce ae3d e474 013e 82a0 97bd e964 92bd
000000f0: 8842 11bd 2d92 963d 8f23 30bd 2ede ccbd
00000100: a53a 293e b148 423d 61fa 1c3d 8551 b5bd
00000110: 9ec1 a5bd 97e6 c9bc 4e8e 3cbd 0db0 a83d
00000120: 9e9c ff3c 501f 66bd 4225 053d e4a4 86bd
00000130: 7263 bdbd f37e a23d 861d e6bd e0be 44bd
00000140: 025b f93c 112b d03d 86f3 883d 2871 9abd
00000150: 9044 3d3d 1814 8fbd b7b9 ee3d 860d f23d
00000160: 0575 94bb b0ed 883d 19d4 ad3d 43b3 03bd
00000170: 740a a63d 75cb 163d 6941 61bd 0a14 7d3d
00000180: c788 da3d 0577 5b3d 14e5 ef3d b290 1abd
00000190: 8279 e93d 0f61 c33d b37e 9a3d 6b9d 08be
000001a0: e77f 61ba f9e2 a3bd 2e71 0f3e 38eb 403c
000001b0: 13c0 9bbc 7895 2a3e a4a3 cb3d 9529 c1bd
000001c0: d9b3 b03d b201 8ebd 0dec b2bd 330a efbd
000001d0: b1da af3d 512b adbd 7499 d53c 02ec 623c
000001e0: fdd4 cdbd 27cf e9bd b06c 8abd 4675 1b3d
000001f0: 22a8 c53d 1264 e6bd a825 1abc f252 1f3e
00000200: 9fc0 e2bc 078d ea3b 269c 543d 54fe 6f3d
00000210: c840 8abd 4c4d 4bbd 0372 8abd 215a c33d
00000220: e9bb fcbb fa53 c23d 4bea c43d 1206 a03d
00000230: 7bc2 91bd 7ce8 c03d 7ee1 fe3d ae66 fcbd
00000240: 3e97 dbbd fdcf 06be 9687 37bd 5318 57bd
00000250: c54d 983d 546b 77bd 103d e5bb f892 99bd
00000260: 9704 06be d53e 003c b3e6 14bc d017 3cbc
00000270: af54 e43d 45bc b13d 2193 da3d 7688 d0bd
00000280: fb78 cfbd 8e57 d6bd 3666 3cbc 3838 ccbc
00000290: 6104 af3c fe78 2bbc be9c 89bd d2b0 753a
000002a0: 264c 30bd 6359 f13d a368 0dbb 4697 04bd
000002b0: 7d02 053d 96d4 21bd f020 c0bd ce66 dc3d
000002c0: 549d 9c3d ce6f 21be e988 a73b 5bd5 e73d
000002d0: 7e8f 823d 7e81 ea3c 0384 853d fb70 5f3c
000002e0: c2d3 393d 0ae6 5c3d d8ec a9bd 7aa6 e9bc
000002f0: 5bc3 8abd c9dd cbbd 6d27 8abd 87da 8bbd
00000300: b761 bb3d d1c8 933c aa11 a53c 6bda 4abd
00000310: 359b ec3c 1f68 683d 30f8 ffbd 26fe 303d
00000320: 3e49 a3bd 2465 20bc 8797 163e 2821 6b3d
00000330: 6844 0e3d 8bf8 13bd beb2 1a3e 4b97 e9bd
00000340: 4ec7 953d d87b 9d3d 6e3f f4bd 2e31 09be
00000350: 7914 f1bd 82b2 233d 4a36 b5bd b86d 113c
00000360: 4b34 983d db1f b63d a907 dc3b c88b d93d
00000370: aa0c 363c 9b63 e53d 1787 473d 8592 9b3d
00000380: 92ab b33d 8997 dc3c a4a1 cfbd 729c 343d
00000390: b6f8 24bc f4a3 d13d 6578 1dbe 3eef b6bd
000003a0: 3441 0ebe 303d 8b3d e156 83bd 0a48 9a3a
000003b0: f755 d6bc eb0b e7bd efa9 06be 1634 763d
000003c0: c3f2 b53d 802f f13b b1b1 1fbd 2b83 aa3d
000003d0: eab0 9f3b 9c2f f43d dacb 7a3d 7b79 a13c
000003e0: d11e 48bb c4cc cdbc fb6e b6bd 990f 8f3c
000003f0: 28d1 5ebd 8359 19be 136d 923d 3fbb 833c

bias_ih_l0 f4 [192]
-0.11546222 0.021148186 -0.012834559 0.026913445 0.0057655247 -0.12824392 -0.073058456 0.0014601564
0.022602852 -0.07001452 0.07072136 -0.054156475 0.0018465047 0.15768392 -0.06975664 -0.016285708
0.06199271 0.07269994 0.010794151 0.0074084867 -0.03362867 0.0054605645 0.15751047 0.012102269
0.031858668 0.11858324 -0.076628365 -0.08889097 -0.01358306 -0.0057959836 -0.013705022 -0.1285641
0.09322074 -0.045350175 -0.05989287 0.069349505 -0.052132133 0.05615257 -0.10329269 0.05973657
0.030155184 -0.07109505 0.13779679 0.107615665 -0.10681007 -0.04890333 -0.093473144 0.022154147
-0.1079757 0.041072644 0.051261716 0.044734105 0.09220912 0.10941521 -0.079799056 -0.025090752
-0.020184714 -0.03576963 0.060695935 0.0654385 0.09659041 -0.018374287 0.045618393 0.005233962
0.08016226 0.027484039 0.07135074 0.0075530135 -0.009852939 -0.055519257 0.022171771 -0.04134059
-0.006373299 0.084005155 -0.14764017 0.017137941 0.027171224 -0.047351725 -0.10355916 -0.0999478
-0.09761856 -0.06687233 -0.0005153497 0.024857972 -0.04934969 0.053109042 -0.10392963 0.0106606865
0.1028568 -0.06617585 0.066808276 0.055627745 0.093817316 -0.12699889 0.012586489 0.005686062
0.0722557 -0.084565304 0.030667342 0.07836335 -0.12493387 0.04657388 -0.15120764 0.058066655
-0.06299781 -0.074602745 0.0045057717 -0.043902814 -0.13869074 0.062921375 0.039213315 -0.047774516
-0.113527335 -0.07317786 -0.12379062 -0.11712379 -0.024186729 0.03316803 -0.14434281 -0.009776754
-0.054710533 -0.002287554 -0.036364555 -0.1226855 0.02008184 0.010165639 0.0027618236 -0.025452303
-0.10220922 -0.10946727 0.072959535 -0.0063183242 0.0011045289 -0.12049049 0.11050516 -0.09152991
-0.051253267 0.10575864 -0.11988737 0.057713438 0.095215425 0.07217713 0.025265954 0.009344004
0.086417064 0.01110756 0.097894214 0.11028259 0.033691123 -0.113921426 0.13135697 0.13730077
0.104490146 0.025472337 -0.036438916 -0.097276114 0.016223468 -0.09575643 0.004877195 0.05603346
-0.07233833 0.020632414 0.08806585 -0.058273476 -0.060896747 -0.015171988 0.034605633 -0.07594731
-0.04223974 0.100094564 -0.038027793 0.023459572 0.08844395 0.047563966 0.024077184 -0.044726327
0.057424404 0.11533305 -0.121452615 0.08746905 0.0014962924 0.01086874 0.0024730999 0.1387732
-0.05271372 0.0029779198 0.006065882 0.026459275 -0.008412545 0.11195085 -0.13417692 -0.061254807
00000000: 7577 ecbd f63e ad3c 0b48 52bc 9679 dc3c
00000010: baec bc3b 6052 03be ac9f 95bd b862 bf3a
00000020: 9e29 b93c c663 8fbd 5cd6 903d 2ed3 5dbd
00000030: 6b06 f23a e577 213e 92dc 8ebd 9b69 85bc
00000040: 11ec 7d3d b5e3 943d f3d9 303c e4c2 f23b
00000050: 37be 09bd 89ee b23b 6d4a 213e 9848 463c
00000060: 3c7e 023d c5db f23d 55ef 9cbd 780c b6bd
00000070: 7c8b 5ebc 3cec bdbb 078b 60bc 4fa6 03be
00000080: 84ea be3d 1bc1 39bd 3a52 75bd 1d07 8e3d
00000090: 8188 55bd 3d00 663d 1e8b d3bd 55ae 743d
000000a0: 0108 f73c 489a 91bd 9a1a 0d3e 9a65 dc3d
000000b0: 3dbf dabd dc4e 48bd d96e bfbd 9d7c b53c
000000c0: 5d22 ddbd ca3b 283d cef7 513d 1c3b 373d
000000d0: 23d8 bc3d 1515 e03d b06d a3bd 1f8b cdbc
000000e0: 6a5a a5bc 2d83 12bd 4d9c 783d 9f04 863d
000000f0: 31d1 c53d ac85 96bc 5ada 3a3d a881 ab3b
00000100: 1c2c a43d 3526 e13c 5620 923d 457f f73b
00000110: 396e 21bc 2968 63bd 93a1 b53c c054 29bd
00000120: 1bd7 d0bb e50a ac3d fc2e 17be de64 8c3c
00000130: 3096 de3c e2f3 41bd d316 d4bd 6fb1 ccbd
00000140: 3dec c7bd 5cf4 88bd 8818 07ba f2a2 cb3c
00000150: e722 4abd de88 593d 0fd9 d4bd 29aa 2e3c
00000160: 96a6 d23d 3487 87bd c7d2 883d ebd9 633d
00000170: 4b23 c03d ff0b 02be 9037 4e3c 2552 ba3b
00000180: ccfa 933d 9330 adbd 143a fb3c f77c a03d
00000190: 54dd ffbd 41c4 3e3d 2dd6 1abe 4dd7 6d3d
000001a0: ff04 81bd 53c9 98bd 27a5 933b 70d3 33bd
000001b0: f204 0ebe ecdc 803d 249e 203d 36af 43bd
000001c0: 0581 e8bd 46de 95bd f085 fdbd 99de efbd
000001d0: 3f23 c6bc 33db 073d 9ace 13be ae2e 20bc
000001e0: 2718 60bd caea 15bb 00f3 14bd 8942 fbbd
000001f0: ac82 a43c c88d 263c b6ff 343b 5981 d0bc
00000200: 1153 d1bd 6030 e0bd cf6b 953d f209 cfbb
00000210: d7c5 903a b8c3 f6bd 8850 e23d 0974 bbbd
00000220: f2ee 51bd fc97 d83d 8287 f5bd ed64 6c3d
00000230: 4e00 c33d 9ad1 933d 8cfa ce3c 9817 193c
00000240: 6efb b03d 7cfc 353c c37c c83d d7db e13d
00000250: b4ff 093d a34f e9bd 7182 063e 9398 0c3e
00000260: eefe d53d 5dab d03c f940 15bd b338 c7bd
00000270: 14e7 843c f21b c4bd e1d0 9f3b 5783 653d
00000280: 1e26 94bd 4f05 a93c de5b b43d 2bb0 6ebd
00000290: de6e 79bd ee93 78bc a3be 0d3d 438a 9bbd
000002a0: 9403 2dbd 61fe cc3d 08c3 1bbd 4a2e c03c
000002b0: 1a22 b53d 6fd2 423d 843d c53c f432 37bd
000002c0: da35 6b3d bc33 ec3d 26bc f8bd f922 b33d
000002d0: 3e1f c43a cd12 323c bb13 223b 901a 0e3e
000002e0: 57ea 57bd 3429 433b 4ec4 c63b 1fc1 d83c
000002f0: c5d4 09bc 7d46 e53d ad65 09be 52e6 7abd

bias_hh_l0 f4 [192]
-0.0037558577 0.09071216 -0.08182505 -0.10624781 0.061149888 -0.0044247606 -0.0042873374 -0.07132066
-0.006685112 0.013678419 -0.053281985 0.013142668 0.09200608 0.09233721 0.12632576 0.08869097
-0.12475453 -0.07094037 0.08616903 -0.06222604 0.037494764 0.13185066 -0.010697216 -0.08878991
-0.12644288 0.04598232 0.09076697 -0.053114314 -0.026163863 0.08459859 -0.11299988 0.04073511
0.0066915685 0.018379891 0.10452739 -0.019753046 0.12500945 0.14382285 0.120730184 0.015411514
-0.07513735 -0.0013986378 0.14591818 -0.10598813 0.08187572 -0.1071634 -0.009565194 0.060550727
-0.023587663 0.09860569 -0.05874174 0.12954524 -0.019409753 -0.10833163 0.044014905 0.11224038
0.017318117 0.058219023 0.042806987 -0.007881518 0.010113116 -0.040421605 0.002501173 -0.091818936
0.06373261 -0.07400723 -0.043133095 -0.08365313 -0.041621815 -0.036911722 0.045770627 0.03959924
-0.08904492 -0.03663249 -0.15271948 -0.042881876 0.06916374 -0.11709293 0.08237039 0.050574955
0.011780687 -0.087169856 0.08161099 -0.081941865 -0.0014480886 -0.11838346 -0.015618586 0.015305869
-0.03517836 0.06705136 0.04180664 -0.0059047546 0.06762272 -0.012807621 0.03847396 -0.087584555
0.034522723 -0.11687113 -0.059882335 0.084964566 0.028879499 0.01853056 0.043725394 0.041410066
0.016401358 0.05558148 -0.07223294 -0.119538546 0.08199102 0.12565933 -0.016997317 0.053020597
-0.012645059 -0.045134403 -0.06570944 -0.005498274 0.12135586 0.016824633 -0.030704787 -0.081926525
-0.10510156 -0.15762292 0.0077301883 0.053286884 0.008060784 -0.11596925 -0.10051646 0.075812876
0.08264784 -0.09707566 -0.053743917 -0.020446097 -0.116264924 0.06423486 -0.10700038 -0.06218149
-0.017593795 0.059790753 0.10317139 0.006901341 -0.10865463 0.05475241 -0.13742225 0.020584816
0.0756528 0.026425 0.14246996 0.13569292 -0.06534843 -0.12350914 0.03837449 -0.09066522
-0.0110757975 0.10849535 -0.088028155 -0.068145916 0.14432383 -0.13752276 0.05550977 -0.07574613
-0.033507816 -0.07089875 0.04748824 0.09841235 -0.034013253 0.012767342 0.11894244 0.028382873
0.029324053 0.085663125 0.037145294 0.02674677 0.12385574 -0.05434308 0.018077672 -0.047887243
0.1397869 -0.010556095 0.06644312 0.0024173239 0.12031335 -0.10385753 0.1181537 -0.016996393
0.035836566 0.0019137784 -0.07364188 -0.086716644 0.082133725 -0.09730166 -0.019046275 -0.0654945
00000000: d624 76bb 4cc7 b93d e493 a7bd 7498 d9bd
00000010: 4e78 7a3d 95fd 90bb cb7c 8cbb 9110 92bd
00000020: c90e dbbb 731b 603c 363e 5abd 5854 573c
00000030: af6d bc3d 4b1b bd3d 8a5b 013e 9ca3 b53d
00000040: 4e7f ffbd 2f49 91bd 6379 b03d bbe0 7ebd
00000050: 1c94 193d dc03 073e 6043 2fbc 7cd7 b5bd
00000060: 3e7a 01be f557 3c3d 08e4 b93d 658e 59bd
00000070: 9955 d6bc 0742 ad3d 7b6c e7bd dcd9 263d
00000080: f244 db3b 6d91 963c 7512 d63d 24d1 a1bc
00000090: 7a02 003e 4c46 133e 6341 f73d 9380 7c3c
000000a0: 9ce1 99bd 7f52 b7ba 936b 153e 4e10 d9bd
000000b0: 75ae a73d 7c78 dbbd 55b7 1cbc 0a04 783d
000000c0: ea3a c1bc c8f1 c93d 2e9b 70bd 82a7 043e
000000d0: 3401 9fbc f9dc ddbd f948 343d 49de e53d
000000e0: b9de 8d3c 1277 6e3d 6156 2f3d 7c21 01bc
000000f0: 7cb1 253c 2091 25bd b8ea 233b 910b bcbd
00000100: 3e86 823d 1a91 97bd 54ac 30bd 5552 abbd
00000110: a37b 2abd bf30 17bd fb79 3b3d d032 223d
00000120: 2f5d b6bd f30b 16bd 7f62 1cbe e8a4 2fbd
00000130: b8a5 8d3d 6bce efbd cfb1 a83d af27 4f3d
00000140: c803 413c 1c86 b2bd aa23 a73d 23d1 a7bd
00000150: cacd bdba 0773 f2bd 19e5 7fbc 78c5 7a3c
00000160: 2f17 10bd 3952 893d 703d 2b3d ac7c c1bb
00000170: c87d 8a3d 0ed7 51bc df96 1d3d 885f b3bd
00000180: b367 0d3d 225a efbd 2e47 75bd e701 ae3d
00000190: b394 ec3c 67cd 973c 6619 333d 9a9d 293d
000001a0: 245c 863c 68a9 633d ddee 93bd a0d0 f4bd
000001b0: e8ea a73d d7ac 003e f53d 8bbc 202c 593d
000001c0: 392d 4fbc dade 38bd ac92 86bd de2a b4bb
000001d0: 6c89 f83d d0d3 893c 9b88 fbbc 18c9 a7bd
000001e0: 7d3f d7bd e767 21be 854d fd3b 5943 5a3d
000001f0: 6111 043c 4981 edbd 93db cdbd c843 9b3d
00000200: 4543 a93d 9bcf c6bd 9522 5cbd 937e a7bc
00000210: 4e1c eebd 918d 833d 0423 dbbd 05b2 7ebd
00000220: dd20 90bc 26e7 743d 864b d33d a524 e23b
00000230: 5286 debd 1044 603d 6bb8 0cbe 7da1 a83c
00000240: dbef 9a3d 3e79 d83c a5e3 113e 16f3 0a3e
00000250: 66d5 85bd 5cf2 fcbd 922e 1d3d b0ae b9bd
00000260: 4377 35bc cf32 de3d 1b48 b4bd 1690 8bbd
00000270: a0c9 133e c4d2 0cbe 365e 633d c920 9bbd
00000280: 7e3f 09bd 5d33 91bd 0783 423d 6a8c c93d
00000290: 7b51 0bbd 1d2e 513c 1898 f33d 3383 e83c
000002a0: ff38 f03c 2670 af3d aa25 183d 0b1c db3c
000002b0: 14a8 fd3d d996 5ebd a017 943c 6a25 44bd
000002c0: 4c24 0f3e 79f3 2cbc 5513 883d f76b 1e3b
000002d0: d866 f63d 42b3 d4bd 91fa f13d 053c 8bbc
000002e0: 5dc9 123d bfd7 fa3a 8ed1 96bd 7f98 b1bd
000002f0: ba35 a83d 1846 c7bd ef06 9cbc fb21 86bd

weight f4 [1, 64]
0.06468053 0.057293016 0.104028 0.106708445 -0.07095902 0.0017880969 0.0058405013 0.03299037
0.11744911 0.034055397 -0.061682545 -0.0729591 -0.06206623 0.012216782 -0.102090284 0.027973149
-0.079759 0.07446729 0.10101272 0.07215246 0.03202414 -0.07760002 0.08016624 0.1017101
0.08828808 0.097095884 0.077522226 -0.09425577 0.06532415 -0.09437914 0.11901794 0.0016131569
0.12655921 -0.078124546 0.077170946 -0.04400235 0.1012032 -0.08845461 0.11615251 -0.0041564307
-0.101122655 -0.065008275 -0.0003202569 0.053793084 0.015076572 0.0051803812 0.022268774 -0.080861844
0.030292809 0.055452608 -0.1186905 -0.08229057 0.0009503389 0.00039772113 0.109973416 0.0099251885
-0.025242569 -0.07928381 0.03060609 -0.065019436 0.063618824 0.060271975 -0.0034440183 -0.00066617975
00000000: 3a77 843d 15ac 6a3d a20c d53d f589 da3d
00000010: f652 91bd 935e ea3a ad61 bf3b e920 073d
00000020: 2989 f03d ac7d 0b3d d6a6 7cbd 956b 95bd
00000030: 2939 7ebd e628 483c b614 d1bd f227 e53c
00000040: b058 a3bd 4e82 983d c2df ce3d abc4 933d
00000050: bf2b 033d c2ec 9ebd 332e a43d 634d d03d
00000060: 62d0 b43d 35da c63d f9c3 9e3d 2b09 c1bd
00000070: abc8 853d da49 c1bd adbf f33d 9070 d33a
00000080: bd98 013e c3ff 9fbd cd0b 9e3d cf3b 34bd
00000090: a043 cf3d b127 b5bd 5ee1 ed3d ab32 88bb
000000a0: 6519 cfbd 0f23 85bd 27e8 a7b9 2356 5c3d
000000b0: ba03 773c 30c0 a93b 016d b63c e59a a5bd
000000c0: a028 f83c 4622 633d 0114 f3bd f587 a8bd
000000d0: 2a20 793a 3a85 d039 be39 e13d 429d 223c
000000e0: 81c9 cebc 8d5f a2bd 9fb9 fa3c e928 85bd
000000f0: 964a 823d bfdf 763d 0ab5 61bb 91a2 2eba
