models/lstm_encoder/checkpoint/trained_irdpg_100.pth (torch, 409362 bytes, 22 tensors)

weight_ih_l0 f4 [192, 64]
0.06678545 -0.044133753 0.103503734 0.04102382 0.03727522 0.10750458 0.020190693 0.037341915
0.068454385 0.05947904 -0.06083947 -0.10847426 -0.044186957 -0.008064321 0.0842292 -0.059308786
-0.115629174 0.12122616 -0.006270378 -0.11183355 -0.078442626 -0.034426466 0.08642409 0.07940228
-0.028322665 -0.057047132 0.06682985 0.05589054 0.004230325 0.04230572 0.09918213 0.05449863
-0.11227042 -0.1147563 0.022669343 0.06521995 0.06954354 -0.01157535 -0.113699846 0.111030646
0.014733312 0.029985633 -0.085906126 0.09333757 -0.008849207 0.023779407 -0.09910687 0.121333115
-0.09998847 -0.075448655 -0.08670565 0.012608325 0.106039606 -0.050472997 0.11312423 0.04435785
0.040241692 0.08798861 -0.069830306 -0.112545416 0.0038913605 0.05939639 0.08546046 -0.050472006
0.013326214 -0.009544391 0.0063590026 0.12359645 -0.08881732 0.034912787 -0.013761268 -0.058913615
0.013771727 0.020246834 -0.017337283 -0.034606207 -0.046749342 -0.06925091 -0.05910862 0.016112816
-0.041526787 0.012765654 -0.10794804 -0.00985485 -0.04240273 -0.11351071 0.10548352 -0.043263942
0.021204041 0.07206018 0.10621762 0.10495821 0.005458166 -0.035959788 -0.098565355 -0.0054455483
0.10348639 0.006355511 0.040872585 -0.08825228 0.1208199 0.11570537 0.03166744 -0.0027398386
-0.11395213 0.08916529 0.015141946 -0.05485669 -0.035297584 -0.025052825 -0.022528216 -0.11044922
-0.08673411 -0.030760154 0.0024140084 -0.0304768 0.05665026 -0.06490425 0.06845301 -0.006215717
-0.120231114 0.019142982 -0.04176531 -0.07913752 0.048925396 -0.052473802 0.032943837 0.016221145
0.018464148 0.035630316 -0.0350108 0.0818665 0.07634249 -0.0586888 -0.04058303 0.065511584
0.12234843 0.07968416 -0.035073586 0.00398461 -0.09947483 -0.04654221 0.0038826163 0.063898705
0.100525394 -0.03800108 0.025280163 0.08152883 -0.05660909 0.040857285 0.029631505 0.0037981875
0.10351931 -0.100447044 0.0392871 -0.09421621 0.10796149 -0.036460076 -0.037153076 -0.00301663
0.017728172 -0.072644025 -0.096324265 0.020935055 -0.092015594 -0.0128732 0.10511077 0.032107983
-0.023136828 0.12221027 0.09303205 -0.04159472 0.029252496 0.021427488 -0.07448349 0.05489708
-0.08695772 -0.07406616 0.0607442 -0.09865603 0.12484748 0.04749522 0.005417112 0.0012877355
0.047037262 0.026735531 -0.024605524 0.035543792 -0.11214378 -0.045533124 0.06193952 0.034761604
0.0407334 0.03235808 -0.026471023 -0.0918078 -0.055197384 -0.061410192 0.10850858 -0.11686889
-0.04165444 0.087121524 0.07769666 -0.040204868 -0.081284896 -0.057981055 -0.036597937 0.077602
0.12254831 -0.024747502 0.034768943 -0.0765501 -0.1074932 -0.100207515 0.016521787 -0.013001185
-0.106576174 -0.031933162 -0.068948135 0.11978526 -0.11560598 -0.04101778 0.09726876 0.025784105
-0.062967114 0.062665515 -0.029544337 0.096252486 0.10837581 0.07786618 0.12698704 0.025434846
0.014635649 -0.11193897 -0.07780592 0.030628605 0.04226382 0.062197223 0.035181966 0.09943164
0.09606615 -0.06636285 0.00015077402 -0.11702032 0.052436814 -0.0035568366 0.120009616 0.02567576
0.047849063 0.07490228 0.11775902 0.034263715 -0.10011139 0.0035124978 -0.046243474 0.089951135
00000000: cfc6 883d 98c5 34bd c4f9 d33d 9808 283d
00000010: e7ad 183d 5c2b dc3d f466 a53c d6f3 183d
00000020: d031 8c3d 4ba0 733d cf32 79bd c127 debd
00000030: 62fd 34bd 3720 04bc 5c80 ac3d c5ed 72bd
00000040: fdce ecbd 6c45 f83d be77 cdbb fd08 e5bd
00000050: 87a6 a0bd c402 0dbd 1dff b03d aa9d a23d
00000060: ef04 e8bc 41aa 69bd 17de 883d 7bed 643d
00000070: 8a9e 8a3b c348 2d3d 0020 cb3d f539 5f3d
00000080: 09ee e5bd 5a05 ebbd 0fb5 b93c 0a92 853d
00000090: d86c 8e3d 89a6 3dbc 77db e8bd 0964 e33d
000000a0: fd63 713c 6ea4 f53c 8def afbd c527 bf3d
000000b0: 44fc 10bc 08cd c23c 8bf8 cabd 7f7d f83d
000000c0: c1c6 ccbd d384 9abd bb92 b1bd 2693 4e3c
000000d0: 4b2b d93d c6bc 4ebd adad e73d 94b0 353d
000000e0: 79d4 243d 5f33 b43d 3103 8fbd 367e e6bd
000000f0: 3206 7f3b a149 733d e505 af3d bcbb 4ebd
00000100: 3156 5a3c 1460 1cbc 2e5f d03b 2320 fd3d
00000110: dbe5 b5bd b600 0f3d f176 61bc 674f 71bd
00000120: cfa2 613c b0dc a53c eb06 8ebc 3dbf 0dbd
00000130: 3d7c 3fbd 6cd3 8dbd e11b 72bd 06ff 833c
00000140: fe17 2abd 0927 513c dd13 ddbd 3d76 21bc
00000150: 7cae 2dbd 4e78 e8bd be07 d83d 8835 31bd
00000160: 19b4 ad3c 4a94 933d a088 d93d 54f4 d63d
00000170: 6ada b23b 924a 13bd a2dc c9bd 9270 b2bb
00000180: acf0 d33d e441 d03b 036a 273d 9dbd b4bd
00000190: 6c70 f73d f0f6 ec3d b8b5 013d dd8e 33bb
000001a0: bc5f e9bd 4b9c b63d ed15 783c 69b1 60bd
000001b0: 3394 10bd 953b cdbc 188d b8bc 3333 e2bd
000001c0: a7a1 b1bd b8fc fbbc 5734 1e3b 7baa f9bc
000001d0: 1a0a 683d 85ec 84bd 1731 8c3d 37ad cbbb
000001e0: bb3b f6bd bed1 9c3c 1a12 2bbd da12 a2bd
000001f0: ff65 483d c5ee 56bd 1ef0 063d 35e2 843c
00000200: 2042 973c 18f1 113d 7c67 0fbd a0a9 a73d
00000210: 7459 9c3d ab63 70bd 643a 26bd f02a 863d
00000220: d091 fa3d 7331 a33d 52a9 0fbd 5591 823b
00000230: 76b9 cbbd 0ba3 3ebd 7e73 7e3b 53dd 823d
00000240: 42e0 cd3d 05a7 1bbd 5818 cf3c 96f8 a63d
00000250: efde 67bd f859 273d c5bd f23c 03eb 783b
00000260: ef01 d43d 2eb7 cdbd 83eb 203d 6ef4 c0bd
00000270: ea1a dd3d 2957 15bd d32d 18bd a7b2 45bb
00000280: ac3a 913c 64c6 94bd a845 c5bd fe7f ab3c
00000290: ac72 bcbd 1dea 52bc 5144 d73d a983 033d
000002a0: 7289 bdbc 6149 fa3d 9687 be3d 3a5f 2abd
000002b0: eea2 ef3c b388 af3c cd8a 98bd c3db 603d
000002c0: e416 b2bd 00b0 97bd e9ce 783d 2c0c cabd
000002d0: 09b0 ff3d 598a 423d 0782 b13b 3cc9 a83a
000002e0: 25aa 403d 7904 db3c 8691 c9bc 5e96 113d
000002f0: a3ab e5bd f180 3abd 4bb4 7d3d 2f62 0e3d
00000300: 11d8 263d e889 043d c2d9 d8bc ba05 bcbd
00000310: a716 62bd 4189 7bbd bf39 de3d f558 efbd
00000320: d99d 2abd c56c b23d 6d1f 9f3d dcad 24bd
00000330: b278 a6bd 8b7d 6dbd b8e7 15bd cced 9e3d
00000340: 9cfa fa3d 46bb cabc e169 0e3d 4dc6 9cbd
00000350: 6525 dcbd 9939 cdbd b358 873c ec02 55bc
00000360: 9c44 dabd 59cc 02bd ae34 8dbd f951 f53d
00000370: d4c2 ecbd 4202 28bd d834 c73d 3039 d33c
00000380: e7f4 80bd c756 803d f706 f2bc 0620 c53d
00000390: 23f4 dd3d 4e78 9f3d e408 023e bd5c d03c
000003a0: 5cca 6f3c 4240 e5bd b658 9fbd d7e8 fa3c
000003b0: d41c 2d3d 84c2 7e3d f71a 103d d1a2 cb3d
000003c0: 54be c43d 3fe9 87bd 1819 1e39 59a8 efbd
000003d0: fcc7 563d d119 69bb 9ac7 f53d f955 d23c
000003e0: 61fd 433d 5e66 993d a42b f13d 1c58 0c3d
000003f0: 3307 cdbd ef31 663b cc69 3dbd 4d38 b83d

weight_hh_l0 f4 [192, 64]
0.12158867 0.013183239 0.043666966 0.07848725 -0.0683869 -0.06978246 0.020314604 -0.037187003
0.0806796 0.11814458 -0.0040308116 0.120601796 -0.021544851 0.075523525 -0.04617461 -0.098489925
-0.006816773 -0.0024026653 0.008414642 0.03732343 0.06016542 0.101002745 0.09950558 -0.09521929
-0.0134719685 -0.030362256 0.11912337 -0.11138558 0.009427107 -0.05096157 -0.020121885 -0.035016436
-0.07532434 -0.06818317 -0.08821328 0.102182254 0.027443133 0.10467419 -0.12596622 0.094931625
-0.053029 0.06734963 -0.04694831 0.046693802 0.021706725 -0.024288453 0.0468465 0.096771434
0.03675153 -0.039074898 -0.06330206 0.07266505 -0.05737578 0.061828755 -0.076668 0.054179095
-0.029477675 0.025030974 -0.10014648 0.11565604 -0.05940188 0.041152287 -0.04287314 -0.0957918
0.071675405 -0.06266093 0.0564921 0.01798772 0.07542539 -0.0058399737 0.08169303 -0.032842234
0.09904844 0.06591032 -0.048022892 -0.11895315 0.093747094 -0.09268548 -0.08281044 -0.08169136
0.045921884 -0.009308284 0.04670572 -0.096385986 0.008976455 0.097569115 0.096309386 0.008513463
0.031760167 -0.05605936 0.10515211 -0.038211327 0.03202344 -0.08895689 0.08292212 0.103037246
-0.0991823 0.003590962 0.044902347 0.112235606 -0.03636739 0.0973939 -0.11783723 0.00028957322
0.09937745 -0.0073784767 0.047565784 -0.056524783 0.06727328 0.11105505 0.055489477 0.07302249
-0.013092347 0.12160618 0.1076193 -0.024663446 -0.09282478 0.038412973 0.11756875 0.01014086
-0.076356426 0.025890918 0.03686335 0.055143155 -0.0049122176 0.104526296 -0.07439812 0.099827446
-0.08134256 -0.025029527 -0.05029762 -0.0029523994 -0.025362244 -0.10425064 -0.10923901 0.06693838
0.05068777 -0.10347052 0.10420368 0.018138532 0.07642072 0.11886503 0.045368098 -0.10396827
-0.04284438 0.07763516 -0.0738686 0.10886807 0.0824212 -0.10247864 0.02795393 -0.021167174
-0.090450965 0.032745846 0.08084083 0.0021566853 0.10815568 0.037000068 0.07851772 0.047477778
0.011209292 -0.008226784 -0.00044819142 0.090472154 0.080134615 0.05150163 0.10788991 0.047160346
0.085915506 -0.05723341 0.039646067 -0.047273483 -0.044697408 -0.05430315 0.053362302 -0.12070273
0.05380497 0.0117969895 -0.0043000127 -0.021273708 -0.06508952 -0.113536984 -0.08281079 0.12308019
0.09816669 0.12560928 -0.095572904 -0.047383077 -0.10055172 -0.031503234 -0.06936323 0.026592338
0.06436558 0.06462885 -0.013333208 -0.046684213 -0.11555889 -0.064860255 0.1063107 -0.0680337
0.097692445 -0.035364185 0.043132093 -0.12156807 -0.07575333 -0.036354065 0.074174084 -0.038666196
0.09516601 0.048297036 0.11159662 -0.112777784 0.06019329 0.027037252 0.044600997 -0.107982785
0.11071719 0.023818456 0.04740975 0.03176271 0.061208893 -0.09521777 -0.06487666 -0.03575992
0.11135416 -0.055158023 -0.116105415 0.11832021 -0.0044736993 -0.10150341 0.0003384771 0.099524364
-0.10827038 -0.05921607 0.070378385 0.03937311 -0.035762932 0.046486072 -0.055169005 0.12637658
-0.035662066 0.098017454 0.12217659 0.07727672 -0.06438214 0.12407848 0.084151916 -0.005594129
-0.026532458 0.089550056 0.082572594 -0.12643018 -0.060654238 0.09880516 -0.019911777 0.067969695
00000000: 7b03 f93d 83fe 573c 22dc 323d ecbd a03d
00000010: 6e0e 8cbd 1bea 8ebd d06a a63c 6651 18bd
00000020: 593b a53d c9f5 f13d e614 84bb 13fe f63d
00000030: d47e b0bc 14ac 9a3d 9621 3dbd 16b5 c9bd
00000040: 3d5f dfbb 0976 1dbb 91dd 093c 74e0 183d
00000050: 0470 763d 87da ce3d 95c9 cb3d 5502 c3bd
00000060: 88b9 5cbc 44ba f8bc f4f6 f33d 1f1e e4bd
00000070: 2774 1a3c 14bd 50bd a7d6 a4bc 656d 0fbd
00000080: a643 9abd 9ea3 8bbd 2aa9 b4bd ee44 d13d
00000090: 6cd0 e03c 6c5f d63d 4afd 00be 836b c23d
000000a0: f034 59bd 9aee 893d df4c 40bd 0042 3f3d
000000b0: 4dd2 b13c 94f8 c6bc 1ee2 3f3d 1a30 c63d
000000c0: c688 163d 000d 20bd 83a4 81bd 6ad1 943d
000000d0: de02 6bbd 2640 7d3d 1d04 9dbd e6ea 5d3d
000000e0: 2a7b f1bc c20d cd3c 9919 cdbd 13dd ec3d
000000f0: 634f 73bd 4d8f 283d bf9b 2fbd 7e2e c4bd
00000100: 8eca 923d 6054 80bd 4364 673d fc5a 933c
00000110: a078 9a3d 405d bfbb ad4e a73d 9485 06bd
00000120: e9d9 ca3d fdfb 863d a7b3 44bd b69d f3bd
00000130: 7afe bf3d e3d1 bdbd 8598 a9bd cd4d a7bd
00000140: 9618 3c3d c681 18bc 7f4e 3f3d 0466 c5bd
00000150: fb11 133c 51d2 c73d db3d c53d 0d7c 0b3c
00000160: f316 023d 809e 65bd fd59 d73d 7b83 1cbd
00000170: 032b 033d 082f b6bd 13d3 a93d 3105 d33d
00000180: 1720 cbbd 5856 6b3b 86eb 373d c8db e53d
00000190: f9f5 14bd 7476 c73d a554 f1bd dcd1 9739
000001a0: 6886 cb3d 26c7 f1bb 57d4 423d 8886 67bd
000001b0: 93c6 893d d470 e33d ef48 633d d18c 953d
000001c0: 4981 56bc a90c f93d 8267 dc3d ff0a cabc
000001d0: eb1a bebd ec56 1d3d e3c7 f03d da25 263c
000001e0: c260 9cbd 3119 d43c 06fe 163d cadd 613d
000001f0: abf6 a0bb e211 d63d 0b5e 98bd 5572 cc3d
00000200: ee96 a6bd b90a cdbc e104 4ebd 0b7d 41bb
00000210: 7bc4 cfbc 5c81 d5bd b4b8 dfbd fd16 893d
00000220: fb9d 4f3d 5ae8 d3bd bd68 d53d 4297 943c
00000230: 7782 9c3d 826f f33d e6d3 393d 51ed d4bd
00000240: 977d 2fbd 2fff 9e3d 6c48 97bd 39f6 de3d
00000250: 72cc a83d 52e0 d1bd a4ff e43c c866 adbc
00000260: 5b3e b9bd 8220 063d e18f a53d 2d57 0d3b
00000270: ba80 dd3d 628d 173d e6cd a03d 0f78 423d
00000280: 2ea7 373c a2c9 06bc 3cfb eab9 7749 b93d
00000290: 9e1d a43d 60f3 523d 63f5 dc3d 352b 413d
000002a0: 78f4 af3d 956d 6abd ea63 223d d7a1 41bd
000002b0: a114 37bd fb6c 5ebd 6e92 5a3d fe32 f7bd
000002c0: 9a62 5c3d 2948 413c 1fe7 8cbb 3346 aebc
000002d0: a74d 85bd 1486 e8bd b498 a9bd 7711 fc3d
000002e0: 9e0b c93d b89f 003e babb c3bd c214 42bd
000002f0: 0fee cdbd 8909 01bd 4f0e 8ebd 2dd8 d93c
00000300: 1ad2 833d 215c 843d 8773 5abc f237 3fbd
00000310: 24aa ecbd 74d5 84bd 6db9 d93d 4155 8bbd
00000320: fa12 c83d 09da 10bd 47ab 303d aef8 f8bd
00000330: 9024 9bbd 00e8 14bd 95e8 973d 7260 1ebd
00000340: 66e6 c23d 1dd3 453d c58c e43d 0af8 e6bd
00000350: 3d8d 763d 3a7d dd3c 89af 363d 1426 ddbd
00000360: b2bf e23d ec1e c33c ba30 423d 9e19 023d
00000370: 2db6 7a3d 8901 c3bd 0ede 84bd fe78 12bd
00000380: a60d e43d 61ed 61bd adc8 edbd de51 f23d
00000390: 1c98 92bb 05e1 cfbd a175 b139 6ed3 cb3d
000003a0: dcbc ddbd 8d8c 72bd 8b22 903d b345 213d
000003b0: 277c 12bd 2e68 3e3d e5f8 61bd dd68 013e
000003c0: 6312 12bd 60bd c83d b837 fa3d 4243 9e3d
000003d0: c9da 83bd dc1c fe3d d757 ac3d f54e b7bb
000003e0: 995a d9bc 0566 b73d d21b a93d ea76 01be
000003f0: 9470 78bd 5c5a ca3d 061e a3bc b233 8b3d

bias_ih_l0 f4 [192]
0.0027845183 0.06730179 -0.066567965 0.07218807 0.033229657 -0.011903953 0.093987875 0.04295277
0.07575935 0.08066521 -0.042933032 0.11806963 0.07407775 -0.0024067785 -0.07379273 0.04855235
0.058298867 -0.008275431 -0.06370016 0.06353828 0.1250727 0.018018054 -0.09333964 0.06851871
-0.12626001 -0.098228745 -0.060275946 -0.011598716 0.095436655 0.09177918 0.010237548 0.010452001
-0.053705588 -0.07560193 0.10813482 -0.078551054 0.034808517 -0.059851285 0.06366052 -0.0374502
-0.027164316 -0.11590614 0.033703335 0.071022205 0.11409017 0.032838535 0.07935062 -0.11005844
-0.09968569 0.0723443 -0.07516896 -0.10951012 0.008102295 0.02912565 -0.04509761 -0.111825466
-0.0794946 0.037066 0.0012543331 0.015068207 0.012618694 0.10198494 -0.024916846 -0.10360398
-0.017111786 -0.02848481 0.015956938 0.098414786 0.058385834 0.1140899 -0.006736119 0.08937711
0.019886006 -0.05978328 -0.07312975 -0.007544613 -0.04289619 -0.11570412 -0.09184884 -0.11861811
0.11413104 -0.07127468 -0.057122126 -0.016769402 0.09772935 -0.07530471 0.045393296 0.08571536
-0.09204832 0.07492727 0.04246405 -0.003686506 0.011286259 0.09266739 0.11315674 -0.040785994
-0.110637166 -0.08975747 0.00047002337 0.08483641 -0.025747368 0.06347966 0.017372208 -0.017351918
0.12511155 0.047317505 0.07691831 0.10306762 -0.0052420828 0.01656358 0.050711546 -0.047504198
0.104980744 -0.04012906 0.019008523 -0.107295856 -0.061885964 -0.04873967 -0.07329618 0.11228775
0.12618966 -0.046510253 -0.0547736 -0.0684721 -0.06116081 0.078017235 0.10909205 -0.07322619
0.10077267 -0.07657621 0.01870924 -0.0005323583 0.0729379 -0.12181183 -0.06256593 0.11919949
0.10018024 0.109593205 0.114773564 0.11914375 -0.012267941 -0.09339057 0.12324858 -0.039903678
0.02143194 0.0365629 0.025849335 0.05602847 -0.098279655 -0.078537196 -0.034460012 0.018917225
0.10486005 0.03125748 -0.059578657 0.094548464 -0.032548226 0.11922839 0.08706149 0.060689844
-0.11755603 -0.09773274 -0.09830425 -0.1047557 -0.08109253 -0.060060803 0.07895224 0.062430155
-0.07487034 0.076308064 0.04882721 -0.12153124 -0.031734444 0.07932243 -0.012637105 -0.11459601
0.023250476 0.001217349 -0.040661737 0.09822674 0.12616508 0.100071296 0.052732177 0.08480843
0.112912476 -0.0014567462 0.11426355 -0.022126524 -0.10353657 0.0077861743 0.08599167 0.09638537
00000000: 777c 363b 85d5 893d c954 88bd 57d7 933d
00000010: d21b 083d cc08 43bc b77c c03d 3eef 2f3d
00000020: b827 9b3d cd33 a53d 8cda 2fbd 7dce f13d
00000030: 13b6 973d 0bbb 1dbb a520 97bd d4de 463d
00000040: cbca 6e3d ac95 07bc 3b75 82bd 5c20 823d
00000050: 0f13 003e 999a 933c da28 bfbd 8a53 8c3d
00000060: 4e4a 01be 272c c9bd e9e3 76bd 8a08 3ebc
00000070: 4b74 c33d b9f6 bb3d 63bb 273c df3e 2b3c
00000080: 64fa 5bbd 2fd5 9abd ca75 dd3d 60df a0bd
00000090: 6093 0e3d 9f26 75bd 7260 823d 6265 19bd
000000a0: b387 debc 3360 edbd 820c 0a3d 1774 913d
000000b0: 1ba8 e93d b381 063d 9482 a23d 5266 e1bd
000000c0: 0328 ccbd 4029 943d 2ff2 99bd d746 e0bd
000000d0: 7dbf 043c ea98 ee3c 46b8 38bd c004 e5bd
000000e0: 11ce a2bd 85d2 173d 6f68 a43a a4e0 763c
000000f0: a4be 4e3c 7bdd d03d 6a1e ccbc 532e d4bd
00000100: 042e 8cbc fa58 e9bc 20b8 823c b18d c93d
00000110: fc25 6f3d f7a7 e93d a9ba dcbb 590b b73d
00000120: fae7 a23c 50df 74bd 0dc5 95bd cd38 f7bb
00000130: eab3 2fbd 48f6 ecbd 3f1b bcbd 0dee f2bd
00000140: 89bd e93d 76f8 91bd e4f8 69bd fc5f 89bc
00000150: 5326 c83d 5b39 9abd 52ee 393d 898b af3d
00000160: d483 bcbd 7873 993d c9ee 2d3d 4f99 71bb
00000170: 00ea 383c 67c8 bd3d b9be e73d 370f 27bd
00000180: bd95 e2bd c4d2 b7bd 786d f639 b6be ad3d
00000190: 25ec d2bc a001 823d 2950 8e3c 9c25 8ebc
000001a0: 3e1d 003e 00d0 413d 5987 9d3d 1e15 d33d
000001b0: c7c5 abbb 58b0 873c e9b6 4f3d c393 42bd
000001c0: 2500 d73d 5f5e 24bd c3b7 9b3c eebd dbbd
000001d0: 237c 7dbd 40a3 47bd 4f1c 96bd 1ff7 e53d
000001e0: dd37 013e 8981 3ebd 485a 60bd 1a3b 8cbd
000001f0: c283 7abd 80c7 9f3d a76b df3d 9df7 95bd
00000200: e761 ce3d fdd3 9cbd 1f44 993c f68d 0bba
00000210: 7760 953d 7b78 f9bd 9122 80bd dd1e f43d
00000220: 4c2b cd3d 6772 e03d 670e eb3d a301 f43d
00000230: 79ff 48bc 8e43 bfbd c069 fc3d 0a72 23bd
00000240: 0992 af3c fbc2 153d fcc1 d33c 1c7e 653d
00000250: d846 c9bd 1cd8 a0bd f125 0dbd 4cf8 9a3c
00000260: dec0 d63d d807 003d c008 74bd a0a2 c13d
00000270: 4a51 05bd 042e f43d 4b4d b23d ea95 783d
00000280: 37c1 f0bd 1a28 c8bd bd53 c9bd 288a d6bd
00000290: d713 a6bd 5102 76bd b6b1 a13d c3b6 7f3d
000002a0: 9f55 99bd 6747 9c3d 0aff 473d 5fe5 f8bd
000002b0: fafb 01bd cc73 a23d dc0b 4fbc 50b1 eabd
000002c0: c877 be3c 748f 9f3a ec8c 26bd 1a2b c93d
000002d0: 6b31 013e 2ef2 cc3d b2fd 573d 0bb0 ad3d
000002e0: a83e e73d 4bf0 beba 0203 ea3d af42 b5bc
000002f0: fb0a d4bd 2a23 ff3b 671c b03d b165 c53d

bias_hh_l0 f4 [192]
-0.12135375 0.06469483 -0.010548545 0.026127841 -0.006887466 0.06665923 -0.09527021 0.11013317
0.034997545 -0.04739882 0.09117674 -0.064362116 0.100207366 -0.00047297942 0.014105003 0.011625281
-0.03674567 0.054938495 -0.10092769 0.05095318 0.076621994 -0.12005555 0.04593472 -0.043416407
0.0019051493 0.01005419 0.05928054 -0.087643765 0.06672817 0.01234604 0.015031295 0.04127014
-0.050457984 -0.03538622 -0.026335148 0.019757897 -0.08165095 0.0147138005 -0.0020545654 0.06826167
-0.071875386 0.03730035 0.013837772 -0.00028920764 0.07313683 -0.11766297 -0.050126724 -0.09765346
0.08629791 -0.0007943104 -0.012178291 -0.0952707 0.07126583 -0.10504049 -0.078776024 -0.10544093
-0.00093576347 0.0008097407 0.110305145 -0.008181717 -0.1212824 -0.070486225 0.074910775 -0.042780526
-0.028035738 0.0070556095 0.1051906 -0.04943426 0.057829544 -0.024882553 -0.11210323 0.0972807
-0.111974366 0.023143278 0.032539424 0.048019726 0.100801185 -0.09158823 -0.0838351 0.009523226
-0.049740274 0.10875043 0.090471946 -0.0324215 0.004706743 -0.020015847 -0.09678112 0.0731911
0.09111813 -0.04667796 -0.012768849 0.09883949 -0.021135358 -0.08193002 0.009873456 0.007410542
0.058241162 -0.084215224 -0.008593292 0.12237613 0.025331145 0.06954467 -0.027405113 0.037954543
0.0024480075 0.040315688 0.057851758 -0.027715351 0.09331439 -0.045871735 -0.08122758 -0.07592127
-0.014350052 -0.04002444 0.0016086078 -0.0060510645 0.06339821 -0.038599685 -0.0019036224 -0.08478474
0.07821627 0.06416576 -0.020653768 -0.064479545 0.031869266 0.09537293 -0.11888512 0.06686116
-0.039660435 0.0051888493 0.0077907704 -0.06649008 -0.12023174 -0.08842335 0.036146708 0.09599834
-0.0842427 -0.12181129 0.11249864 0.101829275 0.1095595 -0.04799363 0.03929391 0.09295371
0.08408164 -0.075019784 -0.114290416 0.10039251 -0.08901267 0.09287074 -0.115612306 0.08720904
-0.12192806 -0.052266408 0.103608236 -0.08215166 0.040170398 -0.016625317 -0.03528075 -0.07716308
0.041371822 0.019510902 -0.00512956 -0.02308386 -0.12060985 0.09656412 -0.07500106 -0.09773166
0.020332342 0.0527415 0.10000584 -0.10471119 0.08549018 -0.10347771 -0.053956423 0.011951887
0.024468753 -0.029357834 -0.10400295 0.09627636 -0.05352239 -0.08531043 -0.036430903 -0.04586814
-0.060713515 -0.11084411 -0.047405586 -0.105966575 -0.1041839 -0.006963549 0.0985847 0.057555843
00000000: 5188 f8bd b97e 843d ced3 2cbc 0e0a d63c
00000010: 41b0 e1bb a284 883d 071d c3bd 808d e13d
00000020: 9659 0f3d 4425 42bd dfba ba3d 49d0 83bd
00000030: 8539 cd3d 39fa f7b9 ac18 673c f677 3e3c
00000040: a182 16bd 3007 613d 2db3 cebd 48b4 503d
00000050: feeb 9c3d afdf f5bd 0c26 3c3d 67d5 31bd
00000060: 34b6 f93a 54ba 243c 27d0 723d 937e b3bd
00000070: c7a8 883d 0c47 4a3c d245 763c e10a 293d
00000080: 08ad 4ebd 24f1 10bd cfbc d7bc 50db a13c
00000090: 9d38 a7bd 2712 713c e3a5 06bb c6cc 8b3d
000000a0: 6733 93bd 40c8 183d d3b7 623c cba0 97b9
000000b0: c3c8 953d 49f9 f0bd ae51 4dbd 8afe c7bd
000000c0: f5bc b03d 4539 50ba 7487 47bc 491d c3bd
000000d0: d2f3 913d 781f d7bd 5355 a1bd 6af1 d7bd
000000e0: 064e 75ba c744 543a aae7 e13d 9c0c 06bc
000000f0: e862 f8bd 155b 90bd d26a 993d a23a 2fbd
00000100: 34ab e5bc be32 e73b 2b6e d73d 947b 4abd
00000110: acde 6c3d 7fd6 cbbc 6196 e5bd 1b3b c73d
00000120: d152 e5bd f996 bd3c 0f48 053d 55b0 443d
00000130: da70 ce3d 9c92 bbbd bdb1 abbd 4e07 1c3c
00000140: 75bc 4bbd 8cb8 de3d 5b49 b93d 68cc 04bd
00000150: 063b 9a3b 46f8 a3bc 2e35 c6bd 37e5 953d
00000160: 249c ba3d 6331 3fbd 6f34 51bc 5c6c ca3d
00000170: 0f24 adbc edca a7bd 47c4 213c 22d4 f23b
00000180: 498e 6e3d 0879 acbd e1ca 0cbc 56a0 fa3d
00000190: 4383 cf3c 706d 8e3d b080 e0bc 3976 1b3d
000001a0: c06e 203b 1022 253d f7f5 6c3d 4e0b e3bc
000001b0: 9d1b bf3d 00e4 3bbd a55a a6bd 9c7c 9bbd
000001c0: 7b1c 6bbc abf0 23bd ecd7 d23a 0248 c6bb
000001d0: ecd6 813d b41a 1ebd f882 f9ba 9fa3 adbd
000001e0: da2f a03d 5769 833d 1732 a9bc da0d 84bd
000001f0: 5989 023d e252 c33d 0b7a f3bd 81ee 883d
00000200: fb72 22bd 3907 aa3b b849 ff3b f32b 88bd
00000210: 0f3c f6bd 4d17 b5bd 920e 143d c79a c43d
00000220: 7087 acbd 3378 f9bd b065 e63d de8b d03d
00000230: bb60 e03d f894 44bd a7f2 203d 845e be3d
00000240: ff32 ac3d f9a3 99bd 1811 eabd 979a cd3d
00000250: 464c b6bd 0433 be3d 25c6 ecbd a79a b23d
00000260: 6bb5 f9bd 4d15 56bd 8e30 d43d 213f a8bd
00000270: b789 243d d131 88bc 8c82 10bd ad07 9ebd
00000280: 8075 293d 54d5 9f3c de15 a8bb 5d1a bdbc
00000290: 4c02 f7bd 69c3 c53d 289a 99bd 8927 c8bd
000002a0: 0390 a63c 7907 583d ddcf cc3d d272 d6bd
000002b0: 7a15 af3d 1fec d3bd 6901 5dbd d9d1 433c
000002c0: b272 c83c d77f f0bc 80ff d4bd 8a2c c53d
000002d0: 4b3a 5bbd 3cb7 aebd 9238 15bd 3be0 3bbd
000002e0: bcae 78bd 3d02 e3bd 5c2c 42bd 0105 d9bd
000002f0: 5e5e d5bd 7c2e e4bb c6e6 c93d adbf 6b3d

weight f4 [2, 64]
-0.09944671 0.06884524 -0.027823072 0.063775964 0.12065694 0.09418578 0.046609547 -0.10691968
0.10879698 -0.08803491 -0.098748 0.07926324 0.07449704 -0.06890698 0.031868644 -0.08001247
0.022374582 0.031335764 0.07626129 0.106905006 -0.109231934 -0.09089032 -0.06772572 -0.018393418
0.036897276 0.10276748 0.0860067 0.02992969 0.04041562 0.12020756 -0.049123153 -0.0070428876
0.12268354 0.050539166 -0.04516121 0.11012103 0.10006521 0.048224922 0.11343655 -0.04275232
-0.09405971 0.011545946 -0.027076539 -0.104288675 -0.001822969 -0.013685895 0.05487634 -0.011489669
0.03555979 -0.04294958 -0.039856162 0.080967285 0.006340822 -0.08187401 -0.00423018 -0.05568733
-0.056813024 -0.08593376 -0.07102109 -0.06141259 0.0013081616 -0.08535943 -0.12171538 -0.10748319
-0.084193476 -0.076085225 0.08988623 -0.022117121 0.012228867 0.0034801995 -0.00032018145 0.045573212
0.029054148 0.028059186 -0.0009719866 -0.07470156 -0.04264293 0.11030041 -0.032661766 -0.058625396
0.040045694 -0.04829162 0.02054237 -0.11901463 -0.07834715 -0.102265134 -0.029452588 -0.035980523
-0.013128047 -0.096615925 -0.06685014 0.037167788 0.046923857 0.095333196 -0.05490963 -0.044658676
-0.1077127 -0.025532171 0.024327813 0.02540756 -0.07294341 0.043589298 0.051484935 -0.04416639
-0.032801427 -0.050896473 0.051856596 0.008161383 -0.11852255 0.046430446 -0.11188258 -0.11653792
-0.12270604 -0.070852496 -0.07021672 -0.06900536 0.003925899 0.0001256665 0.044479404 -0.06802278
0.078265846 0.10597764 -0.06331209 -0.085048266 -0.105640024 -0.0924829 -0.051933188 0.03380035
00000000: b7aa cbbd bcfe 8c3d 36ed e3bc f99c 823d
00000010: fc1a f73d 79e4 c03d a7e9 3e3d b5f8 dabd
00000020: f3d0 de3d a64b b4bd 643c cabd c454 a23d
00000030: e791 983d 1a1f 8dbd b288 023d 94dd a3bd
00000040: e64a b73c ee59 003d e12e 9c3d 03f1 da3d
00000050: feb4 dfbd b424 babd c8b3 8abd cbad 96bc
00000060: 9921 173d c277 d23d 4824 b03d 1c2f f53c
00000070: d98a 253d 622f f63d 5c35 49bd 06c8 e6bb
00000080: 8241 fb3d 2802 4f3d f6fa 38bd 2287 e13d
00000090: fdee cc3d 7f87 453d 6c51 e83d 0f1d 2fbd
000000a0: 61a2 c0bd 352b 3d3c 9ecf ddbc 4d95 d5bd
000000b0: b0f0 eeba ce3a 60bc 03c6 603d 2a3f 3cbc
000000c0: 24a7 113d e6eb 2fbd 3740 23bd 2dd2 a53d
000000d0: acc6 cf3b 90ad a7bd 529d 8abb 6618 64bd
000000e0: c6b4 68bd 0afe afbd 8173 91bd c58b 7bbd
000000f0: 9f76 ab3a edd0 aebd ea45 f9bd 2620 dcbd
00000100: a16d acbd 92d2 9bbd 4616 b83d f72e b5bc
00000110: 965b 483c 0f14 643b 07de a7b9 faaa 3a3d
00000120: f702 ee3c 61dc e53c ebcc 7eba 22fd 98bd
00000130: 5aaa 2ebd 2ee5 e13d 58c8 05bd 2f21 70bd
00000140: f406 243d 6fcd 45bd 7948 a83c f1bd f3bd
00000150: 7874 a0bd 6270 d1bd 8e46 f1bc 5060 13bd
00000160: 0517 57bc 92de c5bd bae8 88bd 403d 183d
00000170: 3b33 403d 0d3e c33d ece8 60bd 04ec 36bd
00000180: 7a98 dcbd d828 d1bc 1f4b c73c 8423 d03c
00000190: 5b63 95bd b18a 323d dee1 523d d1e7 34bd
000001a0: ca5a 06bd d278 50bd 9567 543d 52b7 053c
000001b0: f3bb f2bd da2d 3e3d b222 e5bd 6fab eebd
000001c0: 4e4d fbbd 1d1b 91bd c9cd 8fbd af52 8dbd
000001d0: d4a4 803b 58c5 0339 0930 363d 874f 8bbd
000001e0: d849 a03d ce0a d93d c5a9 81bd c92d aebd
000001f0: cc59 d8bd ad67 bdbd e5b7 54bd 3c72 0a3d

bias f4 [2]
0.05272707 0.034159202
00000000: 57f8 573d 85ea 0b3d

weight_ih_l0 f4 [192, 66]
-0.085602894 0.10550427 -0.038843613 0.053209435 -0.08696848 -0.08800981 -0.042805545 -0.002753624
-0.08021187 0.06447612 0.00032063227 -0.10357183 -0.074129686 -0.034969646 -0.058510553 0.099082544
-0.018092524 -0.04741716 -0.034377977 -0.099596374 -0.010955292 0.08633816 -0.12033747 -0.04631358
0.06533995 0.020071035 -0.07956443 0.06943937 0.022333948 0.049055405 0.021716919 -0.07464829
0.06797381 0.051046673 0.082510754 0.0018974643 0.007204866 0.12082573 0.070980564 -0.0872384
0.057185207 0.0680808 0.044644624 0.113892056 0.028944986 0.038089957 0.05726198 -0.025727656
0.023583774 0.11535629 -0.11918142 0.10671525 -0.062367693 0.08615694 -0.09598329 0.104879044
0.033943594 0.10768464 0.08458508 0.1132534 0.09487353 0.0017475991 0.074823394 -0.015260058
-0.081774965 -0.026662907 -0.095998146 0.09986487 0.114341475 -0.10484414 -0.0709207 -0.078585766
0.08946312 0.06974156 0.04693647 0.012187836 -0.08924481 -0.11696227 -0.08289675 0.105746955
-0.049483042 -0.0070598354 0.09571096 0.044884253 0.04255505 0.028015833 -0.060751274 -0.11002652
0.013111808 0.12285338 0.0136763295 -0.03361554 -0.09188333 0.020802174 0.027950866 0.12798275
0.117136694 0.08303136 0.062241208 0.02804175 0.03185888 -0.124711126 -0.030645102 0.050237186
-0.035212576 -0.11075568 0.059995785 0.045321066 -0.08008531 -0.061024796 0.03430049 -0.048882633
0.09521947 -0.043358885 0.14788091 -0.0143022835 -0.056929424 -0.07409 0.11871371 0.09714849
0.14346215 0.0017384177 0.102537185 -0.053964525 0.04888924 -0.12825961 -0.11488461 0.004472933
0.0866356 0.08530627 -0.023178218 0.10942398 0.0021492832 -0.037099637 0.04755215 -0.022355735
-0.10016491 0.03469883 0.07478931 0.10468646 0.11886818 -0.02146407 -0.085895404 -0.048566632
-0.03983085 -0.05021778 -0.11663241 -0.029323244 -0.056297284 0.056620575 0.015885135 -0.036509905
0.114968 -0.0007355337 0.08226336 -0.12024176 0.077958204 -0.042244762 0.09565409 0.06117691
0.121481135 -0.05367557 0.105768174 0.09692637 -0.048478704 -0.06722756 0.10341067 0.021019826
0.013288894 0.08099826 -0.06519911 0.025398012 0.045157176 -0.060486227 0.00086213666 -0.012235589
-0.007611206 -0.08322725 0.02861127 -0.028367266 0.09038626 -0.115285985 0.1036182 -0.05069404
0.11335615 0.03860204 -0.07635279 0.043471456 -0.04616296 -0.09867223 0.06687507 -0.01963907
0.1187951 -0.027749738 0.013999235 -0.12442637 -0.10631052 0.083436735 -0.005754873 0.031830683
-0.06958438 -0.012925971 0.08696985 -0.017968701 -0.03622195 -0.023805989 0.10068358 0.07250749
0.058732815 0.00929775 0.057543326 0.07733371 -0.049594104 0.03811511 0.07114255 0.076035924
0.04152052 -0.1005383 -0.07432566 0.11545566 0.008193485 0.011352392 -0.12819701 0.101004936
0.111351214 -0.093713745 0.06432787 -0.056748815 -0.026445001 0.03265982 -0.06950146 -0.018979559
0.1255689 0.056354992 0.04065105 0.083028555 -0.0013686814 -0.024046265 -0.018848458 -0.037581913
0.11331139 -0.021441933 0.09407393 0.13866107 0.0010355692 0.11206581 0.09951609 -0.016419563
-0.023179866 -0.115454376 0.04950095 0.10954162 0.1374185 -0.1069418 0.1537773 0.037269764
00000000: 9250 afbd 9f12 d83d 7b1a 1fbd 23f2 593d
00000010: 881c b2bd 7d3e b4bd de54 2fbd 2576 34bb
00000020: 1f46 a4bd 0e0c 843d 891a a839 781d d4bd
00000030: 4ed1 97bd 553c 0fbd c3a8 6fbd caeb ca3d
00000040: c636 94bc 7f38 42bd eccf 0cbd 2ff9 cbbd
00000050: d37d 33bc 10d2 b03d 7e73 f6bd 4fb3 3dbd
00000060: f4d0 853d 036c a43c adf2 a2bd 3a36 8e3d
00000070: aff5 b63c 52ee 483d aee7 b13c 34e1 98bd
00000080: da35 8b3d 5116 513d 66fb a83d 56b4 f83a
00000090: cc16 ec3b 7b73 f73d 425e 913d 0caa b2bd
000000a0: 093b 6a3d f26d 8b3d 48dd 363d 3d40 e93d
000000b0: 091e ed3c 3704 1c3d 8a8b 6a3d cec2 d2bc
000000c0: c232 c13c eb3f ec3d 6315 f4bd 868d da3d
000000d0: 4475 7fbd 0d73 b03d e392 c4bd d3ca d63d
000000e0: 7008 0b3d c489 dc3d f13a ad3d 66f1 e73d
000000f0: 0e4d c23d b20f e53a 023d 993d 5305 7abc
00000100: a279 a7bd 2b6c dabc ad9a c4bd f485 cc3d
00000110: dd2b ea3d 86b8 d6bd df3e 91bd 93f1 a0bd
00000120: 7138 b73d aad4 8e3d 7540 403d 7daf 473c
00000130: fcc5 b6bd ea89 efbd c5c5 a9bd dc91 d83d
00000140: bbae 4abd 3156 e7bb 1c04 c43d 8dd8 373d
00000150: 344e 2e3d 7681 e53c 54d6 78bd 9655 e1bd
00000160: e9d2 563c 8e9a fb3d af12 603c 73b0 09bd
00000170: 542d bcbd 5269 aa3c 37f9 e43c e90d 033e
00000180: 5de5 ef3d 580c aa3d a3f0 7e3d d0b7 e53c
00000190: 757e 023d 8c68 ffbd 700b fbbc 82c5 4d3d
000001a0: 103b 10bd e0d3 e2bd 24be 753d 95a2 393d
000001b0: c403 a4bd 23f5 79bd ac7e 0c3d 2839 48bd
000001c0: 6d02 c33d 1699 31bd 186e 173e 2054 6abc
000001d0: d42e 69bd 7fbc 97bd 2c20 f33d caf5 c63d
000001e0: bee7 123e 9edb e33a 04ff d13d e809 5dbd
000001f0: 1540 483d 7d56 03be 9f48 ebbd ae91 923b
00000200: 016e b13d 0eb5 ae3d 3fe0 bdbc ae19 e03d
00000210: fdda 0c3b caf5 17bd 0bc6 423d 6023 b7bc
00000220: 4323 cdbd 5c20 0e3d 232b 993d db65 d63d
00000230: 2971 f33d 6bd5 afbc eee9 afbd ceed 46bd
00000240: ac25 23bd 29b1 4dbd f9dc eebd 4d37 f0bc
00000250: fb97 66bd faea 673d 8b21 823c 698b 15bd
00000260: 5874 eb3d d5d0 40ba b179 a83d 5041 f6bd
00000270: 8da8 9f3d d808 2dbd 4be6 c33d a494 7a3d
00000280: 1acb f83d eada 5bbd fc9c d83d 5581 c63d
00000290: 9b91 46bd 9aae 89bd f9c8 d33d c531 ac3c
000002a0: a9b9 593c 6ae2 a53d 1c87 85bd 7e0f d03c
000002b0: bbf6 383d 68c0 77bd 0301 623a c877 48bc
000002c0: 6c67 f9bb 0c73 aabd 2f62 ea3c 7862 e8bc
000002d0: 6e1c b93d 0f1b ecbd c735 d43d 8ea4 4fbd
000002e0: 4527 e83d 2c1d 1e3d da5e 9cbd 200f 323d
000002f0: 5f15 3dbd ab14 cabd ccf5 883d 1de2 a0bc
00000300: d84a f33d 6b53 e3bc 0c5d 653c 41d3 febd
00000310: 54b9 d9bd e1e0 aa3d 6093 bcbb e460 023d
00000320: 4182 8ebd 74c7 53bc 401d b23d 1933 93bc
00000330: 785d 14bd c704 c3bc 3133 ce3d cf7e 943d
00000340: d291 703d 9755 183c 8db2 6b3d 2361 9e3d
00000350: 3023 4bbd 971e 1c3d 2fb3 913d b9b8 9b3d
00000360: 6c11 2a3d 06e7 cdbd 0d38 98bd 0474 ec3d
00000370: f83d 063c 62ff 393c 1446 03be addb ce3d
00000380: 1b0c e43d feec bfbd 55be 833d 7271 68bd
00000390: 30a3 d8bc 4ec6 053d c856 8ebd 057b 9bbc
000003a0: 2295 003e 7ed4 663d b781 263d e00a aa3d
000003b0: 5465 b3ba acfc c4bc 1568 9abc 7eef 19bd
000003c0: cd0f e83d fea6 afbc d5a9 c03d 2bfd 0d3e
000003d0: f0bb 873a c282 e53d 17cf cb3d 5282 86bc
000003e0: b4e3 bdbc 5873 ecbd 82c1 4a3d 5b57 e03d
000003f0: 6fb7 0c3e 4d04 dbbd cc77 1d3e 2ea8 183d

weight_hh_l0 f4 [192, 64]
0.055852123 -0.086576045 0.09602161 0.086591184 0.033615388 0.069260016 -0.047116164 0.047874406
0.08071048 0.02097745 0.0681717 0.07651628 -0.09547994 -0.015061521 -0.089329824 -0.10982002
-0.01009372 -0.0720827 -0.14024545 0.056200102 0.007677715 0.07079104 -0.10163922 0.007969
0.073382474 0.029173873 -0.086625 0.048631456 -0.024262417 -0.08000992 0.055140596 -0.12814479
-0.1172085 -0.03853468 0.085963845 -0.08700494 0.05660076 0.13177755 0.08776889 0.07101921
-0.05625481 0.05305733 -0.10190319 0.032067407 -0.058072224 -0.024205625 -0.12205372 0.016168816
0.018406548 0.12346776 0.121268116 0.072240025 0.03201726 0.030841818 0.02417678 -0.02175531
0.078628935 0.11344549 -0.083440304 -0.07996665 -0.025329554 0.08446089 -0.04833154 -0.093462564
0.16253309 0.034138896 0.029872982 -0.096464604 -0.0629079 -0.031024735 -0.06467492 0.0847741
0.032915812 -0.05481384 0.038719714 -0.06628548 -0.09405795 0.08556431 -0.088609904 -0.058496993
0.03862997 0.08845114 0.06221246 -0.091846064 0.050286382 -0.06132718 0.09274993 0.114497
-0.020508958 0.04743383 0.07909898 -0.017132763 0.08472632 0.044321034 -0.058705874 0.051563427
0.089799844 0.051717438 0.09052913 -0.028828323 0.09877183 0.106487915 0.073944 -0.12905596
0.007046447 -0.07514864 0.15351526 0.011952873 -0.034625504 0.17836776 0.09854563 -0.08344013
0.08494152 -0.081920184 -0.081625484 -0.13060786 0.099485785 -0.08622529 0.013883307 0.020932587
-0.11007592 -0.10947953 -0.076538086 0.042657733 0.088318825 -0.12627736 -0.02143073 0.16362111
-0.01391093 0.0038176512 0.052894313 0.06735412 -0.05418679 -0.06539392 -0.08992062 0.11340098
0.0058652163 0.109926514 0.089769974 0.060423877 -0.08352537 0.11357947 0.1479731 -0.12511204
-0.11529464 -0.13972399 -0.035583377 -0.054396696 0.0901348 -0.06227776 -0.029704921 -0.06152865
-0.15381588 -0.007701059 -0.028005991 -0.0051939557 0.12789787 0.07823644 0.11459273 -0.123256706
-0.11974434 -0.12039038 -0.040558834 -0.026408862 0.017992942 -0.012369486 -0.05377026 -0.0062165707
-0.02436183 0.10522852 0.019514138 -0.017746294 0.029719453 -0.01660267 -0.07933039 0.12756754
0.09166056 -0.18014759 -0.0044784537 0.08942082 0.08574903 0.01217324 0.065195106 0.032900296
0.025612175 0.040932328 -0.10228246 -0.031698596 -0.06483006 -0.1005037 -0.08893091 -0.046446197
0.100477494 0.031725384 0.02750861 -0.03915249 0.017616162 0.056458637 -0.11267556 0.053612564
-0.073407724 -0.0017384317 0.13834709 0.045735385 0.029089253 -0.029998872 0.13298078 -0.103684
0.06177866 0.08717222 -0.110842146 -0.11879485 -0.11237024 0.032620303 -0.07340477 0.020363504
0.07571222 0.10120914 0.004817017 0.09551783 0.017152192 0.102181114 0.055966936 0.06763878
0.10105211 0.019478567 -0.09439466 0.033768572 0.0041745757 0.09086626 -0.14410739 -0.096332006
-0.1364008 0.054618992 -0.06682055 0.010350538 -0.0133038815 -0.109129675 -0.12241762 0.06087013
0.100286886 0.005917913 -0.048167996 0.07463155 0.0022478914 0.10976507 0.072682366 0.025215492
-0.0044783596 -0.03697352 -0.08869413 0.013039438 -0.044885986 -0.13736337 0.07310206 0.022435728
00000000: 32c5 643d c84e b1bd faa6 c43d b856 b13d
00000010: 4ab0 093d 32d8 8d3d e1fc 40bd f417 443d
00000020: 894b a53d e7d8 ab3c 9b9d 8b3d 91b4 9c3d
00000030: fd8a c3bd 99c4 76bc 8ef2 b6bd 52e9 e0bd
00000040: 2160 25bc 18a0 93bd 819c 0fbe 1432 663d
00000050: 5795 fb3b e5fa 903d 3928 d0bd 6990 023c
00000060: 8d49 963d 0cfe ee3c 7368 b1bd c731 473d
00000070: fac1 c6bc 3edc a3bd 1bdb 613d 6338 03be
00000080: 030b f0bd 8ad6 1dbd d00d b03d a52f b2bd
00000090: 33d6 673d b2f0 063e 2dc0 b33d 8572 913d
000000a0: 726b 66bd a552 593d 9fb2 d0bd 1d59 033d
000000b0: 24dd 6dbd e04a c6bc 4df7 f9bd 7774 843c
000000c0: 54c9 963c aadc fc3d 6b5b f83d 94f2 933d
000000d0: 8824 033d fba7 fc3c 620e c63c 3138 b2bc
000000e0: 3508 a13d 1c56 e83d c0e2 aabd 8ec5 a3bd
000000f0: ed7f cfbc d5f9 ac3d 4bf7 45bd 4d69 bfbd
00000100: 136f 263e 3ad5 0b3d 2fb8 f43c 3c8f c5bd
00000110: dbd5 80bd 9627 febc 4974 84bd 0b9e ad3d
00000120: bbd2 063d 7a84 60bd 9098 1e3d afc0 87bd
00000130: 74a1 c0bd 573c af3d 1c79 b5bd 8b9a 6fbd
00000140: 763a 1e3d df25 b53d 7ed2 7e3d ca19 bcbd
00000150: 18f9 4d3d 3632 7bbd adf3 bd3d 677d ea3d
00000160: 6702 a8bc fa49 423d a5fe a13d 025a 8cbc
00000170: fe84 ad3d f989 353d 9275 70bd 2c34 533d
00000180: fbe8 b73d aad5 533d 5667 b93d 6029 ecbc
00000190: e348 ca3d 5616 da3d f46f 973d 3f27 04be
000001a0: e2e5 e63b 88e7 99bd 1b33 1d3e fcd5 433c
000001b0: 79d3 0dbd 0aa6 363e 4bd2 c93d a9e2 aabd
000001c0: d2f5 ad3d c5c5 a7bd 432b a7bd 11be 05be
000001d0: 34bf cb3d e396 b0bd cf76 633c d17a ab3c
000001e0: 7c6f e1bd ce36 e0bd 00c0 9cbd e0b9 2e3d
000001f0: 80e0 b43d da4e 01be 808f afbc 4b8c 273e
00000200: abea 63bc 8f31 7a3b b5a7 583d f5f0 893d
00000210: f8f2 5dbd 3fed 85bd 4d28 b8bd c63e e83d
00000220: 0031 c03b 2721 e13d 52d9 b73d 077f 773d
00000230: 590f abbd 5a9c e83d 4386 173e 5f1d 00be
00000240: 991f ecbd ce13 0fbe e0bf 11bd 12cf 5ebd
00000250: 9898 b83d f716 7fbd bc57 f3bc 7705 7cbd
00000260: e981 1dbe 2a59 fcbb d26c e5bc 0f32 aabb
00000270: a9f7 023e 6d3a a03d 98af ea3d 036e fcbd
00000280: 853c f5bd 3b8f f6bd 0521 26bd 6657 d8bc
00000290: ef65 933c 62a9 4abc 343e 5cbd 60b4 cbbb
000002a0: 7692 c7bc 0d82 d73d 1ddc 9f3c ad60 91bc
000002b0: 3676 f33c 5302 88bc f977 a2bd 11a1 023e
000002c0: 88b8 bb3d 9c78 38be febf 92bb 4322 b73d
000002d0: 309d af3d 4572 473c 0385 853d 76c2 063d
000002e0: a0d0 d13c a8a8 273d 7779 d1bd 63d6 01bd
000002f0: 9fc5 84bd e2d4 cdbd 6921 b6bd 5e3e 3ebd
00000300: 25c7 cd3d 7af2 013d bd59 e13c 5d5e 20bd
00000310: c54f 903c 2c41 673d 72c2 e6bd d998 5b3d
00000320: ca56 96bd 17dc e3ba dcaa 0d3e 0755 3b3d
00000330: 964c ee3c 32c0 f5bc 1d2c 083e 4758 d4bd
00000340: 9f0b 7d3d 5987 b23d 3501 e3bd b74a f3bd
00000350: 5e22 e6bd de9c 053d 3d55 96bd 5dd1 a63c
00000360: 020f 9b3d bd46 cf3d 11d8 9d3b da9e c33d
00000370: c182 8c3c 5544 d13d 963d 653d 3386 8a3d
00000380: 69f4 ce3d 8491 9f3c fd51 c1bd ea50 0a3d
00000390: e1ca 883b 1718 ba3d e390 13be b749 c5bd
000003a0: a7ac 0bbe 2ab8 5f3d 36d9 88bd 4e95 293c
000003b0: 86f8 59bc 617f dfbd 17b6 fabd f552 793d
000003c0: 3663 cd3d 0deb c13b ce4b 45bd 6dd8 983d
000003d0: 5c51 133b 82cc e03d 7eda 943d b890 ce3c
000003e0: 34bf 92bb 8c71 17bd 45a5 b5bd 5ea3 553c
000003f0: 5eda 37bd fca8 0cbe 88b6 953d 22cb b73c

bias_ih_l0 f4 [192]
-0.10416173 0.010314017 -0.0040753884 0.037226427 0.014870421 -0.12542047 -0.075491466 -0.00048380278
0.03398491 -0.0639853 0.061446887 -0.044288583 0.012286956 0.1786074 -0.060900312 -0.019461347
0.049487837 0.08543234 0.021665595 0.005768122 -0.03033543 0.012277585 0.1554881 0.01929359
0.032668427 0.12319106 -0.077214435 -0.091311865 0.00013483518 0.00284132 -0.005774043 -0.11995867
0.08973702 -0.028920887 -0.049952365 0.081367105 -0.057888124 0.043130495 -0.09241358 0.053513817
0.019359829 -0.08316568 0.13287435 0.10642411 -0.095063575 -0.04419775 -0.090878494 0.026019435
-0.10596487 0.05450932 0.063336 0.0665535 0.09457259 0.11350865 -0.07012381 -0.019394098
-0.00317913 -0.027508875 0.055286545 0.073350556 0.107780226 -0.030713005 0.05670679 0.012609094
0.0678057 0.016160809 0.059167396 -0.0072364025 -0.023753537 -0.051281434 0.009778366 -0.0526668
-0.019010037 0.07165892 -0.1603865 0.012741964 0.015691496 -0.040181696 -0.11646533 -0.11471608
-0.112039775 -0.07632913 -0.013045564 0.0073677124 -0.056300867 0.038412407 -0.11804816 -0.0017973444
0.10884447 -0.07627386 0.07367761 0.040592197 0.08073995 -0.1362087 -0.00024122727 0.018400142
0.06345364 -0.09143493 0.024181241 0.06837131 -0.13705748 0.03704886 -0.16347678 0.046603054
-0.051085144 -0.08553687 0.011799573 -0.05574172 -0.15558022 0.07074191 0.023772258 -0.03871829
-0.12191348 -0.07550146 -0.13612115 -0.13267499 -0.016281137 0.0292641 -0.15683791 0.0064005926
-0.05682517 -0.0132402815 -0.017563727 -0.1345924 0.0047693932 -0.002515899 0.006119393 -0.016874932
-0.09517455 -0.09825045 0.08449603 0.0032231363 -0.009983893 -0.114528224 0.124654755 -0.08447722
-0.042195138 0.118302405 -0.13068067 0.050697967 0.08850482 0.06842792 0.012191915 0.021739002
0.075478904 0.018401364 0.10697049 0.122032925 0.037708808 -0.12443456 0.14338902 0.1466816
0.111922406 0.036835093 -0.031000808 -0.106572 0.018212056 -0.10607594 0.014815358 0.05553734
-0.061252035 0.018680189 0.096068524 -0.06370755 -0.049420748 -0.02593504 0.043168016 -0.08781656
-0.049828645 0.08975944 -0.050908383 0.03036619 0.10183802 0.045354433 0.036512423 -0.05250101
0.06814269 0.12107758 -0.12946086 0.08096851 -0.007872163 0.005329046 0.012706806 0.12916242
-0.0473363 -0.0070445193 0.020186454 0.016782252 0.0015176069 0.1252087 -0.13146453 -0.061918043
00000000: bf52 d5bd 1ffc 283c d68a 85bb bd7a 183d
00000010: 11a3 733c 396e 00be 459b 9abd e9a6 fdb9
00000020: c333 0b3d ba0a 83bd bbaf 7b3d f267 35bd
00000030: 3b4f 493c dce4 363e 9b72 79bd 676d 9fbc
00000040: c2b3 4a3d 27f7 ae3d 0c7c b13c 8402 bd3b
00000050: 0282 f8bc ed27 493c 4638 1f3e 970d 9e3c
00000060: 54cf 053d 984b fc3d 9a22 9ebd b701 bbbd
00000070: 8b62 0d39 7035 3a3b 2f34 bdbb e4ac f5bd
00000080: 0bc8 b73d 7feb ecbc da9a 4cbd cca3 a63d
00000090: 191c 6dbd 9aa9 303d 5543 bdbd 4e31 5b3d
000000a0: 8198 9e3c c552 aabd 3710 083e e2f4 d93d
000000b0: b1b0 c2bd b308 35bd 811e babd b626 d53c
000000c0: 1c04 d9bd 2a45 5f3d 4eb6 813d 344d 883d
000000d0: 46af c13d 3977 e83d 129d 8fbd 5fe0 9ebc
000000e0: f358 50bb 4b5a e1bc 2574 623d d138 963d
000000f0: e1bb dc3d d799 fbbc 6145 683d 6096 4e3c
00000100: b7dd 8a3d ac63 843c 8359 723d 581f edbb
00000110: c796 c2bc 7b0c 52bd 7135 203c 24b9 57bd
00000120: f0ba 9bbc e9c1 923d 5c3c 24be acc3 503c
00000130: 748b 803c 9095 24bd 6085 eebd 44f0 eabd
00000140: 1c75 e5bd 7252 9cbd 10bd 55bc da6c f13b
00000150: bd9b 66bd 5456 1d3d 3cc3 f1bd df94 ebba
00000160: d9e9 de3d 7835 9cbd 49e4 963d 0144 263d
00000170: fd5a a53d 4b7a 0bbe f4f1 7cb9 e5bb 963c
00000180: fbf3 813d 3d42 bbbd bd17 c63c 4206 8c3d
00000190: cc58 0cbe 8cc0 173d 7566 27be d8e2 3e3d
000001a0: a83e 51bd f42d afbd ff52 413c 6e51 64bd
000001b0: 6c50 1fbe 22e1 903d 0abe c23c 1297 1ebd
000001c0: c6ad f9bd 82a0 9abd 5863 0bbe f4db 07be
000001d0: 0560 85bc 44bb ef3c 1e9a 20be 10bc d13b
000001e0: 82c1 68bd c4ed 58bc cee1 8fbc 97d2 09be
000001f0: 9248 9c3b c8e1 24bb 3085 c83b 4c3d 8abc
00000200: e0ea c2bd 8837 c9bd 410c ad3d 413b 533b
00000210: 7b93 23bc c68d eabd fe4a ff3d 6502 adbd
00000220: cfd4 2cbd 8848 f23d 27d1 05be aca8 4f3d
00000230: 0442 b53d f023 8c3d 99c0 473c fe15 b23c
00000240: af94 9a3d 75be 963c 5813 db3d 66ec f93d
00000250: 8d74 1a3d 8cd7 febd 92d4 123e b433 163e
00000260: 9337 e53d 65e0 163d 68f5 fdbc 6c42 dabd
00000270: 7331 953c 583e d9bd 1ebc 723c 1f7b 633d
00000280: 6ae3 7abd 3207 993c 93bf c43d 1b79 82bd
00000290: 696d 4abd b975 d4bc f2d0 303d 2bd9 b3bd
000002a0: 1f19 4cbd ccd3 b73d 4f85 50bd 84c2 f83c
000002b0: 7490 d03d 92c5 393d 0d8e 153d 4d0b 57bd
000002c0: 658e 8b3d 86f7 f73d 6391 04be d1d2 a53d
000002d0: 3ffa 00bc 479f ae3b 3530 503c 2743 043e
000002e0: b5e3 41bd b6d5 e6bb 105e a53c ef7a 893c
000002f0: 70ea c63a b636 003e a39e 06be c69d 7dbd

bias_hh_l0 f4 [192]
0.0075446162 0.079877995 -0.07306587 -0.09593483 0.07025477 -0.001601297 -0.00672035 -0.07326462
0.004696952 0.019707624 -0.06255647 0.02301055 0.10244653 0.11326074 0.13518211 0.08551531
-0.13725941 -0.058207966 0.09704047 -0.0638664 0.040788002 0.13866767 -0.012719567 -0.0815986
-0.12563308 0.05059013 0.090180896 -0.055535186 -0.012445968 0.09323589 -0.105068885 0.049340554
0.0032078617 0.034809183 0.11446788 -0.007735437 0.11925344 0.13080078 0.13160929 0.009188763
-0.085932694 -0.013469278 0.14099574 -0.10717969 0.093622215 -0.102457814 -0.006970537 0.06441601
-0.02157683 0.11204235 -0.04666746 0.15136462 -0.017046286 -0.10423819 0.053690135 0.11793703
0.034323703 0.06647979 0.037397597 3.0514324e-05 0.02130293 -0.052760318 0.013589571 -0.08444381
0.05137604 -0.085330464 -0.05531644 -0.09844255 -0.055522412 -0.0326739 0.03337722 0.028273035
-0.10168167 -0.048978716 -0.16546582 -0.047277853 0.057684015 -0.1099229 0.06946422 0.035806686
-0.002640512 -0.096626654 0.06908079 -0.09943213 -0.008399265 -0.1330801 -0.02973713 0.002847837
-0.029190702 0.056953344 0.04867598 -0.02094029 0.054545347 -0.022017483 0.025646245 -0.074870475
0.025720656 -0.12374076 -0.06636844 0.074972525 0.016755912 0.009005534 0.031456262 0.029946467
0.028314047 0.044647373 -0.06493914 -0.13137744 0.06510152 0.13347988 -0.032438364 0.062076822
-0.021031197 -0.047457986 -0.07803997 -0.021049479 0.12926148 0.012920704 -0.043199915 -0.06574916
-0.10721618 -0.16857567 0.026531018 0.041379966 -0.0072516603 -0.1286508 -0.09715889 0.08439024
0.0881539 -0.084789075 -0.04334259 -0.013532619 -0.12782945 0.06996234 -0.09244913 -0.05692342
-0.008903451 0.07190834 0.09336457 0.00204407 -0.11600828 0.05096773 -0.15195063 0.033741295
0.06621143 0.03399032 0.15200026 0.15059708 -0.06296528 -0.13444415 0.052165773 -0.08405062
-0.004144379 0.120293275 -0.083705105 -0.07902574 0.14729622 -0.14843722 0.06519537 -0.07713109
-0.02035724 -0.07471771 0.05755674 0.094129615 -0.021191169 0.0008190756 0.12794998 0.016873995
0.021496298 0.07653453 0.023236962 0.032116566 0.13727869 -0.05710014 0.02878681 -0.057047583
0.1499958 -0.0039737904 0.058427453 -0.003868306 0.111574255 -0.109515615 0.12918368 -0.026954098
0.04156125 -0.0056865686 -0.060190983 -0.09585841 0.092943035 -0.083057605 -0.016113268 -0.06544101
00000000: d438 f73b 1397 a33d 8fa3 95bd 7b79 c4bd
00000010: bce1 8f3d 9ce2 d1ba 6236 dcbb c30b 96bd
00000020: e4e8 993b e271 a13c 9b1d 80bd 9f80 bc3c
00000030: 7ccf d13d 3ff5 e73d 2e6d 0a3e a722 af3d
00000040: bb8d 0cbe 7a6b 6ebd 27bd c63d 63cc 82bd
00000050: 5211 273d e6fe 0d3e bb65 50bc 2b1d a7bd
00000060: f5a5 00be 9937 4f3d c3b0 b83d dd78 63bd
00000070: 2cea 4bbc 75f2 be3d 5b2e d7bd 5219 4a3d
00000080: fd3a 523b 1394 0e3d 236e ea3d 8c79 fdbb
00000090: 263b f43d a4f0 053e 96c4 063e 778c 163c
000000a0: 7bfd afbd 3fae 5cbc 3061 103e 0681 dbbd
000000b0: 01bd bf3d 67d5 d1bd 1a69 e4bb 8bec 833d
000000c0: e4c1 b0bc 7676 e53d 6126 3fbd 54ff 1a3e
000000d0: a7a4 8bbc d57a d5bd 30ea 5b3d f888 f13d
000000e0: 0397 0c3d 8e26 883d 392e 193d 03f9 ff37
000000f0: 7b83 ae3c 341b 58bd cba6 5e3c e0f0 acbd
00000100: af6f 523d bdc1 aebd 7e93 62bd 3f9c c9bd
00000110: 786b 63bd 11d5 05bd 8db6 083d da9c e73c
00000120: 7b3e d0bd e89d 48bd df6f 29be 6ca6 41bd
00000130: 1346 6c3d 421f e1bd 4243 8e3d 08aa 123d
00000140: 710c 2dbb 32e4 c5bd 3b7a 8d3d 13a3 cbbd
00000150: 129d 09bc 2646 08be 489b f3bc c7a2 3a3b
00000160: 5721 efbc e947 693d 7760 473d f98a abbc
00000170: f16a 5f3d 025e b4bc 1318 d23c b155 99bd
00000180: 20b4 d23c cc6b fdbd 2dec 87bd 328b 993d
00000190: b243 893c f38b 133c 48d8 003d 4b52 f53c
000001a0: dcf2 e73c 2ae0 363d d0fe 84bd cf87 06be
000001b0: f253 853d f3ae 083e 17de 04bd 4444 7e3d
000001c0: 9e49 acbc 4e63 42bd 6bd3 9fbd f56f acbc
000001d0: 1f5d 043e 5cb1 533c 65f2 30bd 7fa7 86bd
000001e0: 2894 dbbd 1a9f 2cbe 9457 d93c 0a7e 293d
000001f0: 569f edbb 09bd 03be 3dfb c6bd cad4 ac3d
00000200: 088a b43d e5a5 adbd 0088 31bd ebb7 5dbc
00000210: b9e5 02be 6a48 8f3d f855 bdbd 8828 69bd
00000220: c8df 11bc ae44 933d ec35 bf3d cef5 053b
00000230: c095 edbd 8ac3 503d f298 1bbe 5034 0a3d
00000240: dc99 873d 6f39 0b3d f5a5 1b3e 1f36 1a3e
00000250: f1f3 80bd baab 09be c7ab 553d bb22 acbd
00000260: 92cd 87bb 525c f63d 956d abbd 3fd8 a1bd
00000270: d2d4 163e edff 17be 2685 853d e8f6 9dbd
00000280: 3ac4 a6bc 9905 99bd 9ec0 6b3d 07c7 c03d
00000290: 1a99 adbc 3cb7 563a 5205 033e 553b 8a3c
000002a0: 0119 b03c 23be 9c3d 715b be3c a98c 033d
000002b0: c992 0c3e d6e1 69bd 51d2 eb3c baaa 69bd
000002c0: 8098 193e 9236 82bb a051 6f3d 6883 7dbb
000002d0: 0b81 e43d b949 e0bd ba48 043e d7ce dcbc
000002e0: 213c 2a3d 6556 babb d28a 76bd 6a51 c4bd
000002f0: eb58 be3d 1b1a aabd f9ff 83bc f005 86bd

weight f4 [1, 64]
0.0813567 0.06697447 0.11760096 0.12527244 -0.08593067 -0.0012808546 -0.0011004357 0.049601022
0.12980135 0.045617077 -0.07609766 -0.08922653 -0.078107096 0.030844899 -0.1191664 0.03775433
-0.09685418 0.09140794 0.11414442 0.09111202 0.043951727 -0.09436222 0.09552673 0.117245875
0.0882486 0.10684632 0.07343028 -0.1090022 0.08283168 -0.10569172 0.13085304 -0.012562835
0.13643737 -0.09654345 0.08815457 -0.061554175 0.11648426 -0.09804414 0.13106243 -0.012495441
-0.096531846 -0.07538073 0.01054436 0.06656224 0.0278875 0.014555481 0.03552307 -0.07849367
0.045567896 0.056377113 -0.13158345 -0.09693558 0.009269251 -0.015906267 0.12469286 0.02588642
-0.039474703 -0.09340402 0.021893622 -0.07899717 0.07785428 0.073901415 -0.013643051 0.008226453
00000000: 579e a63d e929 893d c6d8 f03d 6b47 003e
00000010: 6bfc afbd 59e2 a7ba 7f3c 90ba 712a 4b3d
00000020: a5ea 043e f9d8 3a3d 17d9 9bbd 66bc b6bd
00000030: 9df6 9fbd 71ae fc3c 830d f4bd 49a4 1a3d
00000040: 7c5b c6bd 1634 bb3d 8dc4 e93d f098 ba3d
00000050: ba06 343d fb40 c1bd 85a3 c33d 9b1e f03d
00000060: afbb b43d 3ed2 da3d 9d62 963d 8c3c dfbd
00000070: a8a3 a93d e774 d8bd 57fe 053e 59d4 4dbc
00000080: 3db6 0b3e 93b8 c5bd 628a b43d 3b20 7cbd
00000090: 4d8f ee3d 5ecb c8bd 3b35 063e aeb9 4cbc
000000a0: 7db2 c5bd 3661 9abd 40c2 2c3c c951 883d
000000b0: 5474 e43c 1d7a 6e3c a380 113d 4ac1 a0bd
000000c0: 67a5 3a3d b0eb 663d d0bd 06be 2986 c6bd
000000d0: 0ede 173c dc4d 82bc f85e ff3d c20f d43c
000000e0: 3ab0 21bd 9b4a bfbd 415a b33c 45c9 a1bd
000000f0: 1172 9f3d a059 973d 1a87 5fbc 3fc8 063c
