models/lstm_encoder/checkpoint/trained_irdpg_60.pth (torch, 409346 bytes, 22 tensors)

weight_ih_l0 f4 [192, 64]
00000000: cfc6 883d 2497 3dbd fc04 d33d 305e 293d
00000010: 0ec4 163d ffe6 dc3d f466 a53c d6f3 183d
00000020: d031 8c3d 4ba0 733d 01a4 79bd c127 debd
00000030: 62fd 34bd a79a 0fbc 5c80 ac3d c5ed 72bd
00000040: d8c3 edbd 343a f93d 7191 dabb fd08 e5bd
00000050: 87a6 a0bd c402 0dbd 8e5e a93d aa9d a23d
00000060: 0b92 efbc 4be4 6cbd 44e9 873d 7bed 643d
00000070: d3df 8a3b 765e 2b3d a828 ca3d 6432 5b3d
00000080: aea9 e6bd 5a05 ebbd 0fb5 b93c 2af6 8a3d
00000090: 1078 8d3d e449 45bc 1eb1 e9bd 0964 e33d
000000a0: fd63 713c 6ea4 f53c 8def afbd c527 bf3d
000000b0: 81a2 18bc d151 c23c 8bf8 cabd 7f7d f83d
000000c0: aceb ccbd d384 9abd befd afbd 4f97 4e3c
000000d0: 4b2b d93d c6bc 4ebd ac9f e73d 94b0 353d
000000e0: 799e 203d 5f33 b43d 3103 8fbd 6e89 e5bd
000000f0: 3206 7f3b a149 733d e505 af3d 2ed2 4cbd
00000100: 3156 5a3c 4a92 3ebc d738 db3b 4311 fc3d
00000110: fa38 b5bd 0627 143d f176 61bc 674f 71bd
00000120: cfa2 613c b0dc a53c f3a7 95bc 3dbf 0dbd
00000130: 3d7c 3fbd 8c54 8fbd e11b 72bd 06ff 833c
00000140: 83bd 28bd 36ba 4b3c 1c64 dfbd 3d76 21bc
00000150: 7cae 2dbd 4e78 e8bd 9fcf d03d 8835 31bd
00000160: 88e2 9f3c f28c 903d 3036 da3d 54f4 d63d
00000170: 6818 b33b 4ff0 11bd 6730 c9bd 19f6 f9bb
00000180: 7e5d d13d df41 d03b 036a 273d b5ad aabd
00000190: 071e f83d 33a5 ed3d 7d7a 033d dd8e 33bb
000001a0: bc5f e9bd 4b9c b63d ed15 783c 69b1 60bd
000001b0: ff38 0fbd 3434 ccbc 188d b8bc 3333 e2bd
000001c0: c56f b1bd b8fc fbbc b766 6f3b 8ba7 f9bc
000001d0: 1a0a 683d 85ec 84bd 3c55 8c3d 37ad cbbb
000001e0: 93c1 fabd bed1 9c3c 1a12 2bbd 75c0 a2bd
000001f0: ff65 483d c5ee 56bd 1ef0 063d cb2b 823c
00000200: 2042 973c fb26 183d f472 f8bc 7aff 9e3d
00000210: dfed a53d 7554 6ebd 643a 26bd f02a 863d
00000220: d091 fa3d 7331 a33d 9ecd 1bbd 5591 823b
00000230: 76b9 cbbd 10e2 3cbd 7e73 7e3b 53dd 823d
00000240: f575 d73d 08d5 2ebd 50c7 b83c 96f8 a63d
00000250: efde 67bd f859 273d 16b2 0d3d 03eb 783b
00000260: 7878 da3d bf22 cebd 9319 343d 6ef4 c0bd
00000270: 801b dd3d 5128 02bd e3ef 04bd c6e5 34b9
00000280: 401c 8d3c 64c6 94bd a845 c5bd 31ea 833c
00000290: aadb b2bd d1c4 06bc c304 e03d a983 033d
000002a0: 7289 bdbc 6149 fa3d 9687 be3d 3a5f 2abd
000002b0: 77ff 0a3d 530b bd3c cd8a 98bd c3db 603d
000002c0: ce4f afbd 00b0 97bd bca4 7e3d 310d cabd
000002d0: 09b0 ff3d 598a 423d b84c cc3b 3cc9 a83a
000002e0: 7667 4c3d 7904 db3c 8691 c9bc b4d0 fc3c
000002f0: a3ab e5bd f180 3abd 4bb4 7d3d 5868 f63c
00000300: 11d8 263d f702 0b3d 7640 dbbc 5f10 bbbd
00000310: 6f48 63bd f728 80bd bf39 de3d f558 efbd
00000320: d99d 2abd c56c b23d f1ed a03d dcad 24bd
00000330: b278 a6bd 8ddf 6abd b8e7 15bd cced 9e3d
00000340: 5361 fa3d 9254 c8bc 28d7 123d 4dc6 9cbd
00000350: 6525 dcbd 9939 cdbd 49bb a43c ec02 55bc
00000360: 75ef d6bd 9a10 fbbc 51ce 8dbd f951 f53d
00000370: b1c6 ecbd ab34 29bd 759c c63d 7643 e23c
00000380: 1c21 7dbd c756 803d f706 f2bc 4fa3 bb3d
00000390: 795a dd3d b6dd 9e3d c3a5 013e bd5c d03c
000003a0: 5cca 6f3c 4240 e5bd b658 9fbd d7e8 fa3c
000003b0: 79e9 2b3d 862c 7f3d f71a 103d d1a2 cb3d
000003c0: 96f6 c43d 3fe9 87bd 2046 1bba 7ca8 efbd
000003d0: fcc7 563d c219 69bb 64c7 f53d f955 d23c
000003e0: 29a6 4b3d 5e66 993d a42b f13d 778b 0d3d
000003f0: 3307 cdbd f131 663b cc69 3dbd f7d1 b83d
0.06678545 -0.046286717 0.10303685 0.04134959 0.036808066 0.107862465 0.020190693 0.037341915
0.068454385 0.05947904 -0.060947422 -0.10847426 -0.044186957 -0.008764899 0.0842292 -0.059308786
-0.1160962 0.121693045 -0.00667017 -0.11183355 -0.078442626 -0.034426466 0.08269988 0.07940228
-0.029244443 -0.057834905 0.06636289 0.05589054 0.0042381077 0.04183813 0.09871036 0.053514853
-0.112628326 -0.1147563 0.022669343 0.06785233 0.06907666 -0.012041543 -0.114107355 0.111030646
0.014733312 0.029985633 -0.085906126 0.09333757 -0.009316088 0.023720654 -0.09910687 0.121333115
-0.10005888 -0.075448655 -0.08593319 0.012609317 0.106039606 -0.050472997 0.11309752 0.04435785
0.03921363 0.08798861 -0.069830306 -0.11207853 0.0038913605 0.05939639 0.08546046 -0.05000513
0.013326214 -0.011631558 0.0066901254 0.1230798 -0.08848758 0.03617003 -0.013761268 -0.058913615
0.013771727 0.020246834 -0.018268561 -0.034606207 -0.046749342 -0.06998548 -0.05910862 0.016112816
-0.041196357 0.012434533 -0.10907766 -0.00985485 -0.04240273 -0.11351071 0.101958506 -0.043263942
0.019517198 0.07058133 0.10654867 0.10495821 0.005465556 -0.035629567 -0.09823685 -0.007628214
0.1022291 0.0063555087 0.040872585 -0.08333913 0.12115102 0.11603775 0.032099236 -0.0027398386
-0.11395213 0.08916529 0.015141946 -0.05485669 -0.034966465 -0.024927236 -0.022528216 -0.11044922
-0.086638965 -0.030760154 0.0036529729 -0.030475399 0.05665026 -0.06490425 0.06852195 -0.006215717
-0.122439526 0.019142982 -0.04176531 -0.079468645 0.048925396 -0.052473802 0.032943837 0.015890023
0.018464148 0.03714655 -0.030328251 0.07763572 0.08102011 -0.058186013 -0.04058303 0.065511584
0.12234843 0.07968416 -0.03803789 0.00398461 -0.09947483 -0.046114028 0.0038826163 0.063898705
0.105205454 -0.04268363 0.022555977 0.08152883 -0.05660909 0.040857285 0.034593664 0.0037981875
0.10667509 -0.10065221 0.043969702 -0.09421621 0.10796261 -0.03177673 -0.032455336 -0.00017251735
0.017225385 -0.072644025 -0.096324265 0.016102882 -0.08733304 -0.008225636 0.10938408 0.032107983
-0.023136828 0.12221027 0.09303205 -0.04159472 0.033935037 0.023076689 -0.07448349 0.05489708
-0.085601434 -0.07406616 0.06216882 -0.09865797 0.12484748 0.04749522 0.0062347315 0.0012877355
0.049903356 0.026735531 -0.024605524 0.030861236 -0.11214378 -0.045533124 0.06193952 0.030079052
0.0407334 0.033938374 -0.026764136 -0.09133982 -0.055489 -0.062578134 0.10850858 -0.11686889
-0.04165444 0.087121524 0.07857884 -0.040204868 -0.081284896 -0.0573421 -0.036597937 0.077602
0.12225594 -0.024454389 0.03584972 -0.0765501 -0.1074932 -0.100207515 0.020108836 -0.013001185
-0.104948916 -0.030647565 -0.06924117 0.11978526 -0.11561335 -0.041309994 0.096978106 0.027620059
-0.061799154 0.062665515 -0.029544337 0.09162008 0.10808272 0.07757132 0.1266089 0.025434846
0.014635649 -0.11193897 -0.07780592 0.030628605 0.041970704 0.06229832 0.035181966 0.09943164
0.09617345 -0.06636285 -0.000592323 -0.11702058 0.052436814 -0.0035568331 0.12000921 0.02567576
0.04971901 0.07490228 0.11775902 0.034556832 -0.10011139 0.0035124982 -0.046243474 0.090244226

weight_hh_l0 f4 [192, 64]
00000000: 035a f63d 3c25 663c 6b43 343d 4095 a13d
00000010: d619 8bbd e6b6 8dbd bf9e 953c 39e9 16bd
00000020: ce8d a23d 358a f53d 54e2 73bb ade5 f73d
00000030: 0876 aebc 5e8c 993d b9d6 42bd 76a0 ccbd
00000040: 2ee8 d0bb 9eb1 0cbb 99c1 0d3c fb52 163d
00000050: 91b2 733d bc9e cd3d dfd3 ca3d 0cc1 c0bd
00000060: 7786 5ebc 6736 e8bc 94ec f23d cd4b e4bd
00000070: 1857 2d3c 7f99 4dbd 7299 a2bc 7b76 0fbd
00000080: 87ea 99bd 4b86 8bbd 04b2 b5bd 49dc d43d
00000090: 8190 d93c 5457 d63d fa0c 01be 7a9a c13d
000000a0: 2905 55bd ce6b 8b3d b459 41bd 44ac 3c3d
000000b0: d7da b43c fba6 c9bc b9de 403d 94d6 c63d
000000c0: 88e0 183d 4fe6 1cbd e177 81bd cfba 933d
000000d0: d900 6bbd 5421 7b3d f334 a1bd f558 633d
000000e0: 2f1d edbc 4393 ee3c 2cdf cbbd 020a ed3d
000000f0: 32de 74bd 8b58 283d 5309 30bd 9677 c3bd
00000100: 7806 923d 6560 7bbd 28fa 653d 386a 903c
00000110: 05d3 993d a82c c7bb 87e3 a43d a53b 08bd
00000120: 4db9 c93d 5da3 883d a37d 46bd e702 f4bd
00000130: e40a bf3d 2b67 bdbd f6a4 acbd d832 aabd
00000140: 7db7 3a3d db36 1fbc 096b 3d3d 44f9 c4bd
00000150: abd9 153c c03f c83d 0ad0 c53d 4e5f 0e3c
00000160: 2569 043d 2998 5ebd ad6a d53d dc6c 1abd
00000170: e3cc 033d 8a58 b6bd ede4 a83d f5b1 d13d
00000180: 370a ccbd f622 4c3b aee4 383d 2b9f e73d
00000190: 5fcd 14bd 78c3 c83d d020 f0bd 76a7 c2b9
000001a0: 8c02 cc3d 2869 f8bb 857b 3f3d 6ce1 66bd
000001b0: 2c03 893d d54d e43d c755 613d 7069 973d
000001c0: 21e8 5abc 7cd7 f83d 85d6 dd3d 904e c7bc
000001d0: 248e bdbd 0d70 1e3d a88d ee3d 1e94 3a3c
000001e0: 22e3 9cbd 56f3 f73c bf21 163d c504 603d
000001f0: 83c8 94bb 58b9 d43d d1d4 99bd 6fa1 cb3d
00000200: d3b3 9dbd a7fd adbc bbf0 5cbd 5cf3 ecbb
00000210: bb4b f4bc 8455 debd 7880 d6bd 75a1 803d
00000220: 175e 5e3d f823 ddbd 5e04 cd3d 2434 6e3c
00000230: c58c 943d 3626 fb3d 2fe5 443d f412 cebd
00000240: 805d 41bd f9d4 983d 4356 9ebd 503b e83d
00000250: c8ce b13d cd74 cbbd 2267 023d aaf4 d2bc
00000260: 0da8 b1bd b066 ed3c 0dd3 a03d bb60 823b
00000270: 3973 d53d f28a 083d 0398 983d 8eb4 363d
00000280: 583c 133c 6b75 e8bb 53de 403b 789e b23d
00000290: c463 ac3d 31a7 623d a193 e03d b3e5 503d
000002a0: 3241 a73d b1f7 7bbd 6462 153d 709f 32bd
000002b0: da3f 47bd 80a2 4dbd 4cfc 4a3d e496 edbd
000002c0: a178 493d 15bf f23b 4013 6eb8 54d3 88bc
000002d0: fc4e 86bd 50d9 dfbd 4e2a a0bd b6f5 f33d
000002e0: d7ee c13d e9b1 f73d 4741 ccbd 3b9e 47bd
000002f0: c293 c5bd b861 10bd 8c23 95bd cf0d ba3c
00000300: cd85 843d 51ab 813d b88c 54bc 9abb 3dbd
00000310: 7fff ebbd 5850 84bd 6714 dc3d 8c72 8abd
00000320: 29f5 c83d 1afd 13bd 1e70 323d 327c f8bd
00000330: 3133 9abd 11e0 15bd 6bdb 9a3d eab8 18bd
00000340: 479d c33d 0079 473d 7b76 e53d 7263 e7bd
00000350: f2d2 753d 2bef db3c 2f91 353d f471 ddbd
00000360: 5898 e13d ac3d b63c 5a01 463d 9317 003d
00000370: ae10 7a3d f6e4 c2bd 86ef 83bd 08f3 0fbd
00000380: d1e7 e43d 264b 60bd 2c41 eebd f691 f03d
00000390: 903b 95bb 7b2b d1bd c4c7 67b9 84ea cc3d
000003a0: dc01 debd 6099 71bd a3c7 913d f1b7 203d
000003b0: 0cfd 10bd 68af 3c3d 830a 60bd 0367 003e
000003c0: 71b0 10bd f5f7 c83d 25c3 f83d 9877 9d3d
000003d0: 3052 84bd 5192 fd3d e465 ae3d 4674 d6bb
000003e0: 8a84 d7bc cb24 ae3d 8192 a93d ab0b 01be
000003f0: def1 79bd aeb6 cb3d 765d 9dbc 5f01 8c3d
0.12028887 0.014046963 0.044009607 0.07889795 -0.06792037 -0.06919651 0.018264173 -0.036843512
0.07937203 0.119892515 -0.003721376 0.12104354 -0.021296516 0.07497476 -0.047568057 -0.09991543
-0.006375334 -0.0021468173 0.008652114 0.03670023 0.059496466 0.10040042 0.099036925 -0.09411821
-0.013581864 -0.028346254 0.1186153 -0.1114727 0.010579847 -0.050195213 -0.019848559 -0.0350251
-0.07515436 -0.06812724 -0.088718444 0.103935786 0.026558163 0.10465875 -0.12602606 0.09453292
-0.052006874 0.068076715 -0.04720469 0.046062723 0.022077007 -0.024615755 0.047087405 0.09708896
0.037323505 -0.038305577 -0.06321693 0.07213365 -0.057373855 0.06131108 -0.078714274 0.055504758
-0.02894458 0.029122954 -0.09954676 0.115741745 -0.059782214 0.041100066 -0.042977642 -0.095442936
0.0713014 -0.061371226 0.05614677 0.017628774 0.07510952 -0.0060783215 0.0805121 -0.033260006
0.098497964 0.06671784 -0.04845966 -0.11914616 0.09328249 -0.09248193 -0.08429901 -0.08310479
0.045585144 -0.009717668 0.046244655 -0.09617856 0.009146134 0.09777784 0.09658821 0.008689715
0.032326836 -0.05434433 0.104207374 -0.037701473 0.032177817 -0.08903606 0.08246789 0.10239021
-0.09962886 0.0031148768 0.04513996 0.11309656 -0.03632867 0.09802908 -0.117250085 -0.00037127332
0.09961423 -0.007580895 0.046748657 -0.056367323 0.06690058 0.11147658 0.055013444 0.073931575
-0.013361008 0.121504754 0.10831932 -0.024329454 -0.09255627 0.03868108 0.116481125 0.011387853
-0.0766051 0.030267399 0.036653277 0.05469205 -0.0045405044 0.10386914 -0.07511295 0.099429004
-0.077003144 -0.021239115 -0.053940516 -0.007231159 -0.029821267 -0.108561546 -0.10473722 0.062807955
0.05428895 -0.10797876 0.100105986 0.0145387985 0.07253412 0.122631475 0.04807013 -0.10062209
-0.04720831 0.07462496 -0.07731297 0.11339438 0.086820185 -0.09934387 0.031836636 -0.02575143
-0.08674631 0.02897963 0.07852755 0.0039788163 0.104223676 0.033335634 0.07450869 0.044605784
0.008986555 -0.0070940754 0.002942939 0.08721632 0.08417466 0.055335227 0.10965658 0.05100031
0.08166732 -0.061515514 0.036470786 -0.043609083 -0.048644878 -0.0502038 0.049557015 -0.11601046
0.049187306 0.0074080327 -5.676155e-05 -0.016702332 -0.06558034 -0.10930121 -0.07820569 0.119121
0.09469383 0.120944805 -0.09973388 -0.048734885 -0.09647323 -0.03524944 -0.07282171 0.022711663
0.06470833 0.06331504 -0.012973003 -0.04632149 -0.115233414 -0.06460637 0.10746079 -0.06760129
0.098123856 -0.03613005 0.043563955 -0.121330634 -0.07529295 -0.03659064 0.07561382 -0.037285723
0.09551483 0.04869938 0.11204239 -0.112982646 0.060015626 0.026847443 0.04432791 -0.108127505
0.110153854 0.022246204 0.048341133 0.031272482 0.061051063 -0.09516327 -0.0644217 -0.035143882
0.11177028 -0.054759167 -0.11633524 0.1174659 -0.0045542195 -0.10213371 -0.00022104295 0.10005668
-0.108401984 -0.05898416 0.07118156 0.03923792 -0.035397574 0.046065718 -0.054697525 0.12539296
-0.035324518 0.09812919 0.12146596 0.07688826 -0.064609885 0.12381423 0.08515528 -0.0065446226
-0.026308317 0.085031115 0.082798965 -0.12602107 -0.06102168 0.09946953 -0.019209605 0.06836199

bias_ih_l0 f4 [192]
00000000: 5816 553b ea27 893d 8bf1 91bd 0671 943d
00000010: 1fbc 063d cbc6 50bc 6688 bf3d 2cea 2d3d
00000020: 89d8 973d 49fa a73d 6cb5 30bd 43c8 f13d
00000030: 4960 993d 9e8d 11bb 35db 94bd 6037 483d
00000040: 1c7b 703d 66ef 0abc 974d 86bd d8a6 873d
00000050: 227c 003e c35a 923c a198 bdbd a09e 8d3d
00000060: 6865 01be 5bcc c9bd 3bc4 75bd 65e5 4ebc
00000070: b3a5 c23d 517e bc3d 14c7 1e3c fbb0 183c
00000080: 30e5 58bd a95a 9abd bf5a e03d 7478 9dbd
00000090: 343a 043d 7da0 72bd ed44 833d 3f1e 1abd
000000a0: d032 d1bc 5442 ebbd 1140 0b3d 563c 923d
000000b0: 587c ea3d a698 063d 63e3 a23d 55c8 e0bd
000000c0: f9fb c7bd b0fe 943d e1cf 99bd 4672 debd
000000d0: 13b2 bf3b 51b9 ef3c 9b00 37bd ebe8 e3bd
000000e0: fbec a2bd 92b4 1b3d 19e5 d63a 935f 7c3c
000000f0: 05eb 483c 38e3 d03d 7355 cbbc a28b d3bd
00000100: 7a9f 9fbc a044 d9bc 3619 903c e166 c73d
00000110: 2b44 673d 0f50 e73d 2f9d 15bc 136c b83d
00000120: d194 af3c cd3e 74bd c815 94bd 1803 03bc
00000130: 0c4c 32bd 4d48 eebd f9c3 bebd a4e3 eebd
00000140: a10c ec3d 19ed 8fbd 65ab 6cbd 26d5 7fbc
00000150: 45c9 c53d 9dea 94bd db9c 373d f707 ad3d
00000160: ea08 bbbd e050 9a3d cd75 293d 4ce5 2ebb
00000170: f1fc 3f3c 3d6b bb3d 96e8 e43d c836 2dbd
00000180: 12bb e3bd cedd b8bd 8b70 9fb9 d214 ab3d
00000190: 1a28 cabc cd9c 893d b0ff 8f3c 0c56 97bc
000001a0: fe1a 023e ed25 373d 6515 9c3d a84c d13d
000001b0: 39fc babb 7ca2 7e3c 65da 503d bc7e 3dbd
000001c0: 3dc7 ca3d 184f 2cbd 8faa 993c a701 d6bd
000001d0: 3a94 7abd 6a5b 49bd 484d 99bd 5a46 e03d
000001e0: ffed 013e 14c6 29bd 16a9 57bd 7fb5 92bd
000001f0: 31a2 76bd 69b4 9f3d 7544 e13d baf6 94bd
00000200: 06ca cd3d ed14 9cbd fb07 963c f457 13b9
00000210: 030c 963d 54d5 f8bd bf1b 80bd 2875 f33d
00000220: dcb7 cd3d 9ae6 df3d d02d ea3d 53b2 f43d
00000230: 9a97 43bc a3e0 bfbd e67f fd3d 43df 22bd
00000240: f50f b03c 4e0b 173d 2e13 d83c c4c7 663d
00000250: ecef c9bd e294 a1bd 6242 10bd c40a 9d3c
00000260: 6e64 d73d 2726 013d d46f 72bd 4645 c13d
00000270: 5f36 06bd 9d0a f53d e2cf b33d fe38 803d
00000280: 65fb efbd b981 c7bd 5921 cabd e42a d5bd
00000290: 3862 a5bd b57c 78bd df93 a13d 892f 7f3d
000002a0: 13f5 9abd 3322 9d3d 0e9b 463d 418a f9bd
000002b0: 0227 00bd 467e a13d 35ea 48bc 20f3 e9bd
000002c0: cfd8 c13c 4a99 013b e327 26bd 86c4 c93d
000002d0: 65d5 ff3d e7fb cb3d c3aa 553d d022 ae3d
000002e0: 95a4 e63d f114 e4ba 8061 ea3d 9185 b6bc
000002f0: c45c d3bd 6fb6 023c 7457 af3d 30ae c43d
0.0032514539 0.06697066 -0.07126149 0.0724812 0.03289425 -0.012742708 0.09352188 0.04245965
0.07414348 0.08202035 -0.043141767 0.11805775 0.07489068 -0.0022209655 -0.07268373 0.048880935
0.058711156 -0.008479929 -0.06557768 0.0662362 0.12547353 0.017865544 -0.09257627 0.06915021
-0.1263634 -0.09853431 -0.060001593 -0.012627934 0.09504261 0.092037804 0.009691019 0.009319539
-0.052952945 -0.07536823 0.109548084 -0.0768899 0.03228207 -0.059235085 0.06409631 -0.0376265
-0.025536925 -0.114872605 0.033996645 0.071404144 0.11449498 0.03286042 0.07953527 -0.1097571
-0.09764857 0.0727514 -0.07510353 -0.1086164 0.0058500855 0.02926317 -0.04467831 -0.1112841
-0.07955357 0.038014002 0.0016395181 0.015403646 0.012263064 0.101995885 -0.024821019 -0.10329367
-0.019485224 -0.02652198 0.017590147 0.097364195 0.056461494 0.11294567 -0.009131714 0.090049885
0.021433266 -0.059630204 -0.07230717 -0.007996343 -0.043529555 -0.11634884 -0.093147226 -0.11664513
0.11525846 -0.07027645 -0.057780642 -0.015614783 0.0965753 -0.072713114 0.044827323 0.08448785
-0.091325596 0.07534957 0.04137211 -0.0026686965 0.011718021 0.091513135 0.11177175 -0.04228857
-0.11119665 -0.09026681 -0.00030410694 0.083535805 -0.024677325 0.067193605 0.017577976 -0.018473648
0.12705609 0.044713903 0.07621268 0.10219699 -0.005706337 0.015541669 0.050989527 -0.04626344
0.09901283 -0.042067617 0.018758086 -0.10449534 -0.061176516 -0.049159445 -0.07485443 0.109509185
0.12688445 -0.041448668 -0.052651487 -0.07163524 -0.06021327 0.077980824 0.10999385 -0.07273622
0.100482985 -0.07621179 0.018314352 -0.00014051778 0.0732651 -0.12150064 -0.06255292 0.1188758
0.10044834 0.10932656 0.11434519 0.11948075 -0.011938 -0.09369018 0.1237791 -0.0397637
0.021491984 0.036876015 0.026376333 0.056342855 -0.098602146 -0.07889725 -0.035219558 0.019170173
0.10517202 0.031530526 -0.05918868 0.09437041 -0.032766696 0.11964915 0.08779885 0.062608704
-0.117178716 -0.097415395 -0.09869642 -0.10408571 -0.08075374 -0.060665805 0.07889532 0.062301192
-0.075662754 0.076725386 0.048487715 -0.12184573 -0.0312872 0.07885413 -0.012262871 -0.114233255
0.023662953 0.0019775205 -0.040565383 0.09851937 0.12491874 0.09960156 0.052164804 0.08502734
0.1126186 -0.001740126 0.11444378 -0.022280486 -0.10320428 0.007978066 0.08561602 0.09603536

bias_hh_l0 f4 [192]
00000000: 8193 f7bd 1ed1 833d d5b9 79bc ca70 d83c
00000010: fbad ecbb e3cc 863d 5811 c4bd f88a e03d
00000020: 37bb 083d 4e98 3cbd 6d4d ba3d 83d6 83bd
00000030: bbe3 ce3d d48e 96b9 3544 793c 23da 433c
00000040: 50d2 14bd be30 603d 898b d2bd 3fc1 5b3d
00000050: 2abe 9d3d a52f f6bd 7a46 3f3d 3e3f 2fbd
00000060: 4c29 ec3a acb8 1f3c d5ef 733d 2d9a b5bd
00000070: 2fda 873d dc83 4e3c 8351 6d3c 6967 243d
00000080: d497 4bbd 15fc 0fbd 0629 ccbc 0377 af3c
00000090: 3365 acbd a92a 7b3c 862c d4ba 5a70 8b3d
000000a0: 33de 8fbd 0204 1d3d 0d86 673c 1577 c238
000000b0: 009d 963d d1ed f0bd 1290 4cbd 8d60 c7bd
000000c0: ffe8 b43d 8104 cbb9 f774 46bc b848 c1bd
000000d0: 0657 8d3d 62d7 d6bd 7b79 a0bd 95d5 d6bd
000000e0: 2c61 82ba 5b64 e63a 9eb1 e23d ad8d 00bc
000000f0: 5d1d f9bd 5855 90bd 0f9d 993d 38f5 2dbd
00000100: aa1c f9bc 0dc2 133c 6bc6 da3d 3bc9 4ebd
00000110: dbfc 643d 2836 d5bc 5d7e eabd d59b c83d
00000120: 9927 e2bd fdd7 be3c 9aa6 083d aad6 423d
00000130: ca24 cd3d a1e4 bcbd 775a aebd a45a 3c3c
00000140: 3f1e 47bd e9c3 e03d 1df0 b73d b311 00bd
00000150: 67d4 683b 4dbd 8ebc eb5d c7bd a561 933d
00000160: 0e17 bc3d 8f76 3dbd 5918 63bc fd81 cc3d
00000170: 979a a9bc 1728 aabd 2e13 0b3c a897 c13b
00000180: 9e43 6c3d 1284 adbd d379 19bc 72f6 f73d
00000190: 4e47 d83c 9d08 963d 29d1 debc ffdd 163d
000001a0: 81ef 8f3b fd77 1a3d 1712 6a3d 202d eabc
000001b0: 3528 be3d 8e13 40bd e6c8 a5bd 16f2 98bd
000001c0: d671 a6bc 64e1 2bbd ba04 b23a ef06 55bb
000001d0: dd4a 833d ded2 1fbd 67e0 62bb 6454 b3bd
000001e0: 259c a13d 10c7 8d3d b4cf 97bc 3f88 8abd
000001f0: ea6a 063d cb3f c33d 3da1 f1bd 64ef 893d
00000200: 589d 23bd 4606 b53b 94a7 f53b 535b 87bd
00000210: 1f7e f5bd 2469 b4bd 8c58 143d a6e5 c33d
00000220: 0ae9 abbd a4e7 f9bd e48a e53d 6d4e d13d
00000230: c110 e13d e938 46bd 24de 223d 909d be3d
00000240: 2f5d ac3d a001 99bd a4a8 e8bd 5e3f ce3d
00000250: 371a b7bd 104d bd3d 1330 eebd 1e13 b33d
00000260: cf0a f9bd 56f2 54bd 5ed0 d43d a1b3 a8bd
00000270: 3059 233d 4602 85bc 42cb 0dbd 1dfb 99bd
00000280: 87b3 2a3d a2de a23c 4a59 b5bb f36a b7bc
00000290: 334a f6bd c679 c43d 5cd7 99bd 7165 c8bd
000002a0: b87c 9f3c 2a2c 5a3d f23e cc3d 6f2f d7bd
000002b0: 2609 b03d abe9 d4bd 9f4b 5bbd 99cd 4a3c
000002c0: d7de cb3c d176 eabc fdff d4bd 7bd3 c53d
000002d0: 1493 60bd 00c1 afbd 1165 17bd e517 3bbd
000002e0: 41df 79bd ce79 e3bd 488e 41bd 2e39 d9bd
000002f0: 67a4 d4bd ccc1 dfbb 2962 c93d 2a5d 6a3d
-0.12088681 0.0643637 -0.01524206 0.02642097 -0.0072228885 0.06582048 -0.095736206 0.10964006
0.033381667 -0.046043687 0.09096799 -0.06437399 0.1010203 -0.00028716645 0.015214016 0.011953863
-0.036333382 0.054733984 -0.102805205 0.05365109 0.077022865 -0.12020806 0.04669807 -0.04278492
0.0018017679 0.009748619 0.059554894 -0.08867297 0.06633412 0.01260468 0.014484766 0.040137682
-0.04970534 -0.035152514 -0.024921905 0.021419054 -0.0841774 0.015329995 -0.0016187585 0.06808539
-0.07024803 0.0383339 0.014131081 9.2728216e-05 0.07354164 -0.1176411 -0.049942084 -0.097352125
0.08833503 -0.00038722533 -0.0121128475 -0.09437698 0.06901364 -0.104903 -0.078356706 -0.10489956
-0.0009947172 0.0017577516 0.11069034 -0.007846278 -0.12163804 -0.07047528 0.0750066 -0.042470187
-0.030409176 0.009018433 0.106823765 -0.050484877 0.055905204 -0.0260268 -0.11449883 0.097953476
-0.11042709 0.02329635 0.03336201 0.047568 0.100167826 -0.09223295 -0.085133485 0.01149622
-0.04861283 0.10974867 0.08981345 -0.03126688 0.0035526992 -0.01742425 -0.0973471 0.071963586
0.09184085 -0.046255644 -0.013860785 0.09985731 -0.020703597 -0.08308428 0.0084884595 0.0059079714
0.057681672 -0.08472456 -0.009367424 0.121075526 0.026401188 0.073258616 -0.027199345 0.036832806
0.0043925648 0.037712086 0.057146158 -0.02858597 0.09285013 -0.04689365 -0.08094959 -0.07468049
-0.020317953 -0.041962996 0.0013581731 -0.0032505353 0.064107634 -0.039019458 -0.0034618618 -0.087563306
0.0789111 0.06922734 -0.018531658 -0.06764268 0.032816805 0.09533652 -0.11798332 0.06735113
-0.039944977 0.0055244295 0.0074967835 -0.066092156 -0.11986946 -0.088091165 0.036217257 0.09565286
-0.08394058 -0.12202385 0.11208132 0.10220037 0.10989524 -0.048394118 0.03976263 0.093073964
0.08416211 -0.07471013 -0.11360291 0.1007068 -0.08940547 0.09243214 -0.11630263 0.08743881
-0.12160265 -0.051988922 0.103913054 -0.082373865 0.039879978 -0.016236436 -0.03461767 -0.07518599
0.041675117 0.01988155 -0.0055343257 -0.022389865 -0.12025871 0.09593539 -0.0751178 -0.097849734
0.01946865 0.053264774 0.09972943 -0.10507094 0.08595495 -0.10396131 -0.053538915 0.01237812
0.024886532 -0.02862111 -0.104003884 0.09659477 -0.054827765 -0.08581734 -0.03696162 -0.045677084
-0.061003927 -0.11107217 -0.04725483 -0.10606609 -0.1038292 -0.0068285223 0.09833176 0.057217754

weight f4 [2, 64]
00000000: 5198 cebd a403 8d3d 9825 dfbc 3634 833d
00000010: f7f2 f73d 7acd c13d 86ed 373d c69b dabd
00000020: d0f2 db3d 855e b1bd 5810 cabd aef7 a23d
00000030: dbb3 983d e0f2 8dbd dd2b fc3c 7a6d a7bd
00000040: 14c9 b93c e9db ff3c 4132 9c3d 0c24 da3d
00000050: 60cd e0bd 21a0 bbbd 7d2a 8bbd 7c1d 8ebc
00000060: 9132 173d d588 d53d 840e af3d 2bc4 f63c
00000070: 0f6b 2a3d 80bf f73d 88b8 48bd b784 f0bb
00000080: f51b fb3d 1e00 4e3d ce44 3abd e5c9 e43d
00000090: 904f cb3d c79e 463d d51c e93d 3731 34bd
000000a0: 8a7e bdbd e027 4c3c 4481 e2bc ce69 d6bd
000000b0: ddf1 deba 2a7a 62bc e188 603d 8d29 3abc
000000c0: 45c4 143d 49d2 2cbd 07e0 21bd f483 a43d
000000d0: 2ca7 cb3b dc2c a8bd c34f d2bb c3f6 5abd
000000e0: dc36 67bd 6eb6 a6bd da8a 90bd 87e0 7abd
000000f0: 8b96 8d3a 3e50 afbd 59af f9bd aee9 dbbd
00000100: 0780 a9bd 7ad7 9bbd 5ee4 b63d ee8b b7bc
00000110: af9b 413c bef3 463b 808c b53a 1bf1 393d
00000120: 897b f93c d027 da3c a368 8aba 0ca0 99bd
00000130: 3cee 2ebd f4b8 e23d 9555 01bd 5d01 69bd
00000140: dfc7 223d 7461 45bd fb3a a83c faf0 f2bd
00000150: 165c 9fbd f5f4 cfbd c36b efbc 76a8 17bd
00000160: f25a 57bc a5ef c8bd f6d2 87bd b972 173d
00000170: 0553 3b3d eead c13d c065 61bd 6bb4 35bd
00000180: ed72 dcbd bf24 cfbc d1de c93c 7118 c33c
00000190: eec3 93bd 6973 313d 0c4b 513d a9d3 2fbd
000001a0: 77a2 0cbd fe37 54bd 67c0 563d 495b 0c3c
000001b0: f0fb f2bd b0bd 3e3d 2204 e5bd 22ee eebd
000001c0: dedb fcbd eaa7 92bd e07d 90bd 7604 8cbd
000001d0: 54c4 843b 902f c139 5526 3f3d 56e0 8fbd
000001e0: e48a 9f3d 32c3 cf3d 6c92 82bd 6983 aebd
000001f0: 4de2 d7bd 5ce8 bcbd 02e5 53bd 4d05 0a3d
-0.10087646 0.0688546 -0.027239606 0.06406443 0.12106889 0.0946302 0.044904254 -0.10674243
0.10739672 -0.08660606 -0.098663986 0.079573974 0.0745618 -0.0693109 0.030782634 -0.08175178
0.02267889 0.031232791 0.07626773 0.10651407 -0.10976672 -0.091614015 -0.06795213 -0.017348044
0.03691346 0.10426489 0.085476905 0.030122837 0.041606005 0.120970726 -0.049004108 -0.0073400396
0.12261192 0.05029308 -0.045475774 0.11171321 0.09927285 0.048491266 0.113824524 -0.043992247
-0.09252651 0.012460679 -0.02764953 -0.104693994 -0.0017009337 -0.0138230715 0.054818038 -0.011362446
0.03631999 -0.04219273 -0.03952029 0.080329806 0.006214997 -0.08211681 -0.0064181997 -0.053457987
-0.056448802 -0.081402645 -0.07057734 -0.061249282 0.0010802312 -0.08560227 -0.12191648 -0.1073793
-0.082763724 -0.07609458 0.08930276 -0.02240559 0.011816903 0.0030357684 0.0013851076 0.04539595
0.030454414 0.026630312 -0.0010559749 -0.0750123 -0.042707667 0.11070433 -0.031575758 -0.056886066
0.039741393 -0.04818864 0.020535937 -0.11862369 -0.07781236 -0.10154144 -0.02922619 -0.03702589
-0.013144242 -0.098113336 -0.066320345 0.036974642 0.04573347 0.094570026 -0.055028677 -0.044361513
-0.10764108 -0.025286077 0.02464238 0.023815366 -0.07215105 0.043322954 0.05109696 -0.042926464
-0.034334626 -0.05181121 0.052429583 0.008566686 -0.118644595 0.04656762 -0.11182429 -0.11666514
-0.12346624 -0.07160933 -0.07055259 -0.06836788 0.0040517244 0.00036847265 0.046667416 -0.070252106
0.07790163 0.101446524 -0.06375584 -0.08521158 -0.1054121 -0.092240065 -0.05173207 0.03369646

bias f4 [2]
00000000: b4f9 593d 28e9 093d
0.05321665 0.03366962

weight_ih_l0 f4 [192, 66]
00000000: 1c4b afbd 6c87 b03d c633 dbbc 0cef 273d
00000010: 555f 99bd 2f0b 4dbd a74a 2fbd 4714 34bb
00000020: af41 a4bd 5d10 843d 8643 4abc eb22 d4bd
00000030: 6fd6 97bd abb2 0fbd 17b0 6fbd 31e9 ca3d
00000040: 7bee c4bb 12b9 73bd 9c4a 40bd 8afe cbbd
00000050: d263 33bc 23cd b03d 101b 0dbe dcac 3dbd
00000060: 6bc8 543d 6db3 66bc 6a32 8abd 0132 8e3d
00000070: d1a7 b63c 226d 7a3d d571 0a3d 7053 bfbd
00000080: b4c5 e13c 9d20 513d 92f8 a83d 160a 073d
00000090: c906 9e3c f61b 083e 318c aa3d 9ca7 b2bd
000000a0: ff46 6a3d 9b73 8b3d bfe6 363d 4245 e93d
000000b0: a20f 283d fbe8 353d c591 6a3d 89ca d2bc
000000c0: c44e f63c 3845 ec3d 4467 cfbd 49e1 db3d
000000d0: 106f 7fbd 5f79 b03d 71d9 c4bd 7ec7 d63d
000000e0: 1cd7 703c e28f dc3d 5e36 ad3d 1e31 cf3d
000000f0: 9851 c23d 6030 e63a 8e41 993d ca03 e0bc
00000100: 3c62 c0bd 4956 1ebd 3899 c4bd 6f78 b93d
00000110: eeb2 d73d 9142 cabd 30b7 a3bd 6139 a5bd
00000120: ae39 b73d 20d5 8e3d 4242 403d 51b6 473c
00000130: b674 b7bd 5e8b efbd 03c7 a9bd 9f69 d43d
00000140: fcaf 4abd 185c e7bb 868b b13d 6eca 5c3d
00000150: 9623 2a3d f17b e53c 4ad5 78bd b756 e1bd
00000160: 39bd 03bd 109b fb3d 2283 0b3b f604 30bd
00000170: 4ca6 cebd 0c66 aa3c 081d e43c 47a2 f33d
00000180: cd66 dd3d 3cff 0c3d e9c0 833d d6bc e53c
00000190: 9f7d 023d 5bcd 92bd 9977 22bd 9d2d 293d
000001a0: 7cd2 2abd 8cd3 e2bd f2c1 753d cfa5 393d
000001b0: bc02 a4bd caf2 79bd 8d19 cf3c 54c0 8ebd
000001c0: e602 c33d 9399 31bd ba2f 023e 5d49 6abc
000001d0: 092d a0bd 8df3 95bd a520 f33d 12f8 c63d
000001e0: ffd0 113e 25b9 e33a 7233 643d d705 5dbd
000001f0: 2e3e 483d 0834 f4bd ab47 ebbd 97a0 923b
00000200: f56e b13d fd2d c13d 1f3e 75bc 8a6c f43d
00000210: ef52 0d3b 1682 40bd 0b6a 803d 4cb9 22bd
00000220: 6f19 aebd b18f 003d 7b2e 993d 7467 d63d
00000230: d673 f33d 23cb afbc 6922 debd 4bf5 46bd
00000240: 6e2c 23bd c716 4fbd 01df eebd 773c f0bc
00000250: 2487 28bd efdc 293d 91a9 e9bb a092 15bd
00000260: 1076 eb3d 5b65 42ba 41f3 703d 9a3f f6bd
00000270: eb91 443d 361f 4ebd 40ed e23d aa8f 7a3d
00000280: 19ed f83d 19cd 1dbd aaa0 f73d 0d18 5d3d
00000290: 7d0c 39bd 33ab 89bd 87c7 d33d f190 9d3d
000002a0: dff8 e83c 950d c53d b3cf 45bd 4414 d03c
000002b0: 8cff 383d 6bb8 77bd 9a7b 633a c75d 48bc
000002c0: da08 f73b 43ec c0bd b268 ea3c 1966 e8bc
000002d0: a122 a33d 8017 ecbd f614 bf3d 67e2 4dbd
000002e0: e628 e83d f526 1e3d 02bd 9dbd 8e0b 323d
000002f0: 4a50 b5bd 1610 cabd 00f3 883d 167f 0ebd
00000300: 9f4d f33d 6f48 e3bc 4f73 653c 20ed 0ebe
00000310: 6f15 fabd 0177 8d3d 103e bcbb 04f5 233d
00000320: 9526 76bd 2c45 babc a18c c53d 1def 0ebd
00000330: 8853 14bd 23f9 c2bc 7837 ce3d f682 943d
00000340: b471 463d fb2a 183c 90a8 6b3d f5bb 9e3d
00000350: 2f2a 4bbd aa19 1c3d 5e22 a53d c549 883d
00000360: ca9d fe3c 3cec cdbd f534 98bd 3a6f ec3d
00000370: c60e 40bd ff17 3a3c 99ab 0ebe ce4c f23d
00000380: 137b f73d 0ef1 bfbd 3fb1 833d 3493 41bd
00000390: 30e7 8abc 8954 8e3c 2274 3bbd fa66 9bbc
000003a0: c993 003e 1fa5 ca3d a05f 4d3d 967a bd3d
000003b0: 0a76 073c 71f3 c4bc 9750 9abc 6de4 19bd
000003c0: 6214 e83d 7f93 afbc cb18 d43d 0891 153e
000003d0: 7d79 883a f080 e53d 0f51 db3d ad6d 86bc
000003e0: 86a2 15bc c233 ecbd 6bc7 4a3d 935d e03d
000003f0: cf95 0c3e 7c07 dbbd 651b 0c3e 2fb4 183d
-0.08559248 0.0861958 -0.026758086 0.040999457 -0.07488886 -0.050059494 -0.042795803 -0.0027477907
-0.08020341 0.064484335 -0.0123452 -0.103582226 -0.07413947 -0.0350825 -0.05851754 0.09907759
-0.0060098744 -0.05950267 -0.046946153 -0.09960659 -0.010949092 0.08632877 -0.13779855 -0.04630743
0.051948946 -0.014080864 -0.06747897 0.06943131 0.022296818 0.061139233 0.033799965 -0.09342086
0.027560093 0.051056493 0.08250536 0.032968603 0.019290345 0.13291916 0.08327521 -0.08723375
0.057196613 0.06809159 0.04465365 0.11390163 0.041030534 0.04441164 0.057267923 -0.025731342
0.030066855 0.1153664 -0.10127118 0.10736329 -0.062361777 0.086169 -0.09611786 0.10487269
0.014699724 0.10769631 0.08457635 0.1011679 0.09488219 0.0017562024 0.07483207 -0.027345557
-0.09393737 -0.038656507 -0.09599537 0.09056174 0.10532175 -0.09875978 -0.079939246 -0.08067585
0.089465484 0.06974244 0.04693819 0.012189464 -0.08957808 -0.11696504 -0.082899116 0.10371708
-0.049484238 -0.007060539 0.0866919 0.05390399 0.041537844 0.028013201 -0.060750283 -0.11002868
-0.03216288 0.12285435 0.0021287878 -0.04297348 -0.10090312 0.020800613 0.027845874 0.11896186
0.10810623 0.034423098 0.06433279 0.028044146 0.031858083 -0.07168075 -0.03966484 0.041303266
-0.04170464 -0.110755056 0.059999414 0.045324143 -0.08008334 -0.061022557 0.025280738 -0.069702774
0.09522037 -0.04335935 0.12713519 -0.014299718 -0.0782109 -0.07321844 0.11871461 0.097152844
0.14239882 0.0017373903 0.055713125 -0.053960647 0.048887424 -0.11923987 -0.11488279 0.00447471
0.086637415 0.094326 -0.014968424 0.11934765 0.0021564325 -0.04699906 0.06270226 -0.039727494
-0.08500945 0.031387035 0.074795686 0.10468951 0.11887328 -0.021459168 -0.10846407 -0.048573773
-0.039837293 -0.05055883 -0.11663628 -0.029325707 -0.041144505 0.041470464 -0.0071308096 -0.036516786
0.11497128 -0.0007415616 0.058825735 -0.1202385 0.04799072 -0.050322734 0.11080408 0.061172165
0.12154598 -0.038525674 0.12091191 0.053978015 -0.045177925 -0.06722107 0.10340791 0.07693661
0.028438983 0.09621731 -0.04829378 0.025400288 0.045165583 -0.06047861 0.0008677781 -0.0122293895
0.007538897 -0.09420063 0.028614376 -0.028368996 0.07965589 -0.1152792 0.0933017 -0.050264742
0.11335926 0.03861137 -0.07702066 0.04346805 -0.088532045 -0.098663494 0.066869736 -0.034789167
0.118800394 -0.0277445 0.0140045425 -0.13957644 -0.122111194 0.06907464 -0.005744703 0.040028587
-0.06009539 -0.022738062 0.096459635 -0.034896005 -0.036212474 -0.023800438 0.100691736 0.07251541
0.04844828 0.009287591 0.0575338 0.07750694 -0.049600776 0.038110413 0.08063196 0.066546954
0.031081099 -0.10054824 -0.07431976 0.11544652 -0.04688909 0.01135826 -0.13932647 0.118310556
0.120840214 -0.093721494 0.064302914 -0.047259524 -0.016955942 0.017374294 -0.04576505 -0.018970001
0.12556376 0.098947756 0.050140023 0.09251897 0.008267889 -0.024041863 -0.018837256 -0.03757136
0.11332013 -0.021432636 0.103562914 0.14606106 0.0010412183 0.112062335 0.1070882 -0.01640972
-0.009132987 -0.115333095 0.049506586 0.10955348 0.13729022 -0.10694787 0.13682325 0.03728121

weight_hh_l0 f4 [192, 64]
00000000: a4d4 2f3d 9a9e c4bd 7ccf af3d 6e0b 8e3d
00000010: 8243 423d 6182 913d dcc1 49bd fd31 163d
00000020: b187 923d 017b 553c 7429 a13d cc88 b63d
00000030: 1dd5 b0bd 36d5 f6bc 2ccf 92bd 133d efbd
00000040: aacf b93b 13a9 a2bd e08a 1abe 0c6f 0e3d
00000050: dd32 aa3a cf89 ab3d af4a edbd 6d6f c4bb
00000060: bba6 973d 0f75 9d3c d668 a8bd 0459 823d
00000070: 004d 17bd da6e 8dbd f317 3e3d 9980 e7bd
00000080: a894 f8bd 4666 b8bc 9c63 a93d 6487 99bd
00000090: 91ca 303d 7711 103e 678c 9d3d 4ab8 9d3d
000000a0: 6f42 76bd bef9 833d 2a84 d4bd 0159 bf3c
000000b0: ed1a 95bd f65e e4bc dded 07be f4ea 5d3c
000000c0: fc5e d93b da61 023e 324c 083e 6e98 973d
000000d0: 3101 e73c 09ff 2d3d 1fea 273c 86bf 05bd
000000e0: 1f7c ad3d 281f 013e f84f 96bd 0c00 91bd
000000f0: 98c4 0fbd 491c 963d 086a 2fbd d45a cdbd
00000100: f984 253e 7783 3b3d b5c7 153d a25c b8bd
00000110: 2cc9 acbd 7b12 9bbc d8e2 16bd 14b4 9c3d
00000120: 2056 dc3c af6a 7abd 6a74 0f3d c437 76bd
00000130: addf b4bd 0ae3 963d f8ab f7bd 99e3 4bbd
00000140: cc42 083d 155d d33d e673 823d 1240 9bbd
00000150: c48f 2b3d a682 8bbd 4499 fd3d 6b4b e93d
00000160: 1bc1 7f3b 4c86 903d 2043 b83d 52bb 02bd
00000170: ed2e 9b3d c285 213d e585 6dbd 310b 8f3d
00000180: d264 e43d 01cf 6e3d f469 033e 5cdc 17bd
00000190: 369f e83d 4de1 c73d 2420 913d adb7 06be
000001a0: 0530 f4bb 8c62 9cbd 7cab 073e 1111 df3b
000001b0: 82af 94bc 32ca 213e 07e8 c13d 8e8e cfbd
000001c0: 0039 a63d 7122 7cbd e5b2 acbd 87b9 ddbd
000001d0: 9334 9f3d 9cd5 a4bd 4a27 ce3c a734 f33b
000001e0: 7707 c0bd 2662 e1bd 13f8 79bd 1cd6 203d
000001f0: 2e4a c03d a867 e7bd c068 13bb e5a0 173e
00000200: c028 0ebd 4a54 9a3b b2f3 483d 63a7 5d3d
00000210: 6d41 91bd c4f4 25bd 922c 66bd e0ab b03d
00000220: a872 69bc d179 b33d 81c6 ce3d a195 b33d
00000230: 358b 86bd 57d2 ac3d 7fda ec3d f6c0 00be
00000240: 74f1 d1bd ba3c 04be cb3e 4dbd d538 64bd
00000250: a6c5 8b3d 1e9d 6cbd f328 543a 02b0 a8bd
00000260: d030 f4bd df9d 373c 1197 3e3a 281f 1fbc
00000270: d48a d33d 1747 bd3d 283b d23d 0c28 babd
00000280: 8579 c2bd 8912 c6bd bd5b 1a3b e8df c0bc
00000290: 5255 a03c 847d c8bb cbce 97bd 795d 4b3b
000002a0: db7f 58bd 9200 fe3d 6e4f 5ebc c854 1ebd
000002b0: a58f 043d d748 57bd 8aa2 cfbd 3443 c73d
000002c0: 51ae 8b3d d09b 15be 5a94 343c 71aa fd3d
000002d0: 8610 533d 1b1d 103d 2fb0 803d 6183 4d3b
000002e0: 8512 653d 1afa 793d 7ffa 93bd fc78 dbbc
000002f0: a0f2 91bd a78f cfbd 82be 67bd ecf8 a3bd
00000300: 60d5 be3d 4d4b 923c a253 ae3c 68f5 44bd
00000310: 88ca ec3c 26c3 633d a2e1 02be 6b20 363d
00000320: 6d75 a0bd 2300 0ebc 4a6b 153e 86b6 653d
00000330: 853f 083d 8d92 09bd a3d1 1c3e 324f e9bd
00000340: 274c 933d c306 9c3d 969b f1bd 4f54 08be
00000350: 5c52 eebd b9e3 1d3d cc74 b6bd 29da 253c
00000360: 3b5e 953d eca6 b53d d187 b63b a71a d73d
00000370: a06d 583c fd36 e33d 31d1 4b3d 616d 963d
00000380: 96d6 af3d 1a63 cb3c 708d d0bd 9527 343d
00000390: 87b4 24bc 71c2 d03d 424a 1cbe 9009 b8bd
000003a0: 3ec5 0cbe 1a1b 8b3d 0b85 7bbd ed7a 0a3b
000003b0: b329 d4bc ea9f e3bd 222c 05be c393 7c3d
000003c0: 11fd b73d 28cb c93b 1685 25bd 67b2 aa3d
000003d0: 77e3 e53b ae49 f23d 9bdc 7d3d 6e4a b43c
000003e0: 6bf0 acbb 11bb d6bc ca3f bdbd d2e3 843c
000003f0: 0ee7 5bbd f619 19be 86da 8c3d 45b8 8c3c
0.0429274 -0.09600563 0.085844964 0.06935774 0.04742766 0.07104946 -0.049257144 0.036668766
0.07154787 0.013029815 0.07869235 0.08912811 -0.08634398 -0.030130964 -0.07168421 -0.11681571
0.0056705074 -0.079424046 -0.15092039 0.03477387 0.0012985129 0.08375894 -0.115865104 -0.0059947283
0.07404848 0.019220857 -0.08223121 0.06364635 -0.036938667 -0.06905909 0.04640956 -0.11303825
-0.12137729 -0.022509705 0.08270952 -0.07496527 0.043161932 0.14069162 0.07692795 0.07701166
-0.06012195 0.06444119 -0.10376771 0.02335787 -0.07280526 -0.027877312 -0.13274331 0.013544787
0.0066336375 0.1273264 0.13310316 0.074021205 0.02819881 0.04247955 0.01024869 -0.032653354
0.0847094 0.12609541 -0.073394716 -0.07080087 -0.035099596 0.07329614 -0.04282573 -0.1002709
0.16164006 0.04577967 0.03656741 -0.09002043 -0.08436808 -0.01892971 -0.03683743 0.07651535
0.026896536 -0.061136898 0.03502313 -0.060111776 -0.08831725 0.07367523 -0.12093347 -0.0497776
0.033266827 0.10320488 0.06369762 -0.0758058 0.041885152 -0.068120286 0.12382749 0.11391338
0.0039025012 0.07056865 0.08997178 -0.031916924 0.0757731 0.039434202 -0.05798902 0.069845565
0.111520424 0.058302883 0.12833387 -0.037075385 0.11358492 0.097597696 0.070862085 -0.13156004
-0.0074520134 -0.07635984 0.1324901 0.0068074544 -0.018150095 0.15799788 0.09468084 -0.10134612
0.08116341 -0.061556283 -0.08432559 -0.10826402 0.077736996 -0.08048555 0.025165219 0.007422048
-0.09376424 -0.110050485 -0.061027598 0.03926669 0.09389149 -0.11299068 -0.0022492856 0.1480747
-0.03470683 0.004709755 0.04906053 0.05411471 -0.07092557 -0.04051663 -0.05619485 0.086265326
-0.014248528 0.08763469 0.10096455 0.08768774 -0.065695204 0.08438557 0.11565112 -0.12573609
-0.10251132 -0.1291379 -0.050108712 -0.05571826 0.06824808 -0.057767026 0.000809326 -0.08236696
-0.11923373 0.011207073 0.00072704355 -0.009712018 0.10329214 0.09242075 0.102651894 -0.090896696
-0.09495834 -0.09671504 0.0023553215 -0.023544267 0.019571934 -0.0061184783 -0.074124895 0.0031031056
-0.052856307 0.124024525 -0.013568742 -0.038655072 0.032363553 -0.0525597 -0.10138424 0.09729615
0.068203576 -0.14610219 0.011021698 0.12386025 0.05152943 0.035184007 0.06283604 0.0031358826
0.055925865 0.06102953 -0.07225513 -0.026791088 -0.07126355 -0.101348214 -0.056578167 -0.080064625
0.09318042 0.017858172 0.021280114 -0.0480856 0.028905168 0.05560603 -0.12781385 0.04446451
-0.07834897 -0.008667025 0.14591709 0.05608227 0.033263702 -0.033587027 0.15314345 -0.113920584
0.07192259 0.07618477 -0.11797254 -0.13313411 -0.116368026 0.03854725 -0.08908996 0.010122814
0.07293364 0.088697284 0.00557039 0.105031304 0.01320973 0.110944726 0.049760047 0.07345081
0.08585851 0.024827529 -0.10183227 0.04398306 -0.010052807 0.10193337 -0.15262702 -0.08986199
-0.13747117 0.067922786 -0.061406177 0.0021130398 -0.02589879 -0.111144856 -0.13005117 0.061664354
0.089838155 0.0061582513 -0.040410124 0.08334809 0.0070156413 0.118304595 0.061977964 0.022008147
-0.0052776835 -0.026212247 -0.092406824 0.016221914 -0.053687148 -0.1495131 0.068776175 0.01717771

bias_ih_l0 f4 [192]
00000000: e812 eebd de61 9e3c b17e 9dbc ea39 e33c
00000010: 0515 813b a3a5 03be c0e9 99bd 8048 483b
00000020: 3d22 bc3c af78 91bd 1000 8e3d c40e 5cbd
00000030: 81a2 643a 387f 1b3e f9c5 96bd 3135 a7bc
00000040: 46ad 833d 3b3b 923d 751c 293c 857c 8e3b
00000050: c2af 07bd f785 8e3b 7aca 1d3e 7b4d 463c
00000060: 7cd3 e93c 568e ec3d 5423 a1bd 4a31 c1bd
00000070: 2539 88bc be71 02bc bbe0 61bc 5b6f 07be
00000080: 6b99 b53d d41d 4fbd 0e2b 89bd 9e42 8f3d
00000090: f005 61bd 7e2a 5e3d 43ab d4bd 86c6 7a3d
000000a0: af4c ee3c bc91 8fbd a145 0b3e ecba dd3d
000000b0: 8b18 e0bd 9891 4abd 522c bebd 2247 903c
000000c0: 4a61 debd 9885 1c3d a675 493d 27be 233d
000000d0: 9ce3 b43d a204 e23d 097d a9bd 5e3d ebbc
000000e0: ade8 c5bc 4106 17bd 5a88 6c3d e893 853d
000000f0: 8766 c03d e343 9dbc ad92 213d 4b3d 5a3b
00000100: fe77 a93d cafc ed3c fc41 963d e751 d33b
00000110: 8dc5 fbbb 1ad2 64bd a696 c23c f788 12bd
00000120: b01b 90bb 1a7d b13d d14e 15be 7051 c43c
00000130: d847 fc3c 3e6f 51bd 6bc6 cebd 8c50 c7bd
00000140: cf65 c1bd 2c34 80bd b132 143b 901f e83c
00000150: 306d 44bd c0be 613d eb10 cfbd 3752 6a3c
00000160: 7013 d23d 60ba 82bd c303 863d 1153 723d
00000170: 732d ca3d f830 00be 1114 773c 074f cc3a
00000180: 0b37 973d ce58 a9bd 3013 ff3c a02d a03d
00000190: 4b22 fabd d5d0 473d dd99 16be 0f96 733d
000001a0: 0c11 86bd 68bc 94bd 2425 b53b c23b 28bd
000001b0: 74c0 0abe b972 833d 768a 2d3d 0f5f 48bd
000001c0: c140 dfbd 1ad5 96bd 96b9 f8bd 4e54 e4bd
000001d0: 3c1c d2bc 25d5 053d 8d74 11be 4a2c 40bc
000001e0: 059d 50bd 31a9 7c3a f181 33bd 0353 f9bd
000001f0: f07e be3c a204 553c c6b3 3d3b 618c d2bc
00000200: 3259 d3bd 0efc e0bd d653 943d 0b7a ecbb
00000210: f420 ec3a 7a3b f8bd 7143 e23d f685 bebd
00000220: 2592 56bd f586 d53d f211 f4bd d681 703d
00000230: 88db c43d 3200 903d 4e94 d53c ba46 183c
00000240: d058 b33d 62c4 293c 6f6f c73d 53b2 df3d
00000250: ae8f 073d 06c3 e7bd a3e5 053e 707a 0b3e
00000260: 1b83 d53d 7c97 cf3c 37a6 14bd f98f c7bd
00000270: 1f79 713c 330a c3bd 2029 903b 28c3 703d
00000280: e8b9 94bd fc63 b33c 2c66 b33d 4ae8 6bbd
00000290: d4c1 7cbd 71aa 77bc 2044 0b3d 13ec 97bd
000002a0: f372 2bbd e32e ce3d 9f7d 1abd 23ae bc3c
000002b0: 1470 b33d 7e36 3d3d 425a b33c 50ae 37bd
000002c0: c205 663d 3f37 eb3d 5dcb f7bd b0c5 b53d
000002d0: 6dc8 06b9 b972 563c a906 fc3a 0857 0e3e
000002e0: 414d 57bd 0e46 723b b2bd c23b 7ba8 dd3c
000002f0: bac3 0dbc 32b0 e23d c7ca 08be 7498 80bd
-0.116247 0.019333776 -0.01922545 0.027737577 0.0039392733 -0.12856154 -0.075152874 0.0030560791
0.022965545 -0.07103097 0.06933606 -0.05372502 0.0008721725 0.15185249 -0.07361979 -0.020411106
0.06429534 0.071402036 0.010321726 0.00434834 -0.0331266 0.004349466 0.1540927 0.012103434
0.028543226 0.11550586 -0.078680664 -0.09433229 -0.016628811 -0.007961689 -0.01378649 -0.13226072
0.08867153 -0.050565556 -0.06697665 0.06995128 -0.054937303 0.054239742 -0.10384228 0.061224483
0.0290893 -0.070102185 0.1360078 0.10826668 -0.10942181 -0.049455255 -0.09285797 0.017612044
-0.108584 0.038213342 0.049184464 0.039976265 0.088324755 0.1103604 -0.08275802 -0.028715786
-0.0241588 -0.0368712 0.057747222 0.065223515 0.093945555 -0.01919741 0.03944652 0.0033300694
0.0827484 0.029051203 0.07336804 0.0064489725 -0.007683462 -0.05586443 0.023753475 -0.03577515
-0.004397832 0.08666439 -0.14580847 0.023964614 0.030795977 -0.05113148 -0.10096439 -0.0973216
-0.094432466 -0.06259951 0.0022613222 0.028335363 -0.04795569 0.055113554 -0.10110649 0.014301828
0.10257614 -0.063832045 0.06543686 0.05916125 0.0987195 -0.1251868 0.015080468 0.0015587517
0.073835455 -0.08268891 0.031137079 0.07821202 -0.12213572 0.048783142 -0.14707132 0.05946928
-0.0654622 -0.07262498 0.005528109 -0.041072614 -0.13549978 0.06418366 0.042368375 -0.04891878
-0.10901023 -0.07364865 -0.12144773 -0.11148892 -0.025648229 0.032673974 -0.14204617 -0.011729309
-0.050930995 0.00096382486 -0.043825094 -0.12174036 0.023253888 0.013001593 0.0028946265 -0.025701704
-0.10319747 -0.109855756 0.07242553 -0.007216697 0.0018015192 -0.12120719 0.1104802 -0.09302895
-0.052385468 0.10426132 -0.11917485 0.05871757 0.09612185 0.07031287 0.026071694 0.009294206
0.08757174 0.010361763 0.09738051 0.109226845 0.033096008 -0.11316495 0.1307588 0.13620925
0.10425397 0.025340788 -0.036291327 -0.097442575 0.01473835 -0.0952343 0.0043994337 0.058779866
-0.07262021 0.021898262 0.08759722 -0.057594575 -0.061708286 -0.01511632 0.034000516 -0.074180745
-0.04185767 0.10067537 -0.037717458 0.023032254 0.087616116 0.046194546 0.021893624 -0.04484397
0.056157835 0.11485147 -0.12099335 0.088755965 -0.000128539 0.013088875 0.0019228059 0.13900387
-0.05256391 0.0036968025 0.0059430236 0.027057877 -0.008652622 0.11068763 -0.13358603 -0.06279078

bias_hh_l0 f4 [192]
00000000: 89c9 94bb 0510 b63d 8faa b4bd 5ee8 d7bd
00000010: 57fd 723d ee65 9bbb 041e d1bb d7cb 8ebd
00000020: 492c cfbb 3a74 4f3c d0ea 5fbd 0766 5e3c
00000030: da6e ba3d eb29 b13d abcd fa3d b730 ad3d
00000040: 10c8 fabd a9f1 93bd b281 af3d c3b4 85bd
00000050: 91a2 1b3d 98e0 053e 8e42 67bc dfd6 b5bd
00000060: 5ddf 04be 1abd 2f3d 09b0 b53d 06d8 6fbd
00000070: ff48 efbc 93d2 a83d 3297 e7bd afb5 173d
00000080: c866 0c3b feaf 573c 8490 c73d 21e3 9cbc
00000090: 3e46 fa3d dd50 113e 3e21 f63d a770 8a3c
000000a0: 7110 9cbd a0bd d4b9 9a96 133e fcba d7bd
000000b0: 2755 a23d d999 dcbd 1fa3 12bc 4c69 653d
000000c0: a236 c6bc b116 c43d 561d 79bd 8c90 ff3d
000000d0: 4dd3 bebc 6ced dbbd 462a 283d bc71 de3d
000000e0: eaa0 5a3c fef3 693d 6e42 233d 40a7 04bc
000000f0: 39b8 f43b 3af0 28bd 2490 70bb c0f1 bfbd
00000100: 20d2 873d 765b 94bd 0969 28bd 2b95 adbd
00000110: c498 21bd b09a 18bd 85f4 413d 99fe 383d
00000120: 7b51 b2bd 8927 0bbd 5482 1abe 9fae 13bd
00000130: 2112 953d 188c f7bd 3702 ae3d 75e9 593d
00000140: 4137 753c ecc5 a9bd 73d3 ac3d fbb1 a0bd
00000150: cfdf 62b8 1658 eebd f6a3 51bc c336 9b3c
00000160: 7b3d 11bd 0d1f 8e3d 679f 253d 1667 1bbb
00000170: f087 943d c326 34bc fecd 273d 6dd3 bbbd
00000180: 2fe0 133d 5d82 ebbd a05a 73bd 90b2 ad3d
00000190: 63c0 013d 8ee6 a93c b00a 443d 5c5c 2f3d
000001a0: da57 643c 3cc3 6b3d ded6 91bd c804 efbd
000001b0: e473 ae3d bbf7 013e 9bca 62bc 477c 543d
000001c0: 0e2b 05bc 83cc 3abd 52c6 81bd bc3c 0f39
000001d0: 2f8b f53d b4c7 853c 32b8 e8bc cac8 abbd
000001e0: ea81 cfbd 9113 1ebe 8b5f 8d39 6622 5e3d
000001f0: ea09 383c 6eb2 e7bd f095 cdbd 05c1 9a3d
00000200: e290 a73d 0a18 c7bd d54d 5dbd d61b adbc
00000210: e0af ecbd 6f38 823d da9f dabd 7cce 81bd
00000220: 4226 99bc 7a45 6e3d 1e78 d43d 99e3 fc3b
00000230: b0b7 dcbd 58df 593d 32e1 0bbe 7842 ab3c
00000240: 571e 9d3d 3063 d23c 083a 113e a446 093e
00000250: e598 86bd d654 fbbd 2bca 1a3d 3955 bbbd
00000260: 243b 3bbc aa76 de3d 4bfa b3bd 1751 8cbd
00000270: c916 123e 3017 0cbe aba7 603d 0ec9 95bd
00000280: a3bb 0abd 82a6 8dbd 7574 403d 20b2 ca3d
00000290: e6ab 0fbd 50ab 4b3c 6a18 f23d 836d f73c
000002a0: bf85 f23c 36dd b03d c315 193d 21f0 d73c
000002b0: a337 fc3d bb47 62bd a34e 843c b2e6 44bd
000002c0: d1f3 0d3e 93a4 35bc a63e 893d dde4 663b
000002d0: 401b f23d 5319 d0bd a072 f03d 04e2 8bbc
000002e0: c193 123d 48da 2e3b c651 95bd 3a87 b0bd
000002f0: 6a07 a73d 9ad2 cabd 1c49 96bc 680b 89bd
-0.0045406264 0.08889774 -0.08821594 -0.105423674 0.059323635 -0.0047423756 -0.006381752 -0.06972473
-0.006322418 0.012661988 -0.054667294 0.01357413 0.091031745 0.08650573 0.12246259 0.08456557
-0.1224519 -0.072238274 0.08569659 -0.06528618 0.037996832 0.13073957 -0.014114989 -0.08878874
-0.12975831 0.04290495 0.08871467 -0.058555625 -0.029209612 0.08243289 -0.11308135 0.0370385
0.0021423567 0.013164518 0.09744361 -0.019151272 0.12220429 0.14191003 0.12018059 0.01689942
-0.076203234 -0.00040577073 0.14412919 -0.10533711 0.07926398 -0.107715316 -0.008950024 0.056008622
-0.024195973 0.095746405 -0.060818993 0.12478742 -0.023294115 -0.10738644 0.04105594 0.10861537
0.013344029 0.057117455 0.039858274 -0.008096516 0.00746825 -0.041244723 -0.0036707008 -0.09372282
0.06631875 -0.07244007 -0.041115794 -0.08475717 -0.03945233 -0.037256896 0.047352333 0.04516468
-0.087069474 -0.03397325 -0.15088779 -0.036055204 0.072788484 -0.12087268 0.08496516 0.053201158
0.014966787 -0.08289704 0.08438768 -0.07846447 -5.4091037e-05 -0.11637895 -0.012795439 0.01894701
-0.035459023 0.06939516 0.04043522 -0.0023712567 0.072524905 -0.01099557 0.040967934 -0.09171186
0.03610247 -0.11499474 -0.0594126 0.08481324 0.031677615 0.02073982 0.047861755 0.04281269
0.013936961 0.057559237 -0.07121061 -0.11670834 0.08518198 0.12692158 -0.01384225 0.051876333
-0.008127941 -0.045605194 -0.06336655 0.00013660168 0.11989438 0.016330577 -0.028408144 -0.08387907
-0.10132201 -0.15437151 0.000269648 0.054232024 0.011232832 -0.1131333 -0.10038364 0.07556347
0.08181931 -0.09721382 -0.054029305 -0.021131437 -0.11556983 0.0635842 -0.106750205 -0.06338212
-0.018695 0.058171727 0.10374473 0.0077175614 -0.10777223 0.053191513 -0.13660124 0.020905718
0.076718025 0.025682062 0.14182293 0.13405854 -0.06572131 -0.122720405 0.03779046 -0.09147114
-0.011427674 0.10862477 -0.08787974 -0.06851404 0.14266504 -0.1368072 0.0548474 -0.07313739
-0.03387035 -0.069165245 0.046986062 0.09897256 -0.035076044 0.012430981 0.11821063 0.030203586
0.02960479 0.08635943 0.03737427 0.02635962 0.12315299 -0.05524419 0.016150778 -0.04807157
0.1386254 -0.011086601 0.06701402 0.0035231628 0.11821604 -0.1016108 0.11740613 -0.017075546
0.03578544 0.0026680399 -0.07290988 -0.086195424 0.08155711 -0.0990345 -0.018345408 -0.06691629

weight f4 [1, 64]
00000000: efd6 813d f1a9 683d dde6 d23d 422a d63d
00000010: e1ee 8bbd 3564 a23a 6586 9d3b 0f9d 073d
00000020: f8e6 f03d afc1 0b3d 9357 7abd 4b7e 95bd
00000030: cb2e 7ebd 1cdf 393c cddc c7bd 77da de3c
00000040: 09ad a0bd e288 923d 1926 cd3d 6f35 8e3d
00000050: 14ce 033d a80a 9dbd bb51 9d3d 58b6 ce3d
00000060: 5890 b13d d301 c33d 055c 9f3d 1794 bcbd
00000070: 14c5 853d d364 bfbd f689 f23d b2ac ac3a
00000080: ec8f ff3d 7fa3 9dbd 3d0b 993d fe0e 2abd
00000090: 92b2 ca3d 2890 b3bd 16c5 ec3d d27e 7fbb
000000a0: b409 cebd 7b7e 84bd 6dd3 173b ac8c 5d3d
000000b0: 97d6 543c 51f1 d03b 821b b43c 5694 a3bd
000000c0: d8f1 f83c 94d4 603d a420 f1bd c031 abbd
000000d0: c60d e73a e1ea bc3a 23ba dd3d 9eb4 253c
000000e0: 57a7 dcbc 0869 a0bd 9aa8 ed3c a1f8 83bd
000000f0: cd6f 803d bd87 6f3d a25a a2bb 5f73 bab9
0.063398235 0.056802694 0.1029794 0.10457279 -0.06832672 0.0012389483 0.004807281 0.033108767
0.11762804 0.034120258 -0.061118674 -0.07299479 -0.062056344 0.011344697 -0.09758911 0.027203782
-0.07845504 0.071550146 0.10017032 0.069437854 0.032178953 -0.07668048 0.076816045 0.10093373
0.086701095 0.09521832 0.07781223 -0.092079334 0.0653173 -0.093454026 0.1184272 0.0013174026
0.12478623 -0.076972 0.07472847 -0.041518204 0.09897341 -0.0876773 0.11561029 -0.0038985503
-0.100604445 -0.06469437 0.002316679 0.054089233 0.012990615 0.0063764234 0.021985773 -0.07987277
0.030388758 0.05489023 -0.11773804 -0.083590984 0.0017628006 0.0014413261 0.108265184 0.010113863
-0.026935263 -0.07832533 0.02901106 -0.064439066 0.06271324 0.05847906 -0.004954652 -0.00035562643
