models/transformer_encoder/checkpoint/trained_irdpg_100.pth (torch, 409362 bytes, 22 tensors)

weight_ih_l0 f4 [192, 64]
-0.04847136 0.01695987 0.05005325 0.09989288 0.037316315 -0.0809479 0.017022004 0.037773814
-0.059692577 0.07642258 -0.0964635 0.04948097 -0.009181463 -0.10359041 0.11481458 -0.039661825
-0.09715842 0.010593763 0.12033258 -0.11091946 -0.07328835 -0.10123432 -0.09055701 -0.008111209
-0.007680122 0.07089923 0.07216503 -0.10764564 -0.026473347 -0.109349556 0.027774189 -0.023369102
-0.047951944 0.077796556 0.10634791 0.010075655 -0.00093598285 0.10985135 -0.08195799 0.044352874
0.0022989176 0.018924484 0.014069213 0.07255604 0.09660172 0.10371023 0.10760516 0.029597642
-0.007703171 0.07223723 -0.101525724 0.021309737 0.09062521 -3.8265425e-06 -0.12136893 0.024883198
0.109095484 0.077842295 0.017778337 0.110509515 0.049811896 0.055485 0.078104466 0.031106457
-0.017795445 0.054423224 0.0013904311 0.12324537 0.1116227 0.0051321955 0.018888962 -0.10206919
0.025134705 0.10276854 -0.05303642 -0.0976349 -0.047456495 0.04554938 0.010513873 -0.03521659
0.11057904 -0.060842466 0.07763288 -0.11772885 0.11373536 -0.08833671 -0.06488066 0.09863907
-0.117183775 0.04891656 -0.09972636 0.11683604 -0.11271702 0.03837894 0.033536892 0.05571306
-0.08900079 -0.034151375 -0.11379533 0.0608896 0.028238796 -0.067373484 0.040961746 -0.09689375
0.0057375324 -0.08525837 0.00296411 0.11532215 0.06851682 -0.014498529 -0.03399701 -0.02385132
0.08460911 -0.043879107 0.09431581 0.028041612 -0.0668977 0.10325043 -0.03299922 0.04959095
0.035701055 -0.032166988 -0.10757247 -0.1125171 -0.08896639 0.009516846 0.110955246 0.028624425
-0.10590023 0.01941758 -0.07246251 -0.09608682 -0.048801173 -0.12173642 0.038659826 0.09582051
0.007044386 0.08057868 0.033891954 0.054168943 -0.10395478 0.051298447 -0.0020169846 0.03615273
-0.052530304 -0.11037936 -0.06845327 0.00130184 0.0068514827 0.012593933 -0.08621198 -0.07646839
0.030634206 0.071108945 0.0013795961 0.06919161 -0.07494426 -0.014266871 -0.09509884 -0.11757685
0.073343106 -0.070129104 -0.0005563657 0.044039212 -0.06128576 -0.069967315 0.08530363 -0.03248447
0.061546855 0.1101954 0.098456316 -0.08066231 0.06485024 -0.06979577 -0.05001543 -0.04434701
0.08426526 -0.053339805 0.055588983 -0.06887077 -0.07485683 0.12177544 0.0829652 0.09793225
0.042311493 0.09444883 -0.09891234 -0.09819774 0.04758253 -0.068333045 0.038281817 -0.104110256
0.053298265 -0.07819973 0.012967234 -0.10156002 -0.013811383 0.042064138 -0.026940756 0.11346878
-0.12191741 0.102415256 -0.047383253 0.10135835 0.121947326 -0.09672564 0.038925815 -0.084341094
0.02560563 -0.018388426 -0.11165428 0.020507367 -0.03333237 -0.017195934 0.097085096 0.12462205
0.086114764 0.07432428 0.08843205 -0.09757021 -0.0036785672 -0.016884236 0.063891016 0.020441009
-0.1075048 -0.10068325 0.005105782 0.016383694 -0.101542644 -0.09754252 0.033220384 0.0052164695
0.014500837 -0.056204453 0.015339632 -0.10124602 0.08802109 -0.082415484 -0.010077149 0.018590162
-0.06305584 0.0073009385 -0.066647686 0.014419073 -0.018165046 -0.015405564 0.053363334 -0.10699402
-0.03253483 0.034483176 0.07902217 -0.02907851 0.043923642 0.030609356 0.0039029254 0.07161095
00000000: e889 46bd 6def 8a3c a304 4d3d a394 cc3d
00000010: fed8 183d 03c8 a5bd bb71 8b3c b7b8 1a3d
00000020: 3480 74bd 7183 9c3d a88e c5bd 8fac 4a3d
00000030: d96d 16bc 3527 d4bd e823 eb3d 7074 22bd
00000040: fefa c6bd 7691 2d3c ed70 f63d be29 e3bd
00000050: 3418 96bd f053 cfbd f475 b9bd e0e4 04bc
00000060: 88a9 fbbb 9e33 913d 42cb 933d 5175 dcbd
00000070: a2de d8bc a9f2 dfbd b286 e33c 8f70 bfbc
00000080: 4269 44bd cd53 9f3d efcc d93d 5c14 253c
00000090: bf5c 75ba bff9 e03d 97d9 a7bd 5cab 353d
000000a0: 70a9 163b 8507 9b3c 8e82 663c 4398 943d
000000b0: 1fd7 c53d 0766 d43d 1860 dc3d c176 f23c
000000c0: e26a fcbb 1df1 933d b8ec cfbd c291 ae3c
000000d0: b699 b93d c065 80b6 4690 f8bd d9d7 cb3c
000000e0: 746d df3d c86b 9f3d e0a3 913c d052 e23d
000000f0: 8f07 4c3d 3d44 633d 3cf5 9f3d f8d2 fe3c
00000100: c1c7 91bc e3ea 5e3d 203f b63a 1268 fc3d
00000110: 719a e43d fa2b a83b 06bd 9a3c a709 d1bd
00000120: 4ce7 cd3c 5078 d23d b83c 59bd cef4 c7bd
00000130: be61 42bd fd91 3a3d 6142 2c3c 453f 10bd
00000140: 4477 e23d f335 79bd fdfd 9e3d d31b f1bd
00000150: 16ee e83d e1e9 b4bd 27e0 84bd 4803 ca3d
00000160: 0cfe efbd bb5c 483d 553d ccbd bc47 ef3d
00000170: 2ed8 e6bd 3c33 1d3d fb5d 093d 6133 643d
00000180: 0c46 b6bd 50e2 0bbd 870d e9bd 6067 793d
00000190: 0c55 e73c 1cfb 89bd 81c7 273d 3b70 c6bd
000001a0: e901 bc3b f19b aebd 8441 423b 052e ec3d
000001b0: 8c52 8c3d 3d8b 6dbc 7340 0bbd d863 c3bc
000001c0: 8b47 ad3d 94ba 33bd a628 c13d 86b7 e53c
000001d0: a901 89bd f674 d33d 312a 07bd e11f 4b3d
000001e0: 453b 123d 88c1 03bd f54e dcbd 5e6f e6bd
000001f0: 0334 b6bd 8cec 1b3c 813c e33d c57d ea3c
00000200: 38e2 d8bd 9e11 9f3c 3967 94bd 2bc9 c4bd
00000210: bde3 47bd f250 f9bd c459 1e3d 8b3d c43d
00000220: 98d4 e63b 6f06 a53d 4ad2 0a3d 41e0 5d3d
00000230: 3ee6 d4bd 521e 523d 632f 04bb e314 143d
00000240: 042a 57bd 930e e2bd 3a31 8cbd 80a2 aa3a
00000250: 6782 e03b c956 4e3c e88f b0bd 769b 9cbd
00000260: 96f4 fa3c 91a1 913d 90d3 b43a 55b4 8d3d
00000270: 607c 99bd 98bf 69bc 2ec3 c2bd 22cc f0bd
00000280: e934 963d d99f 8fbd 12d9 11ba 7662 343d
00000290: c706 7bbd 064b 8fbd abb3 ae3d 700e 05bd
000002a0: 8e18 7c3d 20ae e13d 77a3 c93d 4832 a5bd
000002b0: 34d0 843d 16f1 8ebd fbdc 4cbd 36a5 35bd
000002c0: 4493 ac3d d77a 5abd 46b1 633d 1e0c 8dbd
000002d0: 8a4e 99bd 6765 f93d a9e9 a93d b490 c83d
000002e0: d14e 2d3d 636e c13d 8e92 cabd e61b c9bd
000002f0: e6e5 423d 32f2 8bbd 65cd 1c3d c237 d5bd
00000300: 484f 5a3d 2e27 a0bd 8574 543c b3fe cfbd
00000310: 2449 62bc 724b 2c3d dcb2 dcbc 5262 e83d
00000320: d6af f9bd 17bf d13d f114 42bd f794 cf3d
00000330: 85bf f93d 1818 c6bd ad70 1f3d 06bb acbd
00000340: e6c2 d13c 53a3 96bc 00ab e4bd 11ff a73c
00000350: 8687 08bd 7dde 8cbc 8dd4 c63d d839 ff3d
00000360: f05c b03d 5437 983d dd1b b53d e4d2 c7bd
00000370: 1e14 71bb cf50 8abc 4bd9 823d e773 a73c
00000380: 7a2b dcbd 0533 cebd 674e a73b 1937 863c
00000390: 97f5 cfbd 5fc4 c7bd 1912 083d ebee aa3b
000003a0: eb94 6d3c a436 66bd 1453 7b3c 135a cfbd
000003b0: 6744 b43d 73c9 a8bd a01a 25bc 654a 983c
000003c0: 6c23 81bd b63c ef3b 957e 88bd fa3d 6c3c
000003d0: ddce 94bc 9e67 7cbc 8393 5a3d ae1f dbbd
000003e0: 3e43 05bd 3b3e 0d3d 60d6 a13d 0e36 eebc
000003f0: 47e9 333d 79c0 fa3c 39c8 7f3b c3a8 923d

weight_hh_l0 f4 [192, 64]
-0.058313627 -0.0118691055 -0.041479837 -0.046914395 -0.062002335 -0.082281455 -0.07644581 -0.0946241
-0.036913764 -0.09309013 0.07879724 -0.023165407 -0.06757471 -0.004636882 0.024704482 0.05815342
-0.11977383 -0.096679054 0.11388462 0.06325446 -0.10574376 -0.092819706 0.12154981 0.0715058
-0.07582875 0.028100736 -0.10089353 0.019954722 0.09741507 -0.067915164 0.040792424 0.032640237
0.1152011 -0.07350988 0.03631591 -0.007592269 -0.08172069 -0.038511433 -0.124714494 0.041549265
0.03305197 -0.011687365 0.05787667 0.025980832 0.09114616 0.04571081 -0.09024723 -0.048795454
-0.036735334 0.052678492 0.051640574 -0.039174154 0.052553214 0.04326259 0.047213778 0.012960001
-0.029307857 0.049165405 -0.10493663 -0.0006048411 0.05246652 -0.10388947 0.04686972 0.04858462
0.020373316 0.08843317 0.07381132 -0.07940331 -0.07378348 -0.005362724 0.062605575 -0.02730732
-0.035451118 -0.10571019 0.11322335 0.08567479 0.026288388 -0.067867726 0.070109814 -0.11964614
0.026831573 -0.09140595 -0.068925604 -0.047534067 0.059703864 -0.08943104 -0.10381808 -0.041654296
-0.017916128 0.06453142 -0.017907115 0.009158147 -0.10169338 -0.07608194 -0.072641626 -0.113864586
-0.09959716 -0.0723096 0.052 -0.06797245 0.08163121 -0.05798492 0.106219746 -0.1040422
0.022052057 -0.055198546 0.039526787 -0.102366455 -0.02140981 -0.07630234 0.05551715 -0.115757056
-0.04621025 -0.022113811 0.02342777 0.09819056 -0.029197691 -0.0671781 -0.06674853 0.1232072
-0.11330099 -0.0031730528 -0.113629945 0.033566047 -0.07189455 0.10849915 0.08442307 -0.071901314
-0.065632604 0.054362547 0.045046866 0.028877199 -0.10178723 0.045831297 -0.047987837 0.038384367
-0.08397418 -0.04576493 0.03275397 -0.08242918 0.030083675 -0.07209883 0.018894648 0.07466347
0.054985702 -0.03958587 0.077483915 0.049712617 -0.009675977 -0.1019189 -0.11391822 0.09852394
-0.09366205 0.113633476 -0.11491915 0.019786926 -0.08565394 0.07126059 -0.11792859 0.11297379
0.009707095 0.041420512 -0.11040091 0.019376619 0.013998502 0.07957738 -0.09461041 0.066218846
-0.0425995 0.082674004 -0.035329234 -0.010497105 0.114469744 -0.012044249 -0.025087973 0.095864795
-0.08383728 -0.034018688 -0.07498136 0.027573429 -0.0020695506 -0.0921773 -0.037099108 0.04102312
-0.029560717 0.11775546 -0.06777868 -0.06456714 0.055396974 -0.0441095 0.10289108 -0.09418803
0.043162953 0.124093115 -0.055791974 0.00045874817 -0.07205067 -0.04241464 -0.01601451 -0.045162324
-0.085895844 0.123068035 -0.0047453893 -0.08124224 -0.02025018 0.07429922 0.023497812 -0.070537396
-0.040073108 0.07686876 0.035332236 -0.053913333 0.09703006 0.03828712 -0.06855039 0.038787458
-0.094225444 0.0641459 -0.038968287 -0.08104629 0.02037028 0.033288576 0.12067037 0.042741783
0.022935566 0.09353899 -0.07133025 -0.006046977 0.08236636 -0.041549977 0.12078715 0.07459852
0.055965535 0.09667451 -0.072376244 -0.1132355 -0.10988774 0.09518794 -0.0853561 0.111349046
0.10712578 0.015572214 -0.120051555 -0.11568632 -0.08254502 0.03095903 0.07172757 0.07587176
-0.101016685 -0.099163614 -0.011443683 0.12080937 0.12045414 0.06658952 0.071472675 -0.0015999787
00000000: 45da 6ebd a376 42bc c3e6 29bd 4f29 40bd
00000010: 29f6 7dbd 2e83 a8bd 9f8f 9cbd 48ca c1bd
00000020: e332 17bd 0aa6 bebd 7360 a13d 61c5 bdbc
00000030: 9c64 8abd fcf0 97bb 0e61 ca3c 4832 6e3d
00000040: fb4b f5bd abff c5bd 573c e93d 8e8b 813d
00000050: 2f90 d8bd 4218 bebd 1bef f83d a271 923d
00000060: 1b4c 9bbd 8433 e63c 44a1 cebd 1678 a33c
00000070: 8d81 c73d 1b17 8bbd f515 273d c5b1 053d
00000080: 8eee eb3d 598c 96bd febf 143d 92c8 f8bb
00000090: 2d5d a7bd 2abe 1dbd 506a ffbd 902f 2a3d
000000a0: 8161 073d 5d7c 3fbc 1610 6d3d c1d5 d43c
000000b0: d7aa ba3d 423b 3b3d 8ad3 b8bd bedd 47bd
000000c0: ca77 16bd 67c5 573d 1185 533d 1475 20bd
000000d0: 0a42 573d 1d34 313d 3c63 413d 2f56 543c
000000e0: 0817 f0bc aa61 493d 04e9 d6bd 338e 1eba
000000f0: 22e7 563d 01c4 d4bd 77fa 3f3d ab00 473d
00000100: f1e5 a63c 731c b53d 642a 973d 349e a2bd
00000110: cb1b 97bd cab9 afbb 5a37 803d 9ab3 dfbc
00000120: 3135 11bd 967e d8bd a5e1 e73d 4476 af3d
00000130: bf5a d73c 3cfe 8abd bc95 8f3d 0909 f5bd
00000140: e3cd db3c 0b33 bbbd de28 8dbd 15b3 42bd
00000150: 0a8c 743d 9f27 b7bd 939e d4bd b29d 2abd
00000160: d8c4 92bc 0d29 843d f1b1 92bc 0d0c 163c
00000170: 9e44 d0bd d9d0 9bbd 22c5 94bd d631 e9bd
00000180: 99f9 cbbd 0e17 94bd f4fd 543d 2435 8bbd
00000190: 442e a73d 9881 6dbd bd89 d93d 1414 d5bd
000001a0: 84a6 b43c df17 62bd d7e6 213d 81a5 d1bd
000001b0: a063 afbc 6744 9cbd f365 633d 0912 edbd
000001c0: f646 3dbd 0628 b5bc 98eb bf3c 2218 c93d
000001d0: ff2f efbc ac94 89bd 74b3 88bd 0e54 fc3d
000001e0: 590a e8bd fef2 4fbb d1b6 e8bd 8d7c 093d
000001f0: 733d 93bd cd34 de3d 01e6 ac3d ff40 93bd
00000200: 636a 86bd 43ab 5e3d 1083 383d e08f ec3c
00000210: d375 d0bd 99b9 3b3d e58e 44bd ed38 1d3d
00000220: a8fa abbd 0274 3bbd 0729 063d a1d0 a8bd
00000230: 0a72 f63c 8da8 93bd f3c8 9a3c 29e9 983d
00000240: b038 613d cb24 22bd e3af 9e3d 759f 4b3d
00000250: fd87 1ebc dbba d0bd f54d e9bd ebc6 c93d
00000260: e4d1 bfbd abb8 e83d bb5a ebbd 3118 a23c
00000270: 556b afbd 12f1 913d 8b84 f1bd cd5e e73d
00000280: 820a 1f3c 8ea8 293d df19 e2bd b7bb 9e3c
00000290: f959 653c 77f9 a23d 1ac3 c1bd bf9d 873d
000002a0: d07c 2ebd fd50 a93d 63b5 10bd 0dfc 2bbc
000002b0: 1d6f ea3d 3e55 45bc 4b85 cdbc c354 c43d
000002c0: e1b2 abbd 2e57 0bbd d48f 99bd ace1 e13c
000002d0: 4ca1 07bb 74c7 bcbd 3cf5 17bd dc07 283d
000002e0: 5129 f2bc c629 f13d 8ccf 8abd c73b 84bd
000002f0: f0e7 623d 2aac 34bd 8fb8 d23d a7e5 c0bd
00000300: a3cb 303d 8824 fe3d 2086 64bd 2384 f039
00000310: 4d8f 93bd f9ba 2dbd dd30 83bc 21fc 38bd
00000320: 29ea afbd 180b fc3d 367f 9bbb 5562 a6bd
00000330: b5e3 a5bc 312a 983d 7c7e c03c e975 90bd
00000340: b323 24bd 5e6d 9d3d 89b8 103d 3ad4 5cbd
00000350: b2b7 c63d f5d2 1c3d 2664 8cbd 99df 1e3d
00000360: 45f9 c0bd ed5e 833d 369d 1fbd 99fb a5bd
00000370: 93df a63c 9a59 083d 0722 f73d 0212 2f3d
00000380: 5ee3 bb3c 5f91 bf3d 9815 92bd b825 c6bb
00000390: b2af a83d 4f30 2abd 415f f73d 1cc7 983d
000003a0: 1e3c 653d 49fd c53d ff39 94bd 04e8 e7bd
000003b0: d30c e1bd e5f1 c23d 2ecf aebd f80a e43d
000003c0: c364 db3d 9922 7f3c 97dd f5bd f3ec ecbd
000003d0: 5d0d a9bd cb9d fd3c e7e5 923d a762 9b3d
000003e0: d6e1 cebd 4b16 cbbd 497e 3bbc e76a f73d
000003f0: a9b0 f63d 1660 883d 4460 923d 60b6 d1ba

bias_ih_l0 f4 [192]
-0.05952411 0.093996994 0.12454004 0.03969901 0.04729544 0.028838443 -0.034623254 -0.020223912
-0.053200264 -0.06973534 -0.014417968 0.122469366 -0.013470146 0.08808441 0.05480289 0.062283237
-0.0027213285 0.06386733 -0.024011454 0.017723192 -0.080526076 -0.09261246 -0.047043096 -0.05982977
0.014291186 0.06813389 -0.103481755 0.066054955 0.06260786 -0.05169374 -0.038760044 0.066924304
0.072020374 -0.11676803 -0.021901963 0.11069932 -0.07635827 -0.103925645 -0.10011282 0.024953403
0.04496644 0.073680185 -0.00040864118 -0.004257982 -0.03075569 0.12000534 -0.087055735 -0.10395166
0.11635451 -0.11249471 0.11613348 -0.028959798 0.10072094 -0.0651784 -0.07885908 -0.07625111
0.10736698 0.04929828 0.111243166 0.08943539 -0.11418477 -0.055711072 0.04757579 -0.03488775
-0.0032275252 -0.09766149 0.004454527 -0.094930805 -0.054522462 -0.08380796 -0.08951003 -0.0139066605
0.05413477 -0.07196822 -0.05171819 -0.10883877 -0.09933806 0.109548956 -0.100898564 -0.086313345
0.033327032 0.067774095 0.07576287 0.09907041 0.0034242135 -0.054132137 0.022723839 -0.044931244
0.022698501 -0.07526486 -0.091039084 -0.11946237 -0.11109485 0.06626391 0.035450112 0.05581822
-0.06265413 0.04771261 0.057057682 0.057236295 0.05873881 0.06441915 0.012368126 0.09630465
0.10209245 -0.02008178 0.10710032 0.031921178 -0.09771947 0.06275508 0.061714355 -0.03624457
-0.085502386 0.08170762 0.042775925 0.07931101 -0.02026079 -0.10019658 0.022491226 -0.09832371
-0.017024798 -0.11185605 -0.046256885 -0.08255673 -0.1206895 6.75863e-05 0.10577131 -0.0786393
-0.10937955 0.050745174 0.023658123 -0.057184625 -0.048899196 0.09416526 0.03829977 0.04918646
0.035220638 -0.10815239 -0.014232361 -0.05121328 -0.091181956 -0.08186388 0.11999836 0.037987836
0.0032013312 0.0353652 0.058830526 -0.10419189 0.10907762 -0.038983766 -0.08906897 0.07886497
-0.051532567 -0.049135618 0.020242278 -0.08131562 0.03947939 -0.12172795 -0.025032185 -0.097914055
0.07153779 0.05180037 0.023349473 0.08121736 0.013254276 -0.032768827 -0.09589029 -0.08529139
-0.012183122 0.048153408 -0.11013243 -0.026145423 0.1097915 -0.017813502 -0.10637791 -0.11640266
-0.08462207 -0.05845257 -0.02998243 -0.014516127 0.06365755 0.07384679 0.04775517 0.0023067857
-0.120287225 0.05164113 0.0152105875 -0.0068980874 0.1219195 -0.06770851 -0.0010416404 0.09870146
00000000: 8ecf 73bd 7f81 c03d d90e ff3d 6e9b 223d
00000010: ddb8 413d 993e ec3c 1dd1 0dbd 9eac a5bc
00000020: 85e8 59bd 67d1 8ebd 5739 6cbc 38d1 fa3d
00000030: e3b1 5cbc 9965 b43d ff78 603d b51c 7f3d
00000040: 5158 32bb e0cc 823d abb3 c4bc 3a30 913c
00000050: dbea a4bd 9aab bdbd 43b0 40bd 1010 75bd
00000060: 9425 6a3c c889 8b3d 3eee d3bd d247 873d
00000070: 8d38 803d d1bc 53bd dac2 1ebd 9c0f 893d
00000080: 6b7f 933d 1424 efbd bf6b b3bc 53b6 e23d
00000090: ba61 9cbd f8d6 d4bd f307 cdbd 146b cc3c
000000a0: bb2e 383d a3e5 963d e43e d6b9 8b86 8bbb
000000b0: 5bf3 fbbc 5cc5 f53d 474a b2bd 9ce4 d4bd
000000c0: 464b ee3d a063 e6bd 64d7 ed3d 193d edbc
000000d0: c846 ce3d 417c 85bd df80 a1bd 8b29 9cbd
000000e0: 38e3 db3d feec 493d 75d3 e33d e729 b73d
000000f0: b4d9 e9bd 4b31 64bd d5de 423d 75e6 0ebd
00000100: e384 53bb bf02 c8bd 48f7 913b 156b c2bd
00000110: f252 5fbd 82a3 abbd 0951 b7bd c3d8 63bc
00000120: 6cbc 5d3d 1364 93bd 74d6 53bd dce6 debd
00000130: c171 cbbd 345b e03d e8a3 cebd 0dc5 b0bd
00000140: ed81 083d 25cd 8a3d 9029 9b3d 6de5 ca3d
00000150: c568 603b a9b9 5dbd 5827 ba3c d309 38bd
00000160: 35f2 b93c 7724 9abd b372 babd b0a8 f4bd
00000170: b285 e3bd 5fb5 873d 2334 113d a5a1 643d
00000180: cf50 80bd 4c6e 433d 51b5 693d 9b70 6a3d
00000190: 1b98 703d 30ee 833d aea3 4a3c 5f3b c53d
000001a0: d915 d13d 8c82 a4bc 6a57 db3d c8bf 023d
000001b0: 2521 c8bd bc85 803d 31c8 7c3d 3075 14bd
000001c0: e01b afbd 5356 a73d cf35 2f3d d06d a23d
000001d0: f5f9 a5bc dd33 cdbd 853f b83c f15d c9bd
000001e0: 9777 8bbc c914 e5bd dc77 3dbd 8113 a9bd
000001f0: 0e2c f7bd 1ebd 8d38 a19e d83d a40d a1bd
00000200: 6302 e0bd 2cda 4f3d aece c13c 6d3a 6abd
00000210: 864a 48bd b7d9 c03d 38e0 1c3d be77 493d
00000220: 8443 103d 007f ddbd d92e 69bc 04c5 51bd
00000230: 9bbd babd 40a8 a7bd b3c1 f53d 2299 1b3d
00000240: 6dcd 513b 1adb 103d 47f8 703d 8f62 d5bd
00000250: 1664 df3d 71ad 1fbd cb69 b6bd f583 a13d
00000260: d013 53bd 6e42 49bd 22d3 a53c ce88 a6bd
00000270: 24b5 213d 814c f9bd 4c10 cdbc 2a87 c8bd
00000280: 6882 923d a02c 543d 6547 bf3c 4a55 a63d
00000290: 7628 593c 9b38 06bd 2162 c4bd 41ad aebd
000002a0: b89b 47bc 823c 453d 1d8d e1bd ed2e d6bc
000002b0: 5eda e03d 9fed 91bc a9dc d9bd 8564 eebd
000002c0: 564e adbd f66b 6fbd b79d f5bc 0dd5 6dbc
000002d0: e45e 823d fc3c 973d ed9a 433d 712d 173b
000002e0: 2659 f6bd a685 533d d435 793c 5a09 e2bb
000002f0: eeb0 f93d c2aa 8abd a787 88ba fe23 ca3d

bias_hh_l0 f4 [192]
0.06568333 0.07415574 0.051814724 -0.11816462 -0.11656684 0.00035286747 -0.05948918 -0.09156423
-0.04886708 0.044441078 0.05871113 0.10675887 0.052343424 0.08928228 0.10732121 -0.12490835
0.0038623784 -0.04911726 -0.03245785 -0.08938147 -0.09684915 -0.008146149 0.10871315 0.055894926
0.027560204 -0.0049238205 0.025009675 -0.007179992 -0.11733406 0.036800276 -0.121813126 0.09218249
-0.024931021 0.101863265 -0.041697714 -0.0023403473 -0.07337092 -0.034032583 0.008646073 -0.07875554
0.013790401 -0.10409763 -0.077075236 0.06774417 0.0037485592 0.011723761 -0.058112178 -0.06798676
-0.052993197 -0.011766455 0.048973672 -0.027713167 -0.007438599 0.090989836 0.015747907 -0.0048417733
-0.06113095 -0.07186652 -0.039778296 -0.115319885 0.021543808 0.092299566 -0.12136718 0.12282527
-0.07128513 0.072650604 -0.10195434 0.02870921 0.079936236 0.06353707 -0.09418311 -0.0904503
0.06301738 0.061479796 0.06328254 -0.010386584 -0.048903435 -0.046333555 0.03192492 -0.079719625
0.045685142 0.058406174 0.059522387 0.012094281 -0.08908297 0.10142324 0.1208462 0.11224093
-0.0670059 0.10352122 0.026986279 0.07430287 0.09385368 -0.02764987 -0.11372615 -0.06453676
0.049433045 0.10084372 0.07359158 -0.030191526 0.09556654 -0.07816518 0.07901097 0.0010282364
-0.06325593 0.12232601 -0.031494543 -0.074434824 0.04725093 0.07532157 0.06029551 -0.035182282
0.112668574 -0.093183376 0.05809955 0.060197525 0.0897753 0.107974775 0.041203506 0.00023425197
0.085901566 0.04553036 -0.1106612 0.006889539 -0.109506294 -0.06320254 -0.048191343 -0.09031762
-0.05157869 0.08537826 -0.016265288 0.100861154 -0.0035546157 0.12101572 0.009353494 -0.07007296
0.06122807 -0.047620673 -0.08117887 0.06707102 0.05386722 -0.06305313 0.011547947 0.109403
0.106997795 -0.009983135 -0.035960354 0.103065826 0.044534672 0.060785513 -0.12055702 -0.031268895
0.06169663 0.054915905 -0.036982954 -0.032679293 -0.004692633 -0.11021703 -0.11286947 0.039811645
0.110648006 0.06690839 0.09670418 -0.075552225 -0.07995273 0.060152505 0.011246878 -0.059557356
0.06147193 -0.10704799 -0.039408408 0.106374405 0.0721496 -0.052511953 0.030840993 0.083820395
0.106210366 -0.12013285 0.078359224 -0.11733969 0.05559358 0.11579348 -0.023528915 -0.0006242471
0.084083796 0.014025799 0.081980705 -0.07621108 0.09151116 -0.11314758 -0.08730703 -0.08889091
00000000: fb84 863d f7de 973d ad3b 543d 4b00 f2bd
00000010: 98ba eebd 1201 b939 edaa 73bd 0786 bbbd
00000020: d928 48bd d907 363d 157b 703d 65a4 da3d
00000030: 0f66 563d a1d9 b63d 39cb db3d f3cf ffbd
00000040: f51f 7d3b 2e2f 49bd 86f2 04bd a20d b7bd
00000050: d958 c6bd 6d77 05bc 00a5 de3d 14f2 643d
00000060: f0c5 e13c 0058 a1bb 17e1 cc3c 2346 ebbb
00000070: d74c f0bd e3bb 163d 2979 f9bd 2cca bc3d
00000080: 243c ccbc b09d d03d 39cb 2abd 8360 19bb
00000090: 7e43 96bd c065 0bbd 42a8 0d3c 964a a1bd
000000a0: 22f1 613c 2331 d5bd 9fd9 9dbd 75bd 8a3d
000000b0: 63aa 753b 0515 403c 0907 6ebd a43c 8bbd
000000c0: 650f 59bd 17c8 40bc 9e98 483d b906 e3bc
000000d0: 7ebf f3bb e158 ba3d c101 813c bda7 9ebb
000000e0: 7264 7abd c12e 93bd 91ee 22bd d52c ecbd
000000f0: a47c b03c 8e07 bd3d 5b8f f8bd d18b fb3d
00000100: f0fd 91bd d7c9 943d 70cd d0bd 942f eb3c
00000110: 9cb5 a33d b91f 823d 13e3 c0bd 023e b9bd
00000120: 420f 813d 3dd2 7b3d 479a 813d 7e2c 2abc
00000130: f84e 48bd 41c8 3dbd b4c3 023d 0b44 a3bd
00000140: 5820 3b3d 503b 6f3d bfcd 733d 1727 463c
00000150: 2271 b6bd fdb6 cf3d 367e f73d 93de e53d
00000160: 643a 89bd ef02 d43d 5412 dd3c 1a2c 983d
00000170: 5c36 c03d fb81 e2bc 41e9 e8bd d92b 84bd
00000180: 4e7a 4a3d 2787 ce3d 2fb7 963d 3854 f7bc
00000190: 64b8 c33d 1115 a0bd 81d0 a13d e3c5 863a
000001a0: 538c 81bd 0f86 fa3d 6c00 01bd 4971 98bd
000001b0: 318a 413d 3242 9a3d 6df8 763d 4c1b 10bd
000001c0: c8be e63d edd6 bebd cbf9 6d3d ae91 763d
000001d0: 1ddc b73d e121 dd3d 02c5 283d 89a1 7539
000001e0: 29ed af3d 0b7e 3a3d 57a2 e2bd a4c1 e13b
000001f0: d644 e0bd 5570 81bd 4964 45bd 72f8 b8bd
00000200: 2d44 53bd ccda ae3d c83e 85bc 4b90 ce3d
00000210: 8ef4 68bb 17d7 f73d 663f 193c 6982 8fbd
00000220: 49ca 7a3d e50d 43bd 1b41 a6bd 885c 893d
00000230: e0a3 5c3d 0022 81bd 9a33 3d3c ae0e e03d
00000240: a921 db3d 4e90 23bc 2a4b 13bd 2d14 d33d
00000250: fd69 363d 3bfa 783d 99e6 f6bd d013 00bd
00000260: 9bb5 7c3d 80ef 603d 707b 17bd b9da 05bd
00000270: a9c4 99bb 77b9 e1bd 1c28 e7bd 8911 233d
00000280: 6c9b e23d 4407 893d d70c c63d 20bb 9abd
00000290: 42be a3bd 7962 763d d344 383c 6af2 73bd
000002a0: fec9 7b3d fa3b dbbd b66a 21bd d3da d93d
000002b0: 2bc3 933d c616 57bd 40a6 fc3c 07aa ab3d
000002c0: d284 d93d 3608 f6bd cd7a a03d cb4f f0bd
000002d0: 18b6 633d 2225 ed3d b6bf c0bc 84a4 23ba
000002e0: 2034 ac3d 77cc 653c 80e5 a73d 8e14 9cbd
000002f0: 346a bb3d ebb9 e7bd 07ce b2bd 700c b6bd

weight f4 [2, 64]
0.039232913 0.074131645 -0.053226817 0.051267304 0.011367715 0.045670293 0.117168345 0.083963886
0.003034726 0.052525517 0.045711353 -0.04566473 -0.07644579 -0.042274088 -0.08974407 -0.088519394
-0.028459948 -0.041554194 0.024872005 -0.05830712 -0.06560388 -0.06418508 -0.015672557 0.012541434
-0.016016476 -0.08958584 -0.040269617 0.09306411 0.10528243 -0.00833958 0.051667187 0.05313497
0.04679581 0.11858739 -0.06612345 0.066023715 0.08366303 0.09530097 0.06283788 -0.08288801
-0.12063007 0.0324127 0.10132547 0.08012074 0.059898615 0.11627003 0.029260086 0.07778072
-0.10827449 0.05494309 -0.009493855 -0.048872706 0.04541044 -0.0060877446 -0.03672897 -0.12414252
0.0033962068 0.107713215 0.0013253037 0.03136331 0.0867489 0.07393626 0.08692869 0.11890545
-0.028629383 -0.054966357 -0.041158505 -0.04053649 -0.049722206 -0.09085087 0.054090686 -0.09833811
0.10046167 -0.06254033 0.053058088 -0.047905993 -0.0036631145 0.029923607 -0.08269951 -0.027244966
0.055599853 0.038107093 0.055772588 -0.07434119 0.09797608 -0.04644207 -0.06321197 0.076711826
-0.049040776 -0.017610682 -0.053763013 -0.014520725 -0.08968911 -0.012638509 0.015396462 0.03930282
0.11067564 0.02273337 -0.020331318 -0.06452804 -0.028816305 0.04184316 0.0056875492 0.11937414
0.0529222 0.030301834 -0.092758834 0.11835439 0.041191056 0.037514117 0.020955648 -0.08669816
-0.019690882 -0.04441883 -0.049429037 0.10731559 -0.086002536 -0.08797027 0.050279073 0.08120367
0.113794215 -0.08075034 -0.032590225 -0.027891157 -0.073645905 -0.052110802 -0.026605077 -0.07881064
00000000: b1b2 203d 55d2 973d 5d04 5abd aafd 513d
00000010: a73f 3a3c c610 3b3d f5f5 ef3d 42f5 ab3d
00000020: 41e2 463b ff24 573d d43b 3b3d f10a 3bbd
00000030: 9c8f 9cbd 9827 2dbd bdcb b7bd a849 b5bd
00000040: d624 e9bc bb34 2abd 60c0 cb3c 72d3 6ebd
00000050: 545b 86bd 7873 83bd bc63 80bc 967a 4d3c
00000060: fc34 83bc c878 b7bd c1f1 24bd 6598 be3d
00000070: 519e d73d bca2 08bc f9a0 533d 0ea4 593d
00000080: f7ac 3f3d f2dd f23d bb6b 87bd 7137 873d
00000090: 8657 ab3d 282d c33d 25b1 803d 30c1 a9bd
000000a0: e60c f7bd 2ec3 043d ba83 cf3d 5816 a43d
000000b0: 4058 753d fb1e ee3d d9b2 ef3c 804b 9f3d
000000c0: 04bf ddbd 010c 613d 1d8c 1bbc bf2e 48bd
000000d0: 4c00 3a3d b47b c7bb 1e71 16bd 6f3e febd
000000e0: e592 5e3b bf98 dc3d d0b5 ad3a d076 003d
000000f0: 68a9 b13d e56b 973d ab07 b23d b384 f33d
00000100: 2b88 eabc 6724 61bd d295 28bd 9709 26bd
00000110: 83a9 4bbd 0510 babd 328e 5d3d 7e65 c9bd
00000120: d9be cd3d 2515 80bd 7053 593d 1339 44bd
00000130: dd10 70bb 5a22 f53c 5c5e a9bd d630 dfbc
00000140: acbc 633d 2f16 1c3d cc71 643d 3240 98bd
00000150: afa7 c83d 0a3a 3ebd 4775 81bd 171b 9d3d
00000160: fbde 48bd 4744 90bc 9b36 5cbd 56e8 6dbc
00000170: edae b7bd c011 4fbc 7141 7c3c fefb 203d
00000180: e9a9 e23d 553b ba3c dd8d a6bc 4727 84bd
00000190: 2c10 ecbc bc63 2b3d 9f5e ba3b 6e7a f43d
000001a0: f3c4 583d 8d3b f83c 58f8 bdbd c963 f23d
000001b0: f4b7 283d 67a8 193d 2eab ab3c ce8e b1bd
000001c0: c64e a1bc 85f0 35bd 1a76 4abd 47c8 db3d
000001d0: 1922 b0bd c229 b4bd 6ef1 4d3d 1c4e a63d
000001e0: f10c e93d 6f60 a5bd 547d 05bd ff7b e4bc
000001f0: aad3 96bd 2372 55bd e4f2 d9bc 7967 a1bd

bias f4 [2]
0.057876766 -0.02600479
00000000: 3010 6d3d ff07 d5bc

weight_ih_l0 f4 [192, 66]
-0.021838486 -0.07535809 0.081913665 0.0077571813 -0.04105457 0.028114345 0.068930306 -0.067557
-0.0012238047 0.024220068 0.11801929 0.08481606 -0.00789681 0.11686759 0.096313514 0.11515969
-0.03242271 0.010003179 -0.004704011 -0.12037204 -0.009375466 0.070755176 -0.10963185 -0.1251386
-0.021632176 0.11148348 -0.035975732 -0.075214505 0.019859862 -0.046573777 0.087518126 -0.042500842
-0.08661639 0.09880079 -0.070839 -0.00872918 0.11741362 -0.0493884 0.03127319 -0.04794906
0.0026090385 0.07133032 -0.10832513 -0.12488147 -0.11656067 0.12394305 -0.07806334 0.06893449
0.1127969 0.09141111 -0.07241042 -0.01948265 -0.115284055 0.11960757 -0.0697722 -0.11378369
-0.025519827 -0.04080965 -0.013214368 -0.1189333 -0.07654335 0.112336114 0.10078003 0.08667664
-0.038989004 0.0023666418 0.10994702 0.091484584 0.045447703 -0.1059558 0.06970966 -0.021314435
-0.11017611 0.020244472 0.13801694 -0.085655 -0.03393046 0.045878656 0.045616336 -0.05819481
-0.10406298 0.0068093287 -0.12826872 -0.06860759 -0.08100236 -0.02987094 -0.08375935 -0.04285006
-0.028872445 -0.07259074 -0.029442161 -0.07947087 -0.083536774 -0.05752411 -0.11392954 0.10972899
-0.049847618 -0.00041248614 -0.09760162 0.08099286 -0.108104326 -0.030555405 -0.02258056 0.12152459
-0.04357977 0.0868187 -0.09118957 -0.11605673 0.09157834 0.016710095 -0.022113519 0.08082118
0.14666817 -0.007913213 -0.072335444 0.0700853 -0.055954725 0.04219481 0.033160187 -0.016378023
0.097357795 -0.037999157 0.068875164 -0.039640933 -0.11088167 0.016322313 -0.018483914 0.06565379
0.028637743 0.009788033 -0.06993186 0.09156413 -0.10997718 0.05310052 0.06586069 0.1439691
0.08470782 -0.047771893 0.12298059 0.11600181 0.12749328 0.057674356 0.096357994 0.057991188
0.09721779 0.040193014 -0.111000456 0.07758696 -0.04160301 0.07969317 0.061743077 0.023350826
0.11824274 0.06434891 0.11933747 0.0053811134 -0.060278654 -0.12099253 -0.0711973 -0.08135763
0.038439494 0.03172085 0.013742568 -0.06235039 0.00016166156 0.045867536 -0.14157678 0.053226948
-0.120573066 0.019534275 0.009206352 0.10221405 -0.09084446 -0.0158694 0.052367475 -0.071028076
0.07983361 -0.060336925 0.052725025 -0.037668657 0.024150679 -0.080539905 -0.036486264 -0.073182024
0.013020958 0.050458882 0.054662425 0.1248496 0.074378446 -0.085653536 0.049328137 -0.02933201
-0.052450053 -0.1405639 -0.07357614 0.092427246 0.033028774 0.13592234 -0.017007312 -0.00033783572
0.113591865 -0.11361956 0.058643363 0.11554693 0.0014679685 -0.09370845 0.008823666 -0.04110173
0.0791681 0.0039611524 0.06316147 -0.047589567 -0.07070356 -0.09848097 -0.1251752 -0.04653262
0.07361776 -0.055459056 0.12726381 0.03678636 0.044351432 0.09093731 -0.014466077 0.02357192
0.098016664 -0.071898185 -0.11025732 -0.08296627 0.07722042 0.062000986 0.11419228 -0.016196301
0.0144791985 -0.022109883 0.047475792 0.08713245 0.08159274 0.010261667 -0.09128196 0.071506284
-0.044559475 0.07305518 0.09823401 0.082058735 0.14109725 0.107303925 -0.10292569 -0.105336756
-0.0028234262 -0.020291155 0.05237827 -0.02269935 0.0018713007 0.019579863 -0.025802977 -0.12143386
00000000: a0e6 b2bc 5855 9abd 5ac2 a73d f42f fe3b
00000010: d628 28bd 0e50 e63c 552b 8d3d 535b 8abd
00000020: 1268 a0ba 2a69 c63c 19b4 f13d 0bb4 ad3d
00000030: 9f61 01bc 4658 ef3d 0540 c53d d8d8 eb3d
00000040: adcd 04bd 60e4 233c 1b24 9abb 9e85 f6bd
00000050: 8e9b 19bc 17e8 903d aa86 e0bd 5524 00be
00000060: f635 b1bc 7351 e43d 4a5b 13bd 100a 9abd
00000070: 26b1 a23c 25c4 3ebd b43c b33d 5d15 2ebd
00000080: ef63 b1bd 1258 ca3d 0a14 91bd d604 0fbc
00000090: 8d76 f03d 7e4b 4abd 5118 003d 3c66 44bd
000000a0: 67fc 2a3b a115 923d 91d9 ddbd dbc1 ffbd
000000b0: 5cb7 eebd dbd5 fd3d acdf 9fbd 872d 8d3d
000000c0: 1002 e73d bf35 bb3d ea4b 94bd 149a 9fbc
000000d0: 0c1a ecbd d0f4 f43d bae4 8ebd 6c07 e9bd
000000e0: f50e d1bc 0528 27bd 1481 58bc 4d93 f3bd
000000f0: c3c2 9cbd 7a10 e63d c365 ce3d 8683 b13d
00000100: efb2 1fbd a919 1b3b e72b e13d 455c bb3d
00000110: 5f27 3a3d 5bff d8bd f0c3 8e3d 9c9b aebc
00000120: 03a4 e1bd bcd7 a53c 5054 0d3e e36b afbd
00000130: abfa 0abd 42eb 3b3d 32d8 3a3d ae5d 6ebd
00000140: f91e d5bd ca20 df3b e058 03be 2382 8cbd
00000150: 91e4 a5bd e7b3 f4bc 068a abbd 8b83 2fbd
00000160: e885 ecbc 74aa 94bd b030 f1bc a0c1 a2bd
00000170: 5415 abbd 679e 6bbd e453 e9bd 98b9 e03d
00000180: 042d 4cbd f442 d8b9 5ce3 c7bd 96df a53d
00000190: cd65 ddbd 544f fabc defa b8bc e2e1 f83d
000001a0: b380 32bd 01ce b13d 99c1 babd 27af edbd
000001b0: 6d8d bb3d 9ce3 883c 6927 b5bc 9385 a53d
000001c0: 2e30 163e 6ca6 01bc 9b24 94bd e288 8f3d
000001d0: c830 65bd 77d4 2c3d fad2 073d 342b 86bc
000001e0: 8663 c73d 01a5 1bbd 6c0e 8d3d 885e 22bd
000001f0: ee15 e3bd 5fb6 853c 946b 97bc 7f75 863d
00000200: b399 ea3c fc5d 203c 6f38 8fbd f985 bb3d
00000210: b73b e1bd ee7f 593d f8e1 863d a36c 133e
00000220: 4b7b ad3d 76ac 43bd 3fdd fb3d 5b92 ed3d
00000230: 998d 023e f23b 6c3d 5757 c53d 2b88 6d3d
00000240: 1f1a c73d 6ea1 243d 3554 e3bd e9e5 9e3d
00000250: eb67 2abd 2c36 a33d 4fe6 7c3d 3b4a bf3c
00000260: 4029 f23d 5cc9 833d 3467 f43d 0d54 b03b
00000270: c0e6 76bd eeca f7bd e4cf 91bd d49e a6bd
00000280: bb72 1d3d b9ed 013d 8228 613c 1f63 7fbd
00000290: b283 2939 99df 3b3d 81f9 10be 8004 5a3d
000002a0: 03ef f6bd 5806 a03c 3dd6 163c 9a55 d13d
000002b0: a90c babd 8b00 82bc 477f 563d 2b77 91bd
000002c0: ce7f a33d da23 77bd 32f6 573d 734a 1abd
000002d0: a5d7 c53c 1bf2 a4bd 9f72 15bd 75e0 95bd
000002e0: db55 553c f9ad 4e3d b5e5 5f3d 26b1 ff3d
000002f0: ba53 983d 1f6b afbd 4d0c 4a3d af49 f0bc
00000300: ded5 56bd fcef 0fbe 16af 96bd 7f4a bd3d
00000310: 2e49 073d 3a2f 0b3e eb52 8bbc 8b1f b1b9
00000320: daa2 e83d 5fb1 e8bd 0634 703d dea3 ec3d
00000330: d968 c03a 37ea bfbd 2391 103c 4a5a 28bd
00000340: e322 a23d 8ecc 813b cd5a 813d 47ed 42bd
00000350: 07cd 90bd 64b0 c9bd ed2d 00be fd98 3ebd
00000360: e8c4 963d 0929 63bd 7251 023e 4bad 163d
00000370: d9a9 353d 573d ba3d 2003 6dbc e619 c13c
00000380: f6bc c83d 5b3f 93bd 97ce e1bd 38ea a9bd
00000390: bd25 9e3d bff4 7d3d a4dd e93d 1bae 84bc
000003a0: 293a 6d3c c91f b5bc fa75 423d 7f72 b23d
000003b0: 181a a73d 8d20 283c 09f2 babd e371 923d
000003c0: ff83 36bd f49d 953d ea2e c93d 690e a83d
000003d0: cc7b 103e 29c2 db3d b4ca d2bd ccba d7bd
000003e0: 3b09 39bb a339 a6bc 998a 563d fdf3 b9bc
000003f0: 6f46 f53a f365 a03c c460 d3bc 51b2 f8bd

weight_hh_l0 f4 [192, 64]
-0.023069058 -0.059839472 0.023906948 0.086131155 -0.06417578 -0.052990284 -0.056873657 -0.056607142
-0.041753277 0.03166665 0.039658867 -0.012451115 0.10112162 0.06758614 -0.13856263 0.094067015
-0.07825441 0.049742278 0.028033784 0.053691667 0.017515572 -0.016083375 0.07728785 -0.12281512
0.07081742 -0.03766823 0.0075215166 -0.11190697 0.1666795 0.10472326 0.04916913 -0.10082256
0.08197247 -0.0054243663 0.08283654 -0.12770063 -0.026519772 0.041478187 0.032216072 0.08507969
0.08921221 -0.027891366 0.07455085 -0.12868959 -0.05814248 0.042142447 0.0641158 -0.041855797
-0.055792082 -0.0027470624 -0.0764328 -0.019508302 0.042013038 -0.050924595 0.087807015 0.13320182
0.08496768 0.09907678 0.055735 -0.092221886 0.09883718 -0.108858086 0.08314881 -0.035637524
0.06407511 -0.013337191 0.029062493 -0.020149626 0.010037165 0.060081992 0.1045458 -0.055118557
0.065545924 0.07943938 0.11882794 0.051795665 -0.05121663 -0.02404648 0.03112867 -0.1191978
-0.053614255 0.08253926 0.03698877 0.07581388 0.066841625 -0.040524215 0.111711465 -0.07567132
-0.07293051 0.09574486 0.013031828 -0.12232296 0.024876744 0.10485773 0.079722606 -0.1037112
0.02393663 0.121754505 0.083077475 -0.065076806 -0.10986179 -0.0056715375 -0.057845995 -0.0254558
-0.104245074 0.08284971 -0.039680373 -0.0114116715 0.009417961 0.09247314 0.055588085 -0.116948925
0.07595384 0.0008746349 0.09183924 0.018250572 -0.023781078 0.070356086 -0.0499775 0.04184443
0.063743226 -0.0166606 0.020017477 0.088427655 -0.034191918 -0.028143106 -0.061488464 -0.13514735
0.09079594 0.08174332 0.12237742 -0.036993675 0.13081388 -0.11968826 0.13697642 -0.0139448345
-0.021619232 0.054015633 -0.07605201 -0.07529078 0.0857454 -0.033870313 0.074156255 0.012980135
0.080307364 0.05597575 0.030023267 0.037403237 0.07619794 -0.0052717277 -0.104916796 -0.109094374
-0.11901888 -0.039228342 -0.017865712 0.041043904 -0.04005258 -0.036341753 -0.01259621 0.09086234
0.11702221 0.0860089 -0.015846504 0.089651875 -0.07233982 0.07215215 0.004467499 -0.030912269
0.0028284923 -0.037081014 0.08760396 -0.08512699 0.012273037 -0.050936423 0.0699945 0.06381933
-0.063884825 0.11071893 -0.04329438 0.029901316 0.08363578 0.13569702 0.017013958 -0.037318923
0.011930098 0.066063955 0.117638074 0.1026218 0.051355235 -0.10517716 0.05778637 0.084977135
0.052784823 0.016922582 0.107425585 -0.0649606 -0.02402225 -0.04485472 0.056216907 0.06559859
-0.0074041435 -0.012147673 -0.12888719 0.07396185 -0.02503198 0.09993238 -0.035862733 -0.10264053
0.0018216739 0.05131376 0.11709158 0.058747917 -0.08148282 -0.10400931 0.090614855 -0.08400464
0.088595465 0.021103892 0.123328865 0.033869047 0.059793193 0.008037158 0.07252052 0.050476436
-0.12091983 0.032136608 0.116057016 -0.06746636 0.09713039 0.101727515 -0.030498441 0.08443889
0.03205493 -0.040835038 -0.068735525 0.017126206 -0.05752646 -0.051913057 0.08819956 -0.006647063
0.05849085 -0.1228803 -0.036192816 -0.032193955 0.063083224 -0.061598524 0.01326905 -0.09864215
0.015878307 0.11202122 -0.03638742 0.08967523 -0.08720608 0.0060281116 0.024030937 0.083207674
00000000: 52fb bcbc 3c1a 75bd 81d8 c33c 8865 b03d
00000010: 976e 83bd 570c 59bd 5af4 68bd e4dc 67bd
00000020: 7c05 2bbd e4b4 013d 5671 223d c3ff 4bbc
00000030: da18 cf3d 9a6a 8a3d 5de3 0dbe 35a6 c03d
00000040: d943 a0bd 8fbe 4b3d 1ba7 e53c cbeb 5b3d
00000050: d17c 8f3c 48c1 83bc 1849 9e3d 7e86 fbbd
00000060: b908 913d 004a 1abd 0e77 f63b 7b2f e5bd
00000070: 08ae 2a3e 2679 d63d 9265 493d 0f7c cebd
00000080: 2fe1 a73d e2be b1bb 34a6 a93d f4c3 02be
00000090: fe3f d9bc 08e5 293d 00f5 033d 433e ae3d
000000a0: e4b4 b63d 6f7c e4bc 1eae 983d 34c7 03be
000000b0: cf26 6ebd 8f9d 2c3d 254f 833d fc70 2bbd
000000c0: 3d86 64bd 0f08 34bb cd88 9cbd e0cf 9fbc
000000d0: dd15 2c3d 4f96 50bd 2ad4 b33d 0f66 083e
000000e0: 8903 ae3d c4e8 ca3d 624a 643d d4de bcbd
000000f0: 266b ca3d fdf0 debd ec49 aa3d a7f8 11bd
00000100: d039 833d 3c84 5abc 7714 ee3c d410 a5bc
00000110: ec72 243c 8918 763d 1c1c d63d ffc3 61bd
00000120: f13c 863d 1db1 a23d 105c f33d b127 543d
00000130: 87c8 51bd 20fd c4bc 8d01 ff3c fa1d f4bd
00000140: 9f9a 5bbd 580a a93d 8981 173d 4f44 9b3d
00000150: 43e4 883d b8fc 25bd fbc8 e43d 91f9 9abd
00000160: 975c 95bd e215 c43d 7383 553c 7684 fabd
00000170: 50ca cb3c a6bf d63d 9b45 a33d 8a66 d4bd
00000180: c016 c43c 6d5a f93d 8624 aa3d fd46 85bd
00000190: 38ff e0bd 4ed8 b9bb ecef 6cbd af88 d0bc
000001a0: 717e d5bd 1cad a93d e387 22bd 05f8 3abc
000001b0: cb4d 1a3c 8f62 bd3d 55b0 633d eb82 efbd
000001c0: b08d 9b3d c147 653a 3616 bc3d 3982 953c
000001d0: 89d0 c2bc da16 903d 35b5 4cbd 1165 2b3d
000001e0: cf8b 823d d07b 88bc b1fb a33c 8f19 b53d
000001f0: d30c 0cbd 5f8c e6bc 54db 7bbd 1164 0abe
00000200: 39f3 b93d 0b69 a73d 03a1 fa3d ae86 17bd
00000210: 13f4 053e 1e1f f5bd 8c43 0c3e e078 64bc
00000220: d11a b1bc 7f3f 5d3d 28c1 9bbd 0d32 9abd
00000230: 499b af3d 99bb 0abd 3cdf 973d a2aa 543c
00000240: 3078 a43d d446 653d 5bf3 f53c 2334 193d
00000250: aa0d 9c3d 75be acbb 9ede d6bd df6c dfbd
00000260: 2cc0 f3bd e6ad 20bd 1d5b 92bc a71d 283d
00000270: 2d0e 24bd 17db 14bd 5660 4ebc 0916 ba3d
00000280: 57a9 ef3d 6f25 b03d 87d0 81bc 679b b73d
00000290: e626 94bd 82c4 933d 1964 923b ba3b fdbc
000002a0: 3a5e 393b 43e2 17bd b469 b33d 0f57 aebd
000002b0: d914 493c b6a2 50bd 4759 8f3d b5b3 823d
000002c0: 0cd6 82bd 9bc0 e23d 7355 31bd 9bf3 f43c
000002d0: 3c49 ab3d 29f4 0a3e db60 8b3c badb 18bd
000002e0: 7576 433c 8a4c 873d 3bec f03d 612b d23d
000002f0: de59 523d 1f67 d7bd 67b1 6c3d 7e08 ae3d
00000300: e634 583d 3aa1 8a3c f201 dc3d 100a 85bd
00000310: 4fca c4bc 95b9 37bd b343 663d 8e58 863d
00000320: 759e f2bb 0907 47bc 01fb 03be 4f79 973d
00000330: de0f cdbc 59a9 cc3d cde4 12bd 3335 d2bd
00000340: 3cc5 ee3a 612e 523d b6cd ef3d a8a1 703d
00000350: 77e0 a6bd d502 d5bd 4894 b93d a00a acbd
00000360: 8a71 b53d 12e2 ac3c d893 fc3d 45ba 0a3d
00000370: b5e9 743d 49ae 033c a385 943d 61c0 4e3d
00000380: d1a4 f7bd ada1 033d 4daf ed3d ce2b 8abd
00000390: 4cec c63d 8456 d03d ded7 f9bc 4cee ac3d
000003a0: 084c 033d a442 27bd 36c5 8cbd 424c 8c3c
000003b0: dea0 6bbd c9a2 54bd f9a1 b43d 9bcf d9bb
000003c0: 1a94 6f3d aba8 fbbd eb3e 14bd cfdd 03bd
000003d0: c731 813d bc4e 7cbd 6e66 593c e504 cabd
000003e0: 3913 823c 626b e53d fa0a 15bd a6a7 b73d
000003f0: 1a99 b2bd 7787 c53b 87dc c43c c968 aa3d

bias_ih_l0 f4 [192]
0.066709094 0.0859048 0.09577405 -0.10112677 -0.039298233 0.07243178 -0.090825 -0.044827122
0.07581559 0.0013600077 -0.055850524 0.021656556 0.015452969 0.049134538 -0.05047249 -0.1261211
-0.033273946 -0.014234597 0.059636313 -0.067823805 -0.06261828 -0.06578294 -0.0128023075 0.010973622
-0.002358869 0.04473108 -0.09374364 -0.059936304 -0.11443698 0.07612154 -0.1056356 -0.04605154
-0.0034224428 0.09375102 -0.037134927 -0.040828478 -0.1129748 0.0610631 -0.0021594388 0.13163768
-0.13089807 -0.09746892 0.017568832 0.019029427 -0.05687747 -0.040415816 0.128817 0.07145571
-0.066909134 -0.009000968 0.06584545 -0.079938106 0.14572014 0.07183977 -0.104636714 -0.11090171
0.038034428 0.09534177 -0.1308604 -0.0027895174 -0.07866044 -0.056902427 0.026173068 0.11219564
-0.04841419 0.019204091 -0.13072309 0.03733421 0.11644237 -0.028030988 0.12473935 -0.043305885
-0.07276358 -0.010690588 -0.019302508 0.033409465 -0.016238544 -0.06026593 -0.04865005 -0.07317777
-0.029349696 0.04392125 0.07266145 -0.1426847 0.0524492 -0.021425676 0.07176359 -0.008831512
-0.017917598 -0.09379595 0.14517564 0.08576192 0.12899065 -0.13490605 -0.10592838 -0.0810151
-0.13684426 0.02620748 0.08727248 -0.016225057 0.009413559 -0.12508759 -0.027047466 0.12922773
-0.08899133 0.0660633 0.025630783 -0.061453585 -0.01656178 -0.11175005 0.16015437 -0.08585548
0.045378342 0.017897695 -0.103281125 -0.06660655 0.011293637 0.038473655 0.07759634 -0.1231743
0.07857794 -0.01386243 -0.016174106 0.07124752 -0.042425875 -0.035575747 0.09000955 -0.059162427
-0.05363174 0.012559206 -0.05625778 -0.0187072 -0.09462033 0.06329633 -0.068654485 -0.10516237
0.039471738 -0.11596507 -0.024924088 -0.11752822 -0.018034523 -0.05418635 -0.016092371 0.029727027
-0.09883557 -0.07086698 0.093295276 0.02571139 0.07189718 -0.104058236 -0.11318397 -0.05930866
-0.023912704 -0.02426645 0.13458574 -0.11036347 0.101316325 0.08327829 -0.0054995893 0.034683097
0.0071330066 -0.06428478 0.019427177 -0.09857528 -0.10330217 -0.054426003 -0.0338693 -0.12041767
0.038437158 -0.037625488 0.01150286 -0.102332465 0.12207067 -0.10750364 0.030284086 0.054475892
-0.047901392 0.0051287254 -0.13479084 0.041111864 -0.06780828 -0.1293423 0.06412505 -0.029819092
0.019807545 0.07635577 0.072904 0.017428502 -0.0039498503 -0.10193075 -0.06902443 0.10623178
00000000: c79e 883d dbee af3d 2f25 c43d 8d1b cfbd
00000010: 2ff7 20bd 1d57 943d 7502 babd a59c 37bd
00000020: 3445 9b3d 4942 b23a 85c3 64bd 1769 b13c
00000030: 732e 7d3c 4c41 493d 3ebc 4ebd e425 01be
00000040: 434a 08bd 3a38 69bc 3545 743d 35e7 8abd
00000050: 033e 80bd 35b9 86bd c5c0 51bc b5ca 333c
00000060: 4197 1abb f037 373d aafc bfbd c57f 75bd
00000070: ef5d eabd 9ce5 9b3d 7a57 d8bd 8aa0 3cbd
00000080: 104b 60bb 8900 c03d cb1a 18bd c33b 27bd
00000090: 555f e7bd 4d1d 7a3d 5f85 0dbb 07cc 063e
000000a0: 250a 06be c99d c7bd 83ec 8f3c 9ae3 9b3c
000000b0: 5af8 68bd 0e8b 25bd 9be8 033e 5f57 923d
000000c0: a807 89bd cc78 13bc fbd9 863d 97b6 a3bd
000000d0: a937 153e bb20 933d c64b d6bd 7020 e3bd
000000e0: fdc9 1b3d 8c42 c33d 4500 06be 56d0 36bb
000000f0: ba18 a1bd 8512 69bd e768 d63c d4c6 e53d
00000100: f54d 46bd e651 9d3c 46dc 05be c2eb 183d
00000110: 5679 ee3d 3ea1 e5bc 5877 ff3d 8361 31bd
00000120: 1205 95bd 9327 2fbc 4b20 9ebc 5dd8 083d
00000130: b206 85bc 68d9 76bd 4645 47bd 3ade 95bd
00000140: c66e f0bc c5e6 333d 87cf 943d f01b 12be
00000150: f9d4 563d e684 afbc caf8 923d 0cb2 10bc
00000160: edc7 92bc 1718 c0bd eca8 143e f2a3 af3d
00000170: 2016 043e d024 0abe faf0 d8bd 3feb a5bd
00000180: e720 0cbe 12b1 d63c eabb b23d 69ea 84bc
00000190: 543b 1a3c f616 00be a692 ddbc 4654 043e
000001a0: 1641 b6bd 324c 873d a6f7 d13c c1b6 7bbd
000001b0: 92ac 87bc 36dd e4bd 82ff 233e ffd4 afbd
000001c0: a4de 393d 309e 923c 0e85 d3bd 0469 88bd
000001d0: f208 393c 8d96 1d3d d4ea 9e3d cf42 fcbd
000001e0: 79ed a03d 3f1f 63bc 8f7f 84bc 38ea 913d
000001f0: c1c6 2dbd e0b7 11bd ed56 b83d 4d54 72bd
00000200: f5ac 5bbd 21c5 4d3c 8f6e 66bd d83f 99bc
00000210: 4ec8 c1bd 82a1 813d b99a 8cbd 5e5f d7bd
00000220: 1ead 213d 187f edbd 9a2d ccbc a3b2 f0bd
00000230: 23bd 93bc 82f2 5dbd 26d4 83bc 1886 f33c
00000240: 4e6a cabd b522 91bd 9811 bf3d b1a0 d23c
00000250: d43e 933d 7c1c d5bd ffcc e7bd a3ed 72bd
00000260: 93e4 c3bc 6fca c6bc d8d0 093e 3e06 e2bd
00000270: ef7e cf3d cf8d aa3d e635 b4bb dd0f 0e3d
00000280: ffbb e93b bda7 83bd be25 9f3c d6e1 c9bd
00000290: 1790 d3bd cded 5ebd 89ba 0abd 8a9d f6bd
000002a0: 4870 1d3d 2f1d 1abd 7e76 3c3c af93 d1bd
000002b0: 3000 fa3d de2a dcbd 5516 f83c 1d22 5f3d
000002c0: 4034 44bd de0e a83b 9c06 0abe ea64 283d
000002d0: 11df 8abd 4f72 04be ff53 833d 2b47 f4bc
000002e0: 6f43 a23c 6a60 9c3d b14e 953d 38c6 8e3c
000002f0: bf6d 81bb 12c1 d0bd ae5c 8dbd 0c90 d93d

bias_hh_l0 f4 [192]
-0.10328237 -0.056591276 0.108583935 -0.034719266 0.059391625 0.07031872 -0.05097211 -0.0800535
0.1149404 0.048777934 0.037208017 0.066211715 -0.012792928 -0.043555606 0.006225182 -0.07033985
0.010056139 -0.04668939 0.034095023 0.014145056 -0.09941693 0.12146782 0.037759878 0.1302904
-0.10925314 -0.012714533 -0.023247572 -0.13230272 -0.11571824 -0.08403275 0.021914234 -0.055366118
-0.0035937175 0.09351737 0.021470157 -0.076065645 -0.084240355 -0.08173328 0.08398104 -0.08458169
-0.07267283 0.022828968 -0.10092858 -0.018992452 0.018685492 0.012908573 0.02394551 0.006553424
-0.082441755 -0.10630541 0.043990448 -0.07112352 0.051957995 0.067737855 0.09258391 -0.014051533
-0.04790571 -0.052947666 0.09529973 -0.09912215 -0.016221238 0.036188737 0.02239205 -0.069285884
-0.01906389 0.03604886 -0.09442924 0.033259027 0.11287765 0.07815321 -0.10922557 0.023219526
0.03243344 -0.036416274 0.07015448 -0.065923825 0.005994673 0.06321114 -0.022969898 -0.006103135
0.031121828 -0.0042690756 -0.015405492 -0.13878964 -0.08932329 0.12934333 -0.08004858 -0.0037213808
-0.108526975 -0.106625944 -0.0345243 -0.03840301 0.028820217 -0.03901425 -0.111128345 -0.1488897
0.022836085 0.121155016 0.060859866 -0.06680438 0.04317915 0.034783527 0.0762412 -0.051628016
-0.011835596 0.08084551 0.07710835 -0.1022867 -0.13285464 -0.060334295 0.092396855 -0.094105326
-0.03330559 -0.051171754 -0.12683307 0.10931477 -0.054652773 -0.05065082 -0.05517405 -0.010734191
-0.023849871 -0.1545525 -0.009876264 0.00088682905 -0.07657328 -0.09765471 0.01847265 0.023060525
0.115700535 0.024215033 0.047380265 -0.115969405 -0.07781093 -0.07781015 -0.013916305 0.06990082
-0.06748966 0.10501342 -0.08226584 0.0356139 -0.08716132 0.042040028 0.029808808 0.13046873
-0.030813819 0.006601453 0.08432191 -0.08532932 -0.059377834 -0.12565878 0.011299602 -0.1325471
0.1266569 -0.085035555 -0.0818356 -0.091917105 0.09013162 0.01881887 0.06950235 -0.0077669527
-0.09251891 0.0627872 0.034230284 0.13003877 -0.11562306 -0.05554571 0.043194618 0.060038887
0.050386127 -0.08690705 -0.01915573 0.09547703 0.011830444 -0.028156953 0.12934464 0.04168884
-0.02628134 0.03272928 -0.051106494 -0.08362602 0.093878366 -0.0821669 0.09909061 -0.1170346
-0.062564775 -0.09436927 0.08768208 0.09466807 -0.092490055 -0.020034377 0.03440979 0.08414006
00000000: b585 d3bd 41cc 67bd 4161 de3d ca35 0ebd
00000010: a244 733d 4303 903d 22c8 50bd 17f3 a3bd
00000020: df65 eb3d 5fcb 473d 6f67 183d 029a 873d
00000030: 6e99 51bc 5d67 32bd 9dfc cb3b 570e 90bd
00000040: 81c2 243c 603d 3fbd 39a7 0b3d aac0 673c
00000050: 1a9b cbbd 1fc4 f83d 1aaa 1a3d d96a 053e
00000060: 1cc0 dfbd 9e50 50bc b171 bebc 5d7a 07be
00000070: affd ecbd 5d19 acbd 7b85 b33c 95c7 62bd
00000080: 9384 6bbb 0986 bf3d 2fe2 af3c 4ec8 9bbd
00000090: 3586 acbd c763 a7bd 40fe ab3d 2a39 adbd
000000a0: 7ed5 94bd d103 bb3c a5b3 cebd 0f96 9bbc
000000b0: 5112 993c 7b7e 533c 6029 c43c 1bbe d63b
000000c0: 39d7 a8bd a7b6 d9bd 542f 343d 35a9 91bd
000000d0: e8d1 543d 25ba 8a3d a29c bd3d 6738 66bc
000000e0: c738 44bd a7df 58bd 812c c33d 8e00 cbbd
000000f0: 67e2 84bc a43a 143d 886f b73c c2e5 8dbd
00000100: e02b 9cbc f8a7 133d 1e64 c1bd 9e3a 083d
00000110: 662c e73d ca0e a03d a8b1 dfbd e036 be3c
00000120: edd8 043d 3b29 15bd 27ad 8f3d 1203 87bd
00000130: f66e c43b d874 813d 5e2b bcbc cffc c7bb
00000140: 34f3 fe3c 9ae3 8bbb 5167 7cbc df1e 0ebe
00000150: 21ef b6bd 9472 043e 83f0 a3bd 69e2 73bb
00000160: 6443 debd b45e dabd 5a69 0dbd 7a4c 1dbd
00000170: 6018 ec3c 68cd 1fbd 4297 e3bd 8b76 18be
00000180: be12 bb3c 1f20 f83d 3248 793d bcd0 88bd
00000190: 9fdc 303d 2c79 0e3d 5924 9c3d e677 53bd
000001a0: 16ea 41bc 5592 a53d fcea 9d3d b07b d1bd
000001b0: 0c0b 08be 1821 77bd 903a bd3d 4bba c0bd
000001c0: 716b 08bd 7999 51bd 87e0 01be 6ce0 df3d
000001d0: 96db 5fbd 3c77 4fbd 2ffe 61bd 76de 2fbc
000001e0: ce60 c3bc 0343 1ebe 0ed0 21bc 177a 683a
000001f0: 74d2 9cbd 31ff c7bd f453 973c 6de9 bc3c
00000200: 67f4 ec3d 9b5e c63c cf11 423d 5e81 edbd
00000210: 565b 9fbd ee5a 9fbd 3701 64bc 2928 8f3d
00000220: 0538 8abd 4711 d73d fe7a a8bd e1df 113d
00000230: a281 b2bd 2a32 2c3d 9a31 f43c 9899 053e
00000240: 436d fcbc 0051 d83b f7b0 ac3d 23c1 aebd
00000250: 2c36 73bd b2ac 00be f721 393c 6dba 07be
00000260: 59b2 013e 1f27 aebd 6c99 a7bd 093f bcbd
00000270: ed96 b83d 082a 9a3c 4057 8e3d ec81 febb
00000280: 8e7a bdbd 9396 803d 0e35 0c3d e228 053e
00000290: c8cb ecbd e683 63bd d7ec 303d 56eb 753d
000002a0: af61 4e3d 53fc b1bd 7aec 9cbc 7689 c33d
000002b0: 7bd4 413c 69a9 e6bc ec72 043e ebc1 2a3d
000002c0: f74b d7bc 230f 063d 0b55 51bd 1e44 abbd
000002d0: 4d43 c03d 1f47 a8bd 05f0 ca3d d6af efbd
000002e0: f621 80bd ad44 c1bd aa92 b33d 55e1 c13d
000002f0: 6d6b bdbd 221f a4bc 48f1 0c3d a051 ac3d

weight f4 [1, 64]
0.0465809 -0.093981065 0.06922861 -0.010477931 -0.09146938 0.11707867 -0.08861477 -0.047273625
-0.038170323 0.10446763 0.117502905 -0.05154912 0.09893969 -0.08879544 0.097388946 0.109444484
0.03553721 0.0037104094 0.025878135 -0.058390014 0.08893538 -0.0554414 -0.025448045 0.116019145
0.026892353 0.04370406 0.023201063 0.06334449 -0.09484418 -0.110237494 0.07765463 0.13116129
-0.08094288 -0.11467531 0.0758511 0.00087636354 -0.04830678 0.07109987 0.04383267 0.016407676
0.028332667 0.043118205 -0.048776057 0.083208814 0.02925969 0.04487478 -0.10824773 -0.021800112
0.096145615 0.042414956 -0.036023322 -0.102259934 -0.033890683 -0.07424296 -0.039928302 -0.11437571
-0.0870279 0.06223162 0.10066329 -0.12215593 0.03027015 -0.11368816 -0.070456654 0.06999592
00000000: 9dcb 3e3d 2579 c0bd bbc7 8d3d a1ab 2bbc
00000010: 4c54 bbbd f1c6 ef3d a97b b5bd fda1 41bd
00000020: 7c58 1cbd 20f3 d53d 5da5 f03d 2c25 53bd
00000030: e4a0 ca3d 62da b5bd db73 c73d 6e24 e03d
00000040: 778f 113d 572a 733b 62fe d33c 5e2a 6fbd
00000050: c123 b63d 8516 63bd 6b78 d0bc 729b ed3d
00000060: 5a4d dc3c 0703 333d 2810 be3c c2ba 813d
00000070: aa3d c2bd 32c4 e1bd 6409 9f3d 254f 063e
00000080: 61c5 a5bd e4da eabd d257 9b3d c3bb 653a
00000090: 55dd 45bd cf9c 913d e389 333d 6469 863c
000000a0: e919 e83c b79c 303d 67c9 47bd 6269 aa3d
000000b0: 04b2 ef3c 9ece 373d fcb0 ddbd 2696 b2bc
000000c0: fee7 c43d 4ebb 2d3d 318d 13bd a86d d1bd
000000d0: f5d0 0abd b10c 98bd dc8b 23bd d03d eabd
000000e0: af3b b2bd 95e6 7e3d 8e28 ce3d e32c fabd
000000f0: 1bf9 f73c 57d5 e8bd 944b 90bd 055a 8f3d
