models/transformer_encoder/checkpoint/trained_irdpg_60.pth (torch, 409346 bytes, 22 tensors)

weight_ih_l0 f4 [192, 64]
-0.050075196 0.01852388 0.048441477 0.10140238 0.03575909 -0.082513675 0.018599136 0.03943874
-0.05841032 0.07801136 -0.098022394 0.051067512 -0.007724052 -0.10517166 0.11324625 -0.03811044
-0.09884091 0.012159252 0.118848205 -0.11246134 -0.0716747 -0.0996065 -0.0889687 -0.009756002
-0.009231566 0.06930229 0.070608355 -0.10623457 -0.02809105 -0.107708834 0.026189322 -0.024954474
-0.046404302 0.07938032 0.10481194 0.011673191 -0.0023555516 0.11146253 -0.08039342 0.045932613
0.003913343 0.017300371 0.012496821 0.074106276 0.09824583 0.105376095 0.1088439 0.027985653
-0.0060541895 0.07060339 -0.10313238 0.01973781 0.089061454 0.0009778265 -0.119777404 0.026557906
0.11063593 0.07628489 0.01682962 0.112174585 0.051357504 0.053913582 0.07652879 0.02951735
-0.019927798 0.056467764 -0.00079088635 0.1250378 0.10957308 0.0030241073 0.021016797 -0.099798985
0.026606355 0.10484715 -0.055071484 -0.09548481 -0.045894995 0.043440204 0.008405755 -0.03315855
0.10835886 -0.058429338 0.07582649 -0.11965849 0.11585546 -0.08614574 -0.06286771 0.09641936
-0.119191624 0.04683887 -0.101801544 0.11836009 -0.11481831 0.040722296 0.031575058 0.053719897
-0.087001026 -0.032108355 -0.11565531 0.06306454 0.02663553 -0.06528077 0.042956393 -0.09478383
0.008371644 -0.087550916 0.00092132285 0.11731609 0.07080415 -0.012464286 -0.03287055 -0.025942829
0.08689977 -0.04607505 0.09220118 0.025978433 -0.069561854 0.104369864 -0.030887585 0.051792897
0.037673455 -0.034054946 -0.10804222 -0.110379644 -0.08709957 0.007458576 0.10893838 0.026633712
-0.10428203 0.017810417 -0.07082689 -0.09762291 -0.04719639 -0.120117925 0.037039813 0.09417519
0.0057547637 0.078963585 0.03550838 0.05253478 -0.105442576 0.052934505 -0.00040091932 0.03453141
-0.050901487 -0.11206691 -0.06692285 0.0028733553 0.0052427133 0.010963908 -0.08779385 -0.074828856
0.032238513 0.072732605 0.0030034727 0.06776354 -0.07334043 -0.015958542 -0.093549594 -0.11599271
0.07175406 -0.071731776 0.0009781504 0.04237554 -0.05974116 -0.07157538 0.08371369 -0.034089465
0.059909254 0.11182735 0.10008309 -0.08221698 0.06321478 -0.07138519 -0.05133063 -0.042724434
0.082606465 -0.051723547 0.05720562 -0.06725038 -0.07312829 0.12054126 0.08136221 0.096321546
0.040728085 0.095965505 -0.09821131 -0.09981954 0.046034437 -0.066726975 0.0398735 -0.10255546
0.051117364 -0.076087095 0.010782743 -0.099579796 -0.015926262 0.039924406 -0.024794618 0.11572464
-0.120176665 0.104558304 -0.049526382 0.10352649 0.123770215 -0.09886535 0.03676011 -0.08221915
0.0234055 -0.016117685 -0.11359739 0.01845912 -0.0311694 -0.015003834 0.09918723 0.12242452
0.084056474 0.072188474 0.086307645 -0.095806204 -0.0058296993 -0.014620447 0.06181437 0.018338831
-0.10541552 -0.09856859 0.0030939498 0.018545954 -0.10336598 -0.095390625 0.035300497 0.0073736114
0.016892245 -0.058457423 0.013229734 -0.099188134 0.09026191 -0.08031779 -0.008685715 0.016447801
-0.06081679 0.005104724 -0.068806574 0.012304124 -0.020543162 -0.014147814 0.05552179 -0.104776
-0.030437669 0.03245389 0.078498624 -0.02691031 0.04593745 0.028489247 0.0017951672 0.069516405
00000000: a61b 4dbd 64bf 973c 926a 463d 0dac cf3d
00000010: 2078 123d eefc a8bd 375d 983c 848a 213d
00000020: a93f 6fbd 6bc4 9f3d f7bf c8bd 2b2c 513d
00000030: 0b1a fdbb 3d64 d7bd a6ed e73d b119 1cbd
00000040: 1a6d cabd 9937 473c b066 f33d 2252 e6bd
00000050: 2fca 92bd 7efe cbbd 3935 b6bd a3d7 1fbc
00000060: ff3f 17bc 5cee 8d3d 1d9b 903d 8391 d9bd
00000070: 341f e6bc 7396 dcbd fd8a d63c 536d ccbc
00000080: 7012 3ebd 2692 a23d a4a7 d63d e940 3f3c
00000090: 995f 1abb 7846 e43d 4ea5 a4bd d623 3c3d
000000a0: 803b 803b 82b9 8d3c 77bf 4c3c 08c5 973d
000000b0: 1c35 c93d 6ccf d73d 8de9 de3d 2b42 e53c
000000c0: 3962 c6bb 8398 903d 1237 d3bd 30b1 a13c
000000d0: da65 b63d 6a2a 803a db4d f5bd f78f d93c
000000e0: 1795 e23d 413b 9c3d 45de 893c cabb e53d
000000f0: 3f5c 523d 7dd4 5c3d 20bb 9c3d 5fce f13c
00000100: 9f3f a3bc be4a 673d 7c53 4fba e909 003e
00000110: da67 e03d 1a30 463b 6b2b ac3c 6963 ccbd
00000120: 92f5 d93c 1aba d63d a392 61bd 8a8d c3bd
00000130: 64fc 3bbd 5bee 313d 4bb8 093c 42d1 07bd
00000140: 40eb dd3d 9a53 6fbd eb4a 9b3d 830f f5bd
00000150: a145 ed3d 2d6d b0bd c9c0 80bd 8377 c53d
00000160: bd1a f4bd 1dda 3f3d 547d d0bd c666 f23d
00000170: dd25 ebbd 6ccc 263d d954 013d 6509 5c3d
00000180: 982d b2bd 0d84 03bd b1dc ecbd fb27 813d
00000190: c132 da3c edb1 85bd 0bf3 2f3d 061e c2bd
000001a0: 3829 093c e54d b3bd ee84 713a 6b43 f03d
000001b0: c401 913d 0137 4cbc 45a3 06bd 0e86 d4bc
000001c0: 82f8 b13d 31b9 3cbd f9d3 bc3d b9d0 d43c
000001d0: 7276 8ebd debf d53d f607 fdbc ca24 543d
000001e0: 7b4f 1a3d 337d 0bbd 3d45 ddbd b90e e2bd
000001f0: 4261 b2bd 1267 f43b 161b df3d f12e da3c
00000200: d191 d5bd 27e7 913c b00d 91bd 85ee c7bd
00000210: 0051 41bd 6300 f6bd 0fb7 173d ecde c03d
00000220: 7592 bc3b a9b7 a13d 3c71 113d b62e 573d
00000230: 47f2 d7bd dad1 583d 7b32 d2b9 cf70 0d3d
00000240: 147e 50bd 5683 e5bd d90e 89bd e74e 3c3b
00000250: 11cb ab3b f7a1 333c 43cd b3bd df3f 99bd
00000260: 880c 043d d5f4 943d e9d5 443b 9cc7 8a3d
00000270: 8233 96bd 7dbb 82bc ee96 bfbd 968d edbd
00000280: cbf3 923d 1ce8 92bd 4835 803a f991 2d3d
00000290: 26b3 74bd 1d96 92bd 1572 ab3d 65a1 0bbd
000002a0: 6863 753d bd05 e53d 5df8 cc3d 6061 a8bd
000002b0: c076 813d 6632 92bd 1140 52bd d1ff 2ebd
000002c0: 942d a93d 12dc 53bd 7150 6a3d 91ba 89bd
000002d0: 49c4 95bd 56de f63d 3ba1 a63d 3b44 c53d
000002e0: 7ed2 263d 9089 c43d 0323 c9bd 306e ccbd
000002f0: 9b8e 3c3d 27a8 88bd 6552 233d 9908 d2bd
00000300: 7160 513d 8dd3 9bbd 1aaa 303c 7ef0 cbbd
00000310: cb77 82bc c687 233d 151e cbbc 0a01 ed3d
00000320: 2f1f f6bd aa22 d63d 2ddc 4abd b205 d43d
00000330: 3d7b fd3d eb79 cabd c591 163d 8462 a8bd
00000340: e4bc bf3c 3c09 84bc c0a5 e8bd 9537 973c
00000350: f856 ffbc a4d2 75bc ad22 cb3d b5b9 fa3d
00000360: cd25 ac3d 8dd7 933d 10c2 b03d 0b36 c4bd
00000370: 1007 bfbb 998a 6fbc 1131 7d3d 513b 963c
00000380: 18e4 d7bd 54de c9bd ddc3 4a3b afed 973c
00000390: 8bb1 d3bd 295c c3bd 4197 103d 569e f13b
000003a0: 9b61 8a3c 0d71 6fbd 87c1 583c 2623 cbbd
000003b0: 3cdb b83d a77d a4bd 874e 0ebc 8abd 863c
000003c0: 071b 79bd 8745 a73b 76ea 8cbd 3d97 493c
000003d0: 224a a8bc 3ccc 67bc d16a 633d cd94 d6bd
000003e0: 6b58 f9bc 5fee 043d e3c3 a03d 0373 dcbc
000003f0: e828 3c3d 4862 e93c d14b eb3a 9e5e 8e3d

weight_hh_l0 f4 [192, 64]
-0.056498464 -0.010005076 -0.0397731 -0.046260566 -0.06391886 -0.08046779 -0.07842095 -0.09597695
-0.038737122 -0.094940946 0.07692623 -0.025002556 -0.069401264 -0.0064900187 0.02650757 0.056334235
-0.12157337 -0.09652959 0.11221188 0.065093726 -0.10389144 -0.09468606 0.123071276 0.06965406
-0.07766951 0.029911341 -0.09903557 0.021640792 0.095482804 -0.06606173 0.038882893 0.03451201
0.11708058 -0.07164957 0.03755941 -0.0056998963 -0.0805009 -0.036785692 -0.12292757 0.039816026
0.031308707 -0.0102828685 0.059398327 0.024123043 0.08922721 0.047508877 -0.08851623 -0.046917316
-0.03851837 0.050825156 0.049762495 -0.04106205 0.05439888 0.044575103 0.04535774 0.01107402
-0.027470782 0.047301784 -0.10319271 -0.0024863707 0.050632194 -0.102056764 0.048602503 0.050439272
0.022186548 0.09026382 0.07552242 -0.07861915 -0.0756778 -0.003536 0.060643807 -0.028672174
-0.03722819 -0.1075095 0.11135471 0.08387413 0.024506437 -0.069666676 0.07200416 -0.12142536
0.025116796 -0.091306046 -0.07066002 -0.04575317 0.061522633 -0.09126402 -0.10227823 -0.043475974
-0.019745152 0.06624155 -0.01607708 0.010779776 -0.103616014 -0.07428256 -0.074507505 -0.11198852
-0.0977452 -0.070494756 0.053229496 -0.06609292 0.08281552 -0.056348555 0.107936054 -0.10569275
0.020403406 -0.05388046 0.040966984 -0.10419751 -0.023345644 -0.07455113 0.05708125 -0.113909595
-0.04794998 -0.02393818 0.021587461 0.09634534 -0.02739171 -0.06600141 -0.068558395 0.12133864
-0.1115132 -0.0050042435 -0.11193717 0.03174038 -0.073703334 0.11033899 0.086033106 -0.0700887
-0.06722601 0.052737582 0.043572452 0.028020425 -0.10011212 0.044357087 -0.04622715 0.039808407
-0.082433924 -0.044090413 0.034328323 -0.08085919 0.031680666 -0.070494995 0.01723656 0.07624189
0.05654649 -0.0389305 0.07898803 0.048112173 -0.011323765 -0.100301735 -0.11521514 0.100089885
-0.092011906 0.112025194 -0.116559684 0.018312575 -0.08396425 0.06964637 -0.116253965 0.11136434
0.008067236 0.03980259 -0.11169556 0.017749976 0.012807005 0.078076795 -0.09617281 0.06771765
-0.041063666 0.081278995 -0.036545098 -0.00887027 0.11613877 -0.013596967 -0.026565779 0.0942436
-0.08227284 -0.032368608 -0.07331374 0.029212542 -0.0036272062 -0.093399286 -0.035498247 0.042648654
-0.031208273 0.11939371 -0.06934435 -0.06289444 0.057072226 -0.045657836 0.10139874 -0.09575063
0.045015406 0.12597385 -0.054017194 0.0013848238 -0.07397898 -0.040722076 -0.018075628 -0.04684905
-0.0876195 0.12113423 -0.006487495 -0.08296816 -0.022074495 0.072488464 0.025604554 -0.07232687
-0.04181267 0.07669284 0.033626534 -0.05209508 0.098958984 0.03642546 -0.06705878 0.036962867
-0.09618005 0.06596141 -0.037066672 -0.07949685 0.01838736 0.0351196 0.11874184 0.044658028
0.024845308 0.09538573 -0.06987985 -0.0041477215 0.08359486 -0.03986451 0.122574486 0.07292016
0.054285616 0.09818755 -0.07094766 -0.115103744 -0.11183476 0.096941754 -0.08361143 0.11319485
0.105397075 0.013670052 -0.121969074 -0.117529094 -0.08069732 0.032229546 0.06994466 0.074031204
-0.09913049 -0.10105029 -0.009703867 0.11888851 0.11853074 0.06836143 0.07317898 0.00022897522
00000000: ef6a 67bd 55ec 23bc 1ee9 22bd b87b 3dbd
00000010: e4e7 82bd 4ccc a4bd 2a9b a0bd 908f c4bd
00000020: d1aa 1ebd 6670 c2bd 808b 9d3d 29d2 ccbc
00000030: 4022 8ebd 39aa d4bb 6726 d93c babe 663d
00000040: 76fb f8bd 4eb1 c5bd 58cf e53d dc4f 853d
00000050: 09c5 d4bd c4ea c1bd cb0c fc3d caa6 8e3d
00000060: 3111 9fbd a108 f53c 29d3 cabd 0848 b13c
00000070: 7d8c c33d 5f4b 87bd ab43 1f3d 775c 0d3d
00000080: f1c7 ef3d 02bd 92bd e5d7 193d 32c6 babb
00000090: a8dd a4bd 98ac 16bd 73c1 fbbd 2116 233d
000000a0: 8f3d 003d 7a79 28bc a94b 733d b09d c53c
000000b0: c1bc b63d ab98 423d ff47 b5bd 5f2c 40bd
000000c0: 70c5 1dbd 0a2e 503d c2d3 4b3d ae30 28bd
000000d0: 5cd1 5e3d 6294 363d 0ac9 393d ce6f 353c
000000e0: 680a e1bc 84bf 413d b356 d3bd 61f2 22bb
000000f0: b463 4f3d 2303 d1bd 6b13 473d 6999 4e3d
00000100: 90c0 b53c 3ddc b83d 80ab 9a3d 1403 a1bd
00000110: f6fc 9abd 3cbc 67bb a465 783d e8e1 eabc
00000120: 967c 18bd f12d dcbd f00d e43d 33c6 ab3d
00000130: b9c1 c83c 67ad 8ebd eb76 933d dcad f8bd
00000140: bdc1 cd3c aafe babd 33b6 90bd ad67 3bbd
00000150: 28ff 7b3d a1e8 babd 4077 d1bd dd13 32bd
00000160: 96c0 a1bc a6a9 873d 15b4 83bc a89d 303c
00000170: a234 d4bd 7421 98bd 6497 98bd 3d5a e5bd
00000180: a32e c8bd 8e5f 90bd 2c07 5a3d ba5b 87bd
00000190: 2f9b a93d becd 66bd 940d dd3d 7175 d8bd
000001a0: 0b25 a73c c2b1 5cbd ffcc 273d 8165 d5bd
000001b0: 5d3f bfbc 43ae 98bd 07ce 693d 6f49 e9bd
000001c0: 3367 44bd 011a c4bc 30d8 b03c b550 c53d
000001d0: 9464 e0bc bf2b 87bd 5868 8cbd 6580 f83d
000001e0: 0861 e4bd a3fa a3bb 513f e5bd 3302 023d
000001f0: c6f1 96bd 69f9 e13d 2032 b03d aa8a 8fbd
00000200: caad 89bd 5d03 583d 0779 323d 178b e53c
00000210: 9507 cdbd c7af 353d ae58 3dbd 240e 233d
00000220: 1ed3 a8bd 2698 34bd db9b 0c3d 8199 a5bd
00000230: 96c3 013d ae5f 90bd b033 8d3c b524 9c3d
00000240: 4b9d 673d 9775 1fbd 7ac4 a13d 4511 453d
00000250: 5087 39bc ff6a cdbd eaf5 ebbd edfb cc3d
00000260: bd70 bcbd 776d e53d d8b6 eebd 4104 963c
00000270: 73f5 abbd c2a2 8e3d 8f16 eebd fd12 e43d
00000280: 712c 043c 0a08 233d a4c0 e4bd 6668 913c
00000290: 79d4 513c bae6 9f3d 40f6 c4bd 8daf 8a3d
000002a0: 6032 28bd 9a75 a63d 50b0 15bd 9c54 11bc
000002b0: 2ada ed3d d0c5 5ebc 7aa0 d9bc ca02 c13d
000002c0: aa7e a8bd f294 04bd 8425 96bd 244f ef3c
000002d0: 6cb6 6dbb 2048 bfbd 9c66 11bd 5bb0 2e3d
000002e0: 7ea8 ffbc b084 f43d 6904 8ebd cdce 80bd
000002f0: 91c4 693d b603 3bbd 25aa cf3d e818 c4bd
00000300: 1362 383d 4aff 003e 2241 5dbd fa82 b53a
00000310: 4b82 97bd 31cc 26bd 5713 94bc cae4 3fbd
00000320: da71 b3bd 3915 f83d 0d95 d4bb 36eb a9bd
00000330: 92d5 b4bc d574 943d a4c0 d13c 1c20 94bd
00000340: c343 2bbd 2311 9d3d fabb 093d a761 55bd
00000350: 02ab ca3d dd32 153d 1d56 89bd 6066 173d
00000360: 0cfa c4bd c716 873d 39d3 17bd 3fcf a2bd
00000370: 17a1 963c 92d9 0f3d ec2e f33d 56eb 363d
00000380: 6388 cb3c 9859 c33d 2b1d 8fbd 9ce9 87bb
00000390: c833 ab3d f848 23bd 5508 fb3d 2a57 953d
000003a0: 985a 5e3d 8e16 c93d 024d 91bd 83bb ebbd
000003b0: 9f09 e5bd 6689 c63d 783c abbd b4d2 e73d
000003c0: 6cda d73d 5bf8 5f3c ecca f9bd 18b3 f0bd
000003d0: a344 a5bd 2103 043d 253f 8f3d ac9d 973d
000003e0: ed04 cbbd 74f3 cebd f8fc 1ebc d27b f33d
000003f0: 3fc0 f23d 1401 8c3d dcde 953d 1119 7039

bias_ih_l0 f4 [192]
-0.057952233 0.09604919 0.12294175 0.04182151 0.046101965 0.030969743 -0.036363404 -0.018509682
-0.052642357 -0.070892096 -0.012597865 0.12414828 -0.01182607 0.08999022 0.05653329 0.062854566
-0.0010044358 0.065832354 -0.02140849 0.019619243 -0.07997071 -0.090814605 -0.04914467 -0.057951406
0.01322656 0.06621929 -0.10172951 0.0678576 0.060648914 -0.050314058 -0.040995236 0.0650961
0.06987203 -0.11482911 -0.024097713 0.108699314 -0.07470649 -0.10325891 -0.098236255 0.026236085
0.046788774 0.071696214 0.00078552903 -0.0029820069 -0.031340152 0.11967321 -0.088525206 -0.10198781
0.11821262 -0.114550516 0.114290655 -0.02706906 0.1022805 -0.06308701 -0.076916344 -0.0772653
0.10785213 0.050378878 0.1133081 0.08702266 -0.11203414 -0.057572804 0.045639347 -0.03698453
-0.0055368757 -0.100118674 0.008337223 -0.09452413 -0.051842853 -0.08583674 -0.087174945 -0.011357498
0.050674364 -0.06927577 -0.05344346 -0.11159521 -0.10174769 0.10728825 -0.0982905 -0.08875135
0.031251095 0.07038607 0.07399526 0.09674016 0.00566104 -0.056323316 0.020901212 -0.047517024
0.025254553 -0.07238889 -0.0938515 -0.11682052 -0.108947694 0.06415297 0.038165517 0.053406503
-0.05996929 0.045358505 0.059769314 0.05476859 0.059786424 0.061816838 0.009583242 0.093639314
0.09964051 -0.022452261 0.10545821 0.02948435 -0.09418431 0.06022473 0.06025565 -0.038591236
-0.08761336 0.08419595 0.045293067 0.07699386 -0.022845881 -0.09824701 0.020222843 -0.10079134
-0.0147347 -0.10942041 -0.048433598 -0.08005993 -0.118648216 -0.0025893815 0.103252575 -0.08095625
-0.10663174 0.05329558 0.025138833 -0.054818954 -0.046833497 0.09646981 0.040700544 0.051666096
0.03335625 -0.105566256 -0.016162906 -0.053091075 -0.094168626 -0.08433071 0.11797767 0.035715688
0.00050435687 0.0328106 0.055722572 -0.10201721 0.10671023 -0.0411456 -0.08615766 0.07635849
-0.048973173 -0.051720895 0.018663336 -0.078990646 0.042170472 -0.119752824 -0.022574758 -0.09590015
0.06890544 0.054219317 0.021003285 0.08350353 0.015720574 -0.030410938 -0.09328309 -0.08748759
-0.014517981 0.046551935 -0.1077994 -0.028524406 0.10851309 -0.015546576 -0.10768792 -0.11415354
-0.087476835 -0.05590353 -0.027683053 -0.016579881 0.06619226 0.07606279 0.045571603 0.000162148
-0.12263886 0.053813178 0.017498845 -0.004237501 0.124284565 -0.06538519 0.0012593132 0.10114525
00000000: 525f 6dbd 70b5 c43d e2c8 fb3d 084d 2b3d
00000010: 6ad5 3c3d 42b4 fd3c cbf1 14bd 9ea1 97bc
00000020: 839f 57bd e02f 91bd 4767 4ebc 7441 fe3d
00000030: 22c2 41bc cb4c b83d 738f 673d e5b9 803d
00000040: 46a7 83ba 1dd3 863d dc60 afbc 89b8 a03c
00000050: afc7 a3bd 02fd b9bd ec4b 49bd 745e 6dbd
00000060: 37b4 583c fb9d 873d 9057 d0bd edf8 8a3d
00000070: ff6a 783d 1d16 4ebd 9fea 27bd 1b51 853d
00000080: 1119 8f3d 862b ebbd 9168 c5bc bf9d de3d
00000090: b7ff 98bd 6879 d3bd 1730 c9bd 0fed d63c
000000a0: 96a5 3f3d 77d5 923d f6eb 4d3a c66d 43bb
000000b0: 885e 00bd 3a17 f53d b44c b5bd fcde d0bd
000000c0: 7519 f23d 7699 eabd 3811 ea3d efbf ddbc
000000d0: 7078 d13d c333 81bd 5186 9dbd 453d 9ebd
000000e0: 94e1 dc3d 155a 4e3d 140e e83d f038 b23d
000000f0: 2872 e5bd 76d1 6bbd 53f0 3a3d 177d 17bd
00000100: ae6e b5bb 050b cdbd d998 083c de95 c1bd
00000110: 2c59 54bd 2ccb afbd c788 b2bd cd14 3abc
00000120: ec8f 4f3d 74e0 8dbd 88e7 5abd 088c e4bd
00000130: 1861 d0bd f1b9 db3d 884c c9bd 45c3 b5bd
00000140: 2601 003d 9226 903d d48a 973d b41f c63d
00000150: 3f80 b93b 47b3 66bd 0539 ab3c 36a1 42bd
00000160: a3e2 ce3c a040 94bd 3735 c0bd 993f efbd
00000170: f81f dfbd a262 833d 7253 1c3d c7c0 5a3d
00000180: 5ca2 75bd d7c9 393d abd0 743d 0755 603d
00000190: 9ce2 743d a733 7d3d 0803 1d3c f8c5 bf3d
000001a0: 5310 cc3d ceed b7bc 79fa d73d 2a89 f13c
000001b0: b4e3 c0bd 35ae 763d a1ce 763d d811 1ebd
000001c0: a26e b3bd ed6e ac3d 3985 393d f5ae 9d3d
000001d0: 4927 bbbc ba35 c9bd 60aa a53c b16b cebd
000001e0: d069 71bc cf17 e0bd 4f62 46bd 76f6 a3bd
000001f0: d6fd f2bd 9db2 29bb 1676 d33d 64cc a5bd
00000200: be61 dabd 774c 5a3d f4ef cd3c d789 60bd
00000210: 7bd4 3fbd f791 c53d 9db5 263d d49f 533d
00000220: 90a0 083d 1f33 d8bd 1268 84bc 0776 59bd
00000230: 7bdb c0bd 94b5 acbd 479e f13d 9d4a 123d
00000240: d136 043a 6864 063d 5a3d 643d 66ee d0bd
00000250: e58a da3d 4a88 28bd 6d73 b0bd d761 9c3d
00000260: 1898 48bd 4ad9 53bd dae3 983c d9c5 a1bd
00000270: f2ba 2c3d f840 f5bd b3ee b8bc 4c67 c4bd
00000280: 4c1e 8d3d 1315 5e3d 150f ac3c e603 ab3d
00000290: 6fc8 803c 5c20 f9bc 340b bfbd b22c b3bd
000002a0: d3dc 6dbc 3ead 3e3d efc5 dcbd 04ac e9bc
000002b0: 1c3c de3d 11b7 7ebc 7c8b dcbd 55c9 e9bd
000002c0: 0e27 b3bd 1afb 64bd 92c7 e2bc 88d2 87bc
000002d0: cf8f 873d cfc6 9b3d 4aa9 3a3d 4606 2a39
000002e0: 152a fbbd 356b 5c3d bd59 8f3c bcda 8abb
000002f0: e888 fe3d ace8 85bd 8a0f a53a 3e25 cf3d

bias_hh_l0 f4 [192]
0.06725523 0.076207936 0.05021644 -0.11604213 -0.11776032 0.0024841644 -0.06122933 -0.08985001
-0.048309173 0.043284312 0.060531233 0.108437784 0.053987496 0.091188096 0.10905162 -0.124337055
0.00557927 -0.04715225 -0.029854886 -0.08748542 -0.096293785 -0.0063482854 0.10661162 0.057773292
0.026495574 -0.0068384195 0.02676192 -0.0053773466 -0.119293034 0.03817996 -0.12404833 0.090354286
-0.027079394 0.10380219 -0.043893453 -0.0043403762 -0.07171913 -0.033365846 0.010522643 -0.07747287
0.015612739 -0.1060816 -0.075881064 0.06902015 0.0031640988 0.011391647 -0.059581652 -0.0660229
-0.0511351 -0.013822262 0.047130845 -0.025822429 -0.00587901 0.09308123 0.017690634 -0.0058559654
-0.06064577 -0.07078594 -0.03771334 -0.117732614 0.02369443 0.09043783 -0.123303644 0.12072849
-0.07359446 0.07019342 -0.098071665 0.029115869 0.08261586 0.061508287 -0.09184802 -0.087901145
0.059556976 0.06417225 0.06155725 -0.0131430235 -0.051313076 -0.048594244 0.034532998 -0.082157634
0.043609206 0.06101813 0.05775478 0.009764024 -0.08684616 0.099232055 0.11902357 0.109655164
-0.064449824 0.1063972 0.02417387 0.07694472 0.096000835 -0.029760795 -0.11101079 -0.06694846
0.052117884 0.09848962 0.07630323 -0.032659236 0.096614175 -0.0807675 0.076226085 -0.0016371086
-0.06570787 0.11995553 -0.033136647 -0.07687163 0.050786078 0.072791204 0.058836807 -0.037528947
0.1105576 -0.090695046 0.06061669 0.057880353 0.0871902 0.109924346 0.038935117 -0.0022333807
0.08819168 0.047965996 -0.11283794 0.009386322 -0.107465014 -0.065859504 -0.050710104 -0.09263457
-0.048756223 0.0878424 -0.014774413 0.10314022 -0.0015158785 0.12325759 0.0117202755 -0.06774095
0.05936113 -0.045027915 -0.08309 0.065233715 0.050783318 -0.06553024 0.009527246 0.1071924
0.104308754 -0.012577563 -0.038975973 0.10532654 0.042229258 0.058567174 -0.1176139 -0.033854485
0.06426837 0.052386083 -0.038538024 -0.030286506 -0.002078181 -0.108227044 -0.11036032 0.041836563
0.10800655 0.06939077 0.094251 -0.0731624 -0.07742594 0.06260413 0.013780184 -0.06176726
0.059085745 -0.108660005 -0.03707637 0.10410168 0.07086187 -0.050235588 0.02951226 0.08604247
0.10340098 -0.11757462 0.08073292 -0.119440086 0.05828471 0.11806821 -0.025613166 -0.0028581005
0.08160032 0.016291494 0.08424099 -0.073571004 0.093807615 -0.11077072 -0.08487312 -0.086136654
00000000: 1cbd 893d e812 9c3d c1af 4d3d 7fa7 edbd
00000010: 532c f1bd 5dcd 223b 9bcb 7abd 4803 b8bd
00000020: d7df 45bd e44a 313d 99ef 773d a114 de3d
00000030: fe21 5d3d d3c0 ba3d 7556 df3d 6da4 febd
00000040: 4fd2 b63b b822 41bd 3c92 f4bc 8e2b b3bd
00000050: ad35 c5bd 4705 d0bb 3157 da3d b0a3 6c3d
00000060: 3f0d d93c d214 e0bb d03b db3c 7434 b0bb
00000070: e84f f4bd 9762 1c3d 0d0d febd ab0b b93d
00000080: 9bd5 ddbc 3e96 d43d 9fc9 33bd b739 8ebb
00000090: 7be1 92bd a0aa 08bd 2a67 2c3c 19aa 9ebd
000000a0: 93cc 7f3c 4f41 d9bd 8867 9bbd 705a 8d3d
000000b0: c55c 4f3b 08a4 3a3c e40b 74bd 0437 87bd
000000c0: 0a73 51bd c576 62bc 460c 413d 8f89 d3bc
000000d0: b6a4 c0bb 5fa1 be3d f3eb 903c 66e3 bfbb
000000e0: b367 78bd 38f8 90bd 4e79 1abd cc1d f1bd
000000f0: d21a c23c 7837 b93d 9f86 fcbd 8040 f73d
00000100: b1b8 96bd 91c1 8f3d ccd9 c8bd 6784 ee3c
00000110: 8132 a93d 1df0 7b3d d11a bcbd 8405 b4bd
00000120: 04f2 733d be6c 833d 7423 7c3d d655 57bc
00000130: a92d 52bd c20a 47bd 7972 0d3d 4342 a8bd
00000140: 919f 323d 26ee 793d 4790 6c3d 49f9 1f3c
00000150: 66dc b1bd 2d3a cb3d a1c2 f33d e392 e03d
00000160: 45fe 83bd c6e6 d93d 4808 c63c 3195 9d3d
00000170: 169c c43d e9cc f3bc a059 e3bd 461c 89bd
00000180: 9079 553d edb4 c93d de44 9c3d b1c5 05bd
00000190: a7dd c53d 6e69 a5bd 6c1c 9c3d 4094 d6ba
000001a0: d991 86bd 3fab f53d 4bba 07bd e06e 9dbd
000001b0: 1005 503d 8e13 953d ddfe 703d f4b7 19bd
000001c0: 066c e23d 53be b9bd 3549 783d f313 6d3d
000001d0: c790 b23d 0420 e13d 6e7a 1f3d e95d 12bb
000001e0: d79d b43d fe77 443d 9417 e7bd 17c9 193c
000001f0: 9e16 dcbd 59e1 86bd 66b5 4fbd 32b7 bdbd
00000200: 9bb4 47bd b7e6 b33d 6110 72bc 2e3b d33d
00000210: 71b0 c6ba 7a6e fc3d 6606 403c c4bb 8abd
00000220: a824 733d 316f 38bd 172b aabd 4199 853d
00000230: 2b02 503d b834 86bd 2a18 1c3c b087 db3d
00000240: d49f d53d 1f12 4ebc 45a5 1fbd 71b5 d73d
00000250: 96f8 2c3d 22e4 6f3d 8edf f0bd 00ab 0abd
00000260: 239f 833d ca92 563d 0cda 1dbd 681b f8bc
00000270: 1732 08bb 24a6 ddbd 9704 e2bd d15c 2b3d
00000280: 8a32 dd3d bf1c 8e3d ab06 c13d 2bd6 95bd
00000290: 7e91 9ebd 9836 803d 48c6 613c abff 7cbd
000002a0: e503 723d 2389 debd 64dd 17bd 4333 d53d
000002b0: 0720 913d d5c3 4dbd b2c3 f13c 0937 b03d
000002c0: e5c3 d33d f6ca f0bd 4d57 a53d 019d f4bd
000002d0: f3bb 6e3d bfcd f13d b4d2 d1bc f84e 3bbb
000002e0: 121e a73d bd75 853c 8a86 ac3d 65ac 96bd
000002f0: 351e c03d c2db e2bd f5d1 adbd 6a68 b0bd

weight f4 [2, 64]
0.041652746 0.07655833 -0.05069138 0.051815055 0.008863837 0.04795689 0.11456818 0.08172822
0.0010504507 0.050072968 0.043690357 -0.047643397 -0.07871574 -0.044451516 -0.08677448 -0.09073306
-0.030473027 -0.040567406 0.022686921 -0.056061096 -0.063068666 -0.06660941 -0.013835105 0.01019182
-0.018542208 -0.087498285 -0.037814923 0.09464165 0.10267587 -0.0060929595 0.049207598 0.05575583
0.049301498 0.120899 -0.064333685 0.06852506 0.084669665 0.09730586 0.065065406 -0.0848223
-0.12242694 0.034097727 0.10305383 0.0777505 0.057250123 0.11837971 0.031368874 0.08005405
-0.11033781 0.05253075 -0.011917604 -0.051100083 0.047918096 -0.004979849 -0.038809374 -0.12644637
0.0057339347 0.10532666 0.0033564977 0.02893678 0.08434183 0.07630523 0.089057915 0.12130456
-0.031049207 -0.057393037 -0.04369394 -0.04108424 -0.047218334 -0.09313748 0.05669085 -0.09610245
0.10244593 -0.060087785 0.055079084 -0.045927327 -0.0013931458 0.032101035 -0.08566909 -0.025031291
0.057612926 0.037120305 0.05795768 -0.07658722 0.095440865 -0.04401773 -0.0650494 0.07906145
-0.04651502 -0.019698208 -0.056217708 -0.016098263 -0.08708255 -0.014885133 0.01785604 0.036681958
0.10816998 0.020421745 -0.02212107 -0.06702939 -0.029822933 0.039838288 0.0034600215 0.12130843
0.0547191 0.028616805 -0.0944872 0.120724626 0.043839548 0.03540443 0.01884686 -0.08897149
-0.017627548 -0.042006493 -0.04700529 0.109542966 -0.0885102 -0.08907818 0.052359477 0.08350755
0.111456476 -0.07836378 -0.034621425 -0.02546463 -0.07123884 -0.054479785 -0.028734298 -0.08120975
00000000: 129c 2a3d 9dca 9c3d c4a1 4fbd 063c 543d
00000010: a139 113c 726e 443d b9a2 ea3d 2061 a73d
00000020: 47af 893a 5019 4d3d a9f4 323d b925 43bd
00000030: b835 a1bd cb12 36bd d2b6 b1bd 41d2 b9bd
00000040: 92a2 f9bc 022a 26bd ecd9 b93c 52a0 65bd
00000050: 252a 81bd 846a 88bd a3ac 62bc 97fb 263c
00000060: d4e5 97bc 4d32 b3bd d2e3 1abd 7bd3 c13d
00000070: ba47 d23d 73a7 c7bb e88d 493d 3a60 643d
00000080: 5ef0 493d e599 f73d 61c1 83bd de56 8c3d
00000090: 4a67 ad3d 4b48 c73d 0341 853d 50b7 adbd
000000a0: faba fabd 0faa 0b3d e30d d33d a73b 9f3d
000000b0: 1b7f 6a3d 1071 f23d a67c 003d 61f3 a33d
000000c0: caf8 e1bd 7c2a 573d 0e42 43bc 524e 51bd
000000d0: c445 443d 002e a3bb 94f6 1ebd 287b 01be
000000e0: bbe3 bb3b 81b5 d73d b0f8 5b3b d30c ed3c
000000f0: 69bb ac3d eb45 9c3d ff63 b63d 866e f83d
00000100: e85a febc f614 6bbd 6bf8 32bd f347 28bd
00000110: 0368 41bd ddbe bebd aa34 683d 5cd1 c4bd
00000120: 2ccf d13d 9c1e 76bd 9b9a 613d 4b1e 3cbd
00000130: 379a b6ba 607c 033d 4773 afbd 6c0e cdbc
00000140: 88fb 6b3d 760b 183d 0865 6d3d c3d9 9cbd
00000150: 8076 c33d ef4b 34bd 9f38 85bd f8ea a13d
00000160: 8986 3ebd 235e a1bc 8a44 66bd 81e0 83bc
00000170: 5658 b2bd c6e0 73bc d446 923c d23f 163d
00000180: 3988 dd3d 814b a73c 3f37 b5bc b446 89bd
00000190: 394f f4bc 792d 233d 87c1 623b 8e70 f83d
000001a0: 2321 603d ca6d ea3c 8182 c1bd 793e f73d
000001b0: 1991 333d 3c04 113d bb64 9a3c af36 b6bd
000001c0: a667 90bc 000f 2cbd 9e88 40bd 1058 e03d
000001d0: d644 b5bd 9f6e b6bd e476 563d 0206 ab3d
000001e0: 4b43 e43d 317d a0bd 32cf 0dbd 339b d0bc
000001f0: abe5 91bd 3226 5fbd 3164 ebbc 4c51 a6bd

bias f4 [2]
0.060629874 -0.028757894
00000000: 0857 783d ad95 ebbc

weight_ih_l0 f4 [192, 66]
-0.024731014 -0.073075324 0.07858494 0.007208958 -0.043448567 0.024754308 0.07200478 -0.06429578
-0.011855068 0.026788794 0.11660648 0.08801044 -0.009797726 0.11401739 0.09442448 0.11712842
-0.035461754 0.013997697 -0.0053186766 -0.12169549 -0.0066426406 0.07454203 -0.10727626 -0.1275168
-0.023468664 0.10955532 -0.038635056 -0.08036649 0.017452357 -0.042010874 0.085695565 -0.04451216
-0.08438303 0.100239255 -0.071647696 -0.005306241 0.11923505 -0.046343137 0.033126775 -0.04450865
0.00810765 0.06663907 -0.11072846 -0.121516205 -0.11323535 0.12503332 -0.09385754 0.066599265
0.11656998 0.08767127 -0.07529704 -0.02202728 -0.120545425 0.10857544 -0.06726401 -0.11010969
-0.023564056 -0.04121511 -0.0020144023 -0.11670638 -0.0757941 0.10983297 0.099102214 0.08469036
-0.037956655 0.008142078 0.11098964 0.09036395 0.04627603 -0.10774245 0.070837475 -0.020387735
-0.11111188 0.019444805 0.13163495 -0.08677711 -0.032702852 0.044990044 0.04299445 -0.05724168
-0.10295558 0.005725439 -0.12739779 -0.068986826 -0.07925686 -0.028413452 -0.08482148 -0.04364221
-0.03014977 -0.071904086 -0.028223347 -0.07830823 -0.08245536 -0.06087415 -0.11285949 0.109186545
-0.0485263 0.0009626149 -0.098832585 0.07977862 -0.106433816 -0.03137009 -0.02089083 0.120500065
-0.044852283 0.08584221 -0.09133332 -0.11540715 0.092629276 0.01567905 -0.022810267 0.07936903
0.13583498 -0.0068894043 -0.073072195 0.07094673 -0.054958407 0.043251086 0.033376057 -0.024108872
0.09626301 -0.03894416 0.06759823 -0.03795763 -0.10604351 0.015293571 -0.020136692 0.06673913
0.029908216 0.011078177 -0.07128496 0.09104755 -0.11084304 0.053197104 0.06434791 0.14061517
0.0846725 -0.04894666 0.12422104 0.116876274 0.11446238 0.058005683 0.09685843 0.059302818
0.09116064 0.039342538 -0.111274675 0.07750271 -0.04248287 0.08260604 0.06406394 0.02452959
0.11871237 0.066519275 0.119281046 0.004436971 -0.059598055 -0.120490655 -0.07161611 -0.088788636
0.038026504 0.03487374 0.014297098 -0.061672118 -1.0480645e-05 0.04493114 -0.13961346 0.054792684
-0.11490981 0.02036339 0.00854707 0.10363101 -0.08640994 -0.019033207 0.052079376 -0.06983848
0.08135247 -0.06212596 0.03451588 -0.037759777 0.026137542 -0.082621686 -0.03722801 -0.073483594
0.008685989 0.03785664 0.05473227 0.12641135 0.07428702 -0.08374531 0.06629374 -0.029140875
-0.0547311 -0.14078966 -0.07271498 0.09274791 0.03174005 0.1396202 -0.014440444 -0.0033386056
0.11551988 -0.1182941 0.06163383 0.117786705 -0.0010274822 -0.09575415 -0.0022642957 -0.044056524
0.08214254 0.0016850346 0.05478662 -0.045038987 -0.06779155 -0.10111971 -0.122896925 -0.04717828
0.078840375 -0.051358204 0.1246871 0.034577556 0.04078419 0.09264995 -0.011262975 0.026517188
0.100890085 -0.080672845 -0.1076741 -0.084057264 0.08135718 0.06573652 0.110822104 -0.019317722
0.019185815 -0.024184661 0.051463023 0.08427559 0.07809787 0.007462576 -0.09066941 0.07350576
-0.041693125 0.06954254 0.0970414 0.07895097 0.12494784 0.110031545 -0.10452868 -0.1032126
-0.00016627648 -0.017486721 0.051850237 -0.034149 -0.00068866997 0.017404469 -0.029130593 -0.11675563
00000000: b298 cabc 84a8 95bd 24f1 a03d 1f39 ec3b
00000010: 20f7 31bd 8cc9 ca3c 3e77 933d 82ad 83bd
00000020: c23b 42bc 2c74 db3c 61cf ee3d d13e b43d
00000030: a486 20bc f381 e93d 9f61 c13d 06e1 ef3d
00000040: 5840 11bd 9956 653c 4b48 aebb 7c3b f9bd
00000050: 82aa d9bb 7ea9 983d a8b3 dbbd c493 02be
00000060: 5b41 c0bc 8a5e e03d cb3f 1ebd 3097 a4bd
00000070: 3ff8 8e3c 9813 2cbd 2881 af3d 6252 36bd
00000080: 03d1 acbd 3d4a cd3d 07bc 92bd fadf adbb
00000090: 8231 f43d 4dd2 3dbd f1af 073d b44e 36bd
000000a0: f3d5 043c 117a 883d 9ac5 e2bd 7ddd f8bd
000000b0: efe7 e7bd bc08 003e 6238 c0bd 3265 883d
000000c0: 3ebc ee3d ff8c b33d 5635 9abd 8e72 b4bc
000000d0: 85e0 f6bd cd5c de3d b7c1 89bd 3081 e1bd
000000e0: 6809 c1bc 2dd1 28bd 1004 04bb c103 efbd
000000f0: f039 9bbd 1cf0 e03d 1af6 ca3d 2472 ad3d
00000100: 7078 1bbd 5a66 053c 894e e33d bc10 b93d
00000110: ef8b 3d3d 13a8 dcbd 3d13 913d 2e04 a7bc
00000120: a08e e3bd b64a 9f3c 50cb 063e 33b8 b1bd
00000130: 6df3 05bd 7b47 383d f31a 303d 4076 6abd
00000140: 60da d2bd 779c bb3b 9174 02be f748 8dbd
00000150: 6c51 a2bd 54c3 e8bc e2b6 adbd 2dc2 32bd
00000160: a7fc f6bc 7342 93bd a634 e7bc 1160 a0bd
00000170: 5bde a8bd 2c57 79bd e022 e7bd 329d df3d
00000180: 83c3 46bd fe57 7c3a bd68 cabd f962 a33d
00000190: f9f9 d9bd ec7d 00bd 3f23 abbc bdc8 f63d
000001a0: 07b7 37bd 0ace af3d f70c bbbd 955a ecbd
000001b0: 6bb4 bd3d 5a71 803c 99dc babc 3b8c a23d
000001c0: 5318 0b3e 83c0 e1bb e0a6 95bd 854c 913d
000001d0: 111c 61bd 0d28 313d 55b5 083d f87f c5bc
000001e0: 8a25 c53d e983 1fbd f170 8a3d 7679 1bbd
000001f0: 572d d9bd e391 7a3c b4f5 a4bc 86ae 883d
00000200: 1302 f53c 3e81 353c d9fd 91bd 2377 ba3d
00000210: ad01 e3bd 35e5 593d d6c8 833d 6cfd 0f3e
00000220: c768 ad3d 4b7c 48bd 9a67 fe3d d45c ef3d
00000230: 416b ea3d 5e97 6d3d b65d c63d 83e7 723d
00000240: 6eb2 ba3d a425 213d fae3 e3bd beb9 9e3d
00000250: 8502 2ebd 5b2d a93d f433 833d 47f2 c83c
00000260: 791f f33d 423b 883d 9f49 f43d 0364 913b
00000270: 171d 74bd cec3 f6bd 78ab 92bd d1d6 b5bd
00000280: aec1 1b3d c4d7 0e3d 603e 6a3c e79b 7cbd
00000290: 07d6 2fb7 b709 383d d5f6 0ebe 4b6e 603d
000002a0: d655 ebbd 20d1 a63c 0309 0c3c 7f3c d43d
000002b0: b2f7 b0bd 87eb 9bbc 2f51 553d 7a07 8fbd
000002c0: 209c a63d ca77 7ebd 8660 0d3d ffa9 1abd
000002d0: 661e d63c 8f35 a9bd 667c 18bd 917e 96bd
000002e0: ae4f 0e3c 900f 1b3d f22e 603d fa71 013e
000002f0: cb23 983d a982 abbd 03c5 873d d8b8 eebc
00000300: b82d 60bd 2a2b 10be 97eb 94bd 9ef2 bd3d
00000310: db01 023d 99f8 0e3e 9d97 6cbc 82cc 5abb
00000320: b095 ec3d 2d44 f2bd c173 7c3d 283a f13d
00000330: 95ac 86ba c01a c4bd 9464 14bb 9d74 34bd
00000340: 593a a83d 61dc dc3a ef67 603d cd7a 38bd
00000350: 4cd6 8abd da17 cfbd 62b1 fbbd 033e 41bd
00000360: 1077 a13d fb5c 52bd f35b ff3d 32a1 0d3d
00000370: 530d 273d 42bf bd3d 5788 38bc 933a d93c
00000380: 769f ce3d ce37 a5bd 3d84 dcbd 3726 acbd
00000390: 989e a63d dea0 863d b3f6 e23d 3340 9ebc
000003a0: 922b 9d3c e91e c6bc e4ca 523d ae98 ac3d
000003b0: c7f1 9f3d a088 f43b e2b0 b9bd 308a 963d
000003c0: 69c6 2abd 526c 8e3d a4bd c63d 0cb1 a13d
000003d0: a7e4 ff3d 3858 e13d 2213 d6bd 2161 d3bd
000003e0: 815a 2eb9 5040 8fbc ea60 543d d2df 0bbd
000003f0: dc87 34ba d193 8e3c 48a3 eebc 931d efbd

weight_hh_l0 f4 [192, 64]
-0.021463012 -0.061437126 0.025997203 0.085904524 -0.06652041 -0.050736498 -0.059401274 -0.059429277
-0.04442307 0.033679627 0.04138409 -0.014405516 0.10203838 0.065201856 -0.13517322 0.096063256
-0.07620354 0.046679083 0.02511124 0.051505204 0.02029579 -0.020372665 0.07537781 -0.118678056
0.07398094 -0.035992224 0.0035583035 -0.10964211 0.16234316 0.1027849 0.051097967 -0.09821951
0.0786394 -0.009098866 0.08386131 -0.12379895 -0.029013753 0.044298273 0.03475692 0.08946618
0.09113707 -0.026385043 0.07286629 -0.12537582 -0.05683282 0.043398283 0.06048602 -0.043204594
-0.05344064 -0.0014818163 -0.07903859 -0.02291088 0.03752812 -0.05320903 0.087327465 0.13035633
0.08467729 0.102898955 0.056202717 -0.09381347 0.101024546 -0.11215009 0.07832223 -0.0319749
0.06361401 -0.0149980625 0.028890928 -0.01907811 0.00872109 0.05951057 0.10337382 -0.057119258
0.063163884 0.07856921 0.11869213 0.052881837 -0.051788986 -0.023317 0.032774214 -0.12030782
-0.05265842 0.08308199 0.0356215 0.07671275 0.066977486 -0.04234839 0.112930425 -0.072316766
-0.07340571 0.09471999 0.010570818 -0.122847565 0.021880463 0.1050766 0.07880653 -0.1048824
0.023954201 0.118098564 0.08234763 -0.0654161 -0.108811945 -0.0058076694 -0.05669662 -0.02148917
-0.104888335 0.08175725 -0.03850088 -0.010494232 0.008889372 0.092225425 0.052415773 -0.115630515
0.07501117 -0.0002631383 0.09204515 0.014920252 -0.027733346 0.06954209 -0.049048174 0.04252314
0.06418463 -0.01724931 0.01964024 0.08905897 -0.035235662 -0.027281722 -0.06350458 -0.13177931
0.09029272 0.07679916 0.12414272 -0.03475089 0.12513265 -0.11900154 0.13148561 -0.020411491
-0.027764235 0.05364018 -0.07525171 -0.07447898 0.084035575 -0.033871446 0.08090257 0.012124663
0.08518258 0.05400394 0.023303889 0.03798221 0.07971248 -0.012534155 -0.10400657 -0.10185619
-0.11699269 -0.040401462 -0.025050072 0.04153588 -0.04755114 -0.037810214 -0.013092193 0.090764835
0.11468026 0.07941049 -0.016896099 0.09255545 -0.072303995 0.073749006 0.00933819 -0.02390589
0.0026241709 -0.038294192 0.08880267 -0.07951911 0.011700234 -0.05170332 0.06319961 0.066439144
-0.064143665 0.109345384 -0.04295029 0.023200054 0.07661108 0.13129905 0.019296544 -0.03826474
0.013731931 0.069178596 0.11597508 0.10264121 0.05114384 -0.106381774 0.04960688 0.09157461
0.050335158 0.013969422 0.105656594 -0.061623838 -0.02702563 -0.047511443 0.053363267 0.061701987
-0.01110261 -0.015921969 -0.12940106 0.077896535 -0.027860075 0.10304832 -0.03246368 -0.10665267
0.0038755417 0.054237958 0.11388014 0.06266329 -0.081769444 -0.10729566 0.094800405 -0.07949011
0.0860694 0.017451707 0.1183866 0.031447615 0.054744113 0.0100190025 0.06868333 0.046071067
-0.119128495 0.027315836 0.11367755 -0.06941524 0.10113856 0.10041244 -0.028082956 0.09009635
0.028857201 -0.04443776 -0.06463656 0.01814798 -0.060049057 -0.053353306 0.08373826 -0.0011938555
0.054951154 -0.12660702 -0.0341194 -0.03694343 0.057650756 -0.063751884 0.016455118 -0.09561745
0.017827768 0.109084874 -0.0380117 0.0925927 -0.09116345 0.009882447 0.020606812 0.08792167
00000000: 33d3 afbc 7fa5 7bbd 16f8 d43c b6ee af3d
00000010: da3b 88bd 13d1 4fbd c04e 73bd 1d6c 73bd
00000020: f7f4 35bd a6f3 093d 5d82 293d 1d05 6cbc
00000030: 80f9 d03d 8d88 853d d96a 0abe d0bc c43d
00000040: 9a10 9cbd 9132 3f3d 16b6 cd3c 1ff7 523d
00000050: 5b43 a63c 93e4 a6bc ae5f 9a3d 7b0d f3bd
00000060: 5283 973d 956c 13bd 6d32 693b 0b8c e0bd
00000070: 493d 263e e480 d23d 1a4c 513d 4f27 c9bd
00000080: b20d a13d 6913 15bc 7abf ab3d 4e8a fdbd
00000090: 40ae edbc 1b72 353d 465d 0e3d 0b3a b73d
000000a0: 12a6 ba3d 7225 d8bc ec3a 953d 8562 00be
000000b0: 88c9 68bd 66c2 313d 30c0 773d 4df7 30bd
000000c0: 93e4 5abd 8139 c2ba fcde a1bd 99af bbbc
000000d0: 16b7 193d b6f1 59bd bed8 b23d 217c 053e
000000e0: 496b ad3d b0bc d23d d234 663d 4721 c0bd
000000f0: f5e5 ce3d f2ae e5bd 6867 a03d 1df8 02bd
00000100: 1048 823d 6fba 75bc abac ec3c b249 9cbc
00000110: e7e2 0e3c 5bc1 733d a7b5 d33d e2f5 69bd
00000120: 115c 813d e5e8 a03d dc14 f33d a09a 583d
00000130: b020 54bd 4b03 bfbc 413e 063d f263 f6bd
00000140: 5bb0 57bd e426 aa3d dae7 113d 931b 9d3d
00000150: 7e2b 893d 8175 2dbd 1148 e73d d01a 94bd
00000160: bc55 96bd 8efc c13d 3931 2d3c 8197 fbbd
00000170: a83e b33c 6732 d73d 5165 a13d 95cc d6bd
00000180: 9a3b c43c a9dd f13d e0a5 a83d e0f8 85bd
00000190: ccd8 debd 434e bebb b73a 68bd 0e0a b0bc
000001a0: b2cf d6bd 5870 a73d 19b3 1dbd 00f0 2bbc
000001b0: bba4 113c afe0 bc3d ecb1 563d b1cf ecbd
000001c0: 759f 993d d3f5 89b9 2b82 bc3d 1374 743c
000001d0: 0b31 e3bc 156c 8e3d bde6 48bd be2c 2e3d
000001e0: 3b73 833d 6d4e 8dbc 92e4 a03c 8d64 b63d
000001f0: 4553 10bd eb7d dfbc b00e 82bd 28f1 06be
00000200: 64eb b83d e148 9d3d 8a3e fe3d f356 0ebd
00000210: c622 003e 14b7 f3bd 2aa4 063e 0036 a7bc
00000220: d271 e3bc ceb5 5b3d 921d 9abd 6f88 98bd
00000230: d81a ac3d c9bc 0abd 3fb0 a53d 86a6 463c
00000240: 3474 ae3d 3c33 5d3d cce7 be3c 3c93 1b3d
00000250: 4c40 a33d 0e5c 4dbc 6601 d5bd fa99 d0bd
00000260: dd99 efbd 017c 25bd cf35 cdbc 8721 2a3d
00000270: fcc4 42bd e2de 1abd a380 56bc eae2 b93d
00000280: 7cdd ea3d f8a1 a23d b069 8abc b68d bd3d
00000290: 1e14 94bd b809 973d 35ff 183c 49d6 c3bc
000002a0: 48fa 2b3b 5fda 1cbd 2dde b53d eada a2bd
000002b0: 57b2 3f3c dcc6 53bd cc6e 813d 3f11 883d
000002c0: c15d 83bd 79f0 df3d a5ec 2fbd 0a0e be3c
000002d0: 45e6 9c3d 4273 063e c913 9e3c 7dbb 1cbd
000002e0: e5fb 603c 82ad 8d3d 5884 ed3d 8e35 d23d
000002f0: 347c 513d b0de d9bd 9530 4b3d 788b bb3d
00000300: 3d2c 4e3d 01e0 643c 7c62 d83d 4769 7cbd
00000310: db64 ddbc 5c9b 42bd 7193 5a3d 39bb 7c3d
00000320: b9e7 35bc ca6e 82bc b681 04be 3888 9f3d
00000330: d03a e4bc ff0a d33d a3f8 04bd b76c dabd
00000340: cdfc 7d3b 9f28 5e3d fe39 e93d 9c55 803d
00000350: bd76 a7bd d4bd dbbd b726 c23d b6cb a2bd
00000360: 2745 b03d e2f6 8e3c ac74 f23d 37cf 003d
00000370: 5d3b 603d be26 243c d9a9 8c3d 04b5 3c3d
00000380: a4f9 f3bd 76c5 df3c c6cf e83d 9429 8ebd
00000390: bc21 cf3d 0aa5 cd3d 3a0e e6bc 6f84 b83d
000003a0: f065 ec3c 5e04 36bd 2c60 84bd 13ab 943c
000003b0: 00f6 75bd ff88 5abd f77e ab3d 257b 9cba
000003c0: 7614 613d 45a5 01be c9c0 0bbd fe51 17bd
000003d0: 3323 6c3d 5990 82bd e2cc 863c 15d3 c3bd
000003e0: 8a0b 923c e467 df3d 28b2 1bbd 3ea1 bd3d
000003f0: e7b3 babd fde9 213c 9ecf a83c 4710 b43d

bias_ih_l0 f4 [192]
0.06916376 0.08479463 0.096030764 -0.10406235 -0.03961633 0.080008194 -0.090449065 -0.045549903
0.07339037 0.0034518177 -0.051753648 0.026650261 0.025080804 0.06499689 -0.050840084 -0.13012691
-0.02997101 -0.03658376 0.053944968 -0.057960253 -0.062303927 -0.06810145 -0.0194093 0.01018296
0.0020875295 0.045846913 -0.093091264 -0.056536023 -0.11428629 0.085359484 -0.10770622 -0.031752538
0.007219916 0.09276345 -0.04623988 -0.05342558 -0.1198793 0.06378766 -0.0025632954 0.12880827
-0.12438791 -0.10048689 0.011846944 0.023386678 -0.053322613 -0.053672712 0.12767757 0.07245767
-0.06124832 -0.01189699 0.064985454 -0.082997985 0.14504164 0.07492441 -0.10638018 -0.11936231
0.048089128 0.09923556 -0.12152618 0.011011864 -0.08032275 -0.04373814 0.02656823 0.10533394
-0.044824667 0.007474198 -0.12930219 0.020321336 0.09990062 -0.026053555 0.106361605 -0.060948167
-0.08401204 -0.007369209 -0.017886685 0.035913058 -0.017416907 -0.059037898 -0.06979172 -0.06811958
-0.048494462 0.05143433 0.07891233 -0.1391087 0.052309122 -0.040762775 0.07365885 -0.021063717
-0.020023607 -0.090124205 0.13589276 0.089926116 0.114628986 -0.13872913 -0.10108896 -0.07579791
-0.12567772 0.01204336 0.09009542 -0.006858781 0.013530852 -0.12085822 -0.048230454 0.11163688
-0.0814114 0.05797686 0.029671744 -0.059076164 -0.026795672 -0.12090126 0.14763789 -0.060489833
0.04952849 0.012267955 -0.08968444 -0.079143375 -0.007801687 0.020560877 0.07728992 -0.11955198
0.080346994 -0.011149016 -0.017427001 0.07329979 -0.045055814 -0.03593608 0.07500748 -0.074840635
-0.065729134 0.012228089 -0.06744711 -0.020803768 -0.093216084 0.051555037 -0.06326193 -0.10356424
0.039348103 -0.12799712 -0.036174417 -0.1076489 -0.029845424 -0.043279152 -0.019474609 0.018044522
-0.10538265 -0.06967909 0.09108143 0.038056284 0.060878012 -0.098906755 -0.10825788 -0.05950124
-0.032739334 -0.034876555 0.13221908 -0.12150404 0.1008588 0.094790384 -0.016698103 0.021451488
0.018872676 -0.064545065 0.010853054 -0.1059676 -0.094706744 -0.065633625 -0.039193194 -0.12547043
0.026316525 -0.04318351 0.019446483 -0.11208997 0.11616945 -0.11228529 0.030337287 0.06579149
-0.060673192 -0.0014704732 -0.12731677 0.040838208 -0.06607717 -0.12230603 0.0709113 -0.018742513
0.031179726 0.06405588 0.061015297 0.02999315 -0.009625512 -0.08920146 -0.06329631 0.10534636
00000000: bba5 8d3d cfa8 ad3d c7ab c43d a41e d5bd
00000010: bc44 22bd 56db a33d 5c3d b9bd 8992 3abd
00000020: b14d 963d e437 623b a2fb 53bd a651 da3c
00000030: 4276 cd3c 171d 853d b13d 50bd fd3f 05be
00000040: c385 f5bc dad8 15bd 66f5 5c3d bb67 6dbd
00000050: 6732 7fbd c678 8bbd 4100 9fbc 6ed6 263c
00000060: efce 083b f9c9 3b3d a2a6 bebd 5192 67bd
00000070: ee0e eabd f4d0 ae3d 1495 dcbd f30e 02bd
00000080: 0c95 ec3b c4fa bd3d 0766 3dbd c8d4 5abd
00000090: 4783 f5bd 1ba3 823d f6fc 27bb 51e6 033e
000000a0: 17bf febd 12cc cdbd af19 423c 6b95 bf3c
000000b0: d068 5abd ebd7 5bbd e9bd 023e b064 943d
000000c0: 85df 7abd 98eb 42bc 1817 853d d9fa a9bd
000000d0: cc85 143e f871 993d dadd d9bd 3a74 f4bd
000000e0: 1bf9 443d 033c cb3d b8e2 f8bd 1b6b 343c
000000f0: 4180 a4bd c426 33bd 9ea5 d93c 52b9 d73d
00000100: 129a 37bd 1eea f43b cb67 04be ee78 a63c
00000110: b298 cc3d 446e d5bc 1dd4 d93d c9a4 79bd
00000120: 810e acbd 6879 f1bb 1987 92bc 9219 133d
00000130: e7ad 8ebc b9d1 71bd f6ee 8ebd 4782 8bbd
00000140: 21a2 46bd ceac 523d ca9c a13d 8372 0ebe
00000150: 1742 563d def6 26bd 73da 963d d18d acbc
00000160: 8c08 a4bc 0a93 b8bd 7927 0b3e 2f2b b83d
00000170: 9ac2 ea3d 020f 0ebe bb07 cfbd ef3b 9bbd
00000180: a9b1 00be 8351 453c f383 b83d a0bf e0bb
00000190: 82b0 5d3c 8484 f7bd 4c8d 45bd e0a1 e43d
000001a0: 05bb a6bd 2579 6d3d 2812 f33c d9f9 71bd
000001b0: 9982 dbbc 149b f7bd 632e 173e 30c4 77bd
000001c0: 63de 4a3d 88ff 483c 7aac b7bd ec15 a2bd
000001d0: 4ba5 ffbb 496f a83c 2d4a 9e3d abd7 f4bd
000001e0: f78c a43d 5daa 36bc 12c3 8ebc 331e 963d
000001f0: 728c 38bd b631 13bd 869d 993d 0c46 99bd
00000200: ff9c 86bd 5358 483c b621 8abd aa6c aabc
00000210: 13e8 bebd 602b 533d 798f 81bd 7d19 d4bd
00000220: 7a2b 213d ad11 03be a02b 14bd 0777 dcbd
00000230: 647e f4bc 7b45 31bd 3789 9fbc 1bd2 933c
00000240: dcd2 d7bd e9b3 8ebd e788 ba3d e8e0 1b3d
00000250: 395b 793d a08f cabd 4fb6 ddbd 92b7 73bd
00000260: ae19 06bd b8da 0ebd 7064 073e 1cd7 f8bd
00000270: 0f8f ce3d 7621 c23d 76ca 88bc 08bb af3c
00000280: df9a 9a3c 3430 84bd 02d1 313c 8b05 d9bd
00000290: 9cf5 c1bd ec6a 86bd 0b89 20bd 527b 00be
000002a0: c195 d73c 31e1 30bd 3b4e 9f3c 6d8f e5bd
000002b0: 40ea ed3d d5f5 e5bd e785 f83c b0bd 863d
000002c0: 7484 78bd e5bc c0ba 545f 02be f745 273d
000002d0: 7853 87bd 957b fabd f239 913d e689 99bc
000002e0: a06c ff3c bb2f 833d 2deb 793d 32b4 f53c
000002f0: 53b4 1dbc 41af b6bd 7fa1 81bd d5bf d73d

bias_hh_l0 f4 [192]
-0.1008277 -0.057701483 0.10884065 -0.03765485 0.059073526 0.077895135 -0.050596178 -0.08077625
0.11251518 0.050869748 0.041304894 0.071205415 -0.003165089 -0.02769327 0.0058575924 -0.07434571
0.013359073 -0.06903853 0.028403679 0.024008607 -0.09910259 0.11914931 0.03115288 0.12949975
-0.10480674 -0.011598698 -0.022595199 -0.12890244 -0.11556755 -0.07479481 0.019843608 -0.04106712
0.0070486413 0.0925298 0.012365204 -0.088662736 -0.09114485 -0.07900872 0.08357718 -0.087411106
-0.06616268 0.019811017 -0.10665049 -0.014635199 0.022240343 -0.00034832477 0.022806099 0.0075553907
-0.076780945 -0.10920144 0.043130454 -0.0741834 0.051279463 0.07082249 0.090840444 -0.022512142
-0.03785101 -0.049053866 0.10463396 -0.08532078 -0.017883524 0.049353022 0.022787211 -0.076147586
-0.01547437 0.024318973 -0.09300838 0.016246153 0.0963359 0.08013063 -0.1276033 0.0055772555
0.021184988 -0.0330949 0.07157032 -0.063420236 0.0048163077 0.06443915 -0.044111546 -0.0010449365
0.011977065 0.0032440028 -0.0091546215 -0.13521364 -0.08946337 0.110006206 -0.07815333 -0.015953586
-0.110632986 -0.1029542 -0.043807197 -0.034238793 0.014458539 -0.042837292 -0.10628893 -0.14367257
0.03400263 0.1069909 0.06368282 -0.05743809 0.047296442 0.03901291 0.05505822 -0.06921889
-0.0042556757 0.07275907 0.081149325 -0.099909276 -0.14308852 -0.069485515 0.07988038 -0.06873969
-0.029155442 -0.056801498 -0.11323638 0.096777946 -0.073748074 -0.0685636 -0.055480484 -0.007111866
-0.022080826 -0.15183908 -0.0111291595 0.0029390922 -0.0792032 -0.09801507 0.0034705834 0.0073823077
0.10451683 0.023876099 0.035875823 -0.11942458 -0.077119514 -0.089472555 -0.010151049 0.07225128
-0.06744693 0.09239795 -0.09020427 0.03996996 -0.09461639 0.05251444 0.023725627 0.12129266
-0.04083483 0.0069614532 0.0820631 -0.07078337 -0.0666673 -0.11993459 0.016138466 -0.13260104
0.1145058 -0.08995752 -0.08349414 -0.09974494 0.08989102 0.03327363 0.056778174 -0.022058912
-0.07823615 0.06281448 0.02743811 0.12315432 -0.107261434 -0.06073202 0.037170675 0.05215963
0.038756773 -0.089304425 -0.013539653 0.08161794 0.00989123 -0.03267886 0.12959509 0.049221992
-0.03181561 0.029177768 -0.047286205 -0.08387176 0.096014075 -0.07741115 0.10245893 -0.1056512
-0.054235302 -0.10712767 0.07850222 0.108282335 -0.09432927 -0.006092987 0.04230765 0.07999012
00000000: c17e cebd 6458 6cbd d9e7 de3d f93b 1abd
00000010: 15f7 713d 7c87 9f3d f03d 4fbd 056e a5bd
00000020: 5c6e e63d cc5c 503d 522f 293d 25d4 913d
00000030: 626d 4fbb ffdc e2bc 0cf1 bf3b 9042 98bd
00000040: 03e0 5a3c 1364 8dbd d5ae e83c b3ad c43c
00000050: 4cf6 cabd 8e04 f43d 5334 ff3c 959b 043e
00000060: eba4 d6bd 7708 3ebc 9119 b9bc 00ff 03be
00000070: aeae ecbd 052e 99bd 108f a23c ff35 28bd
00000080: 4af8 e63b 4480 bd3d 6d97 4a3c cf94 b5bd
00000090: 27aa babd 53cf a1bd 832a ab3d 9804 b3bd
000000a0: 4d80 87bd b74a a23c 926b dabd 79c8 6fbc
000000b0: 6131 b63c 5c9f b6b9 dbd3 ba3c 3693 f73b
000000c0: 543f 9dbd 01a5 dfbd 8fa9 303d 77ed 97bd
000000d0: 6a0a 523d 620b 913d 8e0a ba3d 626b b8bc
000000e0: a909 1bbd b5ec 48bd 544a d63d a9bc aebd
000000f0: 7880 92bc 6526 4a3d 3fac ba3c 44f3 9bbd
00000100: 3688 7dbc 9538 c73c 2d7b bebd a716 853c
00000110: c24b c53d 871b a43d 71aa 02be 69c1 b63b
00000120: 248c ad3c 858e 07bd 7693 923d 78e2 81bd
00000130: 1ed2 9d3b acf8 833d 4fae 34bd 40f6 88ba
00000140: 743b 443c 5699 543b 44fd 15bc 7275 0abe
00000150: 9238 b7bd ef4a e13d da0e a0bd 18b1 82bc
00000160: 8c93 e2bd a7d9 d2bd 2d6f 33bd fa3d 0cbd
00000170: 82e3 6c3c 2876 2fbd 03ae d9bd e71e 13be
00000180: 5746 0b3d 0c1e db3d 236c 823d 3444 6bbd
00000190: eab9 413d 00cc 1f3d ba84 613d a2c2 8dbd
000001a0: 3273 8bbb b502 953d 9e31 a63d 3c9d ccbd
000001b0: cc85 12be 6c4e 8ebd 5398 a33d 65c7 8cbd
000001c0: 65d7 eebc b0a8 68bd 7ae8 e7bd 8433 c63d
000001d0: 3b09 97bd 136b 8cbd 813f 63bd a80a e9bb
000001e0: d9e2 b4bc b47b 1bbe 1457 36bc c99d 403b
000001f0: 4a35 a2bd 20bc c8bd ba72 633b 49e7 f13b
00000200: eb0c d63d cf97 c33c 87f2 123d e094 f4bd
00000210: d6f0 9dbd 633d b7bd 9650 26bc 7bf8 933d
00000220: 9e21 8abd 233b bd3d 04bd b8bd 8ab7 233d
00000230: 3dc6 c1bd 6219 573d 3f5c c23c 4968 f83d
00000240: 6c42 27bd e71c e43b b310 a83d dff6 90bd
00000250: de88 88bd 44a0 f5bd d134 843c 91c8 07be
00000260: 0482 ea3d a63b b8bd fafe aabd 1347 ccbd
00000270: c818 b83d ee49 083d 3b90 683d e4b4 b4bc
00000280: 463a a0bd e1a4 803d e3c5 e03c 5538 fc3d
00000290: e2ab dbbd 23c2 78bd 4740 183d 56a5 553d
000002a0: 6cbf 1e3d 3de5 b6bd 6cd5 5dbc 4e27 a73d
000002b0: d30e 223c 45da 05bd 93b4 043e 009d 493d
000002c0: 1651 02bd 3706 ef3c 2eaf 41bd f5c4 abbd
000002d0: 07a3 c43d bd89 9ebd fdd5 d13d a85f d8bd
000002e0: d625 5ebd c065 dbbd c6c5 a03d 21c3 dd3d
000002f0: b42f c1bd aea7 c7bb c94a 2d3d dcd1 a33d

weight f4 [1, 64]
0.041477457 -0.09357442 0.06521896 -0.00026608398 -0.09262831 0.111249566 -0.09103997 -0.049035203
-0.037032776 0.097102515 0.11600002 -0.04204393 0.09204826 -0.08089524 0.10104826 0.09990522
0.041524623 0.004411585 0.020776853 -0.04910049 0.08425329 -0.05836833 -0.014940126 0.11456661
0.021605091 0.034646235 0.015845645 0.05713549 -0.09470988 -0.106696896 0.06951978 0.12096294
-0.07239343 -0.11528579 0.06814021 -0.002695227 -0.038053736 0.066086404 0.05220971 0.019459633
0.021217806 0.030677432 -0.038672976 0.07835399 0.020057734 0.03622938 -0.10714713 -0.008653878
0.08710218 0.03182742 -0.024558932 -0.10166168 -0.03677457 -0.07775443 -0.03285548 -0.10546514
-0.08356497 0.055120032 0.101010956 -0.11660725 0.020561064 -0.10583499 -0.07069371 0.07067598
00000000: 44e4 293d f2a3 bfbd 8591 853d 3081 8bb9
00000010: e9b3 bdbd d0d6 e33d 2a73 babd 23d9 48bd
00000020: aeaf 17bd afdd c63d 6b91 ed3d 4236 2cbd
00000030: cc83 bc3d 67ac a5bd 64f2 ce3d 1c9b cc3d
00000040: b915 2a3d 0f8f 903b 3834 aa3c 981d 49bd
00000050: fd8c ac3d a113 6fbd 6ec7 74bc e6a1 ea3d
00000060: 29fd b03c 36e9 0d3d bace 813c e706 6a3d
00000070: 41f7 c1bd e783 dabd 6360 8e3d 6bbb f73d
00000080: 0243 94bd f51a ecbd 188d 8b3d 68a2 30bb
00000090: 3cde 1bbd 4f58 873d d9d9 553d cf69 9f3c
000000a0: f7d0 ad3c 3d4f fb3c 8e67 1ebd 0f78 a03d
000000b0: 1e50 a43c 4265 143d f46f dbbd ffc8 0dbc
000000c0: a162 b23d 785d 023d d02f c9bc 0034 d0bd
000000d0: eea0 16bd b73d 9fbd 7893 06bd 1bfe d7bd
000000e0: 1c24 abbd 8bc5 613d d5de ce3d c8cf eebd
000000f0: ad6f a83c 04c0 d8bd ddc7 90bd 91be 903d
