models/transformer_encoder/checkpoint/trained_irdpg_40.pth (torch, 409346 bytes, 22 tensors)

weight_ih_l0 f4 [192, 64]
0	0xbd4e3a0f	-0.050348338
1	0x3c99d778	0.018779501
2	0x3d455fc1	0.04818702
3	0x3dd040f5	0.101686396
4	0x3d114d3b	0.035474043
5	0xbda97cc9	-0.08275754
6	0x3c9aa862	0.01887912
7	0x3d22a0e2	0.03970421
8	0xbd6e416d	-0.058167864
9	0x3da053ff	0.07828521
10	0xbdc9373b	-0.098249875
11	0x3d52485d	0.051338542
12	0xbbf76c21	-0.0075507318
13	0xbdd7e4d6	-0.10541694
14	0x3de74b3d	0.112936474
15	0xbd1b117a	-0.037858464
16	0xbdcb1b1e	-0.099172816
17	0x3c4bbe8c	0.012435567
18	0x3df2e45b	0.118599616
19	0xbde6e659	-0.11274404
20	0xbd92356f	-0.07139098
21	0xbdcb5fe2	-0.099303976
22	0xbdb58ea6	-0.08865099
23	0xbc25d44a	-0.010121414
24	0xbc1bcd0c	-0.009509336
25	0x3d8d5500	0.06900978
26	0x3d90101d	0.07034323
27	0xbdd8ffad	-0.10595641
28	0xbce87a9a	-0.028378773
29	0xbddc11e7	-0.10745602
30	0x3cd4865f	0.02594298
31	0xbcceb006	-0.025230419
32	0xbd3cf4c5	-0.046131868
33	0x3da3219b	0.07965394
34	0x3dd6009b	0.10449334
35	0x3c439953	0.011938411
36	0xbb1f6f99	-0.0024327992
37	0x3de4ef88	0.111784995
38	0xbda41169	-0.08011133
39	0x3d3d548b	0.046223205
40	0x3b8b35c7	0.004248354
41	0x3c8af4b6	0.01696239
42	0x3c48ddc7	0.012259907
43	0x3d9876ea	0.07444556
44	0x3dc9c6e9	0.09852392
45	0x3dd85912	0.10563864
46	0x3ddf386f	0.10899436
47	0x3ce2dc57	0.027692957
48	0xbbbc86f4	-0.0057533924
49	0x3d8fff0e	0.0703107
50	0xbdd3c4df	-0.103402846
51	0x3c9f618f	0.0194557
52	0x3db5d81e	0.08879112
53	0x3a97d42d	0.0011583619
54	0xbdf4ae11	-0.11947263
55	0x3cdc0592	0.026858125
56	0x3de31d66	0.11089592
57	0x3d9b98e5	0.07597522
58	0x3c809200	0.015694618
59	0x3de642f3	0.11243238
60	0x3d5380f8	0.051636666
61	0x3d5ba85e	0.053627364
62	0x3d9c1a95	0.076222576
63	0x3cef4251	0.029206427
64	0xbca6b92c	-0.020351969
65	0x3d68e257	0.05685648
66	0xba9be05a	-0.0011892423
67	0x3e0072cc	0.12543792
68	0x3ddf9786	0.10917573
69	0x3b2c7916	0.002631729
70	0x3caf799e	0.021420296
71	0xbdcb77ac	-0.09934935
72	0x3cdcfc1d	0.026975686
73	0x3dd78c87	0.1052485
74	0xbd633f42	-0.05548025
75	0xbdc2b845	-0.09507803
76	0xbd3adab0	-0.045618713
77	0x3d305153	0.043046307
78	0x3c026717	0.007959149
79	0xbd062b61	-0.032756213
80	0x3ddcfd4e	0.107905015
81	0xbd6d994c	-0.058007523
82	0x3d9a9760	0.07548404
83	0xbdf5dc72	-0.12004937
84	0x3dee1b7a	0.116263345
85	0xbdaf8f6e	-0.08572279
86	0xbd7fd7d2	-0.06246168
87	0x3dc48533	0.09595718
88	0xbdf4cfdc	-0.119537085
89	0x3d3e333c	0.04643558
90	0xbdd14a26	-0.10219221
91	0x3df31d3a	0.11870809
92	0xbdec0365	-0.11524085
93	0x3d286f6a	0.041121878
94	0x3cff56c3	0.0311693
95	0x3d5a60f2	0.05331511
96	0xbdb164dd	-0.08661816
97	0xbd01dfe0	-0.031707644
98	0xbdedb02d	-0.116058685
99	0x3d81f607	0.06345754
100	0x3cd86da7	0.026419474
101	0xbd84d26e	-0.06485449
102	0x3d3194fd	0.043354977
103	0xbdc1443f	-0.09436845
104	0x3c11b6b0	0.008893654
105	0xbdb431d2	-0.08798565
106	0x3a108606	0.0005513135
107	0x3df126ae	0.11774956
108	0x3d91e069	0.07122881
109	0xbc464618	-0.012101673
110	0xbd060e45	-0.032728452
111	0xbcd7ecef	-0.026358096
112	0x3db2d792	0.08732523
113	0xbd3e571b	-0.04646979
114	0x3dbbfdcf	0.091792695
115	0x3cd188ce	0.025577929
116	0xbd8f63bd	-0.070014454
117	0x3dd61db5	0.10454885
118	0xbcf9b5c1	-0.030482175
119	0x3d55d3ee	0.052204065
120	0x3d1c01ed	0.038087774
121	0xbd0d00a7	-0.03442445
122	0xbdde14f8	-0.10843843
123	0xbde146e5	-0.1099985
124	0xbdb1a227	-0.08673506
125	0x3be76175	0.0070611783
126	0x3dde445f	0.108528845
127	0x3cd6af79	0.026206719
128	0xbdd4d5a0	-0.10392308
129	0x3c8f0958	0.01746051
130	0xbd9051e5	-0.0704687
131	0xbdc89b95	-0.097953
132	0xbd3feda1	-0.04685748
133	0xbdf5481b	-0.11976644
134	0x3d16438f	0.036685523
135	0x3dc01bfd	0.09380338
136	0x3bb42f9b	0.005498839
137	0x3da1012c	0.07861552
138	0x3d12d6f8	0.03584954
139	0x3d55c3ca	0.052188672
140	0xbdd897be	-0.105758175
141	0x3d5a44a6	0.053288125
142	0xb843e7e2	-4.670758e-05
143	0x3d0bfd36	0.034177028
144	0xbd4f021c	-0.05053912
145	0xbde63d4b	-0.112421595
146	0xbd886184	-0.06659225
147	0x3b5212ce	0.0032054665
148	0x3ba0df7c	0.004909454
149	0x3c2de0e7	0.010612703
150	0xbdb4788f	-0.08812057
151	0xbd988eea	-0.07449134
152	0x3d056112	0.032563277
153	0x3d95a2f6	0.07306473
154	0x3b5bc726	0.003353545
155	0x3d8a355d	0.067484595
156	0xbd957f13	-0.07299628
157	0xbc85b4b1	-0.016321512
158	0xbdbee36c	-0.09320721
159	0xbdece0b9	-0.115663
160	0x3d924502	0.071420684
161	0xbd939712	-0.07206549
162	0x3aa9a7d1	0.001294369
163	0x3d2c1f05	0.04202177
164	0xbd738b02	-0.05945874
165	0xbd934aff	-0.07192039
166	0x3daabfc5	0.083373584
167	0xbd0d1039	-0.0344393
168	0x3d73b1b8	0.059495658
169	0x3de5ba5b	0.11217185
170	0x3dcdab9b	0.10042497
171	0xbda91173	-0.08255281
172	0x3d80b62d	0.06284747
173	0xbd92d431	-0.071693785
174	0xbd530223	-0.05151571
175	0xbd2d9ede	-0.042387836
176	0x3da86f1b	0.08224317
177	0xbd526fe5	-0.051376242
178	0x3d6bc695	0.05756243
179	0xbd8905f1	-0.06690586
180	0xbd94fa40	-0.07274294
181	0x3df6699d	0.12031863
182	0x3da5f0ac	0.08102545
183	0x3dc49325	0.09598378
184	0x3d25667f	0.04038095
185	0x3dc52036	0.096252844
186	0xbdc885e1	-0.097911604
187	0xbdcd1d0d	-0.100153066
188	0x3d3b40fe	0.04571628
189	0xbd87f5aa	-0.066386536
190	0x3d24b289	0.040209327
191	0xbdd152b2	-0.10220851
192	0x3d4f53c9	0.050617013
193	0xbd9ae4f1	-0.07563198
194	0x3c28f394	0.01031198
195	0xbdcaf969	-0.099108525
196	0xbc863bbc	-0.016385905
197	0x3d21a462	0.03946341
198	0xbcc7463e	-0.024325486
199	0x3dee1151	0.116243966
200	0xbdf532a9	-0.11972553
201	0x3dd719a8	0.105029404
202	0xbd4cdb55	-0.05001386
203	0x3dd4fe8e	0.10400115
204	0x3dfe34e5	0.124124326
205	0xbdcb6cee	-0.09932886
206	0x3d1472f9	0.03624246
207	0xbda76a11	-0.081745274
208	0x3cbb7d7d	0.022886986
209	0xbc80056b	-0.015627583
210	0xbde97735	-0.1139969
211	0x3c937d7c	0.018004172
212	0xbcfb7077	-0.030693276
213	0xbc6de1ca	-0.014519164
214	0x3dcc18c6	0.09965663
215	0x3df9a205	0.12189106
216	0x3dab5b3c	0.08367011
217	0x3d92e4b9	0.07172532
218	0x3dafd13a	0.08584829
219	0xbdc361a8	-0.09540111
220	0xbbcf1573	-0.0063196956
221	0xbc67dbf5	-0.014151563
222	0x3d7b3770	0.061332166
223	0x3c925d60	0.01786679
224	0xbdd6fab7	-0.10497039
225	0xbdc8e746	-0.09809737
226	0x3b2ca5ad	0.0026343868
227	0x3c9baf06	0.019004356
228	0xbdd4565d	-0.10368035
229	0xbdc25bff	-0.09490203
230	0x3d127b22	0.03576196
231	0x3c00a51d	0.007851866
232	0x3c8f7bca	0.017515082
233	0xbd717549	-0.058949742
234	0x3c518239	0.012787395
235	0xbdca2192	-0.09869684
236	0x3db9def7	0.0907573
237	0xbda39e3b	-0.079891644
238	0xbc0b7f9a	-0.008514309
239	0x3c82cea9	0.015967684
240	0xbd7716c8	-0.06032446
241	0x3b9886a4	0.0046547223
242	0xbd8de2e9	-0.06928045
243	0x3c41fcc1	0.011840046
244	0xbcacc14a	-0.021088261
245	0xbc64dada	-0.013968194
246	0x3d655bbc	0.055995688
247	0xbdd59f55	-0.10430781
248	0xbcf54821	-0.02994162
249	0x3d032e6f	0.032026704
250	0x3d9fc53b	0.078012906
251	0xbcd8c499	-0.026460933
252	0x3d3de99c	0.046365365
253	0x3ce59a3c	0.028027646
254	0x3aad7d6f	0.0013236235
255	0x3d8d58d4	0.06901708

weight_hh_l0 f4 [192, 64]
0	0xbd65dda4	-0.056119576
1	0xbc1db6c1	-0.009626091
2	0xbd21461b	-0.0393735
3	0xbd3b938d	-0.045795012
4	0xbd83b9e1	-0.06431938
5	0xbda3e609	-0.0800286
6	0xbda140b2	-0.07873668
7	0xbdc4b412	-0.09604658
8	0xbd1ffe77	-0.039061036
9	0xbdc32afd	-0.09529684
10	0x3d9cb967	0.0765255
11	0xbcd02956	-0.025410336
12	0xbd8ee767	-0.0697773
13	0xbbe10361	-0.006866858
14	0x3cdacba5	0.026708433
15	0x3d652abe	0.055948965
16	0xbdf9c657	-0.121960334
17	0xbdc6c882	-0.097062126
18	0x3de5043d	0.11182449
19	0x3d861604	0.06547168
20	0xbdd402bf	-0.10352086
21	0xbdc2b4a8	-0.09507114
22	0x3dfcdce6	0.123468205
23	0x3d8de036	0.069275305
24	0xbd9fcb6f	-0.07802474
25	0x3cf7e3de	0.030260023
26	0xbdca11d4	-0.09866682
27	0x3cb495d2	0.022044096
28	0x3dc2c414	0.09510055
29	0xbd868434	-0.065681845
30	0x3d1dae47	0.038496282
31	0x3d0ef711	0.03490359
32	0x3df08d4c	0.117457
33	0xbd91f4d1	-0.07126773
34	0x3d1a1836	0.037620746
35	0xbbae1a7b	-0.0053132153
36	0xbda406c0	-0.080091
37	0xbd151837	-0.036400046
38	0xbdfafece	-0.122556314
39	0x3d21892b	0.039437454
40	0x3cfd8dfd	0.030951494
41	0xbc255999	-0.0100921625
42	0x3d752331	0.059848014
43	0x3cc27e1f	0.02374178
44	0x3db5e937	0.08882373
45	0x3d44267c	0.047888264
46	0xbdb4b08a	-0.08822735
47	0xbd3e9ea0	-0.046537995
48	0xbd1f5d59	-0.038907383
49	0x3d4eacea	0.050457872
50	0x3d4a51d5	0.049394447
51	0xbd29c233	-0.04144497
52	0x3d606d77	0.054791894
53	0x3d38a34e	0.045077614
54	0x3d3837bb	0.044975024
55	0x3c2eee45	0.010676925
56	0xbcde2ae8	-0.027120069
57	0x3d403ac7	0.046931054
58	0xbdd290cf	-0.10281526
59	0xbb3a4474	-0.002842215
60	0x3d4e014c	0.050294206
61	0xbdd02cd0	-0.10164797
62	0x3d48abef	0.048992094
63	0x3d5033bd	0.05083059
64	0x3cb8bf27	0.022552086
65	0x3db99b9b	0.090628825
66	0x3d9b6e69	0.075894184
67	0xbda01a6b	-0.07817539
68	0xbd9bc86c	-0.07606587
69	0xbb4bc0a8	-0.0031090174
70	0x3d7722d0	0.060335934
71	0xbcec13d9	-0.028818058
72	0xbd19bfd6	-0.037536465
73	0xbddce4bb	-0.107858144
74	0x3de343f0	0.110969424
75	0x3daaf493	0.0834743
76	0x3cc5caa2	0.024144474
77	0xbd8f6cde	-0.07003187
78	0x3d93e84c	0.072220415
79	0xbdf970b6	-0.12179701
80	0x3ccab3ff	0.024744032
81	0xbdbc0c90	-0.091820836
82	0xbd917c10	-0.07103741
83	0xbd39e925	-0.04538836
84	0x3d7d7a27	0.06188407
85	0xbdbbad15	-0.09163872
86	0xbdd0b2f0	-0.101903796
87	0xbd33902b	-0.04383866
88	0xbca48927	-0.02008493
89	0x3d88588c	0.06657514
90	0xbc80c670	-0.015719622
91	0x3c36fad2	0.011168199
92	0xbdd4f6a8	-0.103986084
93	0xbd9761b0	-0.07391679
94	0xbd99598f	-0.07487785
95	0xbde494a5	-0.11161164
96	0xbdc76ffc	-0.09738156
97	0xbd8f9dd0	-0.07012522
98	0x3d5a4569	0.05328885
99	0xbd8698e3	-0.065721296
100	0x3daa65ab	0.08320173
101	0xbd654df8	-0.05598256
102	0x3dddc7a4	0.10829094
103	0xbdd9323e	-0.10605286
104	0x3ca45960	0.020062149
105	0xbd5be937	-0.053689208
106	0x3d2982bf	0.041384455
107	0xbdd626ea	-0.10456641
108	0xbcc273c5	-0.023736844
109	0xbd97ee2f	-0.07418477
110	0x3d6aca14	0.057321623
111	0xbde8890d	-0.11354265
112	0xbd45eda3	-0.04832233
113	0xbcc70378	-0.024293646
114	0x3cadeaec	0.021230184
115	0x3dc48e2d	0.095974304
116	0xbcdd4997	-0.02701263
117	0xbd862892	-0.06550707
118	0xbd8d2995	-0.06892697
119	0x3df7b5ea	0.12095244
120	0xbde3af23	-0.11117389
121	0xbbafb52e	-0.0053621745
122	0xbde48082	-0.111573234
123	0x3d0094cb	0.0313919
124	0xbd979ea2	-0.07403304
125	0x3de2c5de	0.110728964
126	0x3db0f70d	0.08640871
127	0xbd8ec655	-0.069714226
128	0xbd8a6212	-0.06756987
129	0x3d56a13b	0.052399855
130	0x3d30ee4b	0.043196004
131	0x3ce24641	0.02762139
132	0xbdcc4c1d	-0.09975455
133	0x3d341b07	0.043971088
134	0xbd3c4c4a	-0.045971192
135	0x3d23c7b9	0.039985392
136	0xbda84812	-0.08216871
137	0xbd334b5f	-0.04377305
138	0x3d0dfff6	0.03466793
139	0xbda4dd8e	-0.08050071
140	0x3d0320ba	0.032013632
141	0xbd8fb411	-0.07016767
142	0x3c8bd43e	0.017068978
143	0x3d9cd86f	0.07658469
144	0x3d68fb48	0.056880265
145	0xbd1e17bd	-0.038596857
146	0x3da27f6a	0.079344586
147	0x3d43af43	0.047774564
148	0xbc3f1816	-0.011663457
149	0xbdccb2ef	-0.099950664
150	0xbdeca825	-0.115555085
151	0x3dcdae94	0.10043064
152	0xbdbbc8f4	-0.09169188
153	0x3de4dca5	0.11174897
154	0xbdef6428	-0.11689025
155	0x3c931e61	0.017958822
156	0xbdab46d2	-0.08363117
157	0x3d8df490	0.06931412
158	0xbded6bd5	-0.11592833
159	0x3de3574d	0.11100636
160	0x3bfd4d64	0.007730173
161	0x3d21a366	0.03946247
162	0xbde4ba9d	-0.11168406
163	0x3c8e8fbe	0.017402526
164	0x3c4c0c3a	0.012454087
165	0x3d9f35bd	0.07773922
166	0xbdc5a537	-0.09650653
167	0x3d8b58ba	0.068040326
168	0xbd26f0b0	-0.04075688
169	0x3da62f70	0.08114517
170	0xbd174163	-0.036927592
171	0xbc0bb7f7	-0.008527747
172	0x3dee9c18	0.11650866
173	0xbc6426cf	-0.013925268
174	0xbcdb1ce2	-0.02674717
175	0x3dc05474	0.09391108
176	0xbda7cc25	-0.08193234
177	0xbd03460d	-0.032049228
178	0xbd957e43	-0.07299473
179	0x3cf20bd6	0.02954666
180	0xbb829167	-0.0039846185
181	0xbdc02e99	-0.09383888
182	0xbd100e51	-0.035169903
183	0x3d301edd	0.042998184
184	0xbd01183c	-0.031517252
185	0x3df52f86	0.11971955
186	0xbd8eb4e6	-0.069680974
187	0xbd802b90	-0.06258309
188	0x3d6afb37	0.057368483
189	0xbd3c8365	-0.046023745
190	0x3dceed8f	0.101039045
191	0xbdc4d4e8	-0.09610921
192	0x3d3a216c	0.04544203
193	0x3e016e4c	0.12639731
194	0xbd5b767a	-0.053579785
195	0x3af48e32	0.00186581
196	0xbd986acc	-0.07442245
197	0xbd24cfe2	-0.040237315
198	0xbc96e553	-0.018419897
199	0xbd40c82b	-0.047065895
200	0xbdb42947	-0.087969355
201	0x3df73fc4	0.12072709
202	0xbbe2c53f	-0.006920486
203	0xbdaad749	-0.08341844
204	0xbcb840b9	-0.0224918
205	0x3d939aa4	0.0720723
206	0x3cd40451	0.025880964
207	0xbd94febc	-0.07275149
208	0xbd2cffef	-0.042236265
209	0x3d9c0ffb	0.076202355
210	0x3d07ecee	0.033184938
211	0xbd53a98d	-0.051675368
212	0x3dcb886b	0.09938129
213	0x3d136b9f	0.035991307
214	0xbd887698	-0.06663245
215	0x3d15ad5f	0.036542293
216	0xbdc5cb86	-0.0965796
217	0x3d87dad0	0.06633532
218	0xbd161d36	-0.03664895
219	0xbda1ebb3	-0.07906284
220	0x3c931970	0.017956465
221	0x3d119152	0.03553898
222	0x3df251ca	0.11832006
223	0x3d38bcd4	0.045101956
224	0x3ccefdd9	0.025267528
225	0x3dc43873	0.09581079
226	0xbd8f2021	-0.0698855
227	0xbb738795	-0.003715967
228	0x3dac14ec	0.08402428
229	0xbd21946e	-0.039448194
230	0x3dfbdf2a	0.122984245
231	0x3d948096	0.07251088
232	0x3d5cc41b	0.05389796
233	0x3dc975bf	0.098369114
234	0xbd905a93	-0.07048526
235	0xbdec9b73	-0.11553087
236	0xbde5f877	-0.112290315
237	0x3dc7642d	0.09735904
238	0xbdaaa3dd	-0.08332036
239	0x3de8afd0	0.113616586
240	0x3dd6fc32	0.10497321
241	0x3c593f39	0.013259702
242	0xbdfaa2c1	-0.12238074
243	0xbdf190cc	-0.11795196
244	0xbda45db8	-0.08025688
245	0x3d06364e	0.032766633
246	0x3d8e6467	0.06952744
247	0x3d96b5a3	0.07358863
248	0xbdca37d4	-0.098739296
249	0xbdcfcbca	-0.101462916
250	0xbc1821c5	-0.009285395
251	0x3df2aa54	0.11848894
252	0x3df1f5db	0.11814471
253	0x3d8cedf4	0.068813235
254	0x3d96c3e9	0.07361586
255	0x3a2ee631	0.00066718744

bias_ih_l0 f4 [192]
0	0xbd6c3a36	-0.0576727
1	0x3dc5890f	0.096452825
2	0x3dfb144f	0.12259733
3	0x3d2d39d7	0.04229149
4	0x3d3ef7af	0.04662293
5	0x3d00c4b6	0.0314376
6	0xbd1628be	-0.03665995
7	0xbc94c702	-0.0181613
8	0xbd55a943	-0.052163374
9	0xbd907e69	-0.07055361
10	0xbc48a732	-0.012246894
11	0x3dff08b3	0.12452831
12	0xbc3b1ab5	-0.011419942
13	0x3db90397	0.09033888
14	0x3d69080d	0.056892443
15	0x3d817267	0.06320649
16	0xba33fc4f	-0.0006865905
17	0x3d879d68	0.0662182
18	0xbcaa02a1	-0.020753207
19	0x3ca3d489	0.019998806
20	0xbda5d535	-0.08097307
21	0xbdb9381a	-0.09043904
22	0xbd47fab4	-0.048823074
23	0xbd6bcb4c	-0.057566926
24	0x3c5745ab	0.013139169
25	0x3d86dbdc	0.065849036
26	0xbdcfba51	-0.10142959
27	0x3d8bbef4	0.06823531
28	0x3d76cee2	0.060255893
29	0xbd4d0c94	-0.050060824
30	0xbd29a317	-0.0414153
31	0x3d84ae9a	0.06478615
32	0x3d8e3371	0.069434054
33	0xbdea65b0	-0.114451766
34	0xbcc8f486	-0.02453066
35	0x3dddcef3	0.10830488
36	0xbd983e4d	-0.07433758
37	0xbdd4c1d6	-0.10388534
38	0xbdc8690b	-0.0978566
39	0x3cda4850	0.02664581
40	0x3d41141b	0.047138315
41	0x3d926c8f	0.07149612
42	0x3a9ca0f7	0.0011949827
43	0xbb3560ef	-0.0027676185
44	0xbd00c316	-0.03143605
45	0x3df690c4	0.120393306
46	0xbdb59c85	-0.08867744
47	0xbdd01245	-0.10159735
48	0x3df2d62c	0.11857256
49	0xbdeb70d4	-0.1149613
50	0x3de96d33	0.11397781
51	0xbcda9198	-0.026680753
52	0x3dd579a7	0.10423594
53	0xbd804e5c	-0.06264946
54	0xbd9cb7a3	-0.076522134
55	0xbd9ec54b	-0.077524744
56	0x3dddcf4c	0.10830554
57	0x3d501f64	0.050811186
58	0x3de8ffb9	0.113769
59	0x3db1623c	0.08661315
60	0xbde48a3f	-0.11159181
61	0xbd6cc7d6	-0.057807766
62	0x3d397269	0.045275126
63	0xbd191d50	-0.03738147
64	0xbbd904dd	-0.006622894
65	0xbdceb5f1	-0.10093296
66	0x3c216123	0.009849819
67	0xbdc29770	-0.09501541
68	0xbd501d84	-0.0508094
69	0xbdb1adbd	-0.08675716
70	0xbdb1d5e7	-0.08683377
71	0xbc305b06	-0.010763889
72	0x3d47f2cd	0.048815537
73	0xbd8c9341	-0.06864024
74	0xbd603fdc	-0.0547484
75	0xbde752af	-0.112950675
76	0xbdd1ec15	-0.10250107
77	0x3dda248e	0.106515035
78	0xbdc8eea1	-0.0981114
79	0xbdb78606	-0.0896111
80	0x3cf780cb	0.03021278
81	0x3d91399a	0.07091065
82	0x3d96ce20	0.07363534
83	0x3dc3ed36	0.09566729
84	0x3bcbb971	0.0062171747
85	0xbd69e817	-0.057106104
86	0x3ca28030	0.019836515
87	0xbd47014d	-0.048585225
88	0x3cd348f0	0.025791615
89	0xbd92e591	-0.071726926
90	0xbdc3b7b1	-0.09556521
91	0xbdeef3e2	-0.11667611
92	0xbddde9ab	-0.10835584
93	0x3d81c6f9	0.06336779
94	0x3d1ec132	0.038758464
95	0x3d5648bd	0.052315462
96	0xbd71b2e0	-0.05900848
97	0x3d36d995	0.044641096
98	0x3d768882	0.060188778
99	0x3d5cb470	0.053883016
100	0x3d731a7a	0.059351422
101	0x3d789eac	0.060698196
102	0x3c088696	0.008332869
103	0x3dbcd902	0.092210785
104	0x3dc98dd0	0.09841502
105	0xbcb80b9a	-0.02246647
106	0x3dd54ac4	0.10414651
107	0x3cea85b6	0.028628211
108	0xbdbe3530	-0.092874885
109	0x3d728f61	0.059218768
110	0x3d76583f	0.06014275
111	0xbd2167ad	-0.039405514
112	0xbdb4afd5	-0.088226
113	0x3dadd2cb	0.08487471
114	0x3d3be406	0.045871757
115	0x3d9c3df8	0.07629007
116	0xbcc57e56	-0.024108093
117	0xbdcabae3	-0.09898927
118	0x3c9f4877	0.019443734
119	0xbdd0342b	-0.101662
120	0xbc6834b1	-0.014172719
121	0xbdde9686	-0.10868554
122	0xbd496bc6	-0.049175046
123	0xbda2decc	-0.079526514
124	0xbdf262a9	-0.11835224
125	0xbb7b0aac	-0.0038305921
126	0x3dd191a6	0.10232858
127	0xbda83cd2	-0.082147256
128	0xbdd932b2	-0.106053725
129	0x3d5c6127	0.05380359
130	0x3cd0ab48	0.025472298
131	0xbd5e7ec6	-0.05432012
132	0xbd3f8eb3	-0.046766948
133	0x3dc67ff8	0.09692377
134	0x3d289b50	0.041163743
135	0x3d55aa90	0.052164614
136	0x3d0743d1	0.03302366
137	0xbdd71ada	-0.105031684
138	0xbc8782bd	-0.016541833
139	0xbd5b2cbc	-0.05350946
140	0xbdc22a1d	-0.09480689
141	0xbdadb3e5	-0.08481578
142	0x3df0db3e	0.11760567
143	0x3d107224	0.035265103
144	0xb783cc6f	-1.5711614e-05
145	0x3d04470e	0.032294326
146	0x3d611881	0.05495501
147	0xbdd00418	-0.10157031
148	0x3dd99658	0.10624379
149	0xbd2a46b9	-0.041571353
150	0xbdae8487	-0.08521371
151	0x3d9b54dd	0.07584546
152	0xbd469198	-0.048478693
153	0xbd55f41b	-0.05223475
154	0x3c97197a	0.018444765
155	0xbda0d1ae	-0.07852493
156	0x3d2f26f2	0.04276175
157	0xbdf4732e	-0.11936031
158	0xbcb4ffce	-0.022094633
159	0xbdc39b4d	-0.09551106
160	0x3d8be756	0.06831233
161	0x3d600643	0.05469347
162	0x3ca83bb3	0.02053628
163	0x3dabf5fb	0.083965264
164	0x3c84eb0e	0.016225364
165	0xbcf53b96	-0.02993564
166	0xbdbdf987	-0.09276109
167	0xbdb40896	-0.087907
168	0xbc755c18	-0.01497557
169	0x3d3d9a78	0.04628989
170	0xbddbd103	-0.10733225
171	0xbceda475	-0.029009083
172	0x3dddb4bb	0.10825487
173	0xbc775c93	-0.015097755
174	0xbddcd06f	-0.10781943
175	0xbde8ddbc	-0.113704175
176	0xbdb4672a	-0.088087395
177	0xbd62cdec	-0.055372164
178	0xbcdf16cf	-0.027232556
179	0xbc8b2bb2	-0.016988609
180	0x3d889402	0.06668855
181	0x3d9cac71	0.07650078
182	0x3d38d52e	0.04512518
183	0xb989c2fa	-0.00026275945
184	0xbdfc2391	-0.12311471
185	0x3d5e5732	0.054282375
186	0x3c93272b	0.017963013
187	0xbb725b99	-0.0036980866
188	0x3dff8179	0.12475867
189	0xbd84f400	-0.06491852
190	0x3ae154ad	0.0017191373
191	0x3dd023d2	0.10163082

bias_hh_l0 f4 [192]
0	0x3d8a4faa	0.06753476
1	0x3d9ce687	0.07661157
2	0x3d4c4698	0.04987201
3	0xbdecb117	-0.11557215
4	0xbdf01b31	-0.11723936
5	0x3b4176ab	0.0029520195
6	0xbd7c028e	-0.061525874
7	0xbdb74c9f	-0.08950161
8	0xbd43e997	-0.04783019
9	0x3d32add3	0.043622803
10	0x3d795f9c	0.060882196
11	0x3ddedbe1	0.10881782
12	0x3d5ecbda	0.054393627
13	0x3dbb779f	0.09153675
14	0x3de012c5	0.1094108
15	0xbdfdebeb	-0.123985134
16	0x3bc13c96	0.005897115
17	0xbd3f8e20	-0.0467664
18	0xbcef3401	-0.029199602
19	0xbdb2648d	-0.08710585
20	0xbdc74333	-0.09729614
21	0xbbc3b6bd	-0.005972712
22	0x3ddaffd1	0.10693324
23	0x3d6e36d8	0.05815777
24	0x3cd855f9	0.026408182
25	0xbbec36e1	-0.0072086905
26	0x3cddb0c5	0.02706183
27	0xbba3d3d4	-0.004999617
28	0xbdf51df6	-0.11968605
29	0x3d1d6c20	0.038433194
30	0xbdfee94b	-0.12446841
31	0x3db8692a	0.090044335
32	0xbce16c1d	-0.027517373
33	0x3dd55c14	0.10417953
34	0xbd358f99	-0.0443264
35	0xbb9b2665	-0.0047348016
36	0xbd922011	-0.071350224
37	0xbd0b3b7e	-0.033992283
38	0x3c329f97	0.010902307
39	0xbd9dd347	-0.077063136
40	0x3c82c358	0.015962288
41	0xbdd9aa37	-0.10628169
42	0xbd9a90dd	-0.07547162
43	0x3d8dcad5	0.06923453
44	0x3b4913da	0.0030681998
45	0x3c46704b	0.012111734
46	0xbd74ab8a	-0.059733905
47	0xbd866a4d	-0.06563244
48	0xbd4ff99e	-0.050775163
49	0xbc6931b6	-0.014233043
50	0x3d3fc43f	0.046818014
51	0xbcd05b38	-0.025434121
52	0xbb80914a	-0.00392357
53	0x3dbf86c6	0.09351878
54	0x3c9426b4	0.018084861
55	0xbbc863ce	-0.0061154133
56	0xbd768c42	-0.060192354
57	0xbd901593	-0.07035365
58	0xbd189608	-0.037252456
59	0xbdf1f480	-0.11814213
60	0x3cc5ba72	0.024136756
61	0x3db8bc48	0.09020287
62	0xbdfd4592	-0.12366785
63	0x3df67065	0.12033156
64	0xbd98f214	-0.07468048
65	0x3d8e16a5	0.06937913
66	0xbdc5c0c2	-0.09655906
67	0x3cea7e21	0.028624596
68	0x3dab5053	0.0836493
69	0x3d782afa	0.06058786
70	0xbdbb67f1	-0.091506846
71	0xbdb2ce4b	-0.087307535
72	0x3d6c54e5	0.05769815
73	0x3d84b9f1	0.06480778
74	0x3d76cb20	0.06025231
75	0xbc6d8b07	-0.014498479
76	0xbd5543a3	-0.052066457
77	0xbd4a3587	-0.049367454
78	0x3d0e2e4b	0.034712117
79	0xbdaa0504	-0.08301738
80	0x3d2e5ecf	0.042570885
81	0x3d7c1437	0.061542716
82	0x3d6b16df	0.05739486
83	0x3c0e6560	0.008691162
84	0xbdb0b8d2	-0.08629002
85	0x3dc99fc5	0.09844927
86	0x3df1946c	0.11795887
87	0x3dde62d5	0.108586945
88	0xbd82e4b1	-0.06391276
89	0x3ddb41d5	0.10705916
90	0x3cb7fe5c	0.022460155
91	0x3d9de0e8	0.07708913
92	0x3dc5d263	0.09659269
93	0xbcfa3b93	-0.030545985
94	0xbde222c1	-0.11041785
95	0xbd8b5848	-0.06803948
96	0x3d59690c	0.053078696
97	0x3dc83ccd	0.09777222
98	0x3d9d20c9	0.07672269
99	0xbd096648	-0.03354481
100	0x3dc4f998	0.09617919
101	0xbda7b3ed	-0.08188615
102	0x3d998cdd	0.07497571
103	0xbb48e8d3	-0.0030656352
104	0xbd89145c	-0.06693336
105	0x3df5a3ce	0.11994134
106	0xbd0d19b8	-0.034448355
107	0xbd9f2fbe	-0.07772778
108	0x3d556216	0.052095495
109	0x3d930424	0.07178524
110	0x3d70887b	0.058723908
111	0xbd1d0dc9	-0.038343225
112	0x3de12ad3	0.10994496
113	0xbdb85a75	-0.09001628
114	0x3d7aa802	0.06119538
115	0x3d6a31f6	0.057176553
116	0x3daffb04	0.08592799
117	0x3ddf9adb	0.10918208
118	0x3d1c4978	0.038156003
119	0xbb4b6d22	-0.003104039
120	0x3db5c47b	0.08875366
121	0x3d477a95	0.048700888
122	0xbde89c4f	-0.113579385
123	0x3c228665	0.0099197375
124	0xbddb7b71	-0.10716904
125	0xbd896c1a	-0.06710072
126	0xbd537e44	-0.05163409
127	0xbdc027a0	-0.09382558
128	0xbd452d0a	-0.048138656
129	0x3db4ee52	0.088345185
130	0xbc6ca64a	-0.014443943
131	0x3dd435ab	0.10361799
132	0xbac64cae	-0.0015129053
133	0x3dfd5659	0.12369985
134	0x3c4788bf	0.012178599
135	0xbd89c2fb	-0.06726643
136	0x3d71bdc5	0.05901887
137	0xbd3635f3	-0.044485044
138	0xbdaaf0aa	-0.08346684
139	0x3d84bef8	0.06481737
140	0x3d4d4e93	0.050123762
141	0xbd873afb	-0.066030465
142	0x3c15f478	0.009152524
143	0x3dda9a70	0.10673988
144	0x3dd49419	0.1037981
145	0xbc57108a	-0.013126502
146	0xbd22c1ac	-0.03973548
147	0x3dd8ae70	0.10580146
148	0x3d2b2420	0.0417825
149	0x3d6e1b85	0.058131713
150	0xbdeef32f	-0.11667477
151	0xbd0cdf26	-0.0343925
152	0x3d849a80	0.06474781
153	0x3d5487a0	0.051887155
154	0xbd1ec0a0	-0.03875792
155	0xbcf41cca	-0.029798884
156	0xbac67494	-0.0015140944
157	0xbddcd36a	-0.107825115
158	0xbde10a1b	-0.109882556
159	0x3d2cf081	0.04222155
160	0x3ddbf9d0	0.10741007
161	0x3d8f1e76	0.06988232
162	0x3dc00df7	0.093776636
163	0xbd94dc30	-0.0726856
164	0xbd9d7ef7	-0.07690232
165	0x3d8133d3	0.06308713
166	0x3c6a6ffa	0.014308924
167	0xbd7ebf07	-0.062193897
168	0x3d701036	0.05860921
169	0xbddf0ffc	-0.10891721
170	0xbd15de2c	-0.036588833
171	0x3dd4407b	0.10363861
172	0x3d909d62	0.070612684
173	0xbd4beb33	-0.04978485
174	0x3cf0b2e4	0.029382177
175	0x3db1207f	0.08648776
176	0x3dd28414	0.10279098
177	0xbdefb99f	-0.11705326
178	0x3da6473a	0.08119054
179	0xbdf57db1	-0.11986864
180	0x3d70bfc4	0.058776632
181	0x3df2bd76	0.11852543
182	0xbcd5461d	-0.02603441
183	0xbb57f9ed	-0.0032955364
184	0x3da60d80	0.08108044
185	0x3c899e16	0.016799014
186	0x3dad788f	0.0847026
187	0xbd95970e	-0.07304202
188	0x3dc112b6	0.09427397
189	0xbde1e455	-0.11029879
190	0xbdacd2af	-0.08438622
191	0xbdaf467c	-0.08558366

weight f4 [2, 64]
0	0x3d2cb4b6	0.042164527
1	0x3d9dcdd0	0.07705271
2	0xbd4d453b	-0.05011485
3	0x3d5627ab	0.052283924
4	0x3c08c7bc	0.008348402
5	0x3d46addd	0.048505653
6	0x3de9c8da	0.114152625
7	0x3da69eed	0.081357814
8	0x3a359626	0.0006926976
9	0x3d4b314c	0.04960756
10	0x3d313b3d	0.043269385
11	0xbd44f47a	-0.048084714
12	0xbda22881	-0.07917882
13	0xbd37dcd6	-0.04488834
14	0xbdb0bf2e	-0.08630215
15	0xbdbacb4c	-0.09120807
16	0xbcfd67c3	-0.030933267
17	0xbd28203f	-0.041046377
18	0x3cb603c0	0.022218585
19	0xbd63a9aa	-0.055581726
20	0xbd80224c	-0.062565416
21	0xbd897260	-0.067112684
22	0xbc5b8787	-0.013399011
23	0x3c1f1177	0.009708754
24	0xbc9bca55	-0.019017378
25	0xbdb26981	-0.087115295
26	0xbd18e4dc	-0.037327632
27	0x3dc29ef7	0.095029764
28	0x3dd148b5	0.10218946
29	0xbbb85a88	-0.0056260265
30	0x3d479511	0.048726145
31	0x3d66b66c	0.056326315
32	0x3d4bf76d	0.04979651
33	0x3df89261	0.121372946
34	0xbd835e42	-0.064144626
35	0x3d8d608e	0.06903182
36	0x3dae570f	0.08512699
37	0x3dc83f85	0.097777404
38	0x3d8640b0	0.06555307
39	0xbdae9e4a	-0.08526285
40	0xbdfb8948	-0.12282044
41	0x3d0c3c44	0.03423716
42	0x3dd439e5	0.10362605
43	0x3d9e3fd9	0.07727022
44	0x3d683b4c	0.056697175
45	0x3df35aa0	0.1188252
46	0x3d01e9e4	0.031717196
47	0x3da4e570	0.08051574
48	0xbde2e1c5	-0.11078218
49	0x3d553d5c	0.05206047
50	0xbc4ad3f4	-0.012379635
51	0xbd531d3c	-0.051541552
52	0x3d469a96	0.04848727
53	0xbb903888	-0.0044012703
54	0xbd20b21e	-0.039232366
55	0xbe01f8b0	-0.12692523
56	0x3bca3637	0.0061710137
57	0x3dd6c17a	0.104861215
58	0x3b778460	0.003776811
59	0x3ce95e0a	0.028487224
60	0x3dabe3e0	0.08393073
61	0x3d9d5221	0.076816805
62	0x3db77e63	0.08959653
63	0x3df991e9	0.12186033
64	0xbd014618	-0.031560987
65	0xbd6d1b5e	-0.057887428
66	0xbd3554f4	-0.04427047
67	0xbd2a3397	-0.041553106
68	0xbd3f4b8a	-0.0467029
69	0xbdbfde91	-0.09368623
70	0x3d69e86b	0.057106417
71	0xbdc40f29	-0.09573204
72	0x3dd28abe	0.10280369
73	0xbd743698	-0.059622377
74	0x3d635407	0.055500057
75	0xbd3a4f8a	-0.04548601
76	0xba73cffa	-0.0009300705
77	0x3d05466a	0.032537855
78	0xbdb06aeb	-0.08614143
79	0xbcc92a47	-0.024556292
80	0x3d6dde1f	0.05807316
81	0x3d1a01b3	0.037599277
82	0x3d6f501c	0.058426008
83	0xbd9dd514	-0.07706657
84	0x3dc26ea4	0.09493759
85	0xbd323c3d	-0.04351448
86	0xbd861d45	-0.065485515
87	0x3da2e83c	0.079544514
88	0xbd3c944a	-0.046039857
89	0xbca48152	-0.020081196
90	0xbd684380	-0.056704998
91	0xbc870e79	-0.016486393
92	0xbdb15951	-0.08659614
93	0xbc7b873c	-0.015352067
94	0x3c963881	0.01833749
95	0x3d13e9a0	0.036111474
96	0x3ddc84b1	0.107674964
97	0x3ca3698f	0.019947795
98	0xbcb6c3b9	-0.022310125
99	0xbd8a5064	-0.067536145
100	0xbcf80e4c	-0.030280255
101	0x3d213f04	0.039366737
102	0x3b42cbce	0.0029723528
103	0x3df95788	0.121748984
104	0x3d61bdc1	0.055112604
105	0x3ce94961	0.028477373
106	0xbdc2ae83	-0.09505942
107	0x3df83a47	0.121204905
108	0x3d35d4e8	0.044392496
109	0x3d0f311d	0.034958947
110	0x3c978a3d	0.018498534
111	0xbdb728be	-0.08943318
112	0xbc8cc3bc	-0.017183177
113	0xbd2a21e0	-0.041536212
114	0xbd3ea424	-0.046543255
115	0x3de13f87	0.10998445
116	0xbdb66f3d	-0.08907936
117	0xbdb79df8	-0.08965677
118	0x3d58326e	0.05278247
119	0x3dac0118	0.08398646
120	0x3de35e24	0.1110194
121	0xbd9f892a	-0.07789834
122	0xbd0f87ec	-0.035041735
123	0xbcccec6a	-0.025015075
124	0xbd910e22	-0.07082774
125	0xbd613e9b	-0.054991346
126	0xbcefcdc4	-0.029272921
127	0xbda774af	-0.081765525

bias f4 [2]
0	0x3d7ac46e	0.061222486
1	0xbcf07080	-0.02935052

weight_ih_l0 f4 [192, 66]
0	0xbcaad741	-0.020854594
1	0xbd9e2503	-0.07721903
2	0x3da87a02	0.08226396
3	0x3b0c8db8	0.0021446776
4	0xbd2106cd	-0.039313126
5	0x3ceaa023	0.028640812
6	0x3d8b6628	0.06806594
7	0xbd8a980f	-0.06767284
8	0xbcee75fb	-0.029108992
9	0x3cb91908	0.022594944
10	0x3df81c8c	0.1211482
11	0x3dac5971	0.08415497
12	0xbc7bbd0b	-0.015364896
13	0x3df19e4e	0.11797772
14	0x3dca3c00	0.09874725
15	0x3de75e14	0.11297241
16	0xbd022e3c	-0.031782374
17	0x3c337be0	0.010954827
18	0xb93a02af	-0.00017739342
19	0xbdef73ba	-0.11691995
20	0xbc2fac74	-0.010722268
21	0x3d911191	0.07083429
22	0xbde468d1	-0.11152805
23	0xbdfe06d4	-0.12403646
24	0xbc9ad7b2	-0.01890168
25	0x3de89d9a	0.11358185
26	0xbd0cfa42	-0.034418352
27	0xbdb4bae1	-0.08824707
28	0x3cafcf1e	0.021461066
29	0xbd3a3ea1	-0.045469884
30	0x3db89d62	0.090143934
31	0xbd23797c	-0.03991078
32	0xbdb579e7	-0.08861142
33	0x3dc435bd	0.09580562
34	0xbd885013	-0.06655898
35	0xbc14efff	-0.009090423
36	0x3dfcfd16	0.1235296
37	0xbd4dfe04	-0.050291076
38	0x3cea6fac	0.028617702
39	0xbd46bc8d	-0.04851966
40	0x3bafa66c	0.005360415
41	0x3d8f9caf	0.07012307
42	0xbdda1011	-0.10647596
43	0xbe0073d9	-0.12544192
44	0xbdeef93a	-0.1166863
45	0x3df5f8b3	0.12010326
46	0xbddfd59f	-0.10929417
47	0x3d9090a3	0.07058837
48	0x3de75592	0.11295618
49	0x3dbb030d	0.09131441
50	0xbd91dfdf	-0.07122778
51	0xbc93268d	-0.017962718
52	0xbdf10825	-0.117691316
53	0x3dbd1bb7	0.09233802
54	0xbd921fc1	-0.07134963
55	0xbde9546f	-0.113930576
56	0xbce4da2f	-0.02793607
57	0xbd148557	-0.036259975
58	0x3ad1be8d	0.0016002223
59	0xbdf6c813	-0.1204988
60	0xbda580df	-0.08081221
61	0x3de94eec	0.11392006
62	0x3dd3e7fb	0.10346981
63	0x3db62823	0.08894374
64	0xbd2d9861	-0.042381648
65	0x3b9ea018	0.004840862
66	0x3deaf007	0.11471563
67	0x3db16d38	0.0866341
68	0x3d4b3594	0.049611643
69	0xbde60660	-0.11231685
70	0x3d98bfe3	0.074584745
71	0xbc8a77b3	-0.01690278
72	0xbdea92e0	-0.114537954
73	0x3c858f6a	0.016303737
74	0x3df23cf4	0.11828032
75	0xbdb97b76	-0.090567514
76	0xbceb237d	-0.028703446
77	0x3d2a31c1	0.041551355
78	0x3d1a16b1	0.037619296
79	0xbd5c2aaa	-0.053751625
80	0xbdcb4de7	-0.09926968
81	0x3b06da6b	0.0020576965
82	0xbdfe01c0	-0.124026775
83	0xbd92bd12	-0.071649686
84	0xbd98db12	-0.07463659
85	0xbcc62dd2	-0.02419177
86	0xbdb54205	-0.08850483
87	0xbd401d07	-0.046902683
88	0xbd0bd407	-0.034137752
89	0xbd8ce392	-0.06879343
90	0xbcc801d3	-0.024414932
91	0xbd987b1d	-0.07445357
92	0xbda14a1e	-0.07875465
93	0xbd8a9f95	-0.06768719
94	0xbddf9b73	-0.109183215
95	0x3dd980c4	0.10620263
96	0xbd368f49	-0.04457024
97	0x3ba554fa	0.0050455304
98	0xbdd25b1c	-0.10271284
99	0x3d9b802b	0.075928055
100	0xbdd0fd91	-0.10204614
101	0xbd0e1a65	-0.03469314
102	0xbc8c2f2b	-0.017112335
103	0x3def6be0	0.116904974
104	0xbd47cbe3	-0.048778426
105	0x3da8a18c	0.082339376
106	0xbdbfedb8	-0.09371513
107	0xbde60637	-0.11231654
108	0x3dc53457	0.09629124
109	0x3c4751b9	0.01216548
110	0xbcd4d858	-0.025982067
111	0x3d997c8d	0.07494459
112	0x3df3d8bf	0.119065754
113	0xbb5ab61a	-0.00333727
114	0xbd9c4b6e	-0.076315746
115	0x3d984cfe	0.0743656
116	0xbd528177	-0.051393
117	0x3d400c0b	0.046886485
118	0x3d1320a2	0.035919793
119	0xbd1c624a	-0.038179673
120	0x3dbd8905	0.0925465
121	0xbd2e0fae	-0.042495422
122	0x3d8259a6	0.06364755
123	0xbd0898dd	-0.033348907
124	0xbdcfb018	-0.10141009
125	0x3c3eb969	0.011640885
126	0xbcc955b1	-0.024576994
127	0x3d9033b1	0.07041109
128	0x3d0a9213	0.033830713
129	0x3c759e95	0.014991422
130	0xbd9a66b7	-0.075391226
131	0x3db4fb0f	0.08836948
132	0xbdcdfff1	-0.100585826
133	0x3d2e6294	0.04257448
134	0x3d985add	0.07439206
135	0x3e0345e8	0.12819636
136	0x3dc3ae3d	0.09554718
137	0xbd1eb936	-0.03875085
138	0x3de95ddd	0.11394856
139	0x3ddc8f3f	0.107695095
140	0x3dc4e9aa	0.096148804
141	0x3d41e005	0.047332782
142	0x3ddc221c	0.10748693
143	0x3d494c8e	0.049145274
144	0x3d9e5670	0.077313304
145	0x3d4b646e	0.049656324
146	0xbdcd9b4f	-0.100393884
147	0x3d887e10	0.066646695
148	0xbd0527d4	-0.032508686
149	0x3d96e9f7	0.07368844
150	0x3d9c7f85	0.0764151
151	0x3d135515	0.035969812
152	0x3ddd6b7c	0.10811517
153	0x3d67a29b	0.056551557
154	0x3ddd9a96	0.108205006
155	0x3c621dc0	0.013801038
156	0xbd43f778	-0.047843426
157	0xbde0924e	-0.109654054
158	0xbd79fa68	-0.06102982
159	0xbdd507b9	-0.104018636
160	0x3d469838	0.04848501
161	0x3ccfde39	0.025374519
162	0x3ccd70c1	0.02507818
163	0xbd4e58f2	-0.050377794
164	0xbc33f078	-0.010982625
165	0x3d0a8531	0.033818427
166	0xbe02af9f	-0.12762307
167	0x3d36c4c2	0.044621237
168	0xbdd43659	-0.103619285
169	0x3c230e22	0.0099521
170	0xbb2cd4ff	-0.0026372073
171	0x3dbe7fe6	0.093017384
172	0xbdc11be8	-0.09429151
173	0xbc150ef7	-0.009097806
174	0x3d80b67e	0.062848076
175	0xbda54e62	-0.08071591
176	0x3d930804	0.07179263
177	0xbd95f63e	-0.073223576
178	0x3c66484b	0.014055322
179	0xbcde84c2	-0.027162913
180	0x3c8641f3	0.016388869
181	0xbd945a0a	-0.07243736
182	0xbcda4159	-0.026642488
183	0xbd80b97a	-0.06285377
184	0x3c87cc7b	0.016576996
185	0x3c9eed1a	0.019400168
186	0x3d3429bb	0.04398511
187	0x3dee23d4	0.116279274
188	0x3d825cda	0.06365366
189	0xbd927fa4	-0.07153252
190	0x3d95bb74	0.073111445
191	0xbd22eaf0	-0.039774835
192	0xbd88446f	-0.06653678
193	0xbe05550f	-0.13020729
194	0xbd7b4ae5	-0.061350722
195	0x3dd4bba5	0.10387353
196	0x3ca6aa61	0.020344915
197	0x3e06380a	0.13107315
198	0xbbf8c581	-0.0075919037
199	0xbc2afc45	-0.010436122
200	0x3df9cf2c	0.12197718
201	0xbe016216	-0.12635073
202	0x3d8d24ba	0.06891771
203	0x3dfee490	0.124459386
204	0xbbfc2861	-0.007695243
205	0xbdd1b3f4	-0.102394015
206	0xbc86fce2	-0.016478006
207	0xbd51899f	-0.051156636
208	0x3db69ace	0.089162454
209	0xbba3d4ec	-0.0049997475
210	0x3d346843	0.044044744
211	0xbd1c79b2	-0.038201995
212	0xbd797e48	-0.060911447
213	0xbddd39e7	-0.108020596
214	0xbdedd493	-0.11612811
215	0xbd590898	-0.05298671
216	0x3db39ed1	0.08770526
217	0xbd325a22	-0.04354299
218	0x3df1146a	0.11771472
219	0x3ce63c10	0.028104812
220	0x3d07eb73	0.033183526
221	0x3dcab3ed	0.09897599
222	0xbb62c13c	-0.003460004
223	0x3d0af8d2	0.0339287
224	0x3ddd2281	0.10797597
225	0xbdbb86a3	-0.09156539
226	0xbdce7b09	-0.10082061
227	0xbdb8b187	-0.09018236
228	0x3db57faf	0.08862244
229	0x3d95d066	0.073151395
230	0x3dd37639	0.103252836
231	0xbcd8c4b3	-0.026460981
232	0x3cdf6989	0.027272003
233	0xbcfc4b61	-0.030797662
234	0x3d7080ed	0.058716703
235	0x3d9e2809	0.0772248
236	0x3d90cf98	0.07070845
237	0x3a0d03a6	0.0005379267
238	0xbdc320b8	-0.09527725
239	0x3da40a0e	0.0800973
240	0xbd0e8c33	-0.034801673
241	0x3d7e5b73	0.06209893
242	0x3dba5251	0.09097732
243	0x3d903332	0.07041015
244	0x3dd873d0	0.105689645
245	0x3def574b	0.11686572
246	0xbde30821	-0.11085535
247	0xbdc537ff	-0.09629821
248	0x3bdede76	0.0068014218
249	0xbc295fee	-0.010337813
250	0x3d696f99	0.056991193
251	0xbd458f00	-0.04823208
252	0xbbfe05bf	-0.00775215
253	0x3c2ce4ff	0.010552644
254	0xbd1410b7	-0.036148753
255	0xbddd599d	-0.10808108

weight_hh_l0 f4 [192, 64]
0	0xbcb00b71	-0.02148983
1	0xbd874b36	-0.06606142
2	0x3ce09823	0.027416294
3	0x3db5cc54	0.08876863
4	0xbd95a69a	-0.07307167
5	0xbd5154b1	-0.05110616
6	0xbd85b1e0	-0.065280676
7	0xbd8e35bd	-0.069438435
8	0xbd52b7fc	-0.051444992
9	0x3d0413df	0.032245513
10	0x3d2d93ee	0.042377405
11	0xbc3f57d6	-0.011678657
12	0x3dd036c5	0.101666965
13	0x3d88a75b	0.066725455
14	0xbe02449d	-0.12721486
15	0x3dbf1d05	0.09331707
16	0xbd9111d0	-0.070834756
17	0x3d43242d	0.04764192
18	0x3cabf79a	0.020992089
19	0x3d5b53c9	0.0535467
20	0x3cb570af	0.022148458
21	0xbceee27f	-0.029160736
22	0x3da12513	0.078683995
23	0xbddd8678	-0.108166635
24	0x3d9601d0	0.073245645
25	0xbd1d780c	-0.038444564
26	0xbb9e3f38	-0.0048293136
27	0xbde1aebf	-0.11019658
28	0x3e17c7a5	0.14822252
29	0x3dcfe9bc	0.10152003
30	0x3d4aac6b	0.049480837
31	0xbdcf943f	-0.101356976
32	0x3d9f073d	0.077650525
33	0xbcb2dc3d	-0.021833533
34	0x3da97414	0.08274093
35	0xbdfec372	-0.12439622
36	0xbcd7de85	-0.026351223
37	0x3d37fc26	0.044918202
38	0x3d2733b8	0.040820807
39	0x3dd46c02	0.10372163
40	0x3db9608a	0.090516165
41	0xbcf1abe7	-0.029500915
42	0x3d9b65f4	0.075878054
43	0xbdf5d614	-0.12003723
44	0xbd6cb446	-0.05778911
45	0x3d2f5925	0.042809624
46	0x3d4ed148	0.050492555
47	0xbd178680	-0.036993504
48	0xbd648e6e	-0.055799894
49	0xbb95744f	-0.004560984
50	0xbda0891d	-0.07838652
51	0xbd22d5db	-0.03975473
52	0x3cc1ce8d	0.023658061
53	0xbd6c44f4	-0.057682946
54	0x3db6a40e	0.0891801
55	0x3e06cac0	0.1316328
56	0x3daca1d4	0.08429304
57	0x3dd155b4	0.10221425
58	0x3d6899ce	0.056787305
59	0xbdbfe6ba	-0.093701795
60	0x3dc98d3c	0.098413914
61	0xbde1faeb	-0.11034187
62	0x3d8dcfdd	0.069244124
63	0xbca185d4	-0.019717135
64	0x3d802b6e	0.062582836
65	0xbca76ff9	-0.020439135
66	0x3cea5d04	0.028608806
67	0xbc852fdf	-0.016258178
68	0x3b9a944e	0.0047173863
69	0x3d6d87f2	0.057990976
70	0x3dcc6157	0.099795036
71	0xbd82aad6	-0.063802406
72	0x3d62606e	0.055267744
73	0x3d9c21be	0.07623623
74	0x3df1f8c5	0.11815027
75	0x3d6600b6	0.05615302
76	0xbd58373d	-0.052787054
77	0xbcad4508	-0.02115108
78	0x3d1a911e	0.03773605
79	0xbdfd3713	-0.1236402
80	0xbd4bd14f	-0.04976016
81	0x3dadf38d	0.08493719
82	0x3d092ede	0.03349196
83	0x3da1f816	0.07908647
84	0x3d8a610b	0.06756791
85	0xbd457617	-0.048208322
86	0x3deeddbd	0.11663387
87	0xbd79faab	-0.06103007
88	0xbd99c87c	-0.075089425
89	0x3dbbb90c	0.09166154
90	0x3b79194d	0.0038009465
91	0xbdfef2f2	-0.12448682
92	0x3c438544	0.0119336285
93	0x3dd7b74d	0.10533009
94	0x3d9c57a9	0.07633907
95	0xbdde192f	-0.10844647
96	0x3cc06843	0.023487216
97	0x3dd7e075	0.10540859
98	0x3da44356	0.08020656
99	0xbd8946bd	-0.067029454
100	0xbdd83dec	-0.10558686
101	0xbbcd77c7	-0.006270382
102	0xbd5a4c83	-0.053295624
103	0xbc02ac38	-0.00797563
104	0xbdd9e29d	-0.10638926
105	0x3da11db9	0.07866997
106	0xbd0f6846	-0.035011552
107	0xbbe8c07d	-0.0071030245
108	0x3bfdb721	0.007742778
109	0x3dbc2f0f	0.09188663
110	0x3d2acb38	0.04169771
111	0xbde4c5c4	-0.11170533
112	0x3d936d09	0.07198531
113	0xbb6ea66d	-0.0036415115
114	0x3dbc30a9	0.09188969
115	0x3b3a3707	0.0028414147
116	0xbd28c04e	-0.04119902
117	0x3d89347b	0.06699463
118	0xbd3e41f7	-0.046449628
119	0x3d3739a8	0.04473272
120	0x3d84bec2	0.06481697
121	0xbc9d354d	-0.019190455
122	0x3c9a399b	0.018826297
123	0x3db919d0	0.090381265
124	0xbd1d2f51	-0.038375203
125	0xbcca98ad	-0.024731005
126	0xbd8edfee	-0.06976305
127	0xbdf70f67	-0.12063485
128	0x3db1c2df	0.08679747
129	0x3d85474a	0.06507738
130	0x3dfed95a	0.124438
131	0xbcce4cd3	-0.025183117
132	0x3de6609f	0.11248898
133	0xbdfcfa11	-0.12352384
134	0x3df6130f	0.12015354
135	0xbd1a4218	-0.03766069
136	0xbd2ca8b2	-0.042153068
137	0x3d3fa5d1	0.046788994
138	0xbd9b7761	-0.07591129
139	0xbd85a489	-0.06525523
140	0x3da32321	0.07965685
141	0xbcdb0cd3	-0.026739514
142	0x3dc3a81b	0.09553548
143	0x3b39f290	0.0028373338
144	0x3dc290fe	0.09500311
145	0x3d74ee4c	0.05979757
146	0x3c53f01d	0.012935665
147	0x3d3d080e	0.04615026
148	0x3da5bcb3	0.08092632
149	0xbce246eb	-0.027621707
150	0xbdbfe080	-0.09368992
151	0xbdad969f	-0.08475994
152	0xbdfa9e96	-0.12237279
153	0xbd497bf0	-0.04919046
154	0xbd2ae8bf	-0.04172587
155	0x3d161f21	0.03665078
156	0xbd8b8f76	-0.068144724
157	0xbd183228	-0.037157208
158	0xbca6b9d3	-0.02035228
159	0x3da575a5	0.080790795
160	0x3ded4552	0.115854874
161	0x3d7bb594	0.061452463
162	0xbcbafd64	-0.022825904
163	0x3db39876	0.08769314
164	0xbd813323	-0.06308582
165	0x3d939099	0.07205314
166	0x3ca72c6c	0.020406924
167	0xbb86b177	-0.004110511
168	0xbb1f9650	-0.0024351068
169	0xbd45170d	-0.048117686
170	0x3dc9de58	0.09856862
171	0xbd8e73c8	-0.06955677
172	0x3bc04bd2	0.0058684135
173	0xbd65fa7d	-0.056147087
174	0x3d3e5957	0.04647192
175	0x3da06de5	0.07833461
176	0xbd94eb3a	-0.072714284
177	0x3dcbb067	0.099457555
178	0xbd1c8c0b	-0.038219493
179	0x3aa834fb	0.0012833172
180	0x3d6bd4f3	0.05757613
181	0x3dfbf796	0.12303083
182	0x3cdc681f	0.026905118
183	0xbd01f5cd	-0.031728555
184	0x3c863112	0.01638082
185	0x3d82b51a	0.06382199
186	0x3dea1e3a	0.114315465
187	0x3dda6fa5	0.10665826
188	0x3d2bf750	0.041983902
189	0xbdc9d6e7	-0.098554425
190	0x3d0b679a	0.03403435
191	0x3de03ae0	0.109487295
192	0x3d45e622	0.048315175
193	0x3bc8e1f7	0.0061304527
194	0x3dd898c2	0.10576011
195	0xbd62b6b8	-0.055350035
196	0xbd132a3e	-0.035928957
197	0xbd4d96e6	-0.050192736
198	0x3d3a61cb	0.04550342
199	0x3d463647	0.048391607
200	0xbcb0fcf3	-0.02160499
201	0xbca8852e	-0.020571318
202	0xbe04581e	-0.12924239
203	0x3dac4df0	0.08413303
204	0xbcf83699	-0.030299472
205	0x3ddbe6d0	0.10737383
206	0xbcb1e50b	-0.021715662
207	0xbde72227	-0.11285811
208	0x3c2ca98d	0.010538471
209	0x3d6d73b7	0.057971682
210	0x3ddbbe97	0.107297115
211	0x3d8b5d57	0.068049125
212	0xbda458a5	-0.0802472
213	0xbdf1b9a2	-0.11802985
214	0x3dd0a810	0.101883054
215	0xbd864ebd	-0.06557987
216	0x3da91aa2	0.08257033
217	0x3c42024b	0.011841367
218	0x3dd7ee52	0.10543503
219	0x3ce958c2	0.028484706
220	0x3d17f9b8	0.037103385
221	0x3c2b110f	0.010441079
222	0x3d82ce51	0.06387008
223	0x3d1facd4	0.03898318
224	0xbdf35ff4	-0.11883536
225	0x3c38f44d	0.011288715
226	0x3de23bff	0.110465996
227	0xbd942281	-0.072331436
228	0x3ddc040a	0.10742958
229	0x3dcc370e	0.09971438
230	0xbca93d97	-0.020659251
231	0x3dddd2bc	0.1083121
232	0x3cd26690	0.025683671
233	0xbd501944	-0.050805345
234	0xbd6e3e53	-0.058164906
235	0x3cc99e61	0.024611654
236	0xbd81d5d6	-0.06339614
237	0xbd629777	-0.05532023
238	0x3d8fb79a	0.07017441
239	0x3bf8ba00	0.0075905323
240	0x3d49e955	0.04929479
241	0xbe087823	-0.13327079
242	0xbd026fad	-0.031844784
243	0xbd6857ac	-0.056724235
244	0x3d247c68	0.040157706
245	0xbd8e8bfb	-0.06960293
246	0x3cadaa86	0.021199476
247	0xbdbb3ab1	-0.09142054
248	0x3c9ae4a4	0.018907852
249	0x3dd8384d	0.105576135
250	0xbd1ea539	-0.038731787
251	0x3dc24844	0.0948644
252	0xbdc7b134	-0.09750596
253	0x3c7af847	0.015317983
254	0x3c19b6cb	0.00938196
255	0x3dd43c7d	0.103631

bias_ih_l0 f4 [192]
0	0x3d853951	0.06505073
1	0x3da617d5	0.08110014
2	0x3daee01b	0.085388385
3	0xbde3957a	-0.11112495
4	0xbd1d1697	-0.03835162
5	0x3d9a4048	0.07531792
6	0xbdbdb805	-0.092636146
7	0xbd624c31	-0.055248443
8	0x3d82f38c	0.06394109
9	0xbbb687db	-0.0055703945
10	0xbd485fa5	-0.04891934
11	0x3d06ca5d	0.032907832
12	0x3cc15816	0.023601573
13	0x3d8cca92	0.06874575
14	0xbd7b6d72	-0.061383672
15	0xbdfe78cb	-0.12425383
16	0xbd26de23	-0.04073919
17	0xbd1f5f50	-0.038909256
18	0x3d425baf	0.047450718
19	0xbd75dc97	-0.060024824
20	0xbd83c7a7	-0.06434565
21	0xbd9891ea	-0.07449706
22	0xbca51715	-0.020152608
23	0x3bb0af85	0.0053920173
24	0xbb57a286	-0.0032903268
25	0x3d580c87	0.052746322
26	0xbdb1039c	-0.086432666
27	0xbd61285d	-0.054970134
28	0xbde8a2d4	-0.11359182
29	0x3d9d381d	0.076767184
30	0xbdeecff9	-0.116607614
31	0xbd245ee2	-0.04012955
32	0x3ba0e166	0.004909682
33	0x3db54ad4	0.08852163
34	0xbd329b50	-0.04360515
35	0xbd45ef04	-0.048323646
36	0xbdf09d99	-0.11748809
37	0x3d8d40a1	0.068970926
38	0xbc20149e	-0.0097705405
39	0x3df28395	0.118415035
40	0xbe05cb31	-0.13065793
41	0xbdc8c4ee	-0.09803186
42	0x3c6fd721	0.014638693
43	0x3c70fceb	0.014708738
44	0xbd482517	-0.048863497
45	0xbd63deb8	-0.055632323
46	0x3df77a8f	0.12083923
47	0x3d9a7362	0.07541539
48	0xbd586c36	-0.052837573
49	0xbc10b68a	-0.008832583
50	0x3d950efc	0.07278249
51	0xbdbaa107	-0.09112745
52	0x3e0f15cb	0.13973157
53	0x3d989aef	0.07451426
54	0xbdce35ed	-0.10068879
55	0xbdf369cb	-0.11885413
56	0x3d43ff16	0.04785069
57	0x3db74083	0.089478515
58	0xbdefc300	-0.11707115
59	0x3b3bd4fa	0.002866088
60	0xbda29a4f	-0.07939588
61	0xbd41c083	-0.047302734
62	0x3caa30ba	0.020775188
63	0x3db2b846	0.087265536
64	0xbd1e9530	-0.038716495
65	0xbb449701	-0.0029997232
66	0xbdfeb2e6	-0.12436466
67	0x3c5f42e1	0.013626785
68	0x3db88aaa	0.09010823
69	0xbcaf4e53	-0.021399653
70	0x3dd1d998	0.10246581
71	0xbd92c1af	-0.071658485
72	0xbdc28147	-0.09497314
73	0xbae89193	-0.001774358
74	0xbc330477	-0.0109263575
75	0x3d2d12cc	0.042254254
76	0xbc738a76	-0.014864555
77	0xbd5c6e8a	-0.053816356
78	0xbda1cc8c	-0.07900342
79	0xbd790504	-0.0607958
80	0xbd4c0cbb	-0.04981683
81	0x3d6dc1a4	0.058046
82	0x3da46e55	0.08028857
83	0xbe0c2d6f	-0.13689207
84	0x3d662921	0.056191567
85	0xbd623380	-0.055224895
86	0x3da0cb7d	0.07851312
87	0xbd0893f0	-0.03334421
88	0xbc82dde8	-0.015974954
89	0xbdaaa8d1	-0.083329804
90	0x3dfd985b	0.12382575
91	0x3dc5da5b	0.096607886
92	0x3dd07688	0.10178858
93	0xbe0c30e7	-0.1369053
94	0xbdc0530b	-0.09390839
95	0xbd8fa593	-0.07014003
96	0xbe0683cd	-0.13136216
97	0xba74a015	-0.00093317154
98	0x3dc8e79d	0.09809802
99	0x3a8a33bf	0.0010543986
100	0x3ca2d3c9	0.019876378
101	0xbdedb3a4	-0.11606529
102	0xbd571a33	-0.05251522
103	0x3dc33c68	0.09533006
104	0xbd9bfc14	-0.076164395
105	0x3d7aca82	0.061228283
106	0x3d183321	0.037158135
107	0xbd80ccda	-0.06289072
108	0xbcd41685	-0.025889644
109	0xbdf272ab	-0.118382774
110	0x3e0b5ef7	0.13610445
111	0xbd431073	-0.04762311
112	0x3d68981f	0.0567857
113	0x3c565635	0.013082077
114	0xbdbf97a9	-0.09355099
115	0xbdba4ce8	-0.090967
116	0xbccc4518	-0.02493529
117	0x3c9020fb	0.017593851
118	0x3da95159	0.08267469
119	0xbde8d526	-0.1136878
120	0x3dadb18c	0.0848113
121	0xbb968fe3	-0.0045947894
122	0xbc586764	-0.013208244
123	0x3d9fc8b2	0.078019515
124	0xbd294f18	-0.041335195
125	0xbd047b29	-0.032344017
126	0x3d81051f	0.06299805
127	0xbdb587b1	-0.08863772
128	0xbd817040	-0.06320238
129	0x3c0acbf4	0.008471478
130	0xbd833f8e	-0.064086065
131	0xbc5d6d75	-0.013514866
132	0xbdc78a02	-0.0974312
133	0x3d61291c	0.054970846
134	0xbd88b699	-0.06675453
135	0xbddb5320	-0.10709214
136	0x3d0ebfd0	0.034850895
137	0xbdfcc842	-0.12342884
138	0xbd02f687	-0.031973388
139	0xbddfd134	-0.10928574
140	0xbcef7bd6	-0.029233854
141	0xbd3614b1	-0.044453327
142	0xbc8621f1	-0.016373606
143	0x3c9eeb9f	0.019399462
144	0xbdd0593e	-0.101732716
145	0xbd8f0c68	-0.06984788
146	0x3daadd7b	0.08343025
147	0x3d1b5eb2	0.037932105
148	0x3d7e49c4	0.062082067
149	0xbdcf4437	-0.10120433
150	0xbdd7f9b7	-0.10545676
151	0xbd61fdda	-0.055173732
152	0xbcf2079b	-0.029544642
153	0xbd0f50c8	-0.03498915
154	0x3dfc2a47	0.12312751
155	0xbdf19234	-0.11795464
156	0x3dc3c10d	0.09558306
157	0x3dbbe80d	0.091751195
158	0xbc4df749	-0.012571164
159	0x3cc750f8	0.024330601
160	0x3c9bf47a	0.019037474
161	0xbd8d569b	-0.06901284
162	0x3c2b8f96	0.010471245
163	0xbdd4e4f4	-0.10395232
164	0xbdc302e5	-0.095220365
165	0xbd820444	-0.0634847
166	0xbd1171e3	-0.035509
167	0xbdfa5811	-0.122238286
168	0x3ce67c43	0.028135424
169	0xbd485ba6	-0.048915528
170	0x3caeb7e5	0.021327922
171	0xbde5a05d	-0.112122275
172	0x3de64d99	0.11245269
173	0xbdeb7ca1	-0.114983805
174	0x3cdabbff	0.026700972
175	0x3d8b71f2	0.06808843
176	0xbd6dad78	-0.05802676
177	0xbbccbb65	-0.006247925
178	0xbdffd280	-0.124913216
179	0x3d11ea29	0.035623703
180	0xbd92bda3	-0.071650766
181	0xbdff3cfd	-0.124628045
182	0x3d8d44bb	0.06897875
183	0xbcadbbfe	-0.021207806
184	0x3ceb9028	0.028755262
185	0x3d8ff400	0.07028961
186	0x3d839503	0.06424906
187	0x3cdf5151	0.027260454
188	0xbc0e9fa3	-0.008705053
189	0xbdbad430	-0.09122503
190	0xbd864ff8	-0.065582216
191	0x3de12fdd	0.10995457
