models/transformer_encoder/checkpoint/trained_irdpg_80.pth (torch, 409346 bytes, 22 tensors)

weight_ih_l0 f4 [192, 64]
000000 45 4c 4a bd a4 53 92 3c 53 50 49 3d 36 6a ce 3d
       -0.049389143 0.017862149 0.04914887 0.10078852
000010 03 2b 15 3d 7b 98 a7 bd 04 cf 92 3c 86 88 1e 3d
       0.036417972 -0.0818338 0.017920978 0.038704418
000020 78 10 71 bd f8 62 9e 3d b1 61 c7 bd 3f 59 4e 3d
       -0.058853596 0.077337205 -0.0973543 0.05037808
000030 91 0b 08 bc ad fe d5 bd 84 48 e9 3d 5b d4 1e bd
       -0.008303539 -0.10448966 0.113907844 -0.038776737
000040 ac ef c8 bd b1 1e 3b 3c 78 9f f4 3d 66 04 e5 bd
       -0.09811339 0.011420892 0.11944479 -0.111824796
000050 65 30 94 bd 27 76 cd bd 72 90 b7 bd b9 50 13 bc
       -0.07235793 -0.100323014 -0.08963098 -0.008991414
000060 0b b1 0c bc 7f 51 8f 3d 3a f5 91 3d 6f ad da bd
       -0.008587132 0.06997966 0.071268514 -0.10677611
000070 a5 64 e0 bc ce 1e de bd 5d 14 dc 3c bb 06 c7 bc
       -0.027391741 -0.10845719 0.026865179 -0.024295202
000080 45 b9 40 bd 4a 32 a1 3d 0e f3 d7 3d 4c d5 33 3c
       -0.047051687 0.0787092 0.10544406 0.010976147
000090 56 51 ea ba ad dc e2 3d f5 ff a5 bd c7 5f 39 3d
       -0.0017877023 0.11077247 -0.081054606 0.045257356
0000a0 88 2c 4c 3b 82 8b 93 3c 38 e2 57 3c e2 68 96 3d
       0.0031154472 0.018010858 0.013176493 0.073442236
0000b0 fa b0 c7 3d 55 6c d6 3d b0 07 de 3d 21 f0 ea 3c
       0.097505525 0.104698814 0.1084131 0.028678956
0000c0 21 1e de bb e6 07 92 3d 5f cd d1 bd cc 29 a7 3c
       -0.006778494 0.07130413 -0.102442496 0.020405672
0000d0 c1 fc b7 3d 7a ad 34 3a aa b3 f6 bd 88 ad d3 3c
       0.08983756 0.0006892305 -0.12045987 0.025839582
0000e0 b6 42 e1 3d ca 86 9d 3d e3 4d 8b 3c 75 41 e4 3d
       0.10999052 0.076917246 0.017004913 0.111452974
0000f0 b5 c0 4f 3d 3d 91 5f 3d eb 15 9e 3d df 50 f7 3c
       0.05072089 0.05458187 0.07719024 0.03018993
000100 df 6d 9b bc ef 8f 63 3d b7 a1 47 39 b6 7a fe 3d
       -0.018973289 0.055557188 0.00019038362 0.12425749
000110 ca 44 e2 3d 70 2d 82 3b 6a 5c a4 3c b1 7f ce bd
       0.11048277 0.0039727017 0.020063598 -0.10082949
000120 90 4b d5 3c 86 d6 d4 3d 9a de 5d bd 07 86 c5 bd
       0.026037008 0.103924796 -0.054167368 -0.09644704
000130 be a1 3e bd 6d c9 35 3d 43 2f 19 3c c4 92 0b bd
       -0.046540968 0.044381548 0.009349647 -0.034075513
000140 0f f4 df 3d 5e e7 73 bd 25 e8 9c 3d fb 51 f3 bd
       0.10935222 -0.05954682 0.076614656 -0.11880871
000150 f7 56 eb 3d 27 74 b2 bd 7c 97 82 bd 89 90 c7 3d
       0.114911966 -0.087135606 -0.063765496 0.09744365
000160 12 4d f2 bd f0 a6 43 3d 19 9a ce bd 60 1a f1 3d
       -0.11831106 0.047766626 -0.100879855 0.11772609
000170 4a 38 e9 bd fa 7b 22 3d a9 e5 04 3d 80 a6 5f 3d
       -0.113876894 0.039669015 0.032445583 0.054602146
000180 77 fe b3 bd 4f 3a 07 bd 5f 31 eb bd 6f 57 7e 3d
       -0.0878877 -0.03301459 -0.11484026 0.062095102
000190 53 a1 df 3c 64 9a 87 bd d9 52 2c 3d 57 0c c4 bd
       0.027298605 -0.066212445 0.042071197 -0.09572666
0001a0 19 b0 e9 3b bf 31 b1 bd 0e b4 ef 3a 3f 75 ee 3d
       0.007131588 -0.086520664 0.0018287913 0.11643457
0001b0 9d dd 8e 3d dd e6 5a bc 9d 42 08 bd c7 e0 cc bc
       0.06975863 -0.013360706 -0.033266652 -0.025009526
0001c0 c6 d9 af 3d e0 b0 38 bd c4 c2 be 3d 95 54 dc 3c
       0.08586459 -0.045090556 0.09314492 0.0268958
0001d0 82 e8 8b bd 15 e9 d4 3d 7d 63 02 bd 97 1a 50 3d
       -0.06831457 0.10396019 -0.03183316 0.050806608
0001e0 72 b7 16 3d 15 1e 08 bd 1f 59 dd bd ee fc e3 bd
       0.03679604 -0.033231813 -0.10808014 -0.11132227
0001f0 96 0e b4 bd a9 3e 09 3c 7f f0 e0 3d a4 77 e1 3c
       -0.087918445 0.008376756 0.10983371 0.02752287
000200 f6 4d d7 bd da ce 98 3c c7 d8 92 bd 5f 5c c6 bd
       -0.10512917 0.018653322 -0.07170253 -0.09685587
000210 d9 bd 44 bd 25 c8 f7 bd 66 3e 1b 3d 2f ad c2 3d
       -0.048032615 -0.120987214 0.037901305 0.095056884
000220 a0 50 cf 3b fe 71 a3 3d 34 06 0e 3d 34 b9 5a 3d
       0.00632675 0.07980727 0.034673885 0.05339928
000230 4a 72 d6 bd b5 47 55 3d 20 0e a2 ba 87 e8 10 3d
       -0.10471018 0.05207034 -0.0012363829 0.035378005
000240 da 12 54 bd 3e 95 e3 bd 00 a4 8a bd 20 a8 07 3b
       -0.05177579 -0.1111245 -0.06769562 0.0020699576
000250 53 4f c7 3b 3a 02 42 3c 3e 22 b2 bd b4 13 9b bd
       0.006082454 0.011841351 -0.086979374 -0.075721174
000260 1d a9 00 3d d3 3c 93 3d bf 2a 0d 3b 55 2e 8c 3d
       0.03141128 0.07189336 0.0021540371 0.06844775
000270 1e ed 97 bd 93 58 76 bc 75 3e c1 bd cd 36 ef bd
       -0.074182734 -0.015035766 -0.09435741 -0.11680374
000280 6a a3 94 3d d0 35 91 bd 07 70 53 39 ac 34 31 3d
       0.07257731 -0.07090342 0.00020164262 0.043263122
000290 c1 db 77 bd e5 db 90 bd 7f 23 ad 3d a1 26 08 bd
       -0.060512308 -0.070731916 0.08454036 -0.033239964
0002a0 97 88 79 3d 03 3a e3 3d 85 38 cb 3d 98 b3 a6 bd
       0.060921278 0.11095049 0.099228896 -0.081397235
0002b0 a8 4c 83 3d d2 92 90 bd 5d e1 4f bd 08 7b 32 bd
       0.064111054 -0.07059254 -0.050752033 -0.043574363
0002c0 2f 02 ab 3d aa 5d 57 bd 14 d0 66 3d 9a 75 8b bd
       0.08350026 -0.05257956 0.056350783 -0.0680954
0002d0 31 d3 97 bd da ea f7 3d f2 59 a8 3d 49 04 c7 3d
       -0.074133284 0.12105341 0.08220281 0.09717614
0002e0 83 29 2a 3d f4 f8 c2 3d a6 75 c9 bd 7b b2 ca bd
       0.041543495 0.0952014 -0.09836893 -0.09897324
0002f0 bb c4 3f 3d 83 60 8a bd 1b f8 1f 3d dd b1 d3 bd
       0.046818476 -0.067566894 0.03905497 -0.10336659
000300 93 e6 55 3d 2c 01 9e bd 3d f2 42 3c a3 ed cd bd
       0.052221846 -0.07715067 0.011898574 -0.10055091
000310 02 88 73 bc 9d fb 27 3d 65 07 d4 bc 49 a6 ea 3d
       -0.01486397 0.04101144 -0.025882432 0.114574976
000320 e2 b8 f7 bd 3b ee d3 3d c9 75 46 bd 94 c3 d1 3d
       -0.120958105 0.10348173 -0.048452172 0.10242382
000330 ec b3 fb 3d 53 41 c8 bd 5f 10 1b 3d a9 94 aa bd
       0.12290177 -0.097780846 0.03785741 -0.08329136
000340 09 d8 c8 3c 11 e5 8d bc 72 b1 e6 bd 19 88 9f 3c
       0.024517076 -0.017321141 -0.11264314 0.019474076
000350 77 1d 04 bd 8e 23 84 bc dd fa c8 3d 7f 16 fd 3d
       -0.032254662 -0.016130235 0.098134734 0.123578064
000360 5f 3e ae 3d 30 0c 96 3d 2f f3 b2 3d 63 eb c5 bd
       0.0850799 0.07326543 0.0873779 -0.09664037
000370 f1 5e 9b bb 5e 5c 81 bc 91 b9 80 3d 42 c8 9e 3c
       -0.0047415425 -0.015791114 0.06285394 0.0193826
000380 62 08 da bd 62 09 cc bd 6e b7 85 3b 61 ee 8e 3c
       -0.1064613 -0.09962727 0.0040807044 0.017447652
000390 8a f0 d1 bd 32 94 c5 bd 18 55 0c 3d ff d5 cd 3b
       -0.10250957 -0.09647407 0.03426084 0.006281614
0003a0 97 51 7f 3c 15 b7 6a bd d9 35 6a 3c 05 40 cd bd
       0.015583417 -0.057303507 0.014295065 -0.100219764
0003b0 08 7b b6 3d 51 9f a6 bd ec 18 18 bc e5 9a 8f 3c
       0.08910185 -0.08135856 -0.009283286 0.017529914
0003c0 a2 d2 7d bd 42 e2 cb 3b 89 ae 8a bd f3 09 5b 3c
       -0.061968453 0.0062220404 -0.06771571 0.013369071
0003d0 c8 d5 9d bc 87 70 70 bc 63 f4 5e 3d 15 e2 d8 bd
       -0.019266978 -0.014675266 0.054432284 -0.10589997
0003e0 f8 f7 00 bd 6e fd 08 3d 99 ba a0 3d 12 57 e5 bc
       -0.03148648 0.033444814 0.07848091 -0.02799562
0003f0 a0 18 38 3d 16 24 f2 3c a8 a1 3a 3b 28 85 90 3d
       0.04494536 0.029558223 0.0028477702 0.070566475

weight_hh_l0 f4 [192, 64]
000000 6b b8 6a bd f6 31 31 bc 40 59 26 bd 4b f3 41 bd
       -0.05730478 -0.010815134 -0.04061246 -0.047351163
000010 0c 2e 81 bd 23 e4 a6 bd 46 21 9f bd ac fd c3 bd
       -0.06307611 -0.081489824 -0.07770018 -0.095698684
000020 f2 46 1b bd 66 f4 c0 bd a3 75 9f 3d 85 58 c5 bc
       -0.037909456 -0.09421615 0.07786109 -0.024090061
000030 8e 7c 8c bd 14 bf b9 bb 0a aa d4 3c 67 2c 6a 3d
       -0.068596944 -0.0056685302 0.025959987 0.05717125
000040 ae 4f f7 bd 3d 3d c4 bd 5b 85 e7 3d 4c a2 83 3d
       -0.120757446 -0.09581993 0.113047324 0.0642744
000050 ce 55 d6 bd 7c 30 c0 bd d8 16 fa 3d d6 6b 90 3d
       -0.10465585 -0.09384248 0.12211388 0.07051818
000060 0e 92 9d bd d1 2b ef 3c 1b 6d cc bd 9d ca a9 3c
       -0.07693873 0.029195698 -0.09981748 0.020726496
000070 4a 33 c5 3d 6d f5 88 bd b8 83 22 3d a1 e0 09 3d
       0.09628923 -0.06687436 0.039676398 0.03366149
000080 35 20 ee 3d 52 6d 94 bd 9a 01 19 3d a5 85 d6 bb
       0.11627237 -0.07247414 0.037355043 -0.0065466934
000090 2c a2 a6 bd 81 f7 19 bd 2c 61 fd bd 47 73 26 3d
       -0.081364006 -0.037589554 -0.1237205 0.04063728
0000a0 4c 7f 03 3d a7 98 2e bc 39 06 6f 3d df 4d cc 3c
       0.03210382 -0.010656512 0.058355544 0.024939476
0000b0 b6 7e b8 3d e0 2b 3f 3d 50 80 b6 bd 07 9e 43 bd
       0.09008543 0.0466727 -0.089111924 -0.04775813
0000c0 5e 5a 1a bd 56 53 53 3d df fa 4e 3d b9 c8 24 bd
       -0.037683837 0.051593147 0.050532218 -0.040230487
0000d0 02 54 5b 3d 23 c7 32 3d c6 40 3d 3d 35 9e 43 3c
       0.053546913 0.043646943 0.04620435 0.011939575
0000e0 d6 1a e7 bc 35 fe 44 3d df f4 d4 bd 48 4b e2 ba
       -0.028211039 0.048093993 -0.10398268 -0.0017264867
0000f0 97 53 52 3d e2 ee d2 bd 7b b8 43 3d b8 07 4b 3d
       0.05134925 -0.102994695 0.047783356 0.049567908
000100 91 07 af 3c 65 34 b7 3d 3f f1 98 3d 8c 40 a3 bd
       0.021365913 0.0894554 0.07467889 -0.07971296
000110 41 42 99 bd fb f7 95 bb b9 4b 7b 3d 06 1c e8 bc
       -0.0748334 -0.0045766807 0.06135151 -0.028333675
000120 76 25 15 bd 91 b9 da bd b2 fa e5 3d d0 a2 ad 3d
       -0.03641268 -0.10679925 0.11229457 0.0847832
000130 a2 4e cf 3c eb 03 8d bd 21 2d 92 3d c8 f7 f6 bd
       0.02530605 -0.06885513 0.07137514 -0.12058979
000140 76 43 d4 3c 5c a8 b9 bd 6f ea 8e bd 3e b4 3e bd
       0.025911074 -0.09065315 -0.069783084 -0.04655861
000150 30 e2 78 3d 73 2e b9 bd 43 6b d3 bd 7a 91 2e bd
       0.060762584 -0.090420626 -0.10323193 -0.042619206
000160 74 ac 9b bc b9 43 86 3d 5e 22 8a bc 86 c5 21 3c
       -0.01900313 0.06555886 -0.01686209 0.009873753
000170 b9 8a d2 bd c3 c5 99 bd 8e fb 96 bd c5 20 e7 bd
       -0.102803655 -0.07508423 -0.07372199 -0.11285547
000180 6b d6 c9 bd 2f 0c 92 bd 79 f7 58 3d 91 1a 89 bd
       -0.0985535 -0.0713123 0.052970383 -0.0669452
000190 1c e3 a7 3d 34 02 6a bd 1f 76 db 3d 57 d1 d6 bd
       0.081976146 -0.057131007 0.10715889 -0.10489147
0001a0 88 78 ad 3c 8d 27 5e bd 39 9f 23 3d 64 b8 d3 bd
       0.021175638 -0.054236937 0.03994677 -0.10337904
0001b0 28 08 b8 bc af 61 9a bd b3 bb 67 3d b6 01 eb bd
       -0.022464827 -0.07538163 0.05657549 -0.11474936
0001c0 62 01 41 bd 7b ce bd bc 28 24 b7 3c ac 01 c7 3d
       -0.04712046 -0.023169747 0.022356108 0.09717116
0001d0 1e 4e e7 bc 9b 01 89 bd 69 b1 8a bd c4 49 fa 3d
       -0.028235491 -0.06689759 -0.067721196 0.12221101
0001e0 eb e0 e5 bd de 0f 8a bb a9 dc e6 bd 15 0b 05 3d
       -0.1122454 -0.0042133173 -0.11272556 0.03248127
0001f0 41 79 95 bd 97 0b e0 3d a9 9b ae 3d f9 51 91 bd
       -0.07298518 0.109397106 0.085257836 -0.07095713
000200 84 ec 87 bd dc 7f 5b 3d a8 fb 35 3d 30 4f ee 3c
       -0.06636909 0.053588733 0.04442945 0.029090494
000210 30 d6 ce bd f4 d9 39 3d 4f 6d 40 bd 71 34 21 3d
       -0.10099447 0.045373872 -0.046979245 0.039356653
000220 61 97 aa bd d1 c7 37 bd 9b aa 08 3d 5e 8c a7 bd
       -0.083296545 -0.044868294 0.033365827 -0.0818107
000230 64 8f fc 3c ab 24 92 bd dc 56 92 3c 51 57 9a 3d
       0.030830093 -0.071359 0.017863683 0.075361855
000240 29 1d 64 3d 77 e9 22 bd af e3 9f 3d 7a 92 48 3d
       0.05569187 -0.03977343 0.07807099 0.048967816
000250 07 39 2c bc f4 37 cf bd 6d 03 ea bd 24 2d cb 3d
       -0.010511643 -0.10118094 -0.11426435 0.09920719
000260 c0 0e be bd c0 fc e6 3d 09 02 ed bd 33 d7 9d 3c
       -0.09280157 0.11278677 -0.11572654 0.019267654
000270 38 b2 ad bd 95 62 90 3d 86 cc ef bd 4b e1 e5 3d
       -0.08481258 0.07050053 -0.117089316 0.11224612
000280 51 10 12 3c 80 94 26 3d 56 ff e3 bd a2 98 98 3c
       0.008915023 0.040668964 -0.11132686 0.018627468
000290 6c a6 60 3c f7 9f a1 3d a1 42 c3 bd 3e ee 88 3d
       0.013711553 0.07891839 -0.09534193 0.06686066
0002a0 42 ac 2b bd 5e 70 a7 3d 17 a4 11 bd c6 7c 1f bc
       -0.041912325 0.08175729 -0.03555688 -0.009734338
0002b0 c8 00 ec 3d 66 5d 50 bc 5b e9 d4 bc aa d0 c2 3d
       0.115235865 -0.01271758 -0.025990179 0.09512456
0002c0 58 51 aa bd 4c f7 07 bd bf d5 97 bd 6b 1e e8 3c
       -0.08316296 -0.033194825 -0.07413816 0.028334817
0002d0 db 66 35 bb e4 56 bd bd 90 0c 15 bd 12 f4 2a 3d
       -0.0027679715 -0.09245089 -0.036388934 0.04173667
0002e0 a7 1f f9 bc eb cb f2 3d 10 44 8c bd 8f 72 82 bd
       -0.0304106 0.118553005 -0.068489194 -0.063695066
0002f0 4c 8c 66 3d bb 22 37 bd 62 5e d1 3d 82 4a c2 bd
       0.05628614 -0.044710856 0.1022308 -0.094868675
000300 12 6e 34 3d ef 04 00 3e 5e 4f 61 bd 82 84 a0 39
       0.044050284 0.12501882 -0.05500733 0.00030616304
000310 3b 80 95 bd cd 4c 2b bd 3c f9 8c bc 5f 82 3d bd
       -0.07299849 -0.04182129 -0.017208688 -0.04626691
000320 ab 8c b1 bd 3b e5 f9 3d e4 21 b3 bb 21 dd a7 bd
       -0.086694084 0.12201925 -0.0054666866 -0.08196474
000330 87 1d ad bc 9c 63 96 3d ad fe ca 3c 67 26 92 bd
       -0.021132244 0.07343218 0.024779642 -0.07136231
000340 26 77 27 bd 13 92 9e 3d 02 d0 0d 3d 66 3f 59 bd
       -0.040885113 0.07742705 0.0346222 -0.053038977
000350 e1 c5 c8 3d ae 38 19 3d 5c 73 8b bd e2 6e 1b 3d
       0.098033674 0.03740757 -0.068091124 0.037947543
000360 25 19 c3 bd f3 5c 85 3d 53 ad 1b bd 28 d4 a4 bd
       -0.0952628 0.06511869 -0.03800709 -0.08048278
000370 c7 8a 9e 3c 91 ff 0b 3d 82 1a f5 3d bc c7 32 3d
       0.019353284 0.034179274 0.119679466 0.043647513
000380 c3 af c3 3c c0 63 c1 3d e4 f4 8f bd 90 5a a8 bb
       0.02388752 0.09442854 -0.07029131 -0.005137749
000390 a9 4d a9 3d 00 12 27 bd 9e 22 f9 3d cd 3f 97 3d
       0.082667656 -0.04078865 0.12164806 0.07385216
0003a0 4e 0d 62 3d e2 05 c8 3d 3a 85 93 bd 8b c3 e9 bd
       0.05518847 0.09766747 -0.07203145 -0.1141425
0003b0 29 f6 e2 bd 78 94 c4 3d 29 ae ac bd 2c d7 e5 3d
       -0.110821076 0.09598631 -0.08431656 0.112226814
0003c0 64 ce d9 3d 7f 1c 6f 3c 91 e5 f7 bd b7 be ee bd
       0.10635069 0.014594196 -0.12104333 -0.1165747
0003d0 c2 49 a7 bd 86 03 00 3d 70 34 91 3d 96 a5 99 3d
       -0.08168365 0.03125336 0.0709008 0.07502286
0003e0 cc d9 cc bd fd 06 cd bd e5 2a 2e bc 69 54 f5 3d
       -0.10002479 -0.100110985 -0.010630344 0.119789906
0003f0 19 91 f4 3d 8c de 89 3d 2c f7 93 3d 23 9d 49 ba
       0.11941738 0.067319006 0.07224879 -0.00076909567

bias_ih_l0 f4 [192]
000000 3e 1d 70 bd b9 d4 c2 3d db 7f fd 3d 3b eb 26 3d
       -0.058621638 0.0951323 0.12377902 0.040751677
000010 23 11 3c 3d 2a 1f f4 3c 54 d8 11 bd b8 c7 9e bc
       0.04591478 0.029800016 -0.035606697 -0.019382343
000020 f1 21 5c bd 5f 39 91 bd a6 8f 5c bc 6b 7c fc 3d
       -0.053743307 -0.07091021 -0.013461983 0.12328418
000030 2c 7c 51 bc f0 89 b6 3d 98 6b 64 3d 70 27 7e 3d
       -0.012785953 0.08913028 0.055766672 0.06204933
000040 52 86 e9 ba af de 84 3d 5c 51 ba bc 66 72 99 3c
       -0.001781652 0.06487786 -0.022743873 0.018731307
000050 d1 5a a2 bd e8 c5 bb bd 1b 8f 46 bd a2 44 71 bd
       -0.07927478 -0.09168607 -0.04847632 -0.058903344
000060 e0 63 5c 3c 73 62 89 3d 29 ea d1 bd c5 2a 89 3d
       0.013451546 0.06708231 -0.10249741 0.06697611
000070 5f f2 7b 3d dc 24 51 bd a9 c5 23 bd bf e3 86 3d
       0.06151044 -0.051060542 -0.039983425 0.06586408
000080 5d 23 91 3d df f0 ec bd 57 22 bd bc e9 6a e0 3d
       0.07086823 -0.1156938 -0.023087664 0.109578915
000090 d4 b1 9a bd 69 f5 d1 bd c8 0e cb bd bb e3 cd 3c
       -0.07553449 -0.102518864 -0.09914929 0.025133004
0000a0 98 21 3c 3d 54 3d 94 3d 87 75 92 b9 ca 9d 61 bb
       0.045930475 0.0723826 -0.00027934855 -0.0034426325
0000b0 cb af fa bc 96 2f f3 3d b8 7e b4 bd 6c a0 d2 bd
       -0.030601403 0.11874311 -0.08813232 -0.10284504
0000c0 dc 60 f0 3d 09 a4 e8 bd 97 a2 eb 3d 8f e3 e4 bc
       0.117372245 -0.11359412 0.11505621 -0.02794054
0000d0 13 45 ce 3d 78 47 83 bd 42 5b 9f bd 2b 36 9c bd
       0.100717686 -0.06410116 -0.07781078 -0.07627519
0000e0 cd 0f db 3d 06 39 4a 3d 83 21 e6 3d 07 55 b4 3d
       0.10696373 0.049370788 0.112368606 0.0880528
0000f0 9b 9f e7 bd c7 74 69 bd 39 6a 3e 3d 11 8b 13 bd
       -0.11309739 -0.056996133 0.04648802 -0.036021296
000100 46 46 8c bb c2 52 ca bd 54 30 dc 3b 05 bc c0 bd
       -0.004280838 -0.09879066 0.0067196283 -0.09410862
000110 62 f4 59 bd f9 53 ad bd b3 96 b4 bd af 7c 4e bc
       -0.053211577 -0.08463282 -0.08817806 -0.012602969
000120 15 ab 57 3d 2a a8 90 bd 65 fb 55 bd 20 df e0 bd
       0.05265339 -0.07063325 -0.0522417 -0.10980058
000130 56 aa cd bd 59 66 de 3d 0d 93 cb bd 29 e8 b2 bd
       -0.100422546 0.10859365 -0.09940157 -0.08735687
000140 ba 1c 05 3d 0f b4 8d 3d a2 ab 99 3d 1a ed c8 3d
       0.0324981 0.06919109 0.075034395 0.098108485
000150 c6 4d 95 3b 37 9e 61 bd 81 ac b5 3c e5 89 3c bd
       0.0045563905 -0.055082526 0.022176983 -0.046029944
000160 fb 83 c4 3c 2c 12 97 bd b8 0d bd bd a8 6f f0 bd
       0.023988714 -0.07376513 -0.09231132 -0.11740047
000170 b0 68 e1 bd d5 f5 85 3d ba ee 16 3d 6f 75 60 3d
       -0.11006296 0.06541029 0.03684876 0.054799493
000180 c4 71 7b bd 25 20 3f 3d d0 df 6f 3d 67 e4 65 3d
       -0.061387792 0.046661515 0.058563054 0.056126025
000190 62 57 74 3d 42 98 81 3d 6e 6b 36 3c 67 0f c3 3d
       0.059653647 0.06327869 0.011134012 0.09524422
0001a0 94 1d cf 3d 2f 3f ae bc c4 66 da 3d 45 95 fc 3c
       0.101130635 -0.021270363 0.10664132 0.030832896
0001b0 85 68 c4 bd 34 8e 7c 3d fc 10 79 3d 7f af 18 bd
       -0.09590248 0.061659053 0.060807213 -0.03727674
0001c0 63 04 b1 bd eb d2 a9 3d 70 56 34 3d 87 56 a0 3d
       -0.08643415 0.082921825 0.044027746 0.07829004
0001d0 d9 35 af bc 06 22 ca bd 98 59 b0 3c 8d 8b cb bd
       -0.021387981 -0.09869771 0.021527097 -0.099387266
0001e0 e2 5f 82 bc 02 c1 e2 bd cc fa 40 bd 1c 83 a6 bd
       -0.015914861 -0.110719696 -0.04711418 -0.08130476
0001f0 c8 15 f5 bd be 39 80 ba 41 4e d6 3d 8b fe a2 bd
       -0.11967045 -0.0009782834 0.104641445 -0.079587065
000200 25 09 dd bd 15 98 55 3d 73 3e c7 3c 23 13 65 bd
       -0.1079276 0.05214699 0.02432177 -0.055926453
000210 25 32 42 bd 17 66 c3 3d 3e 42 22 3d 7a e9 4e 3d
       -0.047411103 0.095409565 0.039613955 0.05051563
000220 eb f1 0b 3d a7 a9 da bd bd 0c 7a bc 4a 8a 55 bd
       0.034166258 -0.1067689 -0.015261826 -0.052133836
000230 dc 0c be bd 13 70 aa bd 55 56 f3 3d af 7e 16 3d
       -0.092797965 -0.08322158 0.11881701 0.03674191
000240 32 b7 e5 3a 71 41 0b 3d 46 d0 6a 3d ca 02 d3 bd
       0.001752591 0.033997957 0.05732753 -0.10303266
000250 7a c3 dc 3d 1b 8e 24 bd ed db b3 bd 20 c6 9e 3d
       0.10779472 -0.040174585 -0.08782182 0.07752633
000260 93 61 4d bd aa 00 4f bd 2a d0 9d 3c 87 f4 a3 bd
       -0.050141882 -0.050537743 0.0192643 -0.08005624
000270 2c 8a 27 3d da 14 f7 bd 55 a3 c1 bc ab 43 c6 bd
       0.040903255 -0.12064524 -0.023637453 -0.096808754
000280 25 a7 8f 3d a8 b6 59 3d cd eb b4 3c 0d eb a8 3d
       0.07014302 0.05315271 0.022085095 0.082479574
000290 5e b1 6e 3c 7e 2e 01 bd cd 86 c1 bd 28 2a b1 bd
       0.014568655 -0.03153848 -0.09449539 -0.08650619
0002a0 9e 96 5c bc 99 78 41 3d 8e f9 de bd 4b 94 e0 bc
       -0.013463644 0.04723415 -0.108874425 -0.027414462
0002b0 86 96 df 3d 9f b4 87 bc 7d c4 db bd f6 d7 eb bd
       0.10917382 -0.016565619 -0.107308365 -0.11515801
0002c0 74 72 b0 bd a7 ef 69 bd 5d 49 eb bc 27 6c 80 bc
       -0.0861558 -0.057113316 -0.028721506 -0.015676571
0002d0 14 30 85 3d b7 b1 99 3d 6f b0 3e 3d 00 37 93 3a
       0.06503311 0.075045995 0.04655498 0.0011231601
0002e0 78 e7 f8 bd 0d 29 58 3d 46 bb 86 3c 20 1d b3 bb
       -0.12153524 0.052773524 0.01644672 -0.0054661185
0002f0 34 4e fc 3d c2 10 88 bd 26 69 58 39 79 d8 cc 3d
       0.123196036 -0.06643821 0.00020638536 0.100022264

bias_hh_l0 f4 [192]
000000 25 5e 88 3d 31 32 9a 3d b2 1d 51 3d 65 d8 ef bd
       0.06658582 0.075291045 0.05105371 -0.11711196
000010 76 8e f1 bd 48 49 ac 3a 24 b2 77 bd ce cc b9 bd
       -0.117947504 0.0013144398 -0.060472623 -0.090722665
000020 45 62 4a bd e7 37 31 3d 81 65 74 3d 98 4f dc 3d
       -0.049410123 0.043266203 0.059667114 0.10757369
000030 7b 33 59 3d f8 fd b8 3d 86 c4 dd 3d 4d 25 00 be
       0.05302761 0.09032816 0.108284995 -0.12514229
000040 8d 5a 9d 3b 93 0b 45 bd bc 82 ff bc 17 fd b4 bd
       0.0048020543 -0.04810674 -0.031190269 -0.088373356
000050 cf c8 c3 bd bf 93 ec bb 99 b5 db 3d 82 bd 68 3d
       -0.095597856 -0.007219761 0.107279964 0.056821354
000060 15 e5 da 3c 4b cd c3 bb 6b f1 d4 3c e6 16 cd bb
       0.026720563 -0.0059754006 0.025994023 -0.006258833
000070 36 8c f2 bd d8 53 19 3d 92 fa fb bd 4f 9e ba 3d
       -0.11843149 0.037433475 -0.12303652 0.09112226
000080 5e ac d5 bc e5 d0 d2 3d 83 a6 2f bd 01 ce 62 bb
       -0.026083168 0.1029375 -0.042883407 -0.0034607651
000090 98 93 94 bd a1 a2 05 bd 96 71 1d 3c 6d ec a0 bd
       -0.07254714 -0.032625798 0.0096096005 -0.07857595
0000a0 97 bc 71 3c 72 d9 d7 bd d5 95 9d bd ef 68 8c 3d
       0.014754436 -0.10539521 -0.07694594 0.06855952
0000b0 ea c6 7f 3b dd 66 2b 3c eb 6f 72 bd 74 f8 88 bd
       0.0039028474 0.010461536 -0.059188765 -0.06688014
0000c0 39 e4 54 bd 62 cb 52 bc 07 2f 44 3d 2f ad da bc
       -0.051975463 -0.012865873 0.04789641 -0.026693908
0000d0 b0 da f3 bb aa 8d bc 3d 3a 98 89 3c cd 71 9f bb
       -0.007441841 0.09206708 0.01679622 -0.004865861
0000e0 43 0b 7c bd bd 08 93 bd 74 52 1e bd b5 01 ef bd
       -0.061534178 -0.07179401 -0.038652852 -0.116702475
0000f0 06 65 b9 3c d1 65 ba 3d a9 c9 fa bd 82 39 f9 3d
       0.02263118 0.09101451 -0.12245495 0.12169172
000100 2b 26 94 bd d4 79 92 3d e1 29 cc bd c8 eb f1 3c
       -0.072338425 0.07152143 -0.09968925 0.029531375
000110 e7 64 a6 3d 42 6f 80 3d bd 28 be bd 81 92 b6 bd
       0.08124714 0.06271221 -0.09285114 -0.08914662
000120 2d 0d 7c 3d 08 a5 80 3d cd 87 80 3d 97 ee 39 bc
       0.061536003 0.06281477 0.06275902 -0.011348388
000130 23 c0 4c bd f2 b1 41 bd 6e e5 08 3d 27 67 a5 bd
       -0.049987923 -0.047288842 0.033421926 -0.080763154
000140 25 bb 37 3d 22 09 75 3d e5 d1 70 3d 78 64 36 3c
       0.04485621 0.059823163 0.05879392 0.011132352
000150 8c 1f b4 bd b7 c4 cd 3d 81 5f f6 3d 8b 9e e3 3d
       -0.087950796 0.10047286 0.12029935 0.11114224
000160 f1 95 86 bd 3a 15 d7 3d 4a a6 d2 3c 22 65 9c 3d
       -0.06571568 0.105020955 0.025714058 0.07636477
000170 5e 53 c2 3d 22 80 e9 bc fa 0b e6 bd f3 41 86 bd
       0.09488557 -0.028503481 -0.11232753 -0.065555476
000180 28 aa 4f 3d 15 60 cc 3d 70 cc 99 3d 51 36 00 bd
       0.050699383 0.09979264 0.075096965 -0.0313018
000190 09 98 c5 3d ff 6a a2 bd 79 49 9f 3d 94 12 07 b8
       0.09648139 -0.07930564 0.07777686 -3.220381e-05
0001a0 98 84 83 bd e6 16 f8 3d b7 e1 02 bd db ab 9a bd
       -0.064217746 0.121137425 -0.03195354 -0.0755231
0001b0 70 fb 48 3d 8e 03 98 3d 38 41 73 3d 9b 55 14 bd
       0.049067914 0.07422553 0.05938837 -0.036214452
0001c0 45 d6 e4 3d 55 5a bc bd 6c 1a 73 3d 1b 63 72 3d
       0.11173681 -0.09196917 0.05935137 0.059176546
0001d0 24 8d b5 3d b8 33 e0 3d 0b d2 24 3d f4 64 59 ba
       0.08864811 0.109473646 0.040239375 -0.0008292936
0001e0 18 33 b2 3d 95 25 3f 3d d0 63 e4 bd f9 63 05 3c
       0.087011516 0.0466667 -0.1115185 0.008141511
0001f0 90 2e de bd aa 94 83 bd 10 05 4a bd 59 e9 ba bd
       -0.10848725 -0.0642484 -0.049321234 -0.09126539
000200 35 3a 4d bd ac 9e b1 3d 49 69 7f bc 61 01 d1 3d
       -0.05010434 0.086728424 -0.015589067 0.10205341
000210 a7 0b 07 bb cd 49 fa 3d c0 7b 2e 3c dd f8 8c bd
       -0.002060631 0.12221108 0.0106496215 -0.068834044
000220 4b 8e 76 3d 0f 64 3d bd 80 51 a8 bd f0 90 87 3d
       0.060194295 -0.046238 -0.0821867 0.066194415
000230 a9 df 55 3d 02 e7 83 bd 54 e0 29 3c 2e 98 dd 3d
       0.052215252 -0.064405456 0.010368425 0.108200416
000240 a7 30 d8 3d 13 a1 39 bc 67 25 19 bd 07 7e d5 3d
       0.10556155 -0.011329907 -0.037389185 0.104244284
000250 99 3b 31 3d b1 0b 74 3d d2 4d f4 bd 3c a3 05 bd
       0.043269727 0.059581462 -0.119289055 -0.032626376
000260 c6 40 81 3d ae 3a 5b 3d 7d 53 1b bd 2c a7 00 bd
       0.06311183 0.05352276 -0.037921418 -0.031409428
000270 a8 b7 57 bb fb 86 df bd 25 37 e4 bd 31 a9 27 3d
       -0.0032915864 -0.10914417 -0.111433305 0.040932838
000280 46 ba df 3d b8 d8 8b 3d a3 4a c3 3d ab 01 98 bd
       0.10924201 0.06828445 0.0953572 -0.07422193
000290 06 07 a1 bd c3 b3 7b 3d 39 10 4e 3c 8c de 78 bd
       -0.07862668 0.06145073 0.01257711 -0.060759112
0002a0 05 7a 76 3d ee 29 dd bd f6 51 1c bd c0 60 d7 3d
       0.06017496 -0.10799013 -0.0381641 0.105165005
0002b0 06 76 92 3d f3 00 52 bd ef c3 f4 3c dd 1e ae 3d
       0.071514174 -0.051270436 0.029878585 0.085019805
0002c0 ab 77 d6 3d 58 3e f3 bd 94 34 a3 3d 65 ad f2 bd
       0.104720436 -0.118771255 0.07969013 -0.11849479
0002d0 4a 92 69 3d f8 9e ef 3d 91 ff c9 bc 59 83 f5 ba
       0.057024278 0.11700243 -0.024657996 -0.0018731161
0002e0 33 8c a9 3d 0f c0 78 3c cd 5f aa 3d ea 28 99 bd
       0.08278694 0.015182509 0.08319054 -0.07478507
0002f0 10 ef bd 3d 75 0a e5 bd 58 0a b0 bd 9e f6 b2 bd
       0.09274113 -0.11183635 -0.08595723 -0.08738445

weight f4 [2, 64]
000000 e5 ea 25 3d d9 7e 9a 3d d5 cc 54 bd eb c0 4f 3d
       0.040507216 0.075437255 -0.051953156 0.05072109
000010 eb 00 24 3c ee 15 3f 3d d9 b0 ec 3d 28 0b a9 3d
       0.0100099845 0.046651773 0.115571685 0.08254081
000020 87 36 02 3b 71 5b 51 3d 89 3a 37 3d 82 e9 3e bd
       0.0019868927 0.051112596 0.044733558 -0.04660941
000030 d9 08 9f bd 3d e2 31 bd c5 1f b4 bd 0a 9f b7 bd
       -0.077653594 -0.04342865 -0.08795122 -0.08965881
000040 42 b2 f1 bc 72 19 25 bd bc 12 c3 3c b3 f0 69 bd
       -0.029503945 -0.04030747 0.023812644 -0.057114314
000050 5d 75 83 bd 3b 0b 86 bd 59 56 75 bc ee c9 39 3c
       -0.0641887 -0.06545111 -0.0149742 0.011339648
000060 8b ec 8e bc 6b f7 b4 bd d1 74 1f bd 16 ee bf 3d
       -0.017446777 -0.08836254 -0.038929764 0.09371583
000070 2e a8 d4 3d 63 c0 e9 bb 1d fa 4d 3d 34 3f 5f 3d
       0.1038364 -0.00713353 0.050287355 0.054503635
000080 22 3f 45 3d 5d 61 f5 3d 97 d8 84 bd 70 eb 89 3d
       0.04815591 0.11981461 -0.06486624 0.06734359
000090 57 b6 ab 3d 23 44 c5 3d 14 1a 83 3d b9 bf ab bd
       0.08384388 0.09632137 0.064014584 -0.083861776
0000a0 b1 f7 f8 bd b1 81 09 3d c3 94 d0 3d f7 7f a1 3d
       -0.121566184 0.03357095 0.10184624 0.078857355
0000b0 8f 9e 6f 3d fb 57 f0 3d 33 72 fa 3c d0 c1 a1 3d
       0.058500823 0.11735531 0.030572033 0.07898295
0000c0 b1 e6 df bd cc 83 5b 3d 29 d2 31 bc 63 11 4d bd
       -0.10932673 0.05359249 -0.010853329 -0.05006541
0000d0 1a 3d 3f 3d a2 cf c0 bb 8b e8 1a bd 33 58 00 be
       0.04668913 -0.0058841268 -0.037819427 -0.12533645
0000e0 ce 70 9a 3b 16 ea d9 3d 91 a6 1b 3b 3e 9a f5 3c
       0.0047131544 0.106403515 0.0023750404 0.029980775
0000f0 22 d7 ae 3d 7c c0 99 3d 6a 35 b4 3d 6c fb f5 3d
       0.08537127 0.075074166 0.087992504 0.120108455
000100 90 f8 f4 bc 68 7d 66 bd 5a cd 2d bd d8 cc 23 bd
       -0.02990368 -0.05627194 -0.042432167 -0.039990276
000110 d6 19 46 bd 99 12 bc bd 6d 18 64 3d 64 7b c6 bd
       -0.048364483 -0.09183235 0.055687357 -0.09691504
000120 34 e4 cf 3d bd 60 7a bd bb 54 5d 3d 82 5a 40 bd
       0.10150948 -0.061127413 0.054035883 -0.046961315
000130 12 e9 20 bb a5 97 fe 3c 54 0a ad bd 4b db d5 bc
       -0.0024552983 0.03107817 -0.084492356 -0.026105544
000140 62 03 68 3d e6 fa 16 3d a1 c8 68 3d 93 b1 9a bd
       0.05664385 0.03686037 0.05683196 -0.07553401
000150 b8 c1 c5 3d 82 0a 39 bd 6a e3 82 bd 2d 91 9f 3d
       0.096560895 -0.045176037 -0.06391032 0.07791362
000160 32 03 43 bd b6 49 9a bc 8b b3 61 bd da 95 78 bc
       -0.04761047 -0.018833976 -0.055102866 -0.015172446
000170 ca b8 b4 bd 4b d4 62 bc 6b 6e 89 3c d8 60 1b 3d
       -0.08824308 -0.01384456 0.016776284 0.037934154
000180 d5 e0 df 3d 9f 2d b0 3c 69 da b0 bc 46 db 86 bd
       0.10931555 0.021506129 -0.021588521 -0.06584792
000190 6b 8b ed bc c4 35 27 3d b9 cf 93 3b f7 78 f6 3d
       -0.028997144 0.04082276 0.0045108465 0.12034791
0001a0 8b 9a 5c 3d 84 be ee 3c 61 09 bf bd 2a fa f4 3d
       0.05385832 0.02914358 -0.09327961 0.119617775
0001b0 a5 71 2e 3d 67 36 15 3d d4 eb a0 3c 1e 05 b4 bd
       0.04258885 0.036428835 0.019643702 -0.087900385
0001c0 0a b0 98 bc 50 68 30 bd 96 e4 44 bd 97 39 de 3d
       -0.01863863 -0.04306823 -0.04806956 0.10850828
0001d0 7f c0 b2 bd 82 94 b4 bd db 68 52 3d 17 c0 a8 3d
       -0.08728122 -0.08817388 0.05136953 0.08239763
0001e0 7a 5a e6 3d c6 b1 a2 bd 0f ca 09 bd 9e 28 d9 bc
       0.11247726 -0.07944064 -0.033639964 -0.026508626
0001f0 64 01 94 bd 54 1b 5a bd dc a9 e2 bc 32 de a3 bd
       -0.07226828 -0.05324872 -0.027668886 -0.08001365

bias f4 [2]
000000 87 10 73 3d ab 08 e1 bc
       0.059341934 -0.027469954

weight_ih_l0 f4 [192, 66]
000000 62 8f c7 bc 56 13 96 bd cc 6c a1 3d e7 90 eb 3b
       -0.024360362 -0.07327907 0.078820795 0.0071889046
000010 cd d3 30 bd 08 a8 cd 3c 2c ff 92 3d 13 fc 83 bd
       -0.04317074 0.025104538 0.071775764 -0.06444564
000020 a5 65 29 bc 32 44 d9 3c 85 7c ef 3d 80 a6 b3 3d
       -0.010339175 0.026521776 0.11693672 0.08771992
000030 c2 b5 1f bc 1a fa e9 3d 74 10 c2 3d 03 a7 ef 3d
       -0.009747924 0.11424656 0.094757944 0.11701777
000040 f0 56 11 bd 1b cf 63 3c 0f 0a a6 bb 28 d5 f8 bd
       -0.0354833 0.013904358 -0.005067117 -0.12150031
000050 6c 13 e0 bb 1b a7 97 3d ad 75 dc bd ba 55 02 be
       -0.006838253 0.0740492 -0.107646324 -0.12728015
000060 48 bf c1 bc 44 b4 e0 3d 42 01 1d bd 0b 6d a4 bd
       -0.02365078 0.10971883 -0.038331278 -0.08028611
000070 d6 55 91 3c a3 1c 2e bd 3d 38 b0 3d e0 5f 35 bd
       0.017741125 -0.04250778 0.086044766 -0.044280887
000080 fa 59 ad bd 73 51 cd 3d c5 5a 92 bd 50 c4 b2 bb
       -0.08464427 0.10025301 -0.07146219 -0.005455531
000090 fb 5a f1 3d f4 52 3f bd 1b 0b 07 3d 19 0f 38 bd
       0.11784931 -0.04670997 0.032969575 -0.044936273
0000a0 2d 3a 05 3c fc d0 89 3d f6 7f e2 bd 9a 60 fa bd
       0.008131546 0.06729314 -0.11059563 -0.122254565
0000b0 03 44 e8 bd 84 f2 ff 3d 21 f0 b9 bd ed ae 88 3d
       -0.11341097 0.12497428 -0.09079004 0.066739894
0000c0 ac 37 ee 3d c1 7c b4 3d 70 b9 99 bd ac a9 b2 bc
       0.11631712 0.088128574 -0.075060725 -0.021809421
0000d0 f4 c8 f6 bd 33 90 de 3d 86 de 89 bd 93 13 e2 bd
       -0.120500475 0.108673476 -0.06731896 -0.1103889
0000e0 e9 7d c5 bc 0e 5d 28 bd d5 39 55 bb 60 37 ef bd
       -0.02410789 -0.04110437 -0.0032535691 -0.11680484
0000f0 fa 82 9b bd c7 7c e1 3d 5b 49 cb 3d c9 f0 ad 3d
       -0.07593341 0.110101275 0.09926101 0.08493192
000100 46 5e 1a bd 81 51 d7 3b bb 5c e1 3d 2d 0d bb 3d
       -0.037687562 0.0065709953 0.11004015 0.091333725
000110 72 27 3a 3d 44 14 da bd 9a 12 8f 3d 4a 21 ae bc
       0.045447774 -0.106483966 0.0698597 -0.021256108
000120 06 c9 e1 bd 5b 0c a6 3c 98 a9 0a 3e 96 b6 af bd
       -0.1102467 0.020269563 0.13541257 -0.085797474
000130 68 39 0a bd b6 d6 3b 3d 46 a1 36 3d 0d 1e 6e bd
       -0.033746153 0.04585906 0.044587396 -0.058134127
000140 79 cd d4 bd a4 92 da 3b ba 55 03 be 39 05 8c bd
       -0.10390753 0.006670313 -0.12825671 -0.06836934
000150 e0 dd a4 bd 30 09 f2 bc 6a c4 ab bd 1e 7e 2f bd
       -0.08050132 -0.029545397 -0.083870724 -0.042844884
000160 6e 76 ee bc 3c c1 94 bd ae 76 ef bc d2 73 a2 bd
       -0.029109206 -0.07263419 -0.029231396 -0.07932247
000170 30 d5 aa bd b8 35 71 bd 9b 15 e9 bd ce 0f e1 3d
       -0.083414435 -0.05888912 -0.11381074 0.10989343
000180 12 06 4b bd dc 3d 08 b9 71 52 c8 bd f2 78 a5 3d
       -0.049566336 -0.00012993015 -0.097813495 0.08079709
000190 35 6d dc bd 6b 33 fa bc 38 c7 b4 bc 46 ae f8 3d
       -0.10763017 -0.030542096 -0.022067651 0.12142615
0001a0 3c 79 33 bd b4 9a b1 3d 48 fd b9 bd 49 df ed bd
       -0.04381679 0.086720854 -0.09081513 -0.11614854
0001b0 29 c4 bb 3d d8 fb 87 3c 1a 8b b4 bc db ff a4 3d
       0.09168274 0.01659958 -0.022038985 0.08056613
0001c0 50 79 10 3e 49 b2 ff bb ba 00 94 bd bd 8d 8f 3d
       0.14108777 -0.0078032357 -0.07226701 0.07009456
0001d0 1c d0 64 bd 64 4b 2d 3d 41 5b 06 3d 01 d3 a4 bc
       -0.05586253 0.042308226 0.03280187 -0.020120146
0001e0 a9 1d c7 3d 11 ca 1b bd fb 8a 8c 3d 86 8c 20 bd
       0.09722454 -0.038034502 0.06862446 -0.039196514
0001f0 8f 2e dd bd 0c ff 84 3c 00 0b 9b bc e1 bc 86 3d
       -0.10799896 0.016234897 -0.018926144 0.065789945
000200 26 85 ec 3c fc 9a 24 3c 4d a6 8f bd 3c 75 bb 3d
       0.028872084 0.010046717 -0.07014141 0.0915322
000210 f6 ff e2 bd 7c 99 5b 3d 4c 7e 83 3d 9d f0 10 3e
       -0.11083977 0.05361317 0.064205736 0.14154287
000220 4d a4 ac 3d bd 4f 49 bd 02 d7 fe 3d b4 64 f0 3d
       0.084297754 -0.04914831 0.12443353 0.117379576
000230 a3 62 f1 3d 69 f2 6e 3d a1 f9 c5 3d 32 a4 73 3d
       0.117863916 0.05833665 0.096667536 0.05948276
000240 9a 20 be 3d a3 e5 1f 3d 5e 17 e4 bd c4 a3 9f 3d
       0.09283562 0.039037358 -0.111372694 0.07794908
000250 26 1f 30 bd 47 fb a8 3d 63 63 81 3d 1a 09 c4 3c
       -0.042998455 0.08251052 0.06317785 0.023930121
000260 b8 f7 f3 3d 4b d5 87 3d 2e ef f4 3d 3d a7 96 3b
       0.11912483 0.06632479 0.119596824 0.004597573
000270 c4 30 78 bd c5 ea f7 bd 11 48 93 bd 2d 9d b2 bd
       -0.06059338 -0.121053256 -0.0719148 -0.08721385
000280 6e f0 1a 3d 7c b9 0d 3d a0 51 64 3c f2 07 7f bd
       0.037826948 0.03460072 0.013935477 -0.062263437
000290 7f df c8 39 af dd 3a 3d b6 b4 0f be 98 7a 61 3d
       0.0003831349 0.04562157 -0.1403378 0.055048555
0002a0 7d e6 f2 bd 79 59 a8 3c 84 d2 15 3c c0 5d d4 3d
       -0.118603684 0.020550476 0.009144429 0.10369444
0002b0 2b 71 b1 bd 49 7b 98 bc 26 f0 52 3d 90 da 8e bd
       -0.08664163 -0.018613474 0.051498555 -0.06975281
0002c0 94 06 a7 3d 7d 2f 7a bd 8f 3f 24 3d bb a0 1c bd
       0.081555516 -0.061080445 0.040099677 -0.038239222
0002d0 6b eb d6 3c 2e 06 a9 bd 08 d4 19 bd c4 4f 97 bd
       0.026235303 -0.08253132 -0.037555724 -0.07388261
0002e0 0d c9 0f 3c 1b 8c 25 3d 26 ca 62 3d 51 cf 01 3e
       0.008775962 0.040416818 0.055368565 0.12676741
0002f0 f3 26 98 3d 09 4f ac bd 98 7c 76 3d a3 7b ea bc
       0.07429304 -0.08413512 0.060177416 -0.028623408
000300 2a f8 5b bd 88 88 10 be 72 27 96 bd 5b ed bc 3d
       -0.053703465 -0.14114583 -0.07331742 0.092249595
000310 fe 60 07 3d 53 f3 0c 3e 5e 8a 84 bc 10 cc bd ba
       0.033051483 0.13764696 -0.01617926 -0.0014480371
000320 5c 57 e9 3d 27 ac ed bd 9d d4 74 3d 7e e5 ed 3d
       0.113936156 -0.11605101 0.059773076 0.11616038
000330 35 12 29 3a 96 eb c0 bd eb 0d b2 3a 5d af 2c bd
       0.00064495514 -0.094199345 0.001358447 -0.042159427
000340 0d 6b a4 3d b6 e4 5e 3b b2 07 6e 3d bd d4 3f bd
       0.08028231 0.0034010834 0.058112808 -0.046833742
000350 38 a8 8e bd 3d 84 cb bd a6 50 ff bd a3 56 3c bd
       -0.06965679 -0.09937332 -0.12466554 -0.04598106
000360 19 6c 9c 3d cd 1b 5b bd e3 79 01 3e 18 64 14 3d
       0.076378055 -0.05349331 0.12644152 0.03622827
000370 97 20 2f 3d 9d 8a ba 3d fc 1e 57 bc fd b2 c9 3c
       0.04275569 0.0910847 -0.013129946 0.024621481
000380 57 cc ca 3d aa 4f 9e bd e5 32 e0 bd 76 11 a9 bd
       0.09902256 -0.077300385 -0.10947207 -0.082552835
000390 b7 23 a2 3d a9 7a 82 3d ae e6 e6 3d cf b6 8e bc
       0.07916968 0.06371052 0.112744674 -0.017421154
0003a0 11 39 8b 3c 35 64 b8 bc 6c f9 4a 3d 6c 5b b0 3d
       0.016994985 -0.02250872 0.049554273 0.08611187
0003b0 81 03 a4 3d 95 6b 17 3c 08 f5 b7 bd bb 36 93 3d
       0.08008481 0.009241958 -0.08982283 0.071881734
0003c0 26 8c 32 bd c1 ae 92 3d b4 b4 c9 3d 76 55 a6 3d
       -0.043590687 0.07162238 0.098489195 0.08121769
0003d0 f6 ac 05 3e ee bc dd 3d 4e e1 d2 bd 40 e5 d6 bd
       0.1305426 0.10827051 -0.1029688 -0.10492945
0003e0 ba 22 01 bb e1 5b 9e bc 84 6a 50 3d c5 24 f8 bc
       -0.0019704537 -0.01933092 0.05088283 -0.03029097
0003f0 9e 6b 87 3a 0c 5e 9c 3c b5 1a df bc e3 f3 f3 bd
       0.0010331755 0.019087814 -0.027234415 -0.11911752

weight_hh_l0 f4 [192, 64]
000000 45 b7 af bc 0d ea 75 bd 41 49 d2 3c da 35 b0 3d
       -0.021449694 -0.06003766 0.025669696 0.08604021
000010 9b 71 85 bd e1 87 4f bd a5 a9 6f bd 43 e7 6b bd
       -0.06515809 -0.050666694 -0.058511395 -0.057593595
000020 1f 60 2d bd 07 2d 0a 3d c0 06 2b 3d a8 fd 68 bc
       -0.042327996 0.033734348 0.041754484 -0.014220633
000030 08 ff d0 3d 5e d0 85 3d 6c fd 0b be a7 94 c4 3d
       0.10204893 0.065338835 -0.13670892 0.09598666
000040 58 6f 9d bd 3b ba 41 3d cf 27 d2 3c 62 07 55 3d
       -0.07687253 0.047296744 0.025653748 0.052008994
000050 30 9b a4 3c 62 c4 96 bc b7 dc 9a 3d df b9 f8 bd
       0.02009353 -0.01840419 0.07561629 -0.12144827
000060 20 53 96 3d ae 8c 13 bd c4 63 b4 3b b5 6e e0 bd
       0.073400736 -0.036022834 0.005505057 -0.10958616
000070 05 42 29 3e 0a 16 d3 3d 94 6c 51 3d 16 e6 c9 bd
       0.1652909 0.10306938 0.05112894 -0.098583385
000080 38 81 a2 3d 38 b7 cd bb ed 0b ac 3d 4c 2b fe bd
       0.07934803 -0.006277945 0.08400712 -0.12410602
000090 6b 56 eb bc 61 92 35 3d 0d f4 0a 3d f9 98 b1 3d
       -0.02872773 0.04432905 0.03392415 0.08671755
0000a0 42 54 ba 3d b7 15 db bc c0 81 95 3d 3c ad 01 be
       0.09098102 -0.026743753 0.073001385 -0.1266374
0000b0 71 e3 6a bd 96 6b 30 3d bb 39 81 3d d9 a8 32 bd
       -0.05734581 0.043071352 0.06309839 -0.043618057
0000c0 3c 15 5b bd 2b e8 d2 ba ac 04 a1 bd d8 1a 9e bc
       -0.053487048 -0.001609092 -0.07862219 -0.01929991
0000d0 09 f4 24 3d 88 ac 58 bd 75 9d b2 3d 69 9c 05 3e
       0.040271793 -0.052898914 0.08721439 0.13047947
0000e0 38 70 ad 3d 47 4e d3 3d 33 df 67 3d 23 63 c0 bd
       0.0846867 0.103176646 0.056609344 -0.09393909
0000f0 eb 2a ce 3d a3 a3 e4 bd 9c 8d a4 3d d2 ee 0d bd
       0.1006678 -0.11164024 0.08034822 -0.034651585
000100 36 0b 83 3d 94 32 5c bc 56 31 ed 3c a6 3b a3 bc
       0.06398623 -0.013439793 0.02895419 -0.019925904
000110 6a c5 21 3c cc ce 75 3d e0 a3 d5 3d 15 72 62 bd
       0.009873727 0.06001167 0.10431647 -0.05528458
000120 cf e2 85 3d ad 62 a2 3d 2b 7a f3 3d e9 eb 54 3d
       0.06537401 0.07928977 0.11888536 0.051982794
000130 3a 69 52 bd 00 3f c4 bc 28 a1 00 3d 37 7d f4 bd
       -0.051369883 -0.023955822 0.03140369 -0.11937945
000140 46 dc 5a bd dd 20 a9 3d 68 f4 15 3d 7b ab 9b 3d
       -0.053432725 0.08258221 0.036610037 0.07601067
000150 9c 0b 89 3d 69 38 27 bd 9f 36 e5 3d cb 3f 9a bd
       0.066916674 -0.04082528 0.11192059 -0.07531699
000160 e7 7c 95 bd 70 be c3 3d 46 9c 4d 3c 49 96 fa bd
       -0.07299214 0.095578074 0.0125494655 -0.12235696
000170 f6 ae c9 3c 12 f1 d6 3d dc eb a2 3d 3f cd d4 bd
       0.02461956 0.10495199 0.07955143 -0.1039071
000180 45 13 c4 3c 84 b7 f8 3d b3 ea a9 3d 4e 1d 85 bd
       0.02393497 0.12144378 0.082967184 -0.0649973
000190 fe a9 e0 bd 4d 51 b8 bb 81 e5 6b bd 68 f6 cb bc
       -0.109699234 -0.005624926 -0.05759192 -0.02489777
0001a0 73 c5 d5 bd 32 46 a9 3d 67 aa 21 bd b2 f5 39 bc
       -0.10438051 0.08265342 -0.03946915 -0.011350082
0001b0 af 74 18 3c 8f 6a bd 3d 58 68 62 3d 5f f4 ee bd
       0.009305163 0.0924884 0.05527529 -0.11667704
0001c0 05 55 9b 3d ed b8 31 3a 78 23 bc 3d 5f 48 96 3c
       0.075845756 0.000677957 0.091864526 0.018345056
0001d0 2e 59 c7 bc 7e a3 8f 3d 89 f5 4b bd cb 9d 2b 3d
       -0.024334516 0.070136055 -0.049794707 0.04189853
0001e0 74 d7 82 3d 5f 45 88 bc ee 60 a3 3c 0d 65 b5 3d
       0.06388751 -0.016634641 0.01994368 0.088571645
0001f0 b3 cb 0c bd 63 8c e5 bc 7c 41 7d bd 4c 14 0a be
       -0.03437395 -0.028021043 -0.06183003 -0.13484305
000200 29 72 ba 3d cd 7e a5 3d be 5f fc 3d 71 6d 13 bd
       0.091038056 0.08080826 0.12322949 -0.035993043
000210 b4 15 04 3e 32 a6 f2 bd b0 b5 09 3e 9c 76 81 bc
       0.12898904 -0.118481055 0.13448215 -0.015803628
000220 b9 cd bb bc cb 34 5f 3d 00 57 98 bd 42 83 9a bd
       -0.022925245 0.054493707 -0.07438469 -0.07544567
000230 64 f9 ad 3d ee 27 0e bd aa 4a 9d 3d c2 45 59 3c
       0.08494833 -0.03470605 0.07680257 0.01326126
000240 db 1e a9 3d 20 55 5e 3d 3d 1b d9 3c 8a c4 19 3d
       0.08257838 0.0542804 0.026502246 0.03754095
000250 de 9d a1 3d 46 68 03 bc 96 0e d7 bd f6 7c db bd
       0.07891439 -0.008020466 -0.10500829 -0.10717194
000260 3b 6e f0 bd 9c 39 20 bd 44 a2 a8 bc b9 52 2d 3d
       -0.11739775 -0.03911744 -0.020585187 0.04231522
000270 a8 63 2c bd df ba 17 bd 43 18 47 bc 4f 2c bb 3d
       -0.042087227 -0.03704345 -0.012151781 0.091393106
000280 88 f4 ec 3d 79 f9 ac 3d b0 f7 80 bc 60 b0 bd 3d
       0.11570078 0.08446021 -0.015743107 0.092621565
000290 e5 7b 95 bd ad 0d 98 3d 2e 5a df 3b 92 bf eb bc
       -0.07299022 0.074244834 0.00681617 -0.028777871
0002a0 70 ae 4a 3b ba 2b 19 bd 0b 86 b3 3d 8d a8 aa bd
       0.0030926727 -0.037395217 0.08765801 -0.0833293
0002b0 f1 c1 43 3c d5 49 51 bd e1 f5 8b 3d 3f 5a 84 3d
       0.011948095 -0.051095802 0.06834007 0.064625256
0002c0 b2 22 81 bd 87 55 e2 3d 8a 1e 32 bd e1 34 ee 3c
       -0.06305446 0.11051469 -0.043486156 0.029077949
0002d0 aa c4 a6 3d ab 25 08 3e 41 e4 91 3c 71 f2 1e bd
       0.081429794 0.13295619 0.017809035 -0.03880543
0002e0 f3 90 56 3c 05 ba 8e 3d c1 4b f0 3d 6e 2b d1 3d
       0.013096082 0.06969074 0.11733199 0.10213362
0002f0 43 ed 53 3d 94 e7 d9 bd 73 15 5f 3d 99 63 b1 3d
       0.051739942 -0.10639873 0.054463815 0.08661575
000300 22 ff 52 3d dd f4 8b 3c d6 bc d8 3d 3e 7e 83 bd
       0.051512845 0.017084533 0.105828926 -0.06420563
000310 46 37 c5 bc 99 b6 3c bd f4 07 65 3d 01 d0 86 3d
       -0.024074208 -0.046072576 0.055915788 0.06582642
000320 85 f9 ea bb a0 c3 61 bc ce 1d 04 be 62 5d 9a 3d
       -0.0071708583 -0.013779551 -0.12901995 0.075373426
000330 7a 8c d8 bc d0 11 cf 3d 1e 8f 13 bd 1b 18 d5 bd
       -0.026434172 0.10110819 -0.03602516 -0.104049884
000340 6e 37 ce 3a 49 23 58 3d da 2c ef 3d 01 b9 77 3d
       0.0015733072 0.052768026 0.11678477 0.060479168
000350 2a 89 a7 bd 2e 0e d4 bd eb 64 bc 3d 35 77 ac bd
       -0.08180459 -0.10354267 0.09198936 -0.084211744
000360 a0 11 b3 3d d2 aa a2 3c af c2 fb 3d ae eb 06 3d
       0.08743596 0.019856844 0.12292992 0.032939605
000370 72 6d 75 3d a8 9f 1c 3c 11 3f 91 3d 98 30 48 3d
       0.05991883 0.009559549 0.07092107 0.048874468
000380 79 08 f5 bd 95 62 04 3d 90 41 ec 3d a3 96 8b bd
       -0.11964507 0.032320578 0.115359426 -0.06815841
000390 c9 d2 c9 3d 53 e1 ce 3d 8a 9f fb bc d9 75 ad 3d
       0.09854657 0.10101571 -0.030715723 0.08469743
0003a0 52 d7 f9 3c 6a f5 2a bd c1 d8 89 bd 0f 6c 85 3c
       0.03049818 -0.04173795 -0.06730796 0.016286878
0003b0 1a 51 6f bd 31 66 55 bd 7c f1 b4 3d 69 90 8e bb
       -0.058426954 -0.05209941 0.08835122 -0.004350711
0003c0 f3 ee 6a 3d 58 cd fd bd 50 37 11 bd 06 3a 00 bd
       0.057356786 -0.12392682 -0.03545314 -0.031305335
0003d0 fa e9 80 3d 12 25 7e bd ab 40 6c 3c 4f c0 c7 bd
       0.062946275 -0.06204707 0.014419715 -0.09753477
0003e0 e7 08 8b 3c 91 4f e3 3d 56 e1 18 bd c8 9f ba 3d
       0.016972018 0.110991605 -0.037324272 0.09112507
0003f0 62 87 b5 bd e0 4d f9 3b 10 46 c7 3c ac f1 a9 3d
       -0.08863713 0.0076081604 0.0243254 0.082980484

bias_ih_l0 f4 [192]
000000 7e 1b 8d 3d 65 9c af 3d 97 53 c5 3d 54 61 d1 bd
       0.06890009 0.08574752 0.09635084 -0.10223642
000010 94 53 21 bd 32 58 9c 3d ff c8 b8 bd 63 a4 34 bd
       -0.039386347 0.076340094 -0.09022712 -0.044102084
000020 ba 69 9a 3d 7c f0 9f 3a 3d fb 5f bd 91 27 c2 3c
       0.07539697 0.0012202407 -0.05468296 0.023700507
000030 f8 ef a1 3c 98 fe 69 3d 4f bb 4a bd 85 a7 04 be
       0.019767746 0.057127565 -0.049495038 -0.12954529
000040 d1 65 f7 bc 39 e7 e7 bc 22 e7 66 3d 03 99 7c bd
       -0.030199917 -0.028308498 0.05637277 -0.06166936
000050 2b 53 82 bd 37 06 89 bd b4 d7 8b bc b3 ec 32 3c
       -0.06363519 -0.066906385 -0.017070629 0.010920691
000060 d1 6d 65 3a b5 84 39 3d 68 4b c0 bd 54 1a 74 bd
       0.00087520207 0.045292575 -0.093893826 -0.05959542
000070 e5 04 ea bd 18 f8 a7 3d f1 6e da bd 06 f2 21 bd
       -0.11426715 0.08201617 -0.10665692 -0.039537452
000080 58 e1 33 3b 01 2a c0 3d e6 80 32 bd 54 9c 47 bd
       0.0027447548 0.093830116 -0.04357996 -0.04873307
000090 01 16 f1 bd 38 96 7e 3d 84 93 17 bb ae 1e 06 3e
       -0.11771775 0.06215498 -0.0023128698 0.13097641
0000a0 48 9f 02 be 13 34 cc bd e6 f8 61 3c b5 3d ab 3c
       -0.12756073 -0.0997087 0.013792252 0.020903448
0000b0 a9 de 61 bd 5e a7 4b bd 30 d1 03 3e f5 09 93 3d
       -0.055143986 -0.04972016 0.12872767 0.071796335
0000c0 e2 b7 84 bd e3 4e 36 bc fe 24 82 3d 3c 05 a5 bd
       -0.06480385 -0.0111272065 0.06354712 -0.08057639
0000d0 01 48 15 3e ed 7e 95 3d 88 f5 d8 bd 1f 2e f0 bd
       0.14578249 0.072996 -0.10593706 -0.11727547
0000e0 79 98 31 3d cd 54 c8 3d 5c af 00 be 1b bf 8b 3b
       0.0433583 0.097817995 -0.12566894 0.004264725
0000f0 bf cb a3 bd 77 75 4d bd db 12 db 3c 80 b4 e2 3d
       -0.07997846 -0.05016085 0.02674239 0.11069584
000100 97 f3 3c bd 71 59 80 3c fe 4b 04 be 2b 3b 08 3d
       -0.046130743 0.015667649 -0.12919614 0.033259552
000110 6f ac e1 3d 65 78 da bc 73 72 ef 3d c1 a4 49 bd
       0.11019217 -0.026668737 0.11691751 -0.049229387
000120 75 67 96 bd 2a 48 0c bc 18 2b 95 bc f2 23 10 3d
       -0.073439516 -0.008562127 -0.018209025 0.03519053
000130 ad cc 7e bc 23 cd 71 bd 91 fd 6c bd a8 2f 90 bd
       -0.015551728 -0.059033524 -0.057859007 -0.0704034
000140 ee db 1f bd 01 34 45 3d 52 8f a7 3d 77 73 0e be
       -0.0390281 0.048145298 0.08181633 -0.13911234
000150 57 70 5d 3d 75 62 e5 bc b6 51 99 3d 3e c8 41 bc
       0.054062214 -0.02800105 0.07486288 -0.011827527
000160 ed 46 96 bc 8e be bb bd 24 44 17 3e 69 4d b4 3d
       -0.018344367 -0.09167205 0.14772087 0.08803827
000170 9a 32 00 3e 88 5f 0a be d7 58 d3 bd 66 89 9f bd
       0.12519303 -0.13513005 -0.10319679 -0.077898785
000180 0c b6 f8 bd e6 3d af 3c b5 95 b6 3d 6e fe 32 bc
       -0.12144098 0.02139182 0.08915273 -0.010924919
000190 67 c4 41 3c fe 35 fa bd c2 08 1a bd 3e b2 fd 3d
       0.011826611 -0.122173294 -0.03760601 0.123875126
0001a0 71 17 ab bd 83 9d 88 3d a6 a7 e5 3c 4e c1 52 bd
       -0.083540805 0.06670668 0.028034043 -0.05145388
0001b0 d5 a4 9d bc 09 23 ea bd 85 d8 1f 3e e7 81 92 bd
       -0.019243637 -0.11432464 0.1560994 -0.07153683
0001c0 85 f6 42 3d 21 0d 90 3c 5c 4f b9 bd 67 1f 8a bd
       0.04759838 0.017584385 -0.0904834 -0.06744271
0001d0 65 81 9e 3b ac ff 01 3d b9 ca 9e 3d 26 fb f7 bd
       0.0048372024 0.03173797 0.0775351 -0.1210845
0001e0 e7 02 a7 3d 44 d9 49 bc e1 a6 80 bc e3 9a 97 3d
       0.081548505 -0.012319867 -0.015704574 0.07402589
0001f0 e7 a8 2d bd c5 d8 09 bd d7 bf b2 3d 74 90 83 bd
       -0.042397406 -0.033653993 0.08727997 -0.064240366
000200 aa 1e 79 bd d1 d1 4f 3c 2d 08 81 bd 3f 5f a1 bc
       -0.06082026 0.0126843015 -0.063003875 -0.019698737
000210 b5 4a bf bd 1b 6e 67 3d 45 9e 85 bd 61 0c d5 bd
       -0.09340421 0.05650149 -0.06524328 -0.10402752
000220 f1 b3 22 3d c8 8c fa bd 07 c3 03 bd f8 16 e4 bd
       0.039722387 -0.12233883 -0.032168414 -0.111371934
000230 6f 87 cf bc be a5 43 bd b0 45 95 bc 71 29 c4 3c
       -0.025333134 -0.047765486 -0.018221706 0.023945542
000240 f8 6a d2 bd 22 e8 8f bd 85 43 bc 3d 2c 59 06 3d
       -0.10274309 -0.07026698 0.09192566 0.032799885
000250 5b 55 84 3d 73 09 cf bd cf 3d e0 bd 22 d5 74 bd
       0.06461593 -0.10109224 -0.10949289 -0.05977357
000260 aa d7 f3 bc 04 83 fa bc 3c 13 09 3e db ff ee bd
       -0.029765923 -0.030580051 0.13386244 -0.11669894
000270 df 17 d0 3d 7b 05 b9 3d 59 13 41 bc bd aa e9 3c
       0.10160803 0.090342484 -0.011784398 0.028523797
000280 9a ed 6a 3c f1 21 83 bd a1 27 65 3c de 79 d1 bd
       0.014338875 -0.06402958 0.013986499 -0.102283224
000290 77 80 ca bd a2 ef 7a bd c6 bc 17 bd 56 00 fc bd
       -0.09887784 -0.061263688 -0.037045263 -0.123047516
0002a0 65 92 00 3d e4 dc 2b bd 1f 7a 82 3c bc bc dd bd
       0.031389613 -0.041958705 0.015927373 -0.10827014
0002b0 a8 0c f1 3d b2 f1 e5 bd d7 6b fa 3c 94 c1 7d 3d
       0.11769992 -0.1122774 0.030569 0.06195219
0002c0 35 f4 5f bd fe 32 88 3a 60 58 04 be bf 18 2a 3d
       -0.054676253 0.0010391173 -0.12924337 0.041527506
0002d0 d7 06 88 bd b7 b2 ff bd 7c 14 8d 3d 5e 43 c5 bc
       -0.066419296 -0.12485259 0.06888673 -0.024079975
0002e0 33 4d dc 3c 6a 71 8d 3d 68 dd 85 3d cb af ca 3c
       0.02689228 0.06906398 0.065363705 0.024742028
0002f0 c6 99 0d bc 55 43 c3 bd e9 b9 86 bd 2e ad d7 3d
       -0.0086426195 -0.09534327 -0.06578428 0.10531078
