models/transformer_encoder/checkpoint/trained_irdpg_20.pth (torch, 409346 bytes, 22 tensors)

weight_ih_l0 f4 [192, 64]
0	0xbd49f68a	-0.049307384
1	0x3c914e84	0.017737634
2	0x3d49b6c1	0.049246553
3	0x3dce477d	0.10072229
4	0x3d14f576	0.036366902
5	0xbda73ae0	-0.081655264
6	0x3c928324	0.017884798
7	0x3d1eb172	0.038743444
8	0xbd73c888	-0.059517413
9	0x3d9e62ec	0.077337116
10	0xbdc6f336	-0.097143576
11	0x3d4ea236	0.050447665
12	0xbc11c48c	-0.008896958
13	0xbdd5d338	-0.104406774
14	0x3de95cef	0.11394679
15	0xbd1f7ae1	-0.038935546
16	0xbdc94fcd	-0.09829674
17	0x3c3f8d4d	0.011691404
18	0x3df503fc	0.119636506
19	0xbde51bd4	-0.111869484
20	0xbd941021	-0.07229639
21	0xbdccfd31	-0.1000923
22	0xbdb6e380	-0.08930111
23	0xbc1b7fc8	-0.009490915
24	0xbc0f2e3e	-0.008739052
25	0x3d8e7b29	0.06957085
26	0x3d91fa17	0.07127779
27	0xbddb1b78	-0.106985986
28	0xbce104f1	-0.027468177
29	0xbdddf06c	-0.108368725
30	0x3cdd159e	0.026987847
31	0xbcc70362	-0.024293605
32	0xbd407c39	-0.046993468
33	0x3da140ff	0.07873725
34	0x3dd73244	0.10507634
35	0x3c33d32f	0.010975643
36	0xba8622d1	-0.0010233765
37	0x3de37531	0.11106337
38	0xbda60637	-0.08106654
39	0x3d39df83	0.045379173
40	0x3b5a61d8	0.003332248
41	0x3c903b8d	0.017606521
42	0x3c589eee	0.013221486
43	0x3d96cb62	0.07363011
44	0x3dc7acf7	0.09749787
45	0x3dd6cad9	0.10487909
46	0x3ddf6efa	0.10909839
47	0x3cea1bb1	0.028577657
48	0xbbd8884e	-0.0066080457
49	0x3d9187d2	0.07105984
50	0xbdd1abeb	-0.10237869
51	0x3ca62013	0.020278966
52	0x3db7a9af	0.089679115
53	0x3b089f19	0.0020846783
54	0xbdf66444	-0.12030843
55	0x3cd58716	0.02606539
56	0x3de1064a	0.10987528
57	0x3d9cbcf7	0.0765323
58	0x3c6e298f	0.0145362755
59	0x3de41201	0.111362465
60	0x3d502f18	0.050826162
61	0x3d5f3ea7	0.05450311
62	0x3d9da997	0.07698362
63	0x3cf6f766	0.030147266
64	0xbca0b89c	-0.019619279
65	0x3d65e221	0.056123856
66	0xb9f0ed26	-0.00045953057
67	0x3dff77c9	0.12474019
68	0x3de0f8b7	0.109849386
69	0x3b5daac3	0.0033823706
70	0x3ca9b952	0.02071825
71	0xbdcce693	-0.10004916
72	0x3cd50ca5	0.026007006
73	0x3dd6223a	0.10455747
74	0xbd601a20	-0.054712415
75	0xbdc40d43	-0.09572842
76	0xbd3f4a51	-0.046701733
77	0x3d33472c	0.043769047
78	0x3c0da8e6	0.008646226
79	0xbd093146	-0.033494256
80	0x3dde5408	0.108558714
81	0xbd6ff7fa	-0.0585861
82	0x3d9c29d4	0.076251656
83	0xbdf48375	-0.11939136
84	0x3decc0ce	0.11560212
85	0xbdb0d013	-0.08633437
86	0xbd8120f9	-0.06305117
87	0x3dc5b08f	0.096528165
88	0xbdf37758	-0.118879974
89	0x3d408ab6	0.047007285
90	0xbdcfe88f	-0.10151779
91	0x3df18e51	0.11794723
92	0xbdeaa982	-0.11458112
93	0x3d25af7a	0.04045055
94	0x3d02988d	0.031883765
95	0x3d5d2d7a	0.053998448
96	0xbdb2c7ea	-0.08729537
97	0xbd04a297	-0.03238162
98	0xbdeca0b9	-0.11554093
99	0x3d808671	0.06275643
100	0x3ce0021b	0.027344754
101	0xbd8609f3	-0.065448664
102	0x3d2ec7fb	0.042671185
103	0xbdc2907c	-0.095002145
104	0x3c07936d	0.008274895
105	0xbdb30a3c	-0.087421864
106	0x3aa4fe14	0.0012587928
107	0x3defea72	0.11714639
108	0x3d906be5	0.07051829
109	0xbc513a89	-0.0127703035
110	0xbd06e008	-0.032928497
111	0xbcd28e84	-0.025702722
112	0x3db188ef	0.08668696
113	0xbd3bcc39	-0.04584906
114	0x3dbd75fa	0.09251018
115	0x3cd6cc2e	0.026220407
116	0xbd8e18b4	-0.069383055
117	0x3dd65383	0.10465147
118	0xbcff2211	-0.031144174
119	0x3d5342b1	0.051577274
120	0x3d1929b1	0.037393276
121	0xbd0abcab	-0.033871334
122	0xbddf7636	-0.10911219
123	0xbde2d1b8	-0.11075157
124	0xbdb2feee	-0.0874003
125	0x3bfd0f8a	0.0077227997
126	0x3ddf856c	0.1091412
127	0x3cdc0461	0.026857557
128	0xbdd6c871	-0.1048745
129	0x3c96ed3c	0.018423669
130	0xbd924275	-0.07141582
131	0xbdc68240	-0.09692812
132	0xbd440ef6	-0.04786583
133	0xbdf72760	-0.12068057
134	0x3d1a39f9	0.037652943
135	0x3dc20a15	0.09474579
136	0x3ba3b7e3	0.0049962862
137	0x3da309fc	0.07960889
138	0x3d0ee640	0.034887552
139	0x3d59d20d	0.053178836
140	0xbdd6aff6	-0.10482781
141	0x3d565833	0.052330207
142	0xba85ceb1	-0.0010208694
143	0x3d0fe1c5	0.03512742
144	0xbd52f31d	-0.051501382
145	0xbde435ce	-0.11143075
146	0xbd8a5690	-0.06754792
147	0x3b0e7500	0.0021737218
148	0x3bc0d60c	0.0058848914
149	0x3c3e8df2	0.011630522
150	0xbdb245e6	-0.08704738
151	0xbd9ab6e2	-0.075544134
152	0x3d0149ef	0.03156465
153	0x3d937671	0.07200325
154	0x3b1b85d9	0.0023730902
155	0x3d8c5ed4	0.068540245
156	0xbd9786d8	-0.07398766
157	0xbc7b7f85	-0.015350227
158	0xbdc0cb4a	-0.09413774
159	0xbdeef75e	-0.11668275
160	0x3d945c80	0.072442055
161	0xbd9186e7	-0.07105809
162	0x39530579	0.00020124567
163	0x3d300ae8	0.04297915
164	0xbd7681b9	-0.060182307
165	0xbd91279f	-0.07087635
166	0x3daccdcb	0.084376894
167	0xbd08e9fa	-0.033426262
168	0x3d775473	0.06038327
169	0x3de39c8f	0.111138456
170	0x3dcbb3fc	0.09946439
171	0xbda70e14	-0.08156982
172	0x3d8290f3	0.06375303
173	0xbd90b19b	-0.070651256
174	0xbd4e39da	-0.05034814
175	0xbd31c875	-0.04340406
176	0x3daa754c	0.08323154
177	0xbd567db2	-0.052365966
178	0x3d67d320	0.05659783
179	0xbd8b199f	-0.06791996
180	0xbd96f98d	-0.07371817
181	0x3df7f444	0.12107137
182	0x3da8000e	0.082031354
183	0x3dc6a5ab	0.096995674
184	0x3d29500f	0.041336115
185	0x3dc2ce6d	0.09512029
186	0xbdc865a1	-0.09785009
187	0xbdcb2908	-0.099199355
188	0x3d3f8941	0.046761755
189	0xbd8a033c	-0.06738898
190	0x3d206d7f	0.039166924
191	0xbdd35196	-0.10318296
192	0x3d5276cd	0.05138283
193	0xbd9c72c7	-0.076390795
194	0x3c35501f	0.011066466
195	0xbdcc7765	-0.0998371
196	0xbc8067ef	-0.01567456
197	0x3d24d693	0.040243696
198	0xbccd4d9f	-0.025061427
199	0x3dec97fe	0.11552428
200	0xbdf72250	-0.120670915
201	0x3dd5a06d	0.104309894
202	0xbd49b670	-0.04924625
203	0x3dd3960d	0.10331354
204	0x3dfc0ba8	0.12306911
205	0xbdc9e5a6	-0.09858255
206	0x3d176df7	0.036970105
207	0xbda8fd4e	-0.08251439
208	0x3cc11ea5	0.023574183
209	0xbc85233d	-0.016252154
210	0xbde7c889	-0.11317546
211	0x3c99290d	0.018696332
212	0xbd009483	-0.03139163
213	0xbc78816e	-0.015167577
214	0x3dcacd90	0.09902489
215	0x3dfade16	0.12249391
216	0x3dacd7fd	0.08439634
217	0x3d9427e0	0.07234168
218	0x3db1453e	0.08655785
219	0xbdc4ff58	-0.096190155
220	0xbbb87c34	-0.0056300405
221	0xbc73649f	-0.014855533
222	0x3d7e401d	0.062072862
223	0x3c984136	0.018585782
224	0xbdd8737b	-0.10568901
225	0xbdca5a70	-0.09880531
226	0x3b518bbb	0.0031974155
227	0x3c95a7ae	0.018268432
228	0xbdd27f05	-0.10278133
229	0xbdc3aaaf	-0.0955404
230	0x3d0f8c91	0.035046164
231	0x3beb3d6b	0.0071789525
232	0x3c8a2224	0.016861983
233	0xbd6ef0ca	-0.058335103
234	0x3c5d96d6	0.013524732
235	0xbdcb706c	-0.09933552
236	0x3db858ac	0.09001288
237	0xbda50c5e	-0.080589995
238	0xbc112c73	-0.008860695
239	0x3c88771e	0.016658362
240	0xbd79d6fe	-0.06099605
241	0x3bae9248	0.0053274967
242	0xbd8c5e3c	-0.06853911
243	0x3c4d2b9e	0.012522606
244	0xbca74954	-0.020420708
245	0xbc5fe937	-0.013666443
246	0x3d627313	0.055285525
247	0xbdd6ff8c	-0.104979604
248	0xbcfb2f58	-0.030662224
249	0x3d0596fe	0.0326147
250	0x3d9e4566	0.077280805
251	0xbcdf1efd	-0.027236456
252	0x3d3b0711	0.045661036
253	0x3ceb5a71	0.02872965
254	0x3b01db71	0.0019814635
255	0x3d8eb80c	0.06968698

weight_hh_l0 f4 [192, 64]
0	0xbd69162d	-0.056905914
1	0xbc2a0c35	-0.010378887
2	0xbd255831	-0.04036731
3	0xbd3d1bd5	-0.04616912
4	0xbd824148	-0.06360108
5	0xbda58a12	-0.080829754
6	0xbd9fe8e1	-0.0780809
7	0xbdc37abe	-0.095448956
8	0xbd1cd14b	-0.038285535
9	0xbdc1c7f1	-0.09461964
10	0x3d9e65c4	0.07734254
11	0xbcc98f2d	-0.024604404
12	0xbd8d533c	-0.06900641
13	0xbbc7b1d0	-0.006094195
14	0x3cd5ddd9	0.026106762
15	0x3d6896cd	0.05678444
16	0xbdf81670	-0.121136546
17	0xbdc71da7	-0.097224526
18	0x3de6a80c	0.11262521
19	0x3d84735a	0.06467314
20	0xbdd577d0	-0.10423243
21	0xbdc1209d	-0.094300486
22	0x3dfb1561	0.12259937
23	0x3d8f893c	0.07008597
24	0xbd9e4e83	-0.07729819
25	0x3cf26ef5	0.029593924
26	0xbdcb8f40	-0.09939432
27	0x3cac769c	0.021052651
28	0x3dc43270	0.09579933
29	0xbd881269	-0.066441365
30	0x3d208e1b	0.039198022
31	0x3d0ba0cd	0.0340889
32	0x3def0737	0.11671298
33	0xbd938659	-0.07203359
34	0x3d18830c	0.03723435
35	0xbbc73a7e	-0.006079971
36	0xbda58ec7	-0.08083873
37	0xbd18a6db	-0.0372685
38	0xbdfcad1e	-0.12337707
39	0x3d25670a	0.04038147
40	0x3d02a64f	0.031896885
41	0xbc2ebfac	-0.010665815
42	0x3d70604b	0.058685582
43	0x3cc8b7e5	0.02450175
44	0x3db7715f	0.08957171
45	0x3d40bfe0	0.047057986
46	0xbdb5f722	-0.088850275
47	0xbd41cd38	-0.047314852
48	0xbd1c0a17	-0.03809556
49	0x3d51987c	0.05117081
50	0x3d4d3fd2	0.050109692
51	0xbd26a92f	-0.04068869
52	0x3d5d294a	0.053994454
53	0x3d36e465	0.044651408
54	0x3d3b5f39	0.04574511
55	0x3c3b8b52	0.011446791
56	0xbce3eec6	-0.027823817
57	0x3d433ec9	0.0476673
58	0xbdd44e4b	-0.10366496
59	0xbb0d395e	-0.0021549086
60	0x3d50bfdd	0.050964225
61	0xbdd1e5b5	-0.10248891
62	0x3d4422ee	0.047884874
63	0x3d4ccf95	0.050002653
64	0x3cb276c4	0.021785147
65	0x3db81559	0.08988447
66	0x3d998ca8	0.07497531
67	0xbda12ace	-0.078694925
68	0xbd9a53b5	-0.07535497
69	0xbb80886c	-0.0039225128
70	0x3d79cc47	0.06098583
71	0xbce7370e	-0.028224494
72	0xbd1687cd	-0.036750603
73	0xbddb82c1	-0.10718299
74	0x3de4f554	0.11179605
75	0x3daca74d	0.084303476
76	0x3ccc11b3	0.024910783
77	0xbd8dd900	-0.06926155
78	0x3d92a9cd	0.07161293
79	0xbdf7bff5	-0.1209716
80	0x3cd16be2	0.025564138
81	0xbdbc6acd	-0.09200058
82	0xbd8fdddd	-0.07024739
83	0xbd3d2957	-0.046182003
84	0x3d7aa40a	0.061191596
85	0xbdba19ed	-0.09086976
86	0xbdd27aa8	-0.10277301
87	0xbd304d5f	-0.043042537
88	0xbc9eb0d1	-0.019371422
89	0x3d86f7fa	0.065902665
90	0xbc86ad96	-0.016440194
91	0x3c25f78f	0.010129823
92	0xbdd3864e	-0.10328351
93	0xbd98f0be	-0.07467793
94	0xbd97e8a4	-0.074174196
95	0xbde63230	-0.11240041
96	0xbdc8f119	-0.09811611
97	0xbd912cf3	-0.070886515
98	0x3d5859a2	0.052819856
99	0xbd8827cd	-0.066482164
100	0x3da8dee8	0.08245641
101	0xbd6901bb	-0.056886416
102	0x3ddc1bce	0.10747491
103	0xbdd73f57	-0.10510128
104	0x3cac3aa3	0.021024054
105	0xbd5e5971	-0.054284517
106	0x3d24ab17	0.040202226
107	0xbdd49b1b	-0.103811465
108	0xbcbc559b	-0.022990039
109	0xbd999fe5	-0.075012006
110	0x3d683975	0.05669542
111	0xbdea1f5b	-0.11431762
112	0xbd4297cd	-0.04750805
113	0xbcc134d3	-0.023584759
114	0x3cb3bc33	0.021940326
115	0x3dc61c5c	0.09673378
116	0xbce3b128	-0.027794436
117	0xbd86ddfd	-0.0658531
118	0xbd8b91de	-0.06814931
119	0x3df94b5e	0.12172578
120	0xbde51f09	-0.1118756
121	0xbb97c028	-0.004631061
122	0xbde6442c	-0.112434715
123	0x3d035f85	0.032073516
124	0xbd963d01	-0.07335854
125	0x3de10919	0.10988063
126	0x3daeb618	0.085308254
127	0xbd907ba2	-0.07054831
128	0xbd885022	-0.06655909
129	0x3d5aaf92	0.053390093
130	0x3d35837d	0.04431485
131	0x3ce88f50	0.02838865
132	0xbdce3f6a	-0.10070689
133	0x3d3864c3	0.04501797
134	0xbd3fd500	-0.046833992
135	0x3d208abd	0.03919481
136	0xbdaa5ba8	-0.08318263
137	0xbd371333	-0.044696044
138	0x3d09c4e6	0.033635043
139	0xbda70248	-0.08154732
140	0x3cfe079b	0.031009486
141	0xbd91c195	-0.07117001
142	0x3c92a943	0.017902976
143	0x3d9ab4a7	0.07553988
144	0x3d64c05a	0.055847503
145	0xbd1d566f	-0.038412508
146	0x3da06d08	0.07833296
147	0x3d47e41e	0.048801534
148	0xbc2f9ec2	-0.010719003
149	0xbdcec8ac	-0.10096869
150	0xbdea7644	-0.11448339
151	0x3dcb8fd6	0.09939544
152	0xbdbdb002	-0.092620865
153	0x3de6c68f	0.11268341
154	0xbded67d5	-0.1159207
155	0x3c9c6fda	0.019096304
156	0xbdad36e5	-0.08457736
157	0x3d900017	0.07031267
158	0xbdef59e9	-0.11687071
159	0x3de578df	0.11204695
160	0x3c0eac68	0.008708097
161	0x3d25bc58	0.04046282
162	0xbde33881	-0.11094762
163	0x3c96d59a	0.0184124
164	0x3c5b9c7a	0.013404006
165	0x3da16df5	0.07882301
166	0xbdc37fbd	-0.095458485
167	0x3d890eeb	0.066922985
168	0xbd2b8ffb	-0.041885357
169	0x3da7d186	0.0819426
170	0xbd12adba	-0.03581021
171	0xbc1c03f2	-0.009522425
172	0x3dec939c	0.11551592
173	0xbc52e2d4	-0.012871463
174	0xbcd4641b	-0.02592664
175	0x3dc261f4	0.09491339
176	0xbda9f028	-0.08297759
177	0xbd073c2e	-0.033016376
178	0xbd976c37	-0.07393687
179	0x3ce9ea3d	0.028554076
180	0xbb4272ad	-0.0029670403
181	0xbdbee758	-0.09321469
182	0xbd143291	-0.036181036
183	0x3d2bfcf5	0.041989285
184	0xbcfa7d32	-0.030577276
185	0x3df33113	0.118745945
186	0xbd8c8b1b	-0.0686247
187	0xbd821253	-0.06351151
188	0x3d674105	0.05645849
189	0xbd382585	-0.044957656
190	0x3dd143ee	0.10218035
191	0xbdc2b46a	-0.095070675
192	0x3d36c4a9	0.044621143
193	0x3e009c69	0.12559666
194	0xbd5f5385	-0.05452301
195	0x3a9b5a8c	0.0011852547
196	0xbd96d8f1	-0.07365597
197	0xbd287422	-0.041126378
198	0xbc90f6a8	-0.01769574
199	0xbd3e2fa4	-0.046432152
200	0xbdb262f0	-0.08710277
201	0x3df8becd	0.12145767
202	0xbbc4e204	-0.0060083885
203	0xbda8f614	-0.08250061
204	0xbcb176d8	-0.021663114
205	0x3d95542c	0.07291445
206	0x3cce9659	0.025218176
207	0xbd933158	-0.07187146
208	0xbd295530	-0.041341007
209	0x3d9bc24a	0.07605417
210	0x3d0b66ce	0.03403359
211	0xbd572767	-0.05252781
212	0x3dca02e2	0.09863831
213	0x3d16c98e	0.03681331
214	0xbd8a61a6	-0.06756906
215	0x3d1927b0	0.037391365
216	0xbdc43b31	-0.09581602
217	0x3d8651e7	0.065585904
218	0xbd194909	-0.037423167
219	0xbda4311c	-0.08017179
220	0x3c994bae	0.018712845
221	0x3d0e2db9	0.034711573
222	0x3df3e7e3	0.11909463
223	0x3d355e39	0.04427931
224	0x3cc8845a	0.024477173
225	0x3dc2884d	0.094986536
226	0xbd9033a1	-0.070410974
227	0xbb945955	-0.004527251
228	0x3daa2356	0.08307521
229	0xbd259e2a	-0.04043404
230	0x3dfa18cc	0.12211761
231	0x3d9699e2	0.073535696
232	0x3d6108f9	0.054940198
233	0x3dc819f1	0.09770573
234	0xbd92e684	-0.071728736
235	0xbdeaf228	-0.11471969
236	0xbde4548d	-0.11148939
237	0x3dc58e56	0.09646289
238	0xbdac138a	-0.08402164
239	0x3de6f7a6	0.11277704
240	0x3dd8d0d4	0.10586706
241	0x3c65d240	0.014027178
242	0xbdf90d96	-0.121607944
243	0xbdefdc8b	-0.11711987
244	0xbda611e7	-0.08108883
245	0x3d041913	0.032250475
246	0x3d902626	0.07038526
247	0x3d98705f	0.07443308
248	0xbdcbc9ad	-0.09950576
249	0xbdce2c58	-0.10067052
250	0xbc278816	-0.0102253165
251	0x3df431cf	0.11923563
252	0x3df3771b	0.11887952
253	0x3d8b0c32	0.067894354
254	0x3d947958	0.07249707
255	0xb957967d	-0.00020560059

bias_ih_l0 f4 [192]
0	0xbd6ff5ae	-0.058583908
1	0x3dc42984	0.09578231
2	0x3dfd1d9c	0.12359163
3	0x3d2a55ff	0.04158592
4	0x3d401f29	0.046904717
5	0x3cfb2599	0.030657576
6	0xbd12f1ce	-0.035875134
7	0xbc9c4265	-0.019074628
8	0xbd5526d9	-0.052039
9	0xbd8fdd92	-0.07024683
10	0xbc56deda	-0.013114655
11	0x3dfd73be	0.12375592
12	0xbc4d8c5e	-0.012545673
13	0x3db74402	0.08948518
14	0x3d652a74	0.05594869
15	0x3d80cc35	0.062889494
16	0xbace68b7	-0.001574776
17	0x3d85f5ed	0.06541047
18	0xbcadc373	-0.021211362
19	0x3c9d84e8	0.019228414
20	0xbda68e9f	-0.081326716
21	0xbdbb2d2a	-0.09139474
22	0xbd47b50c	-0.048756644
23	0xbd6f6edd	-0.058455337
24	0x3c62c96c	0.013841968
25	0x3d885440	0.066566944
26	0xbdd196fc	-0.10233876
27	0x3d89f204	0.06735614
28	0x3d79a179	0.060945008
29	0xbd4fb5a4	-0.050710335
30	0xbd26fa37	-0.040765967
31	0x3d86191a	0.065477565
32	0x3d8f3a14	0.069934994
33	0xbdebf8f2	-0.11522092
34	0xbcc36a8d	-0.023854518
35	0x3ddf26fd	0.10896108
36	0xbd9a0ce0	-0.07521987
37	0xbdd4e1bc	-0.10394618
38	0xbdca0576	-0.09864323
39	0x3cd4f398	0.02599506
40	0x3d3d98db	0.046288352
41	0x3d93a6ff	0.07209586
42	0xb8b615b6	-8.68248e-05
43	0xbb78e0bc	-0.003797575
44	0xbcf6d823	-0.030132359
45	0x3df704a3	0.12061431
46	0xbdb458d4	-0.08806005
47	0xbdd188c5	-0.10231165
48	0x3df14da7	0.11782389
49	0xbdea0fab	-0.1142877
50	0x3deadc17	0.1146776
51	0xbce0e4af	-0.027452795
52	0x3dd63bca	0.104606226
53	0xbd81cd69	-0.06338007
54	0xbd9e3f43	-0.0772691
55	0xbd9d36da	-0.07676478
56	0x3ddcdd5e	0.1078441
57	0x3d4ea193	0.050447058
58	0x3de79974	0.11308566
59	0x3db29a99	0.087208934
60	0xbde61423	-0.112343095
61	0xbd6ad799	-0.057334516
62	0x3d3c6149	0.045991216
63	0xbd164fda	-0.036697246
64	0xbbe1a892	-0.00688655
65	0xbdced20d	-0.10098658
66	0x3c3125a9	0.010812202
67	0xbdc44461	-0.09583355
68	0xbd4e8d3f	-0.05042767
69	0xbdb22fe9	-0.087005444
70	0xbdb14bb1	-0.08657015
71	0xbc2b9d43	-0.010474506
72	0x3d47c767	0.04877415
73	0xbd8d1e70	-0.06890571
74	0xbd5f0c70	-0.05445522
75	0xbde62017	-0.112365894
76	0xbdd1f4c9	-0.10251767
77	0x3dda0a98	0.10646552
78	0xbdc95418	-0.09830493
79	0xbdb7cd02	-0.08974649
80	0x3cf23efa	0.029571045
81	0x3d901d2c	0.07036814
82	0x3d97d7ff	0.07414245
83	0x3dc3c2d6	0.095586464
84	0x3bd1ff0f	0.006408579
85	0xbd69d795	-0.05709036
86	0x3ca1d1e5	0.019753406
87	0xbd48096b	-0.048837107
88	0x3cd36250	0.025803715
89	0xbd938fad	-0.07205138
90	0xbdc5d235	-0.096592344
91	0xbdeec4f8	-0.116586626
92	0xbdddc4fe	-0.10828589
93	0x3d81ed8d	0.06344137
94	0x3d1e2f95	0.038619597
95	0x3d55bc3b	0.052181464
96	0xbd715ced	-0.05892651
97	0x3d36e242	0.04464937
98	0x3d7754f9	0.06038377
99	0x3d5cd0e6	0.05391016
100	0x3d709cb0	0.05874318
101	0x3d7903e8	0.06079474
102	0x3c069c10	0.008215919
103	0x3dbc38e2	0.09190537
104	0x3dc83abb	0.09776827
105	0xbcb29892	-0.021801267
106	0x3dd2917e	0.10281657
107	0x3ce9f043	0.028556949
108	0xbdbe196e	-0.09282194
109	0x3d72dfd6	0.059295498
110	0x3d73b671	0.05950016
111	0xbd21f16b	-0.039536875
112	0xbdb45835	-0.08805887
113	0x3dad867d	0.08472917
114	0x3d3bc6ae	0.045843773
115	0x3d9c5abe	0.07634495
116	0xbcc93580	-0.024561644
117	0xbdcd128c	-0.10013303
118	0x3ca06775	0.019580582
119	0xbdd03e1b	-0.10168096
120	0xbc6742e3	-0.014115068
121	0xbddea292	-0.108708516
122	0xbd49b980	-0.049249172
123	0xbda2df91	-0.07952798
124	0xbdf29856	-0.11845462
125	0xbb6c7195	-0.0036078442
126	0x3dd0450f	0.10169422
127	0xbda95890	-0.08268845
128	0xbdda348a	-0.10654552
129	0x3d5a4544	0.053288713
130	0x3cc86f6e	0.024467196
131	0xbd60dfcc	-0.05490093
132	0xbd3f9b31	-0.04677886
133	0x3dc5334d	0.096289255
134	0x3d262d6c	0.04057066
135	0x3d534f15	0.05158909
136	0x3d0a27ed	0.033729482
137	0xbdd8367e	-0.105572686
138	0xbc810a7a	-0.015752066
139	0xbd58396c	-0.052789137
140	0xbdc130fb	-0.094331704
141	0xbdac73f9	-0.084205575
142	0x3df2281a	0.11824055
143	0x3d1307e0	0.035896182
144	0x3a106710	0.00055085216
145	0x3d068b12	0.03284747
146	0x3d62a860	0.055336356
147	0xbdd162c4	-0.10223916
148	0x3ddad9b2	0.10686053
149	0xbd278fd7	-0.04090866
150	0xbdaedd9b	-0.08538362
151	0x3d9c85e4	0.07642725
152	0xbd48ce64	-0.049024954
153	0xbd53c942	-0.051705606
154	0x3c9e28fe	0.019306656
155	0xbda21848	-0.079147875
156	0x3d2d1d5e	0.042264335
157	0xbdf5e01f	-0.12005638
158	0xbcb97aef	-0.022641627
159	0xbdc502b2	-0.09619655
160	0x3d8cae7c	0.06869218
161	0x3d5d9a45	0.0541022
162	0x3cad33f5	0.02114294
163	0x3daacb3f	0.08339547
164	0x3c805a12	0.015667949
165	0xbcfa756b	-0.030573567
166	0xbdbf1ceb	-0.093316875
167	0xbdb2afbf	-0.08724927
168	0xbc6b3715	-0.014356394
169	0x3d40d7a1	0.04708064
170	0xbddd1189	-0.1079436
171	0xbce8a0a3	-0.02839691
172	0x3ddfd4ac	0.10929236
173	0xbc80ab5b	-0.015706709
174	0xbddb4b09	-0.10707671
175	0xbdea2895	-0.11433522
176	0xbdb37fe9	-0.08764631
177	0xbd6500df	-0.055909034
178	0xbce3f95e	-0.027828868
179	0xbc85e9e0	-0.016346872
180	0x3d8764e9	0.06611044
181	0x3d9b603c	0.075867146
182	0x3d3b6b16	0.045756422
183	0x39ce990b	0.00039405408
184	0xbdfaca14	-0.122455746
185	0x3d5b9f62	0.053618796
186	0x3c8dd9e2	0.017315809
187	0xbb8b5909	-0.004252557
188	0x3dfe3e29	0.124142
189	0xbd8627a4	-0.065505296
190	0x3a8e5acb	0.0010860799
191	0x3dceee02	0.1010399

bias_hh_l0 f4 [192]
0	0x3d8871ee	0.06662355
1	0x3d9b86fc	0.075941056
2	0x3d505932	0.050866313
3	0xbdee2304	-0.116277725
4	0xbdef8774	-0.116957575
5	0x3b0e580e	0.0021719965
6	0xbd78cb9e	-0.06074106
7	0xbdb92b7a	-0.090414956
8	0xbd43672d	-0.047705818
9	0x3d33ef85	0.043929596
10	0x3d75d1b1	0.06001443
11	0x3ddd46ec	0.10804543
12	0x3d5a2f71	0.0532679
13	0x3db9b80a	0.09068306
14	0x3dde23fb	0.108467065
15	0xbdfe921d	-0.12430213
16	0x3ba421f3	0.00500893
17	0xbd42dd0d	-0.04757409
18	0xbcf2f4d3	-0.029657757
19	0xbdb3f878	-0.08787626
20	0xbdc7fc9d	-0.09764979
21	0xbbe3079d	-0.006928398
22	0x3ddb22a4	0.106999665
23	0x3d6a9347	0.05726936
24	0x3cde17d9	0.02711098
25	0xbbd4b092	-0.0064907754
26	0x3cd63e18	0.026152655
27	0xbbc0a2ca	-0.005878781
28	0xbdf3b4ac	-0.11899695
29	0x3d1ac310	0.037783682
30	0xbdfd94db	-0.123819076
31	0x3db9d3aa	0.09073575
32	0xbcdd519a	-0.02701645
33	0x3dd3c8d2	0.10341038
34	0xbd32ca9e	-0.043650262
35	0xbb85a5c0	-0.004078597
36	0xbd93eea4	-0.072232515
37	0xbd0b7b45	-0.034053106
38	0x3c25bc43	0.010115686
39	0xbd9f2873	-0.07771387
40	0x3c7799ba	0.015112335
41	0xbdd86fc7	-0.10568195
42	0xbd9d30e6	-0.07675342
43	0x3d8baed7	0.068204574
44	0x3b8f420d	0.0043718875
45	0x3c4a0f45	0.012332742
46	0xbd722428	-0.059116513
47	0xbd87e0cd	-0.06634674
48	0xbd530aab	-0.051523846
49	0xbc5e2866	-0.013559436
50	0x3d42a207	0.047517803
51	0xbcd6ae4f	-0.026206164
52	0xbb68de4d	-0.0035532892
53	0x3dbe07b9	0.09278817
54	0x3c8e082a	0.017337877
55	0xbbaf7cb6	-0.005355443
56	0xbd787021	-0.06065381
57	0xbd90d47b	-0.070717774
58	0xbd1b628f	-0.03793579
59	0xbdf0bc23	-0.11754634
60	0x3cbf92dd	0.02338546
61	0x3db9b465	0.09067611
62	0xbdfbce1f	-0.12295174
63	0x3df7d720	0.12101579
64	0xbd997c50	-0.07494414
65	0x3d8dfa89	0.069325514
66	0xbdc3c831	-0.09559668
67	0x3ce3ca58	0.027806446
68	0x3dac1878	0.084031045
69	0x3d7726a4	0.060339585
70	0xbdbaddbb	-0.09124323
71	0xbdb23692	-0.08701815
72	0x3d6c297f	0.05765676
73	0x3d842ec2	0.06454231
74	0x3d77fe8c	0.06054549
75	0xbc63f64a	-0.0139137
76	0xbd555504	-0.05208303
77	0xbd4a6976	-0.04941698
78	0x3d0d6362	0.034518607
79	0xbdaa4c00	-0.08315277
80	0x3d2bbde7	0.041929152
81	0x3d79db5c	0.061000213
82	0x3d6d2aa1	0.057901982
83	0x3c0d1259	0.008610331
84	0xbdb05479	-0.08609862
85	0x3dc9a805	0.098465
86	0x3df168da	0.11787577
87	0x3ddddec4	0.10833505
88	0xbd82de59	-0.06390066
89	0x3dda97b9	0.1067347
90	0x3caf9448	0.02143301
91	0x3d9e0fd2	0.07717861
92	0x3dc5f710	0.09666264
93	0xbcf9a13e	-0.030472394
94	0xbde26b90	-0.11055672
95	0xbd8b9e8a	-0.06817348
96	0x3d59beff	0.053160664
97	0x3dc84125	0.0977805
98	0x3d9d8703	0.07691767
99	0xbd0949d2	-0.033517666
100	0x3dc3bab2	0.09557094
101	0xbda7814f	-0.081789605
102	0x3d994f8c	0.074858755
103	0xbb5cecc4	-0.003371046
104	0xbd8a6771	-0.06758011
105	0x3df70090	0.12060654
106	0xbd128c47	-0.03577831
107	0xbd9f551d	-0.07779906
108	0x3d559995	0.05214842
109	0x3d932c5f	0.071861975
110	0x3d6de6ad	0.058081318
111	0xbd1d9787	-0.038474586
112	0x3de18273	0.11011209
113	0xbdb8a6c3	-0.09016182
114	0x3d7a8aaa	0.061167397
115	0x3d6a6b86	0.05723145
116	0x3daf0d3b	0.085474454
117	0x3ddd4332	0.10803832
118	0x3d1cd8f4	0.03829284
119	0xbb4caaf6	-0.003122983
120	0x3db5e2b6	0.08881132
121	0x3d476278	0.04867789
122	0xbde8c32d	-0.11365352
123	0x3c22803d	0.00991827
124	0xbddbb11e	-0.10727142
125	0xbd88f752	-0.066877976
126	0xbd56176d	-0.052268434
127	0xbdc1435e	-0.094366774
128	0xbd473c1a	-0.0486413
129	0x3db3dc83	0.08782294
130	0xbc7ce601	-0.015435697
131	0x3dd2ea8c	0.102986425
132	0xbacd3e3e	-0.0015658808
133	0x3dfc016d	0.123049594
134	0x3c3dd3e3	0.011586162
135	0xbd8b08af	-0.06788766
136	0x3d749836	0.059715472
137	0xbd3859ee	-0.04500764
138	0xbda947e0	-0.08265662
139	0x3d8642e7	0.06555729
140	0x3d4f3743	0.05058981
141	0xbd86008b	-0.06543072
142	0x3c20618d	0.009788883
143	0x3ddbdfa3	0.10736015
144	0x3dd5c5d6	0.10438125
145	0xbc4d9bb6	-0.012549331
146	0xbd213dab	-0.03936545
147	0x3dd754df	0.10514235
148	0x3d2dcc81	0.04243136
149	0x3d70cf48	0.05879143
150	0xbdef64b1	-0.11689127
151	0xbd0a8804	-0.03382112
152	0x3d837e09	0.06420524
153	0x3d56b10e	0.052414946
154	0xbd1b1bee	-0.037868433
155	0xbcf92c5c	-0.03041666
156	0xbb055088	-0.002034219
157	0xbdde45f1	-0.10853184
158	0xbde21854	-0.110397965
159	0x3d2a2852	0.04154236
160	0x3ddcb6bd	0.10777042
161	0x3d8de931	0.06929243
162	0x3dc13017	0.094330005
163	0xbd95f729	-0.07322533
164	0xbd9ea6be	-0.07746647
165	0x3d7fddb5	0.062467296
166	0x3c61002c	0.013732951
167	0xbd7c1784	-0.061545864
168	0x3d72907d	0.059219826
169	0xbddd8370	-0.10816085
170	0xbd185302	-0.037188537
171	0x3dd593bf	0.10428571
172	0x3d92c297	0.07166021
173	0xbd4e5fe1	-0.050384406
174	0x3cf68e5b	0.030097177
175	0x3dafc971	0.08583344
176	0x3dd369be	0.10322903
177	0xbdf0d060	-0.117584944
178	0x3da5232a	0.08063348
179	0xbdf43242	-0.119236484
180	0x3d6e631a	0.05819998
181	0x3df170b1	0.11789072
182	0xbccfb8a9	-0.025356608
183	0xbb2f92eb	-0.002679045
184	0x3da7491a	0.0816824
185	0x3c848b68	0.016179755
186	0x3dac1328	0.08402091
187	0xbd96c2a6	-0.07361345
188	0x3dbfbcef	0.09362208
189	0xbde310c5	-0.11087183
190	0xbdadf9bd	-0.084948994
191	0xbdb044fe	-0.08606909

weight f4 [2, 64]
0	0x3d2a3ed8	0.04156384
1	0x3d9c9900	0.0764637
2	0xbd4f835f	-0.050662395
3	0x3d5610b8	0.052262038
4	0x3c11a268	0.008888818
5	0x3d4415ec	0.04787247
6	0x3dea8a38	0.114521444
7	0x3da7498c	0.08168325
8	0x3abb4df6	0.0014290202
9	0x3d4d8fde	0.05018603
10	0x3d34ad65	0.044110674
11	0xbd418929	-0.047249947
12	0xbda0defb	-0.0785503
13	0xbd352245	-0.044222135
14	0xbdb19cd1	-0.086724885
15	0xbdb98331	-0.09058226
16	0xbcf805c2	-0.030276183
17	0xbd29310a	-0.041306533
18	0x3cbbea80	0.022938967
19	0xbd6652f9	-0.056231473
20	0xbd812105	-0.06305126
21	0xbd8830a4	-0.066499025
22	0xbc692a94	-0.014231343
23	0x3c28f3a7	0.0103119975
24	0xbc977311	-0.018487485
25	0xbdb3c141	-0.08777095
26	0xbd1b3b0c	-0.03789811
27	0x3dc07ff7	0.09399407
28	0x3dd267a7	0.10273676
29	0xbbcce872	-0.0062532956
30	0x3d4a0ccb	0.049328607
31	0x3d647c0e	0.05578237
32	0x3d49900d	0.049209643
33	0x3df74ef6	0.120756075
34	0xbd83f2ce	-0.06442796
35	0x3d8c20d4	0.06842199
36	0x3dade3df	0.084907286
37	0x3dc6a855	0.097000755
38	0x3d84e98c	0.06489858
39	0xbdad035b	-0.08447906
40	0xbdf9d806	-0.12199406
41	0x3d0a0961	0.03370035
42	0x3dd28b30	0.10280454
43	0x3d9f7b0f	0.077871434
44	0x3d6abaab	0.057306927
45	0x3df1e1bd	0.11810634
46	0x3d000760	0.031257033
47	0x3da39f63	0.07989385
48	0xbde16b1e	-0.11006759
49	0x3d57ae61	0.052656535
50	0xbc4196e4	-0.01181576
51	0xbd5060ef	-0.050873693
52	0x3d4467f3	0.047950696
53	0xbb8d8f73	-0.004320079
54	0xbd1dc185	-0.038514633
55	0xbe0151c7	-0.12628852
56	0x3bb79d04	0.0056034345
57	0x3dd7fa54	0.10545793
58	0x3b47f7d8	0.0030512717
59	0x3cedbb6b	0.029020032
60	0x3dad0bbe	0.08449505
61	0x3d9bc1b0	0.07605302
62	0x3db6b784	0.089217216
63	0x3df879a3	0.12132575
64	0xbcfda076	-0.030960303
65	0xbd6ab1ba	-0.0572984
66	0xbd3316d0	-0.043722928
67	0xbd2a1ca4	-0.04153122
68	0xbd418235	-0.047243316
69	0xbdbe929a	-0.09305306
70	0x3d6865a9	0.056737576
71	0xbdc4b9c8	-0.096057475
72	0x3dd108b5	0.10206739
73	0xbd76952a	-0.060200848
74	0x3d5fe1df	0.054658767
75	0xbd3dbadb	-0.046320777
76	0xbacc494d	-0.001558581
77	0x3d028bd9	0.03187165
78	0xbdaf8d48	-0.08571869
79	0xbcce4aba	-0.025182117
80	0x3d6b2d20	0.05741608
81	0x3d1b127e	0.037859432
82	0x3d6c5cbd	0.05770563
83	0xbd9c806c	-0.07641682
84	0x3dc36d5d	0.09542344
85	0xbd34bfb4	-0.044128135
86	0xbd8468e5	-0.064653195
87	0x3da1abf5	0.07894126
88	0xbd3ebfeb	-0.046569746
89	0xbc9f2250	-0.019425541
90	0xbd65ed50	-0.056134522
91	0xbc7d24ea	-0.0154506955
92	0xbdb27843	-0.08714344
93	0xbc714046	-0.014724797
94	0x3c914910	0.017735034
95	0x3d1623fe	0.03665542
96	0x3dddb862	0.10826184
97	0x3ca8773a	0.020564664
98	0xbcb4718c	-0.0220268
99	0xbd8910aa	-0.066926315
100	0xbcf6418f	-0.030060558
101	0x3d246d60	0.04014337
102	0x3b6db074	0.0036268504
103	0x3df7bc99	0.12096519
104	0x3d5e5b38	0.05428621
105	0x3cedaf2b	0.02901419
106	0xbdc0ffce	-0.09423791
107	0x3df6ff11	0.12060369
108	0x3d335589	0.043782745
109	0x3d1222df	0.035677787
110	0x3c9b4f48	0.018958703
111	0xbdb5e2b1	-0.088811286
112	0xbc929e5a	-0.017897774
113	0xbd2c92e5	-0.042132277
114	0xbd40f365	-0.04710712
115	0x3ddfe162	0.1093166
116	0xbdb555eb	-0.08854278
117	0xbdb7c88a	-0.08973797
118	0x3d5541d5	0.052064735
119	0x3daab348	0.083349764
120	0x3de487b7	0.11158698
121	0xbda0c204	-0.078495055
122	0xbd0c8f22	-0.03431619
123	0xbcd149cb	-0.025547883
124	0xbd923600	-0.07139206
125	0xbd5e1db9	-0.054227564
126	0xbcecb24e	-0.028893616
127	0xbda65c69	-0.081230946

bias f4 [2]
0	0x3d78bee7	0.060728934
1	0xbcec6570	-0.028856963

weight_ih_l0 f4 [192, 66]
0	0xbcf9d2c7	-0.030496014
1	0xbd8a7bc7	-0.0676189
2	0x3d94c975	0.072649874
3	0x3c3df45c	0.011593904
4	0xbd484132	-0.0488903
5	0x3c9bd1b4	0.019020893
6	0x3d9f0ba7	0.077658944
7	0xbd6d43a0	-0.05792582
8	0xbcd95117	-0.026527924
9	0x3d039ca1	0.032131795
10	0x3de4b661	0.111675985
11	0x3dc00101	0.093751915
12	0xbbb76ec6	-0.005597922
13	0x3ddded2c	0.108362526
14	0x3db6ea83	0.08931448
15	0x3dfaec3c	0.122520894
16	0xbd299c3e	-0.04140877
17	0x3ca9356f	0.020655362
18	0xbc1e5ffc	-0.009666439
19	0xbe017b9a	-0.12644807
20	0xba917468	-0.0011097314
21	0x3da4ab15	0.08040444
22	0xbdd0c74e	-0.10194264
23	0xbe08a646	-0.13344678
24	0xbce8a647	-0.0283996
25	0x3dd4be06	0.103878066
26	0xbd340223	-0.04394735
27	0xbda21091	-0.07913316
28	0x3c4205ca	0.0118422005
29	0xbd133a6d	-0.03594439
30	0x3da536aa	0.08067067
31	0xbd4a978f	-0.049460944
32	0xbda1b570	-0.078959346
33	0x3dd7b962	0.10533406
34	0xbd9bad37	-0.076013975
35	0x39e2ea73	0.00043280757
36	0x3de97417	0.113990955
37	0xbd2689b9	-0.040658686
38	0x3d1c114a	0.038102426
39	0xbd1f9f2a	-0.03897015
40	0x3c74f2e6	0.01495049
41	0x3d77d404	0.06050493
42	0xbded85b2	-0.11597766
43	0xbded15ba	-0.1157641
44	0xbddb32c6	-0.10703044
45	0x3e04acfd	0.12956615
46	0xbdd0d0ca	-0.10196073
47	0x3d79bec1	0.060972933
48	0x3dfadd83	0.12249281
49	0x3da72ff8	0.08163446
50	0xbda566f3	-0.08076277
51	0xbce1d0ce	-0.027565386
52	0xbe024bb8	-0.12724197
53	0x3dc12eb4	0.09432736
54	0xbd7d14bc	-0.061787352
55	0xbdd58d5b	-0.10427352
56	0xbc9659d6	-0.018353384
57	0xbd3b992d	-0.045800377
58	0x3c400a0a	0.0117211435
59	0xbde2e805	-0.110794105
60	0xbd920255	-0.07129351
61	0x3dd5a804	0.10432437
62	0x3dc05b55	0.0939242
63	0x3da28dab	0.07937177
64	0xbd052811	-0.032508913
65	0x3c5f748f	0.01363863
66	0x3ddfbb7a	0.1092443
67	0x3dbcc244	0.09216741
68	0x3d340a30	0.043955028
69	0xbddb5c1d	-0.107109286
70	0x3d8d6466	0.06903915
71	0xbcb89709	-0.022532957
72	0xbddf0613	-0.108898304
73	0x3cb486c3	0.022036916
74	0x3df1b49d	0.118020274
75	0xbdae4299	-0.08508796
76	0xbd0bc097	-0.034119215
77	0x3d4157e0	0.047202945
78	0x3d2ea1bd	0.042634714
79	0xbd73435d	-0.059390415
80	0xbdd6bd76	-0.104853556
81	0x3bf99888	0.00761706
82	0xbe04cc41	-0.12968542
83	0xbd8685b9	-0.06568474
84	0xbda36169	-0.07977564
85	0xbcf22838	-0.029560193
86	0xbda9e491	-0.08295549
87	0xbd28b638	-0.041189402
88	0xbceb2330	-0.028703302
89	0xbd986552	-0.074412
90	0xbcf52223	-0.029923504
91	0xbda3a889	-0.0799113
92	0xbdac98e2	-0.084275976
93	0xbd81c620	-0.063366175
94	0xbdeaf978	-0.11473364
95	0x3de5601a	0.111999705
96	0xbd4c906e	-0.049942426
97	0xb9c6a126	-0.00037885568
98	0xbdc714ba	-0.0972075
99	0x3da6b5ae	0.081401214
100	0xbddbdddb	-0.10735675
101	0xbceddfa2	-0.0290373
102	0xbcba3db6	-0.022734504
103	0x3dfae2a5	0.1225026
104	0xbd3172a7	-0.04332223
105	0x3db41ece	0.08794938
106	0xbdb3b328	-0.08774406
107	0xbdf1eec1	-0.11813117
108	0x3db9cbc1	0.09072066
109	0x3c932b9c	0.01796513
110	0xbca61344	-0.020272858
111	0x3da43d93	0.08019557
112	0x3de43248	0.11142403
113	0xbc12618b	-0.008934389
114	0xbd90a590	-0.070628285
115	0x3d8cb3ad	0.06870208
116	0xbd696baf	-0.05698746
117	0x3d293956	0.041314445
118	0x3cf52b31	0.029927822
119	0xbd1ca660	-0.038244605
120	0x3dc8d0ee	0.09805475
121	0xbd171df2	-0.036893792
122	0x3d8d8142	0.069094196
123	0xbd1d73d1	-0.03844053
124	0xbdbe256f	-0.09284484
125	0x3c8c590e	0.017132308
126	0xbc9e6875	-0.019336918
127	0x3d84ca51	0.06483901
128	0x3ce844a4	0.028353043
129	0x3c1c01df	0.0095219305
130	0xbd8f4eb0	-0.0699743
131	0x3dc0f4be	0.09421681
132	0xbdd76313	-0.10516944
133	0x3d41bf38	0.0473015
134	0x3d8eff4e	0.06982289
135	0x3e07a5de	0.13246867
136	0x3dba67c1	0.09101821
137	0xbd3218ee	-0.043480806
138	0x3df2c654	0.11854234
139	0x3de6c463	0.112679265
140	0x3dcd9078	0.10037321
141	0x3d549caf	0.051907238
142	0x3dd2466b	0.102673374
143	0x3d5c46f8	0.05377862
144	0x3da78f73	0.08181658
145	0x3d3827b0	0.044959724
146	0xbdd64e03	-0.10464098
147	0x3d91a497	0.07111471
148	0xbd1825d3	-0.037145447
149	0x3da06437	0.078316145
150	0x3d93a2f4	0.07208815
151	0x3d00553f	0.031331297
152	0x3de6fd90	0.11278832
153	0x3d79e13b	0.061005812
154	0x3de6cb98	0.11269301
155	0x3c1db1aa	0.009624878
156	0xbd561db5	-0.052274425
157	0xbdea6123	-0.114443086
158	0xbd8648d2	-0.06556858
159	0xbdcc20cc	-0.09967193
160	0x3d337c79	0.04381988
161	0x3cf33791	0.029689582
162	0x3ca71fde	0.020400938
163	0xbd616ea4	-0.055037156
164	0xbbcde1f3	-0.0062830388
165	0x3d1d1d5d	0.03835808
166	0xbe073576	-0.13203987
167	0x3d48faca	0.049067296
168	0xbddc84a8	-0.1076749
169	0x3c6e5ba2	0.014548214
170	0x3af4c6ac	0.0018674931
171	0x3dc7c3df	0.09754156
172	0xbdb752b7	-0.089513235
173	0xbc5de2df	-0.01354286
174	0x3d6f06c4	0.05835606
175	0xbd9bc808	-0.07606512
176	0x3d9c92cf	0.07645189
177	0xbd8c1e6a	-0.068417385
178	0x3c780441	0.015137733
179	0xbd022952	-0.031777687
180	0x3cab52a8	0.020913437
181	0xbd9db03f	-0.07699632
182	0xbcff2f7d	-0.031150574
183	0xbd89fd7e	-0.06737803
184	0x3c43df3f	0.0119550815
185	0x3c45ff69	0.01208482
186	0x3d46ae29	0.048505936
187	0x3df7ada9	0.1209367
188	0x3d8c12c2	0.06839515
189	0xbd9bcd29	-0.076074906
190	0x3d9dc8e2	0.07704331
191	0xbd101e37	-0.035185065
192	0xbd7e22ba	-0.062044837
193	0xbe0a131e	-0.13483855
194	0xbd8689b6	-0.06569235
195	0x3dcb3a94	0.09923282
196	0x3cd3146c	0.025766574
197	0x3e08fd4c	0.13377875
198	0xbc7277c0	-0.014799058
199	0xbb4d5323	-0.003133007
200	0x3deb18c2	0.114793316
201	0xbdf45020	-0.11929345
202	0x3d7d7908	0.061883003
203	0x3defd99f	0.1171143
204	0xb9d5adfc	-0.00040756154
205	0xbdc2c80a	-0.09510811
206	0xbc190c48	-0.009341307
207	0xbd344082	-0.044006832
208	0x3da73ce9	0.081659146
209	0x3b12c419	0.0022394715
210	0x3d4f8268	0.050661474
211	0xbd3a216a	-0.045442022
212	0xbd8b59a3	-0.06804206
213	0xbdce5326	-0.10074453
214	0xbdfc5cfd	-0.123224236
215	0xbd3b3f6a	-0.045714773
216	0x3da5f036	0.08102457
217	0xbd4ffaa4	-0.05077614
218	0x3e00112f	0.12506555
219	0x3d106bbd	0.035258997
220	0x3d24f99c	0.04027711
221	0x3dbce57e	0.0922346
222	0xbc2771bb	-0.010219987
223	0x3cdabce7	0.026701404
224	0x3dce89c1	0.10084868
225	0xbdad06b2	-0.08448543
226	0xbddd7f36	-0.10815279
227	0xbdaa981b	-0.08329793
228	0x3da6d705	0.081464805
229	0x3d86cd34	0.06582108
230	0x3de1f677	0.110333376
231	0xbc9d08e8	-0.019169286
232	0x3ca3f809	0.020015733
233	0xbcc28abb	-0.023747792
234	0x3d501afb	0.05080698
235	0x3dacad49	0.08431489
236	0x3d9f8f93	0.077910565
237	0x3bf8ff46	0.0075987903
238	0xbdb3c391	-0.08777536
239	0x3d95bb9d	0.07311175
240	0xbd2c3aa3	-0.042048108
241	0x3d8d6d15	0.06905571
242	0x3dc912f3	0.098180674
243	0x3d9d6ca7	0.076867394
244	0x3de05053	0.10952821
245	0x3de03008	0.10946661
246	0xbdd47088	-0.10373026
247	0xbdd33e69	-0.10314638
248	0xb98f29d0	-0.00027306238
249	0xbc8e71e3	-0.01738829
250	0x3d4bad74	0.049725965
251	0xbd297e6e	-0.04138034
252	0xba16a46f	-0.00057465484
253	0x3c9162de	0.017747339
254	0xbcea22a2	-0.028580967
255	0xbdeb7a89	-0.11497981

weight_hh_l0 f4 [192, 64]
0	0xbc225d43	-0.009909931
1	0xbd6170d1	-0.05503923
2	0x3d1f556a	0.038899817
3	0x3d9e9216	0.077427074
4	0xbdb0119d	-0.085971095
5	0xbd23339b	-0.039844137
6	0xbd9f5e8a	-0.07781704
7	0xbda8a910	-0.08235371
8	0xbd27553a	-0.040852763
9	0x3d31577f	0.043296333
10	0x3d5dac49	0.054119382
11	0xbcba150f	-0.02271512
12	0x3de80a35	0.11330072
13	0x3d62f063	0.055405032
14	0xbdead95d	-0.1146724
15	0x3dd5e2b9	0.104436345
16	0xbd70a6c0	-0.058752775
17	0x3d157723	0.03649057
18	0x3d0811a4	0.03321995
19	0x3d2df3a0	0.042468667
20	0x3d0bb2cc	0.03410606
21	0xbd293be0	-0.041316867
22	0x3d8a8afb	0.0676479
23	0xbdf1828d	-0.11792479
24	0x3dacb611	0.08433164
25	0xbcde339d	-0.02712422
26	0x3baea248	0.005329404
27	0xbdca5292	-0.0987903
28	0x3e0a21c4	0.13489443
29	0x3db8782d	0.09007297
30	0x3d7813ff	0.060565945
31	0xbdb97b85	-0.090567626
32	0x3d86d2d7	0.06583183
33	0xbc6aa3a5	-0.014321242
34	0x3dc17c86	0.09447579
35	0xbde79459	-0.11307592
36	0xbd193ce7	-0.037411597
37	0x3d678f63	0.05653323
38	0x3d588015	0.052856524
39	0x3dc8b074	0.09799281
40	0x3dd0c04e	0.10192929
41	0xbc92e48f	-0.01793125
42	0x3d84750d	0.06467638
43	0xbddcd335	-0.10782472
44	0xbd3c7105	-0.04600622
45	0x3d618a67	0.05506363
46	0x3d76009e	0.060059182
47	0xbcc93bbd	-0.024564618
48	0xbd36dfdb	-0.04464708
49	0x3bd6af35	0.006551648
50	0xbdb8ceb6	-0.09023802
51	0xbd59840d	-0.05310445
52	0x3cf06b47	0.029348029
53	0xbd8f673c	-0.07002112
54	0x3d9f70d6	0.077851936
55	0x3df6770c	0.12034425
56	0x3d94a3d1	0.07257808
57	0x3de8085b	0.11329719
58	0x3d8c3e92	0.06847872
59	0xbdd7643a	-0.105171636
60	0x3ddff2bc	0.1093497
61	0xbdf85566	-0.121256635
62	0x3d691d5e	0.056912772
63	0xbce831c2	-0.028344039
64	0x3d8ee7a5	0.069777764
65	0xbc81dec2	-0.01585329
66	0x3d1279df	0.035760757
67	0xbcbc69f2	-0.022999737
68	0xbba19c33	-0.0049319505
69	0x3d845d96	0.064631626
70	0x3db8d016	0.09024064
71	0xbd996ffe	-0.07492064
72	0x3d6e534c	0.058184907
73	0x3da8f3ae	0.08249603
74	0x3e004710	0.12527108
75	0x3d4dde9c	0.050261125
76	0xbd39570b	-0.045249026
77	0xbce377f6	-0.027767163
78	0x3d43a2f7	0.047762837
79	0xbdf1310e	-0.117769346
80	0xbd273d47	-0.040829923
81	0x3da06eac	0.07833609
82	0x3d2e064b	0.04248647
83	0x3d946e6b	0.07247623
84	0x3d9b00d0	0.07568514
85	0xbd72a5c4	-0.059240118
86	0x3de3103d	0.110870816
87	0xbd7a20ad	-0.06106632
88	0xbd8c5bf4	-0.06853476
89	0x3dc846b9	0.09779114
90	0x3c09a246	0.008400505
91	0xbdf1501b	-0.11782857
92	0xba917668	-0.001109791
93	0x3dc8c325	0.09802846
94	0x3da9185a	0.08256598
95	0xbdd26fef	-0.10275256
96	0x3c7491fa	0.014927382
97	0x3dd315f5	0.10306922
98	0x3db1c8c0	0.08680868
99	0xbd775066	-0.06037941
100	0xbde46bd8	-0.11153382
101	0x3a966ef6	0.0011477161
102	0xbd34daec	-0.044154093
103	0xba2a7857	-0.00065029174
104	0xbdcb9b0c	-0.09941682
105	0x3daed6e1	0.08537079
106	0xbd27a1c2	-0.04092575
107	0x3b1d8293	0.0024034127
108	0x3c7db4ac	0.01548497
109	0x3dce0f67	0.100615315
110	0x3d2c1803	0.042015087
111	0xbdd0d7a6	-0.10197382
112	0x3d9fb466	0.0779808
113	0x3b1c9cac	0.0023897095
114	0x3da979ee	0.08275209
115	0xbc35ffb0	-0.011108324
116	0xbd4e6973	-0.050393533
117	0x3d6d362c	0.05791299
118	0xbd58236f	-0.052768167
119	0x3d1d05e5	0.0383357
120	0x3d6ab14d	0.057297993
121	0xbc543e6f	-0.012954338
122	0x3cd4a0a7	0.025955511
123	0x3dab06f2	0.08350934
124	0xbd04ba2e	-0.032404117
125	0xbcfd7278	-0.030938372
126	0xbda52474	-0.080635935
127	0xbdf800aa	-0.12109502
128	0x3dc5d6b2	0.096600905
129	0x3d968725	0.073499955
130	0x3e093073	0.13397388
131	0xbd0cb14f	-0.034348782
132	0x3dca2950	0.09871161
133	0xbdeb43c6	-0.11487536
134	0x3ddbd29d	0.10733531
135	0xbd53ede7	-0.051740553
136	0xbd0d35a6	-0.03447499
137	0x3d6047b0	0.054755867
138	0xbd85efc2	-0.06539871
139	0xbd96439c	-0.07337114
140	0x3db7d546	0.089762256
141	0xbd11b253	-0.035570454
142	0x3dde493b	0.10853811
143	0x3c38a7e7	0.0112705
144	0x3dd971da	0.106174186
145	0x3d52ca2d	0.05146234
146	0x3ccda3f7	0.025102599
147	0x3d1c41bb	0.038148623
148	0x3dbc2473	0.0918664
149	0xbd1f0e3a	-0.038831927
150	0xbdd09cb4	-0.10186139
151	0xbdbbad65	-0.09163932
152	0xbdea4776	-0.11439411
153	0xbd23dc85	-0.040005226
154	0xbd0cc830	-0.0343706
155	0x3d3bbdd5	0.045835335
156	0xbdaa7abd	-0.08324192
157	0xbd3d274a	-0.046180047
158	0xbc482c65	-0.012217616
159	0x3db41d87	0.087946944
160	0x3dd810f8	0.105501115
161	0x3d819b81	0.06328488
162	0xbc4747fa	-0.012163157
163	0x3dc5fb5e	0.09667085
164	0xbd920724	-0.07130268
165	0x3da80485	0.08203987
166	0x3d01fbd6	0.03173431
167	0xbbed5e8d	-0.0072439373
168	0x3be15ad8	0.0068772845
169	0xbd1b398e	-0.037896685
170	0x3db7c474	0.08973017
171	0xbd6c4c8f	-0.0576902
172	0x3c861ab9	0.016370164
173	0xbd343054	-0.0439914
174	0x3d5597b5	0.052146632
175	0x3db9f47f	0.09079837
176	0xbd838b38	-0.06423038
177	0x3ddced3c	0.10787436
178	0xbd4a70bd	-0.04942392
179	0xbc5689f6	-0.013094416
180	0x3d7b4ed3	0.06135447
181	0x3de32dab	0.11092695
182	0x3c913891	0.017727168
183	0xbd266f66	-0.04063358
184	0x3bc6d248	0.006067548
185	0x3d9322c2	0.07184364
186	0x3dff5c5d	0.12468789
187	0x3dc76205	0.097354926
188	0x3d4b4f70	0.049636304
189	0xbdd8be21	-0.10583139
190	0x3cb6e09c	0.022323899
191	0x3dda6a1f	0.10664772
192	0x3d70221d	0.058626283
193	0x3c815eda	0.015792299
194	0x3ded31d9	0.11581773
195	0xbd85a416	-0.065254375
196	0xbd491bed	-0.049098898
197	0xbd265bb6	-0.040614806
198	0x3d07573e	0.033042185
199	0x3d10c0bf	0.035340067
200	0xbc4bfc25	-0.012450253
201	0xbc3d6a91	-0.011561052
202	0xbdf247fa	-0.11830135
203	0x3d998359	0.07495756
204	0xbca26124	-0.01982171
205	0x3dc7f5a7	0.09763651
206	0xbc1654f5	-0.009175529
207	0xbdd3d380	-0.10343075
208	0x3cb2c568	0.021822646
209	0x3d479340	0.048724413
210	0x3df44a21	0.119282015
211	0x3d717d94	0.05895765
212	0xbd8d4414	-0.068977505
213	0xbe041c66	-0.12901458
214	0x3dbdc250	0.09265578
215	0xbd97633c	-0.07391974
216	0x3dbba489	0.09162242
217	0x3cb25d91	0.021773132
218	0x3de8a56f	0.11359679
219	0x3d1d497c	0.03840016
220	0x3cbda6a0	0.023150742
221	0x3a2b805b	0.0006542259
222	0x3d957da0	0.07299352
223	0x3d42502d	0.047439743
224	0xbe04a3ed	-0.12953158
225	0x3c7a12a0	0.01526323
226	0x3df8bf3c	0.1214585
227	0xbd8025a7	-0.062571816
228	0x3dc939da	0.098254874
229	0x3de18856	0.11012332
230	0xbc1c05b8	-0.009522848
231	0x3dd7c285	0.105351485
232	0x3d119030	0.0355379
233	0xbd24dfec	-0.04025261
234	0xbd8af730	-0.067854285
235	0x3d1456d0	0.036215603
236	0xbd577ac6	-0.05260732
237	0xbd311144	-0.043229356
238	0x3d9f1a58	0.077686965
239	0x3ca3e5a9	0.020006971
240	0x3d709d0f	0.058743533
241	0xbdfdb34b	-0.12387713
242	0xbd308051	-0.043091122
243	0xbd906f1a	-0.07052441
244	0x3d3378e9	0.04381648
245	0xbda71623	-0.08158519
246	0x3c3986ff	0.0113236895
247	0xbdcefcda	-0.10106821
248	0x3c057f72	0.008148061
249	0x3dead2f4	0.11466017
250	0xbce5e3ae	-0.028062668
251	0x3dadaea0	0.08480573
252	0xbdb5c0cb	-0.08874663
253	0x3bdfbf22	0.0068282047
254	0xbb0698de	-0.0020537893
255	0x3dc99527	0.09842902

bias_ih_l0 f4 [192]
0	0x3d98d358	0.074621856
1	0x3db172bf	0.08664464
2	0x3db83cb9	0.08995957
3	0xbdd4e1d4	-0.10394636
4	0xbcd53c58	-0.02602975
5	0x3dae99d4	0.08525434
6	0xbda7bbde	-0.0819013
7	0xbd5dcb04	-0.05414869
8	0x3d6a4040	0.05719018
9	0xbc106f50	-0.0088156015
10	0xbd095268	-0.033525854
11	0x3d43a2df	0.047762748
12	0x3d073f07	0.033019092
13	0x3d7dba19	0.061945055
14	0xbd826965	-0.06367759
15	0xbde55b7f	-0.11199092
16	0xbd383517	-0.044972505
17	0xbd46d79c	-0.048545465
18	0x3d5dcfd9	0.054153297
19	0xbd97109f	-0.07376217
20	0xbd5f0f9f	-0.054458257
21	0xbdae82f8	-0.08521074
22	0xbc44c747	-0.012010402
23	0xbc18fd26	-0.009337699
24	0xbc965842	-0.018352631
25	0x3d8d6b9a	0.06905289
26	0xbd9b3df7	-0.07580178
27	0xbd291ef4	-0.041289285
28	0xbdd08adc	-0.10182735
29	0x3d7f1ca6	0.06228318
30	0xbddcc636	-0.10779993
31	0xbd3e9375	-0.046527345
32	0xbbf25229	-0.007395048
33	0x3dc4e0e7	0.09613209
34	0xbcf7e0b2	-0.03025851
35	0xbd129e1b	-0.035795312
36	0xbde15468	-0.11002427
37	0x3dab2aaa	0.08357747
38	0xbcb98ef3	-0.022651171
39	0x3dd091f6	0.1018409
40	0xbdfccec4	-0.12344125
41	0xbdbbb4bb	-0.09165331
42	0x3cd17303	0.025567537
43	0x3c1b1911	0.0094664255
44	0xbd112f4c	-0.035445496
45	0xbd3bdae1	-0.045863036
46	0x3dd77860	0.105210066
47	0x3db4d616	0.08829896
48	0xbd1476e3	-0.03624619
49	0x3b5164d1	0.003195096
50	0x3d9877c8	0.074447215
51	0xbdc8c5dc	-0.09803364
52	0x3dfeba96	0.12437932
53	0x3db187a1	0.08668447
54	0xbdadf8a9	-0.08494694
55	0xbddf73ef	-0.109107845
56	0x3d72ed58	0.05930838
57	0x3dd05c55	0.10173861
58	0xbdd49562	-0.10380055
59	0xbc23b52d	-0.009991926
60	0xbd888034	-0.06665078
61	0xbd797518	-0.060902685
62	0x3bd7602d	0.0065727443
63	0x3d933591	0.07187951
64	0xbce77810	-0.028255492
65	0xbc62d9e2	-0.013845893
66	0xbdec40a6	-0.11535768
67	0x3c94d5f1	0.018168421
68	0x3db05c54	0.0861136
69	0xbc5486b9	-0.0129715735
70	0x3ddf832a	0.109136894
71	0xbd9b0817	-0.075699024
72	0xbdd929ae	-0.10603653
73	0x3be40af9	0.006959316
74	0x39bd7e1e	0.00036142854
75	0x3d55125a	0.052019455
76	0xbc00893f	-0.007845222
77	0xbd361f36	-0.04446336
78	0xbd98bd12	-0.07457937
79	0xbd4f210d	-0.05056863
80	0xbd2f793c	-0.042840227
81	0x3d8b2570	0.0679425
82	0x3d9eb837	0.0774998
83	0xbe05440f	-0.13014244
84	0x3d82dd0e	0.06389819
85	0xbd766061	-0.060150508
86	0x3db449b9	0.08803124
87	0xbd35166c	-0.044210836
88	0xbbf42891	-0.007451125
89	0xbd94f42a	-0.07273133
90	0x3df63df6	0.12023537
91	0x3dda9433	0.10672798
92	0x3dba17e6	0.090865895
93	0xbe03a58e	-0.12856123
94	0xbdab14e0	-0.08353591
95	0xbd7cad1f	-0.06168854
96	0xbe0439b1	-0.12912633
97	0xbc61a71e	-0.013772754
98	0x3de18eea	0.11013587
99	0x3c447d17	0.011992714
100	0x3cf50231	0.029908272
101	0xbddaf97c	-0.106921166
102	0xbd3c5123	-0.045975816
103	0x3da7847f	0.081795685
104	0xbd898eff	-0.067167275
105	0x3d92330c	0.07138643
106	0x3d456b4d	0.048198033
107	0xbd6f69d8	-0.05845055
108	0xbc9a8648	-0.018862858
109	0xbde66af5	-0.11250869
110	0x3dff7041	0.124725826
111	0xbd2b2342	-0.04178167
112	0x3d89f224	0.06735638
113	0x3c9fbca6	0.019499134
114	0xbdbf4c43	-0.09340718
115	0xbdce8c63	-0.100853704
116	0xbd275736	-0.040854655
117	0x3cb80a2a	0.022465784
118	0x3dbccb5c	0.09218475
119	0xbdd61a62	-0.10454251
120	0x3dc13bcb	0.09435233
121	0x3bb0243e	0.005375414
122	0xbb89fcf7	-0.004211064
123	0x3db2560b	0.08707818
124	0xbd05f0e8	-0.03270045
125	0xbcd06aa8	-0.025441483
126	0x3d80f566	0.06296806
127	0xbdcf4b90	-0.10121834
128	0xbd5ac999	-0.053414915
129	0xbb901433	-0.004396939
130	0xbd60ee39	-0.054914687
131	0xbc840448	-0.016115323
132	0xbddbb553	-0.10727944
133	0x3d814ded	0.06313691
134	0xbda01a29	-0.0781749
135	0xbdf08f92	-0.11746134
136	0x3caeb7e5	0.021327922
137	0xbde7d7dd	-0.113204695
138	0xbcb5765b	-0.022151163
139	0xbdef4d05	-0.11684612
140	0xbcab7004	-0.020927437
141	0xbd5b1797	-0.053489294
142	0xbb981d24	-0.0046421457
143	0x3cc7e811	0.02440265
144	0xbdb7e7d1	-0.08979762
145	0xbda2db07	-0.079519324
146	0x3da94086	0.0826426
147	0x3ce9459e	0.028475579
148	0x3d8e875b	0.06959411
149	0xbde5199b	-0.111865245
150	0xbdd85bf8	-0.10564417
151	0xbd2ea00b	-0.042633098
152	0xbc9060a1	-0.017624201
153	0xbcecce6f	-0.028907029
154	0x3de5cd36	0.112207815
155	0xbde0bc15	-0.10973374
156	0x3da97b20	0.08275437
157	0x3da6c5e9	0.08143217
158	0xbb8e352f	-0.004339836
159	0x3d028bd8	0.031871647
160	0x3c48104e	0.012210919
161	0xbda76fb7	-0.08175605
162	0x3c78388c	0.015150201
163	0xbdc2a922	-0.09504916
164	0xbdc4c951	-0.096087106
165	0xbd599db1	-0.053128902
166	0xbcbfc093	-0.023407256
167	0xbddbe2c1	-0.10736609
168	0x3d16ee96	0.036848627
169	0xbd451e08	-0.048124343
170	0x3c9daff6	0.019248944
171	0xbdd5a2ab	-0.10431417
172	0x3df29038	0.11843914
173	0xbde36219	-0.11102695
174	0x3c621ba9	0.01380054
175	0x3da75f19	0.08172435
176	0xbd4c703f	-0.049911734
177	0xbb5c9468	-0.0033657793
178	0xbe049981	-0.12949182
179	0x3cbbe437	0.02293597
180	0xbdb06c13	-0.086143635
181	0xbe09068c	-0.13381404
182	0x3d793841	0.060844664
183	0xbccc1f6e	-0.02491733
184	0x3c9c833c	0.019105546
185	0x3da0235d	0.07819245
186	0x3d96a83d	0.07356308
187	0x3c8cbabe	0.01717889
188	0xbab6f8a1	-0.0013959595
189	0xbdcc958a	-0.0998946
190	0xbd9ad483	-0.07560065
191	0x3df7e764	0.12104681
