models/six_months/checkpoints/trained_irdpg_400.pth (torch, 268082 bytes, 22 tensors)

weight_ih_l0 f4 [192, 18]
000000 ea 12 d6 bd a8 cf 90 bd 90 8c 6c 3d c8 ee a5 bd
       -0.10452826 -0.07070857 0.05775124 -0.081021845
000010 10 fa d8 3d 72 2e f8 3d e0 c0 e2 bc 7c b4 6b bd
       0.10594571 0.12118234 -0.02767986 -0.05754517
000020 26 bc aa 3d 0e 4c d8 3d 88 7f 76 bd ea f1 ee 3d
       0.08336668 0.10561381 -0.060180217 0.11667235
000030 00 03 86 bc cc 6b 78 bd 20 b3 c6 bd a4 d9 b9 bd
       -0.016358852 -0.060649678 -0.09702134 -0.09074715
000040 e8 7b 7e bd be 15 cf bd f0 e7 12 bd 9e ac 82 3d
       -0.062129885 -0.10111569 -0.035865724 0.0638058
000050 9c b9 61 bd 30 c8 b9 bd 4a 41 c2 3d 60 00 17 bc
       -0.05510865 -0.09071386 0.09485109 -0.009216398
000060 b8 3f f8 bd 18 02 d0 bd f8 1d a1 3c 8c b7 5b bd
       -0.121215284 -0.10156649 0.01966761 -0.05364184
000070 88 11 4e bd 5c cf 9e bd dc a9 80 3d 88 07 2e 3d
       -0.050309688 -0.077543944 0.06282398 0.04248765
000080 58 7b e5 bd 38 a4 5b bd 08 bc cd bc 98 fe 24 3d
       -0.112051666 -0.053623408 -0.025114074 0.040281862
000090 f8 fa 47 bd 42 75 81 3d 00 a6 3d 3c 86 8b 96 bd
       -0.048823327 0.06321193 0.011575222 -0.07350831
0000a0 a8 a7 93 bc 40 01 37 bb 0c 5b 45 3d c0 e8 72 bb
       -0.01802428 -0.002792433 0.048182532 -0.0037065
0000b0 3c c0 54 3d f8 5a 1d bd 1c 7b f5 3d 2c 48 c3 bd
       0.05194114 -0.038416833 0.11986372 -0.0953525
0000c0 00 66 fc 39 ce c0 af 3d 40 82 07 3d 82 94 cf 3d
       0.00048141181 0.085816965 0.0330832 0.101357475
0000d0 14 e2 f8 bd f8 1b a5 bd 00 3f 08 3d 58 0a fc bd
       -0.12152496 -0.08061975 0.033263206 -0.123066604
0000e0 c0 51 85 3b 80 37 97 bb 30 2f 69 3c 28 cb 18 bd
       0.0040685833 -0.0046147704 0.014232442 -0.03730312
0000f0 bc b9 5a bd 40 42 c5 3c 80 81 af bd ce d9 a4 3d
       -0.053399786 0.024079442 -0.08569622 0.080493554
000100 b6 29 87 3d f2 37 a6 3d 38 f3 d4 3d 16 8a d8 bd
       0.065997526 0.081161395 0.10397953 -0.10573213
000110 20 b5 c7 bb d8 96 dc 3c e4 56 cb 3d ac be 04 3d
       -0.00609459 0.026927397 0.099286824 0.0324084
000120 80 18 cb bd 90 d1 c7 3d d0 2c 59 3c 22 ca 8e bd
       -0.099167824 0.09756768 0.013255313 -0.069721475
000130 10 b0 ee bc 84 13 83 3d 14 f4 f1 3d 48 b4 b2 3c
       -0.029136688 0.06400207 0.11814132 0.02181448
000140 fc 52 69 3d 50 e2 e6 3d 2a 13 e5 bd 88 fa 3c bd
       0.056963906 0.112736344 -0.11185296 -0.046137363
000150 40 b1 df bd 30 50 15 bc 68 1c 76 3d b4 ef 83 3d
       -0.1092248 -0.0091133565 0.060085684 0.06442204
000160 7e e0 af bd 50 39 46 bc 24 d4 04 3d 70 6d 4a 3c
       -0.0858774 -0.012098625 0.032428876 0.0123551935
000170 e4 4c be 3d 98 25 f1 3d fe 00 b2 3d ee 86 b8 3d
       0.092920095 0.117747486 0.086915955 0.09010111
000180 8c 5b 41 bd 02 ce 85 bd 98 96 ac bd de 19 df 3d
       -0.047206447 -0.065334335 -0.08427161 0.10893606
000190 00 41 ed bb 2e 56 96 3d 10 ee c6 bd 6e 50 83 3d
       -0.0072404146 0.07340656 -0.097133756 0.06411825
0001a0 90 e4 de bc 7e 8f be bd fe 8b eb 3d e6 d1 af bd
       -0.027208596 -0.09304713 0.11501311 -0.08584957
0001b0 f6 75 b6 3d ec 95 cf 3d 20 2a 90 bd 64 7c dd bd
       0.08909218 0.10136017 -0.07039285 -0.10814741
0001c0 6c cd e3 3d bc d1 67 3d 18 12 c2 3d a8 19 36 bd
       0.111231655 0.056596503 0.09476107 -0.04445806
0001d0 c0 4d fe 3b 74 07 0e 3d 7a a1 80 bd dc 5f 3f bd
       0.0077607334 0.034675077 -0.06280799 -0.046722278
0001e0 58 30 92 bd 00 2c ec bd 76 86 91 bd 5e 90 bc 3d
       -0.07138127 -0.1153183 -0.071057245 0.09207223
0001f0 4e a1 cc bd 34 0a 2f bd 38 3f ef bc d4 a9 c0 3d
       -0.09991704 -0.04273434 -0.02920495 0.09407392
000200 f8 c5 23 bd e8 d9 c9 3c c2 f8 da bd 2a 12 c2 3d
       -0.03998372 0.024640039 -0.10691978 0.09476121
000210 08 ee b0 bc 00 40 18 3c 4c 29 65 3d 60 68 45 bd
       -0.021597877 0.009292603 0.055947587 -0.048195243
000220 02 83 9e 3d ec ce 5c bd 14 2b 4e bd 68 0d b5 bc
       0.077398315 -0.053908274 -0.05033405 -0.02210112
000230 88 43 a8 3c d0 6f 7c 3d 72 30 95 3d 3c 72 d3 bd
       0.020540014 0.06163007 0.07284631 -0.10324523
000240 b4 3e 5c 3d f4 c8 b5 bd 68 52 0a 3d 00 bb 1d ba
       0.053770736 -0.088762194 0.033769995 -0.000601694
000250 40 82 72 bd 40 d0 70 3d 58 4d ef 3c 38 0f 52 3d
       -0.059206247 0.058792353 0.029211685 0.051284045
000260 80 a9 ba bb a8 9f d3 bc c0 5b 92 3b e8 ea e5 bd
       -0.0056964755 -0.025832966 0.004466504 -0.112264454
000270 18 36 1d 3d 36 86 c4 bd d0 11 0a 3c 1e f7 e5 3d
       0.038381666 -0.09595911 0.008427098 0.112287745
000280 4a 6c d4 bd e0 19 f2 3c 0a bb b8 bd f8 5f 01 3d
       -0.10372217 0.029553354 -0.0902005 0.031585664
000290 80 8f b9 bc 0e cd b6 3d 62 44 9f 3d 40 28 a7 bd
       -0.022651434 0.0892583 0.07776715 -0.08161974
0002a0 74 fc 75 bd 30 f1 93 3c f6 88 fb bd 68 ec cf 3d
       -0.06005521 0.018059343 -0.122819826 0.10152513
0002b0 a8 8e fc 3c 46 b8 9b bd 50 66 32 bc 56 08 ba bd
       0.030829743 -0.07603507 -0.010888651 -0.09083621
0002c0 40 f8 fa 3d f0 76 1e 3c b8 a4 1c bd 70 d3 2e 3c
       0.12254381 0.009671912 -0.038243026 0.010670528
0002d0 40 5b 17 bd 00 8e de 3c fe 1e dd 3d ac a3 fa 3d
       -0.036952257 0.02716732 0.10796927 0.12238249
0002e0 74 a4 53 3d a0 55 b0 bc 9a e6 e8 3d 40 99 d1 bb
       0.051670507 -0.021525204 0.11372109 -0.0063964427
0002f0 d4 51 09 bd de e1 e3 3d e6 a1 f0 3d 30 08 fb bc
       -0.033525303 0.11127065 0.1174963 -0.030643553
000300 80 5e b2 bd de 30 d7 3d f2 ee f2 3d a8 db eb 3c
       -0.08709431 0.105073676 0.118619815 0.028791264
000310 20 d0 49 bd 00 65 bc bc 38 9e aa 3d 54 e8 41 3d
       -0.04927075 -0.02299738 0.08330959 0.047340706
000320 70 7d b2 3d 68 ca 74 3d 80 d3 7f bc 40 fb 59 3c
       0.087153316 0.059763342 -0.01561439 0.013304532
000330 6a 19 93 3d e0 a5 75 3d 08 7c f5 3c 7c 01 2a bd
       0.07182582 0.059972644 0.02996637 -0.04150532
000340 56 df c6 3d 58 37 b3 bc 80 73 d9 bb 70 dc d7 3c
       0.09710567 -0.021876976 -0.006636083 0.02635023
000350 b2 42 fa bd e0 aa fa 3c 48 59 d3 3d c8 fd 82 3c
       -0.12219752 0.030599058 0.103197634 0.015990153
000360 c2 0b be bd 82 c0 fc 3d c0 be b3 bc 68 c2 43 bd
       -0.092795864 0.123414055 -0.021941543 -0.047792822
000370 30 dc f0 3d 08 6f 09 bd f0 26 a0 3c 20 bb c6 bc
       0.117607474 -0.033553153 0.019549817 -0.02425915
000380 20 03 9b bc 10 e4 77 3c e8 c0 d3 bc 4c be ba 3d
       -0.018922389 0.015130058 -0.02584882 0.091183275
000390 e0 82 aa 3c a8 82 55 3d 18 4d 28 bd 50 97 ad bd
       0.02081436 0.052126557 -0.041089147 -0.08476126
0003a0 a4 c9 12 3d 00 e4 6f bc 78 b7 8c bd de e3 c7 3d
       0.03583683 -0.014641762 -0.068709314 0.09760259
0003b0 00 a3 d7 3a 54 14 71 3d c2 71 f6 3d a8 a3 9b 3d
       0.0016451776 0.058857277 0.12033416 0.07599574
0003c0 40 cd 8c bd 78 75 57 3d a0 22 a5 3d a8 d1 68 3d
       -0.06875086 0.05260226 0.08063245 0.05684057
0003d0 90 c3 e3 3c 2e 40 cb bd a0 8b 9c bc a6 e1 8f 3d
       0.027803212 -0.09924351 -0.019109547 0.07025461
0003e0 00 8d 0e 3b d8 14 93 3c 9c 5f ea bd 02 a8 ec 3d
       0.0021751523 0.017954275 -0.11444017 0.115554824
0003f0 74 1b 27 3d 02 47 bf bd 26 72 86 3d c6 7f ab bd
       0.040797666 -0.093397155 0.06564741 -0.0837398

weight_hh_l0 f4 [192, 64]
000000 9c 53 27 bd 60 33 5c 3d d4 a6 99 bd a0 59 81 3b
       -0.04085122 0.053759933 -0.07502523 0.0039474517
000010 a8 44 c3 bc e8 8c 01 bd b4 78 25 bd c0 c8 25 bc
       -0.023836449 -0.03162852 -0.040398315 -0.010118663
000020 88 0d 8e 3c 82 e8 de bd f2 f8 eb 3d 38 9e 45 bd
       0.017340437 -0.10884191 0.11522092 -0.048246592
000030 a8 8a 8f bd a0 38 11 3c 14 c8 32 3d c6 7b c1 3d
       -0.070088685 0.008863598 0.04364784 0.09447436
000040 ec 12 71 bd c0 a9 e7 3c ce 97 b2 3d 2e 86 d2 bd
       -0.058855936 0.028279185 0.08720361 -0.10279499
000050 c0 66 dd bb 70 ae d1 3d a0 a4 c5 3b e6 d5 83 bd
       -0.0067566335 0.102383494 0.0060315877 -0.06437282
000060 66 33 b7 bd 2a 7d 80 bd 36 9a bd 3d 3a d0 8a bd
       -0.0894535 -0.06273873 0.09257929 -0.06777997
000070 d0 56 9d bc 94 05 b6 3d cc dd 7d bd 58 a6 a7 bc
       -0.019206434 0.08887783 -0.0619791 -0.020465061
000080 2a ba d2 bd 6c a2 60 bd ec 9a 47 bd 90 1a 55 3c
       -0.10289414 -0.054842398 -0.04873173 0.013006821
000090 2a 8b d7 3d 0a 68 d5 bd ba ed df bd 00 1c 91 bc
       0.1052459 -0.104202345 -0.109340146 -0.017713547
0000a0 b4 6d f6 bd 94 e8 a2 3d 00 34 f3 bb ce 66 ec bd
       -0.12032643 0.07954517 -0.0074219704 -0.11543046
0000b0 b6 c9 f9 3d 70 01 e3 bd 24 74 12 bd 24 73 68 bd
       0.121966764 -0.110842586 -0.03575529 -0.05675043
0000c0 60 03 da bb 30 94 5d bd 24 09 46 3d d0 73 b4 3d
       -0.0066532344 -0.0540964 0.04834856 0.08811152
0000d0 74 8e 0c bd 48 58 41 3d 40 61 fe bc da 5f a3 3d
       -0.03431554 0.047203332 -0.031052232 0.079772666
0000e0 c8 95 fd bc c6 27 ab 3d c6 b4 f0 3d 5a 69 a5 3d
       -0.03095521 0.083571956 0.1175323 0.08076735
0000f0 00 48 33 b9 c0 9d be bc a4 7e 79 bd 8c 48 85 3d
       -0.00017097592 -0.02326858 -0.06091179 0.06507978
000100 e4 b0 3b 3d 68 37 51 3d 88 d6 fc 3c 58 ac 91 3d
       0.045822993 0.05107823 0.030864015 0.0711295
000110 50 fd 56 bc 00 c7 19 ba 74 86 22 3d a4 fd 92 3d
       -0.013121918 -0.000586614 0.039679006 0.07177284
000120 52 72 b8 3d 2a 9b dd bd f8 4a 71 bd fc d2 4f bd
       0.0900618 -0.10820611 -0.058909386 -0.05073832
000130 54 11 dc bd 00 bb b0 ba b8 f6 4e 3d 08 42 f1 bd
       -0.107454926 -0.0013483465 0.050528258 -0.117801726
000140 40 1d a8 3c 28 44 db bc c0 47 60 bd 28 4a e6 bc
       0.02052176 -0.026765898 -0.054755926 -0.028111532
000150 8a 6e a7 3d 40 da 7c 3b a0 19 29 3c 90 8a 3b bd
       0.081753805 0.0038582236 0.010321051 -0.04578644
000160 10 0a f6 3c 00 b5 68 bc aa 92 8e 3d f4 4a 96 3d
       0.030034095 -0.01420331 0.06961568 0.07338515
000170 0a 45 e8 3d 00 38 cf 39 b0 08 95 bc d4 c5 1a bd
       0.11341293 0.0003952384 -0.01819262 -0.03778632
000180 00 31 c5 bb 40 64 1e 3b 8e 40 af 3d 00 18 c5 38
       -0.006017804 0.002416864 0.08557235 9.3981624e-05
000190 d0 af 86 bd 40 f5 1e bc 68 c7 49 3d 18 00 d7 3d
       -0.06576502 -0.009702027 0.049262434 0.10498065
0001a0 86 2e de 3d 24 89 75 3d e4 fe d9 bd 8e 1e c2 3d
       0.108487174 0.05994524 -0.1064432 0.09478484
0001b0 dc e4 81 bd e0 60 ad bc 4c d4 17 bd 90 9c e6 bd
       -0.063424796 -0.021164358 -0.037067696 -0.11260331
0001c0 74 56 87 bd 3e ac 84 bd 00 91 ac 3a 20 22 d6 bb
       -0.066082865 -0.06478165 0.0013165772 -0.0065348297
0001d0 e0 42 8a bc 92 37 ce bd de e8 ab 3d 68 a6 19 3d
       -0.016877592 -0.10069193 0.08394025 0.037512213
0001e0 0e e7 84 3d 88 36 86 3d 8e 86 a2 bd 30 bf ba 3d
       0.06489383 0.0655337 -0.079358205 0.09118497
0001f0 f0 20 b4 3c 00 b2 24 bc b8 9e c4 bc 54 65 2e bd
       0.021988362 -0.010052204 -0.024001464 -0.042577103
000200 30 c8 b1 bc e6 0c ca bd a2 5c c5 bd 78 46 d2 3c
       -0.021701902 -0.098657414 -0.09636809 0.025668368
000210 26 3b d7 3d 40 54 f0 3d c8 e3 e8 3d 2e 88 8c 3d
       0.105093285 0.117348194 0.11371571 0.06861912
000220 b4 07 b2 3d f2 e0 e5 bd 00 c0 8c 38 1c 45 f5 3d
       0.086928755 -0.112245455 6.711483e-05 0.11976072
000230 b0 6a d7 bc 5c df a1 bd 10 14 e0 bd e8 db 0b 3d
       -0.02629599 -0.079039305 -0.109413266 0.034145266
000240 1e 78 eb bd 7e 7e e1 bd 10 30 c6 bc 4e 69 d4 bd
       -0.1149752 -0.110104546 -0.02419284 -0.10371648
000250 2c ad f0 bd 50 10 75 bd 3c cd 2e bd 80 cd 24 3b
       -0.1175178 -0.05983001 -0.042676196 0.0025146902
000260 94 61 44 3d 12 85 ea 3d 60 b6 76 bd 00 f2 e9 bb
       0.04794462 0.114511624 -0.06023252 -0.0071394444
000270 20 c9 e8 bc c6 be 9b 3d 96 a6 8d bd 26 bf 8a 3d
       -0.028416216 0.076047465 -0.06916539 0.0677474
000280 00 f6 a2 ba 40 1a 1f bc 36 58 8c bd f0 26 af 3d
       -0.0012432933 -0.009710848 -0.068527624 0.085523486
000290 64 9a 73 3d 48 5a fe 3c 70 5a 1c bc e0 d1 81 3c
       0.05947341 0.031048909 -0.009543046 0.015847147
0002a0 48 32 85 bc e6 15 f0 3d 14 4e 74 3d 94 46 8a 3d
       -0.016259328 0.11722927 0.059644774 0.06751743
0002b0 88 7b 9d bd 5a 02 db bd 1c a9 bc bd fa db f2 3d
       -0.07689577 -0.10693808 -0.092119426 0.118583634
0002c0 ea 73 f0 3d 0a 37 ce bd a4 6c 39 bd c0 fe 19 bd
       0.11740859 -0.100690916 -0.045269623 -0.037596464
0002d0 50 97 c5 bc 1c 5f cc 3d 98 6e e8 bd 02 44 94 3d
       -0.024120003 0.09979078 -0.11349219 0.07239534
0002e0 94 51 10 bd 80 8a c2 bb b0 9a 34 3d 22 fc fa 3d
       -0.03523405 -0.0059369206 0.044092834 0.12255122
0002f0 12 fb c2 3d 3e fd ce bd c0 63 be bb 48 e1 b6 3d
       0.09520544 -0.10106896 -0.005810231 0.08929688
000300 fc 1a 39 3d 14 7a 8d 3d 06 b8 9e 3d 44 2a 95 bd
       0.04519175 0.0690805 0.077499434 -0.07283452
000310 d8 60 ab bc 26 bf ea 3d f0 b4 f2 3d 50 a4 67 3c
       -0.020920202 0.1146224 0.11850917 0.014138296
000320 20 1c be bd b2 01 92 3d c2 91 ab 3d e8 b0 fc bc
       -0.09282708 0.071292296 0.083774105 -0.030846074
000330 de ea b6 bd 22 db d3 bd 3a 93 93 3d 3c ed 66 3d
       -0.08931516 -0.10344531 0.072058156 0.056378588
000340 d0 b5 cf bd d8 8f 6a 3d 94 48 a7 3d 44 b5 50 3d
       -0.101421 0.057266086 0.0816814 0.05095412
000350 b0 2a 8a bc 00 f9 50 3a 9c 8a 8a 3d 48 38 65 3d
       -0.016866058 0.0007971674 0.06764719 0.055961877
000360 a0 3e be bb b6 97 bc bd ba 66 f8 3d 00 20 82 bb
       -0.0058058053 -0.09208624 0.121289685 -0.0039711
000370 c8 3e c4 bc d4 bc 72 3d 6c af d1 3d 20 84 4d 3c
       -0.023955718 0.05926211 0.10238537 0.012543708
000380 44 0d 7e bd c0 cb 87 3d 90 a0 f4 3c 1c 1a 3b 3d
       -0.06202437 0.06630659 0.029861718 0.045679197
000390 44 aa b3 bd b0 e3 fd bc 24 61 1c 3d 30 db f0 bd
       -0.0877271 -0.030992359 0.038178578 -0.11760557
0003a0 da bc 87 bd 0c 86 0d 3d aa ae cf 3d 70 b8 e3 3c
       -0.066278175 0.034551665 0.101407364 0.027797908
0003b0 7c 08 f3 bd 60 e1 52 bd c8 a6 fc bd 40 54 34 bb
       -0.11866853 -0.051484466 -0.123364985 -0.0027516037
0003c0 00 c1 55 3c 02 7e ed bd 64 58 f3 bd 68 81 d4 3c
       0.013046503 -0.115963 -0.118820935 0.025940612
0003d0 c0 18 fe bc 2a ed af bd 8c 41 57 3d 58 c6 d8 bc
       -0.031017661 -0.08590157 0.052552745 -0.026461765
0003e0 5e 3d be 3d f0 dd b4 bd 40 56 14 3c 66 a2 c3 3d
       0.092890486 -0.08831394 0.009053767 0.095524594
0003f0 20 08 f9 3d 8e c5 c1 bd 98 6e 92 bd 00 4e 4b 3c
       0.12159753 -0.09461509 -0.0715 0.012408733

bias_ih_l0 f4 [192]
000000 8c a1 e6 bd 20 27 b8 3c 70 7e b8 bc 34 09 30 bd
       -0.11261281 0.022479594 -0.022521228 -0.042977527
000010 38 cd 39 3d e4 50 c8 bd c8 99 a2 bd 60 d2 3c bd
       0.045361727 -0.09781054 -0.07939488 -0.046099067
000020 40 cb f4 bc 38 8f b2 bd 80 85 82 bc 46 e3 90 bd
       -0.029882073 -0.08718723 -0.015932798 -0.07074599
000030 aa 0e b2 bd 2e de a9 bd 18 7e 0b 3d 00 98 e4 bd
       -0.08694203 -0.082943305 0.0340558 -0.11161804
000040 8e 21 a6 3d 14 54 7e bd f0 76 bb bd bc cb ff 3d
       0.08111869 -0.062091902 -0.09153545 0.12490031
000050 74 28 43 3d 04 76 22 bd 18 71 c6 3d b4 5a c9 3d
       0.047646 -0.03966333 0.0968954 0.098317534
000060 80 7b 98 ba e0 30 d4 bb 94 c7 e8 3d e8 3b 9a 3c
       -0.0011633486 -0.006475553 0.113661915 0.018827394
000070 d4 87 c5 bd e4 15 28 bd 4e 8a f4 bd 0c 81 03 3d
       -0.09645048 -0.0410365 -0.11940442 0.03210549
000080 40 88 24 bd 34 56 bd bd 02 b6 e0 3d 54 60 a0 bd
       -0.040169 -0.092449576 0.10972215 -0.07830873
000090 f0 d8 26 3d 50 7f e2 bd 6e 6b e4 bd e8 ec e0 3d
       0.04073423 -0.11059439 -0.11153303 0.10982686
0000a0 60 94 c1 3d 2a 8b bf bd 86 5a b6 3d 48 50 81 3c
       0.094521284 -0.09352715 0.08903985 0.015785351
0000b0 ea 70 f4 3d 32 36 8c 3d ba 49 cd 3d 8a 91 c4 3d
       0.11935599 0.068462744 0.10023828 0.09598072
0000c0 64 6e 21 3d 80 18 90 bb ec 82 9c bd 08 7a 35 3d
       0.039411917 -0.004397452 -0.07642159 0.04430583
0000d0 88 3b b0 bd 84 3e d8 3d 70 50 68 3d 00 75 32 3d
       -0.08605105 0.10558799 0.056717336 0.04356861
0000e0 58 5a fa 3d d4 a2 fa bd 4e e7 d4 bd e0 bf e2 3d
       0.12224263 -0.12238088 -0.1039568 0.110717535
0000f0 ec 53 17 3d 66 2b b4 bd 64 39 88 3d 64 1d a7 bd
       0.03694527 -0.0879734 0.066515714 -0.08159903
000100 a8 2f 49 3d b6 07 d7 bd c4 b7 70 bd 90 95 5b bd
       0.049117714 -0.104995176 -0.058769003 -0.05360943
000110 34 b3 0d bd 68 b8 10 bd f0 24 86 3c 88 62 4c 3d
       -0.03459473 -0.035332114 0.016375035 0.049898654
000120 c0 03 22 3c bc 59 60 bd 68 35 eb 3d a0 56 a2 3b
       0.009888589 -0.054773077 0.11484796 0.004954174
000130 08 4d 9a bc 60 b6 ec bd e0 6e f6 3c 0c ed 4f 3d
       -0.01883556 -0.11558223 0.030082166 0.050763175
000140 5a dd 98 bd c8 d1 3e 3d d0 f3 45 bd 80 cc 37 3d
       -0.074640945 0.04658678 -0.04832822 0.04487276
000150 cc 70 a9 bd 2c f6 a1 bd f0 9f c2 3d 40 86 66 bb
       -0.082734674 -0.07908282 0.09503162 -0.0035175234
000160 94 b2 40 bd c4 58 87 bd f8 e9 c3 3c 00 65 9d ba
       -0.047045305 -0.066087276 0.023915276 -0.001200825
000170 b0 f8 28 3d a4 5c 06 bd 40 0b e2 bd ce 72 df 3d
       0.041252792 -0.032803193 -0.11037302 0.10910569
000180 5e 2c 92 bd 48 ac 58 3d 40 c3 85 bb b0 94 17 bc
       -0.071373686 0.052898675 -0.0040821135 -0.009251758
000190 46 d7 a7 bd 6a 69 af 3d a2 af c9 3d 20 67 8e 3d
       -0.08195357 0.08565028 0.098479524 0.06953263
0001a0 d2 bc ba 3d a0 91 db 3c 10 8b 75 bc 94 67 9a 3d
       0.09118046 0.026802838 -0.014986768 0.07539287
0001b0 cc 8c 3e 3d b8 e9 bc bd 80 70 3c 3c dc 3e 94 3d
       0.046520993 -0.09224266 0.011501431 0.07238552
0001c0 42 80 b9 3d 5e ec c0 bd b0 d8 a8 bc f8 50 7f bd
       0.09057666 -0.094200835 -0.020611137 -0.062333077
0001d0 00 be fe bd e0 02 1f bd 4a 14 e4 bd a0 e0 9b bd
       -0.124385834 -0.0388211 -0.11136682 -0.07611203
0001e0 3c 53 a9 3d 88 44 6d bd 98 01 88 3d d0 f4 d7 3c
       0.08267829 -0.057926685 0.06640929 0.026361853
0001f0 88 ca 31 3d 88 7f f3 3d ce 5d 9d bd ac aa 58 bd
       0.04340604 0.11889559 -0.076839074 -0.05289714
000200 94 42 ca bd 9a c4 89 3d 78 fa dd 3c 30 aa a6 bd
       -0.0987598 0.06726952 0.027096972 -0.081379294
000210 1c 10 be bd c8 f6 85 3c 5c c8 f5 3d 3a 3d 8a bd
       -0.09280416 0.016353026 0.12001106 -0.06749959
000220 ee 4d dc 3d 2c e2 ed 3d 34 df 71 3d 44 fd 34 bd
       0.107570514 0.116154045 0.059050754 -0.044186845
000230 b0 61 1e bd 5c 7a b6 bd e0 d1 2e bd 4c 72 ef bd
       -0.03866738 -0.08910057 -0.04268062 -0.11691722
000240 a0 9a c9 3b 40 66 c3 bb dc 55 6e 3d 64 9c 03 3d
       0.006152466 -0.005963117 0.05818735 0.032131568
000250 90 dd e3 3c 18 65 bf bd a0 07 2d 3c 0c 2f 03 bd
       0.02781561 -0.09345454 0.0105609 -0.03202729
000260 94 3c 62 3d 78 68 33 3d 62 1f d7 bd c2 ba dd 3d
       0.055233553 0.0438008 -0.10504033 0.10826637
000270 dc 81 1d bd 60 c1 96 bb 2c 47 bf bd 1c 34 c9 3d
       -0.03845392 -0.004600689 -0.09339747 0.09824392
000280 08 eb 68 3d 0c b2 4d bd 80 c3 a9 3d 12 9b ca 3d
       0.05686477 -0.050218627 0.08289242 0.098928586
000290 80 7a 08 3c 56 fb a3 3d a2 01 f6 3d 06 bf 95 bd
       0.0083299875 0.08006923 0.1201203 -0.073118255
0002a0 5e ef 86 3d 90 2c af bd fa 9d c7 bd d8 1c 60 bd
       0.065886244 -0.085534215 -0.097469285 -0.054715008
0002b0 40 cb 4d bb c0 dc 14 bd 0e ff c8 bd 80 73 be 3a
       -0.0031401664 -0.036343336 -0.09814273 0.0014530271
0002c0 56 b2 a3 bd 00 19 a8 3d dc 9c 9d 3d ec 37 5d 3d
       -0.07992999 0.08207893 0.07695934 0.05400841
0002d0 8a 65 f3 bd 38 c6 92 bd a4 6e ba 3d 14 5f 36 3d
       -0.118846014 -0.071667135 0.09103134 0.044524267
0002e0 de 94 9d bd 80 da 61 3b 1c db 15 bd 00 cf 34 bd
       -0.0769441 0.0034462512 -0.036585912 -0.044142723
0002f0 28 e9 ed bd 10 d7 9a bc 06 0a af bd f8 d3 e3 3d
       -0.11616737 -0.018901378 -0.08546834 0.11124414

bias_hh_l0 f4 [192]
000000 b0 b3 1a 3d 00 28 31 ba 00 d9 08 ba 1c 6f a5 3d
       0.03776902 -0.00067579746 -0.0005220324 0.08077833
000010 30 9a 86 3c 00 ea 1f 3c 5c 77 9f bd b8 60 f7 3c
       0.016430944 0.00976038 -0.07786438 0.030197486
000020 70 13 32 3c 2e 8c f2 bd 08 7a 4d bd 0a 03 a9 bd
       0.010868892 -0.118431434 -0.050165206 -0.08252533
000030 f0 6b bc bd 94 ef 35 bd 8a 37 f6 3d cc 70 f1 3d
       -0.09200275 -0.044417933 0.12022312 0.117890924
000040 36 41 a6 bd 3c fd a3 3d 18 c7 86 3d dc e0 d5 bd
       -0.08117907 0.08007285 0.06580943 -0.10443279
000050 9c cf e1 bd f6 ec ff 3d 32 d8 86 3d e0 02 a3 3d
       -0.110259265 0.124963686 0.06584205 0.07959533
000060 56 91 b4 bd 58 41 4c bd 90 6f 9b bd a6 90 89 3d
       -0.08816783 -0.049867004 -0.07589638 0.067170426
000070 b0 20 6e 3c b4 fd 2c 3d 30 0b 20 3c 08 25 d7 3d
       0.0145341605 0.042234138 0.009768292 0.1050511
000080 60 48 ae 3d f0 da 8b bd 44 97 a8 bd 78 2a 8c 3c
       0.08509898 -0.068288684 -0.08231977 0.017110094
000090 82 66 b7 bd 9c 68 98 3d 18 a1 9c bc 02 1c 84 bd
       -0.08955099 0.07441828 -0.019119784 -0.064506546
0000a0 4a ba bd bd 70 46 4c 3d 2c b1 1d 3d 26 6a c4 bd
       -0.092640474 0.049871862 0.038499042 -0.09590559
0000b0 e8 00 13 3d 32 e4 cf 3d c0 41 3e 3c 20 3b 16 bc
       0.035889536 0.10150947 0.011612356 -0.00916937
0000c0 d4 34 dc bd ec 6c b0 bd 50 5e 61 3c 40 4f f5 3d
       -0.10752264 -0.08614525 0.013755396 0.11978006
0000d0 70 92 40 bd 28 8f 43 bd 5c 58 97 3d 78 3b 07 3d
       -0.047014654 -0.047743946 0.073899 0.0330157
0000e0 e8 b4 56 3d b8 c6 f0 3d a2 a8 e4 bd e0 4e 8d bb
       0.05241862 0.117566526 -0.11164977 -0.004312381
0000f0 be 5b c6 bd 80 00 61 3b 92 06 83 bd 38 16 57 bd
       -0.09685467 0.0034332573 -0.063977376 -0.052511424
000100 50 7d c0 bd c0 52 9a 3d dc b0 a6 bd bc 68 c3 3d
       -0.093989015 0.075353146 -0.08139202 0.09541461
000110 00 5d 72 3c fc f2 9b bd 10 f0 5a 3d 40 3c 42 3d
       0.014792681 -0.07614705 0.053451598 0.04742074
000120 2c 5b d1 3d 20 07 1a 3d c0 e6 b3 bc 26 5e b1 bd
       0.10222468 0.03760445 -0.021960616 -0.086605355
000130 fa 4e e2 bd 86 a6 8b bd 26 5a b1 3d 2c 88 dc bd
       -0.1105022 -0.06818871 0.086597726 -0.1076816
000140 7c 1e 95 bd d2 3b ff 3d 60 a3 bc bb e8 12 a9 3c
       -0.07281205 0.12462582 -0.0057567805 0.020638898
000150 38 8c 93 3c 22 ec e8 3d 8c 88 28 bd b8 ba e1 bd
       0.018011197 0.11373164 -0.041145846 -0.11021942
000160 7a 29 cb 3d f8 4a 67 3d 0c 75 4a 3d 9c 56 a4 3d
       0.099200204 0.05646798 0.04942803 0.08024332
000170 ca 62 d9 bd b0 8e 78 bd 0c 37 7e 3d 80 a4 7a bd
       -0.10614546 -0.060682952 0.062064216 -0.061192036
000180 80 2a 65 3c 54 8e 28 bd 00 55 fa 3a b4 ba 25 3d
       0.013987184 -0.04115136 0.0019098818 0.040461257
000190 36 de e6 bd f4 0b a7 bd 78 0b f6 bc 5e 93 c1 bd
       -0.11272852 -0.08156577 -0.030034766 -0.09451936
0001a0 e8 d6 db 3d 40 47 10 bc 78 c9 16 bd 48 fa 19 bd
       0.107343495 -0.00880605 -0.03681323 -0.037592202
0001b0 da 49 a6 bd 42 6f d4 3d 88 56 9f bc 48 14 83 bc
       -0.08119555 0.10372783 -0.019450441 -0.016000882
0001c0 b0 a9 39 bd 80 3e ea 3d ae 0c c3 bd d4 5f 4f bd
       -0.045327842 0.11437702 -0.09523903 -0.0506285
0001d0 18 34 f2 bd 10 1e aa 3c 52 fd d2 3d 8e 51 93 bd
       -0.11826342 0.020766288 0.10302223 -0.0719329
0001e0 0a 8d c9 bd 04 fa be 3d d8 91 9b bd fe b1 94 3d
       -0.09841354 0.093250304 -0.07596177 0.07260512
0001f0 4c 2b b8 bd 94 80 3f 3d 06 d2 ec bd a0 19 84 3d
       -0.08992633 0.04675348 -0.11563496 0.064502
000200 98 96 ec bc c2 75 cc bd 50 9c a7 3d 24 3f a2 bd
       -0.028880402 -0.09983398 0.08184111 -0.07922199
000210 92 bc af bd c2 c2 f2 bd a4 cd 57 bd 52 6b e3 3d
       -0.08580889 -0.11853553 -0.05268635 0.11104454
000220 9e 39 f7 bd d8 ba c6 3c f0 52 b1 bd 6e ee e0 3d
       -0.120715365 0.024259016 -0.08658397 0.10982977
000230 84 52 b0 bd 80 33 00 bd 10 1a df bd a8 fc 0d bd
       -0.086094886 -0.031299114 -0.10893643 -0.03466478
000240 c4 28 b1 3d b0 c1 d7 bc 2a fc a5 bd c6 cc 94 bd
       0.086503536 -0.026337475 -0.08104737 -0.0726562
000250 20 c3 17 bc 48 45 38 3d a8 32 d3 3c 54 53 47 bd
       -0.00926283 0.044987947 0.02578099 -0.048663452
000260 74 1d df bd 00 1b 77 3d 40 69 a8 3b c2 d6 c5 bd
       -0.108942896 0.060328484 0.0051395 -0.096601024
000270 80 d1 d4 bb 70 1c 19 bd da ce 91 3d 36 b9 be bd
       -0.006494701 -0.037380636 0.07119532 -0.0931267
000280 00 c9 fd 3a 4e 5f d3 3d 78 25 c4 3d 80 f4 59 3b
       0.0019362271 0.10320912 0.09577459 0.0033257306
000290 68 de c3 3c 74 72 82 3d 18 4f 9a bc 40 e4 ca bc
       0.023909763 0.063694865 -0.018836543 -0.024767041
0002a0 40 e8 50 bd 00 b4 a3 3c 68 8c ff 3d a4 81 0b 3d
       -0.05100274 0.019983292 0.12477952 0.03405918
0002b0 e8 e7 e6 3c 3c 99 30 3d 54 b6 4f 3d 0c 2e 37 bd
       0.028186753 0.043114886 0.05071099 -0.044721648
0002c0 b2 9e b8 3d 9e 5c e6 bd d6 2f ec 3d 24 51 34 bd
       0.09014644 -0.11248134 0.115325615 -0.044022694
0002d0 78 34 02 3d 3c 4c 6f 3d 60 fb e7 3d e2 67 fa 3d
       0.03178832 0.058422312 0.11327243 0.12226845
0002e0 ae 9b a2 3d c8 67 7d 3d 36 11 b7 bd 14 d3 69 3d
       0.0793985 0.06186655 -0.089388296 0.057086065
0002f0 64 b0 8d bd f0 25 29 bc f0 0b ad 3d a0 52 aa 3c
       -0.069184095 -0.010323986 0.084495425 0.020791352

weight f4 [2, 64]
000000 78 fe 89 3d 7a 99 c0 bd 70 5c ac 3c a2 3d da 3d
       0.06737989 -0.09404273 0.021040171 0.10656287
000010 d0 06 8b 3d a4 96 62 bd 54 e1 a2 3d b0 47 97 3d
       0.06788409 -0.055319443 0.07953134 0.0738672
000020 00 f3 a7 3c a0 13 86 bd b4 ab e9 3d 5a ce 8a 3d
       0.020501614 -0.06546712 0.11409703 0.0677764
000030 e0 14 18 3d cc 85 7f bd 80 92 0e 3d cc 7b a2 3d
       0.037129283 -0.062383458 0.034807682 0.07933769
000040 88 2c d4 3d fc ca 07 3d c0 0d b0 bc 3c 66 c4 bd
       0.10360056 0.033152565 -0.021490932 -0.09589812
000050 04 00 c5 bd 56 01 87 3d 78 1e 99 3d 28 10 b0 bc
       -0.096191436 0.06592052 0.074765146 -0.021492079
000060 ac c2 31 bd 0c 7e 0d 3d e0 32 05 3c 8e a8 85 bd
       -0.043398544 0.034544036 0.008129805 -0.0652629
000070 4a 32 e4 3d ea c2 96 bd b0 ab 49 bd fe 46 a8 bd
       0.111424044 -0.07361396 -0.049236 -0.08216666
000080 04 c5 d0 bd 20 dd 0c 3c 18 fb f7 3d da f3 e2 3d
       -0.10193828 0.008597642 0.12108439 0.11081667
000090 a0 95 6b 3d ee 5e a2 bd e6 18 a2 3d 28 d9 bf 3d
       0.05751574 -0.07928263 0.07914905 0.09367591
0000a0 f4 d8 39 bd c0 44 e5 bc a0 e2 b2 bb 38 67 df 3d
       -0.04537292 -0.027986884 -0.0054591447 0.10908359
0000b0 bc 5a f4 3d 34 92 a6 bd 52 e9 99 3d d4 c4 75 bd
       0.11931369 -0.08133355 0.075152054 -0.060002163
0000c0 9e 2b ad bd 88 be d8 3d f0 38 86 3d e2 7e 87 bd
       -0.08455585 0.10583216 0.06553829 -0.06615998
0000d0 30 fa 02 3d ec 50 5a 3d 0e 19 a2 3d f4 a8 a0 bd
       0.03197688 0.05329983 0.07914935 -0.07844725
0000e0 e0 74 9a 3d e2 6c af bd 54 b5 83 bd 3a e3 cc bd
       0.075418234 -0.085656896 -0.0643107 -0.100042775
0000f0 f2 61 f8 3d f4 31 e6 3d d6 a4 fb 3d ca 82 d3 bd
       0.121280566 0.112399966 0.12287299 -0.103276804
000100 8c 24 9a 3d 26 30 f5 3d 24 d4 11 3d 58 53 23 3d
       0.07526502 0.11972074 0.035602704 0.039874405
000110 80 ca 97 bd 34 a4 ef bd e4 b3 a7 3d 98 4e 48 3d
       -0.07411671 -0.11701241 0.08188608 0.048903078
000120 c0 65 ba bb 74 ab b3 bd e8 9c e2 3d 20 db 89 3b
       -0.005688399 -0.087729365 0.11065084 0.00420703
000130 e0 05 f7 3d dc 90 c5 bd b4 1b 61 3d 8c 05 86 3d
       0.120616674 -0.0964677 0.05495806 0.06544027
000140 26 fc 86 bd 40 5c b2 bb 48 65 87 3d 80 dc 39 3c
       -0.06591062 -0.005443126 0.06611115 0.011344075
000150 a0 75 6b 3d 9a a0 d6 bd e2 05 fa bd 58 f8 54 bd
       0.057485223 -0.10479851 -0.12208153 -0.05199465
000160 5c 6c e7 3d e0 66 ef 3b 8c ba 75 3d 40 96 d6 3b
       0.11299965 0.007305965 0.059992358 0.006548673
000170 e0 79 b5 bb f0 81 5d bd f8 a3 ea 3c 02 5c c8 3d
       -0.0055382103 -0.054078996 0.02864264 0.09783174
000180 60 ac 46 bc 30 2b a9 bc d8 0d 76 bd 0e ba b4 3d
       -0.012126058 -0.020650476 -0.060071796 0.088245496
000190 34 16 89 bd fc dc 1a 3d 40 71 44 3b 1c 7e 04 3d
       -0.06693688 0.037808403 0.0029974729 0.03234683
0001a0 d8 55 b2 3d 50 00 7b bc 48 cf 84 bd a0 00 c9 3d
       0.0870778 -0.015319899 -0.06484848 0.09814572
0001b0 d0 b9 14 3c 38 f0 cc bd 8c dc 8b bd 2c 62 98 3d
       0.009077504 -0.100067556 -0.06829175 0.074406
0001c0 88 4c bf bd cc 33 8d bd da 8f da 3d e0 3b 22 bd
       -0.09340769 -0.06894645 0.10671969 -0.039607882
0001d0 c0 69 b4 3c 7c e7 f8 bd fe ce ec bd c0 11 14 bd
       0.022023082 -0.12153527 -0.11562918 -0.03614974
0001e0 0c f3 41 3d e0 f6 3e bd 6e 9b f6 bd d4 bb f4 bd
       0.04735093 -0.046622157 -0.120413646 -0.11949888
0001f0 98 8f 90 3c 10 41 fc 3c 9e a0 a8 3d b8 ae d5 bd
       0.017646596 0.030792743 0.0823376 -0.104337156

bias f4 [2]
000000 20 63 49 bc ca 62 8f bd
       -0.0122917 -0.070012644

weight_ih_l0 f4 [192, 20]
000000 20 1b 61 3d 40 01 b2 bb 92 8d c1 bd d6 11 b0 3d
       0.05495751 -0.005432278 -0.094508305 0.08597152
000010 cc c1 76 3d c4 87 97 bd c4 3f 2f bd 8e 62 b9 bd
       0.060243413 -0.07398942 -0.04278542 -0.09052001
000020 8c ba c6 bd 9c c5 1b bd 28 03 2a bd be bc cb bd
       -0.0970355 -0.03803025 -0.041506916 -0.09948109
000030 ee b5 fd bd d8 e8 16 bd b6 64 ab bd 38 7c cc bc
       -0.12388216 -0.03684315 -0.083688185 -0.024961576
000040 b2 60 ad 3d 70 7f a6 bd 00 87 da 3d 44 b1 8f bd
       0.08465709 -0.081297755 0.106702805 -0.070162326
000050 80 e9 2c 3c cc 40 4f bd 48 ed d9 bd 00 91 ba 3d
       0.010553718 -0.050598904 -0.10640961 0.09109688
000060 c0 24 e4 bb ec c5 68 bd 18 35 c5 bc f2 69 9c bd
       -0.0069623888 -0.056829378 -0.024073169 -0.07637395
000070 ec 29 0b bd 88 69 31 3d e6 1e a8 bd 80 01 9d 3d
       -0.033975527 0.043313533 -0.082090184 0.07666302
000080 86 2b 99 3d 7a 0e de bd 40 31 60 3c 70 53 41 bd
       0.074790046 -0.10842605 0.013683617 -0.047198713
000090 6c 48 ee bd 48 f1 b7 3d 2c 35 4a 3d 72 6c bb 3d
       -0.11634907 0.089815676 0.049367115 0.09151544
0000a0 30 3b e1 bd 28 2b b0 3d 58 34 b0 3d 10 64 fc bc
       -0.10997617 0.086019814 0.08603734 -0.030809432
0000b0 88 ec c9 3d 88 94 96 3c ec df 88 3d c6 1f fb 3d
       0.09859568 0.018381372 0.06683335 0.1226192
0000c0 b0 49 86 3c 40 01 a8 bd 9a 96 d4 bd e8 b4 6d 3d
       0.016392559 -0.082033634 -0.103802875 0.058033854
0000d0 ee aa e0 3d c0 9f 00 3b b8 7d d3 3d f2 3a c3 bd
       0.10970102 0.0019626468 0.10326713 -0.09532727
0000e0 40 d3 06 3d aa 87 aa bd d0 5c 74 bc 40 90 47 bb
       0.032916307 -0.08326657 -0.014914706 -0.003045097
0000f0 b2 6f fc 3d 2a 7d fe 3d 40 6e d0 bd a0 19 e3 bc
       0.12325992 0.12426217 -0.101772785 -0.02772218
000100 b8 bf 86 3d 36 ba e6 3d 04 a0 58 3d 00 93 e9 3b
       0.06579536 0.11265986 0.052886978 0.0071281195
000110 cc 5b 46 bd 68 8a 28 3d c0 6e 4f bb 84 63 b9 bd
       -0.048427388 0.04114762 -0.0031651706 -0.09052184
000120 80 e7 3c 3d 98 cf 35 3d 66 eb fb 3d a6 df e8 3d
       0.046119213 0.04438743 0.12300758 0.113707826
000130 70 4c 99 bd 50 90 72 3d 46 f9 e6 bd 50 58 07 bc
       -0.074852824 0.05921966 -0.11278014 -0.008260801
000140 98 1d 7e bd 96 00 82 3d aa 58 fe bd f8 99 ab 3d
       -0.06203994 0.06347768 -0.12419255 0.083789766
000150 82 57 ae bd 2c 59 bc bd 42 21 fd bd 66 14 db bd
       -0.085127845 -0.09196696 -0.12359859 -0.1069725
000160 c4 2b b8 3d b2 9e 8f 3d f0 a0 cd 3d 88 7c 5a bd
       0.08992723 0.070126906 0.10040462 -0.05334142
000170 54 27 f6 3d 00 dc 64 3a 04 d0 27 3d 66 8a 81 bd
       0.1201922 0.00087302923 0.040969864 -0.063252255
000180 88 be 6f 3d 40 5c 85 bc 74 63 f6 3d c6 38 b8 bd
       0.058531314 -0.01627934 0.12030688 -0.08995204
000190 74 f6 66 3d 12 66 fb bd 1c be 94 3d 1c f2 52 bd
       0.05638738 -0.12275328 0.07262823 -0.051500425
0001a0 70 53 73 bc 3c bb b7 3d c8 67 15 3d b4 9d 2d bd
       -0.014851436 0.08971259 0.036475927 -0.042386726
0001b0 64 f9 1f 3d 6c 6f 8c bd 56 7b b8 bd 0e 8f d0 bd
       0.039056197 -0.068571895 -0.090078995 -0.101835355
0001c0 2e 9b f7 bd a2 bd a8 bd 80 cb 1a 3c 12 f7 88 bd
       -0.12090145 -0.082392946 0.009447932 -0.0668775
0001d0 5c 84 42 3d a0 c0 83 3c ae 73 98 3d 80 9a 4d 3b
       0.04748951 0.016083062 0.07443939 0.0031372607
0001e0 10 07 27 bd 20 bb 2d 3c 82 68 d9 3d 60 ee fb 3b
       -0.04077822 0.010603696 0.106156364 0.0076883286
0001f0 d4 1c 2f bd fe 18 fb 3d c0 96 88 bc ec f3 89 3d
       -0.042752102 0.12260626 -0.016673446 0.067359775
000200 a0 b3 3f bc aa 50 f8 3d ae 81 96 3d 36 90 91 bd
       -0.011700541 0.121247604 0.07348953 -0.07107584
000210 b8 f7 e6 3d 62 45 aa 3d 64 2c 12 bd dc e0 2f bd
       0.11277717 0.08314015 -0.035686865 -0.042939052
000220 36 b6 e4 bd cc 33 5b bd 54 5b cf bd 40 90 82 3d
       -0.111675665 -0.053516194 -0.10124841 0.0637517
000230 96 0a 80 3d 44 90 cb 3d 82 97 da 3d 40 d2 b0 3c
       0.06252019 0.09939626 0.10673429 0.02158463
000240 a0 ce b2 bb 98 22 de bd 5e e5 e5 bd 08 d9 76 3d
       -0.0054567605 -0.10846442 -0.11225389 0.06026557
000250 a0 75 c4 bb f0 68 8a 3d a8 00 64 bd 0c c9 26 3d
       -0.0059954673 0.067582965 -0.05566469 0.040719077
000260 d8 39 65 bd 90 05 40 bd 7c 98 7a bd 24 00 cc 3d
       -0.055963367 -0.046880305 -0.061180577 0.09960964
000270 50 3a 01 bd d0 b6 b8 3d e0 84 c6 bd e8 8f 59 3d
       -0.03154975 0.09019244 -0.09693313 0.053115755
000280 2c 74 e1 3d b4 24 27 bd b8 3b c6 3c d0 e8 54 3d
       0.11008486 -0.040806487 0.024198398 0.05197984
000290 a0 96 4e 3c e2 ae a6 bd 60 8f 9d bc 94 eb 46 bd
       0.012609154 -0.08138825 -0.019233406 -0.04856451
0002a0 28 44 4f bd 20 c1 e6 3d 10 00 c1 3c b0 d8 6b bc
       -0.05060211 0.112673044 0.0235596 -0.014394924
0002b0 78 b9 5a 3d 3a b5 cc 3d 40 6f 96 3c 84 ab 44 bd
       0.053399533 0.09995504 0.018363595 -0.048015133
0002c0 0c 85 e9 bd c8 58 d3 bd c4 89 9c 3d 20 88 68 bd
       -0.1140233 -0.10319668 0.07643464 -0.056770444
0002d0 58 9b d9 3c 32 60 c5 bd dc f0 0b 3d 24 05 28 bd
       0.026563331 -0.096374884 0.03416525 -0.041020527
0002e0 82 6f 91 bd ec e2 2d bd 10 c5 bb 3d b0 07 e1 3c
       -0.071013466 -0.042452738 0.09168446 0.027469486
0002f0 b6 7b f3 bd f2 e1 89 bd 00 f7 6a 3c 54 ff a5 3d
       -0.1188883 -0.06732549 0.014341116 0.081053406
000300 d4 f1 1c bd fc 2b cf 3d b0 fd 52 bc c0 26 23 3d
       -0.038316563 0.10115811 -0.012877867 0.039831877
000310 fa a9 80 3d 70 8c 12 3c c4 58 7b 3d 20 a5 9c bb
       0.062824205 0.008944616 0.06136395 -0.0047804266
000320 b0 84 8f 3c 08 f1 ee 3d 6c 00 8a 3d 30 8d e9 bc
       0.017519325 0.11667067 0.06738362 -0.028509706
000330 40 b4 64 3c a0 c8 a8 3c 60 cf 01 3c f4 cb c3 bd
       0.013958991 0.020603478 0.007922977 -0.09560385
000340 4c 9f ba 3d d0 03 4d bc d0 61 95 bc 36 92 8e bd
       0.09112415 -0.012513116 -0.018235117 -0.06961481
000350 00 41 54 3b 8e 9e ee bd 7a 23 f0 bd 90 a4 05 bc
       0.0032387376 -0.11651336 -0.117255166 -0.008156911
000360 c8 bd 84 bd 84 d6 27 bd 24 5d c3 3d 5e 6a d2 bd
       -0.064815104 -0.040976062 0.095392495 -0.10274194
000370 80 f2 7e bd e0 f7 31 3c a6 fd a5 3d 90 ec 73 bc
       -0.062242985 0.010862321 0.0810502 -0.014887944
000380 30 92 2d bd 58 96 65 bd 50 df 13 bd f8 c1 c1 bd
       -0.042375743 -0.056051582 -0.03610164 -0.09460825
000390 9a 3a dc 3d b8 39 f5 bd e8 f4 13 3d 80 06 96 bc
       0.10753365 -0.119738996 0.036122233 -0.018313646
0003a0 20 9d e0 bc 48 16 ef bd b8 8f 31 3d c8 80 f6 3c
       -0.027418673 -0.11674172 0.04334995 0.030090705
0003b0 2a a7 c6 bd 00 3a 9f bc 0c 07 fa 3d d0 a5 6c bd
       -0.09699853 -0.019436836 0.12208375 -0.05777532
0003c0 3c 38 83 bd f4 4d 67 bd c0 da ca 3c 26 19 b0 bd
       -0.0640721 -0.056470826 0.024762511 -0.08598547
0003d0 42 eb ae bd c8 3c 8b 3c f0 84 4b 3c ac 29 f6 bd
       -0.085409656 0.016996756 0.0124218315 -0.12019667
0003e0 b4 3f 6c 3d 40 49 77 bc c0 a3 24 3d be 69 af 3d
       0.05767794 -0.015093148 0.040195227 0.085650906
0003f0 9e 40 f4 3d 40 7f 64 3d a6 17 89 bd c6 24 e6 bd
       0.11926387 0.055785418 -0.06693964 -0.11237483

weight_hh_l0 f4 [192, 64]
000000 78 92 49 bd f6 cc a2 bd 7e 96 bf 3d a0 e8 d6 3b
       -0.04921195 -0.079492494 0.09354876 0.006558493
000010 a2 19 be 3d 42 13 c0 3d 20 b2 a0 bb 4a bd b7 bd
       0.09282233 0.09378673 -0.0049040467 -0.08971651
000020 a0 0e 39 3d 36 b4 90 3d 00 ee 93 bc ea e4 dc 3d
       0.045179963 0.070656225 -0.018057823 0.107858494
000030 98 71 1b bd e0 79 b4 bc 70 20 14 3d 64 42 6d bd
       -0.03795013 -0.02203077 0.036163747 -0.057924643
000040 00 4b fc bd c0 96 9f 3b 98 bc a4 bc 20 07 cf 3b
       -0.123189926 0.0048702657 -0.02010946 0.006317988
000050 18 35 9e bd c0 db e6 bb 20 73 42 bd ac 0b 9f bd
       -0.077249706 -0.007045239 -0.047473073 -0.07765898
000060 5a 1d b3 bd 90 13 93 bd 30 49 0d bc fa 59 a4 3d
       -0.08745833 -0.071814656 -0.008623406 0.08024974
000070 dc 2e ee bd f8 1b 9e bc a0 8f 51 3c c0 51 bd 3d
       -0.116300315 -0.019300446 0.0127905905 0.09244108
000080 94 35 92 3d a4 1c b7 bd d6 09 91 bd 2c fa 94 3d
       0.071391255 -0.0894101 -0.07081954 0.07274279
000090 00 41 4d bb 00 90 e4 ba c4 d7 36 bd f0 c9 1a bc
       -0.003131926 -0.0017437935 -0.044639364 -0.00944756
0000a0 80 df fc 3d f8 1f fd 3d 3c 44 56 3d 80 ce 46 3b
       0.12347317 0.12359613 0.052311167 0.0030335486
0000b0 28 7a c7 bd 94 1b 05 bd 92 b5 a5 bd 48 09 93 bc
       -0.09740096 -0.032497004 -0.080912724 -0.017948762
0000c0 80 28 cf 3d 38 c7 bf 3d 58 0c 30 bd 00 e4 3c ba
       0.10115147 0.0936417 -0.042980522 -0.00072056055
0000d0 68 c6 ba bd 20 9b c3 bc be 6b bf bd d4 96 2d bd
       -0.09119874 -0.02387768 -0.09346722 -0.04238017
0000e0 f8 ff 87 3c 80 46 1d bb e8 12 ac bc 60 ff 4c 3d
       0.016601548 -0.002399832 -0.021005109 0.050048232
0000f0 a8 d9 04 3d 5c 35 83 3d 58 6b f4 bd c0 56 d2 bb
       0.032434136 0.06406662 -0.11934537 -0.006419033
000100 00 79 57 bd 00 d0 64 3d 62 fc a4 bd 00 2b 51 3c
       -0.05260563 0.055862427 -0.08055951 0.0127666
000110 48 97 99 3d 2c a7 03 3d 88 7c 22 bd b0 35 d2 bd
       0.07499558 0.03214185 -0.039669544 -0.10264146
000120 4c 51 db bd d8 80 d2 bd f0 66 a1 bd 70 4b aa 3c
       -0.107088655 -0.10278481 -0.07880962 0.020787925
000130 82 dc ed bd c8 73 e6 bc 64 8b b5 3d b8 08 99 bd
       -0.11614324 -0.02813138 0.08864477 -0.07472366
000140 00 3d 32 bc f8 a1 f8 3d 28 87 97 bd c2 7b 92 3d
       -0.010878801 0.12140268 -0.07398826 0.07152511
000150 90 05 2a bc b6 b5 a7 bd 24 f8 37 3d 6c 1d 63 bd
       -0.010377303 -0.081889555 0.04491438 -0.05544798
000160 00 54 e5 bd 88 c1 c6 bc 30 02 ed bd 88 5e cc bd
       -0.11197662 -0.024262205 -0.11572683 -0.09978968
000170 e6 82 ac bd 60 e7 08 3d a0 23 f9 bd 24 84 d8 3d
       -0.084234044 0.03342378 -0.12164998 0.10572079
000180 a0 0c 1f bc d0 11 77 bc d0 8f 20 bd 22 c9 aa 3d
       -0.0097076 -0.01507993 -0.03919965 0.08339144
000190 f4 34 b3 3d 7a 55 e2 3d ee 8e 8b 3d f0 f3 e6 3d
       0.087503344 0.110514596 0.06814371 0.11276996
0001a0 44 16 81 bd 24 91 48 bd d0 f9 60 3d a6 bd c1 bd
       -0.06303075 -0.048966542 0.05492574 -0.09460001
0001b0 0e f5 f4 bd be ae dc bd 90 7f df 3c 90 4e 7e bd
       -0.11960803 -0.10775517 0.027282506 -0.06208664
0001c0 8a f3 f2 3d 40 fc 05 bc 28 d8 11 bd 04 98 2c bd
       0.11862858 -0.008177817 -0.035606533 -0.04213716
0001d0 f4 a8 bb bd cc 36 ab bd d2 8a a5 bd b8 6c 6e 3d
       -0.091630846 -0.08360061 -0.080831185 0.05820915
0001e0 e0 ec e1 bd 30 7b 16 bc 5c 55 19 bd be 23 84 bd
       -0.110315084 -0.009184644 -0.03743492 -0.0645213
0001f0 20 6c cc 3b 5c a8 38 bd cc e5 42 bd fc 99 fd bd
       0.0062384754 -0.045082435 -0.047582433 -0.12382886
000200 ac 78 4e bd 00 65 ad bc 4c 7b 06 3d 6c ba c0 3d
       -0.05040805 -0.021166325 0.03283243 0.09410557
000210 ae f6 cc bd aa ac 88 3d 0c 39 e2 bd 00 72 7f 3d
       -0.10007988 0.06673558 -0.11046037 0.06236458
000220 6c bc b0 3d 20 f9 6d 3c 70 0c 83 bd d2 ab e6 3d
       0.086296886 0.014524728 -0.06398857 0.11263241
000230 20 b0 0e 3c 98 ad ec bd 4c 17 b8 bd e0 de f3 3b
       0.008708984 -0.11556548 -0.089888185 0.0074423403
000240 b4 4e 47 3d 1e e2 92 3d 50 31 3c 3d b4 3d 90 bd
       0.04865904 0.07172035 0.045945466 -0.07043019
000250 ae a3 bb bd 0e f7 8d 3d 18 74 f8 bd e0 f7 e9 bc
       -0.09162079 0.069318876 -0.12131518 -0.028560579
000260 d8 03 3e bd 20 97 c9 3d 30 8d ba bc b2 1c c6 bd
       -0.046390384 0.09843278 -0.022772402 -0.09673442
000270 40 31 19 bd 00 7a aa bb 96 36 c2 3d 20 f0 49 3d
       -0.037400484 -0.005202532 0.09483068 0.049301267
000280 96 ce b2 bd 38 f3 fd 3d 00 19 64 3b 2c ee 99 3d
       -0.087308094 0.12399906 0.003480494 0.07516131
000290 60 f1 c4 3c d0 a7 f8 3d dc 8c 81 3d 00 8d d9 bc
       0.024040878 0.12141383 0.06325695 -0.026556492
0002a0 c8 f1 b1 3c e8 b7 ff bd 4c a0 68 bd 38 a4 fc bd
       0.021721736 -0.12486249 -0.056793496 -0.1233601
0002b0 62 8c a0 3d f6 9d 8f 3d 80 23 bf 3c 24 ac 9c 3d
       0.07839276 0.070125505 0.023332357 0.07650021
0002c0 48 9a ec bc de 04 88 bd 48 5c ab bd 18 72 5e bd
       -0.02888216 -0.06641553 -0.083672106 -0.054308027
0002d0 64 17 29 3d f6 d7 d0 bd 34 64 b9 3d b4 96 33 bd
       0.041282073 -0.10197441 0.09052315 -0.043844894
0002e0 8a 66 8d bd 20 c1 fb bc 18 cc e5 bd 5c eb 5e bd
       -0.069043234 -0.030731738 -0.112205684 -0.054423675
0002f0 84 59 c4 bd 68 df f8 3d a8 4c 4a 3d e8 5d fe bd
       -0.09587386 0.12151986 0.04938951 -0.12420255
000300 9e 2b d1 3d 42 6f cf 3d 50 0b f0 3d 58 6a c7 3c
       0.102133974 0.101286426 0.11720908 0.0243427
000310 8c ca 65 bd c2 c9 f1 3d 60 22 16 3c ce 8d 8f bd
       -0.056101367 0.118060604 0.009163469 -0.07009469
000320 00 ab 36 3d 18 57 a1 3c 8c 1c 4b 3d 1e 8f f9 bd
       0.044596672 0.01969485 0.04958777 -0.121855006
000330 dc e4 58 3d cc 59 9a 3d d8 ed 02 bd c0 9a 82 3d
       0.052952632 0.07536659 -0.031965107 0.063771725
000340 66 28 a9 bd c4 c2 b6 bd 02 3e d4 bd b0 d1 be bc
       -0.082596585 -0.08923867 -0.103633896 -0.023293346
000350 4e ef a9 3d 80 08 d0 bb a0 06 27 3d 50 a5 cc 3c
       0.08297597 -0.0063486695 0.040777802 0.02498117
000360 f0 75 a3 3c 50 48 85 bc 22 21 ab bd 5c f2 97 bd
       0.019953698 -0.016269833 -0.08355929 -0.07419273
000370 8c a0 4d bd c4 90 47 3d 44 a3 a6 3d 80 9b b5 ba
       -0.050201938 0.048722044 0.08136609 -0.0013855547
000380 72 be ec bd 3e 98 d6 3d 00 38 27 bd 50 52 8c 3d
       -0.11559762 0.10478257 -0.04082489 0.06851637
000390 34 72 21 3d 0c eb df 3d 80 be 37 bb c0 7f 66 3c
       0.039415553 0.109335035 -0.002803713 0.014068544
0003a0 d2 e2 e8 3d 98 a1 e0 3d 18 88 91 3c b0 3f 3b 3d
       0.113713875 0.109683216 0.01776509 0.045715034
0003b0 6a cd 83 3d 86 06 c5 bd d8 81 b3 bc 3a d4 d3 bd
       0.06435664 -0.09620385 -0.0219125 -0.103432134
0003c0 7c 2c f9 3d 0c 83 d3 3d b2 17 8d 3d 9a 16 f6 3d
       0.12166688 0.103277296 0.06889285 0.1201603
0003d0 88 f1 bb bc a6 46 90 3d a8 69 ed 3c bc 9a b5 bd
       -0.02294232 0.07044725 0.028981045 -0.08867404
0003e0 fa 03 be 3d d8 5f 03 3d 80 f7 91 bb 90 4c 1a 3d
       0.09278102 0.032073826 -0.004454553 0.037670672
0003f0 1c 44 e8 bd 0a b8 a6 3d 14 ca a4 3d 7c 9e 55 bd
       -0.11341116 0.081405714 0.08046356 -0.052153096

bias_ih_l0 f4 [192]
000000 14 2c 08 3d bc 8c 5d bd 16 c2 d4 bd 0c 81 7c 3d
       0.03324516 -0.054089293 -0.103885815 0.061646506
000010 82 3c da bd 5c bd 20 bd be 1b 85 3d 08 e7 eb 3c
       -0.10656072 -0.039243087 0.06499432 0.028796688
000020 d0 f6 0d 3c 36 9f a6 bd d4 84 84 bd c0 b2 28 3b
       0.008664802 -0.08135836 -0.064706475 0.002574131
000030 60 c5 7e bd a0 4b 82 3b 78 ff b3 3c 16 11 f7 3d
       -0.06219995 0.0039763004 0.021972403 0.12063806
000040 6a d1 84 3d f8 2a 3e bd 90 3f 4d 3d f8 92 c4 3c
       0.06485255 -0.046427697 0.050109446 0.023995861
000050 92 2e e5 3d dc 11 8f bd 20 43 3a 3d a0 c9 ef 3d
       0.11190523 -0.06985828 0.04547417 0.11708379
000060 9c d4 99 3d d8 43 e7 3d ae 26 f5 bd 5c 1c b5 3d
       0.07511255 0.11292237 -0.11970268 0.088433
000070 cc aa 67 bd aa f0 88 3d 6a 54 92 3d a0 b9 84 3c
       -0.05655937 0.06686528 0.07145007 0.016201794
000080 a8 73 00 bd 84 b2 27 3d 96 0c 8f 3d 76 3d da bd
       -0.0313603 0.04094173 0.069848225 -0.10656254
000090 fa a8 be bd 94 76 9f bd c8 68 77 bd ac ba 5c bd
       -0.093095735 -0.07786289 -0.06040266 -0.05388896
0000a0 60 38 53 3c a0 1e 1c 3c 80 75 77 bd 6c 57 64 3d
       0.012891859 0.009528786 -0.06041479 0.055747434
0000b0 3c f8 66 3d b8 f6 f4 bd a4 c1 f1 3d 12 60 e1 bd
       0.05638908 -0.1196112 0.11804512 -0.11004652
0000c0 6c 6d 49 bd 28 bc cd bc 20 5c e0 bd 10 95 3e 3c
       -0.04917662 -0.025114134 -0.109550714 0.011632219
0000d0 34 c7 dc bd 1c 3d ac 3d d2 49 8f bd d0 d3 df bc
       -0.107801825 0.08410093 -0.06996502 -0.02732268
0000e0 bc 4b f1 3d ee ee 81 bd bc 37 ef 3d 00 7e ab 3c
       0.11782023 -0.063444 0.11680552 0.020934105
0000f0 ac 4d 24 3d 2e 33 b7 bd 70 a7 dc 3d b4 1f 57 bd
       0.040113136 -0.089453086 0.10774124 -0.05252047
000100 ae 37 a2 bd 48 3f 9b bc 80 a8 f4 3c 46 02 bc 3d
       -0.07920776 -0.018951073 0.029865503 0.09180121
000110 88 7d db bc 68 4a 97 bc 64 c7 60 bd f0 fb eb 3d
       -0.026793256 -0.018468097 -0.054877654 0.11522663
000120 80 d4 f7 3a d6 fa eb 3d 82 c7 ec 3d cc 36 06 bd
       0.0018907934 0.115224525 0.115614906 -0.032767102
000130 60 8d 98 3c 5c 63 5c 3d c0 b5 1a bd 0d 19 e1 bd
       0.0186221 0.053805694 -0.037770987 -0.10991106
000140 10 c4 e7 3c 30 d9 7c bc b0 f8 bd 3d c4 b5 8f bd
       0.028291732 -0.015432641 0.09275949 -0.07017091
000150 d4 3f c7 bd b8 00 83 3c 24 be 9e 3d 9a e7 89 3d
       -0.09728971 0.015991554 0.0775111 0.067336276
000160 98 28 e5 bc fe 70 a9 bd c0 06 f4 bd 14 2b b8 3d
       -0.027973458 -0.08273505 -0.1191535 0.089925915
000170 f4 9c 19 3d 76 bc f0 bd a0 c8 1a 3c fc 85 23 bd
       0.037503198 -0.11754696 0.009447247 -0.0399227
000180 a0 8b eb 3c 4e 34 f5 3d 08 03 cd 3c 9c 79 cf bd
       0.028753102 0.11972867 0.02502586 -0.10130617
000190 32 18 b7 bd 7c 09 1a bd 4e c3 f5 3d 30 51 74 bc
       -0.08940162 -0.0376067 0.12000142 -0.014911935
0001a0 28 7b dd 3d 80 2d 0e 3b 98 f1 a9 bc 08 e4 3e 3d
       0.10814506 0.00216946 -0.020745084 0.046604186
0001b0 d8 e2 aa bc 40 38 d5 3b f0 83 dd bd 78 f0 29 3d
       -0.02086012 0.0065069497 -0.10816181 0.041489094
0001c0 c4 1e 08 3d 30 95 a1 bc 12 4b e3 bd 7e 45 c1 bd
       0.033232465 -0.019724458 -0.11098303 -0.09437083
0001d0 b8 64 83 3d cc 78 a4 3d 88 dd 5a 3d 60 cc d3 bc
       0.06415695 0.08030853 0.053433925 -0.02585429
0001e0 e4 94 93 bd 6e f3 96 bd 92 7c f4 3d 60 df 74 3d
       -0.07206133 -0.07370649 0.119378224 0.05978334
0001f0 fe 51 9c 3d f2 cc 90 3d a0 f5 c4 bb ce 33 9e 3d
       0.07632826 0.0707034 -0.006010726 0.07724725
000200 98 7a 34 bd 84 a8 47 bd 32 4f e1 bd 40 cd 04 bc
       -0.044062227 -0.048744693 -0.110014334 -0.008105576
000210 a4 ef 8b 3d fc 00 59 3d d0 73 6f 3c b2 bf d5 3d
       0.06832817 0.052979454 0.014615014 0.104369536
000220 14 4d 20 bd 32 c7 95 bd 38 60 8f bc 50 7c 8e 3c
       -0.039136007 -0.07313384 -0.017501935 0.017393261
000230 10 8f 3c bd 3e a6 93 bd d0 cd 6b 3c 0c b1 8b 3d
       -0.046034873 -0.072094426 0.014392331 0.068208784
000240 c8 96 99 3d 90 77 2e bd f8 a2 e0 3d a8 96 75 3d
       0.07499462 -0.042594492 0.10968584 0.05995813
000250 ce 3c 88 3d f8 bf 6a bd 0a 46 9f 3d 4c a2 d5 bd
       0.066522226 -0.057311982 0.07777031 -0.10431346
000260 a0 b0 fb bb 40 ec fc bc 80 9c b9 bb b2 0f 84 bd
       -0.0076809675 -0.030874372 -0.005664408 -0.06448306
000270 80 b1 4d 3d 00 8f 8c bc c6 af fd bd 70 a8 ed bc
       0.050218105 -0.017158031 -0.12387042 -0.029010981
000280 70 d4 a8 bc 3c 6e bc bd 58 fb e0 bc b0 f4 9a 3d
       -0.02060911 -0.09200713 -0.0274636 0.07566202
000290 26 2a d5 3d 00 cc 2b 3a c0 a9 9e 3b f0 a5 75 3c
       0.1040843 0.00065535307 0.004842013 0.014993176
0002a0 04 90 df 3d 38 c6 83 bc 14 65 72 bd 76 a1 fb bd
       0.10916141 -0.016085729 -0.059178427 -0.122866556
0002b0 fa 26 20 bd c8 67 55 bd ca db e4 3d d6 d7 f2 3d
       -0.03909967 -0.052100927 0.11174734 0.11857574
0002c0 94 24 f6 bd c0 fc b4 3c a4 5a 38 bd 48 09 ec bd
       -0.120186955 0.022093177 -0.045008317 -0.11525208
0002d0 c2 4b f4 bd f0 e0 2b 3d 70 4e b2 bd 3a 61 de bd
       -0.11928512 0.041962564 -0.08706367 -0.10858388
0002e0 b0 d0 c2 bc 34 49 4a bd 08 ec 88 3c 98 7f bd bd
       -0.02378115 -0.04938622 0.016714111 -0.09252852
0002f0 b0 48 ef bc 7b 1e 54 3c 14 6b 51 bd 18 23 ae 3c
       -0.029209465 0.01294672 -0.05112751 0.021256968
