models/one_month_new_trial/checkpoint/trained_irdpg_4.pth (torch, 409330 bytes, 22 tensors)

weight_ih_l0 f4 [192, 64]
000000 b4 01 1a bd 59 66 29 3d 42 8b b4 3d 74 19 a7 bd
       -0.03759928 0.041357372 0.08815624 -0.08159152
000010 54 fc 71 3d 4d 1d 5f 3c 34 f9 a9 bd 7a 90 cd bd
       0.05907853 0.013617826 -0.08299485 -0.10037322
000020 e9 a4 04 3d 6e ec 81 3d 37 f6 b9 3d 9c 7c 7c 3d
       0.032383833 0.063439235 0.09080165 0.061642274
000030 88 65 9d 3d 04 53 19 bd f6 6a 91 bc 66 4e db bd
       0.07685381 -0.037432685 -0.017751198 -0.10708313
000040 18 45 d9 3d 2c 08 9b 3d 1c 0c 52 bd a2 ca 90 3d
       0.10608882 0.07569918 -0.05128108 0.07069899
000050 e0 66 76 3c 0a bd bc 3d 3d fe 75 bc f5 61 34 3d
       0.015039176 0.09215744 -0.015014228 0.04403873
000060 3c d8 c3 bd bc 07 8c 3d 82 ca d7 bd e0 23 22 3c
       -0.09562728 0.06837413 -0.10536672 0.009896249
000070 9c 16 f4 3d 64 c2 64 3d 5a 57 6d 3d 86 ba 85 bd
       0.11918375 0.055849448 0.057944633 -0.06529717
000080 b0 f3 ea bd 31 40 0c bd 71 b1 26 3d 07 df 1e bd
       -0.11472261 -0.034240905 0.040696565 -0.038786914
000090 d6 2f a0 bd 56 3c c9 bd dc 71 b6 3d 3a 56 dd 3d
       -0.07821624 -0.09825961 0.08908436 0.10807462
0000a0 54 b7 a4 bd 41 4a 43 3d b0 50 7d 3c ff 63 35 bd
       -0.080427796 0.047678236 0.015461132 -0.044284817
0000b0 ec 0b f7 bd 98 da 33 bd 50 d5 eb bd f3 bf 5d bb
       -0.12062821 -0.04390964 -0.115152955 -0.0033836334
0000c0 aa 47 85 bd 10 b9 90 bc 2e ce c4 3c 5a 9f d7 3c
       -0.065078095 -0.01766637 0.024024095 0.026321102
0000d0 a4 79 ac 3d 28 4d 51 3d 9a d8 c7 3d 9e 14 b4 3d
       0.084216386 0.051098973 0.0975811 0.08792995
0000e0 c8 4c db bd b1 dd 27 3d b2 2f a1 bd 9c 43 8a 3d
       -0.10708004 0.040982906 -0.07870425 0.06751177
0000f0 06 54 c4 3d 86 21 f0 bd 63 8e dc 3d 1c f0 d9 bd
       0.09586339 -0.11725144 0.107693456 -0.106415
000100 88 44 d6 bc 80 79 e4 3d 30 95 ce bd 18 26 82 bc
       -0.026155725 0.11155987 -0.10087049 -0.015887305
000110 c4 45 b7 3d ea f6 ac 3d 86 d7 e5 3d 30 a7 69 bd
       0.089488536 0.084455326 0.112227485 -0.057044208
000120 3c 9e 4e bd 0a b1 99 bd 7b 9c 96 3d 46 4c c1 3d
       -0.050443873 -0.07504471 0.07354065 0.09438376
000130 10 cd bd bd c0 b5 98 3c 18 12 be 3d be 35 fd 3d
       -0.09267628 0.018641353 0.09280795 0.12363766
000140 18 4a 0a bd 62 0c 9e bd a4 6f 80 bd 3c 4c d8 3d
       -0.033762068 -0.077172056 -0.06271294 0.105614156
000150 c4 a6 73 bd 46 f8 9a bd a4 3b 82 3d 54 ec f3 bd
       -0.059485212 -0.07566886 0.06359032 -0.119103104
000160 26 69 cb bd 48 28 6a 3d 64 23 1e 3d 44 16 da bd
       -0.09932165 0.05716732 0.03860797 -0.10648778
000170 88 95 6a bd 80 a1 6b bc 2b f0 e4 3c 88 ff 36 bd
       -0.05727151 -0.014381766 0.027946552 -0.044677287
000180 7e 21 c8 3d be a4 e2 bd 8a 0a 8c bd d6 5b d8 bd
       0.09772013 -0.11066578 -0.06837948 -0.10564391
000190 9a 59 bf bd 70 a7 d0 bd 18 26 bc 3c 5e b8 83 bd
       -0.09343262 -0.10188186 0.022967383 -0.064316496
0001a0 e6 fd ff 3d c0 d0 8b bd 10 4b 46 3c a0 24 c2 bd
       0.12499599 -0.06826925 0.012102857 -0.09479642
0001b0 80 18 32 bb 6e 63 fc bd 40 1e 49 bb 44 ec 14 bd
       -0.0027175248 -0.12323652 -0.0030688196 -0.036358133
0001c0 0e 10 b0 bd 32 4c c0 3d 26 f1 a4 3d 6a 81 d8 bd
       -0.08596812 0.09389533 0.08053808 -0.10571559
0001d0 52 03 90 3d 5c f4 b4 3d 04 3c 2a bd f0 9d 97 3d
       0.07031883 0.0883567 -0.04156114 0.07403171
0001e0 dc b3 76 3d 34 3c f7 bd 52 c4 a1 bd f0 01 a3 bd
       0.06023012 -0.1207203 -0.07898773 -0.07959354
0001f0 06 73 f1 bd 0a 96 e9 bd 9c bc 42 3a d8 69 c3 3d
       -0.11789517 -0.11405571 0.00074286177 0.095416725
000200 30 8b 57 bd ac 90 f7 bd 00 84 3d b9 32 58 aa bd
       -0.052622974 -0.12088141 -0.00018073618 -0.08317603
000210 a0 25 e1 3b 86 62 83 bd 80 bf b6 3b 50 d2 42 3c
       0.0068709403 -0.06415276 0.005577028 0.011890963
000220 d2 ec f3 bc f6 38 c9 bd 0d 38 91 3d 04 07 61 bd
       -0.02977601 -0.098253176 0.07090769 -0.05493833
000230 62 45 b4 3d b8 ed 40 bd ca 8d f3 bd 96 ac 9e 3d
       0.08802296 -0.047101706 -0.118922785 0.07747762
000240 b2 a3 a4 bd 48 55 a4 3d 0c dd e1 bd 3e 8a f0 3d
       -0.08039035 0.080240786 -0.110284895 0.117451176
000250 40 ca ce bd f7 7d 6f 3d c7 1b 6c 3d 58 8d d0 3b
       -0.1009717 0.05846974 0.057643678 0.0063645057
000260 73 4e 3b 3d 54 7b 41 3d 98 7a 12 bd c6 c5 ab bd
       0.045729112 0.047236755 -0.035761446 -0.08387332
000270 76 a7 ef 3d 8c 7d 53 3d c5 5b bc 3d 2a 73 d7 bd
       0.117018625 0.051633403 0.09197191 -0.10520013
000280 78 15 fc bd 4e f0 9c bd 9a 37 be bc e0 45 af 3d
       -0.12308782 -0.07663022 -0.023219872 0.085582495
000290 60 19 c4 3b 2c cb ae bd 20 d2 87 3d be 0e a4 3d
       0.0059844702 -0.08534846 0.06631875 0.08010624
0002a0 64 45 ca bd f0 be a6 3d e4 8f de 3d 4e c5 bd 3c
       -0.098765165 0.08141887 0.10867289 0.023165371
0002b0 36 e8 88 bd ee c6 98 3d e0 be f8 bb 56 8f b6 3d
       -0.06684916 0.07459818 -0.0075911134 0.08914058
0002c0 f2 09 b1 bd bc cd 64 bd 55 9f 14 3d f4 eb cf 3d
       -0.08644475 -0.055860266 0.036284763 0.10152426
0002d0 d2 14 ff bd d0 88 3d 3d 4e bb c2 3c fd 59 5e 3d
       -0.12455143 0.046273053 0.023770954 0.05428504
0002e0 68 28 ee bd f2 cd a8 bd 54 32 cc bd d8 4c dc bd
       -0.11628801 -0.08242406 -0.09970537 -0.10756844
0002f0 82 4d ad 3d 2e df c6 bc b2 be 7f bd d4 9b 6f 3d
       0.08462049 -0.024276342 -0.06243772 0.05849822
000300 3c 22 03 3d 9f e8 c4 bd c8 c4 ee 3c 40 af 11 bb
       0.03201507 -0.096146815 0.029146567 -0.0022229701
000310 1c 1f 0a 3d 81 1f 30 3d 68 5e 96 3c d8 0d e9 bc
       0.033721074 0.042998794 0.018355563 -0.028448984
000320 0d 50 f2 3c 65 50 f3 bc c6 04 75 bd 8c 50 66 3d
       0.029579187 -0.029701421 -0.059819005 0.05622916
000330 fb 94 d3 3d 9e d6 ac 3d 35 12 93 3c 80 ca 5a bc
       0.1033115 0.084393725 0.017953018 -0.013353944
000340 a8 a4 13 3d 11 6a f9 bd a8 6f ee bd 92 5a fd bd
       0.0360457 -0.12178434 -0.116423905 -0.123707905
000350 08 50 cc 3d ab 79 5e 3d 7d 2a ea 3d 19 4a 37 bd
       0.09976202 0.05431525 0.11433885 -0.0447484
000360 fb 60 1b 3c aa 2c cc bd c8 39 66 3d 60 e1 a8 3d
       0.009483571 -0.099694565 0.05620745 0.08246112
000370 6a d8 c1 bd 2e af 89 bd 0d f4 e0 3d c0 75 44 bd
       -0.09465106 -0.06722866 0.10984049 -0.047963858
000380 80 54 70 bb 6b 68 c2 3c 9b c8 1b 3d f9 ae 88 bd
       -0.003667146 0.023731431 0.03803311 -0.066739984
000390 b0 a1 e5 3c 74 7d cb 3d 88 7d d9 3d 7d 4b c2 bc
       0.0280312 0.09936038 0.10619646 -0.023717636
0003a0 ed 43 8d 3c 35 32 c8 bd aa 5e 8e 3d 3f 8c b9 bd
       0.017244304 -0.09775201 0.069516495 -0.09059953
0003b0 84 63 7d 3d d0 55 f5 bd 0c 55 91 bd fd 0b f4 3c
       0.061862484 -0.11979258 -0.070962995 0.029790873
0003c0 33 cf f1 bd 40 79 12 bd a9 55 86 3d 58 fc d0 3a
       -0.11807098 -0.035760164 0.06559307 0.0015944345
0003d0 6c 9d 5b bd 2e 1b 8d bd f5 ec b0 bd ad bf 59 3d
       -0.053616926 -0.0688995 -0.08638946 0.053161312
0003e0 1e 1f 95 3d b1 17 2e 3a 70 ae 9a 3d 4c 4c 04 bd
       0.07281326 0.00066411035 0.075528026 -0.032299325
0003f0 01 5f b8 bd 9d 93 c3 bc 05 35 2c bd 64 a3 7d bd
       -0.090024956 -0.023874098 -0.04204275 -0.0619234

weight_hh_l0 f4 [192, 64]
000000 e6 b5 af 3c b2 ff ef bd a8 66 20 3d 79 54 e3 3c
       0.02144904 -0.11718692 0.0391604 0.02775024
000010 74 c1 b0 3d 32 72 f2 3d 4b 6c aa 3d 4f e9 8d 3d
       0.08630648 0.11838187 0.083214365 0.06929266
000020 37 20 95 3d 9d a1 e0 bc bd 41 96 bd 0a 50 f0 3d
       0.07281535 -0.027420813 -0.07336757 0.11734016
000030 9d 78 b8 3a ea 96 60 3d e3 78 a7 3c fd bb ad 3c
       0.0014074031 0.054831423 0.020443385 0.021207804
000040 d0 c6 a7 bd f5 03 e3 3d d6 01 30 3d 13 27 b0 bd
       -0.08192217 0.11084739 0.0429705 -0.08601203
000050 c5 60 91 3d 6a 15 4e 3d 6b ae cd bd 65 92 32 bd
       0.070985354 0.05031339 -0.10043033 -0.043596644
000060 4a f7 e9 3d fc 0c 8b bd 12 1e 50 bc 3a 34 c7 bd
       0.1142412 -0.06789586 -0.012702482 -0.09726758
000070 57 79 aa bd 76 57 61 3c df 7c e7 bd 56 b6 78 bd
       -0.08323925 0.0137537625 -0.11303114 -0.060720764
000080 b8 a6 bc 3d ea a8 e9 3c 18 80 bf bc 7f de f0 3c
       0.092114866 0.028522927 -0.02337651 0.02940297
000090 f2 06 3a 3d d1 a2 d1 bd 01 f6 78 3d 3a 2e eb bd
       0.04541678 -0.10236133 0.060781483 -0.114834264
0000a0 60 d0 a2 3d 19 e7 7d 3d 62 cb 2e b9 66 a3 ca 3b
       0.079499006 0.06198797 -0.00016669699 0.0061840294
0000b0 f5 77 d3 3d 51 32 ed 3d ee d2 9d 3d 19 36 b0 3d
       0.10325614 0.11581863 0.07706247 0.08604068
0000c0 14 7d d9 3d 9f 6b 5e 3c fc 30 7a 3d a4 4d a0 3d
       0.1061956 0.013575464 0.06108187 0.07827309
0000d0 a9 90 80 3d fd 7a fa 3d 05 5a 7a bd 83 78 e9 bd
       0.06277592 0.122304894 -0.061121006 -0.11399939
0000e0 82 12 ad 3d 51 19 b4 bd e3 79 fb 3d da 20 d6 3c
       0.08450796 -0.08793891 0.122791074 0.026138712
0000f0 37 f6 c8 3d ab 43 cf ba 69 ab 84 bd cd b1 22 3d
       0.09812587 -0.0015813013 -0.064780064 0.039720345
000100 a9 b7 fd 3d d8 0e 9a bd d9 f7 bf 3c 9c de be 3c
       0.12388546 -0.075223625 0.023433613 0.023299508
000110 49 06 8c bd ba 2c d0 bc c9 ab 6f 3c b4 20 fa bd
       -0.06837136 -0.025411952 0.014628359 -0.12213269
000120 f4 01 43 3c b4 9a 1c bd fe 70 a9 3d fc e9 94 3d
       0.011902321 -0.038233474 0.08273505 0.072711915
000130 89 d2 37 3d 0f 49 4c 3d d1 a0 c2 3d 7c ed 59 bd
       0.044878516 0.04987436 0.095033295 -0.053205
000140 f8 7b 6a 3c 8d 4a e0 3d 99 28 4b 3d 0d 57 88 bd
       0.014311783 0.109517194 0.049599264 -0.066572286
000150 a8 ec 1d 3c 5f 31 99 3d 24 35 f2 3c a0 88 8c 3d
       0.009638943 0.0748012 0.029566355 0.06861997
000160 65 4c 86 3c 3b 7b e5 3c d0 cc b9 3d ca 19 53 bb
       0.01639385 0.028012862 0.09072268 -0.0032211416
000170 ba 4d c7 bd fb d4 39 3d b4 45 d6 bd 17 53 9c 3d
       -0.09731622 0.04536913 -0.104625136 0.07633036
000180 9e 13 80 3d 43 e7 d7 bd 9c 13 ec 3d 91 3a 33 3c
       0.06253742 -0.105421565 0.11527178 0.010939256
000190 50 18 b8 bd 66 f9 ab bd 7f 7d 14 bd 4c 91 5e 3c
       -0.08989012 -0.08397178 -0.036252495 0.013584446
0001a0 24 1d 12 3d 21 6d 7c 3d be 9b dc bc 13 87 8f 3c
       0.035672322 0.06162751 -0.026929732 0.017520463
0001b0 7a a9 fa bc 31 8c d0 3d 0c 3e 96 3d 6c ec d7 bb
       -0.03059839 0.101829894 0.07336053 -0.006589463
0001c0 2f 79 31 3d b9 15 1e bd 23 39 00 3c 89 33 aa bd
       0.04332846 -0.038594935 0.007826122 -0.08310611
0001d0 e0 2c af 3d e8 84 c4 bd a6 89 ac 3d 9b 02 e0 bd
       0.08553481 -0.09595662 0.08424692 -0.10937997
0001e0 71 34 1e 3d 9a 72 f7 3d 8a d9 f5 3d 81 f9 92 bd
       0.03862423 0.120824054 0.12004383 -0.07176495
0001f0 82 3d c4 bd a6 34 e3 bc 87 c9 3b 3d d7 c6 67 3d
       -0.09582044 -0.027735066 0.04584649 0.056586113
000200 f8 6a 93 bd 1f 36 f6 3d b6 23 f6 bd ef 43 c8 bd
       -0.07198137 0.120220415 -0.1201853 -0.09778582
000210 79 5d 65 bd 18 be 98 3d 27 72 86 3d 15 16 99 3c
       -0.055997346 0.074581325 0.065647416 0.018687287
000220 e2 64 bb 3d 26 eb d2 bc 60 f6 a3 3d 1c 81 e2 bd
       0.09150101 -0.025746893 0.08005977 -0.11059782
000230 96 e5 bd 3d 00 2b c2 3d 5f d2 fe 3d 2e 88 ac bd
       0.09272306 0.09480858 0.12442469 -0.08424412
000240 be b3 a1 3d 86 d4 b6 3c f6 45 74 3d ec 9c fe bd
       0.07895611 0.022318136 0.059637032 -0.12432274
000250 74 ec 50 bd 64 b4 ad bc b1 b0 12 3b 68 5f f7 bd
       -0.05100675 -0.021204181 0.0022383148 -0.12078744
000260 bf 38 1c 3c fd 27 2e 3d ee 1c d1 3d b6 12 0f bc
       0.009535014 0.042518605 0.10210596 -0.008732488
000270 fb c7 4e bc cc 4b 5e 3d 32 cd a7 bd 3d e0 e7 bb
       -0.012620921 0.054271504 -0.08193435 -0.007076292
000280 98 20 59 bc 7c 03 f8 3d 17 5b f6 3d db 85 4f bd
       -0.0132524 0.121100396 0.12029093 -0.050664764
000290 db 69 d9 3d cf 87 19 bc d0 41 c6 3d dd ed 47 3d
       0.106158935 -0.009370758 0.096805215 0.04881083
0002a0 0f 30 db 3d 91 59 1a bd b3 b9 a9 bd fb 27 58 3c
       0.10702526 -0.037683073 -0.082873724 0.013193126
0002b0 fb 39 f9 3c 29 67 68 3d 1a 43 a0 bc fa 7e ba bd
       0.030423155 0.056739006 -0.019563247 -0.0910625
0002c0 b2 4e cf 3c b7 5c fa 3d b1 14 80 3d 93 ad 66 3d
       0.02530608 0.12224715 0.062539466 0.056317877
0002d0 33 94 62 bb de 54 06 3d d7 5f 84 bd ca 7f 49 3d
       -0.0034573197 0.03279578 -0.064635925 0.049194135
0002e0 cb a0 d4 3c f9 35 d6 bd ca ea 96 bd 0f 46 57 3d
       0.025955578 -0.10459513 -0.07369001 0.052557047
0002f0 86 05 b0 3d 39 0a 20 bd 3e 2f 1d bd 06 30 b3 3d
       0.085948035 -0.03907225 -0.03837513 0.08749394
000300 73 8a da 3d 1f 17 1a 3d 77 a5 07 3c a0 b8 91 3c
       0.10670938 0.037619706 0.008279196 0.017788231
000310 e4 5e 01 3d 78 7a 62 bd c0 e2 e7 3d e0 5d 12 bd
       0.031584635 -0.055292577 0.11322546 -0.035734057
000320 65 13 ae b9 e5 23 d4 bd 9d 3d 6f 3c 88 d6 16 3d
       -0.00033202316 -0.10358409 0.014602092 0.036825687
000330 9b 19 f8 bd bd 2a a5 bd c7 be 21 3d 26 c3 ac bd
       -0.12114259 -0.08064792 0.03948858 -0.08435659
000340 92 22 a4 3d 68 17 45 bd 29 18 b0 3b 0a 3a 77 bd
       0.08014406 -0.048118025 0.005373974 -0.060358085
000350 1a ba 32 3d d2 a3 73 bd 9f 6c 9e 3d 4c 51 ab bc
       0.04363451 -0.059482403 0.077355616 -0.020912789
000360 8b 77 e5 3c 62 47 f7 3d 52 4c 33 3d 74 0b 24 bd
       0.028011104 0.12074162 0.043773957 -0.040049985
000370 c7 bb b0 bd bb d4 49 bd f0 05 94 3c bd f4 75 3d
       -0.08629566 -0.04927514 0.018069237 0.060047854
000380 90 87 df 3d 5d e8 b7 bc 80 d1 ed 3d 63 73 dc bd
       0.10914528 -0.022449667 0.116122246 -0.10764196
000390 b7 81 ec bd b7 75 cb bd 0b b0 b4 3d 87 2d a1 bc
       -0.11548179 -0.09934562 0.0882264 -0.01967503
0003a0 fa ec fe bd 85 9d 17 3d c2 6d c1 bb ed 63 fa 3d
       -0.124475434 0.037015457 -0.0059029767 0.122260906
0003b0 3f 33 10 bb d4 cf 71 bd e8 b0 8a 3c 42 e9 a7 bd
       -0.0022003201 -0.05903609 0.016930059 -0.08198787
0003c0 74 72 f6 bd 5a af 2e 3d 03 02 c2 bc f8 b1 86 3c
       -0.12033549 0.042647697 -0.0236826 0.016442284
0003d0 b6 8c 60 3d e4 b4 ef 3d 88 cb 5a 3d 21 5c b2 3a
       0.054821692 0.11704424 0.05341676 0.0013607779
0003e0 96 17 59 ba 95 e4 c3 3d 8d c9 14 bd e0 fb a1 3c
       -0.00082814076 0.09565083 -0.036325026 0.019773424
0003f0 57 36 88 3c 51 01 ab 3d 4e 2a f3 3d a5 28 98 bd
       0.016627474 0.083498605 0.11873303 -0.07429627

bias_ih_l0 f4 [192]
000000 ae 31 ab bc b4 e6 95 3d 46 8f cc 3c 73 7c bd 3d
       -0.020897713 0.07319394 0.024970662 0.092522524
000010 9c ea 34 3d 8d 15 05 b8 11 a5 89 bd 5c df b1 3d
       0.044169053 -3.172974e-05 -0.06720937 0.086851805
000020 b9 b1 3d 3d e5 e6 be 3d 9c 81 1e 3d 74 81 aa bd
       0.046312068 0.093213834 0.038697824 -0.083254725
000030 de e9 9e 3d 4c a6 ec 3d 7d 90 f3 3d fd 8a 2d 3d
       0.077594504 0.11555156 0.11892793 0.042368878
000040 73 62 8e 3d 0c 6f f1 3a 5c 36 71 3d 80 87 d3 bd
       0.069523714 0.0018419935 0.05888973 -0.10328579
000050 77 db 82 3d d0 1f 44 bd 90 ca 88 3d 33 70 13 bd
       0.06389516 -0.0478819 0.06679261 -0.035995673
000060 93 84 8d 3d d7 0d ce 3d cc b1 1d 3d c3 80 27 bd
       0.06910052 0.100612335 0.03849964 -0.04089428
000070 eb 01 0c 3d 9b db 6d 3d 30 2c a8 bc f9 fa c2 3d
       0.034181517 0.05807076 -0.020528883 0.095205255
000080 27 eb 78 3d e5 52 42 3d 83 a6 79 bd bc 8c 76 3d
       0.060771134 0.047442336 -0.060949814 0.06019281
000090 83 b4 f4 3d bf 44 8e bc 0b ac b2 3d 57 28 94 ba
       0.119484924 -0.017366765 0.08724221 -0.0011303526
0000a0 ee 6b a2 3d a3 12 f2 bd 95 ad 90 3d 69 9d 9e 3d
       0.07930742 -0.11819961 0.07064358 0.07744867
0000b0 be 7b 21 3d b3 d0 fa 3d fc ea 35 bb d8 17 ca bc
       0.03942465 0.122468375 -0.002775847 -0.024669573
0000c0 9b e8 84 3d bf 6b c4 3d 9a 8b fd 3d 54 d9 2a 3d
       0.064896785 0.095908634 0.123801425 0.041711167
0000d0 d7 e1 e0 bd b8 22 44 3d 4c d1 b4 bc 0f 29 4f bb
       -0.109805755 0.047884673 -0.022072457 -0.0031610166
0000e0 ae 74 8c 3d 3b b9 27 3d 23 79 32 bd 4b 60 9c bd
       0.068581924 0.040948134 -0.043572556 -0.07635554
0000f0 c2 51 d3 3c 8f 4d a8 bd e0 f6 4a 3d 8d 6f c1 3d
       0.025795821 -0.08217918 0.049551845 0.09445105
000100 7a f7 c5 3b e8 9f 8e bd 78 5c 7a bd d8 a2 d8 3d
       0.0060414644 -0.069640934 -0.06112334 0.10577935
000110 b2 ce c5 3b 4e db 62 3d 9a 98 f1 bd 31 16 a0 3d
       0.006036603 0.055384926 -0.117966846 0.07816733
000120 fb 53 51 3d 94 d6 03 bd 52 35 42 bd a2 62 e5 bc
       0.05110548 -0.03218706 -0.04741413 -0.028001133
000130 f6 72 bb 3d 38 4d dd 3d c3 44 b7 bc 14 d8 9e bd
       0.091527864 0.10805744 -0.022371655 -0.077560574
000140 81 5a ed bd d2 dc eb 3c 3e 07 36 3d ab 4e 19 bd
       -0.11589528 0.028791819 0.0444405 -0.03742854
000150 e7 93 b0 bd f5 5c ff bd 07 d3 9e bd d1 52 e3 3b
       -0.0862196 -0.12468902 -0.07755094 0.0069373627
000160 32 99 f8 3d 2e 4b d3 3d e9 fe ab bd 56 c9 ea 3d
       0.12138595 0.10317074 -0.0839823 0.11464183
000170 1b 81 9f bd e5 e7 e0 3c c5 84 d9 bb 79 4b d5 3d
       -0.07788297 0.027454326 -0.006638142 0.10414786
000180 85 de cb bd ee 7a 50 bd 40 8b 2f 3d 68 51 3a 3c
       -0.099545516 -0.050898485 0.04285741 0.011371948
000190 c1 69 3f 3c e9 4c c7 bd 2b 85 32 3d 67 18 eb bd
       0.011682929 -0.09731466 0.04358403 -0.11479264
0001a0 4c aa c3 bd e4 5d af bd 21 19 d6 bb 03 22 a4 bd
       -0.09553966 -0.0856283 -0.0065337573 -0.080143
0001b0 4a 2c 12 3d 3b ee 39 3d 99 8b 8d bd ff 78 a0 3d
       0.03568677 0.04539321 -0.06911392 0.07835578
0001c0 ff 0a f0 bb 51 49 cf 3d 72 e9 2b bd c4 8f 89 3c
       -0.0073255296 0.10121406 -0.041970678 0.016792186
0001d0 85 f7 97 bd d7 2c c7 bd 52 c5 f0 bd 49 4b 3c 3d
       -0.074202575 -0.097253494 -0.11756386 0.045970235
0001e0 30 00 cc bd 0e db 9a bd ca e9 0b bd 36 69 9b 3d
       -0.09960973 -0.075613126 -0.034158505 0.07588427
0001f0 af ed 31 3d 22 d0 e9 bd 21 58 a3 bd bd 2a a4 bd
       0.043439563 -0.11416651 -0.07975794 -0.08015964
000200 e8 2c 71 3d ea 6d 8a 3c 9e 28 b0 3d a9 5a ef 3c
       0.058880717 0.016898114 0.08601497 0.029218035
000210 10 1c f7 bd 2c 04 89 3d f2 2a 9f bd 14 50 49 bd
       -0.12065899 0.06690249 -0.07771863 -0.049148634
000220 69 4b ea 3d e7 46 ef 3d 8f e7 8d bd f5 00 d6 3d
       0.114401646 0.116834454 -0.06928932 0.10449401
000230 81 3c c0 bc e2 78 de bd 5d 06 ff 3d 3b 83 dc bd
       -0.02346635 -0.108629 0.124523856 -0.10767218
000240 9e ff 42 bb 52 b5 5d 3b 61 43 73 3d 57 2c 4c 3d
       -0.002975441 0.003383 0.05939043 0.049846973
000250 65 9a 91 3c bc 5e 1e 3d 8f 54 56 3d 36 df 49 bd
       0.017773816 0.038664564 0.052326735 -0.049285136
000260 7a 37 5d 3d 77 44 fa 3d 28 36 e8 bd e0 2c ba bd
       0.054007985 0.1222009 -0.113384545 -0.090905905
000270 56 89 ea 3d d4 dd 9d 3d c5 6d ed bd 67 20 9e bd
       0.11451976 0.07708326 -0.115932025 -0.07721024
000280 12 2e 53 bd b6 9d 9e 3d 37 41 cf bd df 30 0c 3c
       -0.051557608 0.07744925 -0.101198606 0.008556574
000290 28 86 9f 3c 3e 73 e4 bd f4 78 f9 3d 54 c8 4e bc
       0.01947315 -0.11154793 0.12181273 -0.012621004
0002a0 e3 78 a2 3d d9 c2 cf 3c 73 0d 0d bd 0a 03 83 bd
       0.079332136 0.025361465 -0.034436654 -0.06397064
0002b0 d8 d6 cd 3c 72 d6 d2 bd af eb c0 3d 6e a4 a2 bd
       0.02512686 -0.102948084 0.09419953 -0.07941519
0002c0 cf fc 92 3c 5a 46 98 3d d5 af d2 bd d8 c9 ab 3d
       0.017942814 0.074352935 -0.102874435 0.08388108
0002d0 56 12 f1 bd c8 33 85 bd 5f d0 69 3d dc 98 bb bc
       -0.117710754 -0.06504017 0.057083484 -0.022900037
0002e0 af 62 22 3d b3 4b f0 bd 36 dd 55 3b ea 23 6d bc
       0.039644893 -0.117331885 0.0032633073 -0.014473895
0002f0 83 af 60 bd 0a ae 5c 3d c4 62 61 bb 3a c1 8a 3c
       -0.05485488 0.053876914 -0.0034391144 0.01693784

bias_hh_l0 f4 [192]
000000 ee 65 b0 bc b0 ad a2 3d 7c f2 af bd 01 74 d5 3d
       -0.021532979 0.079432845 -0.08591172 0.104225166
000010 22 9f c4 3d 09 3b b8 3d 3d 48 1a bd 94 85 c2 bb
       0.09600665 0.08995635 -0.037666548 -0.005936334
000020 c8 75 89 bd 8b 3c 0d bc 36 01 b8 bd 80 c6 d5 bd
       -0.06711918 -0.008620392 -0.08984606 -0.104382515
000030 d6 8e f4 3c dc 55 53 bd 1c cc 5c 3d e5 30 5a 3c
       0.029853266 -0.051595554 0.05390559 0.013317321
000040 51 fe fe bd 34 ab fa 3d 10 80 8d 3d d4 39 b8 bd
       -0.12450851 0.12239686 0.069091916 -0.08995405
000050 2f 0e e3 3d 70 84 ac 3d 3a fc dd 3d 69 63 7c bc
       0.1108669 0.08423698 0.10839124 -0.015404561
000060 bc 0a b0 3c bf 9e 31 bd 42 af fd bd 75 96 ad bc
       0.021489494 -0.043364283 -0.123869434 -0.021189908
000070 65 aa 13 bd 59 23 77 bd ea 2e 83 bd b4 b4 7a bc
       -0.036051173 -0.060336445 -0.064054325 -0.015301872
000080 18 c4 df bd cb 06 7e bc d5 41 66 3d c1 d2 b7 3d
       -0.10926074 -0.015504549 0.056215126 0.08975745
000090 8c ec 44 bd aa 34 a8 3d 13 2c 41 bd 18 68 f6 bd
       -0.04807715 0.0821317 -0.047161173 -0.12031573
0000a0 ba 44 ad bd b6 37 17 bd 6d a9 8f bd 15 b6 ce bc
       -0.08460374 -0.036918364 -0.07014737 -0.025233308
0000b0 da fe 5b 3d 9b 27 96 3b 07 cd 5c bd 20 25 8f bb
       0.053709842 0.004582358 -0.053906467 -0.0043684393
0000c0 96 9e be 3c 0f 5e 20 bd 19 e7 2e bd 07 64 c1 3c
       0.023268979 -0.0391522 -0.04270086 0.023607267
0000d0 47 22 c3 3c 9e 09 3a 3c 4e 08 44 3d 00 87 d5 3d
       0.023820056 0.011354832 0.047859482 0.1042614
0000e0 6e 3c 42 bd ba 9c a0 3b b9 14 30 3d c5 2f 93 bd
       -0.04742091 0.0049014958 0.042988513 -0.07186846
0000f0 70 e2 f2 3d 73 63 8a bd af 1b c9 bc cc c3 01 bd
       0.11859596 -0.0675725 -0.024549333 -0.031680867
000100 30 51 44 3d 11 63 e1 bc 74 09 6e 3d f0 f2 91 3d
       0.04792899 -0.027513059 0.058114484 0.07126415
000110 e5 21 90 3c 6a c6 2f 3d 7e 77 63 bd 51 91 c3 3d
       0.017594287 0.04291383 -0.05553388 0.09549201
000120 2a 8b dc bc b4 0e e7 3d 94 a4 86 3d bf cf 23 3d
       -0.026921827 0.11282101 0.065743595 0.039993044
000130 56 e7 b2 bd 4a a0 c9 bd 61 e8 9f 3d 40 c5 b9 bd
       -0.0873553 -0.09845026 0.07807995 -0.090708256
000140 4d 75 9b bd a4 b7 17 bd 5f d4 7a 3b c4 8c a2 bd
       -0.07590733 -0.037040368 0.0038273556 -0.07937005
000150 e2 63 5a 3d 6c 33 ed bc 5d 98 a5 bd 8e b2 25 3d
       0.053317912 -0.028955184 -0.080857016 0.040453486
000160 e2 0d 80 bd 05 b8 3b 3c d1 02 2d bd e6 aa f6 bd
       -0.06252648 0.011457448 -0.042239014 -0.12044315
000170 9d 1b 04 3d 31 da de bd 38 12 49 bd 05 c7 e4 bd
       0.032252897 -0.108814605 -0.04908964 -0.111707725
000180 ef 24 ee bc 5e dd 63 bd a9 ac 88 bd f1 2f c5 bb
       -0.029070346 -0.055631034 -0.06673557 -0.006017678
000190 02 99 97 3d 87 f3 b3 3c 8f 7b dd 3c d0 49 7d bd
       0.07402231 0.021966709 0.027036456 -0.06183797
0001a0 92 5a f1 bd 00 88 0e 3c e0 1d 01 3d df bf c2 bd
       -0.11784853 0.008699417 0.03152263 -0.09509253
0001b0 56 c6 0b bd 2c ca d4 3d 22 f1 cf bc be 43 3e bd
       -0.034124695 0.10390124 -0.025383536 -0.046451323
0001c0 e8 23 46 bd 73 51 b0 3d 5a a9 d9 bd c4 ea b2 bc
       -0.048374087 0.08609285 -0.10628004 -0.02184046
0001d0 9b bd db 3d 00 d9 39 3d 79 63 d9 bc 78 6a f9 bb
       0.10729524 0.045372963 -0.02653669 -0.007611569
0001e0 5a a4 b2 3d bc e3 ee bd 49 94 23 3c 2a ba 13 3c
       0.08722754 -0.11664531 0.009984084 0.009016553
0001f0 2b 88 86 3d 4a be 52 3d 8b 73 b6 3d 4d 4b de bd
       0.06568941 0.051451005 0.08908757 -0.10854206
000200 22 68 72 3c 9b 90 4b bb 47 b8 d5 3d 37 c8 a3 bd
       0.014795335 -0.0031061533 0.10435539 -0.07997172
000210 8b fe 9e bd 76 82 29 3d 95 5b a6 3c 95 62 ae 3d
       -0.07763394 0.041384183 0.020307342 0.08514897
000220 a1 3c d0 bc 7c 00 b1 bd d8 7e 28 bc 1e 60 48 bd
       -0.025419535 -0.086426705 -0.010284148 -0.04891979
000230 d1 94 da 3d 40 59 b6 bd 31 a3 f0 3d 8c aa 86 bc
       0.10672916 -0.08903742 0.11749876 -0.016438745
000240 e6 31 e2 bd 8a 3c c4 bd b0 66 e3 bd fd 5d 8f bc
       -0.110446736 -0.095818594 -0.111035705 -0.017500872
000250 b9 61 36 bd b7 3b 70 3c 48 fb c3 bd c5 6e 23 bd
       -0.04452679 0.014662675 -0.095694125 -0.03990056
000260 71 b2 af bd 97 8e 57 3d be 64 d0 bd e5 79 54 bb
       -0.08578957 0.05262622 -0.10175465 -0.0032421288
000270 1f 90 1d bc 14 c6 9b 3d 31 8e a0 3c a9 86 2a bd
       -0.009616881 0.0760614 0.019599052 -0.04163233
000280 dc 7d d7 bd 8d e4 0b bd 6f 7b 40 bd be f4 57 3d
       -0.10522053 -0.03415351 -0.046992715 0.05272364
000290 53 dc 1a bc 04 51 c3 bd 1f 76 87 bc 06 81 fd bd
       -0.009451943 -0.09536937 -0.016535817 -0.12378125
0002a0 15 19 08 bc fa f3 4d bd 9b 6f 91 bd f9 cb 8c 3d
       -0.008306761 -0.050281502 -0.07101365 0.06874842
0002b0 a4 71 b6 3d 45 4d fd 3d 03 6e 25 3d 57 10 b5 bd
       0.08908394 0.123682536 0.04038812 -0.08841007
0002c0 cb 40 7c bd 51 57 3b bc c5 5c 45 bc 62 9f 6f 3d
       -0.06158523 -0.011434392 -0.012046044 0.05850161
0002d0 de fd f4 bd dc 94 a7 bd da f3 91 bd 8a aa 93 bd
       -0.11962484 -0.081826895 -0.07126589 -0.07210262
0002e0 8d 32 f0 3c d2 f9 ba bd a9 4a 2a bc 81 97 cd bd
       0.02932098 -0.09129681 -0.010393777 -0.10038663
0002f0 8c 26 b9 3d 45 df c7 3d 0b ec 94 3d f6 e8 12 3b
       0.09040555 0.09759382 0.07271584 0.0022416688

weight f4 [2, 64]
000000 b8 3c f5 bd e1 5f c3 bc ed bf 88 bd ae 31 d2 bd
       -0.11974472 -0.02384943 -0.06677232 -0.10263382
000010 5c 55 19 bc aa ba 6f bd 16 96 c0 bd 3a 67 d6 3d
       -0.00935873 -0.058527626 -0.094036266 0.10468908
000020 e0 fc a8 3d bd 9a d3 bc eb 91 f4 3b bf e5 ed 3d
       0.08251357 -0.02583062 0.007463684 0.11616086
000030 76 3f 9d 3d c9 6c dd 3c d3 84 3d 3d 6e ab b8 3d
       0.0767812 0.027029412 0.04626925 0.090170726
000040 fa f0 61 bb 7f d1 54 3c 00 89 87 3d 5f e7 b0 bd
       -0.0034475909 0.012989401 0.066179276 -0.086378805
000050 bd 35 e1 bc 43 b4 81 bd 01 c0 4c 3d 91 37 53 bc
       -0.027491445 -0.0633321 0.049987797 -0.012891666
000060 d2 de 4c 3d 0c c2 e7 bd cf fa ee bb 29 18 73 3c
       0.050017186 -0.113163084 -0.0072930823 0.014837303
000070 6b 94 c4 3d 92 bd a6 bc 3e 28 ee bd c4 cd df bd
       0.09598621 -0.020354066 -0.11628769 -0.109279186
000080 18 23 99 bd a6 1c 22 bd 49 44 5c 3d 99 e3 f7 bd
       -0.07477397 -0.039578103 0.05377606 -0.12103958
000090 df 1a ca 3d 43 6c 46 3d 8e 10 8c bd d5 5b 19 bd
       0.098684065 0.04844309 -0.06839095 -0.037441093
0000a0 6c 3c 00 3e 49 16 85 3d e2 fd ca bd d0 31 df bc
       0.12523049 0.06498391 -0.099117056 -0.027245432
0000b0 2a 3f 43 3d 04 07 8a bd 4e 43 bc bd 6c f9 6d bc
       0.04766766 -0.067396194 -0.09192525 -0.014524799
0000c0 85 ad d5 3d 48 f3 95 3c 66 3b ea 3d 19 91 71 3d
       0.10433487 0.018304482 0.114371106 0.058976267
0000d0 29 85 4c bd d8 25 f6 3d 17 50 80 3d 77 bc 41 bd
       -0.04993168 0.12018937 0.06265276 -0.047298875
0000e0 2e 3c 90 bc 2f 6a 82 3d 3b 4a 85 bd 16 17 fc 3d
       -0.01760682 0.06367909 -0.06508299 0.12309091
0000f0 7c bc 22 3d da 51 42 3d e3 68 a4 3c 5c bd e7 bd
       0.039730534 0.04744134 0.020069545 -0.11315414
000100 7c fa 30 bc 37 02 8d bc 52 fe a9 3b ee 6a b7 bd
       -0.010801908 -0.01721297 0.005187788 -0.08955942
000110 15 44 9d 3d 30 b0 c2 3d 2c 28 d5 3c 36 db 1d bd
       0.07679001 0.09506261 0.026020132 -0.038539134
000120 dd 6e 62 3d 71 c0 53 bd 5f 27 ca bd 9a 65 f3 bc
       0.05528151 -0.0516972 -0.09870791 -0.029711533
000130 0e 75 bd bc 1f 50 a7 3c b0 c3 f6 3d 32 7d 91 3c
       -0.023127105 0.020423947 0.12049043 0.017759893
000140 29 df 8c bc 83 4d 32 3b 80 ec e0 3d a9 8d da 3d
       -0.017196255 0.0027206845 0.10982609 0.10671551
000150 76 b9 e8 3d be 88 0f 3d f4 27 e1 bd 8c 83 3d bd
       0.11363499 0.035042517 -0.109939486 -0.04626803
000160 35 5a 05 b9 6a e2 85 bc a3 5f d0 bd 3a 3e 3b bd
       -0.00012717473 -0.016343314 -0.10174491 -0.04571364
000170 4d b1 c2 3c cf f5 b6 3d 3d dd e1 3b 9e c3 87 3d
       0.023766184 0.08933603 0.0068928287 0.06629108
000180 2e b4 b4 3d f9 ce 92 bd 08 90 fb 3d 19 6e fa 3d
       0.08823429 -0.07168383 0.12283331 0.12228031
000190 d9 10 bf 3d c7 70 d5 bd 54 53 a9 3d 13 67 e1 3d
       0.09329385 -0.10421901 0.08267847 0.11005988
0001a0 80 64 93 bd 31 ea e5 3d 44 8b c2 3d dd ae 62 3d
       -0.07196903 0.11226309 0.09499219 0.055342544
0001b0 5a 00 1b 3b 60 22 d6 bc f9 b3 1d bd 75 76 71 bd
       0.0023651333 -0.026139438 -0.038501713 -0.05895086
0001c0 3f 9c 8b bd 7b 46 37 bd 20 6e 8d bd 85 58 20 bc
       -0.06816911 -0.04474495 -0.0690577 -0.00978673
0001d0 d7 4b b8 bd 64 dc 83 bb 47 15 ba 3d c9 50 e4 bd
       -0.0899884 -0.0040240753 0.090860896 -0.11148221
0001e0 6a a8 b9 bc f3 74 ee 3d f7 44 e9 3d 1e e9 12 3d
       -0.022663314 0.116434 0.11390107 0.03586685
0001f0 34 8a 27 bd 9a 19 73 bd 14 cc 3d bb 80 20 5b bd
       -0.040903285 -0.059350587 -0.0028960751 -0.05349779

bias f4 [2]
000000 53 b8 6a 3d ed 59 e6 bc
       0.05730469 -0.028119052

weight_ih_l0 f4 [192, 66]
000000 78 69 c9 bc 6a 69 fa 3d f2 5f 81 bd 10 25 de 3c
       -0.024586424 0.122271374 -0.06317128 0.027117282
000010 1a 95 ca bd 7a 03 aa bd 68 c8 f9 bd ca da e3 bd
       -0.0989172 -0.08301444 -0.121964276 -0.11125715
000020 42 25 25 3d 12 d9 f5 bd 33 7e b4 3d 1c fc b8 bd
       0.040318735 -0.120042935 0.08813133 -0.09032461
000030 1e b8 19 3b 10 5b 86 bc 48 a5 24 3c 56 75 8d bd
       0.002345569 -0.016400844 0.010049172 -0.06907146
000040 90 65 76 bc 44 24 b4 3d a6 26 ad 3d be 13 cc bd
       -0.015038863 0.087959796 0.08454637 -0.09964703
000050 b6 5b ba 3d a2 c7 2b 3d ac e3 a8 bc fe a3 47 3d
       0.09099524 0.04193843 -0.020616375 0.04874038
000060 ee 10 c1 bd 5c 7f dd 3d 14 45 d8 3d 0a f6 c6 3d
       -0.09427057 0.108153075 0.105600506 0.09714897
000070 00 b9 94 3d 48 75 80 3c 31 57 22 3d ba 7a 99 bd
       0.072618484 0.015680924 0.039633933 -0.07494111
000080 a8 81 57 bd 36 ca 44 bd 7e 91 db 3d e4 a9 c2 3d
       -0.052613884 -0.048044406 0.1072111 0.0950506
000090 e4 2e d9 bd 00 e4 6c 3b 1a b5 9f 3d 1a 16 f8 bd
       -0.10604647 0.003614664 0.07798214 -0.121135905
0000a0 0c e5 dc 3d b0 df ab bd be 5f f6 bd aa 00 31 3d
       0.10785875 -0.083922744 -0.1202998 0.043213524
0000b0 58 9f ba bc 40 0b 61 bc 48 51 f1 3c 0a c0 da bd
       -0.02278106 -0.013735592 0.029457703 -0.1068116
0000c0 5c ad af bc 64 4d 81 bd d4 b7 82 3d b2 96 a6 bd
       -0.021444969 -0.06313589 0.06382719 -0.081342116
0000d0 20 92 9d bd dc 02 a1 3d 08 46 d7 bd 34 70 96 bc
       -0.07693887 0.078618735 -0.10511404 -0.01836405
0000e0 90 66 e7 bc 30 fd fa bb f0 d6 91 3c 78 ea ca 3c
       -0.028247148 -0.007659577 0.017802685 0.024770007
0000f0 ec ed e5 3c f2 59 c1 3d 29 f3 dd bc 30 fd 71 3d
       0.028067552 0.09440984 -0.027093487 0.05907935
000100 69 e4 d2 3d 21 11 d4 3c aa 3b e6 bd f8 be eb 3c
       0.10297472 0.025887074 -0.11241849 0.028777584
000110 bc 60 b2 bd c8 1b 32 bd c2 e0 9c bd 60 0c 57 3d
       -0.08709857 -0.043483526 -0.07660057 0.052502036
000120 88 ff 38 3d 60 f0 fd 3b 5f 6b ee bb 40 66 ef 3c
       0.04516557 0.007749602 -0.007275983 0.029223561
000130 3c 35 c9 bd f4 f7 6b bd 69 4c c9 bd 4e 5e f5 3d
       -0.09824607 -0.057609513 -0.09829027 0.11980878
000140 81 35 61 3c 8c 76 ed 3d d4 8f b9 3d cd e7 7b 3d
       0.0137456665 0.11594877 0.09060636 0.06150036
000150 a8 59 f4 3c b4 b1 02 3d 1c 9f 81 bd 98 cb 21 bd
       0.029827908 0.031907752 -0.06329176 -0.039500803
000160 30 3a 24 3d 6b b3 b7 3d 00 08 14 bd d8 ca e2 bd
       0.040094554 0.08969768 -0.036140442 -0.110738456
000170 e8 7a e8 bc 08 14 40 3d b8 ef 91 bd 2e 14 fa 3d
       -0.028378919 0.046894103 -0.07125801 0.1221088
000180 2a 67 d1 3d 2e 32 c7 bd 88 03 e6 bd d3 9e ca bd
       0.10224755 -0.09726368 -0.11231142 -0.098935746
000190 53 81 b1 bd 4b 97 e7 3d b2 c6 cc 3d 4e f5 bc bd
       -0.08667245 0.11308154 0.099988356 -0.09226476
0001a0 28 a6 c9 3d 81 55 6a bb e0 7e 57 3d 64 06 7c 3d
       0.09846145 -0.003575653 0.05261123 0.061529532
0001b0 9c c0 2d bd f5 80 de 3d b2 43 c1 bd a0 f6 89 3b
       -0.042420015 0.1086444 -0.0943674 0.004210308
0001c0 c8 e2 cb 3c e0 f3 79 3d 65 13 f1 bd 32 6a fc 3d
       0.024888411 0.061023593 -0.11771277 0.12324943
0001d0 81 7f f4 bd a3 3e fe 3d 80 c2 be bc b8 dc a8 3d
       -0.11938382 0.12414291 -0.023286104 0.08245224
0001e0 23 c8 86 bd 6c e1 7b bd 40 8e 6d bd f3 38 bb bd
       -0.06581142 -0.061494276 -0.05799699 -0.091417216
0001f0 20 7e bb bb 8e e0 fe bd c0 bb 67 bd b8 9c 88 bc
       -0.0057218224 -0.12445174 -0.056575537 -0.016676292
000200 b7 4b 28 3d f0 c4 19 3c 67 b7 60 bd 8e 8e cf bd
       0.041087832 0.009385332 -0.054862406 -0.10134612
000210 ca bd f3 3d af 5f 51 bd e8 7b 93 3c d4 1f 2f 3d
       0.11901434 -0.05111664 0.018003419 0.042754963
000220 26 da e0 bd 5b fe ce 3d 28 73 c3 bd f8 4b 96 3d
       -0.109791085 0.10107108 -0.09543449 0.07338709
000230 f5 a6 a3 bc 35 85 23 bd 1c 7b 1e bc a0 a1 cb bc
       -0.019977072 -0.039921958 -0.009672906 -0.024857342
000240 49 28 b0 3d d4 e6 71 3d 55 33 4d 3d 30 aa 4e 3d
       0.08601434 0.059058025 0.050097782 0.050455272
000250 4c f5 d3 3d 3d f4 8c 3d 98 cc c7 bd c0 67 f3 3b
       0.10349521 0.06882522 -0.0975582 0.0074281394
000260 7e d8 af bd 45 46 e5 bd 0d b9 f4 bc 3b 60 f9 bd
       -0.085862145 -0.111950435 -0.029873395 -0.12176558
000270 8b a7 11 bc 40 59 92 bb 78 c0 d5 bd d4 04 f0 bd
       -0.008890043 -0.004466206 -0.10437101 -0.11719671
000280 fc 1e 49 3d 4c df 52 3d 6f 7a ee bd 48 fb 95 3d
       0.049101815 0.051482484 -0.11644446 0.07323319
000290 28 2b bc bc 9b 40 9e bd 23 e9 9f 3d 23 44 78 bd
       -0.022969797 -0.07727166 0.07808139 -0.060611855
0002a0 06 16 e3 3d 90 c1 ed bc e2 1d c7 bd 15 02 a7 bd
       0.11088185 -0.029022962 -0.097224966 -0.08154694
0002b0 54 8e 3f 3b 55 62 8f bb c2 41 a6 3d 8f c9 dc 3d
       0.0029229121 -0.0043757358 0.08118011 0.10780632
0002c0 e0 af f4 bc 68 4c 4b 3d a0 33 9c 3d 43 87 aa 3d
       -0.02986902 0.049633414 0.07627034 0.083265804
0002d0 4d 97 a5 bd 98 04 87 3c 8d b5 05 bd 61 2d 60 3d
       -0.08085499 0.016481683 -0.032643843 0.054730777
0002e0 88 b5 bd 3d 00 d4 44 bd b6 df dc bb b9 68 44 bd
       0.0926314 -0.04805374 -0.0067405356 -0.047951434
0002f0 0c 38 a5 3d 13 79 7d bd 50 bb bc bc 9c 96 94 3d
       0.08067331 -0.061883043 -0.023038536 0.07255289
000300 db 4f 75 bd bb b6 7f 3c cc dc a1 3d fe fe e6 3d
       -0.05989061 0.015607531 0.07903442 0.11279105
000310 db 97 4b 3c c2 e4 63 3d dc 6f 9c bd 2f 0a 91 3c
       0.012426342 0.055638082 -0.07638523 0.017705051
000320 00 40 4c bd c6 ea 89 3d 60 2d b4 3b 41 a1 bf 3c
       -0.049865723 0.067342326 0.005498573 0.023392322
000330 f0 58 f2 bd cc 9f 7b 3d 98 7d 42 bd 8d 73 7c bc
       -0.1183337 0.06143169 -0.047483057 -0.015408409
000340 c2 af 89 bd 98 cc 2c bd f0 19 8b bc 40 21 0d 3d
       -0.06722976 -0.042187303 -0.016980141 0.034455538
000350 84 87 b4 3d 32 d5 f6 3d ec 45 a5 bd c1 ed 97 3c
       0.0881491 0.120523825 -0.08069977 0.018545987
000360 1c 1b e2 bd 84 cd 06 3d 64 10 e2 3d 8c d7 2a bd
       -0.11040327 0.03291084 0.110382825 -0.041709468
000370 69 96 fa bc a9 90 c3 bc 96 d0 f3 3d c2 fd bd bd
       -0.0305893 -0.02387269 0.11905019 -0.09276916
000380 18 d2 f5 bd 7c bb db bd 40 b3 5c 3c cc 00 0e bd
       -0.12002963 -0.10729119 0.013470471 -0.03466873
000390 cb 2e ee bc e0 f7 7a 3d a8 9d d1 bd c0 be d9 3d
       -0.029075047 0.06127155 -0.10235149 0.10632086
0003a0 3f c1 cd 3b 87 72 99 3c e8 b8 39 3d 2e 23 fd 3d
       0.0062791402 0.018731369 0.045342356 0.123602256
0003b0 40 87 e3 bc 48 26 31 bd 9f 8a d7 3b 42 52 87 3d
       -0.027774453 -0.0432494 0.006577804 0.06607486
0003c0 b8 ca 56 bd 87 a5 84 3c 88 77 a2 bd 70 10 21 bd
       -0.05243942 0.01619221 -0.07932955 -0.039322317
0003d0 f8 97 a8 3c 12 ef cd 3d 2c 69 ba bd d6 4a ec 3d
       0.020580277 0.10055365 -0.09102091 0.11537711
0003e0 60 b4 f7 3d 20 ca 92 bd c8 af 60 3d 6e b2 99 bd
       0.12094951 -0.071674585 0.054855138 -0.07504736
0003f0 d6 1b 94 3d 3a bc a4 bd 46 bc a7 bd 16 e1 96 3d
       0.07231872 -0.08043714 -0.08190207 0.073671505

weight_hh_l0 f4 [192, 64]
000000 9f f5 85 3b 31 f3 49 3d 9e b0 f2 bd 01 22 32 bd
       0.004088118 0.04930419 -0.11850093 -0.04348946
000010 2d e0 a8 3d dc 65 cc bd 7b c2 d0 3c ee 1a 2c 3d
       0.08245883 -0.09980366 0.02548336 0.04201787
000020 fa d6 c2 bd 32 76 b3 3d 4b 36 fd 3c 20 ad d5 bb
       -0.0951366 0.08762778 0.030909678 -0.0065208822
000030 59 6a 71 bd 7b 37 4f 3a 99 17 29 bd 1e d3 3a 3d
       -0.05893931 0.00079046906 -0.04128227 0.045611493
000040 60 19 3d 3c 05 b3 f4 3d 53 c7 66 3d 87 e3 59 3d
       0.011541694 0.11948208 0.056342434 0.053195503
000050 a7 ce 21 bd 0c aa d9 3d 12 d6 de 3d c2 b2 ee 3d
       -0.03950372 0.10628137 0.108806744 0.11655189
000060 8f 0d e0 bd 9d 93 03 3e 63 f3 ed 3d fd bc 8c bd
       -0.10940086 0.12849279 0.11618688 -0.06871984
000070 f2 a5 ea bc e3 3a 9c bd 52 7a 8a bd 22 7f a0 3d
       -0.028643582 -0.07628419 -0.06761612 0.07836749
000080 18 ef d3 3c 15 44 d5 bd af e0 e1 3d 4f 53 5f 3d
       0.025870845 -0.10413376 0.11029183 0.05452281
000090 72 82 e6 bc 19 0a 9b bd 01 62 2a 3d 91 1c d1 bd
       -0.028138373 -0.07570285 0.04159737 -0.10210527
0000a0 fa 3f d7 bd e8 62 01 be 94 fe cc 3d d0 22 9f bd
       -0.105102494 -0.12635386 0.100094944 -0.07770312
0000b0 71 fb 88 3d f4 37 73 3d 76 23 54 3a 1b 94 c7 3d
       0.06688584 0.059379533 0.00080924423 0.09745046
0000c0 44 66 82 3d 28 1b b5 3d 90 88 9b bd f4 15 e8 3d
       0.06367162 0.0884307 -0.075944066 0.11332312
0000d0 85 4d f8 bd 49 44 72 bc 25 63 0f bd c5 cd c9 bc
       -0.12124161 -0.014786788 -0.03500666 -0.024634251
0000e0 66 ba a4 bd 0e 0d 1c bd 5e 0b ea bb ff 2d f7 3d
       -0.08043365 -0.038098387 -0.0071424684 0.1206932
0000f0 0c f3 89 3d 42 fc 2f 3d 52 fe 9f 3d 1d a0 e9 3d
       0.06735811 0.04296518 0.078121796 0.11407492
000100 d3 01 14 bd 5d 59 1e 3d 00 fd 54 3d 5a 8c d0 3d
       -0.036134552 0.038659442 0.051999092 0.1018302
000110 07 26 e3 bd f2 6d 58 bd 03 d7 aa bd 03 1c 3b bd
       -0.110912375 -0.052839227 -0.083417915 -0.04568101
000120 56 3e fd bd 82 cb 97 bd 28 26 14 3d 39 60 d6 b9
       -0.12365405 -0.07411863 0.0361692 -0.00040888952
000130 dc 12 f9 3d 3c 4a c4 3d 06 30 0f 3c 7c fa 4e 3d
       0.121618 0.095844716 0.008739477 0.05053185
000140 e6 df 28 3d e3 9a b6 3d ea 74 59 3d 98 ad c6 bd
       0.04122915 0.08916261 0.053090014 -0.09701079
000150 2e ed 03 3d 9f 56 5c 3d 64 cc d3 3d 98 ff c2 bd
       0.032208614 0.053793546 0.10341719 -0.09521407
000160 e0 1b 00 be 56 50 d6 3d bd 54 07 bd 88 ea c7 bc
       -0.12510633 0.104645416 -0.033039797 -0.024403825
000170 dd f2 d1 bd 4b 01 ce bd ef fe 17 3c 1d da ee 3d
       -0.102514006 -0.1005884 0.0092770895 0.116626956
000180 ca 58 c7 3c 22 f0 d7 3b 24 6e b7 bd 4d c3 fa 3b
       0.02433433 0.0065899054 -0.089565545 0.007652676
000190 8a f0 b2 ba be cb 15 ba 03 ea 12 3c e3 1c bc 3d
       -0.0013652008 -0.0005714259 0.008966926 0.09185197
0001a0 b8 b6 bb 3b b1 31 f5 3d d7 c0 29 3d 02 7d 48 bd
       0.005728569 0.119723685 0.041443672 -0.04894734
0001b0 9b f8 c8 bd 3b de c4 bd d3 e4 9d bd 25 1c be 3d
       -0.09813043 -0.096126996 -0.077096604 0.09282712
0001c0 7f 27 85 bd 17 81 2f 3d cb 28 32 bc 8d 1e f2 3d
       -0.06501674 0.04284772 -0.010873984 0.11822233
0001d0 0d 41 dd bc 4e c1 5b bd 3e 3e 22 bd d4 3d fa 3d
       -0.027008558 -0.053651147 -0.03961014 0.12218824
0001e0 3b b6 de 3d 8e eb 35 3d 7e 4d 77 3c 33 13 26 bd
       0.108746015 0.044414096 0.015094159 -0.040545654
0001f0 1f 15 9a 3d 71 48 89 3d 22 90 f5 bd 39 71 bd 3d
       0.0752356 0.0670327 -0.11990382 0.09250111
000200 40 ba 17 3d 5e 90 ee 3d 0c 7b ff 3c ce be a4 3c
       0.037042856 0.116486296 0.031186603 0.020110514
000210 f1 09 b1 3d c9 e7 48 3d 07 e7 84 bd 88 20 8d 3d
       0.08644474 0.049049173 -0.064893775 0.068909705
000220 1e e4 91 bd e0 b5 e2 3d 8f dd ce 3d fd c8 8e bd
       -0.07123588 0.11069846 0.10100853 -0.06971929
000230 bc 42 80 3d 72 ce e4 3d c5 6e e0 3d 98 90 d2 bd
       0.062627286 0.11172189 0.109586276 -0.10281485
000240 42 1c 02 bd ee 94 13 3d a4 f3 70 bd 0b 1b e3 3d
       -0.03176523 0.036030702 -0.058826104 0.110891424
000250 9c cc da 3d c4 e2 9a bc 99 59 f3 3d 78 28 e9 bd
       0.106835574 -0.018906958 0.11882324 -0.11384672
000260 a5 91 b9 3d c0 71 62 3d 74 b5 e9 3d 23 27 d1 bd
       0.090609826 0.05528426 0.114115626 -0.10212543
000270 14 b0 b5 bd 27 17 aa bd 4e ff 31 3d df d0 c0 3c
       -0.08871475 -0.08305197 0.04345637 0.023537097
000280 18 16 dd bc 0c 4b b3 3d b6 d5 af 3d 2b 5a 20 bc
       -0.026988074 0.087545484 0.08585684 -0.009787123
000290 4a 97 24 bd 5c 4e c9 3d 83 74 f9 3c 7f e1 8a 3d
       -0.040183343 0.09829399 0.030451065 0.06781291
0002a0 0b 55 01 3e da cd 64 3d 8c 90 cf 3d 18 87 81 3d
       0.12630098 0.055860378 0.10134992 0.06324595
0002b0 25 c8 a9 bd b9 ec 9a bd dd 4c dd 3d 8d 89 d1 3d
       -0.08290128 -0.075646825 0.10805676 0.10231314
0002c0 73 64 8b 3a 15 2c d9 3d 97 09 e1 bb 9b bb 6a 3d
       0.0010634795 0.10604111 -0.0068675983 0.05730782
0002d0 de c7 bd bd d4 66 db bd 6c 5a b8 bd 0d 35 1c bd
       -0.09266637 -0.10712972 -0.090016216 -0.03813653
0002e0 72 11 b5 3c 3b a3 24 bc a1 d4 f4 3d d5 09 8b bd
       0.022103045 -0.010048683 0.11954618 -0.06788985
0002f0 31 24 e9 3d 1d fe 52 bd 96 92 fd 3d a6 2c f6 bd
       0.11383856 -0.051511873 0.12381475 -0.12020235
000300 09 81 27 bd d0 13 b6 3d d8 71 a0 3d 99 4b e4 3d
       -0.040894542 0.08890498 0.07834214 0.111472316
000310 01 0f 9a bd 77 65 ba 3d 29 d7 73 3b b2 65 b2 3d
       -0.07522393 0.09101384 0.0037207103 0.08710803
000320 7f f9 b0 bd ad fc b1 bd 5e ff 08 bd 4e cd 5c 3d
       -0.086413376 -0.08690772 -0.033446662 0.05390673
000330 6e 45 67 bd c2 24 b8 bd 3c cf 8e 3d 30 48 9a bc
       -0.056462698 -0.08991386 0.069731206 -0.01883325
000340 68 bd b2 bd 97 cf b9 bd ae c1 c0 3a ca 9c d9 bc
       -0.087275326 -0.09072798 0.0014706159 -0.02656402
000350 9f a2 a0 3d 04 bc fb 3d 3b ca 9d bd 38 a7 92 bd
       0.078435175 0.122917205 -0.07704588 -0.07160801
000360 65 cd 81 bc a9 25 bf bd a7 75 6a bd f8 60 c3 3d
       -0.01584501 -0.09333355 -0.05724111 0.0953998
000370 ba 58 d6 3d a7 c8 c7 3d 43 e9 c4 3d be 75 88 bd
       0.10466142 0.09755068 0.09614804 -0.066630825
000380 98 ca 8a 3b 7a 2b 07 bb 3d 18 74 3d 2b 27 e4 3b
       0.004235577 -0.002062528 0.059593428 0.006962677
000390 fb 67 dd bc d6 27 e6 bd 1e bf 02 be 16 cb 92 3d
       -0.02702712 -0.11238067 -0.12768218 0.07167642
0003a0 bf 80 b9 bd 17 38 69 3d 98 3b 1d bd 21 f6 bc 3d
       -0.090577595 0.056938257 -0.03838691 0.09226633
0003b0 16 74 d4 bb 11 fc ec 3d 7e ab 9e bd 18 ed a5 bd
       -0.006483565 0.11571515 -0.07747553 -0.08101863
0003c0 ae 0f c2 bb 79 fa 88 3d 23 de b7 3c 29 dd f3 bc
       -0.0059222793 0.06688399 0.02244479 -0.029768543
0003d0 02 25 89 3c e2 1b b3 3d d5 28 46 3c 9b 3e cb 3d
       0.01674128 0.087455526 0.012094696 0.099240504
0003e0 09 e6 b4 3c 1c 88 96 3d 07 a1 24 3d cb 5b e3 bd
       0.022082346 0.073501796 0.04019263 -0.111014925
0003f0 05 5f 92 bd 91 4e 9f bd f5 4f 4e 3c 89 e8 72 bd
       -0.0714703 -0.07778657 0.012592305 -0.059303794

bias_ih_l0 f4 [192]
000000 e8 de 2d bc c1 5a 1b 3b ed d0 c5 bd cc e4 af bd
       -0.010612227 0.0023705217 -0.0965899 -0.085885614
000010 40 79 7f 3d 3f 1b 03 bd c5 f4 e6 3d 9d 91 bb bc
       0.062371492 -0.032008406 0.11277155 -0.022896582
000020 dc bf eb 3d 74 d7 e8 bd d2 39 e3 bd b6 a8 d7 bb
       0.11511204 -0.113692194 -0.11095013 -0.006581391
000030 cd d5 b7 3d a8 8f bc bc 5e 62 0f 3a c4 ec df 3c
       0.08976326 -0.02301772 0.0005469675 0.027334578
000040 2c 53 b8 3d 34 29 d7 3d e3 ac bf bd e1 8a 59 3d
       0.09000239 0.10505906 -0.093591474 0.05311096
000050 f4 32 c7 3d 9e f0 b7 bd 4d a2 9f bd 76 47 b4 3d
       0.097265154 -0.08981441 -0.07794628 0.088026926
000060 db 05 fd bd 86 9e 2f 3d e4 88 3e 3d 66 a0 cc 3d
       -0.123546325 0.04287579 0.046517268 0.09991531
000070 72 00 c5 bd 65 09 09 bd 76 af 36 bc 0e df c5 3d
       -0.096192256 -0.033456225 -0.011150232 0.09661685
000080 3f 2f a3 bd 89 43 fe 3c f0 14 b7 3d b5 f4 39 bd
       -0.07967996 0.031038063 0.089395404 -0.045399386
000090 67 ad e9 3d 66 af 85 bd ec 7c 7f bd 45 e7 11 3d
       0.11410027 -0.06527595 -0.062374994 0.035620946
0000a0 7c 2c aa 3d c7 ad b6 3d bf 5a 68 3d 4f 4f 70 3d
       0.08309266 0.08919864 0.056727167 0.058669385
0000b0 3e a0 c4 bc d1 73 97 3c 67 d5 9b bd 9d b2 e1 bd
       -0.02400219 0.018487843 -0.07609063 -0.11020396
0000c0 28 e7 76 3d c0 b8 cf bd 99 53 f5 3d eb e2 e1 3d
       0.06027904 -0.1014266 0.119788356 0.11029609
0000d0 c0 9d b5 bd 43 cd d7 3d f3 11 d2 bd a5 21 61 3d
       -0.08867979 0.105371974 -0.1025733 0.054963727
0000e0 72 c4 6c 3d 0a b7 04 bd 2a 8d d9 3d 01 5a df bd
       0.057804532 -0.032401122 0.10622628 -0.10905839
0000f0 ac 6d b5 bd f2 f5 a2 3d 1d 54 af 3c 72 77 d3 bb
       -0.08858809 0.079570666 0.021402413 -0.006453448
000100 48 3d 80 3b b1 8a 12 3d fd c7 1b 3d f3 db 3a 3d
       0.0039135553 0.035776798 0.03803252 0.045619916
000110 f6 7d e0 bc 5f a4 c4 3d 74 90 be 3c b5 f9 c0 3d
       -0.027403813 0.09601664 0.02326224 0.09422628
000120 a6 aa b1 bc fd ec c5 bd 5d 4d ac 3d 65 63 19 bc
       -0.021687817 -0.096643426 0.084131934 -0.009362076
000130 0f 8c 05 bd a0 7d 3e 3d 7a 51 85 3b aa b2 e9 bc
       -0.032604273 0.046506524 0.0040685507 -0.028527576
000140 cf b0 dc bc e6 d3 a4 bb 99 8e e8 3d d0 2e f8 3d
       -0.026939778 -0.005030143 0.11355323 0.12118304
000150 c8 ed 23 3d bf f5 fd bd c0 44 35 bd f0 93 d4 3d
       0.040021688 -0.12400388 -0.04425502 0.10379779
000160 ae 06 cf bd 27 27 e9 3d 5f 81 f6 bc ff 67 58 3d
       -0.10108696 0.11384421 -0.030090986 0.052833553
000170 90 86 a2 3d 40 23 f7 bd 9c 32 b0 3d 59 54 30 3b
       0.07935822 -0.1206727 0.08603403 0.0026905744
000180 d6 a1 d6 bd fd 23 31 3c f0 a3 99 bc 3b 8b a3 bd
       -0.104800865 0.010811803 -0.01875493 -0.079855405
000190 24 28 47 3c d4 7e c1 bd ce 3f f0 3d 3b 1d cb bd
       0.012155566 -0.09448019 0.1173092 -0.09917685
0001a0 19 9d 8d bd 98 b6 b2 bc 14 17 9b 3d 21 db 82 bd
       -0.069147296 -0.021815583 0.07572761 -0.06389452
0001b0 a2 80 61 3d 72 18 37 bd ba 0f ad 3b 3f ee 08 3c
       0.055054314 -0.044701047 0.005281416 0.008357584
0001c0 1b 74 c5 bd 1f 4f ca bd 39 ed 28 bc fe e1 50 3d
       -0.09641286 -0.098783724 -0.010310465 0.050996773
0001d0 fe 72 49 3d fd b5 9e bd f7 37 ff bc a6 ad dd bc
       0.04918193 -0.07749555 -0.031154616 -0.027060341
0001e0 8d f9 6e 3c 32 2e 83 3d a4 47 de bd b6 34 96 3d
       0.014585865 0.064052954 -0.10853508 0.073342726
0001f0 f6 12 8d bb f0 e4 86 3b f0 da d3 3c 53 0f 54 bd
       -0.004305239 0.004116647 0.025861233 -0.051772427
000200 68 69 84 3b 08 a5 92 3d 55 17 32 bd 50 e7 c0 3d
       0.0040408857 0.071603835 -0.043479282 0.09419119
000210 02 94 23 bd 24 09 b0 bd e0 e3 8f bd 6c 0e 61 3d
       -0.039936073 -0.085954934 -0.070258856 0.054945394
000220 57 c0 8f bd 0d 0b 00 be 85 f4 6f 3d d7 60 77 3d
       -0.07019108 -0.12504216 0.0585828 0.060395088
000230 3d c4 5b 3c 15 1c 99 3c f6 fd bb 3d 2b c3 ac 3d
       0.013413486 0.018690148 0.091792986 0.08435663
000240 95 9e e1 bd 5c 31 d3 bd 04 a7 39 bc 83 74 2c 3d
       -0.11016575 -0.10312149 -0.0113313235 0.0421033
000250 db 9f ea 3a 7a 4e f4 bd b8 9e 48 3d f9 52 f2 bd
       0.0017900424 -0.11929031 0.04897949 -0.11832232
000260 07 24 c7 bb df d0 bf 3c 89 ce 49 bd 5f c4 c0 3d
       -0.006077293 0.023415027 -0.049269233 0.09412455
000270 61 a8 eb 3d 63 a9 eb 3c 52 38 b1 ba e4 cf b4 3d
       0.11506725 0.028767293 -0.0013520813 0.088287145
000280 20 38 99 bc 39 c6 dc bc bd fe f1 bd 3f 63 56 bc
       -0.01870352 -0.026949989 -0.118161656 -0.013085186
000290 9c e5 03 3b 8d d1 90 3d d4 0f e4 3d 51 c0 76 3b
       0.0020125872 0.07071219 0.111358315 0.003765125
0002a0 e5 b7 a1 bd 0d ab 5d 3d d4 93 b9 bc 30 25 53 3d
       -0.07896403 0.054118205 -0.022653498 0.051549137
0002b0 dc 8d bc bd a3 6d 8d 3a 7b ac 2a bc 32 2f 90 3d
       -0.09206745 0.001079012 -0.010417099 0.07040252
0002c0 d8 f4 83 3d d1 ac 6f bc 0f 13 8a 3c e0 ce d9 3d
       0.064431846 -0.014628605 0.016854791 0.106351614
0002d0 a0 61 b0 3c 23 75 09 3d c3 42 a5 3c 8c 43 72 3d
       0.021530926 0.033558976 0.020173436 0.05914645
0002e0 c0 44 d0 bd 65 d4 87 bd 20 e9 ad 3d d2 53 e0 bd
       -0.10169363 -0.06632308 0.08491731 -0.109534875
0002f0 ca c3 a0 3b 4d 23 ac 3d fe ae f0 bd 80 50 02 3e
       0.0049061524 0.084051706 -0.11752127 0.12726021
