models/one_month_new_trial/checkpoint/trained_irdpg_8.pth (torch, 409330 bytes, 22 tensors)

weight_ih_l0 f4 [192, 64]
-0.03759928 0.041252073 0.08815624 -0.08159152 0.05907853 0.013723126 -0.08299485 -0.10037322
0.032278534 0.063544534 0.090983756 0.061642274 0.07674851 -0.037432685 -0.017856501 -0.10708313
0.10608882 0.07579892 -0.05128108 0.07069899 0.015039176 0.09205214 -0.015119528 0.043933433
-0.09573258 0.06837413 -0.10536672 0.009896249 0.11918375 0.055849448 0.058144018 -0.06529717
-0.11472261 -0.034135606 0.040591266 -0.038892213 -0.07821624 -0.09825961 0.08908436 0.10817992
-0.080533095 0.047572937 0.015461132 -0.044390116 -0.12062821 -0.04390964 -0.115152955 -0.0034889346
-0.06518339 -0.01766637 0.024129398 0.0262158 0.084216386 0.051098973 0.097475804 0.08801418
-0.10708004 0.040877607 -0.07870425 0.06751177 0.09575809 -0.11714614 0.10778069 -0.106415
-0.026155725 0.11178831 -0.10087049 -0.015887305 0.089488536 0.084226884 0.112227485 -0.057044208
-0.050215423 -0.07527315 0.07339054 0.09438376 -0.09244784 0.018641353 0.09303639 0.12363766
-0.033762068 -0.07739636 -0.06271294 0.105614156 -0.059485212 -0.075440414 0.06381876 -0.11887466
-0.099093206 0.05716732 0.03860797 -0.10648778 -0.05727151 -0.014381766 0.027776966 -0.044677287
0.09772013 -0.110894226 -0.068151034 -0.10541547 -0.09343262 -0.10188186 0.022967383 -0.06454494
0.12522443 -0.06804081 0.012102857 -0.09456798 -0.0027175248 -0.12323652 -0.0030688196 -0.036129683
-0.08573968 0.09389533 0.08030964 -0.105487145 0.07031883 0.0883567 -0.041332692 0.073838726
0.06023012 -0.120491855 -0.07898773 -0.07959354 -0.11766673 -0.11428415 0.0006164948 0.095416725
-0.052622974 -0.12121526 -0.00018073618 -0.08317603 0.0068709403 -0.06381891 0.005577028 0.011890963
-0.030109867 -0.09791932 0.07119145 -0.05493833 0.08768911 -0.047101706 -0.11925664 0.07747762
-0.08039035 0.08057266 -0.110284895 0.117451176 -0.1009717 0.058135886 0.057309825 0.0060306494
0.04539526 0.047236755 -0.035761446 -0.08387332 0.117018625 0.051633403 0.0918588 -0.10520013
-0.12308782 -0.07629637 -0.023553729 0.08524864 0.0059844702 -0.08534846 0.06631875 0.0804401
-0.09909902 0.08108502 0.10867289 0.022831514 -0.06684916 0.07459818 -0.0075911134 0.088806726
-0.0867786 -0.055860266 0.036618616 0.10119041 -0.12455143 0.046273053 0.023437098 0.054608315
-0.11628801 -0.08275791 -0.09970537 -0.10756844 0.08428664 -0.023942485 -0.06211651 0.05849822
0.03201507 -0.095828205 0.029146567 -0.0022229701 0.033721074 0.042680178 0.018355563 -0.028448984
0.029897803 -0.030020038 -0.06007066 0.05622916 0.10363011 0.084393725 0.018271634 -0.013353944
0.0360457 -0.12210051 -0.116423905 -0.123707905 0.09976202 0.054633867 0.11465746 -0.044429783
0.009802187 -0.099694565 0.05620745 0.08246112 -0.09465106 -0.06722866 0.1098389 -0.047963858
-0.003667146 0.023412814 0.038351726 -0.066421375 0.0280312 0.09936038 0.10619646 -0.024036253
0.01756292 -0.0974334 0.069516495 -0.09028092 0.061862484 -0.11979258 -0.070962995 0.03010949
-0.11775237 -0.035760164 0.06527446 0.0019130497 -0.053616926 -0.0688995 -0.08607085 0.052855153
0.07281326 0.0009827256 0.075528026 -0.032299325 -0.08970635 -0.024192715 -0.042300947 -0.0619234
00000000: b401 1abd eff7 283d 428b b43d 7419 a7bd
00000010: 54fc 713d f6d6 603c 34f9 a9bd 7a90 cdbd
00000020: 7f36 043d a323 823d b155 ba3d 9c7c 7c3d
00000030: 532e 9d3d 0453 19bd cc47 92bc 664e dbbd
00000040: 1845 d93d 773c 9b3d 1c0c 52bd a2ca 903d
00000050: e066 763c d585 bc3d e6b7 77bc 8bf3 333d
00000060: 710f c4bd bc07 8c3d 82ca d7bd e023 223c
00000070: 9c16 f43d 64c2 643d 6c28 6e3d 86ba 85bd
00000080: b0f3 eabd c7d1 0bbd 0743 263d 714d 1fbd
00000090: d62f a0bd 563c c9bd dc71 b63d 6f8d dd3d
000000a0: 89ee a4bd d7db 423d b050 7d3c 69d2 35bd
000000b0: ec0b f7bd 98da 33bd 50d5 ebbd 9ca6 64bb
000000c0: df7e 85bd 10b9 90bc 04ab c53c 84c2 d63c
000000d0: a479 ac3d 284d 513d 65a1 c73d c740 b43d
000000e0: c84c dbbd 476f 273d b22f a1bd 9c43 8a3d
000000f0: d11c c43d 51ea efbd 1fbc dc3d 1cf0 d9bd
00000100: 8844 d6bc 45f1 e43d 3095 cebd 1826 82bc
00000110: c445 b73d 257f ac3d 86d7 e53d 30a7 69bd
00000120: b0ae 4dbd cf28 9abd c84d 963d 464c c13d
00000130: 4b55 bdbd c0b5 983c dd89 be3d be35 fd3d
00000140: 184a 0abd fc81 9ebd a46f 80bd 3c4c d83d
00000150: c4a6 73bd 8180 9abd 69b3 823d 8f74 f3bd
00000160: 61f1 cabd 4828 6a3d 6423 1e3d 4416 dabd
00000170: 8895 6abd 80a1 6bbc 858c e33c 88ff 36bd
00000180: 7e21 c83d 831c e3bd c592 8bbd 11e4 d7bd
00000190: 9a59 bfbd 70a7 d0bd 1826 bc3c 2330 84bd
000001a0: d53a 003e fb58 8bbd 104b 463c dbac c1bd
000001b0: 8018 32bb 6e63 fcbd 401e 49bb b8fc 13bd
000001c0: 4998 afbd 324c c03d 6179 a43d a509 d8bd
000001d0: 5203 903d 5cf4 b43d 784c 29bd c238 973d
000001e0: dcb3 763d 6fc4 f6bd 52c4 a1bd f001 a3bd
000001f0: 41fb f0bd cf0d eabd 449c 213a d869 c33d
00000200: 308b 57bd b53f f8bd 0084 3db9 3258 aabd
00000210: a025 e13b 7db3 82bd 80bf b63b 50d2 423c
00000220: f8a8 f6bc ed89 c8bd d3cc 913d 0407 61bd
00000230: 5996 b33d b8ed 40bd d33c f4bd 96ac 9e3d
00000240: b2a3 a4bd 4703 a53d 0cdd e1bd 3e8a f03d
00000250: 40ca cebd e51f 6e3d b5bd 6a3d c19c c53b
00000260: 61f0 393d 547b 413d 987a 12bd c6c5 abbd
00000270: 76a7 ef3d 8c7d 533d 7720 bc3d 2a73 d7bd
00000280: 7815 fcbd 4541 9cbd c0f3 c0bc d796 ae3d
00000290: 6019 c43b 2ccb aebd 20d2 873d c7bd a43d
000002a0: 6df4 cabd e70f a63d e48f de3d 2809 bb3c
000002b0: 36e8 88bd eec6 983d e0be f8bb 4de0 b53d
000002c0: fbb8 b1bd bccd 64bd 67fd 153d eb3c cf3d
000002d0: d214 ffbd d088 3d3d 28ff bf3c f8ac 5f3d
000002e0: 6828 eebd fb7c a9bd 5432 ccbd d84c dcbd
000002f0: 799e ac3d 0823 c4bc e26d 7ebd d49b 6f3d
00000300: 3c22 033d 9441 c4bd c8c4 ee3c 40af 11bb
00000310: 1c1f 0a3d 69d1 2e3d 685e 963c d80d e9bc
00000320: 3dec f43c 95ec f5bc a70c 76bd 8c50 663d
00000330: 063c d43d 9ed6 ac3d 65ae 953c 80ca 5abc
00000340: a8a4 133d d50f fabd a86f eebd 925a fdbd
00000350: 0850 cc3d c3c7 5f3d 88d1 ea3d 01fc 35bd
00000360: 5a99 203c aa2c ccbd c839 663d 60e1 a83d
00000370: 6ad8 c1bd 2eaf 89bd 38f3 e03d c075 44bd
00000380: 8054 70bb 3bcc bf3c b316 1d3d ee07 88bd
00000390: b0a1 e53c 747d cb3d 887d d93d ade7 c4bc
000003a0: 1de0 8f3c 2a8b c7bd aa5e 8e3d 34e5 b8bd
000003b0: 8463 7d3d d055 f5bd 0c55 91bd 2da8 f63c
000003c0: 2828 f1bd 4079 12bd 9eae 853d 4cbf fa3a
000003d0: 6c9d 5bbd 2e1b 8dbd ea45 b0bd a57e 583d
000003e0: 1e1f 953d cdce 803a 70ae 9a3d 4c4c 04bd
000003f0: f6b7 b7bd cd2f c6bc c243 2dbd 64a3 7dbd

weight_hh_l0 f4 [192, 64]
0.021251442 -0.11742413 0.039010346 0.028009664 0.0861812 0.11808538 0.083339095 0.06943868
0.072912715 -0.027325403 -0.0733316 0.117237896 0.0015220179 0.054893687 0.02046316 0.021338819
-0.08166761 0.110982865 0.042800784 -0.08614776 0.07120204 0.05004654 -0.10058546 -0.04367994
0.11401193 -0.06768863 -0.012611892 -0.09723835 -0.08309176 0.01386152 -0.11287334 -0.060929198
0.09224603 0.02858045 -0.023064284 0.029529475 0.045524854 -0.10248344 0.061028823 -0.11484177
0.079567164 0.062162574 -1.1194039e-05 0.0062020803 0.10312732 0.11577898 0.07691267 0.08618096
0.10632138 0.013566674 0.061178546 0.07837866 0.062892824 0.12235857 -0.06123819 -0.114131615
0.08480055 -0.08807586 0.12288832 0.025965128 0.09791703 -0.0017049662 -0.065086715 0.039926406
0.12415063 -0.075027615 0.023689648 0.023079604 -0.068151094 -0.025150467 0.014404782 -0.12235521
0.011711021 -0.038432702 0.08256165 0.07289201 0.044777453 0.04972982 0.094925724 -0.053439435
0.01412831 0.109298654 0.0498187 -0.06635219 0.009477295 0.0751215 0.02977817 0.06882034
0.016664276 0.027764982 0.09055635 -0.003206479 -0.09754827 0.045231875 -0.104865074 0.07658603
0.062316455 -0.10554534 0.11499714 0.010718746 -0.09005837 -0.08376718 -0.036520597 0.013564255
0.03559243 0.06137375 -0.027155804 0.017508028 -0.030378578 0.101997055 0.0736055 -0.0068216957
0.043117758 -0.03850832 0.007647246 -0.083305016 0.08530842 -0.096107684 0.08445588 -0.109168924
0.038363323 0.12107799 0.11986534 -0.071520425 -0.09555858 -0.027506309 0.046116564 0.05630896
-0.07229641 0.11997314 -0.12049777 -0.09755628 -0.05632167 0.074272536 0.06596282 0.019012138
0.09182884 -0.025425045 0.08037816 -0.11092374 0.092763275 0.095130235 0.124726206 -0.08392934
0.079209544 0.022642666 0.05932517 -0.12464899 -0.050788265 -0.02144314 0.0019144646 -0.121103235
0.009234792 0.04283929 0.10243098 -0.008952007 -0.012299697 0.054590106 -0.08161491 -0.0073932847
-0.012929669 0.12142184 0.12060088 -0.050344147 0.106212586 -0.009695007 0.09711799 0.049041077
0.10698569 -0.037367053 -0.08254978 0.013433587 0.03010071 0.056425415 -0.019880222 -0.09074145
0.025629101 0.121952295 0.06287085 0.05663958 -0.0031391205 0.03310762 -0.06495725 0.048867825
0.026229655 -0.1049054 -0.07336967 0.05223785 0.08564075 -0.039389547 -0.038665555 0.087716214
0.107053064 0.037706103 0.008630198 0.017838176 0.031948138 -0.055082668 0.11288831 -0.036096632
-0.00069984095 -0.10393683 0.014245863 0.03718353 -0.12098902 -0.08100683 0.039168328 -0.08469922
0.080219686 -0.04848388 0.0057029487 -0.059993852 0.04366503 -0.05949054 0.077722475 -0.020577636
0.028352378 0.12040062 0.043405313 -0.039773516 -0.086655825 -0.049605865 0.017716004 0.060390964
0.108789355 -0.0228197 0.115965605 -0.10799708 -0.115771756 -0.09898124 0.08790774 -0.019907199
-0.124489285 0.03665964 -0.0062657655 0.122153126 -0.0018422343 -0.058719497 0.017284082 -0.08234666
-0.12070384 0.04295771 -0.024042916 0.016081609 0.054473847 0.11671199 0.053774897 0.0017254744
-0.0011117238 0.095992975 -0.03668179 0.020132763 0.01697111 0.083844416 0.118980095 -0.07462692
00000000: 8117 ae3c 107c f0bd 50c9 1f3d 8674 e53c
00000010: c57f b03d bfd6 f13d b0ad aa3d de35 8e3d
00000020: 4353 953d 86d9 dfbc e12e 96bd 6c1a f03d
00000030: 727e c73a 34d8 603d 5ba2 a73c bfce ae3c
00000040: 5941 a7bd fc4a e33d e04f 2f3d 3d6e b0bd
00000050: 60d2 913d 9afd 4c3d c0ff cdbd bde9 32bd
00000060: 167f e93d 56a0 8abd 1ca2 4ebc e624 c7bd
00000070: 032c aabd 6e1b 633c 232a e7bd e590 79bd
00000080: 7deb bc3d 8c21 ea3c 4ff1 bcbc cce7 f13c
00000090: 4578 3a3d d6e2 d1bd 5cf9 793d 2932 ebbd
000000a0: 1cf4 a23d 2f9e 7e3d 08ce 3bb7 d23a cb3b
000000b0: 6b34 d33d 881d ed3d 6484 9d3d a57f b03d
000000c0: 06bf d93d c146 5e3c 5b96 7a3d fe84 a03d
000000d0: f4cd 803d 2197 fa3d e5d4 7abd d6bd e9bd
000000e0: e9ab ad3d 1e61 b4bd dfac fb3d d2b4 d43c
000000f0: b988 c83d 2c79 dfba 2f4c 85bd df89 233d
00000100: af42 fe3d 14a8 99bd cb10 c23c 7011 bd3c
00000110: cd92 8bbd 5a08 cebc 0902 6c3c 5e95 fabd
00000120: 95df 3f3c 9c6b 1dbd 1516 a93d 6848 953d
00000130: 9068 373d 7fb1 4b3d 6b68 c23d 4fe3 5abd
00000140: 6d7a 673c f9d7 df3d b10e 4c3d a8e3 87bd
00000150: a846 1b3c 4dd9 993d 59f1 f33c aef1 8c3d
00000160: 8583 883c 6373 e33c 9c75 b93d ca23 52bb
00000170: 63c7 c7bd 0f45 393d 80c3 d6bd 23d9 9c3d
00000180: 8a3f 7f3d 2828 d8bd 9f83 eb3d ae9d 2f3c
00000190: 8670 b8bd 218e abbd 9f96 15bd 9c3c 5e3c
000001a0: 5ec9 113d 0b63 7b3d d975 debc ff6c 8f3c
000001b0: 7fdc f8bc d5e3 d03d 7bbe 963d 8888 dfbb
000001c0: 3f9c 303d e6ba 1dbd c095 fa3b d29b aabd
000001d0: 2eb6 ae3d 1bd4 c4bd 34f7 ac3d f593 dfbd
000001e0: dc22 1d3d bdf7 f73d f67b f53d 4d79 92bd
000001f0: 37b4 c3bd e954 e1bc b9e4 3c3d 39a4 663d
00000200: 2410 94bd 7ab4 f53d 89c7 f6bd 96cb c7bd
00000210: 8db1 66bd 331c 983d 8417 873d 58bf 9b3c
00000220: c210 bc3d 2f48 d0bc 4e9d a43d fc2b e3bd
00000230: acfa bd3d a4d3 c23d 7470 ff3d 25e3 abbd
00000240: 9d38 a23d 1d7d b93c f3fe 723d f847 ffbd
00000250: 5b07 50bd 86a9 afbc c6ee fa3a f904 f8bd
00000260: 864d 173c 4078 2f3d 55c7 d13d 70ab 12bc
00000270: ab84 49bc e099 5f3d b825 a7bd 5e43 f2bb
00000280: f6d6 53bc 03ac f83d 98fd f63d aa35 4ebd
00000290: fc85 d93d ced7 1ebc cce5 c63d 4cdf 483d
000002a0: 501b db3d 320e 19bd dc0f a9bd 8c18 5c3c
000002b0: c495 f63c 561e 673d d9db a2bc a7d6 b9bd
000002c0: 1ff4 d13c 20c2 f93d 6fc2 803d e7fe 673d
000002d0: b4b9 4dbb db9b 073d 4f08 85bd a129 483d
000002e0: 93df d63c a4d8 d6bd d642 96bd 5bf7 553d
000002f0: 6b64 af3d ef56 21bd c65f 1ebd 8fa4 b33d
00000300: a33e db3d b771 1a3d ad65 0d3c 5e21 923c
00000310: 0ddc 023d 5d9e 61bd fc31 e73d 10da 13bd
00000320: 8875 37ba d5dc d4bd 7b67 693c c24d 183d
00000330: 17c9 f7bd e9e6 a5bd f86e 203d c976 adbd
00000340: 384a a43d 0897 46bd cddf ba3b 1dbc 75bd
00000350: 1ada 323d 5aac 73bd f62c 9f3d 6e92 a8bc
00000360: 3f43 e83c 9a94 f63d c5c9 313d 8ee9 22bd
00000370: 9c78 b1bd 852f 4bbd 2721 913c 845c 773d
00000380: f4cc de3d 61f0 babc 607f ed3d 932d ddbd
00000390: be19 edbd adb6 cabd f908 b43d 6c14 a3bc
000003a0: 3df4 febd 6b28 163d 0d51 cdbb 6b2b fa3d
000003b0: 2077 f1ba db83 70bd 5997 8d3c 5ea5 a8bd
000003c0: 9333 f7bd 6cf4 2f3d a6f5 c4bc 94bd 833c
000003d0: f81f 5f3d b206 ef3d 1143 5c3d 5029 e23a
000003e0: 43b7 91ba f797 c43d a53f 16bd 77ed a43c
000003f0: ff06 8b3c 9fb6 ab3d d6ab f33d 00d6 98bd

bias_ih_l0 f4 [192]
-0.021003015 0.07342238 0.024636805 0.09284113 0.044176247 2.9693541e-05 -0.06711662 0.087017484
0.046489656 0.093275286 0.038872182 -0.08314967 0.07781551 0.11539846 0.11889978 0.042230554
0.06956476 0.0019718688 0.059065707 -0.103174195 0.063768715 -0.047824465 0.06672141 -0.03635111
0.069192365 0.100450486 0.038173936 -0.04068941 0.034092937 0.05777016 -0.020451302 0.09508895
0.060882647 0.0475425 -0.061052777 0.059874907 0.119619645 -0.017592257 0.08709896 -0.0007834925
0.07927576 -0.11814615 0.07057344 0.07734642 0.03972988 0.122249104 -0.0025159968 -0.024558568
0.06497767 0.09600907 0.123678185 0.041926708 -0.10996186 0.047893025 -0.022186898 -0.0034937838
0.06866243 0.04089805 -0.04381925 -0.07646784 0.02577845 -0.0818731 0.04987169 0.09466752
0.006284155 -0.069841966 -0.060902696 0.105977125 0.006248849 0.055480193 -0.11817948 0.07837713
0.0512993 -0.031980753 -0.047228884 -0.028202299 0.0913503 0.10786082 -0.02256381 -0.07734574
-0.11606072 0.028985454 0.044656124 -0.037224136 -0.08603277 -0.12486292 -0.077773124 0.0067406883
0.12115749 0.10293849 -0.083790764 0.114462785 -0.077658266 0.027313393 -0.006861384 0.10441876
-0.099758714 -0.050706066 0.043006707 0.011159821 0.011469275 -0.09751923 0.043321047 -0.114984885
-0.09569294 -0.08586143 -0.0067442236 -0.08027678 0.035473064 0.04559274 -0.06889844 0.07856665
-0.0071153725 0.10101366 -0.04176073 0.016988534 -0.07398862 -0.09705873 -0.11735881 0.045764104
-0.09966906 -0.075400755 -0.034352735 0.075660385 0.043222986 -0.114378884 -0.079778686 -0.080400325
0.058871813 0.017005675 0.08601137 0.028955948 -0.120662466 0.06690545 -0.07771047 -0.049123194
0.1143255 0.11679857 -0.06926872 0.104441695 -0.023485912 -0.10844228 0.12451235 -0.1076726
-0.0029622426 0.0033254249 0.05944072 0.049808472 0.017819732 0.03869607 0.052327517 -0.048965696
0.053982064 0.12219805 -0.11347366 -0.090846665 0.114694506 0.07712098 -0.11597014 -0.07721469
-0.051568784 0.077393 -0.10122949 0.00853864 0.019665433 -0.11156747 0.12183355 -0.012631056
0.079333454 0.025305051 -0.03438113 -0.06394153 0.025140945 -0.10284261 0.09419844 -0.07943456
0.017945988 0.07434656 -0.1029367 0.08394774 -0.11757659 -0.06504048 0.057124775 -0.022898102
0.03969325 -0.11729619 0.003272101 -0.014431443 -0.054813236 0.053885594 -0.0031863067 0.016974181
00000000: 840e acbc 795e 963d 20d3 c93c 7e23 be3d
00000010: 27f2 343d 6516 f937 7074 89bd 3936 b23d
00000020: f06b 3e3d 1d07 bf3d 7038 1f3d 604a aabd
00000030: bd5d 9f3d 0756 ec3d ba81 f33d f2f9 2c3d
00000040: f877 8e3d 783a 013b e2ee 713d fe4c d3bd
00000050: 2c99 823d 96e3 43bd 3ca5 883d e7e4 14bd
00000060: bab4 8d3d fcb8 cd3d 465c 1c3d f0a9 26bd
00000070: 09a5 0b3d 67a0 6c3d 7d89 a7bc ffbd c23d
00000080: 1560 793d edbb 423d 7a12 7abd 643f 753d
00000090: 25fb f43d a31d 90bc f160 b23d 4b63 4dba
000000a0: 545b a23d 9cf6 f1bd cf88 903d cd67 9e3d
000000b0: ccbb 223d bd5d fa3d 6ce3 24bb 0d2f c9bc
000000c0: 0313 853d 67a0 c43d fd4a fd3d 57bb 2b3d
000000d0: af33 e1bd 7a2b 443d 4cc1 b5bc f7f7 64bb
000000e0: e39e 8c3d b784 273d d07b 33bd 2c9b 9cbd
000000f0: 542d d33c 15ad a7bd 4246 4c3d 0be1 c13d
00000100: 50eb cd3b 4e09 8fbd 1b75 79bd 890a d93d
00000110: 25c3 cc3b 333f 633d 1508 f2bd 3084 a03d
00000120: 371f 523d 40fe 02bd 1373 41bd 8208 e7bc
00000130: de15 bb3d 22e6 dc3d bdd7 b8bc 7167 9ebd
00000140: 3eb1 edbd e772 ed3c 57e9 363d 5678 18bd
00000150: f331 b0bd 21b8 ffbd 8447 9fbd fee0 dc3b
00000160: 6b21 f83d 6ad1 d23d 7e9a abbd 776b ea3d
00000170: 4c0b 9fbd 56c0 df3c 76d5 e0bb 81d9 d53d
00000180: 4c4e ccbd 2ab1 4fbd cd27 303d afd7 363c
00000190: a0e9 3b3c 29b8 c7bd 6971 313d 327d ebbd
000001a0: a9fa c3bd 1ed8 afbd a6fe dcbb 2768 a4bd
000001b0: 344c 113d 74bf 3a3d a01a 8dbd 8de7 a03d
000001c0: 1228 e9bb 40e0 ce3d 4d0d 2bbd 8a2b 8b3c
000001d0: 5887 97bd bac6 c6bd d159 f0bd 2473 3b3d
000001e0: 4b1f ccbd b66b 9abd 74b5 0cbd d5f3 9a3d
000001f0: 960a 313d 7a3f eabd 0263 a3bd eda8 a4bd
00000200: 9223 713d 7c4f 8b3c bb26 b03d 0635 ed3c
00000210: e21d f7bd b905 893d ab26 9fbd 6735 49bd
00000220: 7d23 ea3d 1734 ef3d c2dc 8dbd 87e5 d53d
00000230: 8765 c0bc fc16 debd 5500 ff3d 7483 dcbd
00000240: 2f22 42bb 5fef 593b 1d78 733d f803 4c3d
00000250: b0fa 913c c57f 1e3d 6155 563d 4190 48bd
00000260: 4c1c 5d3d f942 fa3d e164 e8bd d10d babd
00000270: f4e4 ea3d 9bf1 9d3d c181 edbd bc22 9ebd
00000280: ca39 53bd 3980 9e3d 6851 cfbd a7e5 0b3c
00000290: 6719 a13c 7c7d e4bd de83 f93d 7df2 4ebc
000002a0: 9479 a23d 8a4c cf3c 3ad3 0cbd c7f3 82bd
000002b0: 62f4 cd3c 259f d2bd 1deb c03d 96ae a2bd
000002c0: 7703 933c 0243 983d 7ad0 d2bd cbec ab3d
000002d0: ffcb f0bd f133 85bd abfb 693d cd94 bbbc
000002e0: 6495 223d fc38 f0bd bf70 563b dc71 6cbc
000002f0: d883 60bd 24b7 5c3d 5bd1 50bb 700d 8b3c

bias_hh_l0 f4 [192]
-0.021638282 0.07966129 -0.086245574 0.104543775 0.096013844 0.09001777 -0.03757379 -0.005770659
-0.06694159 -0.008558941 -0.0896717 -0.10427746 0.030074276 -0.05174865 0.05387744 0.013178996
-0.12446746 0.122526735 0.06926789 -0.08984245 0.11074045 0.084294416 0.10832004 -0.015759995
0.021581337 -0.043526135 -0.124195136 -0.020985032 -0.036139753 -0.060637046 -0.06397675 -0.015418174
-0.109149225 -0.015404386 0.056112163 0.08943954 -0.047942426 0.08190621 -0.04730442 -0.11996887
-0.08463541 -0.036864907 -0.07021751 -0.025335554 0.05401507 0.0043630823 -0.053646617 -0.004257436
0.023349855 -0.039051775 -0.0428241 0.02382281 0.023663959 0.011363184 0.04774504 0.103928626
-0.047340397 0.004851416 0.04274182 -0.07198076 0.11857859 -0.06726641 -0.024229486 -0.0314644
0.04817168 -0.027714089 0.05833513 0.07146192 0.017806532 0.0430091 -0.05574651 0.09570181
-0.02672801 0.11302733 0.065928854 0.03979188 -0.08753286 -0.09864688 0.077887796 -0.09049342
-0.07607277 -0.036846735 0.004042981 -0.07916565 0.053504746 -0.029129082 -0.0810792 0.040256813
-0.06275494 0.011225196 -0.042047482 -0.120622195 0.032477595 -0.10895554 -0.049312886 -0.11143682
-0.029283542 -0.055438615 -0.06658628 -0.0062298044 0.07380865 0.021762138 0.026773471 -0.062030222
-0.11800181 0.008466293 0.031312164 -0.09522631 -0.0343384 0.104100764 -0.02516805 -0.046240464
-0.048163928 0.085892454 -0.106070094 -0.021644112 0.107509196 0.045567725 -0.026331643 -0.0078177005
0.08716821 -0.116432935 0.009789851 0.008792682 0.06547283 0.051238637 0.08906682 -0.108782746
0.014764764 -0.003004129 0.10433578 -0.0802312 -0.077636704 0.04138137 0.020300914 0.08516755
-0.025469575 -0.086455785 -0.010247399 -0.048977926 0.10671294 -0.088848494 0.117492676 -0.016443318
-0.1104301 -0.09587152 -0.11098837 -0.017545596 -0.044476613 0.014698745 -0.09568903 -0.03957791
-0.08582091 0.052632533 -0.101843454 -0.0031805122 -0.0094382735 0.076097354 0.019548157 -0.041667704
-0.105241135 -0.034215044 -0.04701467 0.052714303 -0.009270618 -0.09540291 -0.016512696 -0.1237891
-0.008296606 -0.050354015 -0.0709558 0.06878653 0.08909391 0.12376847 0.040395588 -0.08843502
-0.06157742 -0.01145368 -0.012101195 0.058562785 -0.119504236 -0.08182177 -0.07122227 -0.07210515
0.029375196 -0.09128764 -0.010394365 -0.100353494 0.09044309 0.09760013 0.072970115 0.002247741
00000000: c442 b1bc 7525 a33d 85a1 b0bd 0c1b d63d
00000010: e8a2 c43d 3d5b b83d f9e6 19bd cc17 bdbb
00000020: ac18 89bd cd3a 0cbc cca5 b7bd 6c8f d5bd
00000030: 545e f63c 64f6 53bd 97ae 5c3d b7ec 573c
00000040: cce8 febd 4cef fa3d 53dc 8d3d 52ff b7bd
00000050: e4cb e23d 8da2 ac3d e6d6 dd3d 1b1b 81bc
00000060: 58cb b03c 7648 32bd 055a febd cde8 abbc
00000070: 4707 14bd 8d5e 78bd 3e06 83bd 829c 7cbc
00000080: a189 dfbd ae62 7cbc ded5 653d 142c b73d
00000090: 475f 44bd 71be a73d 48c2 41bd 3db2 f5bd
000000a0: 5455 adbd a8ff 16bd 33ce 8fbd 828c cfbc
000000b0: e83e 5d3d 30f8 8e3b 8ebc 5bbd f681 8bbb
000000c0: 3248 bf3c c1f4 1fbd 5368 2fbd 0e28 c33c
000000d0: ebda c13c a62c 3a3c 4e90 433d 88d8 d43d
000000e0: 01e8 41bd a1f8 9e3b 0c12 2f3d a66a 93bd
000000f0: 55d9 f23d f9c2 89bd ea7c c6bc d1e0 00bd
00000100: ab4f 453d a808 e3bc d1f0 6e3d a15a 923d
00000110: 01df 913c 4f2a 303d 7456 64bd 50ff c33d
00000120: b3f4 dabc df7a e73d b505 873d cffc 223d
00000130: 6e44 b3bd 6007 cabd a383 9f3d 9d54 b9bd
00000140: 0acc 9bbd 9aec 16bd fc7a 843b 9a21 a2bd
00000150: cb27 5b3d 1da0 eebc da0c a6bd 54e4 243d
00000160: a985 80bd e2e9 373c fb39 2cbd c508 f7bd
00000170: 3a07 053d 1524 dfbd 4ffc 49bd fd38 e4bd
00000180: 0ae4 efbc 9a13 63bd 635e 88bd 6323 ccbb
00000190: fd28 973d 8346 b23c 0a54 db3c 6713 7ebd
000001a0: efaa f1bd 35b6 0a3c 2f41 003d 0306 c3bd
000001b0: 6ca6 0cbd c832 d53d 3a2d cebc a466 3dbd
000001c0: 8a47 45bd 62e8 af3d 473b d9bd fe4e b1bc
000001d0: c82d dc3d 39a5 3a3d 75b5 d7bc d015 00bc
000001e0: 3f85 b23d 6474 eebd 9c65 203c 2e0f 103c
000001f0: 9e16 863d 9bdf 513d aa68 b63d 7dc9 debd
00000200: e9e7 713c ece0 44bb ffad d53d 4150 a4bd
00000210: feff 9ebd 837f 293d 1a4e a63c 536c ae3d
00000220: 92a5 d0bc bb0f b1bd b5e4 27bc 149d 48bd
00000230: 508c da3d 33f6 b5bd 00a0 f03d 23b4 86bc
00000240: 2d29 e2bd 4a58 c4bd df4d e3bd c8bb 8fbc
00000250: 1c2d 36bd 01d3 703c 9cf8 c3bd 721c 22bd
00000260: e0c2 afbd 3695 573d 4d93 d0bd 2470 50bb
00000270: fda2 1abc eed8 9b3d 7523 a03c c1ab 2abd
00000280: aa88 d7bd 1325 0cbd 7492 40bd f4ea 573d
00000290: cae3 17bc 9a62 c3bd a245 87bc 2485 fdbd
000002a0: 7dee 07bc 0340 4ebd 4651 91bd f4df 8c3d
000002b0: de76 b63d 537a fd3d d875 253d 6b1d b5bd
000002c0: 9b38 7cbd 37a8 3bbc 1744 46bc 88df 6f3d
000002d0: a3be f4bd 2c92 a7bd fbdc 91bd ddab 93bd
000002e0: 40a4 f03c 04f5 babd 204d 2abc 2286 cdbd
000002f0: 3a3a b93d 94e2 c73d 5b71 953d d64e 133b

weight f4 [2, 64]
-0.1198237 -0.024087029 -0.06676804 -0.10239179 -0.00937099 -0.05884583 -0.09406716 0.10472679
0.08250656 -0.025856005 0.007395451 0.11615825 0.07693787 0.026997859 0.046188414 0.09014725
-0.003214597 0.013024837 0.066085644 -0.08641143 -0.02727427 -0.063586205 0.04990582 -0.012830579
0.049966738 -0.11301706 -0.007276966 0.014937983 0.09601455 -0.020290572 -0.11626513 -0.10941901
-0.07477464 -0.03961325 0.054130856 -0.12104496 0.09859318 0.048431903 -0.06817603 -0.037533734
0.12532966 0.06501947 -0.09906166 -0.027250696 0.047665644 -0.067313306 -0.09193071 -0.014514244
0.10436435 0.018401053 0.11441342 0.05896121 -0.04995931 0.120134056 0.06265601 -0.047331348
-0.017314913 0.06371251 -0.06509824 0.12303638 0.03969204 0.04747189 0.019742021 -0.113227926
-0.010722922 -0.016975371 0.005183514 -0.08980145 0.076802276 0.09538081 0.02605102 -0.038576856
0.055288516 -0.051671814 -0.098639674 -0.029708924 -0.023283787 0.0204555 0.12057126 0.017783362
-0.01742925 0.0026852489 0.10991972 0.106748134 0.11341781 0.035296623 -0.1098575 -0.046329115
-7.672642e-05 -0.016489338 -0.10176103 -0.045814324 0.02373784 0.08927253 0.0068702684 0.066430904
0.08823496 -0.07164869 0.122478515 0.122285694 0.093384735 -0.10420783 0.08246355 0.11015252
-0.072068214 0.11222753 0.094936796 0.055347808 0.0023671512 -0.02622232 -0.038496252 -0.05896141
-0.06819859 -0.044841517 -0.069100015 -0.009771671 -0.08996077 -0.003968769 0.09085765 -0.11144973
-0.022955222 0.116400585 0.11391632 0.035921384 -0.04086479 -0.059381135 -0.0025685504 -0.053424
00000000: 2166 f5bd 2952 c5bc afbd 88bd c9b2 d1bd
00000010: c888 19bc 5308 71bd 48a6 c0bd 007b d63d
00000020: 33f9 a83d f9cf d3bc 8a55 f23b 60e4 ed3d
00000030: 9a91 9d3d 9d2a dd3c 1030 3d3d 1f9f b83d
00000040: fdab 52bb 2066 553c e957 873d 7af8 b0bd
00000050: 4a6e dfbc 7c39 82bd 0c6a 4c3d 5937 52bc
00000060: eca9 4c3d 7d75 e7bd 9d73 eebb 71be 743c
00000070: 47a3 c43d 6a38 a6bc 6a1c eebd 1317 e0bd
00000080: 7223 99bd 8141 22bd 51b8 5d3d 6ce6 f7bd
00000090: 39eb c93d 8860 463d e09f 8bbd f9bc 19bd
000000a0: 6b56 003e ee28 853d d7e0 cabd da3c dfbc
000000b0: 0d3d 433d 8fdb 89bd 2b46 bcbd 27cd 6dbc
000000c0: fabc d53d cebd 963c 9551 ea3d 4f81 713d
000000d0: 22a2 4cbd d808 f63d cb51 803d 84de 41bd
000000e0: 01d8 8dbc b47b 823d 3a52 85bd 7ffa fb3d
000000f0: 1f94 223d e271 423d 05ba a13c 0be4 e7bd
00000100: 32af 2fbc ef0f 8bbc 78da a93b d3e9 b7bd
00000110: 834a 9d3d 0457 c33d f368 d53c c402 1ebd
00000120: 3676 623d d3a5 53bd 9903 cabd 2160 f3bc
00000130: a4bd bebc 4b92 a73c 11ee f63d 6aae 913c
00000140: c9c7 8ebc 00fb 2f3b 971d e13d c49e da3d
00000150: 9947 e83d 3193 103d f8fc e0bd 99c3 3dbd
00000160: 2fe8 a0b8 a614 87bc 1668 d0bd cda7 3bbd
00000170: dc75 c23c 84d4 b63d fd1f e13b ed0c 883d
00000180: 88b4 b43d 8cbc 92bd 04d6 fa3d ec70 fa3d
00000190: 7f40 bf3d ea6a d5bd a6e2 a83d a597 e13d
000001a0: 8098 93bd 8cd7 e53d 396e c23d 62b4 623d
000001b0: 3522 1b3b 31d0 d6bc 3fae 1dbd 8581 71bd
000001c0: b4ab 8bbd bdab 37bd 4f84 8dbd 5c19 20bc
000001d0: 5a3d b8bd 730c 82bb 9313 ba3d c23f e4bd
000001e0: 970c bcbc 6e63 ee3d f64c e93d 4d22 133d
000001f0: d761 27bd a239 73bd 2055 28bb 20d3 5abd

bias f4 [2]
0.057349157 -0.028163515
00000000: f3e6 6a3d 2cb7 e6bc

weight_ih_l0 f4 [192, 66]
-0.024586424 0.12153956 -0.06317128 0.027117282 -0.0989172 -0.08228263 -0.121964276 -0.11125715
0.03958692 -0.119311124 0.0903801 -0.09032461 0.0016137585 -0.016400844 0.009317362 -0.06907146
-0.015038863 0.08863498 0.08454637 -0.09964703 0.09099524 0.041206617 -0.021348186 0.048008565
-0.09500238 0.108153075 0.105600506 0.09714897 0.072618484 0.015680924 0.041842896 -0.07494111
-0.052613884 -0.04731259 0.10647929 0.09431879 -0.10604647 0.003614664 0.07798214 -0.120404094
0.10712694 -0.084654555 -0.1202998 0.04248171 -0.02278106 -0.013735592 0.029457703 -0.10754341
-0.02217678 -0.06313589 0.064559 -0.08207393 -0.07693887 0.078618735 -0.10584585 -0.017847763
-0.028247148 -0.008391387 0.017802685 0.024770007 0.02733574 0.09514165 -0.025719002 0.05907935
0.102159254 0.025275195 -0.11241849 0.029331472 -0.08709857 -0.043483526 -0.07660057 0.051948145
0.04516557 0.007749602 -0.006722096 0.028669674 -0.09603152 -0.057609513 -0.09773638 0.11980878
0.014299555 0.11594877 0.09060636 0.060929835 0.029827908 0.031907752 -0.06329176 -0.03894691
0.040648445 0.09025157 -0.03558655 -0.110738456 -0.028378919 0.046894103 -0.07125801 0.1221088
0.1036096 -0.09726368 -0.11231142 -0.09948964 -0.08611856 0.11363543 0.099988356 -0.09226476
0.09846145 -0.0041295406 0.053165123 0.062083423 -0.042420015 0.109198295 -0.0943674 0.004210308
0.024888411 0.061577484 -0.11715888 0.12324943 -0.11993771 0.1246968 -0.023286104 0.08245224
-0.06525753 -0.06213217 -0.05799699 -0.090863325 -0.0057218224 -0.12445174 -0.056021646 -0.01723018
0.042706326 0.009385332 -0.054387365 -0.10068319 0.11901434 -0.054405276 0.018003419 0.042754963
-0.109791085 0.10435971 -0.09543449 0.07338709 -0.023265708 -0.036633324 -0.00653362 -0.024857342
0.08272571 0.059058025 0.046809148 0.050455272 0.10349521 0.07210578 -0.0975582 0.0074281394
-0.085862145 -0.11523906 -0.033162028 -0.12505421 -0.012178677 -0.004466206 -0.10437101 -0.11719671
0.049101815 0.051482484 -0.11610421 0.07323319 -0.022969797 -0.073983036 0.074792765 -0.063900486
0.11088185 -0.029022962 -0.097224966 -0.07825831 -0.0003657218 -0.00766437 0.08118011 0.10451769
-0.02986902 0.049633414 0.07627034 0.07997718 -0.084143616 0.016481683 -0.029355207 0.051442143
0.0926314 -0.04805374 -0.01002917 -0.044724118 0.08067331 -0.065171674 -0.023038536 0.07255289
-0.06317924 0.018896166 0.08177115 0.11279105 0.00912908 0.052362993 -0.07638523 0.018300973
-0.049865723 0.067342326 0.005498573 0.0227964 -0.1183337 0.06143169 -0.046887133 -0.01600433
-0.069051504 -0.042187303 -0.01638422 0.034455538 0.08874502 0.120523825 -0.08069977 0.018039314
-0.11040327 0.03291084 0.110382825 -0.041113544 -0.029993378 -0.023276769 0.11964611 -0.09276916
-0.12002963 -0.10729119 0.013470471 -0.03466873 -0.03152272 0.06127155 -0.10235149 0.10572494
0.0068750614 0.01932729 0.045342356 0.123602256 -0.027774453 -0.043845322 0.0071737254 0.06667078
-0.05243942 0.016788132 -0.07932955 -0.039322317 0.020580277 0.10114957 -0.09042499 0.11537711
0.12035359 -0.071078666 0.054855138 -0.07504736 0.07291464 -0.08066461 -0.08190207 0.074267425
00000000: 7869 c9bc bce9 f83d f25f 81bd 1025 de3c
00000010: 1a95 cabd cc83 a8bd 68c8 f9bd cada e3bd
00000020: e525 223d 6459 f4bd 3419 b93d 1cfc b8bd
00000030: c084 d33a 105b 86bc d9a7 183c 5675 8dbd
00000040: 9065 76bc 4286 b53d a626 ad3d be13 ccbd
00000050: b65b ba3d 45c8 283d 64e2 aebc a1a4 443d
00000060: 9c90 c2bd 5c7f dd3d 1445 d83d 0af6 c63d
00000070: 00b9 943d 4875 803c 7563 2b3d ba7a 99bd
00000080: a881 57bd d9ca 41bd d011 da3d 362a c13d
00000090: e42e d9bd 00e4 6c3b 1ab5 9f3d 6c96 f6bd
000000a0: 5e65 db3d 5e5f adbd be5f f6bd 4d01 2e3d
000000b0: 589f babc 400b 61bc 4851 f13c b83f dcbd
000000c0: 14ac b5bc 644d 81bd 8237 843d 6016 a8bd
000000d0: 2092 9dbd dc02 a13d b6c5 d8bd 7935 92bc
000000e0: 9066 e7bc 077c 09bc f0d6 913c 78ea ca3c
000000f0: 34ef df3c a0d9 c23d a8b0 d2bc 30fd 713d
00000100: df38 d13d ed0d cf3c aa3b e6bd 8e48 f03c
00000110: bc60 b2bd c81b 32bd c2e0 9cbd 94c7 543d
00000120: 88ff 383d 60f0 fd3b 0745 dcbb aadc ea3c
00000130: 2cac c4bd f4f7 6bbd 032a c8bd 4e5e f53d
00000140: ae48 6a3c 8c76 ed3d d48f b93d 9091 793d
00000150: a859 f43c b4b1 023d 1c9f 81bd cc86 1fbd
00000160: fc7e 263d d1d5 b83d 34c3 11bd d8ca e2bd
00000170: e87a e8bc 0814 403d b8ef 91bd 2e14 fa3d
00000180: 4531 d43d 2e32 c7bd 8803 e6bd 39c1 cbbd
00000190: ed5e b0bd b1b9 e83d b2c6 cc3d 4ef5 bcbd
000001a0: 28a6 c93d 1951 87bb acc3 593d 304b 7e3d
000001b0: 9cc0 2dbd 5ba3 df3d b243 c1bd a0f6 893b
000001c0: c8e2 cb3c ac38 7c3d fff0 efbd 326a fc3d
000001d0: e7a1 f5bd 0961 ff3d 80c2 bebc b8dc a83d
000001e0: bda5 85bd 4d7e 7ebd 408e 6dbd 8d16 babd
000001f0: 207e bbbb 8ee0 febd f476 65bd 4e26 8dbc
00000200: d4ec 2e3d f0c4 193c 49c5 5ebd fd32 cebd
00000210: cabd f33d 11d8 5ebd e87b 933c d41f 2f3d
00000220: 26da e0bd 8bba d53d 2873 c3bd f84b 963d
00000230: ba97 bebc d30c 16bd fa17 d6bb a0a1 cbbc
00000240: 196c a93d d4e6 713d f3ba 3f3d 30aa 4e3d
00000250: 4cf5 d33d 32ac 933d 98cc c7bd c067 f33b
00000260: 7ed8 afbd 7502 ecbd e8d4 07bd 360e 00be
00000270: 1389 47bc 4059 92bb 78c0 d5bd d404 f0bd
00000280: fc1e 493d 4cdf 523d 0bc8 edbd 48fb 953d
00000290: 282b bcbc 6b84 97bd f32c 993d 42de 82bd
000002a0: 0616 e33d 90c1 edbc e21d c7bd e545 a0bd
000002b0: 59be bfb9 6525 fbbb c241 a63d 5f0d d63d
000002c0: e0af f4bc 684c 4b3d a033 9c3d 13cb a33d
000002d0: 7d53 acbd 9804 873c 557a f0bc ffb4 523d
000002e0: 88b5 bd3d 00d4 44bd 6351 24bc a330 37bd
000002f0: 0c38 a53d ba78 85bd 50bb bcbc 9c96 943d
00000300: 1e64 81bd 22cc 9a3c a277 a73d fefe e63d
00000310: 2392 153c 947a 563d dc6f 9cbd eceb 953c
00000320: 0040 4cbd c6ea 893d 602d b43b 84bf ba3c
00000330: f058 f2bd cc9f 7b3d b90c 40bd 831b 83bc
00000340: e06a 8dbd 98cc 2cbd 3338 86bc 4021 0d3d
00000350: f3bf b53d 32d5 f63d ec45 a5bd 2fc7 933c
00000360: 1c1b e2bd 84cd 063d 6410 e23d ad66 28bd
00000370: acb4 f5bc ecae bebc 0509 f53d c2fd bdbd
00000380: 18d2 f5bd 7cbb dbbd 40b3 5c3c cc00 0ebd
00000390: f81d 01bd e0f7 7a3d a89d d1bd 5186 d83d
000003a0: 3248 e13b 4454 9e3c e8b8 393d 2e23 fd3d
000003b0: 4087 e3bc 2797 33bd 9211 eb3b b18a 883d
000003c0: b8ca 56bd 4487 893c 8877 a2bd 7010 21bd
000003d0: f897 a83c 8127 cf3d bd30 b9bd d64a ec3d
000003e0: f17b f63d b191 91bd c8af 603d 6eb2 99bd
000003f0: 4554 953d 7d33 a5bd 46bc a7bd 8519 983d

weight_hh_l0 f4 [192, 64]
0.002879006 0.047248464 -0.1201769 -0.044960693 0.080193326 -0.09841062 0.024006661 0.039720155
-0.09227951 0.08860226 0.029591044 -0.00752466 -0.06070207 0.0028024612 -0.044209883 0.042556353
0.013857732 0.118001096 0.054212525 0.05109904 -0.03737231 0.10857861 0.11209366 0.118442915
-0.10646614 0.12907156 0.11813619 -0.07073639 -0.031730484 -0.076237194 -0.069582365 0.07699896
0.02397023 -0.10765936 0.10843115 0.05613178 -0.026581889 -0.075252555 0.039895322 -0.099551044
-0.103252575 -0.12488421 0.09703936 -0.07571932 0.06979565 0.060861476 -0.0005732689 0.09974113
0.06213073 0.09196313 -0.07791097 0.11464871 -0.119020134 -0.012562282 -0.034084965 -0.025193369
-0.082675844 -0.035305228 -0.00947497 0.12077484 0.06595662 0.040643662 0.07993537 0.11185923
-0.0362086 0.037424974 0.05127405 0.10126844 -0.11265734 -0.05255521 -0.08395718 -0.04740132
-0.12077271 -0.07418659 0.03562454 -0.00046908832 0.120781325 0.09690896 0.0062491735 0.04731598
0.04296125 0.0889253 0.05178935 -0.09873207 0.03373076 0.05533833 0.10638948 -0.09452683
-0.12265198 0.10599837 -0.03171006 -0.02525465 -0.10570256 -0.10063529 0.0061988267 0.116142295
0.023186998 0.0030771175 -0.090382054 0.008804319 -0.0005038339 0.00056088035 0.008172031 0.093089685
0.0067355763 0.12024563 0.03860019 -0.047832742 -0.096007146 -0.09534591 -0.07795501 0.0943615
-0.066101044 0.046502616 -0.0118092 0.119410776 -0.025506223 -0.0519582 -0.039640523 0.12211749
0.107427604 0.046009794 0.013734896 -0.040707823 0.074667394 0.065284245 -0.11869591 0.09112273
0.033972785 0.113115154 0.027912576 0.016937809 0.08303604 0.05222828 -0.06808087 0.06548942
-0.0678773 0.113734014 0.097938046 -0.07272526 0.05933747 0.115093954 0.10633501 -0.106009245
-0.028364884 0.032720525 -0.062218506 0.10758763 0.11016795 -0.015496673 0.11878464 -0.11046629
0.09373558 0.05286361 0.11743691 -0.10552681 -0.09196216 -0.08262149 0.041092314 0.020441461
-0.03027645 0.08607738 0.08250318 -0.006666829 -0.03704066 0.096091285 0.027193192 0.06723669
0.12960923 0.059043568 0.09863206 0.066606216 -0.07992196 -0.072488144 0.10499123 0.105731845
0.0023586443 0.108199775 -0.0102376705 0.05538419 -0.08927286 -0.10374348 -0.08703958 -0.040764406
0.018707417 -0.0070087225 0.11613559 -0.07055063 0.11071614 -0.054911654 0.12706442 -0.12362103
-0.039559975 0.09066248 0.07971536 0.1125851 -0.07324426 0.089970425 0.0048690396 0.089137115
-0.08907653 -0.08758494 -0.032488223 0.054578595 -0.055011556 -0.09163114 0.07252116 -0.01593728
-0.08931881 -0.08960951 0.0033209496 -0.024751123 0.07659123 0.12089199 -0.08028966 -0.07323338
-0.0186377 -0.09336845 -0.058853135 0.09715851 0.10766737 0.097972974 0.09740707 -0.06554139
0.005811587 0.0013277974 0.06113009 0.0057175 -0.02819173 -0.11328147 -0.12627216 0.068758845
-0.092106245 0.055836625 -0.035353694 0.09058246 -0.009332331 0.11454019 -0.076370075 -0.08305068
-0.0046264627 0.06343698 0.024120294 -0.030869972 0.014791543 0.08552105 0.011448722 0.09943693
0.024065653 0.07072503 0.042299755 -0.11094011 -0.07038289 -0.075738125 0.011131623 -0.05735786
00000000: b5ad 3c3b 9b87 413d 4e1f f6bd b428 38bd
00000010: 663c a43d 828b c9bd 9ea9 c43c 9ab1 223d
00000020: 0afd bcbd 1a75 b53d eb68 f23c 6c91 f6bb
00000030: bca2 78bd 7fa9 373b 6c15 35bd 924f 2e3d
00000040: 8a0b 633c 8faa f13d f40d 5e3d 3a4d 513d
00000050: b513 19bd 765e de3d 5c91 e53d 3392 f23d
00000060: eb0a dabd 562b 043e 63f1 f13d 3ede 90bd
00000070: d3f7 01bd 3f22 9cbd 3381 8ebd a1b1 9d3d
00000080: 375d c43c 837c dcbd 2711 de3d 70ea 653d
00000090: 43c2 d9bc 031e 9abd 4769 233d 6be1 cbbd
000000a0: 1676 d3bd 4bc3 ffbd 92bc c63d bb12 9bbd
000000b0: 06f1 8e3d e249 793d 6d47 16ba 1445 cc3d
000000c0: cb7c 7e3d 2a57 bc3d c98f 9fbd f1cc ea3d
000000d0: d4c0 f3bd 08d2 4dbc ad9c 0bbd 5362 cebc
000000e0: f451 a9bd 379c 10bd e83c 1bbc cd58 f73d
000000f0: 4414 873d f879 263d 28b5 a33d 7416 e53d
00000100: 784f 14bd ee4a 193d bd04 523d d465 cf3d
00000110: e4b8 e6bd 2244 57bd bef1 abbd e327 42bd
00000120: af57 f7bd 24ef 97bd 0aeb 113d f8ef f5b9
00000130: 335c f73d 3478 c63d dec5 cc3b 67ce 413d
00000140: 23f8 2f3d 781e b63d 1221 543d 0a34 cabd
00000150: 4429 0a3d 72aa 623d bae2 d93d 4897 c1bd
00000160: f630 fbbd ac15 d93d 68e2 01bd d7e2 cebc
00000170: 957a d8bd e019 cebd 871f cb3b 03dc ed3d
00000180: a9f2 bd3c 77a9 493b 3a1a b9bd fe3f 103c
00000190: b813 04ba 0b08 133a fbe3 053c cea5 be3d
000001a0: 1cb6 dc3b 5743 f63d 3c1b 1e3d 44ec 43bd
000001b0: 659f c4bd b744 c3bd e0a6 9fbd 9a40 c13d
000001c0: fc5f 87bd 8779 3e3d 607b 41bc a38d f43d
000001d0: 6df2 d0bc 1fd2 54bd 1a5e 22bd bc18 fa3d
000001e0: 0103 dc3d c474 3c3d 5408 613c 3fbd 26bd
000001f0: 38eb 983d bfb3 853d d716 f3bd 8e9e ba3d
00000200: 0c27 0b3d eba8 e73d eaa8 e43c 29c1 8a3c
00000210: cd0e aa3d 52ed 553d fc6d 8bbd 511f 863d
00000220: 4103 8bbd 61ed e83d be93 c83d fbf0 94bd
00000230: d90b 733d 61b6 eb3d 2bc6 d93d 601b d9bd
00000240: 795d e8bc f505 063d d5d8 7ebd e756 dc3d
00000250: bc9f e13d c2e5 7dbc 5d45 f33d 263c e2bd
00000260: 71f8 bf3d 8387 583d c382 f03d 711e d8bd
00000270: a856 bcbd 7535 a9bd 6a50 283d da74 a73c
00000280: 5106 f8bc 5649 b03d 6df7 a83d 6a75 dabb
00000290: f2b7 17bd 82cb c43d 42c4 de3c 64b3 893d
000002a0: 48b8 043e abd7 713d 9bff c93d d768 883d
000002b0: 20ae a3bd aa74 94bd a405 d73d f089 d83d
000002c0: 7c93 1a3b d897 dd3d e7bb 27bc 88da 623d
000002d0: b0d4 b6bd 7677 d4bd cf41 b2bd 94f8 26bd
000002e0: 4c40 993c 6da9 e5bb 7fd8 ed3d d97c 90bd
000002f0: 25bf e23d 0beb 60bd 2d1d 023e 062d fdbd
00000300: a409 22bd 40ad b93d cf41 a33d 0493 e63d
00000310: 1601 96bd 6a42 b83d 778c 9f3b 858d b63d
00000320: c16d b6bd bc5f b3bd 5f12 05bd ce8d 5f3d
00000330: cc53 61bd 1ba9 bbbd f985 943d e68e 82bc
00000340: c8ec b6bd 3185 b7bd 4aa4 593b dec2 cabc
00000350: dddb 9c3d 3896 f73d e86e a4bd 62fb 95bd
00000360: 17ae 98bc f537 bfbd fc0f 71bd 0afb c63d
00000370: b680 dc3d 0ea6 c83d 5c7d c73d 903a 86bd
00000380: 206f be3b 7d09 ae3a 8c63 7a3d de59 bb3b
00000390: 58f2 e6bc 1e00 e8bd 7d4d 01be 70d1 8c3d
000003a0: 33a2 bcbd f2b4 643d 09cf 10bd 4c83 b93d
000003b0: a2e6 18bc 0c94 ea3d ea67 9cbd 7a16 aabd
000003c0: 9599 97bb 3feb 813d ec97 c53c 06e3 fcbc
000003d0: 3a58 723c a925 af3d 6c93 3b3c 97a5 cb3d
000003e0: 5525 c53c 49d8 903d 8242 2d3d 9234 e3bd
000003f0: e824 90bd 971c 9bbd 6961 363c 13f0 6abd

bias_ih_l0 f4 [192]
-0.011344037 0.0029244095 -0.09987853 -0.085289694 0.061057482 -0.034304667 0.110673755 -0.023598015
0.11257687 -0.111954935 -0.111700505 -0.00945533 0.086111985 -0.026566746 -0.00045432447 0.029273622
0.08945715 0.10468254 -0.09581326 0.052360807 0.10000603 -0.090675026 -0.080823444 0.08890348
-0.12696473 0.04013696 0.04506214 0.09729082 -0.0982027 -0.03457927 -0.010126635 0.09470531
-0.07920907 0.030371187 0.08752956 -0.045679472 0.112331174 -0.066199556 -0.060878005 0.034493253
0.08243466 0.08929933 0.053668186 0.056095954 -0.02366684 0.021483859 -0.07550217 -0.11067359
0.059077125 -0.10198245 0.11707489 0.107652925 -0.09199879 0.10370916 -0.104606934 0.05492301
0.05798573 -0.030678073 0.10604317 -0.10902265 -0.08929835 0.07777984 0.02245885 -0.006807635
0.006857632 0.033502214 0.035883766 0.04763312 -0.029682973 0.098023295 0.025389066 0.09195914
-0.024239123 -0.09873505 0.086129956 -0.00736894 -0.030472994 0.044267725 0.0016562373 -0.030519873
-0.029210376 -0.007045298 0.11121958 0.12406166 0.042257685 -0.12640288 -0.04254892 0.10163357
-0.103791095 0.116198175 -0.032077022 0.050570793 0.08043965 -0.11882321 0.08419024 0.0049299966
-0.10259308 0.012262224 -0.020797633 -0.07772117 0.010145966 -0.092712216 0.119431265 -0.101278275
-0.07129807 -0.023783889 0.07305587 -0.06620735 0.052576687 -0.042716473 0.007355389 0.006037321
-0.09520402 -0.098372206 -0.01248532 0.052984767 0.046949282 -0.07954494 -0.02921902 -0.025278727
0.012273937 0.06163861 -0.110937595 0.07530938 -0.0019423517 0.0018449703 0.027899127 -0.0540579
0.0037007038 0.07237779 -0.043903966 0.09403158 -0.039282877 -0.083104014 -0.070361204 0.055140484
-0.07039949 -0.12449638 0.058505774 0.05978236 0.009814768 0.018324723 0.09224176 0.0864746
-0.11070779 -0.10289305 -0.011072596 0.04183676 0.0022286314 -0.11983346 0.048193265 -0.11798039
-0.006581137 0.023436813 -0.04964164 0.09474794 0.114614844 0.028269365 -0.0015892272 0.08831562
-0.01926041 -0.026257189 -0.11791533 -0.012773005 0.0020206275 0.07039892 0.11082254 0.0031828089
-0.079514 0.053630315 -0.022369666 0.051059786 -0.092507854 0.0010116019 -0.010627586 0.06981445
0.06597406 -0.015681002 0.01678562 0.10590019 0.021289425 0.033669226 0.019666607 0.058940183
-0.10236507 -0.066451624 0.085376896 -0.11059583 0.0044619525 0.08435453 -0.11797956 0.12801881
00000000: 57dc 39bc 73a7 3f3b 1d8d ccbd 5dac aebd
00000010: 6917 7a3d 0d83 0cbd eca8 e23d a050 c1bc
00000020: b48e e63d a148 e5bd 3cc3 e4bd 87ea 1abc
00000030: 7b5b b03d 81a2 d9bc 6632 eeb9 3ccf ef3c
00000040: 4f35 b73d cd63 d63d be39 c4bd 4978 563d
00000050: f6cf cc3d d4b3 b9bd c386 a5bd 0713 b63d
00000060: 0b03 02be a766 243d 1493 383d 6940 c73d
00000070: 7f1e c9bd fea2 0dbd 30ea 25bc dcf4 c13d
00000080: 5d38 a2bd ffcc f83c b342 b33d 661a 3bbd
00000090: e30d e63d a293 87bd 375b 79bd cc48 0d3d
000000a0: 81d3 a83d 91e2 b63d 2cd3 5b3d dfc4 653d
000000b0: f6e0 c1bc ebfe af3c e2a0 9abd d6a8 e2bd
000000c0: dbfa 713d 2ddc d0bd f6c4 ef3d 2379 dc3d
000000d0: dd69 bcbd 7865 d43d 293c d6bd f3f6 603d
000000e0: 7282 6d3d 9550 fbbc 292d d93d 4447 dfbd
000000f0: 0ee2 b6bd 094b 9f3d 9ffb b73c 9512 dfbb
00000100: fdb5 e03b 9e39 093d dbfa 123d f21a 433d
00000110: b529 f3bc 70c0 c83d bbfc cf3c 1355 bc3d
00000120: 2091 c6bc 9a35 cabd e764 b03d 2677 f1bb
00000130: 80a2 f9bc 1352 353d 1a16 d93a d004 fabc
00000140: 994a efbc 3edc e6bb 17c7 e33d 0a14 fe3d
00000150: 6516 2d3d c26f 01be c747 2ebd 4325 d03d
00000160: 6d90 d4bd 4ff9 ed3d 3263 03bd 5223 4f3d
00000170: 8bbd a43d 9559 f3bd ef6b ac3d cf8b a13b
00000180: 521c d2bd 7fe7 483c cc5f aabc 472c 9fbd
00000190: 443b 263c e7df bdbd 6198 f43d fc6a cfbd
000001a0: b904 92bd 6ed6 c2bc 519e 953d b897 87bd
000001b0: a75a 573d 78f7 2ebd 7a05 f13b b8d4 c53b
000001c0: 53fa c2bd 5e77 c9bd 3a8f 4cbc 8e06 593d
000001d0: e44d 403d 75e8 a2bd ba5c efbc 5515 cfbc
000001e0: a018 493c c478 7c3d 4033 e3bd ce3b 9a3d
000001f0: 8296 feba eed2 f13a b68c e43c d16b 5dbd
00000200: 8287 723b cf3a 943d a5d4 33bd a193 c03d
00000210: 15e7 20bd 7032 aabd 8919 90bd fdda 613d
00000220: 9c2d 90bd f5f7 febd c0a3 6f3d 59de 743d
00000230: 1fce 203c bb1d 963c 3fe9 bc3d 9819 b13d
00000240: c4ba e2bd 97b9 d2bd d569 35bc 065d 2b3d
00000250: 3b0e 123b 3f6b f5bd 4d66 453d b49f f1bd
00000260: 94a6 d7bb 8ffe bf3c 0855 4bbd 350b c23d
00000270: 30bb ea3d 2895 e73c 9e4d d0ba d2de b43d
00000280: 02c8 9dbc 5119 d7bc 987d f1bd de45 51bc
00000290: 816c 043b 4f2d 903d eef6 e23d ac96 503b
000002a0: 3cd8 a2bd 76ab 5b3d 9740 b7bc 1124 513d
000002b0: c274 bdbd ba97 843a 541f 2ebc e1fa 8e3d
000002c0: 681d 873d 7275 80bc ff81 893c 33e2 d83d
000002d0: 2967 ae3c bee8 093d dd1b a13c 436b 713d
000002e0: c7a4 d1bd ca17 88bd 15da ae3d 1180 e2bd
000002f0: 9235 923b 11c2 ac3d 449f f1bd 5d17 033e

bias_hh_l0 f4 [192]
0.03918742 0.054050803 -0.10392136 -0.06947357 -0.08781771 -0.11601382 -0.06863916 -0.068238586
-0.05221672 -0.054914493 0.046614833 0.090305686 -0.0019579837 0.04758527 -0.11264326 0.05298744
0.023625843 0.043131337 -0.050562184 -0.015093981 -0.11807586 -0.011142458 0.10532568 -0.030242188
-0.09137576 -0.06472352 -0.03924194 -0.043516617 -0.052821983 0.019063901 -0.121698156 -0.11001651
-0.04084201 -0.029803114 0.11599613 0.019626217 0.110404335 -0.05667152 -0.10102677 0.04275073
0.05429041 0.09369736 -0.07107694 0.057450633 0.052236393 0.03737238 -0.106051475 0.031129824
0.04919686 -0.106412865 0.015384662 0.021223897 -0.05418847 -0.07862297 0.070747055 -0.12439484
-0.057497717 0.0840912 0.023632418 -0.07511197 0.084291264 0.032657597 -0.051233117 -0.0602588
-0.013624656 0.0125422785 0.020482846 0.04198251 -0.042033423 0.08411716 0.0927326 0.05018654
0.109969184 -0.03323969 0.10665842 -0.058911163 0.054594636 0.037494447 0.11453957 -0.021409333
0.028221326 -0.07460718 0.0635531 -0.108673885 0.01982644 -0.12908596 -0.11400906 0.075718455
-0.01664114 0.1027806 0.023302576 -0.09340622 -0.0012046661 0.0060506547 -0.0014421586 0.12361831
0.120588556 -0.058864415 0.03203818 -0.0869584 0.035745304 0.075891234 -0.097613774 0.08472374
-0.112116076 0.07965323 -0.10136788 -0.0021804064 -0.09701434 0.00039350998 -0.0027961012 0.0855544
-0.09088837 -0.020015107 -0.081591055 -0.109055445 0.038764715 0.042493843 0.042193048 0.073872894
-0.051216867 -0.008482861 -0.050506447 -0.062381923 -0.10861036 0.083008625 0.12750435 -0.12620191
-0.12100725 0.059521496 0.021828583 0.08787579 0.008355922 -0.010826994 0.025323674 -0.010427341
0.062358618 -0.009107374 -0.096745566 0.018896824 0.080655254 -0.006734528 0.05440399 0.013400053
0.034467246 -0.107034855 -0.05973512 -0.014590542 0.0893303 -0.11773377 -0.12868035 -0.104441166
-0.0015061095 0.1129851 -0.05650372 0.043255474 -0.09394239 -0.12503582 0.034450326 0.036445566
0.07007636 0.12645623 0.027737757 -0.06005995 0.10017964 -0.069656946 -0.008654324 0.05537087
-0.076114886 -0.010532361 -0.108619414 0.09277477 -0.12015985 0.10676007 -0.010318551 -0.08432994
-0.10952161 -0.0293641 0.056445807 -0.035107993 0.116357744 -0.07282508 -0.0379566 -0.01396573
-0.09362505 -0.10844104 0.031400505 -0.007664471 -0.077065565 0.024110416 -0.06665116 -0.037943866
00000000: fd82 203d 6064 5d3d b9d4 d4bd 2948 8ebd
00000010: c6d9 b3bd a798 edbd b092 8cbd acc0 8bbd
00000020: 33e1 55bd 05ee 60bd 32ef 3e3d 30f2 b83d
00000030: 8451 00bb c6e8 423d 82b1 e6bd 5c09 593d
00000040: fc8a c13c 7caa 303d 4b1a 4fbd bf4c 77bc
00000050: c2d1 f1bd db8e 36bc fdb4 d73d 77be f7bc
00000060: 3723 bbbd c48d 84bd 28bc 20bd 7b3e 32bd
00000070: dd5b 58bd e62b 9c3c e23c f9bd 5650 e1bd
00000080: f449 27bd a925 f4bc 618f ed3d 29c7 a03c
00000090: ab1b e23d 6520 68bd 20e7 cebd 641b 2f3d
000000a0: 9f5f 5e3d 67e4 bf3d c990 91bd 5b51 6b3d
000000b0: d4f5 553d c813 193d 8431 d9bd f903 ff3c
000000c0: a682 493d fdee d9bd f30f 7c3c bddd ad3c
000000d0: bbf4 5dbd 1405 a1bd d5e3 903d b9c2 febd
000000e0: ba82 6bbd 0238 ac3d c698 c13c 4ed4 99bd
000000f0: e6a0 ac3d f9c3 053d d1d9 51bd eed1 76bd
00000100: f339 5fbc 217e 4d3c a4cb a73c daf5 2b3d
00000110: 3d2b 2cbd 9e45 ac3d 97ea bd3d 6790 4d3d
00000120: 8637 e13d 5726 08bd bb6f da3d d54c 71bd
00000130: a09e 5f3d c793 193d b993 ea3d a062 afbc
00000140: 6930 e73c a6cb 98bd 2128 823d 6a90 debd
00000150: 0f6b a23c 1c2f 04be 957d e9bd 4712 9b3d
00000160: 0053 88bc a37e d23d 0be5 be3c c34b bfbd
00000170: e3e5 9dba 9244 c63b d006 bdba 992b fd3d
00000180: 22f7 f63d d01b 71bd 773a 033d 3f17 b2bd
00000190: ab69 123d dd6c 9b3d bbe9 c7bd a483 ad3d
000001a0: 1d9d e5bd 3c21 a33d f799 cfbd 26e5 0ebb
000001b0: 74af c6bd 0450 ce39 cb3e 37bb 2537 af3d
000001c0: af23 babd b9f6 a3bc 3619 a7bd 7658 dfbd
000001d0: c0c7 1e3d 060e 2e3d 9ed2 2c3d ac4a 973d
000001e0: c7c8 51bd b3fb 0abc d9df 4ebd 3084 7fbd
000001f0: 1c6f debd 6d00 aa3d 8090 023e 133b 01be
00000200: a6d2 f7bd d0cc 733d dbd1 b23c 39f8 b33d
00000210: 47e7 083c b463 31bc 9873 cf3c 70d7 2abc
00000220: c06b 7f3d 1837 15bc 8a22 c6bd 83cd 9a3c
00000230: 952e a53d 51ad dcbb b8d6 5e3d e58b 5b3c
00000240: 872d 0d3d 1735 dbbd d0ac 74bd 2b0d 6fbc
00000250: cef2 b63d 671e f1bd c8c4 03be 40e5 d5bd
00000260: a668 c5ba bb64 e73d 7270 67bd a72c 313d
00000270: de64 c0bd 6409 00be c91b 0d3d f247 153d
00000280: 3284 8f3d be7d 013e 4b3a e33c 6c01 76bd
00000290: fc2a cd3d 4da8 8ebd deca 0dbc 91cc 623d
000002a0: 1fe2 9bbd ed8f 2cbc db73 debd b300 be3d
000002b0: 5e16 f6bd 06a5 da3d 240f 29bc 2db5 acbd
000002c0: de4c e0bd fb8c f0bc b833 673d 66cd 0fbd
000002d0: f84c ee3d 5125 95bd 6178 1bbd 84d0 64bc
000002e0: 7dbe bfbd 5616 debd d19d 003d 3e26 fbbb
000002f0: 8dd4 9dbd 3583 c53c 6780 88bd 076b 1bbd

weight f4 [1, 64]
-0.07036427 0.111278504 0.016524233 -0.11112621 0.11023412 0.011476333 -0.09807259 0.09397237
-0.04765543 -0.02044989 -0.029805444 -0.042808518 -0.024535727 -0.039359327 0.05260317 0.02738413
-0.12106729 0.12361569 0.010882946 -0.09829531 0.061107416 -0.104738 -0.0012831773 -0.034002766
-0.079934105 -0.06678558 -0.11301671 0.07045607 0.0038107797 -0.09460929 -0.08195191 -0.033995207
-0.121312164 0.086824656 0.09662966 0.05223829 -0.03369097 -0.011791125 -0.05043777 -0.059721198
-0.059492595 -0.05311942 0.11753804 -0.05065931 -0.12653261 0.010933835 -0.08963879 -0.10894774
0.013509307 -0.04663931 0.022907183 -0.11231893 -0.09469647 -0.028620984 0.0058329073 -0.033566657
0.00496165 -0.07460274 0.104300804 -0.03342652 -0.062454544 0.08065634 0.08855645 0.032667525
00000000: 241b 90bd fce5 e33d d45d 873c 2396 e3bd
00000010: 6dc2 e13d 3b07 3c3c 48da c8bd 9674 c03d
00000020: 5732 43bd 8786 a7bc 8c2a f4bc fc57 2fbd
00000030: 26ff c8bc 3f37 21bd 6c76 573d af54 e03c
00000040: 21f2 f7bd 392a fd3d 624e 323c 0d4f c9bd
00000050: c54b 7a3d e080 d6bd 4930 a8ba 7c46 0bbd
00000060: 7eb4 a3bd e1c6 88bd 4e75 e7bd 464b 903d
00000070: 46be 793b 84c2 c1bd 67d6 a7bd 8f3e 0bbd
00000080: 8372 f8bd 20d1 b13d c5e5 c53d d1f7 553d
00000090: 8bff 09bd 902f 41bc d697 4ebd 379e 74bd
000000a0: 82ae 73bd c093 59bd c9b7 f03d 2380 4fbd
000000b0: c491 01be d423 333c 8b94 b7bd fe1f dfbd
000000c0: 2456 5d3c dc08 3fbd d8a7 bb3c 7807 e6bd
000000d0: 39f0 c1bd 8e76 eabc f921 bf3b 317d 09bd
000000e0: 5695 a23b 52c9 98bd a99b d53d 3fea 08bd
000000f0: 56d0 7fbd 272f a53d 165d b53d 62ce 053d
