models/one_month_new_trial/checkpoint/trained_irdpg_6.pth (torch, 409330 bytes, 22 tensors)

weight_ih_l0 f4 [192, 64]
00000000: b401 1abd 524d 293d 428b b43d 7419 a7bd
00000010: 54fc 713d 6b81 5f3c 34f9 a9bd 7a90 cdbd
00000020: e28b 043d f2f8 813d 6926 ba3d 9c7c 7c3d
00000030: 0459 9d3d 0453 19bd 069d 91bc 664e dbbd
00000040: 1845 d93d 6514 9b3d 1c0c 52bd a2ca 903d
00000050: e066 763c 86b0 bc3d 5b62 76bc ee48 343d
00000060: c0e4 c3bd bc07 8c3d 82ca d7bd e023 223c
00000070: 9c16 f43d 64c2 643d c3ac 6d3d 86ba 85bd
00000080: b0f3 eabd 2a27 0cbd 6a98 263d 0ef8 1ebd
00000090: d62f a0bd 563c c9bd dc71 b63d be62 dd3d
000000a0: d8c3 a4bd 3a31 433d b050 7d3c 067d 35bd
000000b0: ec0b f7bd 98da 33bd 50d5 ebbd 6d50 5fbb
000000c0: 2e54 85bd 10b9 90bc 3e00 c53c 4a6d d73c
000000d0: a479 ac3d 284d 513d 16cc c73d 221f b43d
000000e0: c84c dbbd aac4 273d b22f a1bd 9c43 8a3d
000000f0: 8247 c43d 0215 f0bd 2b9a dc3d 1cf0 d9bd
00000100: 8844 d6bc 1ca8 e43d 3095 cebd 1826 82bc
00000110: c445 b73d 4ec8 ac3d 86d7 e53d 30a7 69bd
00000120: 0241 4ebd a6df 99bd ab78 963d 464c c13d
00000130: 749e bdbd c0b5 983c b440 be3d be35 fd3d
00000140: 184a 0abd a43a 9ebd a46f 80bd 3c4c d83d
00000150: c4a6 73bd aac9 9abd 406a 823d b8bd f3bd
00000160: 8a3a cbbd 4828 6a3d 6423 1e3d 4416 dabd
00000170: 8895 6abd 80a1 6bbc aa82 e43c 88ff 36bd
00000180: 7e21 c83d 5ad3 e2bd eedb 8bbd 3a2d d8bd
00000190: 9a59 bfbd 70a7 d0bd 1826 bc3c fae6 83bd
000001a0: 4116 003e 24a2 8bbd 104b 463c 04f6 c1bd
000001b0: 8018 32bb 6e63 fcbd 401e 49bb 0a8f 14bd
000001c0: 72e1 afbd 324c c03d 8ac2 a43d ce52 d8bd
000001d0: 5203 903d 5cf4 b43d cade 29bd 2472 973d
000001e0: dcb3 763d 980d f7bd 52c4 a1bd f001 a3bd
000001f0: 6a44 f1bd a6c4 e9bd 9af8 373a d869 c33d
00000200: 308b 57bd 38e6 f7bd 0084 3db9 3258 aabd
00000210: a025 e13b fa0c 83bd 80bf b63b 50d2 423c
00000220: 0343 f5bc 6ae3 c8bd 6a87 913d 0407 61bd
00000230: d6ef b33d b8ed 40bd 56e3 f3bd 96ac 9e3d
00000240: b2a3 a4bd beaa a43d 0cdd e1bd 3e8a f03d
00000250: 40ca cebd dfd2 6e3d af70 6b3d 9334 cb3b
00000260: 5ba3 3a3d 547b 413d 987a 12bd c6c5 abbd
00000270: 76a7 ef3d 8c7d 533d 3f2c bc3d 2a73 d7bd
00000280: 7815 fcbd c29a 9cbd cb8d bfbc 54f0 ae3d
00000290: 6019 c43b 2ccb aebd 20d2 873d 4a64 a43d
000002a0: f09a cabd 6469 a63d e48f de3d 1d6f bc3c
000002b0: 36e8 88bd eec6 983d e0be f8bb ca39 b63d
000002c0: 7e5f b1bd bccd 64bd 6d4a 153d 6896 cf3d
000002d0: d214 ffbd d088 3d3d 1d65 c13c a303 5f3d
000002e0: 6828 eebd 7e23 a9bd 5432 ccbd d84c dcbd
000002f0: f6f7 ac3d fd88 c5bc 931f 7fbd d49b 6f3d
00000300: 3c22 033d a499 c4bd c8c4 ee3c 40af 11bb
00000310: 1c1f 0a3d 8a81 2f3d 685e 963c d80d e9bc
00000320: fb8b f33c 538c f4bc 9d8f 75bd 8c50 663d
00000330: f6e3 d33d 9ed6 ac3d 234e 943c 80ca 5abc
00000340: a8a4 133d 06b9 f9bd a86f eebd 925a fdbd
00000350: 0850 cc3d a217 5f3d 7879 ea3d 22ac 36bd
00000360: d6d8 1d3c aa2c ccbd c839 663d 60e1 a83d
00000370: 6ad8 c1bd 2eaf 89bd 9b0a e13d c075 44bd
00000380: 8054 70bb 7d2c c13c 9266 1c3d fe5f 88bd
00000390: b0a1 e53c 747d cb3d 887d d93d 6b87 c3bc
000003a0: db7f 8e3c 3ae3 c7bd aa5e 8e3d 443d b9bd
000003b0: 8463 7d3d d055 f5bd 0c55 91bd eb47 f53c
000003c0: 3880 f1bd 4079 12bd ae06 863d 32bb e43a
000003d0: 6c9d 5bbd 2e1b 8dbd fa9d b0bd 4022 593d
000003e0: 1e1f 953d 6695 553a 70ae 9a3d 4c4c 04bd
000003f0: 0610 b8bd 8bcf c4bc 3db0 2cbd 64a3 7dbd
-0.03759928 0.041333504 0.08815624 -0.08159152 0.05907853 0.0136416955 -0.08299485 -0.10037322
0.032359965 0.06346311 0.090893574 0.061642274 0.07682994 -0.037432685 -0.01777507 -0.10708313
0.10608882 0.07572249 -0.05128108 0.07069899 0.015039176 0.09213357 -0.015038098 0.044014864
-0.09565115 0.06837413 -0.10536672 0.009896249 0.11918375 0.055849448 0.058026087 -0.06529717
-0.11472261 -0.034217037 0.040672697 -0.038810782 -0.07821624 -0.09825961 0.08908436 0.10809849
-0.08045167 0.047654368 0.015461132 -0.044308685 -0.12062821 -0.04390964 -0.115152955 -0.0034075037
-0.065101966 -0.01766637 0.024047967 0.02629723 0.084216386 0.051098973 0.09755723 0.087950006
-0.10708004 0.040959038 -0.07870425 0.06751177 0.095839515 -0.11722757 0.10771593 -0.106415
-0.026155725 0.11164877 -0.10087049 -0.015887305 0.089488536 0.084366426 0.112227485 -0.057044208
-0.050354965 -0.07513361 0.07347234 0.09438376 -0.09258738 0.018641353 0.09289685 0.12363766
-0.033762068 -0.077260286 -0.06271294 0.105614156 -0.059485212 -0.075579956 0.06367922 -0.1190142
-0.09923275 0.05716732 0.03860797 -0.10648778 -0.05727151 -0.014381766 0.027894337 -0.044677287
0.09772013 -0.11075468 -0.06829058 -0.10555501 -0.09343262 -0.10188186 0.022967383 -0.0644054
0.12508489 -0.06818035 0.012102857 -0.09470752 -0.0027175248 -0.12323652 -0.0030688196 -0.036269225
-0.08587922 0.09389533 0.08044918 -0.10562669 0.07031883 0.0883567 -0.041472234 0.073948175
0.06023012 -0.1206314 -0.07898773 -0.07959354 -0.11780627 -0.11414461 0.00070179405 0.095416725
-0.052622974 -0.121044576 -0.00018073618 -0.08317603 0.0068709403 -0.063989595 0.005577028 0.011890963
-0.02993918 -0.09809001 0.07105906 -0.05493833 0.087859794 -0.047101706 -0.11908595 0.07747762
-0.08039035 0.08040379 -0.110284895 0.117451176 -0.1009717 0.05830657 0.05748051 0.0062013357
0.045565944 0.047236755 -0.035761446 -0.08387332 0.117018625 0.051633403 0.09188127 -0.10520013
-0.12308782 -0.07646705 -0.023383042 0.08541933 0.0059844702 -0.08534846 0.06631875 0.08026941
-0.09892833 0.081255704 0.10867289 0.023002202 -0.06684916 0.07459818 -0.0075911134 0.08897741
-0.08660792 -0.055860266 0.03644793 0.101361096 -0.12455143 0.046273053 0.023607785 0.054446828
-0.11628801 -0.08258723 -0.09970537 -0.10756844 0.08445732 -0.024113173 -0.06228597 0.05849822
0.03201507 -0.09599617 0.029146567 -0.0022229701 0.033721074 0.042848147 0.018355563 -0.028448984
0.029729834 -0.029852068 -0.059951413 0.05622916 0.103462145 0.084393725 0.018103665 -0.013353944
0.0360457 -0.121934935 -0.116423905 -0.123707905 0.09976202 0.054465897 0.114489496 -0.044597752
0.009634217 -0.099694565 0.05620745 0.08246112 -0.09465106 -0.06722866 0.10988351 -0.047963858
-0.003667146 0.023580784 0.038183756 -0.06658934 0.0280312 0.09936038 0.10619646 -0.023868283
0.01739495 -0.09760137 0.069516495 -0.090448886 0.061862484 -0.11979258 -0.070962995 0.02994152
-0.11792034 -0.035760164 0.06544243 0.0017450808 -0.053616926 -0.0688995 -0.08623882 0.05301118
0.07281326 0.0008147567 0.075528026 -0.032299325 -0.08987431 -0.024024745 -0.04216026 -0.0619234

weight_hh_l0 f4 [192, 64]
00000000: 6327 af3c d234 f0bd b43a 203d e437 e43c
00000010: e5af b03d f32b f23d 0a7f aa3d 8e01 8e3d
00000020: bd2b 953d 4e72 e0bc b946 96bd bd42 f03d
00000030: 5386 be3a 52a2 603d 1c66 a73c 580b ae3c
00000040: 8f87 a7bd 5719 e33d afbd 2f3d 8a3b b0bd
00000050: d891 913d ffa0 4d3d 42ca cdbd f0a4 32bd
00000060: 1cc9 e93d 67e4 8abd 0fb6 4fbc 9528 c7bd
00000070: 2261 aabd 6ff5 613c 7563 e7bd 7209 79bd
00000080: 1eba bc3d 3dbe e93c 205a bebc 162a f13c
00000090: 221b 3a3d a1b5 d1bd 9c5e 793d 9630 ebbd
000000a0: 53dc a23d f721 7e3d 7333 f4b8 61e4 ca3b
000000b0: e164 d33d 1f33 ed3d d5bb 9d3d 7a4b b03d
000000c0: da8f d93d 189a 5e3c 3c48 7a3d b65c a03d
000000d0: 5aa0 803d ee7f fa3d 607d 7abd 598b e9bd
000000e0: d754 ad3d a32b b4bd 6088 fb3d 64a6 d53c
000000f0: 4fcf c83d 6092 d3ba 42f3 84bd e2f7 223d
00000100: e4f1 fd3d 4cea 99bd bdd3 c03c 2b38 be3c
00000110: 82da 8bbd 7c3f cfbc e041 6e3c 794d fabd
00000120: 9bdf 413c 79e8 1cbd 7750 a93d 8d0a 953d
00000130: acbb 373d a114 4c3d fd8d c23d b64e 5abd
00000140: 3839 693c cf1e e03d 1786 4b3d 312b 88bd
00000150: 091e 1d3c 137f 993d bedc f23c 63b0 8c3d
00000160: 823d 873c d1ab e43c f6ad b93d 7e41 52bb
00000170: 257d c7bd e5a7 393d 7977 d6bd 648b 9c3d
00000180: 29cf 7f3d 1701 d8bd fdd4 eb3d 57d9 313c
00000190: 2234 b8bd 6bd1 abbd 86f2 14bd df39 5e3c
000001a0: 9709 123d 6101 7c3d fc51 ddbc bf73 8f3c
000001b0: 52fa f9bc 79ab d03d 5e71 963d 09e2 dabb
000001c0: 0a23 313d 1cec 1dbd 8360 fe3b b85b aabd
000001d0: 11ff ae3d 8da1 c4bd 62b3 ac3d d7d9 dfbd
000001e0: 05c2 1d3d 62a9 f73d 04b7 f53d a2c6 92bd
000001f0: 5d03 c4bd 7c7b e2bc 4743 3c3d 9b4a 673d
00000200: d3b5 93bd de00 f63d ac6d f6bd d418 c8bd
00000210: b9f9 65bd fc71 983d 23be 863d 4651 9a3c
00000220: 3bb4 bb3d 1fb3 d1bc d642 a43d fecf e2bd
00000230: 14d6 bd3d 3f79 c23d 431b ff3d 493c acbd
00000240: 15f1 a13d ae0f b83c cfa6 733d b0eb febd
00000250: 8a97 50bd 6374 aebc c1c2 083b c0ab f7bd
00000260: 8cfd 193c 56c3 2e3d b06c d13d 2cda 10bc
00000270: d95a 4cbc 48ea 5e3d a980 a7bd a6ac ecbb
00000280: 4bb3 56bc ba52 f83d eaa3 f63d faea 4ebd
00000290: 5458 d93d fefe 1bbc f68c c63d 1177 483d
000002a0: 700d db3d dec2 19bd 256b a9bd 8251 5a3c
000002b0: c502 f83c dfd0 673d ff71 a1bc cc31 babd
000002c0: 5d88 d03c 1014 fa3d 4765 803d 374a 673d
000002d0: 9708 59bb faee 063d 01ae 84bd 54e2 483d
000002e0: a18f d53c 247f d6bd 1e9c 96bd 3aac 563d
000002f0: e8bc af3d 39a2 20bd b3b4 1dbd a858 b33d
00000300: c1e0 da3d 940a 1a3d 7465 0a3c e053 923c
00000310: 6d17 023d 2c2f 62bd 378f e73d b317 13bd
00000320: 6510 06ba 457c d4bd a870 6c3c f28c 173d
00000330: 72de f7bd 0a85 a5bd eb1c 213d 9418 adbd
00000340: b746 a43d e9d1 45bd ac26 b53b 917e 76bd
00000350: d601 333d eedb 73bd 2fca 9e3d b301 aabc
00000360: 0fca e63c 28f2 f63d 478f 323d 196e 23bd
00000370: 9a16 b1bd 1986 4abd dba0 923c 5ba0 763d
00000380: a62d df3d ce64 b9bc 61c0 ed3d 57cc dcbd
00000390: 74c7 ecbd 4b19 cbbd 6763 b43d 4e44 a2bc
000003a0: 6cd0 febd 95e9 163d d937 c7bb cc38 fa3d
000003b0: 2fe9 04bb f130 71bd 1815 8c3c df43 a8bd
000003c0: 24d0 f6bd 4353 2f3d a080 c3bc 8b46 853c
000003d0: 6cdf 5f3d 0461 ef3d 307f 5b3d bae4 c93a
000003e0: 47f4 79ba f739 c43d 327d 15bd 4067 a33c
000003f0: 5892 893c 5b57 ab3d 9b5c f33d fd79 98bd
0.021381086 -0.11728825 0.039118484 0.027858682 0.08627299 0.11824789 0.08325012 0.0693389
0.07283733 -0.027398255 -0.07337708 0.11731479 0.0014535881 0.0548423 0.020434432 0.021245643
-0.081801526 0.110888176 0.042905506 -0.08605106 0.071078956 0.050202366 -0.10048343 -0.043614328
0.11415312 -0.067818455 -0.0126776835 -0.09724537 -0.08319308 0.013791426 -0.11298267 -0.060800023
0.092151865 0.028533095 -0.023236334 0.029439013 0.045436032 -0.10239721 0.060881242 -0.114838764
0.0795218 0.06204411 -0.0001164441 0.0061917757 0.103219755 0.11582016 0.07701842 0.08608146
0.10623141 0.0135865435 0.061104044 0.07830183 0.06280585 0.12231432 -0.061154723 -0.114035316
0.084634475 -0.087973855 0.12281871 0.026080318 0.09805166 -0.0016141646 -0.0649171 0.03978718
0.123996526 -0.07515392 0.023538465 0.023220142 -0.068287864 -0.025298826 0.014542073 -0.12221808
0.011833097 -0.03830764 0.082673006 0.07277403 0.044856712 0.04982436 0.09499738 -0.05329772
0.014234833 0.10943376 0.049688425 -0.06648863 0.0095896805 0.074949406 0.029646274 0.068695806
0.016508821 0.02791396 0.090663835 -0.0032082493 -0.09740666 0.045326132 -0.10472006 0.07643774
0.062453423 -0.10547083 0.11515234 0.0108550405 -0.089943185 -0.08389553 -0.0363641 0.013563602
0.035653677 0.061524753 -0.027016632 0.017511247 -0.03051487 0.10188956 0.07345842 -0.0066797775
0.043246306 -0.03855525 0.00776297 -0.08318275 0.08544744 -0.09601126 0.08432652 -0.109302215
0.03851511 0.12092854 0.11997798 -0.071667925 -0.09570954 -0.027646773 0.0459626 0.056467634
-0.072124146 0.12011884 -0.12032637 -0.097703606 -0.056146357 0.07443616 0.065792345 0.018837582
0.091652356 -0.025598107 0.080205604 -0.110748276 0.09269348 0.09495782 0.12456372 -0.08409936
0.07907311 0.022468414 0.059485253 -0.124472976 -0.05092577 -0.021295732 0.0020868035 -0.120933056
0.009398829 0.042666756 0.102258086 -0.008841079 -0.012472832 0.054422647 -0.08178837 -0.0072227297
-0.01310427 0.12125154 0.12042983 -0.05051706 0.106125504 -0.009521244 0.09694855 0.048941676
0.106959224 -0.037539355 -0.08272389 0.013325097 0.030274758 0.05659568 -0.019707678 -0.09091529
0.025455648 0.12210858 0.06269317 0.05646726 -0.0033116692 0.03294275 -0.06478501 0.04904397
0.026069464 -0.10473469 -0.07353996 0.05241034 0.08580953 -0.039217208 -0.038502406 0.08757144
0.106874 0.037607744 0.00844704 0.01786226 0.03176062 -0.055220768 0.11306613 -0.035911273
-0.00051141373 -0.10375265 0.014431156 0.03699965 -0.12102975 -0.08082016 0.03933422 -0.084519535
0.080213 -0.04829589 0.0055282917 -0.060179297 0.043702923 -0.059535913 0.07753407 -0.020752763
0.02817252 0.120579064 0.04359367 -0.03989992 -0.08646889 -0.04944429 0.017898967 0.06021152
0.108973786 -0.022631075 0.11608959 -0.10781162 -0.1156148 -0.099169336 0.08808022 -0.01980796
-0.12442097 0.036843855 -0.0060796556 0.122178644 -0.002028059 -0.058884565 0.017099902 -0.082160704
-0.120514184 0.042804014 -0.023865044 0.01626899 0.05465643 0.11688426 0.053588092 0.0015403249
-0.00095349964 0.095813684 -0.03649635 0.019946694 0.016793415 0.08366271 0.118828975 -0.074451424

bias_ih_l0 f4 [192]
00000000: be63 abbc 5015 963d 1539 cb3c 6ecb bd3d
00000010: a520 353d e7d8 d0b7 4699 89bd fbfc b13d
00000020: 15ef 3d3d 1fe7 be3d 0dc0 1e3d e775 aabd
00000030: 301b 9f3d fd89 ec3d 547d f33d 3d66 2d3d
00000040: 4d5e 8e3d a1c6 f53a 8481 713d a27b d3bd
00000050: 0dc8 823d 9115 44bd dfaa 883d 1622 14bd
00000060: 068d 8d3d e4f1 cd3d b80b 1d3d 9227 27bd
00000070: b4bd 0b3d f350 6d3d a721 a8bc 44f0 c23d
00000080: 802f 793d a169 423d 94bc 79bd 8df0 753d
00000090: dfce f43d e80d 8fbc 3b95 b23d 73c1 7cba
000000a0: 556b a23d 69fc f1bd 7aa6 903d 7490 9e3d
000000b0: ca19 223d c5a3 fa3d 65b0 2ebb 34db c9bc
000000c0: 20ed 843d 4d75 c43d 176f fd3d 972c 2b3d
000000d0: f30f e1bd b20c 443d ce02 b5bc e85b 59bb
000000e0: 4b7f 8c3d 35b7 273d 5fe0 32bd 0b84 9cbd
000000f0: 1e89 d33c e102 a8bd 9996 4b3d fc97 c13d
00000100: 1620 ca3b 58d9 8ebd 9be1 79bd 38db d83d
00000110: 9987 c93b 23f7 623d 40d4 f1bd 3951 a03d
00000120: cfc2 513d 2d62 03bd 3aca 41bd 8a46 e6bc
00000130: 373f bb3d 7915 dd3d 9620 b8bc 0a9c 9ebd
00000140: 8b8b edbd abba ec3c 4b80 363d 0ddb 18bd
00000150: 0d5e b0bd a98f ffbd cc10 9fbd b6d4 df3b
00000160: f859 f83d 170b d33d 26c8 abbd 4395 ea3d
00000170: d242 9fbd 8639 e03c 3b64 ddbb 8394 d53d
00000180: 331a ccbd e60c 50bd dbe6 2f3d 6176 383c
00000190: 0691 3d3c a186 c7bd 7af5 313d 454f ebbd
000001a0: 96d8 c3bd 169e afbd dbcb d9bb 554b a4bd
000001b0: bbb4 113d 3c5f 3a3d 574f 8dbd 31b4 a03d
000001c0: 784f ecbb 6c10 cf3d da74 2bbd d26f 8a3c
000001d0: b4bb 97bd 5ef5 c6bd 468b f0bd f0d6 3b3d
000001e0: dc1c ccbd 829f 9abd 8758 0cbd 1d2b 9b3d
000001f0: 0675 313d 960b eabd 1a51 a3bd 156d a4bd
00000200: 130d 713d b39c 8a3c 531b b03d 884b ee3c
00000210: 8e2a f7bd 16f7 883d d236 9fbd 4728 49bd
00000220: 2c47 ea3d 524d ef3d 11d5 8dbd a402 d63d
00000230: e017 c0bc ee56 debd 62f5 fe3d f274 dcbd
00000240: a3ea 40bb d3e4 5d3b f93e 733d aafe 4b3d
00000250: e88d 913c de51 1e3d ee70 563d 073d 49bd
00000260: d545 5d3d 3636 fa3d 673d e8bd 9210 babd
00000270: 62bd ea3d d3d8 9d3d fe83 edbd 472f 9ebd
00000280: 764e 53bd 8b9e 9e3d 7055 cfbd df9a 0b3c
00000290: 4217 a03c 5d68 e4bd 5e70 f93d 1c4d 4fbc
000002a0: 5087 a23d dd59 cf3c f30e 0dbd 770a 83bd
000002b0: 1e1d ce3c caca d2bd e5df c03d b09b a2bd
000002c0: ad36 933c 1553 983d fdb0 d2bd 36e7 ab3d
000002d0: 88e6 f0bd db24 85bd cec5 693d 9b60 bbbc
000002e0: 8363 223d ef50 f0bd 1b48 543b bf6f 6cbc
000002f0: 6c81 60bd a9cd 5c3d b611 59bb a6ab 8a3c
-0.020921584 0.07328284 0.024807492 0.09267317 0.044220585 -2.4896535e-05 -0.06718688 0.0869083
0.046370585 0.093214266 0.038757373 -0.08323269 0.077688575 0.11549757 0.11889139 0.04233383
0.0695158 0.0018751213 0.058961406 -0.103263155 0.06385813 -0.04787213 0.06673216 -0.03616532
0.06911664 0.100559026 0.038341254 -0.04080922 0.034116462 0.057938527 -0.02052386 0.09518483
0.060836315 0.047464017 -0.060970858 0.06004386 0.1195352 -0.017462686 0.0871987 -0.0009641863
0.07930628 -0.118157215 0.07063003 0.07742396 0.039575376 0.12238268 -0.0026655432 -0.024640657
0.064905405 0.09592686 0.12374704 0.04179057 -0.1098937 0.04786367 -0.022096064 -0.0033166353
0.06860217 0.040946204 -0.04367101 -0.07642373 0.025822219 -0.08203674 0.049704168 0.09452817
0.0061683757 -0.06975049 -0.06100617 0.10588688 0.0061501977 0.05541147 -0.118080616 0.07827992
0.051211175 -0.03207605 -0.047312 -0.028109808 0.09142917 0.10795111 -0.022476476 -0.07744606
-0.11598881 0.028897604 0.044555943 -0.037318278 -0.08611689 -0.12478573 -0.077668756 0.006830777
0.12126535 0.103048496 -0.08387785 0.11454251 -0.07776417 0.02737118 -0.006756333 0.10428717
-0.099659346 -0.05079355 0.04294477 0.0112586925 0.011570221 -0.09742475 0.043446995 -0.11489729
-0.09562795 -0.085750744 -0.006646616 -0.08022181 0.03557275 0.04550098 -0.068998985 0.07846869
-0.007211622 0.10110554 -0.041859485 0.016899023 -0.074088484 -0.09714769 -0.11745314 0.045859277
-0.09966442 -0.07549955 -0.034264114 0.075765826 0.043324493 -0.11427991 -0.07974453 -0.08028618
0.05885036 0.016920423 0.08598962 0.02908875 -0.120686635 0.06687753 -0.07774128 -0.049110677
0.11439356 0.116846696 -0.06925405 0.104497224 -0.023448884 -0.10856424 0.12449147 -0.10764493
-0.002943673 0.0033858314 0.059386227 0.049803413 0.017767861 0.038652293 0.052353792 -0.049130466
0.054021675 0.12217371 -0.113398366 -0.09085192 0.11461903 0.077073716 -0.11597441 -0.07723861
-0.051588498 0.077450834 -0.10123718 0.008520811 0.01954234 -0.11152718 0.121796355 -0.012652662
0.07935965 0.025311405 -0.034438085 -0.063984804 0.025160369 -0.10292585 0.094177045 -0.07939851
0.017970407 0.07437722 -0.10287664 0.08393709 -0.1176272 -0.0650117 0.057073407 -0.022873214
0.039645683 -0.11734187 0.003239161 -0.014430939 -0.054810926 0.05390707 -0.0033122129 0.016927551

bias_hh_l0 f4 [192]
00000000: fe97 b0bc 4cdc a23d 0848 b0bd fcc2 d53d
00000010: 27ba c43d 9e3e b83d a530 1abd a1ab c0bb
00000020: 1a57 89bd bc3a 0dbc fee1 b7bd f3ba d5bd
00000030: 1d54 f53c 798e 53bd c9a5 5c3d e39d 593c
00000040: 7702 ffbd 93bc fa3d a4a5 8d3d f62d b8bd
00000050: c5fa e23d 8f89 ac3d 89dc dd3d f42a 7fbc
00000060: 8a2c b03c a6d6 31bd 4c02 febd 12e4 acbc
00000070: 9cee 13bd 01ae 77bd 482c 83bd 5d0a 7bbc
00000080: eca1 dfbd ddab 7dbc c42b 663d a984 b73d
00000090: d4b7 44bd 6002 a83d b359 41bd fa10 f6bd
000000a0: 5345 adbd 420b 17bd 88b0 8fbd e8e9 cebc
000000b0: e69c 5c3d b658 933b 5e59 5cbd 9332 8ebb
000000c0: a7b0 be3c f44a 20bd 1f20 2fbd 8e0a c23c
000000d0: d869 c23c 85b1 393c 8def 433d 6935 d53d
000000e0: 3227 42bd 8d8c a03b 7dad 2f3d 8553 93bd
000000f0: 48f0 f23d c518 8abd 3cdc c7bc ee72 01bd
00000100: 44d6 443d cf48 e2bc 5184 6e3d 502b 923d
00000110: 1e10 913c 3fe2 2f3d cbee 63bd 59cc c33d
00000120: 82ad dbbc e848 e73d 21da 863d ca5d 233d
00000130: 151b b3bd 09d8 c9bd 6cb1 9f3d 3689 b9bd
00000140: 57a6 9bbd b848 17bd 9732 813b f652 a2bd
00000150: 96cf 5a3d 3efe edbc 22d6 a5bd cb42 253d
00000160: 1c4d 80bd 4db7 393c 4b95 2cbd f9de f6bd
00000170: 2f98 043d c905 dfbd 278e 49bd fb7d e4bd
00000180: a813 efbc 566f 63bd db7e 88bd ffe5 c8bb
00000190: ea5d 973d a40c b33c 2b5c dc3c 8bb7 7dbd
000001a0: dc88 f1bd 7586 0c3c 89a7 003d 31e9 c2bd
000001b0: e53d 0cbd ac02 d53d 1800 cfbc 5acd 3dbd
000001c0: 77ac 45bd 8e18 b03d 0e6f d9bd b60a b2bc
000001d0: 6cf9 db3d f247 3a3d 497b d8bc 410d fdbb
000001e0: ae87 b23d 30a8 eebd 53d9 213c 69c9 113c
000001f0: d64b 863d 6247 523d 927a b63d a58d debd
00000200: a8be 713c ce4a 4abb 81a7 d53d 7d0b a4bd
00000210: ba0c 9fbd b065 293d 691e a63c 1675 ae3d
00000220: ef35 d0bc 15f9 b0bd bed1 27bc 2e61 48bd
00000230: e79e da3d ce36 b6bd 5493 f03d 7d75 86bc
00000240: 5c21 e2bd ec39 c4bd b869 e3bd b1be 8fbc
00000250: 5266 36bd 7010 703c 5deb c3bd 4fcb 22bd
00000260: e3ab afbd bb77 573d 2c6c d0bd 59de 50bb
00000270: adea 1bbc f9c0 9b3d 532a a03c a7b1 2abd
00000280: 5890 d7bd 70e5 0bbd fd9f 40bd fcd2 573d
00000290: 54ce 19bc 5f49 c3bd bc95 87bc fe90 fdbd
000002a0: d594 07bc ef2f 4ebd 526f 91bd 4ec6 8c3d
000002b0: 1d82 b63d 3954 fd3d a059 253d 7c08 b5bd
000002c0: 8921 7cbd b905 3bbc a455 45bc fbd8 6f3d
000002d0: 06d5 f4bd 4484 a7bd c5f8 91bd 1b9e 93bd
000002e0: 463b f03c 0006 bbbd 69bc 2abc 0b83 cdbd
000002f0: 903c b93d b7ee c73d c42e 953d 2e68 113b
-0.02155685 0.079521745 -0.08607489 0.10437581 0.09605818 0.08996318 -0.037644047 -0.0058798348
-0.067060664 -0.00861996 -0.089786515 -0.10436048 0.029947335 -0.051649544 0.053869043 0.013282272
-0.12451642 0.12242999 0.06916359 -0.08993141 0.11082987 0.08424675 0.10833079 -0.015574206
0.021505613 -0.043417595 -0.12402782 -0.021104846 -0.036116228 -0.060468677 -0.0640493 -0.015322295
-0.10919556 -0.01548287 0.056194082 0.0896085 -0.048026875 0.08203578 -0.047204684 -0.12014957
-0.08460488 -0.03687597 -0.070160925 -0.02525802 0.053860568 0.004496659 -0.053796165 -0.004339525
0.023277594 -0.03913398 -0.042755242 0.023686673 0.02373211 0.011333828 0.047835875 0.10410578
-0.04740066 0.0048995675 0.04289006 -0.071936645 0.11862236 -0.06743006 -0.024397008 -0.031603746
0.048055902 -0.027622608 0.058231656 0.071371675 0.01770788 0.042940374 -0.055647653 0.095604606
-0.026816133 0.11293203 0.065845735 0.039884366 -0.087454 -0.098556586 0.077975124 -0.09059374
-0.07600086 -0.036934584 0.0039427984 -0.0792598 0.053420626 -0.029051896 -0.08097483 0.040346902
-0.062647074 0.011335206 -0.042134564 -0.120542474 0.032371696 -0.10889775 -0.049207833 -0.11156841
-0.029184178 -0.0555261 -0.06664821 -0.0061309333 0.073909596 0.021856613 0.026899418 -0.06194262
-0.11793682 0.008576979 0.031409774 -0.09517134 -0.034238715 0.104009 -0.0252686 -0.046338417
-0.04826018 0.085984334 -0.10616885 -0.021733623 0.10740933 0.04547877 -0.026425974 -0.0077225273
0.08717285 -0.11653173 0.009878474 0.008898118 0.06557433 0.051337607 0.08910097 -0.1086686
0.014754929 -0.003086734 0.104323395 -0.08010004 -0.07766099 0.041356742 0.020278173 0.08518426
-0.025416343 -0.086412586 -0.0102428775 -0.048920803 0.106748395 -0.08897172 0.117468506 -0.016413445
-0.11041519 -0.0958136 -0.111041486 -0.017546983 -0.044531174 0.0146523565 -0.09566376 -0.03974467
-0.08577707 0.05260442 -0.10176882 -0.003187081 -0.0095164 0.07605166 0.019551432 -0.04167333
-0.10525578 -0.034154356 -0.047027577 0.052691445 -0.009387571 -0.09535479 -0.016550891 -0.12381171
-0.00827523 -0.05033868 -0.07101311 0.06873761 0.08911536 0.1236958 0.040368676 -0.08839509
-0.06155542 -0.011414939 -0.012044344 0.058556538 -0.119546935 -0.081795245 -0.07127527 -0.072078906
0.029325139 -0.09132004 -0.010420897 -0.1003476 0.090447545 0.09762328 0.072843105 0.002218734

weight f4 [2, 64]
00000000: 513e f5bd e841 c4bc 44ae 88bd ddf6 d1bd
00000010: e2f9 18bc ea54 70bd 1daa c0bd ec62 d63d
00000020: 1dee a83d dee3 d3bc e5bd f23b f6f1 ed3d
00000030: 7d67 9d3d 1c25 dd3c f349 3d3d 8798 b83d
00000040: 704b 5abb 2aab 543c e87b 873d d3e0 b0bd
00000050: e45c e0bc a4f0 81bd 27b0 4c3d 4a68 52bc
00000060: 5be8 4c3d 94ab e7bd 4c61 efbb 300e 743c
00000070: 798d c43d a0a1 a6bc 7f32 eebd 65e3 dfbd
00000080: 5631 99bd b540 22bd 54f5 5c3d 21f2 f7bd
00000090: 57e4 c93d a27f 463d e7e6 8bbd c390 19bd
000000a0: 1748 003e 360e 853d 60fe cabd b93f dfbc
000000b0: c059 433d 8fe8 89bd 2635 bcbd c159 6ebc
000000c0: 5ea7 d53d e772 963c 7338 ea3d b372 713d
000000d0: 84ad 4cbd 340f f63d f55c 803d baad 41bd
000000e0: 4c30 8fbc 3182 823d 5058 85bd b018 fc3d
000000f0: c4cd 223d 017c 423d c42b a33c 82e6 e7bd
00000100: b3ed 30bc 3020 8cbc c3e3 a83b bfa5 b7bd
00000110: a638 9d3d 50fd c23d 4878 d53c 9cd2 1dbd
00000120: 648c 623d e19b 53bd 1e0a cabd 7796 f3bc
00000130: 2d15 bebc cc97 a73c 20e1 f63d cac8 913c
00000140: dbd3 8dbc d6e6 323b 98f9 e03d 1d87 da3d
00000150: 4083 e83d 8001 103d 0620 e1bd 5db7 3dbd
00000160: ffe2 0eb9 493c 86bc 3c59 d0bd bc7b 3bbd
00000170: 16cd c23c d2ee b63d 5681 e23b 3fd9 873d
00000180: 6cc2 b43d f1bc 92bd 8237 fb3d a17c fa3d
00000190: 6147 bf3d 777a d5bd ad29 a93d 8a81 e13d
000001a0: d87b 93bd 44f2 e53d c28b c23d d1b5 623d
000001b0: 0057 193b 329c d6bc 49d0 1dbd 5f5e 71bd
000001c0: 1896 8bbd 4a86 37bd 2d6b 8dbd ecde 1fbc
000001d0: a937 b8bd 3072 82bb 6908 ba3d 2858 e4bd
000001e0: 4cb4 babc f15c ee3d 0c53 e93d ebe5 123d
000001f0: 7c9b 27bd c143 73bd 1be3 33bb 33ce 5abd
-0.119747765 -0.023957208 -0.066738635 -0.102521636 -0.00933692 -0.05867473 -0.094074465 0.104680866
0.082485415 -0.025865491 0.007407891 0.11618416 0.076857544 0.026995234 0.0462131 0.09013467
-0.0033309124 0.012980262 0.0661543 -0.08636632 -0.027388044 -0.06344727 0.04997268 -0.012842247
0.05002628 -0.11312023 -0.0073053 0.014895961 0.09597296 -0.02034074 -0.11630725 -0.10932044
-0.07480113 -0.03961249 0.0539449 -0.12106729 0.098580055 0.048461564 -0.068311505 -0.03749157
0.125275 0.06496851 -0.099117994 -0.027252065 0.047693014 -0.0673381 -0.09189825 -0.014547766
0.104323134 0.018365337 0.11436548 0.058947276 -0.049970165 0.120146185 0.0626773 -0.04728482
-0.017479084 0.06372488 -0.06510985 0.12309396 0.039747015 0.04748154 0.01991833 -0.11323263
-0.010798859 -0.017105192 0.0051541044 -0.089671604 0.076768205 0.09520972 0.026058331 -0.03853093
0.05530967 -0.05166233 -0.09865211 -0.029734833 -0.023203457 0.020458125 0.12054658 0.017795939
-0.017312935 0.0027298233 0.10985106 0.10670302 0.11353159 0.03515768 -0.10992436 -0.046317447
-0.00013626738 -0.016386168 -0.1017327 -0.0457723 0.023779433 0.0893227 0.0069123907 0.06633233
0.088261455 -0.07164944 0.12266447 0.12230802 0.09339786 -0.10423749 0.08259902 0.11011036
-0.07201356 0.11227849 0.09499313 0.055349175 0.0023397803 -0.026197527 -0.038528714 -0.05892789
-0.068157375 -0.044805802 -0.06905208 -0.009757739 -0.08994991 -0.0039808974 0.09083635 -0.11149627
-0.02279105 0.11638821 0.11392793 0.035863798 -0.040919766 -0.059390787 -0.0027448598 -0.053419303

bias f4 [2]
00000000: 6ee8 6a3d 23ba e6bc
0.05735057 -0.028164929

weight_ih_l0 f4 [192, 66]
00000000: 7869 c9bc e738 fa3d f25f 81bd 1025 de3c
00000010: 1a95 cabd f7d2 a9bd 68c8 f9bd cada e3bd
00000020: 3cc4 243d 8fa8 f5bd a8de b63d 1cfc b8bd
00000030: c7a7 133b 105b 86bc 3221 233c 5675 8dbd
00000040: 9065 76bc df51 b43d a626 ad3d be13 ccbd
00000050: b65b ba3d 9c66 2b3d b7a5 a9bc f842 473d
00000060: 7141 c1bd 5c7f dd3d 1445 d83d 0af6 c63d
00000070: 00b9 943d 4875 803c e44d 263d ba7a 99bd
00000080: a881 57bd 3069 44bd fb60 db3d 6179 c23d
00000090: e42e d9bd 00e4 6c3b 1ab5 9f3d 97e5 f7bd
000000a0: 89b4 dc3d 3310 acbd be5f f6bd a49f 303d
000000b0: 589f babc 400b 61bc 4851 f13c 8df0 dabd
000000c0: 676f b0bc 644d 81bd 57e8 823d 35c7 a6bd
000000d0: 2092 9dbd dc02 a13d 8b76 d7bd 3c04 96bc
000000e0: 9066 e7bc 5b05 febb f0d6 913c 78ea ca3c
000000f0: e12b e53c 758a c13d 11d3 d9bc 30fd 713d
00000100: 569c d23d 98d5 d33c aa3b e6bd ef5c ef3c
00000110: bc60 b2bd c81b 32bd c2e0 9cbd 643d 553d
00000120: 88ff 383d 60f0 fd3b 83f3 dfbb 49c8 eb3c
00000130: e7d2 c6bd f4f7 6bbd eb64 c8bd 4e5e f53d
00000140: 7071 683c 8c76 ed3d d48f b93d 3816 7a3d
00000150: a859 f43c b4b1 023d 1c9f 81bd 9cfc 1fbd
00000160: 2c09 263d e99a b83d 0439 12bd d8ca e2bd
00000170: e87a e8bc 0814 403d b8ef 91bd 2e14 fa3d
00000180: 9fc1 d23d 2e32 c7bd 8803 e6bd 5186 cbbd
00000190: d599 b0bd c97e e83d b2c6 cc3d 4ef5 bcbd
000001a0: 28a6 c93d 9da2 83bb dc4d 593d 60d5 7d3d
000001b0: 9cc0 2dbd 7368 df3d b243 c1bd a0f6 893b
000001c0: c8e2 cb3c dcc2 7b3d e72b f0bd 326a fc3d
000001d0: ff66 f5bd 2126 ff3d 80c2 bebc b8dc a83d
000001e0: a5e0 85bd fec2 7dbd 408e 6dbd 7551 babd
000001f0: 207e bbbb 8ee0 febd c4ec 65bd af3a 8cbc
00000200: 5912 2b3d f0c4 193c 2c10 5fbd 8a8b cebd
00000210: cabd f33d 5004 58bd e87b 933c d41f 2f3d
00000220: 26da e0bd ab50 d23d 2873 c3bd f84b 963d
00000230: 37f0 b0bc 94e0 1cbd 02a2 02bc a0a1 cbbc
00000240: f9d5 ac3d d4e6 713d b48e 463d 30aa 4e3d
00000250: 4cf5 d33d 7a45 903d 98cc c7bd c067 f33b
00000260: 7ed8 afbd 9598 e8bd 2701 01bd 8bb2 fcbd
00000270: 0e3a 2cbc 4059 92bb 78c0 d5bd d404 f0bd
00000280: fc1e 493d 4cdf 523d 23d0 eebd 48fb 953d
00000290: 282b bcbc 4bee 9abd d396 9c3d c4e8 7ebd
000002a0: 0616 e33d 90c1 edbc e21d c7bd c5af a3bd
000002b0: 9188 aa3a 5b87 c4bb c241 a63d 3f77 d93d
000002c0: e0af f4bc 684c 4b3d a033 9c3d f334 a73d
000002d0: 9de9 a8bd 9804 873c d821 febc c088 593d
000002e0: 88b5 bd3d 00d4 44bd 5e02 09bc a6d5 3dbd
000002f0: 0c38 a53d da0e 82bd 50bb bcbc 9c96 943d
00000300: 7cf4 7bbd 9f24 8d3c c6bb a43d fefe e63d
00000310: 85ed 303c 6a49 5d3d dc6f 9cbd 3a4e 903c
00000320: 0040 4cbd c6ea 893d 602d b43b 365d c03c
00000330: f058 f2bd cc9f 7b3d 92db 42bd a3fb 7abc
00000340: 4d87 8bbd 98cc 2cbd e5d5 8bbc 4021 0d3d
00000350: 8758 b43d 32d5 f63d ec45 a5bd 59b9 983c
00000360: 1c1b e2bd 84cd 063d 6410 e23d 8635 2bbd
00000370: 5e52 fbbc 9e4c c4bc 99a1 f33d c2fd bdbd
00000380: 18d2 f5bd 7cbb dbbd 40b3 5c3c cc00 0ebd
00000390: 4bc3 f6bc e0f7 7a3d a89d d1bd bded d93d
000003a0: 6cd1 ca3b 92b6 983c e8b8 393d 2e23 fd3d
000003b0: 4087 e3bc 4ec8 30bd cc9a d43b 4523 873d
000003c0: b8ca 56bd 92e9 833c 8877 a2bd 7010 21bd
000003d0: f897 a83c 15c0 cd3d 2998 babd d64a ec3d
000003e0: 5de3 f73d 1df9 92bd c8af 603d 6eb2 99bd
000003f0: d9ec 933d 6f6f a4bd 46bc a7bd 19b2 963d
-0.024586424 0.122178845 -0.06317128 0.027117282 -0.0989172 -0.082921915 -0.121964276 -0.11125715
0.040226206 -0.119950406 0.08929187 -0.09032461 0.0022530423 -0.016400844 0.009956645 -0.06907146
-0.015038863 0.08804678 0.08454637 -0.09964703 0.09099524 0.041845903 -0.020708902 0.04864785
-0.0943631 0.108153075 0.105600506 0.09714897 0.072618484 0.015680924 0.040601626 -0.07494111
-0.052613884 -0.047951877 0.10711857 0.094958074 -0.10604647 0.003614664 0.07798214 -0.12104338
0.10776622 -0.08401527 -0.1202998 0.043120995 -0.02278106 -0.013735592 0.029457703 -0.10690413
-0.021537496 -0.06313589 0.063919716 -0.081434645 -0.07693887 0.078618735 -0.10520657 -0.018312566
-0.028247148 -0.0077521033 0.017802685 0.024770007 0.027975025 0.09450237 -0.026589902 0.05907935
0.10283725 0.025858685 -0.11241849 0.029219119 -0.08709857 -0.043483526 -0.07660057 0.0520605
0.04516557 0.007749602 -0.006834449 0.028782027 -0.09708195 -0.057609513 -0.097848736 0.11980878
0.014187202 0.11594877 0.09060636 0.061056346 0.029827908 0.031907752 -0.06329176 -0.039059266
0.04053609 0.09013922 -0.035698906 -0.110738456 -0.028378919 0.046894103 -0.07125801 0.1221088
0.102908365 -0.09726368 -0.11231142 -0.09937728 -0.08623091 0.11352307 0.099988356 -0.09226476
0.09846145 -0.0040171877 0.053052768 0.06197107 -0.042420015 0.10908594 -0.0943674 0.004210308
0.024888411 0.06146513 -0.11727124 0.12324943 -0.119825356 0.124584444 -0.023286104 0.08245224
-0.06536988 -0.061953537 -0.05799699 -0.09097568 -0.0057218224 -0.12445174 -0.056134 -0.017117826
0.041765545 0.009385332 -0.054458782 -0.10085209 0.11901434 -0.052738488 0.018003419 0.042754963
-0.109791085 0.102692924 -0.09543449 0.07338709 -0.021598918 -0.038300112 -0.007973196 -0.024857342
0.084392495 0.059058025 0.048475936 0.050455272 0.10349521 0.070445016 -0.0975582 0.0074281394
-0.085862145 -0.11357228 -0.03149524 -0.12338742 -0.010511888 -0.004466206 -0.10437101 -0.11719671
0.049101815 0.051482484 -0.11660793 0.07323319 -0.022969797 -0.07564982 0.07645955 -0.0622337
0.11088185 -0.029022962 -0.097224966 -0.0799251 0.0013010671 -0.005997581 0.08118011 0.106184475
-0.02986902 0.049633414 0.07627034 0.08164396 -0.08247683 0.016481683 -0.031021997 0.05310893
0.0926314 -0.04805374 -0.008362381 -0.04634633 0.08067331 -0.06350489 -0.023038536 0.07255289
-0.061512455 0.017229376 0.080436274 0.11279105 0.010798817 0.05402509 -0.07638523 0.017615426
-0.049865723 0.067342326 0.005498573 0.023481946 -0.1183337 0.06143169 -0.04757268 -0.015318784
-0.06812916 -0.042187303 -0.017069766 0.034455538 0.08805948 0.120523825 -0.08069977 0.018643068
-0.11040327 0.03291084 0.110382825 -0.04179909 -0.030678924 -0.023962315 0.11896057 -0.09276916
-0.12002963 -0.10729119 0.013470471 -0.03466873 -0.03012242 0.06127155 -0.10235149 0.10641048
0.006189516 0.018641744 0.045342356 0.123602256 -0.027774453 -0.043159775 0.00648818 0.06598524
-0.05243942 0.016102586 -0.07932955 -0.039322317 0.020580277 0.10046402 -0.091110535 0.11537711
0.12103913 -0.07176421 0.054855138 -0.07504736 0.072229095 -0.08029067 -0.08190207 0.07358188

weight_hh_l0 f4 [192, 64]
00000000: 8d30 823b efbb 463d c1e1 f3bd 6e1f 34bd
00000010: cd03 a73d 1077 cbbd c1f7 cc3c 6757 283d
00000020: aa46 c0bd 2c0a b43d eec0 f93c 067a debb
00000030: 61f4 73bd 5541 cc3a d467 2ebd e339 353d
00000040: 4253 4c3c be92 f33d 0676 633d 98e8 563d
00000050: 637d 1ebd f489 db3d effe e13d 9313 f03d
00000060: e56d ddbd 5a84 043e 7094 ef3d d542 8ebd
00000070: 9951 f6bc abd8 9bbd 3c6a 8cbd 9dd5 9f3d
00000080: d246 ce3c e1ba d8bd e966 e03d 3085 613d
00000090: ded0 e1bc 1c64 9abd a02d 283d a8ef cebd
000000a0: b5dc d5bd 76d8 00be 1134 ca3d ca9c 9dbd
000000b0: eb9a 8b3d f50d 753d d3f0 e439 5170 c93d
000000c0: 12a9 803d 1e8d b83d c40d 9dbd 84dc e93d
000000d0: 9687 f6bd af66 63bc 3296 0ebd 4e9d cabc
000000e0: ce8b a6bd fee1 16bd 6569 04bc dbfe f73d
000000f0: eb16 893d e531 2c3d 1f5b a13d 3ed5 e73d
00000100: 1bf7 11bd d3ac 1c3d a54c 543d 475c d03d
00000110: 8b8b e4bd ba8e 58bd 4cf1 aabd 30d6 3dbd
00000120: 2b97 fabd f31f 98bd 02c4 133d 4295 94b9
00000130: 75a8 f83d 42f8 c43d 3bf1 fa3b 69e6 483d
00000140: 7993 2b3d c2a3 b63d c8bd 573d 80c0 c7bd
00000150: 05fe 053d 4d9e 5e3d c3a8 d63d 7bc0 c2bd
00000160: 1d24 febd 9499 d83d 032d 05bd f66c c9bc
00000170: 5b0a d5bd f7ce cdbd 2b55 fe3b 5103 ef3d
00000180: 96b4 c43c c490 a03b f5ee b7bd a82e 033c
00000190: 3571 8dba 2179 1838 84ea 103c 369d bc3d
000001a0: e094 c53b d26e f53d 7cac 243d c315 47bd
000001b0: 3a49 c7bd 3e8f c4bd 543f 9ebd b037 bf3d
000001c0: 1f6a 86bd 48c5 363d 3282 36bc 0fc4 f33d
000001d0: a800 d9bc 5af0 58bd 1607 23bd 0f6e fa3d
000001e0: 39d2 dd3d b476 383d e200 703c 3118 25bd
000001f0: d5ff 993d f0f1 873d 8eb9 f4bd 8574 bc3d
00000200: b2de 113d ce27 eb3d 2039 f23c 76cf 973c
00000210: 139a ad3d 186c 4f3d e221 88bd cfaf 893d
00000220: 6c85 8ebd 86d4 e53d 6bb8 cb3d e4de 91bd
00000230: f5da 793d cc38 e83d f034 dd3d 7fb4 d5bd
00000240: 877d f6bc 2ad4 0c3d b2c7 77bd f8d2 df3d
00000250: 9d29 de3d 681e 8dbc 7ab4 f23d 18c1 e5bd
00000260: f28c bc3d fdb8 5d3d 151b ed3d fe91 d4bd
00000270: f7ec b8bd 22f5 a8bd b3dd 2c3d 7d61 b43c
00000280: ae68 eabc 737a b23d 3a6b ac3d 17f0 06bc
00000290: a220 1ebd 6fcf c63d a35c ec3c 859b 893d
000002a0: 0802 033e 8054 6b3d 6f1f cd3d c0eb 843d
000002b0: dbea a6bd dabe 97bd a936 da3d f3f8 d43d
000002c0: 3279 f53a 0cea da3d f2d6 0bbc 8190 663d
000002d0: 8c5d babd fbf4 d7bd d250 b5bd 26c2 21bd
000002e0: 4156 a73c a885 0cbc a267 f13d 9da0 8dbd
000002f0: 68f8 e53d ced7 59bd da6f 003e 699f f9bd
00000300: 88ea 26bd 5424 b73d 3415 a13d 9dae e43d
00000310: c8b5 98bd 690f ba3d 6bad 7f3b decd b33d
00000320: 1434 b3bd 680a b2bd c680 08bd 5aca 5c3d
00000330: e1d8 65bd df2b b9bd c33a 913d 7cee 8fbc
00000340: 4e27 b4bd f741 b9bd 6d5f 053b 4085 d5bc
00000350: 847e 9f3d c75a fa3d 69dd a0bd 128b 93bd
00000360: 0a8a 8bbc 0aa0 c0bd 3788 6cbd 506c c43d
00000370: 3310 d93d 1ef0 c73d e4d5 c53d bf53 88bd
00000380: ce3d 983b 0bcc c4b9 37e8 753d e1a9 dc3b
00000390: c77f dfbc fd55 e7bd b075 02be 0109 903d
000003a0: 0b51 babd 5d4c 683d b9b1 17bd e0fa bb3d
000003b0: cd43 fcbb 009d ec3d ec69 9ebd 3451 a7bd
000003c0: 71de a7bb 1b92 853d 94c7 bb3c d154 fabc
000003d0: 4901 843c 4ec9 b13d 9203 473c 14e1 ca3d
000003e0: 5f39 ba3c ce1f 943d 8d9e 273d c201 e4bd
000003f0: dd16 92bd 95e6 9dbd b348 483c c151 70bd
0.003973073 0.04851907 -0.119082935 -0.043975286 0.08155022 -0.09934819 0.025020482 0.04109898
-0.09388478 0.08791003 0.030487504 -0.0067894487 -0.05955923 0.0015583435 -0.042579487 0.04424466
0.012471022 0.11893223 0.055532478 0.052467912 -0.038693797 0.10719672 0.11034953 0.117224835
-0.10811976 0.12941113 0.11698234 -0.06946341 -0.030068206 -0.076096855 -0.068562 0.078044154
0.025180254 -0.10582519 0.109571286 0.055058658 -0.027565416 -0.075386256 0.041059136 -0.101043046
-0.10442487 -0.12582573 0.09873212 -0.07695921 0.06816658 0.059827764 0.00043666977 0.09835876
0.062822476 0.09011291 -0.07668641 0.11419013 -0.1203758 -0.013879462 -0.034811206 -0.024733212
-0.081321344 -0.036836617 -0.008081769 0.12109157 0.066938244 0.04203977 0.07878708 0.113199696
-0.03563605 0.038250756 0.051830906 0.101738505 -0.11159428 -0.05287049 -0.08346805 -0.046346843
-0.12235864 -0.07427969 0.0360756 -0.00028339966 0.12141506 0.09617664 0.0076581514 0.04904786
0.041888688 0.08917953 0.052671224 -0.09753513 0.032712955 0.054350186 0.104814075 -0.09509369
-0.12409232 0.10576168 -0.03251363 -0.02458809 -0.10402366 -0.10049241 0.0077616177 0.116705544
0.024011891 0.00490007 -0.08981124 0.008006729 -0.0010791185 3.6352434e-05 0.008844975 0.09209673
0.00602971 0.11984028 0.040203556 -0.048604738 -0.09730764 -0.09597634 -0.07726923 0.093367934
-0.0656321 0.044621736 -0.011139439 0.119026296 -0.02648957 -0.052963592 -0.03980168 0.12228023
0.108311124 0.04503508 0.014648648 -0.040306274 0.07519499 0.06637943 -0.11949454 0.09201912
0.03561277 0.114822015 0.029568255 0.018531542 0.08476653 0.050640196 -0.06647088 0.06722986
-0.06959042 0.11222176 0.09947284 -0.07122591 0.06099983 0.11338958 0.10801113 -0.104348175
-0.030089153 0.034382023 -0.06049318 0.10928911 0.10847781 -0.017226413 0.118508294 -0.1121847
0.09206571 0.054131497 0.11577431 -0.10379408 -0.090295725 -0.082498804 0.042203616 0.022019142
-0.028614368 0.087147616 0.08418889 -0.008235953 -0.03860534 0.097075336 0.028852766 0.06719116
0.12793744 0.057453632 0.10015761 0.06490278 -0.08150264 -0.07409449 0.10654957 0.10399046
0.0018728136 0.10689172 -0.008535134 0.056290153 -0.09099874 -0.10544773 -0.08853306 -0.039491795
0.020426871 -0.008576788 0.117873445 -0.069154 0.1122902 -0.053184323 0.12542668 -0.12188608
-0.04075101 0.08942476 0.07865372 0.11166117 -0.07456547 0.090849705 0.0039013277 0.087795004
-0.087501675 -0.08693391 -0.033325933 0.053903915 -0.056115035 -0.09041571 0.07091286 -0.017569773
-0.08796559 -0.09045785 0.0020351068 -0.026064515 0.07787803 0.12224346 -0.07854731 -0.0720426
-0.017033596 -0.09405525 -0.057747092 0.095909715 0.10598793 0.097625956 0.09659937 -0.06656598
0.0046460396 -0.00037536057 0.06003591 0.0067341183 -0.027282609 -0.11295698 -0.12740207 0.07032967
-0.09097489 0.05671345 -0.037034724 0.0917871 -0.007698512 0.11553383 -0.07735047 -0.08169785
-0.0051229526 0.06522008 0.022922315 -0.030558022 0.016113894 0.08680974 0.012146847 0.099062115
0.022732435 0.07232629 0.04092269 -0.11133148 -0.07133267 -0.07709996 0.012224364 -0.058671717

bias_ih_l0 f4 [192]
00000000: fe62 2fbc 7a4a 383b 3d23 c9bd c913 b0bd
00000010: 5005 7e3d c896 08bd 6626 e53d c6c7 bcbc
00000020: 428e e93d dcaf e7bd 9e65 e3bd 1861 01bc
00000030: f926 b43d 92d2 cabc 3e44 9939 b156 e93c
00000040: c940 b83d ba3f d63d a29e c1bd 688f 583d
00000050: a98d c93d 332b b8bd 187f a2bd 9a63 b53d
00000060: 932e 00be da89 2a3d c7cf 3c3d d068 ca3d
00000070: 36ff c6bd 9665 0bbd 0512 33bc 2258 c43d
00000080: a15f a3bd 16ad fd3c 74b9 b53d e5a9 3bbd
00000090: a566 e83d ba1c 86bd e0d8 7cbd 1f10 0f3d
000000a0: 2120 aa3d 533d b63d 96e1 613d b868 6b3d
000000b0: 3887 c1bc 8845 a23c 35e9 9bbd 98b3 e1bd
000000c0: 74b5 733d d3fe cfbd c8e6 f23d 4172 df3d
000000d0: 24d0 b8bd 29a5 d63d a9a2 d3bd bdf6 5f3d
000000e0: d32e 6c3d d240 02bd 7d42 d93d 57c5 dfbd
000000f0: 3d91 b5bd 74a6 a13d cade b03c aead e0bb
00000100: 1696 b23b 3ba4 0d3d 5d1a 173d ec50 3f3d
00000110: ff48 eabc fce0 c63d 0ee4 c73c b689 be3d
00000120: 7c9f bcbc a036 c8bd d085 ae3d f7ae 07bc
00000130: 17e0 00bd 27a7 393d 03df 383b de31 f1bc
00000140: 5578 e6bc 9857 c8bb 5d0e e63d 3248 fb3d
00000150: 8bcb 283d 5943 00be 554a 31bd 1d3a d23d
00000160: 19e0 d1bd 8dbc eb3d ca42 ffbc 9486 533d
00000170: 2ff8 a33d b765 f5bd 7226 ae3d aeaa 7e3b
00000180: dc39 d4bd ed30 3f3c a29d a2bc 1132 a1bd
00000190: c168 353c 5077 bfbd 2395 f23d 1840 cdbd
000001a0: 2df5 8fbd 456f bbbc d048 983d 8c57 85bd
000001b0: 393f 5c3d bda9 32bd 0bc3 d13b 4900 ea3b
000001c0: a4e3 c3bd 0b73 c9bd 84d5 3bbc df56 553d
000001d0: bf9d 443d 95f5 a0bd ac87 f6bc b188 d5bc
000001e0: 5424 5b3c 3e9f 803d 80d6 e0bd dd61 983d
000001f0: 7683 48bb c16e 3f3b bbdf dc3c a7f5 58bd
00000200: f1f7 6d3b b2d9 933d fdc0 31bd e531 c03d
00000210: 7159 21bd 3613 adbd 6984 90bd 2779 623d
00000220: 3371 90bd 4914 00be 90a9 6e3d e51b 753d
00000230: c8b4 3e3c 50a6 953c 0ce5 bc3d 4efa ae3d
00000240: 49a2 e2bd 1e6e d2bd b309 34bc 11e9 2a3d
00000250: 02c7 133b 6e4d f5bd 4f76 463d 4980 f2bd
00000260: d0df d6bb b3ce bd3c e2a3 4bbd 4ed4 c13d
00000270: 06b9 eb3d c8b7 e73c c01f e2ba 0751 b43d
00000280: 4157 9dbc 1954 d8bc 3d34 f1bd 66c4 4fbc
00000290: 9aca e23a 9509 903d 330e e33d b047 553b
000002a0: 50c2 a2bd 399e 5b3d 0478 b6bc 3538 513d
000002b0: 9277 bdbd 6c48 aa3a f95d 30bc bb1f 8f3d
000002c0: f1d1 853d dad1 7abc dbe7 8b3c adde d83d
000002d0: 327f ad3c 6791 083d ad9a a53c 0ad3 703d
000002e0: 7563 d0bd 257d 88bd 26d8 ae3d 2dc7 e1bd
000002f0: 06e7 913b 83e4 ac3d bd7a f0bd 04e5 023e
-0.010704754 0.0028120563 -0.09821174 -0.08597524 0.062016785 -0.03334692 0.111889645 -0.023044478
0.11404087 -0.113128394 -0.11103366 -0.007896684 0.08796496 -0.02475861 0.00029233278 0.02848372
0.08996732 0.104613736 -0.09454085 0.052871138 0.09841473 -0.089926146 -0.079343975 0.08856888
-0.12517767 0.04163537 0.04609659 0.09883273 -0.097166464 -0.034032427 -0.010929589 0.095871225
-0.07977224 0.030966323 0.08873263 -0.04581632 0.11347703 -0.06548448 -0.061730266 0.034927484
0.08306909 0.088984154 0.055146776 0.057472914 -0.023624048 0.019808546 -0.0761284 -0.11020583
0.05949922 -0.10156026 0.11860424 0.10910464 -0.09024075 0.104807205 -0.10333759 0.054678667
0.057661843 -0.0318001 0.10608385 -0.109263115 -0.08865593 0.078930765 0.02159061 -0.0068566417
0.0054500205 0.03458045 0.036890376 0.046708032 -0.02859926 0.09710881 0.024400737 0.0930361
-0.023025267 -0.09776044 0.085216165 -0.008281461 -0.03146371 0.045325425 0.0028209097 -0.029442724
-0.02813355 -0.0061139576 0.11233208 0.122696295 0.04120974 -0.12525691 -0.04328378 0.102649905
-0.10247821 0.115105726 -0.031159777 0.051642016 0.08006322 -0.11982291 0.085034266 0.0038859057
-0.10362598 0.01166938 -0.019850556 -0.078708775 0.011072339 -0.09348929 0.11844852 -0.100219905
-0.070291854 -0.022880206 0.07435763 -0.06510839 0.05377123 -0.043618906 0.0064014248 0.0071411473
-0.095649034 -0.09836396 -0.01146448 0.0520848 0.048002 -0.07859341 -0.03009399 -0.026066156
0.0133753605 0.06280373 -0.10978413 0.07440541 -0.0030595935 0.0029210302 0.026962152 -0.052968647
0.0036311115 0.072192565 -0.04339694 0.093845166 -0.03939194 -0.0845093 -0.07056505 0.05529132
-0.07052841 -0.12507738 0.058267176 0.059841055 0.011639781 0.01826778 0.09223375 0.085438356
-0.1106611 -0.102749094 -0.010988641 0.041726176 0.0022549038 -0.11977659 0.04845267 -0.11840875
-0.0065574422 0.02316985 -0.049716838 0.09464322 0.115099 0.028285876 -0.0017251894 0.08804517
-0.019206645 -0.026407288 -0.11777542 -0.012681102 0.0017302812 0.070330776 0.11086693 0.003254395
-0.079472184 0.05361769 -0.022274025 0.051078994 -0.09251322 0.0012991554 -0.010764592 0.06988474
0.06534184 -0.015308822 0.01707833 0.10589347 0.021178816 0.03334179 0.020215357 0.058795013
-0.1017522 -0.066644944 0.08537321 -0.11024318 0.004452589 0.08442023 -0.117421605 0.12782675

bias_hh_l0 f4 [192]
00000000: 5421 233d 90ee 5c3d d96a d1bd 95af 8fbd
00000010: d2e2 b1bd 85a2 ebbd 3615 8abd 769e 8abd
00000020: 18e2 4fbd 7bbc 65bd 6daa 413d 5e23 bc3d
00000030: 463a dcb8 be50 4a3d 0b2a e5bd 17cd 553d
00000040: e5b8 c53c 5562 303d 14e4 49bd 43f0 6ebc
00000050: 0f14 f5bd d249 2abc a8bc da3d 297c fabc
00000060: 487a b7bd 2b7c 81bd 757f 1cbd aced 2bbd
00000070: 4b1d 54bd b6a6 a03c dde1 fabd 10ed debd
00000080: 7c98 29bd 9245 efbc 2206 f03d 2ca8 9f3c
00000090: 6d74 e43d 9432 65bd f4a5 d0bd b7e2 303d
000000a0: e0f8 603d 293f bf3d 9489 8ebd 34f5 703d
000000b0: b322 563d 1637 123d d779 dabd 776c 013d
000000c0: 3f3d 4b3d a311 d9bd 448f 8a3c 35c2 b93c
000000d0: 49c1 56bd 63c5 9ebd 557d 933d d442 ffbd
000000e0: 59d6 6cbd beeb a93d 14ee c13c 6152 9abd
000000f0: b7f1 ad3d cf7a 0a3d 3b68 55bd 5205 77bd
00000100: e649 76bc 9528 5f3c a80a b03c d42b 283d
00000110: e2ba 27bd 2a66 aa3d 6ce4 bb3d acf9 513d
00000120: efb3 e33d 6228 04bd a490 d83d ae09 75bd
00000130: c98f 5b3d dbe8 1d3d 58f6 ec3d ae8f a6bc
00000140: ad02 f03c 5be3 96bd 676f 843d 425c e1bd
00000150: 5dd5 993c b302 03be dcfe eabd 2127 9d3d
00000160: 6023 7bbc e141 d03d a668 c63c 211a bdbd
00000170: c83c cfba 7e82 a53b 08cc 1cba 3208 fb3d
00000180: 98d9 f43d 7589 73bd 8c1b 073d 091d b4bd
00000190: 0a35 163d 74d5 993d f9ec c9bd 88ae af3d
000001a0: 918d e3bd 06fb a43d 78ef ccbd 5bbf 8dba
000001b0: 2b3d c4bd 1d69 05ba a9c3 75bb de79 b13d
000001c0: 000d bbbd 6be5 a3bc ff01 a5bd 4d30 e1bd
000001d0: 9b17 233d c6f3 313d 253d 293d d5ad 953d
000001e0: da45 4dbd a8c9 efbb 5926 4abd 099c 81bd
000001f0: ddb8 e0bd 9734 ac3d e09a 013e 881d 00be
00000200: 8803 f8bd b842 733d 2dd0 b63c 658b b33d
00000210: 230a 063c 2ac1 46bc 26d6 cc3c 94a3 27bc
00000220: c75c 7f3d 7786 1dbc fb7c c6bd 31f7 9c3c
00000230: 3cf6 a83d 6124 e0bb 45f0 5e3d 8b5f 4a3c
00000240: 67d2 0c3d 3049 dbbd 248a 73bd 322a 73bc
00000250: c6f8 b63d 7d1a f1bd 1787 03be 61cb d6bd
00000260: 6f24 bbba 06f6 e63d f3fc 67bd b440 313d
00000270: 6889 bfbd 85f6 ffbd 870c 0d3d c5bc 133d
00000280: 5ddc 8f3d cf56 013e b07a e43c 9fed 75bd
00000290: 6071 cc3d ebba 8ebd 5f49 0ebc 59c7 623d
000002a0: 6adf 9bbd 8471 2bbc bda1 debd 93b3 bd3d
000002b0: 781b f6bd bd66 db3d 6e33 2bbc 6edc acbd
000002c0: 1b94 e1bd 6814 edbc 336a 683d 9270 0fbd
000002d0: 2c34 ee3d 18f8 95bd 0d18 19bd 2c38 65bc
000002e0: 55d5 bebd 7646 debd b47c 003d f49c eebb
000002f0: 45b0 9dbd 51a7 c53c 8d99 87bd e189 1cbd
0.039826706 0.05393845 -0.10225458 -0.070159115 -0.08685841 -0.115056075 -0.06742327 -0.06768505
-0.05075273 -0.056087952 0.04728167 0.09186433 -0.00010501272 0.049393408 -0.1118966 0.052197542
0.024136016 0.043062527 -0.049289778 -0.01458365 -0.119667165 -0.010393577 0.106805146 -0.030576782
-0.0895887 -0.06322511 -0.03820749 -0.04197471 -0.05178575 0.019610744 -0.12250111 -0.1088506
-0.041405186 -0.029207978 0.1171992 0.01948937 0.11155019 -0.05595644 -0.10187903 0.043184962
0.054924846 0.09338219 -0.06959835 0.058827594 0.052279186 0.035697065 -0.1066777 0.03159758
0.049618956 -0.10599067 0.016914017 0.022675613 -0.052430425 -0.07752492 0.072016396 -0.12463918
-0.057821605 0.082969174 0.023673095 -0.07535244 0.08493369 0.033808526 -0.052101355 -0.06030781
-0.015032267 0.013620515 0.021489456 0.041057423 -0.04094971 0.083202675 0.091744274 0.051263496
0.11118304 -0.032265075 0.10574463 -0.059823684 0.05360392 0.038552146 0.11570424 -0.020332184
0.02929815 -0.07367583 0.06466561 -0.11003925 0.018778497 -0.12793998 -0.11474392 0.07673479
-0.015328258 0.101688154 0.024219822 -0.09233499 -0.0015810961 0.0050509563 -0.0005981331 0.122574225
0.11955565 -0.05945726 0.032985255 -0.087946005 0.036671676 0.07511416 -0.09859652 0.08578211
-0.11110986 0.080556914 -0.100066125 -0.0010814475 -0.09581979 -0.00050892105 -0.0037500656 0.086658224
-0.09133339 -0.020006856 -0.08057021 -0.10995541 0.039817434 0.04344537 0.041318078 0.073085465
-0.050115444 -0.0073177405 -0.049352977 -0.063285895 -0.1097276 0.08408468 0.12656736 -0.12511265
-0.121100485 0.0593898 0.022316063 0.08766822 0.008181128 -0.012131015 0.025004458 -0.010231871
0.06234434 -0.009614578 -0.09691807 0.019160839 0.082500905 -0.006840274 0.054428358 0.012351881
0.034380343 -0.10707319 -0.059457913 -0.014841603 0.089341685 -0.1177263 -0.12844501 -0.1048801
-0.0014277826 0.11277394 -0.056637716 0.043274596 -0.0935238 -0.12498192 0.034435775 0.036068697
0.07024453 0.12630771 0.027890533 -0.060041066 0.09982562 -0.069692455 -0.008684485 0.055365894
-0.07610972 -0.010464076 -0.10870693 0.09262767 -0.12016958 0.10712955 -0.0104492735 -0.08440481
-0.11014577 -0.028940395 0.056741904 -0.035019465 0.11631045 -0.07322711 -0.037376452 -0.013990443
-0.093180336 -0.10853283 0.031368926 -0.007281894 -0.07699636 0.024127634 -0.06621084 -0.03821743

weight f4 [1, 64]
00000000: f0b8 8fbd 5e8f e43d 4401 883c a797 e3bd
00000010: cdf4 e23d edce 3d3c d1db c8bd df5f c13d
00000020: 8445 49bd 3a6d a5bc 5b2b f4bc 9046 30bd
00000030: 75cd c7bc a46b 22bd b0d8 5b3d 42af ee3c
00000040: 6bfe f8bd face fc3d 857e 383c af4a c7bd
00000050: b886 783d 04c7 d7bd 0a5d 26bb 1064 0bbd
00000060: 0026 a6bd 993d 89bd 1a36 e8bd beb1 903d
00000070: 457c b73b 6c90 c1bd 485d a5bd 499a 0abd
00000080: 0afa f7bd 4a39 b53d c2ff c53d 6ef8 543d
00000090: aa52 0abd 470a 4bbc cf6f 4dbd 7443 78bd
000000a0: a87a 74bd 2173 59bd 6e46 f33d f994 50bd
000000b0: 7e27 02be 3b4b 313c d226 b7bd c41e e0bd
000000c0: fc7c 663c dc37 46bd e17d bd3c 0e63 e7bd
000000d0: f0e4 c2bd b52f efbc 9dcf c63b 3c82 0abd
000000e0: aa43 b03b 63ce 99bd bc6d d63d a22e 08bd
000000f0: c864 7fbd f370 a63d e5bd b43d 17df 073d
-0.07017696 0.111601576 0.016602166 -0.1111291 0.11081848 0.0115849795 -0.09807552 0.09442114
-0.04913856 -0.020193685 -0.02980583 -0.043036044 -0.024389962 -0.039653435 0.053673446 0.029136304
-0.121579014 0.12344165 0.011260633 -0.09731042 0.060675353 -0.10536006 -0.0025385045 -0.034030974
-0.08112717 -0.06701202 -0.11338444 0.07065152 0.005599531 -0.094513744 -0.080744326 -0.033838544
-0.12108238 0.08848818 0.096679226 0.051994734 -0.03377024 -0.012392587 -0.050155457 -0.060611203
-0.059687287 -0.05308831 0.11878668 -0.05092332 -0.12710378 0.010821159 -0.08942951 -0.10943368
0.014067885 -0.048393115 0.023131313 -0.1129819 -0.095163226 -0.029197553 0.00606723 -0.033815607
0.00537916 -0.07510068 0.10470149 -0.033247598 -0.062351972 0.08127012 0.08825282 0.03317174
