models/one_month_new_trial/checkpoint/trained_irdpg_10.pth (torch, 409346 bytes, 22 tensors)

weight_ih_l0 f4 [192, 64]
0	0xbd1a01b4	-0.03759928
1	0x3d2891d1	0.041154686
2	0x3db48b42	0.08815624
3	0xbda71974	-0.08159152
4	0x3d71fc54	0.05907853
5	0x3c626f70	0.013820514
6	0xbda9f934	-0.08299485
7	0xbdcd907a	-0.10037322
8	0x3d03d061	0.032181147
9	0x3d8256b2	0.06364192
10	0x3dba7ae8	0.09105474
11	0x3d7c7c9c	0.061642274
12	0x3d9cfb44	0.076651126
13	0xbd195304	-0.037432685
14	0xbc931409	-0.01795389
15	0xbddb4e66	-0.10708313
16	0x3dd94518	0.10608882
17	0x3d9b6736	0.07588045
18	0xbd520c1c	-0.05128108
19	0x3d90caa2	0.07069899
20	0x3c7666e0	0.015039176
21	0x3dbc52c6	0.09195475
22	0xbc795060	-0.015216917
23	0x3d338d6d	0.043836046
24	0xbdc44280	-0.09582996
25	0x3d8c07bc	0.06837413
26	0xbdd7ca82	-0.10536672
27	0x3c2223e0	0.009896249
28	0x3df4169c	0.11918375
29	0x3d64c264	0.055849448
30	0x3d6ead4c	0.058270738
31	0xbd85ba86	-0.06529717
32	0xbdeaf3b0	-0.11472261
33	0xbd0b6ba9	-0.03403822
34	0x3d25dce9	0.04049388
35	0xbd1fb38f	-0.0389896
36	0xbda02fd6	-0.07821624
37	0xbdc93c56	-0.09825961
38	0x3db671dc	0.08908436
39	0x3dddc07e	0.108277306
40	0xbda52198	-0.08063048
41	0x3d4275b9	0.04747555
42	0x3c7d50b0	0.015461132
43	0xbd363887	-0.044487502
44	0xbdf70bec	-0.12062821
45	0xbd33da98	-0.04390964
46	0xbdebd550	-0.115152955
47	0xbb6b0883	-0.0035863228
48	0xbd85b1ee	-0.06528078
49	0xbc90b910	-0.01766637
50	0x3cc67741	0.024226787
51	0x3cd5f647	0.02611841
52	0x3dac79a4	0.084216386
53	0x3d514d28	0.051098973
54	0x3dc76e56	0.09737842
55	0x3db45e07	0.08806997
56	0xbddb4cc8	-0.10708004
57	0x3d270929	0.04078022
58	0xbda12fb2	-0.07870425
59	0x3d8a439c	0.06751177
60	0x3dc3e9c2	0.0956607
61	0xbdefb742	-0.117048755
62	0x3ddcde2d	0.10784564
63	0xbdd9f01c	-0.106415
64	0xbcd64488	-0.026155725
65	0x3de54522	0.11194827
66	0xbdce9530	-0.10087049
67	0xbc822618	-0.015887305
68	0x3db745c4	0.089488536
69	0x3dac2b48	0.08406693
70	0x3de5d786	0.112227485
71	0xbd69a730	-0.057044208
72	0xbd4d06f5	-0.050055463
73	0xbd9a7cac	-0.075433105
74	0x3d962c06	0.073326156
75	0x3dc14c46	0.09438376
76	0xbdbd016e	-0.09228788
77	0x3c98b5c0	0.018641353
78	0x3dbeddba	0.09319635
79	0x3dfd35be	0.12363766
80	0xbd0a4a18	-0.033762068
81	0xbd9ece4b	-0.07754191
82	0xbd806fa4	-0.06271294
83	0x3dd84c3c	0.105614156
84	0xbd73a6c4	-0.059485212
85	0xbd9a2ca4	-0.07528046
86	0x3d830746	0.06397872
87	0xbdf320b2	-0.118714705
88	0xbdca9d84	-0.09893325
89	0x3d6a2848	0.05716732
90	0x3d1e2364	0.03860797
91	0xbdda1644	-0.10648778
92	0xbd6a9588	-0.05727151
93	0xbc6ba180	-0.014381766
94	0x3ce256d8	0.027629301
95	0xbd36ff88	-0.044677287
96	0x3dc8217e	0.09772013
97	0xbde37060	-0.11105418
98	0xbd8b3ee8	-0.06799108
99	0xbdd79034	-0.105255514
100	0xbdbf599a	-0.09343262
101	0xbdd0a770	-0.10188186
102	0x3cbc2618	0.022967383
103	0xbd848400	-0.064704895
104	0x3e0064c4	0.12538439
105	0xbd8b051e	-0.067880854
106	0x3c464b10	0.012102857
107	0xbdc158fe	-0.09440802
108	0xbb321880	-0.0027175248
109	0xbdfc636e	-0.12323652
110	0xbb491e40	-0.0030688196
111	0xbd1354fd	-0.035969723
112	0xbdaf446c	-0.08557972
113	0x3dc04c32	0.09389533
114	0x3da42584	0.08014968
115	0xbdd7b5c8	-0.10532719
116	0x3d900352	0.07031883
117	0x3db4f45c	0.0883567
118	0xbd28a4bd	-0.04117273
119	0x3d9716fd	0.073774315
120	0x3d76b3dc	0.06023012
121	0xbdf67092	-0.1203319
122	0xbda1c452	-0.07898773
123	0xbda301f0	-0.07959354
124	0xbdf0a764	-0.11750677
125	0xbdea61ac	-0.11444411
126	0x3a087ea4	0.0005206859
127	0x3dc369d8	0.095416725
128	0xbd578b30	-0.052622974
129	0xbdf89479	-0.12137694
130	0xb93d8400	-0.00018073618
131	0xbdaa5832	-0.08317603
132	0x3be125a0	0.0068709403
133	0xbd825eb9	-0.06365723
134	0x3bb6bf80	0.005577028
135	0x3c42d250	0.011890963
136	0xbcf7fc07	-0.030271543
137	0xbdc83529	-0.097757645
138	0x3d920375	0.071295656
139	0xbd610704	-0.05493833
140	0x3db34195	0.08752743
141	0xbd40edb8	-0.047101706
142	0xbdf49197	-0.119418316
143	0x3d9eac96	0.07747762
144	0xbda4a3b2	-0.08039035
145	0x3da555bb	0.080729924
146	0xbde1dd0c	-0.110284895
147	0x3df08a3e	0.117451176
148	0xbdceca40	-0.1009717
149	0x3d6d765e	0.057974212
150	0x3d6a142e	0.05714815
151	0x3bc05084	0.005868973
152	0x3d3946da	0.045233585
153	0x3d417b54	0.047236755
154	0xbd127a98	-0.035761446
155	0xbdabc5c6	-0.08387332
156	0x3defa776	0.117018625
157	0x3d537d8c	0.051633403
158	0x3dbc1f1f	0.091856234
159	0xbdd7732a	-0.10520013
160	0xbdfc1578	-0.12308782
161	0xbd9bec81	-0.07613469
162	0xbcc246cf	-0.023715405
163	0x3dae4213	0.085086964
164	0x3bc41960	0.0059844702
165	0xbdaecb2c	-0.08534846
166	0x3d87d220	0.06631875
167	0x3da5128b	0.080601774
168	0xbdcb4931	-0.099260695
169	0x3da5bb23	0.08092334
170	0x3dde8fe4	0.10867289
171	0x3cb9b619	0.022669839
172	0xbd88e836	-0.06684916
173	0x3d98c6ee	0.07459818
174	0xbbf8bee0	-0.0075911134
175	0x3db58b89	0.08864505
176	0xbdb20dbf	-0.08694028
177	0xbd64cdbc	-0.055860266
178	0x3d16a6ee	0.03678029
179	0x3dcee827	0.10102873
180	0xbdff14d2	-0.12455143
181	0x3d3d88d0	0.046273053
182	0x3cbeac19	0.023275422
183	0x3d604324	0.05475153
184	0xbdee2868	-0.11628801
185	0xbda9d1bf	-0.08291959
186	0xbdcc3254	-0.09970537
187	0xbddc4cd8	-0.10756844
188	0x3dac49b5	0.08412496
189	0xbcc2cff9	-0.02378081
190	0xbd7dce65	-0.06196441
191	0x3d6f9bd4	0.05849822
192	0x3d03223c	0.03201507
193	0xbdc3e5f7	-0.09565347
194	0x3ceec4c8	0.029146567
195	0xbb11af40	-0.0022229701
196	0x3d0a1f1c	0.033721074
197	0x3d2e1a2f	0.04250544
198	0x3c965e68	0.018355563
199	0xbce90dd8	-0.028448984
200	0x3cf65ab2	0.030072544
201	0xbcf75b0a	-0.030194778
202	0xbd766f0f	-0.060164507
203	0x3d66508c	0.05622916
204	0x3dd497a3	0.10380485
205	0x3dacd69e	0.084393725
206	0x3c971cda	0.018446375
207	0xbc5aca80	-0.013353944
208	0x3d13a4a8	0.0360457
209	0xbdfa6684	-0.122265846
210	0xbdee6fa8	-0.116423905
211	0xbdfd5a92	-0.123707905
212	0x3dcc5008	0.09976202
213	0x3d607efd	0.054808605
214	0x3deb2d25	0.1148322
215	0xbd3544c7	-0.044255044
216	0x3c237643	0.009976926
217	0xbdcc2caa	-0.099694565
218	0x3d6639c8	0.05620745
219	0x3da8e160	0.08246112
220	0xbdc1d86a	-0.09465106
221	0xbd89af2e	-0.06722866
222	0x3de0c1cf	0.10974466
223	0xbd4475c0	-0.047963858
224	0xbb705480	-0.003667146
225	0x3cbe5dc6	0.023238074
226	0x3d1dcded	0.038526464
227	0xbd87ac51	-0.066246636
228	0x3ce5a1b0	0.0280312
229	0x3dcb7d74	0.09936038
230	0x3dd97d88	0.10619646
231	0xbcc65622	-0.024210993
232	0x3c914e92	0.01773766
233	0xbdc72f8d	-0.097258665
234	0x3d8e5eaa	0.069516495
235	0xbdb88997	-0.09010618
236	0x3d7d6384	0.061862484
237	0xbdf555d0	-0.11979258
238	0xbd91550c	-0.070962995
239	0x3cf816a2	0.03028423
240	0xbdf0cc8b	-0.117577635
241	0xbd127940	-0.035760164
242	0x3d855301	0.06509972
243	0x3b08d349	0.002087789
244	0xbd5b9d6c	-0.053616926
245	0xbd8d1b2e	-0.0688995
246	0xbdafea4d	-0.08589611
247	0x3d57f173	0.0527205
248	0x3d951f1e	0.07281326
249	0x3a97b613	0.0011574648
250	0x3d9aae70	0.075528026
251	0xbd044c4c	-0.032299325
252	0xbdb75c59	-0.08953161
253	0xbcc79e42	-0.024367455
254	0xbd2dde74	-0.042448476
255	0xbd7da364	-0.0619234

weight_hh_l0 f4 [192, 64]
0	0x3cace868	0.021106914
1	0xbdf0cb08	-0.11757475
2	0x3d1f45a5	0.038884778
3	0x3ce6c79d	0.028171355
4	0x3db047ed	0.08607469
5	0x3df17da8	0.11791545
6	0x3daadf4a	0.0834337
7	0x3d8e71d0	0.06955302
8	0x3d9583d7	0.07300537
9	0xbcdf2517	-0.027239366
10	0xbd960caf	-0.07326638
11	0x3defe8b8	0.117143095
12	0x3ad289f7	0.0016062845
13	0x3d611589	0.05495218
14	0x3ca7e84a	0.020496506
15	0x3cafb054	0.021446384
16	0xbda70159	-0.08154554
17	0x3de382ff	0.1110897
18	0x3d2edd0c	0.042691275
19	0xbdb0a9a8	-0.08626109
20	0x3d921b75	0.07134143
21	0x3d4c58e7	0.04988947
22	0xbdce3727	-0.10069113
23	0xbd333b64	-0.04375781
24	0x3de93198	0.113864124
25	0xbd8a58df	-0.06755232
26	0xbc4d5772	-0.012533056
27	0xbdc71d36	-0.097223684
28	0xbda9f161	-0.082979925
29	0x3c64a61e	0.013955621
30	0xbde6e7e6	-0.112747
31	0xbd7a12cc	-0.061053082
32	0x3dbd25b4	0.09235707
33	0x3cea808b	0.028625747
34	0xbcbb7b45	-0.022885928
35	0x3cf2bd52	0.02963129
36	0x3d3afe4a	0.045652665
37	0xbdd21654	-0.10258165
38	0x3d7a9666	0.061178587
39	0xbdeb3b9c	-0.11485979
40	0x3da312c8	0.079625666
41	0x3d7f28e2	0.06229485
42	0x38ddce6a	0.00010576549
43	0x3bcb4122	0.006202833
44	0x3dd2fc46	0.103020236
45	0x3decff55	0.11572138
46	0x3d9d44ac	0.07679114
47	0x3db0bb77	0.08629506
48	0x3dd9ee4d	0.106411554
49	0x3c5e137c	0.01355445
50	0x3d7afe4c	0.061277673
51	0x3da0afd0	0.078460336
52	0x3d810259	0.06299276
53	0x3dfab3c2	0.12241317
54	0xbd7b3423	-0.06132902
55	0xbde9f9aa	-0.11424573
56	0x3dae077d	0.08497522
57	0xbdb4a1a9	-0.08819897
58	0x3dfbd4f9	0.12296481
59	0x3cd3b085	0.025841007
60	0x3dc83997	0.097766094
61	0xbaed241d	-0.0018092428
62	0xbd85a80b	-0.06526192
63	0x3d2421c1	0.040071253
64	0x3dfe9a9a	0.12431832
65	0xbd9957f3	-0.07487478
66	0x3cc36ce0	0.023855627
67	0x3cbbc3e2	0.022920553
68	0xbd8b3f95	-0.06799237
69	0xbcccb2f1	-0.02498767
70	0x3c698703	0.014253381
71	0xbdfae8be	-0.12251423
72	0x3c3d6aab	0.011561076
73	0xbd1e08e2	-0.03858269
74	0x3da8cd54	0.08242288
75	0x3d9596de	0.07304166
76	0x3d36e820	0.044654965
77	0x3d4b378c	0.04961352
78	0x3dc23cad	0.09484229
79	0xbd5b8ba7	-0.05359998
80	0x3c662e1d	0.01404908
81	0x3ddf8605	0.10914234
82	0x3d4ca963	0.049966227
83	0xbd879044	-0.06619313
84	0x3c18e338	0.009331517
85	0x3d9a3457	0.07529514
86	0x3cf52b74	0.029927947
87	0x3d8d3e95	0.06896702
88	0x3c89e34b	0.016832015
89	0x3ce219ea	0.027600247
90	0x3db92c71	0.0904168
91	0xbb54f882	-0.0032496755
92	0xbdc81b65	-0.0977085
93	0x3d38b376	0.045093022
94	0xbdd718f5	-0.10502807
95	0x3d9d1f8b	0.07672032
96	0x3d7e98b3	0.062157344
97	0xbdd84447	-0.10559898
98	0x3deb2d11	0.11483205
99	0x3c2d0c22	0.010561975
100	0xbdb8bcdd	-0.09020398
101	0xbdab3e4f	-0.08361494
102	0xbd1646f8	-0.036688775
103	0x3c5f0617	0.013612292
104	0x3d1168c8	0.035500318
105	0x3d7ab485	0.061207313
106	0xbcdfc3e1	-0.027315082
107	0x3c8f87f7	0.017520888
108	0xbcf7904b	-0.030220171
109	0x3dd12ccc	0.102136225
110	0x3d97148b	0.07376965
111	0xbbe4d305	-0.0069831633
112	0x3d3019eb	0.042993467
113	0xbd1dc0d9	-0.038513992
114	0x3bf5b39d	0.007498218
115	0xbdaae15b	-0.083437644
116	0x3dae62f8	0.085149705
117	0xbdc516e8	-0.0962351
118	0x3dad448f	0.08460342
119	0xbddf4155	-0.10901133
120	0x3d1c775f	0.03819978
121	0x3df84db7	0.12124198
122	0x3df53586	0.119730994
123	0xbd922372	-0.07135667
124	0xbdc35eab	-0.09539541
125	0xbce0053d	-0.027346248
126	0x3d3d917b	0.04628132
127	0x3d65fe72	0.05615086
128	0xbd9468ea	-0.07246573
129	0x3df5621e	0.11981605
130	0xbdf71fee	-0.12066637
131	0xbdc779a1	-0.09739996
132	0xbd676452	-0.056492157
133	0x3d97c81e	0.07411216
134	0x3d876c57	0.06612461
135	0x3c9d22f2	0.019181702
136	0x3dbc6aba	0.09200044
137	0xbcceef09	-0.025260465
138	0x3da4f901	0.08055306
139	0xbde384c0	-0.111093044
140	0x3dbe3497	0.092873745
141	0x3dc32999	0.095294185
142	0x3dffbfa1	0.12487722
143	0xbdab8cdf	-0.083764784
144	0x3da27da8	0.07934123
145	0x3cbadad0	0.022809416
146	0x3d726bbf	0.059184786
147	0xbdffa213	-0.12482085
148	0xbd4f6ab0	-0.050638855
149	0xbcb0e282	-0.021592382
150	0x3ae652a6	0.0017572239
151	0xbdf85ad7	-0.12126701
152	0x3c14b5e4	0.009076569
153	0x3d30252d	0.043004204
154	0x3dd21d39	0.1025948
155	0xbc140e02	-0.009036543
156	0xbc46ca23	-0.012133154
157	0x3d6044cc	0.05475311
158	0xbda6cd24	-0.08144596
159	0xbbf78a01	-0.007554293
160	0xbc510c7a	-0.012759322
161	0x3df8fcb0	0.12157571
162	0x3df75731	0.12077177
163	0xbd4d881f	-0.050178643
164	0x3dd9c822	0.106338754
165	0xbc218dc3	-0.009860459
166	0x3dc73a76	0.097279474
167	0x3d490a39	0.049082015
168	0x3ddb40c5	0.10705713
169	0xbd185e3b	-0.03719924
170	0xbda8b888	-0.082383215
171	0x3c5d18fc	0.013494726
172	0x3cf5365f	0.029933153
173	0x3d666f14	0.056258276
174	0xbca43da1	-0.020048918
175	0xbdb97e15	-0.09057251
176	0x3cd34946	0.025791775
177	0x3df97dd0	0.121822
178	0x3d811d5f	0.0630443
179	0x3d68a9d4	0.056802586
180	0xbb42cf9d	-0.0029725798
181	0x3d08399a	0.033258058
182	0xbd855d94	-0.06511989
183	0x3d477582	0.04869605
184	0x3cd83623	0.026393002
185	0xbdd73192	-0.10507502
186	0xbd95efa4	-0.073210984
187	0x3d554999	0.05207214
188	0x3daf0c3d	0.08547256
189	0xbd2205e0	-0.039556384
190	0xbd1f0ae9	-0.038828764
191	0x3db3f58e	0.0878707
192	0x3ddb9d9d	0.10723422
193	0x3d1b03f3	0.037845563
194	0x3c106b36	0.008814624
195	0x3c916a97	0.017751021
196	0x3d03a108	0.032135993
197	0xbd60fa4b	-0.054926198
198	0x3de6d41e	0.11270927
199	0xbd149bae	-0.03628128
200	0xba687a6f	-0.00088683417
201	0xbdd53e84	-0.104123145
202	0x3c665d48	0.014060326
203	0x3d190ecd	0.03736763
204	0xbdf7d71a	-0.12101574
205	0xbda6491f	-0.081194155
206	0x3d1fc56d	0.03900664
207	0xbdadd69c	-0.08488199
208	0x3da44cbe	0.0802245
209	0xbd475bb2	-0.04867143
210	0x3bc0af3a	0.0058802636
211	0xbd74faaf	-0.059809383
212	0x3d32684e	0.043556504
213	0xbd736334	-0.05942078
214	0x3d9f9063	0.077912115
215	0xbca71caa	-0.02039941
216	0x3ce9c1a2	0.028534714
217	0x3df6350c	0.12021837
218	0x3d31056a	0.043218054
219	0xbd22b0d5	-0.03971942
220	0xbdb1db21	-0.08684374
221	0xbd4bd38c	-0.049762294
222	0x3c8fa081	0.017532589
223	0x3d781075	0.06056257
224	0x3dde6be4	0.10860422
225	0xbcbc4728	-0.022983149
226	0x3ded2fae	0.1158136
227	0xbddd8fa6	-0.108184144
228	0xbded6f87	-0.11593538
229	0xbdca5409	-0.0987931
230	0x3db3ab71	0.08772934
231	0xbca37787	-0.019954456
232	0xbdff31c4	-0.12460664
233	0x3d156671	0.03647465
234	0xbbd36a1a	-0.0064518573
235	0x3dfa3ee3	0.12219026
236	0xbad9008a	-0.0016555947
237	0xbd6fce4c	-0.05854635
238	0x3c8f1ba7	0.01746924
239	0xbda9072a	-0.082533196
240	0xbdf792f1	-0.12088574
241	0x3d3066c5	0.04306676
242	0xbcc66028	-0.024215773
243	0x3c823ac2	0.015897159
244	0x3d5e5de6	0.054288767
245	0x3deea97e	0.11653422
246	0x3d5d078c	0.053962275
247	0x3afa493e	0.0019095314
248	0xbaa79297	-0.0012784776
249	0x3dc4f742	0.09617473
250	0xbd1702c1	-0.03686786
251	0x3ca67606	0.02031995
252	0x3c8c7c28	0.017149046
253	0x3dac1766	0.084029004
254	0x3df401d2	0.1191441
255	0xbd993077	-0.07479947

bias_ih_l0 f4 [192]
0	0xbcacdac1	-0.021100404
1	0x3d96b256	0.07358234
2	0x3cc88011	0.02447513
3	0x3dbe7f1b	0.09301587
4	0x3d3497c7	0.04409006
5	0x38d2b0a3	0.000100464815
6	0xbd8949a1	-0.06703497
7	0x3db272b3	0.087132834
8	0x3d3ef9ae	0.04662483
9	0x3dbf32a8	0.09335834
10	0x3d1fbe16	0.03899964
11	0xbdaa12f1	-0.08304394
12	0x3d9f967a	0.07792373
13	0x3dec26cd	0.11530838
14	0x3df392d8	0.118932426
15	0x3d2c7dbb	0.042112093
16	0x3d8e99da	0.069629386
17	0x3b08abdc	0.002085439
18	0x3d725d29	0.059170876
19	0xbdd31365	-0.103064336
20	0x3d8264a6	0.063668534
21	0xbd43ac94	-0.047772005
22	0x3d88afe5	0.06674174
23	0xbd15a5c4	-0.03653504
24	0x3d8de715	0.06928841
25	0x3dcd7961	0.10032917
26	0x3d1ba7fc	0.038002
27	0xbd2612e0	-0.040545344
28	0x3d0b9a9c	0.034082994
29	0x3d6bea34	0.0575964
30	0xbca6ceb7	-0.020362241
31	0x3dc27b4b	0.094961725
32	0x3d7983a4	0.060916558
33	0x3d431dd3	0.047635864
34	0xbd7a7adb	-0.06115232
35	0x3d748854	0.059700325
36	0x3df523f9	0.11969752
37	0xbc913003	-0.01772309
38	0x3db227a8	0.0869897
39	0xba1f1638	-0.00060686795
40	0x3da24c29	0.07924683
41	0xbdf1ef36	-0.11813204
42	0x3d90671b	0.07050916
43	0x3d9e3cb4	0.07726422
44	0x3d2351b5	0.039872844
45	0x3dfa151a	0.12211056
46	0xbb1b63f4	-0.00237107
47	0xbcc86c86	-0.02446581
48	0x3d8544db	0.06507274
49	0x3dc4d7df	0.09611487
50	0x3dfd2345	0.12360243
51	0x3d2c52ec	0.042071268
52	0xbde15652	-0.110027924
53	0x3d44582e	0.047935657
54	0xbcb6b6d6	-0.02230398
55	0xbb70adca	-0.003672468
56	0x3d8cc43b	0.068733655
57	0x3d2746b3	0.04083891
58	0xbd341edd	-0.043974746
59	0xbd9ca792	-0.07649149
60	0x3cd2a703	0.025714403
61	0xbda75c3e	-0.08171891
62	0x3d4cfefe	0.050047867
63	0x3dc22ed4	0.09481588
64	0x3bd198e2	0.006396399
65	0xbd8f2f0b	-0.069913946
66	0xbd790f98	-0.060805887
67	0x3dd933d4	0.106055886
68	0x3bcfbbef	0.006339542
69	0x3d63a0a6	0.05557313
70	0xbdf23734	-0.118269354
71	0x3da0b2d1	0.078466065
72	0x3d5270db	0.05137716
73	0xbd02a41d	-0.031894792
74	0xbd412929	-0.047158394
75	0xbce7b780	-0.028285742
76	0x3dbaf2e2	0.091283575
77	0x3ddcb911	0.10777486
78	0xbcb9768a	-0.022639532
79	0xbd9e36b1	-0.07725275
80	0xbdedcf0d	-0.116117574
81	0x3cee14b6	0.02906261
82	0x3d37455c	0.04474388
83	0xbd181f50	-0.037139237
84	0xbdb00c1e	-0.08596061
85	0xbdffd985	-0.124926604
86	0xbd9f7b27	-0.07787161
87	0x3bda4976	0.0066615893
88	0x3df7ebc7	0.12105518
89	0x3dd29985	0.10283188
90	0xbdab71a6	-0.08371286
91	0x3dea48a1	0.11439634
92	0xbd9ed747	-0.07755905
93	0x3cdf6b1e	0.027272757
94	0xbbe41189	-0.006960098
95	0x3dd621bf	0.10455655
96	0xbdcc7e45	-0.099850215
97	0xbd4f61ac	-0.050630257
98	0x3d305345	0.043048162
99	0x3c35599a	0.011068726
100	0x3c3a6591	0.011376754
101	0xbdc7e50c	-0.09760484
102	0x3d30eec4	0.043196455
103	0xbdeba5aa	-0.11506207
104	0xbdc41376	-0.095740244
105	0xbdb00fcb	-0.08596762
106	0xbbdfefb1	-0.0068339934
107	0xbda47d58	-0.0803172
108	0x3d10ebab	0.035381
109	0x3d3b1663	0.045675647
110	0xbd8ce9d4	-0.06880537
111	0x3da116cb	0.078656755
112	0xbbe65ed4	-0.0070303474
113	0x3dceb5ad	0.10093246
114	0xbd2aa8d6	-0.04166492
115	0x3c8bd027	0.017067028
116	0xbd975710	-0.07389653
117	0xbdc69d8e	-0.0969802
118	0xbdf02d88	-0.117274344
119	0x3d3b18cf	0.045677956
120	0xbdcc0a65	-0.0996292
121	0xbd9a3c21	-0.07531
122	0xbd0d076e	-0.034430914
123	0x3d9abfaf	0.07556092
124	0x3d30a761	0.043128375
125	0xbdea6f22	-0.11446978
126	0xbda384cf	-0.079843156
127	0xbda4e24b	-0.080509745
128	0x3d714ec2	0.058913
129	0x3c8c2ced	0.017111266
130	0x3db03ac7	0.08604961
131	0x3cec13c6	0.028818022
132	0xbdf706e5	-0.12061862
133	0x3d891e71	0.06695259
134	0xbd9f0c2a	-0.07765992
135	0xbd495729	-0.049155388
136	0x3de9f5ef	0.11423861
137	0x3def0f31	0.116728194
138	0xbd8dee3b	-0.069302045
139	0x3dd5be05	0.10436634
140	0xbcc0db86	-0.023542177
141	0xbdddcf6c	-0.10830578
142	0x3dff15c0	0.1245532
143	0xbddc9ced	-0.10772119
144	0xbb4469ff	-0.0029970405
145	0x3b5451f9	0.0032397492
146	0x3d73c6bd	0.059515703
147	0x3d4c1cc5	0.049832124
148	0x3c928ffd	0.017890925
149	0x3d1ec2a4	0.038759843
150	0x3d56249a	0.052281
151	0xbd47e63f	-0.048803564
152	0x3d5cdf51	0.05392391
153	0x3dfa5af6	0.12224381
154	0xbde8962b	-0.11356767
155	0xbdba15e8	-0.090862095
156	0x3deb06da	0.11475916
157	0x3d9e1491	0.077187665
158	0xbded76c6	-0.1159492
159	0xbd9e0bba	-0.077170804
160	0xbd5311fe	-0.05153083
161	0x3d9e57ed	0.07731614
162	0xbdcf448d	-0.10120497
163	0x3c0c93b0	0.008580133
164	0x3ca233d7	0.01980011
165	0xbde49e9f	-0.11163067
166	0x3df9a274	0.121891886
167	0xbc4e431a	-0.01258924
168	0x3da26141	0.07928706
169	0x3ccf655c	0.025316887
170	0xbd0c819d	-0.034303296
171	0xbd82d24d	-0.06387768
172	0x3ccda296	0.025101941
173	0xbdd269f5	-0.10274116
174	0x3dc0fe40	0.09423494
175	0xbda2cb6e	-0.079489574
176	0x3c92a6bd	0.017901773
177	0x3d98281b	0.074295245
178	0xbdd2f94c	-0.10301456
179	0x3dabe8e1	0.083940275
180	0xbdf0bbb0	-0.117545485
181	0xbd854e2b	-0.0650905
182	0x3d6a4bac	0.057201073
183	0xbcbbf1e4	-0.02294249
184	0x3d22d79c	0.039756402
185	0xbdf01798	-0.1172325
186	0x3b5a01d3	0.0033265247
187	0xbc6cc57a	-0.014451379
188	0xbd609861	-0.05483282
189	0x3d5c8b0f	0.053843554
190	0xbb486eb6	-0.0030583567
191	0x3c8b9a78	0.01704143

bias_hh_l0 f4 [192]
0	0xbcb20f01	-0.02173567
1	0x3da37952	0.079821244
2	0xbdb0f649	-0.08640725
3	0x3dd676a9	0.104718514
4	0x3dc475b8	0.095927656
5	0x3db88058	0.09008855
6	0xbd199159	-0.03749213
7	0xbbb95031	-0.0056553115
8	0xbd88d1cd	-0.06680641
9	0xbc0ade71	-0.008475886
10	0xbdb762f8	-0.08954424
11	0xbdd557fd	-0.10417173
12	0x3cf74149	0.030182498
13	0xbd5454d8	-0.051838726
14	0x3d5cd0d2	0.053910084
15	0x3c55fbda	0.013060534
16	0xbdfec6ea	-0.124402836
17	0x3dfb2ad8	0.12264031
18	0x3d8e1376	0.06937306
19	0xbdb7c5b9	-0.089732595
20	0x3de2975e	0.11064027
21	0x3dacbe0e	0.084346876
22	0x3ddde18f	0.108340375
23	0xbc829cd4	-0.015943922
24	0x3cb194c2	0.021677379
25	0xbd32c7ac	-0.043647453
26	0xbdfeb42a	-0.12436707
27	0xbcaabaae	-0.020840969
28	0xbd1411b4	-0.036149696
29	0xbd7914c0	-0.060810804
30	0xbd82d78d	-0.06388769
31	0xbc7eb220	-0.015545398
32	0xbddf77da	-0.10911532
33	0xbc7adb15	-0.015311022
34	0x3d656d7d	0.05601262
35	0x3db6d08c	0.08926496
36	0xbd440d9d	-0.047864545
37	0x3da779d9	0.081775375
38	0xbd4234da	-0.047413684
39	0xbdf555a3	-0.119792245
40	0xbdad647f	-0.08466434
41	0xbd16f0db	-0.03685079
42	0xbd8fefe7	-0.070281796
43	0xbcd038e8	-0.02541776
44	0x3d5dd4d1	0.054158036
45	0x3b8a6dfd	0.0042245374
46	0xbd5b2497	-0.05350169
47	0xbb8877dc	-0.004164679
48	0x3cc00f90	0.02344492
49	0xbd1f85d3	-0.038945984
50	0xbd2fb7c2	-0.042899854
51	0x3cc45738	0.02396737
52	0x3cc1505d	0.02359789
53	0x3c3adf77	0.011405817
54	0x3d43158a	0.047627963
55	0x3dd47ada	0.103749946
56	0xbd419d50	-0.047269166
57	0x3b9d0880	0.004792273
58	0x3d2e6eff	0.042586323
59	0xbd93770c	-0.07200441
60	0x3df2b7c1	0.118514545
61	0xbd897222	-0.06711222
62	0xbcc50b71	-0.024053307
63	0xbd00453f	-0.03131604
64	0x3d45c55d	0.048283923
65	0xbce39f9d	-0.02778607
66	0x3d6f5654	0.05843194
67	0x3d9283ec	0.07154068
68	0x3c929d34	0.017897226
69	0x3d308bc2	0.043102033
70	0xbd64b4b1	-0.055836383
71	0x3dc42df1	0.09579075
72	0xbcda516c	-0.026650153
73	0x3de7a7f1	0.11311329
74	0x3d872aaa	0.065999344
75	0x3d22a550	0.039708436
76	0xbdb3676a	-0.08759959
77	0xbdca3471	-0.09873284
78	0x3d9f5bf0	0.077812076
79	0xbdb923dd	-0.090400435
80	0xbd9be9d9	-0.07612962
81	0xbd169bb3	-0.03676958
82	0x3b875b29	0.00413074
83	0xbda1f517	-0.07908075
84	0x3d5b7375	0.053576905
85	0xbcef25ad	-0.02919277
86	0xbda6407d	-0.08117769
87	0x3d249163	0.040177714
88	0xbd80bb4d	-0.06285725
89	0x3c362ab9	0.011118584
90	0xbd2be84a	-0.041969575
91	0xbdf72b9b	-0.12068864
92	0x3d056f45	0.032576818
93	0xbddf3963	-0.108996175
94	0xbd4a63d1	-0.0494116
95	0xbde3f0bf	-0.11129903
96	0xbcf0a3f1	-0.029375048
97	0xbd62c41c	-0.055362806
98	0xbd8848a7	-0.06654482
99	0xbbcf1f8c	-0.0063208994
100	0x3d96f87b	0.07371613
101	0x3cb192f6	0.021676522
102	0x3cda4ec0	0.026648879
103	0xbd7e6458	-0.062107414
104	0xbdf1c3bc	-0.118049115
105	0x3c08f8d0	0.008360103
106	0x3cffc61c	0.031222396
107	0xbdc31b34	-0.09526673
108	0xbd0d06f5	-0.034430463
109	0x3dd55e40	0.104183674
110	0xbccd6a0b	-0.02507498
111	0xbd3d0828	-0.046150357
112	0xbd44ee63	-0.048078906
113	0x3dafbdcf	0.08581125
114	0xbdd9090c	-0.10597429
115	0xbcb0aa61	-0.021565618
116	0x3ddc5e10	0.107601285
117	0x3d3af792	0.045646258
118	0xbcd70453	-0.02624718
119	0xbc017f20	-0.007903844
120	0x3db29a25	0.08720807
121	0xbdee44cf	-0.11634218
122	0x3c1f1db6	0.0097116735
123	0x3c0e6dfd	0.008693215
124	0x3d85e504	0.06537822
125	0x3d51804a	0.051147737
126	0x3db646dd	0.08900235
127	0xbddf02db	-0.108892165
128	0x3c726e06	0.014796739
129	0xbb3e1414	-0.0029003667
130	0x3dd5bd45	0.10436491
131	0xbda49773	-0.08036699
132	0xbd9ee92f	-0.0775932
133	0x3d29adcf	0.041425522
134	0x3ca6a606	0.020342838
135	0x3dae590f	0.0851308
136	0xbcd13d4a	-0.02554192
137	0xbdb130ce	-0.08651887
138	0xbc283e10	-0.010268703
139	0xbd48eab9	-0.049051974
140	0x3dda6fec	0.10665879
141	0xbdb5ae07	-0.08871084
142	0x3df0b789	0.117537566
143	0xbc871df1	-0.01649377
144	0xbde23803	-0.1104584
145	0xbdc483d1	-0.095954545
146	0xbde32678	-0.11091322
147	0xbc8f9328	-0.017526224
148	0xbd35dfdb	-0.04440294
149	0x3c71e625	0.014764343
150	0xbdc411c9	-0.09573705
151	0xbd21701f	-0.039413568
152	0xbdafe4a7	-0.08588534
153	0x3d57c6cb	0.052679818
154	0xbdd0c3e4	-0.10193613
155	0xbb515867	-0.003194356
156	0xbc19874b	-0.009370635
157	0x3d9bfae2	0.076162115
158	0x3ca04313	0.019563233
159	0xbd2a927b	-0.0416436
160	0xbdd7768f	-0.1052066
161	0xbd0c7794	-0.034293726
162	0xbd4072ee	-0.046984605
163	0x3d581baa	0.052760758
164	0xbc15c410	-0.009140983
165	0xbdc38840	-0.09547472
166	0xbc86cd2d	-0.016455257
167	0xbdfd6edb	-0.1237466
168	0xbc089930	-0.008337304
169	0xbd4e3c7e	-0.05035066
170	0xbd912900	-0.07087898
171	0x3d8d04ba	0.06885667
172	0x3db66101	0.08905221
173	0x3dfdaac6	0.12386088
174	0x3d25a1d4	0.040437534
175	0xbdb53c8c	-0.08849439
176	0xbd7c6540	-0.061619997
177	0xbc3ca8fe	-0.0115149
178	0xbc478035	-0.012176563
179	0x3d6fd1fa	0.05854986
180	0xbdf4b328	-0.11948234
181	0xbda7aae2	-0.0818689
182	0xbd91b3b3	-0.07114353
183	0xbd93c315	-0.07214943
184	0x3cf12b09	0.029439466
185	0xbdbad98b	-0.09123524
186	0xbc2989c4	-0.010347787
187	0xbdcd935a	-0.10037871
188	0x3db92f1e	0.0904219
189	0x3dc7cb6a	0.09755595
190	0x3d95b5ac	0.07310042
191	0x3b16852a	0.0022967556

weight f4 [2, 64]
0	0xbdf59b06	-0.11992459
1	0xbcc67b4b	-0.024228713
2	0xbd88da46	-0.06682257
3	0xbdd16ba5	-0.1022561
4	0xbc1a682a	-0.009424249
5	0xbd71c1b7	-0.05902263
6	0xbdc09dde	-0.09405111
7	0x3dd69dba	0.10479303
8	0x3da90f5f	0.08254885
9	0xbcd399b9	-0.025830137
10	0x3bf29041	0.0074024503
11	0x3dedcb0b	0.11610993
12	0x3d9dbde4	0.077022344
13	0x3cdd4472	0.027010176
14	0x3d3d1ea7	0.04617181
15	0x3db8af94	0.09017864
16	0xbb4c2145	-0.003114776
17	0x3c5668e6	0.013086533
18	0x3d872ec8	0.0660072
19	0xbdb11be0	-0.08647895
20	0xbcde6b34	-0.027150728
21	0xbd827f0d	-0.06371889
22	0x3d4c1c74	0.049831823
23	0xbc523fe7	-0.012832618
24	0x3d4c592e	0.049889736
25	0xbde739c3	-0.11290314
26	0xbbecfa2f	-0.0072319726
27	0x3c7575dc	0.014981713
28	0x3dc4c101	0.09607125
29	0xbca58f79	-0.020210015
30	0xbdedf929	-0.11619789
31	0xbde0463d	-0.10950897
32	0xbd9909f8	-0.074726045
33	0xbd2240c5	-0.03961255
34	0x3d5e7d07	0.054318454
35	0xbdf7d2a4	-0.121007234
36	0x3dca18e9	0.098680325
37	0x3d46304f	0.048385914
38	0xbd8b56b6	-0.06803648
39	0xbd19ee42	-0.037580736
40	0x3e006621	0.12538959
41	0x3d854f48	0.06509262
42	0xbdcaba24	-0.09898785
43	0xbcdf427c	-0.027253382
44	0x3d430bbc	0.047618613
45	0xbd89d6fc	-0.06730458
46	0xbdbc630b	-0.091985784
47	0xbc6cebf9	-0.014460557
48	0x3dd5d39c	0.10440752
49	0x3c970b96	0.018438142
50	0x3dea7a80	0.11449146
51	0x3d719807	0.058982875
52	0xbd4c85a8	-0.049932152
53	0x3df60995	0.120135464
54	0x3d804107	0.06262403
55	0xbd42288b	-0.047401946
56	0xbc8c6b99	-0.01714115
57	0x3d826678	0.063672006
58	0xbd854697	-0.065076046
59	0x3dfbd4a4	0.12296417
60	0x3d223828	0.039604336
61	0x3d4255f0	0.047445238
62	0x3ca03fe1	0.01956171
63	0xbde7dc58	-0.11321324
64	0xbc2e080b	-0.010622035
65	0xbc89e6cd	-0.016833687
66	0x3baba3e7	0.0052380445
67	0xbdb830f7	-0.08993714
68	0x3d9d666f	0.07685553
69	0x3dc3b3b6	0.095557615
70	0x3cd5474b	0.026034972
71	0xbd1e4838	-0.038643092
72	0x3d6249de	0.055246226
73	0xbd53c0f3	-0.051697683
74	0xbdca0745	-0.09864668
75	0xbcf2facb	-0.029660603
76	0xbcbf6ecc	-0.023368262
77	0x3ca77876	0.020443182
78	0x3df6f6c5	0.12058786
79	0x3c916c95	0.017751971
80	0xbc8f9920	-0.01752907
81	0x3b2befe9	0.0026235527
82	0x3de146b8	0.10999817
83	0x3ddac22a	0.10681565
84	0x3de806d4	0.11329427
85	0x3d111e52	0.035429306
86	0xbde0d62b	-0.10978349
87	0xbd3dc176	-0.046327077
88	0x349369f0	2.7457963e-07
89	0xbc88038e	-0.016603258
90	0xbdd07fad	-0.10180602
91	0xbd3bd5a8	-0.045858055
92	0x3cc1fef3	0.02368114
93	0x3db6aa47	0.089191966
94	0x3bdeebf8	0.006803032
95	0x3d883c17	0.06652086
96	0x3db49b0e	0.08818637
97	0xbd92bcea	-0.07164939
98	0x3dfa73a9	0.12229092
99	0x3dfa5d24	0.122247964
100	0x3dbf12cf	0.09329759
101	0xbdd552cd	-0.104161836
102	0x3da8997c	0.082324
103	0x3de1b049	0.11019952
104	0xbd93b7ed	-0.072128154
105	0x3de5b132	0.11215438
106	0x3dc24786	0.09486298
107	0x3d62b733	0.055350494
108	0x3b1e3742	0.0024141823
109	0xbcd6e27a	-0.02623104
110	0xbd1d7480	-0.03844118
111	0xbd71b9d0	-0.059015095
112	0xbd8bc256	-0.06824176
113	0xbd37d2a1	-0.044878606
114	0xbd8dad3a	-0.06917806
115	0xbc20743e	-0.009793339
116	0xbdb84b96	-0.08998792
117	0xbb82183b	-0.0039701737
118	0x3dba2457	0.090889625
119	0xbde41abe	-0.11137913
120	0xbcbd78ff	-0.023128984
121	0x3dee78aa	0.116441086
122	0x3de94153	0.11389413
123	0x3d136e01	0.03599358
124	0xbd2705e0	-0.040777087
125	0xbd731db0	-0.059354484
126	0xbb1c83ff	-0.0023882387
127	0xbd5ae286	-0.053438686

bias f4 [2]
0	0x3d6ad1db	0.05732904
1	0xbce68cfc	-0.028143398

weight_ih_l0 f4 [192, 66]
0	0xbcc96978	-0.024586424
1	0x3df74989	0.120745726
2	0xbd815ff2	-0.06317128
3	0x3cde2510	0.027117282
4	0xbdca951a	-0.0989172
5	0xbda6e399	-0.081488796
6	0xbdf9c868	-0.121964276
7	0xbde3daca	-0.11125715
8	0x3d1ee57e	0.03879308
9	0xbdf2b931	-0.11851729
10	0x3dbada4e	0.091236696
11	0xbdb8fc1c	-0.09032461
12	0x3a56efbb	0.0008199175
13	0xbc865b10	-0.016400844
14	0x3c0ba63c	0.00852352
15	0xbd8d7556	-0.06907146
16	0xbc766590	-0.015038863
17	0x3db6d056	0.08926456
18	0x3dad26a6	0.08454637
19	0xbdcc13be	-0.09964703
20	0x3dba5bb6	0.09099524
21	0x3d2587de	0.040412776
22	0xbcb56332	-0.022142027
23	0x3d41643a	0.047214724
24	0xbdc430cf	-0.09579622
25	0x3ddd7f5c	0.108153075
26	0x3dd84514	0.105600506
27	0x3dc6f60a	0.09714897
28	0x3d94b900	0.072618484
29	0x3c807548	0.015680924
30	0x3d30a79b	0.04312859
31	0xbd997aba	-0.07494111
32	0xbd5781a8	-0.052613884
33	0xbd3e8a72	-0.04651875
34	0x3dd8719d	0.10568545
35	0x3dbf8a03	0.093524955
36	0xbdd92ee4	-0.10604647
37	0x3b6ce400	0.003614664
38	0x3d9fb51a	0.07798214
39	0xbdf4f639	-0.11961026
40	0x3dd9c52b	0.1063331
41	0xbdaeff91	-0.08544839
42	0xbdf65fbe	-0.1202998
43	0x3d2ac0e6	0.04168787
44	0xbcba9f58	-0.02278106
45	0xbc610b40	-0.013735592
46	0x3cf15148	0.029457703
47	0xbddddfeb	-0.108337246
48	0xbcbc2ce2	-0.02297062
49	0xbd814d64	-0.06313589
50	0x3d85d7b5	0.065352835
51	0xbda9b693	-0.082867764
52	0xbd9d9220	-0.07693887
53	0x3da102dc	0.078618735
54	0xbdda65e9	-0.10663969
55	0xbc8f264c	-0.017474316
56	0xbce76690	-0.028247148
57	0xbc167da4	-0.0091852285
58	0x3c91d6f0	0.017802685
59	0x3ccaea78	0.024770007
60	0x3cd96e66	0.0265419
61	0x3dc479d3	0.095935486
62	0xbccbf05a	-0.024894882
63	0x3d71fd30	0.05907935
64	0x3dcf8aa3	0.10133865
65	0x3cc8ddc8	0.024519816
66	0xbde63baa	-0.11241849
67	0x3cf13f8f	0.029449252
68	0xbdb260bc	-0.08709857
69	0xbd321bc8	-0.043483526
70	0xbd9ce0c2	-0.07660057
71	0x3d544c14	0.051830366
72	0x3d38ff88	0.04516557
73	0x3bfdf060	0.007749602
74	0xbbd86905	-0.006604316
75	0x3ce9e5a9	0.028551893
76	0xbdc2faad	-0.09520469
77	0xbd6bf7f4	-0.057609513
78	0xbdc7ec42	-0.097618595
79	0x3df55e4e	0.11980878
80	0x3c6c36af	0.014417334
81	0x3ded768c	0.11594877
82	0x3db98fd4	0.09060636
83	0x3d790415	0.06079491
84	0x3cf459a8	0.029827908
85	0x3d02b1b4	0.031907752
86	0xbd819f1c	-0.06329176
87	0xbd1f0b4c	-0.038829133
88	0x3d26fa7c	0.040766224
89	0x3db91392	0.09036936
90	0xbd1147b4	-0.035468772
91	0xbde2cad8	-0.110738456
92	0xbce87ae8	-0.028378919
93	0x3d401408	0.046894103
94	0xbd91efb8	-0.07125801
95	0x3dfa142e	0.1221088
96	0x3dd555e6	0.104167745
97	0xbdc7322e	-0.09726368
98	0xbde60388	-0.11231142
99	0xbdcbfefa	-0.09960742
100	0xbdb0212c	-0.08600077
101	0x3de8f772	0.113753214
102	0x3dccc6b2	0.099988356
103	0xbdbcf54e	-0.09226476
104	0x3dc9a628	0.09846145
105	0xbb8b2d1b	-0.0042473204
106	0x3d5a3f2c	0.0532829
107	0x3d7ec6b0	0.062201202
108	0xbd2dc09c	-0.042420015
109	0x3ddfe11c	0.10931608
110	0xbdc143b2	-0.0943674
111	0x3b89f6a0	0.004210308
112	0x3ccbe2c8	0.024888411
113	0x3d7cb42c	0.061695263
114	0xbdefb33e	-0.117041096
115	0x3dfc6a32	0.12324943
116	0xbdf5dfa8	-0.1200555
117	0x3dff9eca	0.124814585
118	0xbcbec280	-0.023286104
119	0x3da8dcb8	0.08245224
120	0xbd8567fc	-0.06513974
121	0xbd7f4b78	-0.062327832
122	0xbd6d8e40	-0.05799699
123	0xbdb9d8cc	-0.09074554
124	0xbbbb7e20	-0.0057218224
125	0xbdfee08e	-0.12445174
126	0xbd64fb74	-0.055903867
127	0xbc8e1d4f	-0.01734796
128	0x3d3253a1	0.043536786
129	0x3c19c4f0	0.009385332
130	0xbd5e6eac	-0.054304764
131	0xbdcddbd9	-0.10051698
132	0x3df3bdca	0.11901434
133	0xbd63b5bf	-0.05559325
134	0x3c937be8	0.018003419
135	0x3d2f1fd4	0.042754963
136	0xbde0da26	-0.109791085
137	0x3dd82962	0.10554768
138	0xbdc37328	-0.09543449
139	0x3d964bf8	0.07338709
140	0xbcc85315	-0.02445368
141	0xbd112f25	-0.03544535
142	0xbbb0f68d	-0.005400485
143	0xbccba1a0	-0.024857342
144	0x3da6fd42	0.08153774
145	0x3d71e6d4	0.059058025
146	0x3d3add45	0.045621175
147	0x3d4eaa30	0.050455272
148	0x3dd3f54c	0.10349521
149	0x3d9653f4	0.073402315
150	0xbdc7cc98	-0.0975582
151	0x3bf367c0	0.0074281394
152	0xbdafd87e	-0.085862145
153	0xbdee714c	-0.116427034
154	0xbd0cb296	-0.03435
155	0xbe0145a1	-0.12624218
156	0xbc5affca	-0.013366649
157	0xbb925940	-0.004466206
158	0xbdd5c078	-0.10437101
159	0xbdf004d4	-0.11719671
160	0x3d491efc	0.049101815
161	0x3d52df4c	0.051482484
162	0xbded1b31	-0.11577452
163	0x3d95fb48	0.07323319
164	0xbcbc2b28	-0.022969797
165	0xbd951594	-0.07279506
166	0x3d96be1c	0.07360479
167	0xbd854d19	-0.06508846
168	0x3de31606	0.11088185
169	0xbcedc190	-0.029022962
170	0xbdc71de2	-0.097224966
171	0xbd9dd70e	-0.07707034
172	0xbacba54e	-0.0015536936
173	0xbc110969	-0.008852341
174	0x3da641c2	0.08118011
175	0x3dd39e88	0.10332972
176	0xbcf4afe0	-0.02986902
177	0x3d4b4c68	0.049633414
178	0x3d9c33a0	0.07627034
179	0x3da15c3c	0.078789204
180	0xbdaec254	-0.08533159
181	0x3c870498	0.016481683
182	0xbce6befa	-0.028167237
183	0x3d4dd751	0.05025417
184	0x3dbdb588	0.0926314
185	0xbd44d400	-0.04805374
186	0xbc37c81a	-0.0112171415
187	0xbd31aa59	-0.043375347
188	0x3da5380c	0.08067331
189	0xbd87e791	-0.06635965
190	0xbcbcbb50	-0.023038536
191	0x3d94969c	0.07255289
192	0xbd83d2f5	-0.06436721
193	0x3ca4877d	0.020084137
194	0x3da994d0	0.08280337
195	0x3de6fefe	0.11279105
196	0x3c01f4a8	0.007931866
197	0x3d51abbb	0.051189166
198	0xbd9c6fdc	-0.07638523
199	0x3c9e2f48	0.019309655
200	0xbd4c4000	-0.049865723
201	0x3d89eac6	0.067342326
202	0x3bb42d60	0.005498573
203	0x3cb27c28	0.021787718
204	0xbdf258f0	-0.1183337
205	0x3d7b9fcc	0.06143169
206	0xbd3beb0b	-0.04587845
207	0xbc8b5edf	-0.017013012
208	0xbd8ee783	-0.06977751
209	0xbd2ccc98	-0.042187303
210	0xbc7be9ae	-0.015375538
211	0x3d0d2140	0.034455538
212	0x3db7d0ca	0.0897537
213	0x3df6d532	0.120523825
214	0xbda545ec	-0.08069977
215	0x3c8db0bb	0.017296186
216	0xbde21b1c	-0.11040327
217	0x3d06cd84	0.03291084
218	0x3de21064	0.110382825
219	0xbd2444ff	-0.040104862
220	0xbced7150	-0.028984696
221	0xbcb66b90	-0.022268087
222	0x3df719dc	0.12065479
223	0xbdbdfdc2	-0.09276916
224	0xbdf5d218	-0.12002963
225	0xbddbbb7c	-0.10729119
226	0x3c5cb340	0.013470471
227	0xbd0e00cc	-0.03466873
228	0xbd076655	-0.033056576
229	0x3d7af7e0	0.06127155
230	0xbdd19da8	-0.10235149
231	0x3dd6757a	0.104716256
232	0x3c012ad1	0.007883743
233	0x3ca697a0	0.020335972
234	0x3d39b8e8	0.045342356
235	0x3dfd232e	0.123602256
236	0xbce38740	-0.027774453
237	0xbd37b8d5	-0.044854004
238	0x3c060f81	0.008182407
239	0x3d8a9b88	0.067679465
240	0xbd56cab8	-0.05243942
241	0x3c91caa0	0.017796814
242	0xbda27788	-0.07932955
243	0xbd211070	-0.039322317
244	0x3ca897f8	0.020580277
245	0x3dd13858	0.10215825
246	0xbdb71fe6	-0.08941631
247	0x3dec4ad6	0.11537711
248	0x3df46b1a	0.119344905
249	0xbd8f80da	-0.07006998
250	0x3d60afc8	0.054855138
251	0xbd99b26e	-0.07504736
252	0x3d97651c	0.07392332
253	0xbda5a42a	-0.080879524
254	0xbda7bc46	-0.08190207
255	0x3d9a2a5c	0.07527611

weight_hh_l0 f4 [192, 64]
0	0x3ac027b0	0.0014660265
1	0x3d3bfb01	0.045893673
2	0xbdf89269	-0.121373005
3	0xbd3ca6d0	-0.046057522
4	0x3da15d93	0.07879176
5	0xbdc76a73	-0.097371005
6	0x3cbb4ef4	0.022864796
7	0x3d1cce08	0.038282424
8	0xbdb9a05a	-0.09063788
9	0x3db6edbe	0.089320645
10	0x3cea64ba	0.028612483
11	0xbc08f26b	-0.008358578
12	0xbd7dc153	-0.061951946
13	0x3b870bf4	0.004121298
14	0xbd3bf32b	-0.0458862
15	0x3d2724f4	0.040806726
16	0x3c7af03a	0.015316064
17	0x3defe31e	0.11713241
18	0x3d584620	0.05280125
19	0x3d4af78d	0.04955249
20	0xbd1345a8	-0.0359551
21	0x3de15c06	0.1100388
22	0x3de8fa11	0.113758214
23	0x3df550d3	0.119783066
24	0xbdd6a962	-0.10481526
25	0x3e0330eb	0.1281163
26	0x3df4338c	0.11923894
27	0xbd93a380	-0.072089195
28	0xbd08625d	-0.03329693
29	0xbd9cd3e2	-0.07657601
30	0xbd8f5ed6	-0.070005104
31	0x3d9b03bd	0.075690724
32	0x3cb9ad58	0.022665665
33	0xbde04a5c	-0.10951683
34	0x3ddbb1a1	0.107272394
35	0x3d6adf44	0.05734183
36	0xbcd16026	-0.025558542
37	0xbd9a48f0	-0.07533443
38	0x3d1de4a9	0.038548145
39	0xbdc8874a	-0.09791429
40	0xbdd0e2d3	-0.10199513
41	0xbdfdc748	-0.123915255
42	0x3dc340d5	0.0953385
43	0xbd98639b	-0.07440873
44	0x3d925aeb	0.071462475
45	0x3d7e0f37	0.06202623
46	0xbae7a1fe	-0.0017672179
47	0x3dcf34f7	0.10117524
48	0x3d7c390e	0.06157785
49	0x3dc01d86	0.09380631
50	0xbda23add	-0.079213835
51	0x3debc3b2	0.11511935
52	0xbdf0d557	-0.11759441
53	0xbc375f7b	-0.011192198
54	0xbd08016c	-0.03320448
55	0xbcd276c2	-0.025691394
56	0xbdac3be2	-0.08409859
57	0xbd0aa155	-0.033845264
58	0xbc32405b	-0.010879601
59	0x3df691cc	0.12039527
60	0x3d84e127	0.06488257
61	0x3d2071a2	0.03917087
62	0x3da63c7d	0.08117006
63	0x3de237ea	0.11045821
64	0xbd1757b0	-0.03694886
65	0x3d164ebc	0.03669618
66	0x3d5006c6	0.05078771
67	0x3dce838f	0.100836866
68	0xbde8a3db	-0.11359378
69	0xbd561c8a	-0.05227331
70	0xbdace449	-0.084419794
71	0xbd45f5af	-0.048330005
72	0xbdf47435	-0.11936227
73	0xbd97da6d	-0.07414708
74	0x3d103a81	0.035212044
75	0xba25b50d	-0.0006321229
76	0x3df62b2b	0.120199524
77	0x3dc7c4f8	0.09754366
78	0x3ba4c40b	0.005028253
79	0x3d3b7db9	0.045774195
80	0x3d33e079	0.043915246
81	0x3db5c274	0.088749796
82	0x3d50e4e4	0.050999537
83	0xbdcc9d0c	-0.09990892
84	0x3d0e13e8	0.034686953
85	0x3d6639c6	0.05620744
86	0x3ddcb256	0.107762024
87	0xbdc0925a	-0.09402914
88	0xbdf88eb2	-0.12136592
89	0x3dd92662	0.10603024
90	0xbcfe3e0a	-0.031035442
91	0xbcd3be8e	-0.0258477
92	0xbddb77d4	-0.10716215
93	0xbdceb6b4	-0.100934416
94	0x3b99433f	0.004677206
95	0x3deca44d	0.115547754
96	0x3cb77eae	0.022399273
97	0x3abbec96	0.0014337476
98	0xbdba12f2	-0.09085645
99	0x3c1c9da1	0.009559066
100	0xb7b1a455	-2.1176567e-05
101	0x3a8a8e35	0.0010570945
102	0x3bf6462f	0.0075156908
103	0x3dc0340c	0.09384927
104	0x3bf13d99	0.0073620793
105	0x3df6ed8a	0.12057026
106	0x3d182ca6	0.037151955
107	0xbd411ee8	-0.047148615
108	0xbdc24ec9	-0.09487683
109	0xbdc20406	-0.09473424
110	0xbda106a1	-0.078625925
111	0x3dc311eb	0.09524902
112	0xbd882178	-0.06647009
113	0x3d454892	0.04816491
114	0xbc4afe9a	-0.012389803
115	0x3df5078d	0.11964331
116	0xbcc9ae3f	-0.02461922
117	0xbd51422a	-0.05108849
118	0xbd21becf	-0.03948861
119	0x3df9cceb	0.12197288
120	0x3dda684f	0.106644265
121	0x3d3fb820	0.046806455
122	0x3c53d6e4	0.012929652
123	0xbd2949b1	-0.041330043
124	0x3d97dc3c	0.07415053
125	0x3d83ad44	0.06429532
126	0xbdf19aaa	-0.11797078
127	0x3db903ba	0.09033914
128	0x3d07180c	0.032981917
129	0x3de5209e	0.11187862
130	0x3cdab84c	0.026699208
131	0x3c810130	0.015747637
132	0x3da76cb4	0.0817503
133	0x3d5ac6c2	0.053412206
134	0xbd8ddfd2	-0.06927456
135	0x3d837f6b	0.064207874
136	0xbd88936c	-0.066687435
137	0x3deb52f8	0.114904344
138	0x3dc62e65	0.09676818
139	0xbd9748e9	-0.073869534
140	0x3d6e0d72	0.05811829
141	0x3dee45d7	0.11634415
142	0x3dd77c07	0.10521703
143	0xbddb3d60	-0.10705066
144	0xbcde2bf8	-0.027120575
145	0x3d007261	0.03135908
146	0xbd81f8cd	-0.06346283
147	0x3dda10af	0.106477134
148	0x3de4259c	0.11139986
149	0xbc69c19b	-0.014267351
150	0x3df3a6de	0.11897062
151	0xbddfb82c	-0.109238
152	0x3dc29c9a	0.09502526
153	0x3d56013a	0.052247263
154	0x3df33290	0.118748784
155	0xbddac305	-0.10681728
156	0xbdbf0302	-0.093267456
157	0xbda997ff	-0.08280944
158	0x3d2432f8	0.04008767
159	0x3c9f05c3	0.019411927
160	0xbd011423	-0.031513344
161	0x3daf3534	0.085550696
162	0x3da64919	0.08119411
163	0xbbb51c07	-0.0055270228
164	0xbd12d220	-0.035844922
165	0x3dc372d5	0.09543387
166	0x3cd56b50	0.026052147
167	0x3d895651	0.06705917
168	0x3e05fcf4	0.13084775
169	0x3d76dc23	0.060268532
170	0x3dc7a11f	0.09747528
171	0x3d8b02ca	0.06787641
172	0xbda164f8	-0.078805864
173	0xbd91f850	-0.0712744
174	0x3dd4b3b4	0.10385838
175	0x3ddb33ef	0.10703265
176	0x3b31d624	0.0027135694
177	0x3ddf5f2a	0.10906823
178	0xbc3c0c92	-0.011477606
179	0x3d5f7b98	0.054561228
180	0xbdb438fd	-0.08799932
181	0xbdd1f396	-0.102515385
182	0xbdaffaa0	-0.08592725
183	0xbd2b15c9	-0.041768823
184	0x3c8f02f6	0.017457467
185	0xbbbe70da	-0.005811793
186	0x3deb1ad3	0.11479726
187	0xbd9326cf	-0.071851365
188	0x3de047fc	0.1095123
189	0xbd660572	-0.056157537
190	0x3e035d11	0.12828471
191	0xbdffc845	-0.1248937
192	0xbd1bc7f3	-0.038032483
193	0x3dbcada6	0.09212808
194	0x3da5f4b5	0.08103315
195	0x3de9093a	0.11378713
196	0xbd92edfc	-0.07174298
197	0x3db5e54a	0.08881624
198	0x3bc8a3d5	0.006123046
199	0x3db9acbb	0.09066149
200	0xbdb9ee1c	-0.09078619
201	0xbdb5058d	-0.08838949
202	0xbd00a48a	-0.031406917
203	0x3d635b0c	0.05550675
204	0xbd5bc076	-0.053650342
205	0xbdbe9b36	-0.09306948
206	0x3d980f70	0.074248195
207	0xbc686c1a	-0.01418593
208	0xbdba18f2	-0.09086789
209	0xbdb5c0ee	-0.08874689
210	0x3b9e335a	0.004827899
211	0xbcbdcf18	-0.023170039
212	0x3d99c4d3	0.07508244
213	0x3df46519	0.11933345
214	0xbda806ad	-0.08204398
215	0xbd98f124	-0.07467869
216	0xbca68af2	-0.020329926
217	0xbdbc9ef3	-0.09210005
218	0xbd75ea38	-0.06003782
219	0x3dc9f80a	0.09861763
220	0x3ddff83d	0.109360196
221	0x3dc9d494	0.09854999
222	0x3dc7ba71	0.09752358
223	0xbd8357e2	-0.06413247
224	0x3bec8483	0.007217945
225	0x3b4c5b03	0.0031182177
226	0x3d7f8b6f	0.062388834
227	0x3b903b9e	0.004401638
228	0xbcf01160	-0.02930516
229	0xbde7c560	-0.11316943
230	0xbdffa722	-0.1248305
231	0x3d896192	0.06708063
232	0xbdbf6feb	-0.093475185
233	0x3d605de6	0.05477705
234	0xbd099fd8	-0.033599705
235	0x3db69ba7	0.08916407
236	0xbc3552b5	-0.011067082
237	0x3de7fcbd	0.11327503
238	0xbd99bec4	-0.07507089
239	0xbdad388d	-0.08458052
240	0xbb8c74c8	-0.0042863823
241	0x3d7c4a1e	0.06159412
242	0x3cd147d2	0.025546942
243	0xbd0054dd	-0.031330932
244	0x3c597986	0.013273602
245	0x3dac1889	0.08403117
246	0x3c2b00f3	0.010437238
247	0x3dccb5a0	0.0999558
248	0x3cd1b4f3	0.025598979
249	0x3d8d7877	0.069077425
250	0x3d337317	0.04381093
251	0xbde2ade4	-0.11068323
252	0xbd8db3f4	-0.06919089
253	0xbd97ea04	-0.07417682
254	0x3c20813c	0.009796437
255	0xbd64c110	-0.05584818

bias_ih_l0 f4 [192]
0	0xbc46ddf4	-0.012137879
1	0x3b475f78	0.0030421894
2	0xbdcefbf4	-0.1010665
3	0xbdac9b86	-0.08428101
4	0x3d7577b6	0.05992862
5	0xbd0f179a	-0.034934618
6	0x3de03eec	0.109495014
7	0xbcc64f39	-0.024207698
8	0x3de37eca	0.111081675
9	0xbde2721f	-0.11056923
10	0xbde668fe	-0.112504944
11	0xbc34a678	-0.011026017
12	0x3dacd169	0.08438379
13	0xbce74280	-0.028229952
14	0xbaaabc21	-0.0013026037
15	0x3cf27560	0.029596984
16	0x3db5efa3	0.08883598
17	0x3dd719f9	0.10503001
18	0xbdc6a525	-0.096994676
19	0x3d558d4e	0.05213671
20	0x3dd057b2	0.101729766
21	0xbdbba5b7	-0.09162467
22	0xbda7fe0c	-0.082027525
23	0x3db6b6c0	0.089215755
24	0xbe03ace5	-0.12858923
25	0x3d1e65b3	0.038671207
26	0x3d33c4b2	0.043888755
27	0x3dc3f546	0.095682666
28	0xbdcaec8f	-0.09908401
29	0xbd0fa556	-0.035069786
30	0xbc1656c5	-0.009175961
31	0x3dbf9b77	0.093558244
32	0xbda084fb	-0.07837864
33	0x3cf3282f	0.029682247
34	0x3db0bd74	0.08629885
35	0xbd3931a7	-0.045213368
36	0x3de36e42	0.111050144
37	0xbd894201	-0.06702042
38	0xbd74fc5b	-0.059810977
39	0x3d0bf6ac	0.03417079
40	0x3da72237	0.08160823
41	0x3db84342	0.089972034
42	0x3d56ad01	0.052411083
43	0x3d60b97d	0.054864395
44	0xbcc2f90c	-0.023800395
45	0x3cbe493b	0.023228278
46	0xbd98a896	-0.0745403
47	0xbde3d17a	-0.11123939
48	0x3d70f563	0.05882777
49	0xbdd1f0dd	-0.10251019
50	0x3deceec0	0.115689754
51	0x3dd9dceb	0.1063784
52	0xbdc00a90	-0.09377015
53	0x3dd1fb2d	0.10252986
54	0xbdd90cac	-0.1059812
55	0x3d632bca	0.055461682
56	0x3d6f3e82	0.05840922
57	0xbcf0f889	-0.029415386
58	0x3dd9b086	0.10629372
59	0xbdde67bc	-0.108596295
60	0xbdb893f5	-0.090125956
61	0x3d9cd094	0.076569706
62	0x3cc12b4d	0.023580218
63	0xbbd90668	-0.006623078
64	0x3c07a0bc	0.008278068
65	0x3d050ae9	0.032481108
66	0x3d0f2a90	0.0349527
67	0x3d468520	0.0484668
68	0xbcfb9fc7	-0.030715836
69	0x3dca613f	0.098818295
70	0x3cd77217	0.02629952
71	0x3dba3df8	0.09093851
72	0xbcd13e02	-0.025542263
73	0xbdcc025e	-0.09961389
74	0x3db210db	0.08694621
75	0xbbd6f06b	-0.006559422
76	0xbcf23fa8	-0.02957137
77	0x3d314220	0.043275952
78	0x3a070728	0.00051509077
79	0xbd02194a	-0.0317624
80	0xbcf7ab9a	-0.030233193
81	0xbc012107	-0.0078814095
82	0x3de196c2	0.11015083
83	0x3e007607	0.12545024
84	0x3d3116f2	0.043234773
85	0xbe029125	-0.1275068
86	0xbd2be667	-0.041967776
87	0x3dce38b1	0.10069407
88	0xbdd762e1	-0.105169065
89	0x3df007c1	0.11720229
90	0xbd06be3d	-0.03289627
91	0x3d4b01d8	0.049562305
92	0x3da5327b	0.08066269
93	0xbdf0fe34	-0.117672354
94	0x3daaedbe	0.08346127
95	0x3bc1f932	0.005919599
96	0xbdd02371	-0.1016301
97	0x3c4f52e4	0.01265404
98	0xbcb1671d	-0.021655614
99	0xbd9d544f	-0.07682096
100	0x3c18dbd1	0.009329752
101	0xbdbc97e3	-0.092086576
102	0x3df67115	0.120332874
103	0xbdd1a3bc	-0.10236308
104	0xbd93ecf0	-0.072229266
105	0xbcc96136	-0.024582487
106	0x3d92e241	0.07172061
107	0xbd89bc06	-0.06725316
108	0x3d529028	0.05140701
109	0xbd2ba644	-0.04190661
110	0x3c06a510	0.008218065
111	0x3ba34dd6	0.004983644
112	0xbdc288f7	-0.0949878
113	0xbdca0cc5	-0.09865717
114	0xbc5c0887	-0.013429767
115	0x3d5c36cc	0.053763196
116	0x3d3c3c69	0.04595605
117	0xbda4aa5a	-0.080403045
118	0xbce928fb	-0.028461924
119	0xbcc9c37e	-0.02462935
120	0x3c37e05b	0.011222924
121	0x3d77d1a3	0.06050266
122	0xbde57c72	-0.11205377
123	0x3d9b7de1	0.07592369
124	0xba636f7e	-0.00086759764
125	0x3a5786c6	0.0008221682
126	0x3ceb796c	0.028744422
127	0xbd61afa9	-0.055099163
128	0x3b81bb01	0.00395906
129	0x3d944498	0.07239646
130	0xbd36b668	-0.04460755
131	0x3dc15eff	0.09441947
132	0xbd2135cf	-0.039357956
133	0xbda7914f	-0.08182012
134	0xbd8f4770	-0.069960475
135	0x3d607fba	0.05480931
136	0xbd8f98e1	-0.07011581
137	0xbdfd5ee5	-0.12371615
138	0x3d718f66	0.058974646
139	0x3d75940c	0.05995564
140	0x3c044358	0.008072697
141	0x3c980135	0.018555263
142	0x3dbca5b1	0.09211291
143	0x3db346b6	0.087537214
144	0xbde279fa	-0.110584214
145	0xbdd36a5a	-0.10323019
146	0xbc39121b	-0.011295821
147	0x3d2c9931	0.042138282
148	0x3b024c85	0.0019882035
149	0xbdf53443	-0.11972859
150	0x3d4498fd	0.047997463
151	0xbdf06d50	-0.117396
152	0xbbd2b775	-0.006430561
153	0x3cc3b527	0.023890091
154	0xbd4a23d9	-0.049350593
155	0x3dc1e653	0.09467759
156	0x3de96a61	0.11397243
157	0x3ce8f2c7	0.028436078
158	0xbaa487d4	-0.0012552687
159	0x3db5d3da	0.08878298
160	0xbc9cb0a3	-0.019127196
161	0xbcd7040a	-0.026247043
162	0xbdf23122	-0.118257776
163	0xbc562c1d	-0.013072041
164	0x3b24f4b8	0.0025170278
165	0x3d90a9e1	0.07063652
166	0x3de33ea5	0.11095933
167	0x3b55edb6	0.0032642907
168	0xbda27d6f	-0.07934081
169	0x3d5c83f5	0.05383678
170	0xbcb96de5	-0.02263541
171	0x3d51d300	0.051226616
172	0xbdbd1abc	-0.09233615
173	0x3a09b31b	0.0005252824
174	0xbc28e123	-0.010307583
175	0x3d8f3c2d	0.069938995
176	0x3d8819e6	0.06645565
177	0xbc829751	-0.015941294
178	0x3c859b65	0.01630945
179	0x3dd94608	0.106090605
180	0x3cb0c1f1	0.021576853
181	0x3d0bfca3	0.03417648
182	0x3c9ab94a	0.01888718
183	0x3d72cfb9	0.05928013
184	0xbdd33e95	-0.10314671
185	0xbd874f4b	-0.06606921
186	0x3dae7a77	0.08519452
187	0xbde2e4eb	-0.11078819
188	0x3b98c524	0.004662173
189	0x3dac4f35	0.08413545
190	0xbdf34ce2	-0.118798986
191	0x3e032faf	0.12811159
