models/one_month_new_trial/checkpoint/trained_irdpg_2.pth (torch, 409330 bytes, 22 tensors)

weight_ih_l0 f4 [192, 64]
000000 b4 01 1a bd 1d fd 28 3d 42 8b b4 3d 74 19 a7 bd
       -0.03759928 0.041257013 0.08815624 -0.08159152
000010 54 fc 71 3d 3c c2 60 3c 34 f9 a9 bd 7a 90 cd bd
       0.05907853 0.013718184 -0.08299485 -0.10037322
000020 ad 3b 04 3d 0b 21 82 3d 96 14 ba 3d 9c 7c 7c 3d
       0.032283474 0.06353959 0.09085958 0.061642274
000030 eb 30 9d 3d 04 53 19 bd 6e 3d 92 bc 66 4e db bd
       0.07675346 -0.037432685 -0.017851558 -0.10708313
000040 18 45 d9 3d c9 3c 9b 3d 1c 0c 52 bd a2 ca 90 3d
       0.10608882 0.07579953 -0.05128108 0.07069899
000050 e0 66 76 3c 6d 88 bc 3d 2c a3 77 bc b9 f8 33 3d
       0.015039176 0.09205709 -0.015114587 0.043938372
000060 d9 0c c4 bd bc 07 8c 3d 82 ca d7 bd e0 23 22 3c
       -0.09572763 0.06837413 -0.10536672 0.009896249
000070 9c 16 f4 3d 64 c2 64 3d c7 ea 6c 3d 86 ba 85 bd
       0.11918375 0.055849448 0.05784109 -0.06529717
000080 b0 f3 ea bd f5 d6 0b bd 35 48 26 3d 43 48 1f bd
       -0.11472261 -0.034140546 0.040596206 -0.038887274
000090 d6 2f a0 bd 56 3c c9 bd dc 71 b6 3d d7 8a dd 3d
       -0.07821624 -0.09825961 0.08908436 0.10817497
0000a0 f1 eb a4 bd 05 e1 42 3d b0 50 7d 3c 3b cd 35 bd
       -0.08052815 0.047577877 0.015461132 -0.044385176
0000b0 ec 0b f7 bd 98 da 33 bd 50 d5 eb bd af 53 64 bb
       -0.12062821 -0.04390964 -0.115152955 -0.0034839918
0000c0 47 7c 85 bd 10 b9 90 bc a6 a0 c5 3c e2 cc d6 3c
       -0.06517845 -0.01766637 0.024124455 0.026220743
0000d0 a4 79 ac 3d 28 4d 51 3d fd a3 c7 3d 3b 49 b4 3d
       0.084216386 0.051098973 0.09748075 0.0880303
0000e0 c8 4c db bd 75 74 27 3d b2 2f a1 bd 9c 43 8a 3d
       -0.10708004 0.040882546 -0.07870425 0.06751177
0000f0 69 1f c4 3d e9 ec ef bd ca bc dc 3d 1c f0 d9 bd
       0.095763035 -0.11715109 0.10778196 -0.106415
000100 88 44 d6 bc 53 4a e4 3d 30 95 ce bd 18 26 82 bc
       -0.026155725 0.11146989 -0.10087049 -0.015887305
000110 c4 45 b7 3d 17 26 ad 3d 86 d7 e5 3d 30 a7 69 bd
       0.089488536 0.08454531 0.112227485 -0.057044208
000120 96 fc 4e bd dd 81 99 bd ad be 96 3d 46 4c c1 3d
       -0.050533853 -0.074954726 0.07360587 0.09438376
000130 3d fc bd bd c0 b5 98 3c eb e2 bd 3d be 35 fd 3d
       -0.09276626 0.018641353 0.09271797 0.12363766
000140 18 4a 0a bd 35 dd 9d bd a4 6f 80 bd 3c 4c d8 3d
       -0.033762068 -0.077082075 -0.06271294 0.105614156
000150 c4 a6 73 bd 73 27 9b bd 77 0c 82 3d 81 1b f4 bd
       -0.059485212 -0.07575884 0.06350034 -0.119193085
000160 53 98 cb bd 48 28 6a 3d 64 23 1e 3d 44 16 da bd
       -0.09941163 0.05716732 0.03860797 -0.10648778
000170 88 95 6a bd 80 a1 6b bc 18 2e e4 3c 88 ff 36 bd
       -0.05727151 -0.014381766 0.02785401 -0.044677287
000180 7e 21 c8 3d 91 75 e2 bd b7 39 8c bd 03 8b d8 bd
       0.09772013 -0.1105758 -0.06846946 -0.105733894
000190 9a 59 bf bd 70 a7 d0 bd 18 26 bc 3c 31 89 83 bd
       -0.09343262 -0.10188186 0.022967383 -0.064226516
0001a0 b9 ce ff 3d ed ff 8b bd 10 4b 46 3c cd 53 c2 bd
       0.12490601 -0.06835923 0.012102857 -0.0948864
0001b0 80 18 32 bb 6e 63 fc bd 40 1e 49 bb 9e 4a 15 bd
       -0.0027175248 -0.12323652 -0.0030688196 -0.036448114
0001c0 3b 3f b0 bd 32 4c c0 3d 53 20 a5 3d 97 b0 d8 bd
       -0.0860581 0.09389533 0.08062806 -0.10580557
0001d0 52 03 90 3d 5c f4 b4 3d 5e 9a 2a bd 1d cd 97 3d
       0.07031883 0.0883567 -0.041651122 0.07412169
0001e0 dc b3 76 3d 61 6b f7 bd 52 c4 a1 bd f0 01 a3 bd
       0.06023012 -0.12081028 -0.07898773 -0.07959354
0001f0 33 a2 f1 bd dd 66 e9 bd 67 22 5a 3a d8 69 c3 3d
       -0.11798515 -0.11396573 0.00083211664 0.095416725
000200 30 8b 57 bd 0a 45 f7 bd 00 84 3d b9 32 58 aa bd
       -0.052622974 -0.12073715 -0.00018073618 -0.08317603
000210 a0 25 e1 3b 28 ae 83 bd 80 bf b6 3b 50 d2 42 3c
       0.0068709403 -0.06429702 0.005577028 0.011890963
000220 48 be f2 bc 98 84 c9 bd 23 35 91 3d 04 07 61 bd
       -0.029631749 -0.098397434 0.07090213 -0.05493833
000230 04 91 b4 3d b8 ed 40 bd 28 42 f3 bd 96 ac 9e 3d
       0.08816722 -0.047101706 -0.11877853 0.07747762
000240 b2 a3 a4 bd a6 09 a4 3d 0c dd e1 bd 3e 8a f0 3d
       -0.08039035 0.08009653 -0.110284895 0.117451176
000250 40 ca ce bd 3c 15 70 3d 0c b3 6c 3d 7f 47 d5 3b
       -0.1009717 0.058614 0.05778794 0.006508767
000260 b8 e5 3b 3d 54 7b 41 3d 98 7a 12 bd c6 c5 ab bd
       0.045873374 0.047236755 -0.035761446 -0.08387332
000270 76 a7 ef 3d 8c 7d 53 3d 90 a6 bc 3d 2a 73 d7 bd
       0.117018625 0.051633403 0.09211457 -0.10520013
000280 78 15 fc bd f0 3b 9d bd 10 09 bd bc 82 91 af 3d
       -0.12308782 -0.07677448 -0.02307561 0.08572675
000290 60 19 c4 3b 2c cb ae bd 20 d2 87 3d 1c c3 a3 3d
       0.0059844702 -0.08534846 0.06631875 0.079961985
0002a0 c2 f9 c9 bd 92 0a a7 3d e4 8f de 3d d8 f3 be 3c
       -0.09862091 0.08156313 0.10867289 0.023309633
0002b0 36 e8 88 bd ee c6 98 3d e0 be f8 bb f8 da b6 3d
       -0.06684916 0.07459818 -0.0075911134 0.08928484
0002c0 50 be b0 bd bc cd 64 bd 10 08 14 3d 96 37 d0 3d
       -0.08630049 -0.055860266 0.0361405 0.10166852
0002d0 d2 14 ff bd d0 88 3d 3d d8 e9 c3 3c b8 c2 5d 3d
       -0.12455143 0.046273053 0.023915216 0.054140776
0002e0 68 28 ee bd 50 82 a8 bd 54 32 cc bd d8 4c dc bd
       -0.11628801 -0.0822798 -0.09970537 -0.10756844
0002f0 24 99 ad 3d b8 0d c8 bc 40 08 80 bd d4 9b 6f 3d
       0.08476475 -0.024420604 -0.062515736 0.05849822
000300 3c 22 03 3d 0d 32 c5 bd c8 c4 ee 3c 40 af 11 bb
       0.03201507 -0.09628687 0.029146567 -0.0022229701
000310 1c 1f 0a 3d 5f b2 30 3d 68 5e 96 3c d8 0d e9 bc
       0.033721074 0.043138858 0.018355563 -0.028448984
000320 52 2a f1 3c aa 2a f2 bc d2 98 74 bd 8c 50 66 3d
       0.029439125 -0.02956136 -0.059716053 0.05622916
000330 8d 4b d3 3d 9e d6 ac 3d 7a ec 91 3c 80 ca 5a bc
       0.103171445 0.084393725 0.017812956 -0.013353944
000340 a8 a4 13 3d a3 20 f9 bd a8 6f ee bd 92 5a fd bd
       0.0360457 -0.12164428 -0.116423905 -0.123707905
000350 08 50 cc 3d cd e6 5d 3d 0f e1 e9 3d f7 dc 37 bd
       0.09976202 0.054175187 0.1141988 -0.044888463
000360 85 15 19 3c aa 2c cc bd c8 39 66 3d 60 e1 a8 3d
       0.00934351 -0.099694565 0.05620745 0.08246112
000370 6a d8 c1 bd 2e af 89 bd 2d ab e0 3d c0 75 44 bd
       -0.09465106 -0.06722866 0.10970149 -0.047963858
000380 80 54 70 bb 26 8e c3 3c bd 35 1b 3d 67 f8 88 bd
       -0.003667146 0.023871493 0.037893046 -0.06688004
000390 b0 a1 e5 3c 74 7d cb 3d 88 7d d9 3d c2 25 c1 bc
       0.0280312 0.09936038 0.10619646 -0.023577575
0003a0 32 1e 8c 3c a3 7b c8 bd aa 5e 8e 3d ad d5 b9 bd
       0.017104242 -0.09789207 0.069516495 -0.090739585
0003b0 84 63 7d 3d d0 55 f5 bd 0c 55 91 bd 42 e6 f2 3c
       0.061862484 -0.11979258 -0.070962995 0.029650811
0003c0 a1 18 f2 bd 40 79 12 bd 17 9f 86 3d a6 a0 be 3a
       -0.11821104 -0.035760164 0.06573313 0.0014543727
0003d0 6c 9d 5b bd 2e 1b 8d bd 63 36 b1 bd 8b 52 5a 3d
       -0.053616926 -0.0688995 -0.086529516 0.053301375
0003e0 1e 1f 95 3d 4c 60 09 3a 70 ae 9a 3d 4c 4c 04 bd
       0.07281326 0.00052404846 0.075528026 -0.032299325
0003f0 6f a8 b8 bd e2 6d c2 bc ce d7 2b bd 64 a3 7d bd
       -0.09016501 -0.023734037 -0.041953854 -0.0619234

weight_hh_l0 f4 [192, 64]
000000 67 ef ae 3c 8d c9 ef bd 65 fb 1f 3d f5 71 e2 3c
       0.02135439 -0.11708365 0.039058108 0.02764223
000010 e6 8e b0 3d 42 64 f2 3d 9d 9e aa 3d 2e 19 8e 3d
       0.08621006 0.11835529 0.08331034 0.069383964
000020 a2 52 95 3d ca d6 df bc 19 0a 96 bd b9 1f f0 3d
       0.072911516 -0.0273241 -0.07326145 0.117248006
000030 4f bf ab 3a ce f9 60 3d 63 48 a8 3c de 87 ae 3c
       0.0013103279 0.054925732 0.02054233 0.02130502
000040 75 02 a8 bd 16 35 e3 3d 30 a9 2f 3d 80 58 b0 bd
       -0.08203594 0.1109411 0.04288596 -0.0861063
000050 f1 27 91 3d 2b 68 4e 3d 43 dc cd bd ba f9 32 bd
       0.07087696 0.05039231 -0.10051777 -0.04369519
000060 52 c6 e9 3d 65 e0 8a bd 18 a2 4e bc 31 67 c7 bd
       0.1141478 -0.06781081 -0.012611888 -0.09736479
000070 2f 48 aa bd 95 a3 62 3c 2a 4b e7 bd 6b 12 79 bd
       -0.08314549 0.013832946 -0.11293633 -0.06080858
000080 5b d8 bc 3d 18 71 ea 3c 0d a6 bf bc 8f a6 f1 3c
       0.09220954 0.02861838 -0.023394609 0.029498367
000090 8b be 39 3d 5f d3 d1 bd 93 4b 79 3d 5c fe ea bd
       0.04534773 -0.10245394 0.06086309 -0.114742965
0000a0 ec a2 a2 3d 1f 4c 7e 3d 3d b0 9d b8 66 5f cd 3b
       0.07941231 0.062084313 -7.51917e-05 0.006267476
0000b0 21 46 d3 3d c2 fd ec 3d 79 9f 9d 3d 81 68 b0 3d
       0.103161104 0.11571838 0.076964326 0.086136825
0000c0 99 af d9 3d f5 c5 5c 3c 9e 92 7a 3d df 7f a0 3d
       0.10629196 0.013474931 0.06117498 0.078368895
0000d0 65 c4 80 3d ea ac fa 3d 1d bd 7a bd fb a9 e9 bd
       0.06287459 0.12240012 -0.06121551 -0.11409374
0000e0 f5 e0 ac 3d cb 4f b4 bd 42 aa fb 3d 03 5f d5 3c
       0.08441345 -0.08804282 0.122883335 0.026046282
0000f0 5a c4 c8 3d 3d 1b dc ba 31 5b 84 bd 8b 37 23 3d
       0.09803076 -0.0016792786 -0.06462706 0.03984789
000100 b9 89 fd 3d f5 dd 99 bd a4 36 bf 3c f1 22 be 3c
       0.12379784 -0.07513038 0.023341484 0.02321002
000110 bc 35 8c bd 2c ae d0 bc 2f 12 71 3c a6 f2 f9 bd
       -0.068461865 -0.025473677 0.014713808 -0.12204485
000120 41 7e 44 3c 9d 3c 1c bd 52 a3 a9 3d 77 bc 94 3d
       0.011992992 -0.038143743 0.08283104 0.07262509
000130 28 78 37 3d 4d a6 4c 3d e3 cf c2 3d c8 91 59 bd
       0.044792324 0.049963284 0.095123075 -0.053117543
000140 1d ed 68 3c 48 79 e0 3d 10 ce 4a 3d 48 86 88 bd
       0.014216688 0.109606326 0.049512923 -0.06666237
000150 b5 52 1c 3c 1d fc 98 3d 03 82 f1 3c 3e 5a 8c 3d
       0.009541203 0.07469962 0.02948094 0.0685315
000160 1b ac 85 3c 34 2c e6 3c d5 fa b9 3d 11 00 59 bb
       0.016317418 0.02809725 0.090810455 -0.0033111612
000170 8a 1f c7 bd da 28 3a 3d f2 17 d6 bd 07 25 9c 3d
       -0.097228125 0.045449115 -0.10453786 0.0762425
000180 94 41 80 3d 9d b7 d7 bd 09 3a ec 3d 5b ab 34 3c
       0.06262508 -0.10533068 0.11534507 0.011027182
000190 37 44 b8 bd 40 27 ac bd da 26 14 bd b7 f0 5f 3c
       -0.08997386 -0.08405924 -0.036169864 0.013668231
0001a0 2e c4 11 3d 23 ca 7c 3d 74 e4 db bc 40 37 90 3c
       0.035587482 0.06171621 -0.026842333 0.01760447
0001b0 b9 62 fb bc c1 5c d0 3d 11 0f 96 3d f3 ff d4 bb
       -0.030686723 0.101739414 0.073270924 -0.006500238
0001c0 1a d9 31 3d b0 74 1e bd 96 b6 01 3c ba 04 aa bd
       0.043419935 -0.0386855 0.007917067 -0.08301683
0001d0 c6 5b af 3d 98 56 c4 bd 62 5b ac 3d 43 31 e0 bd
       0.08562426 -0.09586829 0.084158674 -0.10946896
0001e0 fe d2 1d 3d 7c 42 f7 3d cf 06 f6 3d 23 27 93 bd
       0.038531296 0.12073228 0.120130174 -0.07185199
0001f0 e9 68 c4 bd 16 ed e3 bc 39 20 3c 3d f5 79 67 3d
       -0.095903225 -0.027823012 0.045929167 0.05651279
000200 cf 6b 93 bd 94 1d f6 3d 95 21 f6 bd d1 54 c8 bd
       -0.07198297 0.1201736 -0.12018124 -0.097818024
000210 03 46 65 bd 05 d8 98 3d 0f 74 86 3d 71 ea 98 3c
       -0.05597497 0.074630775 0.06565105 0.018666478
000220 ee 54 bb 3d 40 03 d3 bc 6e e9 a3 3d f5 75 e2 bd
       0.091470584 -0.025758386 0.080035076 -0.11057655
000230 71 e4 bd 3d 11 1e c2 3d d9 cb fe 3d e8 86 ac bd
       0.09272087 0.09478391 0.124412246 -0.08424169
000240 64 a0 a1 3d c0 9a b6 3c ca 6c 74 3d 19 8e fe bd
       0.0789192 0.022290587 0.05967406 -0.12429447
000250 f5 ec 50 bd 02 63 ad bc 03 9f 14 3b 79 5f f7 bd
       -0.05100723 -0.021165375 0.0022677786 -0.12078757
000260 25 f7 1b 3c 74 01 2e 3d b0 0d d1 3d c9 a9 0e bc
       0.009519373 0.042481855 0.10207689 -0.008707472
000270 53 00 4f bc 59 2c 5e 3d ab d1 a7 bd 9f e7 e6 bb
       -0.012634355 0.054241512 -0.08194288 -0.0070466544
000280 54 52 59 bc 3c ef f7 3d 99 0d f6 3d 74 8f 4f bd
       -0.013264257 0.12106177 0.12014312 -0.050673917
000290 08 ba d9 3d 71 36 19 bc a6 29 c6 3d d8 ed 47 3d
       0.10631186 -0.009351359 0.096759126 0.04881081
0002a0 39 42 db 3d 7e 67 1a bd b7 c9 a9 bd 91 4f 57 3c
       0.1070599 -0.037696354 -0.08290427 0.013141529
0002b0 bf 55 f9 3c 36 67 68 3d e5 32 a0 bc 49 86 ba bd
       0.030436395 0.056739055 -0.019555518 -0.09107644
0002c0 20 0c cf 3c 4d 62 fa 3d 98 f4 7f 3d 03 9d 66 3d
       0.025274336 0.12225781 0.062489122 0.05630208
0002d0 0d d2 62 bb 36 4c 06 3d 83 59 84 bd fb a3 49 3d
       -0.0034610063 0.032787524 -0.064623855 0.04922865
0002e0 25 2e d5 3c 0f 39 d6 bd bd f1 96 bd 65 57 57 3d
       0.02602298 -0.10460102 -0.07370327 0.05257358
0002f0 7a 03 b0 3d b9 08 20 bd 43 94 1c bd 4b 70 b3 3d
       0.08594413 -0.03907082 -0.03822733 0.087616526
000300 4b 3f da 3d ad b8 1a 3d 37 44 05 3c e3 9e 90 3c
       0.106566034 0.037773777 0.0081339395 0.017653888
000310 ed bd 00 3d 5d 04 62 bd a7 2d e8 3d 83 b9 11 bd
       0.031431127 -0.055179942 0.113368325 -0.03557731
000320 d0 d0 37 b9 62 d5 d3 bd 75 b4 71 3c d4 34 16 3d
       -0.00017530029 -0.10343434 0.014752497 0.036671475
000330 e3 64 f8 bd 4f d9 a4 bd 2e 5a 22 3d 9f 77 ac bd
       -0.121286176 -0.08049261 0.039636783 -0.084212534
000340 34 da a3 3d cd 72 44 bd ab 52 ac 3b 1c df 77 bd
       0.08000603 -0.047961045 0.005258878 -0.060515508
000350 1c 23 32 3d aa 1b 73 bd f7 18 9e 3d b2 80 ac bc
       0.043490514 -0.059352554 0.077196054 -0.02105746
000360 cd 54 e4 3c b8 9a f7 3d 32 f3 33 3d 52 ac 24 bd
       0.027872467 0.12090057 0.0439331 -0.0402034
000370 61 6c b0 bd f3 41 49 bd 87 3c 95 3c 4a 4e 75 3d
       -0.08614422 -0.04913516 0.018217338 0.059889115
000380 29 d6 df 3d 6e 9a b6 bc 35 91 ed 3d 73 25 dc bd
       0.1092952 -0.022290435 0.11599962 -0.1074933
000390 d5 49 ec bd a8 c6 cb bd e3 fd b4 3d 6b fc 9f bc
       -0.1153752 -0.0995 0.088374875 -0.019529542
0003a0 1f 3f ff bd ea 39 18 3d b8 3e bc bb e1 99 fa 3d
       -0.12463211 0.037164606 -0.0057447813 0.12236381
0003b0 c8 10 1a bb 7c 67 72 bd ab 7b 89 3c 53 9a a7 bd
       -0.0023508538 -0.05918072 0.016782602 -0.08183732
0003c0 77 20 f6 bd 0c 15 2e 3d 1f b6 c0 bc 5a f0 87 3c
       -0.12017911 0.04250054 -0.023524342 0.0165941
0003d0 a4 25 61 3d 1f 03 f0 3d 9b 2d 5a 3d 0b cf 9d 3a
       0.054967538 0.11719345 0.05326615 0.0012039853
0003e0 20 e7 4b ba e4 99 c3 3d 43 2a 14 bd a1 bb a0 3c
       -0.0007778276 0.09550837 -0.036173116 0.019620718
0003f0 cb 09 87 3c 64 b5 aa 3d e0 67 f3 3d ed e4 97 bd
       0.016484162 0.08335379 0.11885047 -0.07416711

bias_ih_l0 f4 [192]
000000 26 04 ac bc 87 b7 95 3d d0 bd cd 3c 05 33 bd 3d
       -0.020998072 0.07310396 0.025114924 0.09238247
000010 8f 5a 34 3d 7a 3a 8f 38 9c 72 89 bd d7 0c b2 3d
       0.044031676 6.8296635e-05 -0.06711313 0.08693855
000020 1e 15 3e 3d d6 1f bf 3d b4 de 1e 3d b6 4b aa bd
       0.046406858 0.09332244 0.038786605 -0.08315222
000030 2a 0a 9f 3d ba 78 ec 3d 27 cb f3 3d d3 20 2d 3d
       0.077656105 0.11546464 0.119039826 0.04226763
000040 b1 9a 8e 3d 7a 05 ff 3a 11 7b 71 3d 49 4f d3 bd
       0.06963099 0.0019456588 0.058955256 -0.10317857
000050 30 aa 82 3d f5 b9 43 bd 01 0b 89 3d 41 ea 12 bd
       0.06380117 -0.047784764 0.06691552 -0.035867933
000060 00 ba 8d 3d 56 de cd 3d 13 42 1e 3d 94 e3 27 bd
       0.06920242 0.10052173 0.038637232 -0.04098852
000070 35 84 0c 3d 3e a9 6d 3d 74 43 a7 bc e5 c1 c2 3d
       0.03430577 0.05802273 -0.020417906 0.09509639
000080 e5 74 78 3d 56 bb 42 3d 5e 14 7a bd 03 1d 77 3d
       0.060658354 0.04754194 -0.06105458 0.060330402
000090 e3 df f4 3d 41 c0 8e bc 12 7a b2 3d 69 4e a6 ba
       0.119567655 -0.017425658 0.08714689 -0.0012688163
0000a0 97 39 a2 3d 52 4e f2 bd f4 7a 90 3d 77 6c 9e 3d
       0.07921141 -0.11831345 0.070547014 0.07735532
0000b0 63 ec 20 3d 33 a8 fa 3d a8 80 39 bb 27 49 c9 bc
       0.039287936 0.12239113 -0.0028305445 -0.024571015
0000c0 f5 1f 85 3d d1 a2 c4 3d 7d bf fd 3d 2e 38 2b 3d
       0.06500236 0.09601367 0.12390039 0.041801624
0000d0 17 a0 e0 bd 85 97 44 3d 09 ac b5 bc 3c 6a 4a bb
       -0.10968035 0.047996063 -0.02217676 -0.0030886075
0000e0 07 a5 8c 3d 19 4e 27 3d 36 d3 32 bd 47 23 9c bd
       0.06867414 0.040845964 -0.043658458 -0.07623916
0000f0 a9 51 d2 3c 27 58 a8 bd 5b 63 4a 3d 48 ab c1 3d
       0.025673704 -0.08219939 0.04941116 0.094564974
000100 e4 a8 c1 3b 02 5c 8e bd ad e5 7a bd d2 5d d8 3d
       0.005910026 -0.06951143 -0.061254192 0.1056477
000110 77 85 c1 3b b1 5f 63 3d 31 54 f1 bd a1 d1 9f 3d
       0.005905803 0.05551118 -0.11783636 0.078036554
000120 22 cb 50 3d f8 5f 04 bd bd be 42 bd cf 51 e4 bc
       0.050974973 -0.032318085 -0.047545183 -0.02787104
000130 2d b7 bb 3d 2a 90 dd 3d ec 32 b6 bc a7 1c 9f bd
       0.091657974 0.10818513 -0.022241078 -0.07769137
000140 5e 16 ed bd 14 ca ea 3c ac 7d 35 3d ee d7 19 bd
       -0.11576532 0.028660811 0.044309303 -0.037559442
000150 90 d8 b0 bd b7 18 ff bd ec 8e 9e bd d7 9d e7 3b
       -0.08635056 -0.12455886 -0.07742104 0.0070683765
000160 7b dd f8 3d 26 8f d3 3d 1e 43 ac bd b6 0d eb 3d
       0.12151619 0.10330038 -0.08411239 0.114772245
000170 e4 c5 9f bd 84 f4 e1 3c 61 3d d5 bb ae 06 d5 3d
       -0.078014165 0.027582414 -0.006507561 0.10401665
000180 17 9a cb bd 1b 04 51 bd 47 01 2f 3d 4f 75 3c 3c
       -0.099415 -0.051029306 0.042725828 0.011502578
000190 45 92 41 3c 8e 08 c7 bd 9f 0c 33 3d 0c d4 ea bd
       0.0118146585 -0.097184286 0.04371321 -0.11466226
0001a0 5d 66 c3 bd 78 19 af bd c4 d5 d1 bb 97 de a3 bd
       -0.095410086 -0.0854978 -0.0064036567 -0.0800144
0001b0 1f b5 12 3d 61 65 39 3d 2d d0 8d bd 76 34 a0 3d
       0.03581726 0.045262698 -0.06924472 0.07822506
0001c0 7b 55 f4 bb be 8d cf 3d 29 72 2c bd 4b 7d 88 3c
       -0.007456479 0.10134457 -0.04210106 0.016661307
0001d0 42 3c 98 bd 74 71 c7 bd e2 09 f1 bd cb d3 3c 3d
       -0.07433368 -0.09738436 -0.11769463 0.04610042
0001e0 15 bb cb bd ad 1f 9b bd 06 61 0b bd 9e ad 9b 3d
       -0.099477924 -0.07574401 -0.034028076 0.07601474
0001f0 7d 76 32 3d a5 8b e9 bd f2 9e a3 bd a6 e6 a3 bd
       0.04357003 -0.11403588 -0.07989301 -0.08002977
000200 f6 a4 71 3d d4 45 8b 3c 36 63 b0 3d b7 74 f0 3c
       0.05899521 0.01700107 0.08612673 0.029352529
000210 31 e0 f6 bd 49 3f 89 3d f7 ef 9e bd f7 c9 49 bd
       -0.1205448 0.06701524 -0.077606134 -0.049264874
000220 3f 13 ea 3d 1c 0c ef 3d 15 24 8e bd d8 c7 d5 3d
       0.11429452 0.116722316 -0.06940476 0.10438508
000230 3e 25 c1 bc d4 49 de bd e2 42 ff 3d e2 be dc bd
       -0.023577329 -0.10853925 0.12463929 -0.107785955
000240 80 67 4a bb fa 5c 56 3b 85 b5 73 3d c0 a7 4c 3d
       -0.0030884445 0.0032709227 0.059499282 0.049964666
000250 95 7f 92 3c 52 d2 1e 3d 37 dd 55 3d 5c 6e 4a bd
       0.017883101 0.038774796 0.05221292 -0.049421653
000260 e6 c4 5c 3d 99 7f fa 3d 76 6d e8 bd c4 6b ba bd
       0.053898714 0.122313686 -0.11349003 -0.09102586
000270 ba 45 ea 3d 5f 17 9e 3d 78 30 ed bd a8 e4 9d bd
       0.114390805 0.077193014 -0.1158151 -0.07709628
000280 05 b6 52 bd 82 64 9e 3d 88 04 cf bd a8 18 0e 3c
       -0.05144312 0.07734014 -0.10108286 0.008672871
000290 db 3b a0 3c 4c af e4 bd 95 b2 f9 3d 40 e5 4c bc
       0.019559791 -0.11166248 0.12192265 -0.012505829
0002a0 10 3d a2 3d 4f bb d0 3c 3b 9c 0c bd 9d c8 82 bd
       0.07921803 0.02547994 -0.03432868 -0.0638592
0002b0 27 e3 cc 3c 7f a0 d2 bd 17 25 c1 3d a2 de a2 bd
       0.025010658 -0.102845185 0.094309025 -0.0795262
0002c0 5c 0e 92 3c de 0a 98 3d 0d e8 d2 bd d2 8a ab 3d
       0.017829113 0.07423948 -0.102981664 0.08376087
0002d0 78 54 f1 bd 66 70 85 bd 7e 45 6a 3d 1e 87 bc bc
       -0.11783689 -0.06515579 0.05719518 -0.023013648
0002e0 17 d0 22 3d 29 12 f0 bd 0c 56 5d 3b a1 08 6f bc
       0.03974923 -0.11722214 0.0033773212 -0.01458946
0002f0 e8 29 61 bd 50 36 5c 3d c3 30 6a bb 39 a7 8b 3c
       -0.054971606 0.053762734 -0.003573463 0.017047511

bias_hh_l0 f4 [192]
000000 66 38 b1 bc 83 7e a2 3d da a6 af bd 93 2a d5 3d
       -0.021633338 0.079342864 -0.08576746 0.10408511
000010 1c 57 c4 3d 7a 6f b8 3d 53 e3 19 bd db ad bf bb
       0.09586927 0.090056375 -0.03757031 -0.0058495826
000020 16 44 89 bd 02 75 0b bc aa d2 b7 bd c2 90 d5 bd
       -0.067024395 -0.008511784 -0.08975728 -0.10428001
000030 07 10 f5 3c 00 b1 53 bd 70 41 5d 3d 3a 88 58 3c
       0.029914869 -0.051682472 0.054017484 0.013216073
000040 13 c6 fe bd 8e e1 fa 3d 6a a2 8d 3d 9d 01 b8 bd
       -0.124401234 0.122500524 0.06915744 -0.08984683
000050 e8 dc e2 3d 5d b7 ac 3d ab 3c de 3d a1 4b 7a bc
       0.11077291 0.08433411 0.10851415 -0.01527682
000060 71 e0 b0 3c c0 fd 31 bd 1e 67 fd bd 18 5c ae bc
       0.021591397 -0.043454885 -0.12373184 -0.021284148
000070 1b 28 13 bd b6 55 77 bd bb f4 82 bd 55 7d 7c bc
       -0.03592692 -0.060384475 -0.06394335 -0.015410741
000080 39 ff df bd 07 65 7c bc fa d3 65 3d e5 1a b8 3d
       -0.10937352 -0.015404946 0.05611036 0.08989505
000090 cb 95 44 bd c9 15 a8 3d 05 90 41 bd b0 b0 f6 bd
       -0.047994416 0.0820728 -0.04725649 -0.12045419
0000a0 11 77 ad bd 14 af 17 bd 0e dc 8f bd e1 79 cf bc
       -0.08469976 -0.037032202 -0.07024394 -0.025326671
0000b0 7f 6f 5b 3d a8 9f 93 3b 62 06 5d bd 5b ea 8b bb
       0.053573128 0.0045051165 -0.053961165 -0.0042698807
0000c0 fd 7b bf 3c eb ef 1f bd 52 7f 2e bd ba 21 c2 3c
       0.023374552 -0.039047163 -0.04260189 0.023697723
0000d0 48 29 c4 3c d4 dc 3b 3c ef 9a 43 3d f6 ac d5 3d
       0.023945466 0.011466224 0.047755178 0.1043338
0000e0 bd db 41 bd a6 43 9d 3b a6 ba 2f 3d c1 f2 92 bd
       -0.0473287 0.004799324 0.04290261 -0.07175208
0000f0 6a a2 f2 3d 0b 6e 8a bd b9 42 ca bc 57 4c 01 bd
       0.11847384 -0.0675927 -0.024690019 -0.031566944
000100 5d c7 43 3d 77 53 e0 bc 3f 80 6d 3d ea ad 91 3d
       0.04779755 -0.02738355 0.057983633 0.071132496
000110 96 0f 8f 3c cd 4a 30 3d ac ee 62 bd c1 4c c3 3d
       0.017463487 0.043040086 -0.055403396 0.09536124
000120 db 9c dd bc 02 ca e6 3d de 5f 86 3d 29 58 24 3d
       -0.027052334 0.11268999 0.06561254 0.04012314
000130 1f a3 b2 bd 58 5d c9 bd d6 2c a0 3d d3 09 ba bd
       -0.08722519 -0.09832257 0.07821052 -0.09083905
000140 2a 31 9b bd 02 41 18 bd 35 3b 72 3b 66 d1 a2 bd
       -0.07577737 -0.03717137 0.003696156 -0.07950096
000150 8f da 59 3d 73 22 ec bc 42 54 a5 bd ef 3b 26 3d
       0.05318695 -0.02882502 -0.080727115 0.0405845
000160 33 93 7f bd c5 d7 3d 3c 3c 8b 2d bd 86 66 f6 bd
       -0.06239624 0.011587088 -0.042369112 -0.120312735
000170 0c 92 03 3d 09 97 de bd 4c 89 48 bd d0 0b e5 bd
       0.032121703 -0.108686514 -0.04895906 -0.11183894
000180 39 13 ed bc 8b 66 64 bd a5 f1 88 bd 23 e8 c0 bb
       -0.02893983 -0.055761855 -0.06686715 -0.005887048
000190 12 de 97 3d f1 04 b5 3c 76 8a de 3c 1a c1 7c bd
       0.074154034 0.022097083 0.027165633 -0.061707594
0001a0 a3 16 f1 bd 5b ab 10 3c 4c a6 01 3d 73 7c c2 bd
       -0.11771896 0.008829917 0.031652734 -0.09496393
0001b0 81 3d 0b bd bf 85 d4 3d 74 03 d1 bc d0 cc 3e bd
       -0.0339942 0.103770725 -0.025514342 -0.046582043
0001c0 38 ad 46 bd e0 95 b0 3d b6 ed d9 bd 3d fd b3 bc
       -0.048505038 0.086223364 -0.10641043 -0.02197134
0001d0 de 78 db 3d c7 4f 39 3d bb 75 da bc 64 26 f5 bb
       0.10716413 0.045242097 -0.026667466 -0.007481383
0001e0 75 e9 b2 3d 5b 28 ef bd 58 b7 25 3c 70 dd 15 3c
       0.08735935 -0.11677619 0.010114513 0.009147033
0001f0 92 cc 86 3d 44 47 53 3d ba 2c b6 3d 36 07 de bd
       0.065819874 0.051581636 0.0889525 -0.10841219
000200 89 52 74 3c 42 c6 44 bb 7a f3 d5 3d aa 81 a3 bd
       0.014912256 -0.0030025397 0.1044683 -0.07983716
000210 e7 c2 9e bd 64 f9 29 3d 8d 4a a7 3c dd 25 ae 3d
       -0.077520184 0.041497603 0.02042129 0.085033156
000220 3d 20 d1 bc 39 3b b1 bd aa 66 2a bc 7f d0 48 bd
       -0.025528068 -0.08653874 -0.010400454 -0.049026962
000230 4b 5a da 3d 37 2a b6 bd a8 df f0 3d 4e 98 87 bc
       0.10661753 -0.088947706 0.11761409 -0.016552117
000240 ab 6c e2 bd 87 77 c4 bd 91 2d e3 bd 25 66 8e bc
       -0.11055883 -0.095931105 -0.110926755 -0.01738269
000250 31 ef 35 bd 72 09 72 3c c5 37 c4 bd db fd 23 bd
       -0.044417564 0.01477276 -0.0958095 -0.040037017
000260 1f ec af bd a7 02 58 3d 08 9c d0 bd f1 5b 5c bb
       -0.085899584 0.052736904 -0.101860106 -0.0033624137
000270 af ad 1f bc 52 ff 9b 3d a2 84 a1 3c 8e 0c 2a bd
       -0.009745999 0.07617058 0.019716565 -0.04151588
000280 6a 41 d7 bd c8 56 0c bd 12 03 40 bd 21 6e 58 3d
       -0.105105236 -0.03426245 -0.046877928 0.052839402
000290 9d 72 19 bc 71 8c c3 bd 09 90 86 bc 14 45 fd bd
       -0.009365705 -0.095482714 -0.016426103 -0.12366691
0002a0 86 fb 09 bc 48 76 4d bd 8e 37 91 bd 39 06 8d 3d
       -0.008421784 -0.05016163 -0.07090674 0.068859525
0002b0 32 35 b6 3d f6 83 fd 3d 8d e0 25 3d a0 4a b5 bd
       0.08896865 0.12378685 0.04049735 -0.08852124
0002c0 82 b8 7c bd 33 31 3d bc 54 24 47 bc e9 20 6f 3d
       -0.061699398 -0.011547375 -0.012154657 0.058380995
0002d0 77 3f f5 bd 17 d2 a7 bd 72 b9 91 bd 56 e5 93 bd
       -0.119749956 -0.08194368 -0.07115449 -0.07221477
0002e0 43 0a f1 3c 63 be ba bd 7e 6c 28 bc d6 d3 cd bd
       0.029423838 -0.09118345 -0.010279773 -0.1005017
0002f0 a3 e9 b8 3d 5c a3 c7 3d 9b a5 94 3d 5e 3e 1a 3b
       0.09028938 0.09747955 0.07258149 0.002353571

weight f4 [2, 64]
000000 90 77 f5 bd e6 6c c2 bc 3e fe 88 bd d1 72 d2 bd
       -0.11985695 -0.023733567 -0.06689118 -0.10275806
000010 e2 2b 1b bc cd 8f 6f bd 85 59 c0 bd 33 a0 d6 3d
       -0.009470912 -0.05848675 -0.093920745 0.10479774
000020 86 37 a9 3d 29 ac d2 bc 21 7d f8 3b 08 ad ed 3d
       0.082625434 -0.025716858 0.007583276 0.11605269
000030 25 03 9d 3d 7a 53 de 3c 03 fe 3d 3d 74 e8 b8 3d
       0.076666154 0.027139414 0.046384823 0.09028712
000040 62 0e 6a bb 99 9b 56 3c c6 54 87 3d 22 21 b1 bd
       -0.003571414 0.013098621 0.06607966 -0.08648898
000050 75 35 e2 bc ea 74 81 bd c5 56 4c 3d 62 22 55 bc
       -0.02761338 -0.06321128 0.049887437 -0.013008686
000060 da 62 4c 3d 8c 8e e7 bd 32 91 eb bb 63 3f 71 3c
       0.04989896 -0.113064855 -0.0071889395 0.014724585
000070 86 ce c4 3d 3e fd a5 bc 07 ed ed bd 90 02 e0 bd
       0.09609704 -0.020262357 -0.11617475 -0.10937989
000080 00 e8 98 bd 40 a8 21 bd 5f ae 5b 3d 37 a8 f7 bd
       -0.074661255 -0.039467096 0.05363309 -0.12092631
000090 a8 4f ca 3d 6c f9 45 3d 46 e0 8b bd 44 e8 18 bd
       0.098784745 0.04833357 -0.06829886 -0.03733088
0000a0 f2 21 00 3e 48 52 85 3d 99 c5 ca bd a9 6f de bc
       0.12512949 0.065098345 -0.0990097 -0.027152853
0000b0 06 c9 42 3d b5 44 8a bd 22 80 bc bd e0 1c 6c bc
       0.047554992 -0.06751386 -0.09204127 -0.014411181
0000c0 55 e7 d5 3d 7c fe 94 3c 3c 71 ea 3d 97 07 72 3d
       0.10444514 0.018187754 0.11447379 0.05908927
0000d0 2b 0b 4c bd 38 61 f6 3d 7a 15 80 3d 3f 2f 42 bd
       -0.049815338 0.12030262 0.06254096 -0.04740834
0000e0 a8 0e 91 bc d7 2a 82 3d 6a 10 85 bd 48 dd fb 3d
       -0.017707184 0.06355827 -0.06497271 0.122980654
0000f0 c9 40 22 3d b7 d7 41 3d 68 9b a5 3c 58 76 e7 bd
       0.039612565 0.047324862 0.020215705 -0.11301869
000100 bb 23 2f bc 32 f5 8d bc 66 e3 ad 3b cb 29 b7 bd
       -0.010689671 -0.017328832 0.005306649 -0.08943518
000110 e6 7e 9d 3d c2 9a c2 3d ea 35 d4 3c 2a 4d 1e bd
       0.076902196 0.09502174 0.025904614 -0.038647808
000120 90 f9 61 3d bb 37 54 bd 12 66 ca bd c0 82 f2 bc
       0.055169642 -0.05181096 -0.098827496 -0.029603362
000130 c9 83 bc bc 6e 69 a6 3c 17 87 f6 3d 18 89 90 3c
       -0.023012059 0.020313945 0.12037485 0.017643496
000140 7c db 8b bc 1e 25 2b 3b ba 20 e1 3d 6c c7 da 3d
       -0.017072432 0.0026114653 0.1099257 0.10682568
000150 65 f9 e8 3d 0d 0a 0f 3d 56 f3 e0 bd d8 08 3d bd
       0.11375693 0.034921695 -0.10983913 -0.046151012
000160 d0 18 16 b7 6a b0 86 bc 3d 96 d0 bd 09 c8 3a bd
       -8.946474e-06 -0.016441543 -0.10184906 -0.045600925
000170 e1 c8 c1 3c ba c5 b6 3d cd 29 de 3b 6a f8 87 3d
       0.023655357 0.08924432 0.0067798854 0.06639178
000180 16 79 b4 3d 2c 09 93 bd fd da fb 3d b7 32 fa 3d
       0.08812158 -0.07179484 0.12297628 0.12216704
000190 10 dc be 3d 5c 37 d5 bd 0c 23 a9 3d 4a 2d e1 3d
       0.09319317 -0.104109496 0.08258638 0.10994966
0001a0 8d 2f 93 bd 32 ae e5 3d fb 52 c2 3d c9 4d 62 3d
       -0.07186804 0.11214866 0.094884835 0.055249963
0001b0 a0 62 22 3b 9a 2b d5 bc 51 3a 1d bd 98 ed 71 bd
       0.0024778023 -0.026021767 -0.038385693 -0.059064478
0001c0 0f d6 8b bd 16 cc 36 bd f6 a3 8d bd 7e 32 22 bc
       -0.06827938 -0.044628225 -0.06916039 -0.009899734
0001d0 d6 88 b8 bd 61 92 87 bb e4 4f ba 3d 65 17 e4 bd
       -0.090104744 -0.004137323 0.09097269 -0.11137275
0001e0 f0 d5 b8 bc 4b b4 ee 3d 26 0b e9 3d b9 5c 13 3d
       -0.02256295 0.11655482 0.113790795 0.0359771
0001f0 81 0e 27 bd 77 9f 72 bd 41 60 47 bb 8a ae 5b bd
       -0.040785316 -0.05923411 -0.0030422362 -0.05363325

bias f4 [2]
000000 d5 3c 6a 3d f1 62 e5 bc
       0.05718692 -0.02800128

weight_ih_l0 f4 [192, 66]
000000 78 69 c9 bc 55 3e f8 3d f2 5f 81 bd 10 25 de 3c
       -0.024586424 0.12121264 -0.06317128 0.027117282
000010 1a 95 ca bd 65 d8 a7 bd 68 c8 f9 bd ca da e3 bd
       -0.0989172 -0.08195571 -0.121964276 -0.11125715
000020 19 cf 20 3d fd ad f3 bd 10 6a b5 3d 1c fc b8 bd
       0.039260004 -0.1189842 0.088581204 -0.09032461
000030 1e ab a8 3a 10 5b 86 bc a4 4c 13 3c 56 75 8d bd
       0.001286838 -0.016400844 0.0089904405 -0.06907146
000040 90 65 76 bc 59 4f b6 3d a6 26 ad 3d be 13 cc bd
       -0.015038863 0.08901853 0.08454637 -0.09964703
000050 b6 5b ba 3d 79 71 27 3d fe 8f b1 bc d5 4d 43 3d
       0.09099524 0.0408797 -0.021675106 0.04768165
000060 03 3c c3 bd 5c 7f dd 3d 14 45 d8 3d 0a f6 c6 3d
       -0.09532931 0.108153075 0.105600506 0.09714897
000070 00 b9 94 3d 48 75 80 3c 6d dc 1d 3d ba 7a 99 bd
       0.072618484 0.015680924 0.038540293 -0.07494111
000080 a8 81 57 bd 0d 74 40 bd 69 66 d9 3d cf 7e c0 3d
       -0.052613884 -0.046985675 0.10615236 0.09399187
000090 e4 2e d9 bd 00 e4 6c 3b 1a b5 9f 3d 05 eb f5 bd
       -0.10604647 0.003614664 0.07798214 -0.12007717
0000a0 f7 b9 da 3d c5 0a ae bd be 5f f6 bd 81 aa 2c 3d
       0.10680001 -0.08498148 -0.1202998 0.042154793
0000b0 58 9f ba bc 40 0b 61 bc 48 51 f1 3c 1f eb dc bd
       -0.02278106 -0.013735592 0.029457703 -0.10787033
0000c0 ae 59 b8 bc 64 4d 81 bd e9 e2 84 3d c7 c1 a8 bd
       -0.0225037 -0.06313589 0.06488592 -0.08240085
0000d0 20 92 9d bd dc 02 a1 3d 1d 71 d9 bd e2 c3 8d bc
       -0.07693887 0.078618735 -0.10617278 -0.017305318
0000e0 90 66 e7 bc 3c d7 0e bc f0 d6 91 3c 78 ea ca 3c
       -0.028247148 -0.008718308 0.017802685 0.024770007
0000f0 9a 41 dd 3c 07 85 c3 3d 88 a7 d7 bc 30 fd 71 3d
       0.02700882 0.09546857 -0.026325002 0.05907935
000100 d7 c1 d0 3d de 35 cb 3c aa 3b e6 bd 06 f3 e2 3c
       0.10193222 0.02480596 -0.11241849 0.027703773
000110 bc 60 b2 bd c8 1b 32 bd c2 e0 9c bd 59 72 5b 3d
       -0.08709857 -0.043483526 -0.07660057 0.053575847
000120 88 ff 38 3d 60 f0 fd 3b 94 cd 08 bc 32 32 f8 3c
       0.04516557 0.007749602 -0.008349795 0.030297372
000130 b0 94 c8 bd f4 f7 6b bd 65 7f cb bd 4e 5e f5 3d
       -0.09793985 -0.057609513 -0.09936408 0.11980878
000140 9c 9d 4f 3c 8c 76 ed 3d d4 8f b9 3d e3 26 80 3d
       0.012671854 0.11594877 0.09060636 0.06257417
000150 a8 59 f4 3c b4 b1 02 3d 1c 9f 81 bd 91 31 26 bd
       0.029827908 0.031907752 -0.06329176 -0.040574614
000160 37 d4 1f 3d 6f 80 b5 3d f9 6d 18 bd d8 ca e2 bd
       0.039020743 0.088623874 -0.037214253 -0.110738456
000170 e8 7a e8 bc 08 14 40 3d b8 ef 91 bd 2e 14 fa 3d
       -0.028378919 0.046894103 -0.07125801 0.1221088
000180 69 29 cf 3d 2e 32 c7 bd 88 03 e6 bd d7 6b c8 bd
       0.1011532 -0.09726368 -0.11231142 -0.09786194
000190 4f b4 b3 bd 4f 64 e5 3d b2 c6 cc 3d 4e f5 bc bd
       -0.087746255 0.11200773 0.099988356 -0.09226476
0001a0 28 a6 c9 3d ee f5 23 bb e7 18 53 3d 6b a0 77 3d
       0.09846145 -0.0025018412 0.05153742 0.06045572
0001b0 9c c0 2d bd f9 4d dc 3d b2 43 c1 bd a0 f6 89 3b
       -0.042420015 0.107570596 -0.0943674 0.004210308
0001c0 c8 e2 cb 3c e7 8d 75 3d 61 46 f3 bd 32 6a fc 3d
       0.024888411 0.05994978 -0.11878658 0.12324943
0001d0 85 4c f2 bd a7 0b fc 3d 80 c2 be bc b8 dc a8 3d
       -0.11831001 0.1230691 -0.023286104 0.08245224
0001e0 1f fb 88 bd 73 7b 77 bd 40 8e 6d bd ef 6b bd bd
       -0.066885225 -0.060420465 -0.05799699 -0.09249102
0001f0 20 7e bb bb 8e e0 fe bd b9 21 6c bd 8c a1 7f bc
       -0.0057218224 -0.12445174 -0.057649348 -0.015602481
000200 c9 92 2a 3d f0 c4 19 3c c9 0e 65 bd 4c cb d1 bd
       0.04164389 0.009385332 -0.055922303 -0.10243854
000210 ca bd f3 3d 14 73 4b bd e8 7b 93 3c d4 1f 2f 3d
       0.11901434 -0.049670294 0.018003419 0.042754963
000220 26 da e0 bd 0e 08 cc 3d 28 73 c3 bd f8 4b 96 3d
       -0.109791085 0.09962474 -0.09543449 0.07338709
000230 c0 cd 97 bc d0 71 29 bd 29 96 36 bc a0 a1 cb bc
       -0.018530726 -0.041368306 -0.011144199 -0.024857342
000240 96 1e b3 3d d4 e6 71 3d f0 1f 53 3d 30 aa 4e 3d
       0.08746068 0.059058025 0.05154413 0.050455272
000250 4c f5 d3 3d f0 fd 89 3d 98 cc c7 bd c0 67 f3 3b
       0.10349521 0.06737888 -0.0975582 0.0074281394
000260 7e d8 af bd f8 4f e2 bd d8 df e8 bc ee 69 f6 bd
       -0.085862145 -0.11050409 -0.02842705 -0.12031923
000270 42 ea f3 bb 40 59 92 bb 78 c0 d5 bd d4 04 f0 bd
       -0.007443697 -0.004466206 -0.10437101 -0.11719671
000280 fc 1e 49 3d 4c df 52 3d 1f 85 eb bd 48 fb 95 3d
       0.049101815 0.051482484 -0.115 0.07323319
000290 28 2b bc bc e8 36 a1 bd 70 df a2 3d 88 57 72 bd
       -0.022969797 -0.07871801 0.079527736 -0.059165508
0002a0 06 16 e3 3d 90 c1 ed bc e2 1d c7 bd 62 f8 a9 bd
       0.11088185 -0.029022962 -0.097224966 -0.082993284
0002b0 fe 2b 8f 3b 03 fb 3f bb c2 41 a6 3d dc bf df 3d
       0.004369258 -0.0029293902 0.08118011 0.10925266
0002c0 e0 af f4 bc 68 4c 4b 3d a0 33 9c 3d 90 7d ad 3d
       -0.02986902 0.049633414 0.07627034 0.08471215
0002d0 00 a1 a2 bd 98 04 87 3c 28 a2 0b bd fc 19 66 3d
       -0.079408646 0.016481683 -0.03409019 0.056177124
0002e0 88 b5 bd 3d 00 d4 44 bd e2 7a ad bb 54 55 4a bd
       0.0926314 -0.04805374 -0.00529419 -0.04939778
0002f0 0c 38 a5 3d 78 8c 77 bd 50 bb bc bc 9c 96 94 3d
       0.08067331 -0.060436696 -0.023038536 0.07255289
000300 40 63 6f bd 51 04 68 3c a7 e0 9e 3d fe fe e6 3d
       -0.05844426 0.014161185 0.07757693 0.11279105
000310 24 5a 63 3c 28 cb 69 3d dc 6f 9c bd 7b 85 9a 3c
       0.013876472 0.05707851 -0.07638523 0.018862477
000320 00 40 4c bd c6 ea 89 3d 60 2d b4 3b f5 25 b6 3c
       -0.049865723 0.067342326 0.005498573 0.022234896
000330 f0 58 f2 bd cc 9f 7b 3d f2 bf 3d bd 13 b5 87 bc
       -0.1183337 0.06143169 -0.04632563 -0.016565835
000340 46 21 8b bd 98 cc 2c bd a4 9e 81 bc 40 21 0d 3d
       -0.06793456 -0.042187303 -0.015822716 0.034455538
000350 57 e6 b6 3d 32 d5 f6 3d ec 45 a5 bd 75 72 8e 3c
       0.089306526 0.120523825 -0.08069977 0.017388562
000360 1c 1b e2 bd 84 cd 06 3d 64 10 e2 3d e6 19 26 bd
       -0.11040327 0.03291084 0.110382825 -0.040552042
000370 1d 1b f1 bc 5d 15 ba bc 69 2f f6 3d c2 fd bd bd
       -0.029431874 -0.022715265 0.120207615 -0.09276916
000380 18 d2 f5 bd 7c bb db bd 40 b3 5c 3c cc 00 0e bd
       -0.12002963 -0.10729119 0.013470471 -0.03466873
000390 c5 92 e4 bc e0 f7 7a 3d a8 9d d1 bd ed 5f d7 3d
       -0.027902016 0.06127155 -0.10235149 0.10516343
0003a0 70 ae f3 3b d3 ed a2 3c e8 b8 39 3d 2e 23 fd 3d
       0.007436566 0.019888794 0.045342356 0.123602256
0003b0 40 87 e3 bc ee e3 35 bd d0 77 fd 3b 15 b1 89 3d
       -0.027774453 -0.044406824 0.00773523 0.06723229
0003c0 b8 ca 56 bd d3 20 8e 3c 88 77 a2 bd 70 10 21 bd
       -0.05243942 0.017349636 -0.07932955 -0.039322317
0003d0 f8 97 a8 3c e5 4d d0 3d 59 0a b8 bd d6 4a ec 3d
       0.020580277 0.10171107 -0.08986349 0.11537711
0003e0 8d 55 f5 3d 4d 6b 90 bd c8 af 60 3d 6e b2 99 bd
       0.11979208 -0.07051716 0.054855138 -0.07504736
0003f0 a9 7a 96 3d 0d 1b a7 bd 46 bc a7 bd e9 3f 99 3d
       0.07347614 -0.081594564 -0.08190207 0.07482893

weight_hh_l0 f4 [192, 64]
000000 62 62 24 3b 2b a6 46 3d 95 78 f4 bd 5e f9 35 bd
       0.0025083055 0.048498314 -0.11937062 -0.04442727
000010 a4 68 a7 3d e8 6f ca bd c7 b3 c8 3c c6 29 29 3d
       0.081742555 -0.09884626 0.024499787 0.041299604
000020 0e c9 c1 bd ce 4a b5 3d 1a 93 f5 3c a9 5a f5 bb
       -0.09462176 0.088521585 0.02997737 -0.007487614
000030 26 2c 75 bd 3f 2c d1 3a ef 92 2a bd 93 59 39 3d
       -0.059856556 0.0015958621 -0.041644033 0.04525144
000040 44 79 49 3c 36 04 f3 3d 16 5f 63 3d 5d 3e 55 3d
       0.012296978 0.118660375 0.055510603 0.052061427
000050 08 f0 1d bd 65 34 db 3d e8 fa db 3d 9d 85 f0 3d
       -0.03855899 0.10703353 0.10741216 0.11744235
000060 cb 49 df bd 57 ee 01 3e a6 66 ef 3d a3 89 8e bd
       -0.10902747 0.12688576 0.116895005 -0.06959846
000070 aa 44 ec bc 6a 5e 9b bd ac 35 8b bd 3b 26 9e 3d
       -0.028841335 -0.075863674 -0.067973465 0.07722136
000080 6f e9 cb 3c a4 2e d2 bd e3 42 e0 3d ef 3e 63 3d
       0.024891583 -0.10262802 0.10950258 0.05547994
000090 0d a4 df bc 18 40 9d bd 38 31 26 3d 4c 62 d3 bd
       -0.027299905 -0.076782405 0.040574282 -0.10321483
0000a0 4f 7e d5 bd 27 86 00 be fa 77 cd 3d 32 69 9d bd
       -0.10424482 -0.12551175 0.10032649 -0.0768608
0000b0 a5 d4 89 3d 49 42 77 3d 68 ee 6b b9 4f 28 c9 3d
       0.06730012 0.06036595 -0.0002250016 0.098221414
0000c0 d0 d7 84 3d c1 bd b1 3d 60 36 9d bd b6 4a e5 3d
       0.064864755 0.08678771 -0.07676387 0.111958906
0000d0 ad 9c f6 bd 45 27 67 bc f5 43 0b bd 09 d2 d1 bc
       -0.12041602 -0.014108484 -0.034000356 -0.025612848
0000e0 06 5b a6 bd f1 88 1a bd ae 7c 01 bc 85 4e f4 3d
       -0.0812283 -0.037728254 -0.007903261 0.11929039
0000f0 dd d3 87 3d 4f cc 2c 3d 9a c2 a1 3d b8 19 e8 3d
       0.066322066 0.04218703 0.078984454 0.113330305
000100 44 b0 1a bd 06 30 1b 3d 33 88 51 3d c4 b1 ce 3d
       -0.037765756 0.037887596 0.05115528 0.100925
000110 8f 6d e4 bd 89 86 54 bd 70 c8 ac bd a8 ae 3d bd
       -0.11153709 -0.051886115 -0.08436668 -0.046309143
000120 e9 9f fc bd 61 f0 95 bd bc 81 10 3d a9 c8 b1 ba
       -0.12335188 -0.07321239 0.035279974 -0.001356383
000130 af 41 f7 3d c3 e9 c5 3d a6 0d 09 3c 72 08 4f 3d
       0.12073075 0.09663727 0.00836507 0.050545163
000140 12 a9 2b 3d b1 d5 b4 3d e7 32 56 3d 28 e6 c8 bd
       0.041909285 0.08829821 0.052294638 -0.09809524
000150 6c 8b 07 3d e0 48 5f 3d 22 04 d1 3d 05 2b c1 bd
       0.033091947 0.05451286 0.102058664 -0.094320334
000160 24 38 ff bd 7f 31 d3 3d be af 04 bd 31 37 cf bc
       -0.1246188 0.10312175 -0.032394163 -0.025294872
000170 7b 14 d1 bd a6 fb cc bd 5f d3 2b 3c 60 94 ec 3d
       -0.102089845 -0.10008936 0.0104874065 0.11551738
000180 ac a6 bf 3c 56 29 04 3c 4d 0e b9 bd 5d 6c 0b 3c
       0.023394905 0.008066496 -0.09035931 0.008509723
000190 fa 9d 1c ba 87 26 d9 ba 8a c3 02 3c af fb ba 3d
       -0.0005974468 -0.0016567268 0.00798119 0.09130036
0001a0 83 76 d6 3b 50 e2 f6 3d 7b 68 28 3d 18 2e 45 bd
       0.0065448894 0.120548844 0.041115265 -0.04813966
0001b0 e3 a5 c7 bd c1 fa c2 bd 6d cc 9f bd 4d a0 bf 3d
       -0.09748437 -0.09520484 -0.07802663 0.09356747
0001c0 da e8 82 bd 20 2d 29 3d 1e 9f 3f bc 5a 7e ef 3d
       -0.06392069 0.0413028 -0.011695651 0.116940215
0001d0 cc e9 d6 bc 6e 52 59 bd f3 3a 1e bd e4 5c f8 3d
       -0.02623453 -0.053057127 -0.038630437 0.121270925
0001e0 32 15 dd 3d 11 8d 38 3d ab 67 6a 3c 17 c0 28 bd
       0.10795058 0.045056406 0.014306943 -0.041198816
0001f0 f4 06 98 3d 9b d3 87 3d 25 f6 f3 bd f5 f2 bb 3d
       0.07423201 0.066321574 -0.11912183 0.091772
000200 13 36 1c 3d 7f 93 f1 3d 11 bc 05 3d 59 97 b0 3c
       0.038137507 0.11795711 0.032650057 0.021556543
000210 7f 12 b4 3d 6a fb 42 3d f8 f4 81 bd 91 29 90 3d
       0.0879259 0.04760305 -0.06345552 0.07039178
000220 8c fa 94 bd 35 b5 df 3d fe d2 d1 3d 4f d2 8b bd
       -0.072743505 0.109232344 0.10245322 -0.068272226
000230 19 3c 83 3d f9 c9 e1 3d a8 6d e3 3d c7 69 cf bd
       0.06407947 0.11024851 0.111049 -0.10127597
000240 a7 29 08 bd a8 a5 19 3d 87 ef 6a bd 58 f1 e5 3d
       -0.033242848 0.037511498 -0.057357337 0.11227673
000250 5c dc d7 3d e8 01 a7 bc 37 15 f6 3d ff 29 ec bd
       0.10540077 -0.020386651 0.12015765 -0.115314476
000260 20 12 b7 3d 74 b2 67 3d 9a ab e6 3d 9b 24 ce bd
       0.08939004 0.05656667 0.11263199 -0.10065576
000270 7c 96 b2 bd 40 00 ad bd dd 76 37 3d 4c 43 cc 3c
       -0.08720109 -0.08447313 0.04479109 0.024934433
000280 82 65 d1 bc ff d4 b0 3d 7f dd b2 3d 4e c7 37 bc
       -0.025561098 0.08634376 0.08733653 -0.0112169515
000290 23 91 2a bd 13 39 cc 3d 50 95 02 3d 58 8b 8d 3d
       -0.04164232 0.099718235 0.031880677 0.06911343
0002a0 39 ac ff 3d 39 cc 5e 3d 7e cb ce 3d 66 0d 7d 3d
       0.12484021 0.05439398 0.10097407 0.061780356
0002b0 8c 58 ac bd 35 de 9d bd d5 38 e0 3d af 81 ce 3d
       -0.084153265 -0.07708398 0.1094834 0.10083329
0002c0 b8 56 b4 b9 fe a7 db 3d 78 c3 b0 bb 9b 59 70 3d
       -0.00034396886 0.10725401 -0.0053943954 0.058679204
0002d0 bb c9 c0 bd 84 72 de bd 00 4e bb bd 12 54 16 bd
       -0.09413477 -0.10861686 -0.09145737 -0.03670127
0002e0 b9 29 c1 3c ba d0 39 bc 63 e1 f7 3d c6 c1 88 bd
       0.023579465 -0.011341268 0.12103536 -0.06677584
0002f0 50 0d ec 3d 20 f6 4c bd 8e 98 fa 3d a1 22 f3 bd
       0.11525977 -0.05003941 0.12236129 -0.11871839
000300 19 34 21 bd 27 1f b8 3d 29 93 a2 3d e9 8c e6 3d
       -0.039356325 0.08990317 0.07938225 0.11257345
000310 5a 2d 98 bd af 1c b8 3d 8b 17 9f 3b 30 40 b4 3d
       -0.07430525 0.08989846 0.0048551015 0.08801305
000320 00 81 b2 bd e8 21 b4 bd 81 7d 04 bd f9 5b 61 3d
       -0.08716011 -0.087955296 -0.032346252 0.055019353
000330 ca d6 62 bd f2 2e ba bd 13 e2 8f 3d 75 94 95 bc
       -0.05538062 -0.09090985 0.07025542 -0.018259266
000340 11 b0 b4 bd f7 c7 b7 bd f5 c7 22 3b d2 4b cf bc
       -0.088226445 -0.08973687 0.0024838422 -0.025304709
000350 b3 59 9e 3d 6b c6 f9 3d 1b eb 9a bd 0f cb 94 bd
       0.077319525 0.12196048 -0.07564374 -0.07265293
000360 17 56 86 bc d3 fd bb bd 40 34 6e bd e5 82 c5 3d
       -0.016398473 -0.091792725 -0.0581553 0.09644107
000370 59 13 d7 3d 2d 99 c6 3d 03 c0 c6 3d 2a e1 85 bd
       0.10501737 0.09697185 0.09704592 -0.06537087
000380 f6 54 b0 3b ec 76 6a bb d5 15 78 3d c4 2f bf 3b
       0.005381222 -0.003577645 0.060567696 0.0058345515
000390 3c d6 e5 bc e7 b0 e3 bd 07 8e 01 be ed 72 95 3d
       -0.028056256 -0.11117726 -0.12651835 0.07297311
0003a0 68 a1 bb bd b5 06 65 3d 97 98 1d bd fb dc ba 3d
       -0.09161645 0.0559146 -0.0384756 0.0912418
0003b0 ec 13 e6 bb 3b ab ea 3d 18 4b 9c bd a3 e4 a7 bd
       -0.007021418 0.11458441 -0.076315105 -0.08197906
0003c0 4e ef ea bb 70 3c 8c 3d 6d 1c c0 3c 77 b5 e8 bc
       -0.0071696406 0.06847465 0.023451054 -0.028406842
0003d0 98 e4 80 3c 9c 4b b1 3d a7 81 33 3c 03 90 cd 3d
       0.015734002 0.086569995 0.0109562045 0.10037234
0003e0 44 04 bd 3c 5d 8e 95 3d d4 82 28 3d b4 69 e0 bd
       0.023073323 0.07302544 0.041140392 -0.10957661
0003f0 7c f2 8f bd b9 4e 9d bd b1 24 3d 3c 82 0e 6f bd
       -0.07028672 -0.07681031 0.011544392 -0.058363445

bias_ih_l0 f4 [192]
000000 8c 37 3f bc 5c f6 a9 3a a0 da c2 bd f9 85 ad bd
       -0.011670958 0.0012967098 -0.09514356 -0.08472819
000010 f7 91 7b 3d 09 93 f9 bc b9 b7 e5 3d c9 3e c3 bc
       0.0614185 -0.03046562 0.11216683 -0.02383365
000020 a6 88 ea 3d fc eb e6 bd 8a 65 e5 bd a0 e9 ad bb
       0.11451845 -0.11275479 -0.11201008 -0.0053073913
000030 ba fe ba 3d 7c e6 af bc 1d 1d b6 b9 f8 05 d5 3c
       0.091306165 -0.021472208 -0.00034735436 0.026003823
000040 c2 42 b6 3d 13 9b d9 3d 48 dc c0 bd ee 9e 55 3d
       0.08899452 0.10625281 -0.09417015 0.05215352
000050 75 a7 c7 3d fe 12 ba bd 3a 3e 9d bd 65 fa b1 3d
       0.09748737 -0.09085654 -0.076778844 0.08690337
000060 6e 3e fa bd 06 1a 2e 3d 98 b3 3a 3d e7 43 cb 3d
       -0.12218939 0.042505287 0.04558143 0.09925061
000070 23 84 c2 bd 18 43 04 bd 90 9f 26 bc bf 4a c4 3d
       -0.09497859 -0.032290548 -0.010169879 0.09584569
000080 f6 df a0 bd c4 54 f6 3c b9 7e b5 3d ce 02 35 bd
       -0.07855217 0.030069716 0.08862061 -0.044192128
000090 3c d4 e7 3d 20 a4 87 bd 25 dc 81 bd 0a 0b 17 3d
       0.11319777 -0.06623101 -0.06340817 0.036875762
0000a0 0c f4 a7 3d 5c cc b8 3d 15 79 6e 3d 28 bb 6e 3d
       0.08200845 0.090233535 0.05822094 0.058283955
0000b0 94 cb cd bc 06 0a 9a 3c 0a 81 99 bd f3 ac e3 bd
       -0.025121488 0.018803608 -0.074953154 -0.11116972
0000c0 98 4e 7c 3d 6e 32 ce bd 80 44 f5 3d 8a c2 e1 3d
       0.06159839 -0.100682124 0.11975956 0.110234335
0000d0 0d 1d b4 bd c3 05 d6 3d 6e af d3 bd 9b 49 66 3d
       -0.087946035 0.10450318 -0.10336195 0.05622254
0000e0 68 d4 70 3d c0 6c 01 bd d6 70 db 3d 00 ff dc bd
       0.058796316 -0.031597853 0.10714881 -0.10790825
0000f0 d5 93 b7 bd 4b be a1 3d 82 fe b7 3c cf 4a ae bb
       -0.089637436 0.07897624 0.022460226 -0.0053189765
000100 ff 1b 23 3b 2b d7 17 3d c3 0c 21 3d 95 7c 35 3d
       0.0024888513 0.037070435 0.03931881 0.044308264
000110 ca 15 d6 bc 60 e4 c1 3d c9 c7 b3 3c 6f 92 c3 3d
       -0.026133437 0.09467387 0.02194585 0.09549414
000120 ac 2a aa bc 68 4f c3 bd bf 97 a9 3d de ff 2e bc
       -0.0207723 -0.0953663 0.082808964 -0.010681121
000130 f5 03 0b bd 92 c1 43 3d 38 62 ad 3b 69 2e f5 bc
       -0.03393932 0.047792025 0.0052912496 -0.029929357
000140 2c 2c d2 bc 78 10 75 bb 8a 27 eb 3d c9 48 f5 3d
       -0.025655828 -0.003739385 0.11482151 0.11976773
000150 37 80 1e 3d bc 57 fb bd 2b e6 3a bd 18 37 d7 3d
       0.038696494 -0.122725934 -0.04562966 0.10508555
000160 b5 e3 cc bd 59 4a e6 3d d2 10 ec bc 80 b4 5d 3d
       -0.10004369 0.112446494 -0.028816614 0.054127216
000170 6c 9d 9f 3d 68 7b f6 bd 32 b8 b2 3d 13 4a af 3a
       0.07793698 -0.120352566 0.08726539 0.0013373516
000180 7c 59 d9 bd fd 0d 1b 3c 8a 13 8f bc 34 49 a6 bd
       -0.10612771 0.009463784 -0.017465372 -0.08119431
000190 a6 44 5c 3c 62 3a c4 bd 12 84 ed 3d 45 76 c9 bd
       0.013444101 -0.09581448 0.11597456 -0.09837011
0001a0 2d f5 8a bd a5 1f a8 bc 08 85 9d 3d 62 36 80 bd
       -0.06785045 -0.020522902 0.07691389 -0.06260373
0001b0 68 ad 66 3d 7b 88 3c bd 6d 7b 81 3b 54 fe 1d 3c
       0.056317717 -0.046028595 0.003951481 0.009643156
0001c0 dd 3c c8 bd 28 19 cd bd d4 d2 13 bc e7 4e 4b 3d
       -0.09777234 -0.10014564 -0.009022433 0.049635794
0001d0 7e bb 4e 3d 97 20 9c bd ed 0e 05 bd 8a 8c e8 bc
       0.050471775 -0.076234035 -0.032484937 -0.028387327
0001e0 51 bf 81 3c 0a bc 85 3d d6 aa db bd 36 41 94 3d
       0.015838297 0.06530006 -0.10725944 0.072390005
0001f0 bb 18 b9 bb 3b 23 b1 3b 66 24 c9 3c 83 dc 4e bd
       -0.0056487 0.005405811 0.024553489 -0.050503265
000200 41 a9 aa 3b 1d 2e 90 3d 9b 9a 36 bd 66 3c c3 3d
       0.005208165 0.070400454 -0.044581037 0.095330045
000210 11 74 28 bd 32 02 b3 bd 74 92 8d bd 95 61 5c 3d
       -0.041126315 -0.08740653 -0.06912699 0.053804
000220 9d 70 8d bd af e4 fd bd af b5 74 3d 3e 55 7c 3d
       -0.06906245 -0.123971336 0.05974358 0.06160473
000230 31 20 75 3c 46 95 a2 3c 5b a3 b9 3d dc 22 aa 3d
       0.014961288 0.01984657 0.09064361 0.0830743
000240 ab 36 df bd 79 8e d5 bd c3 aa 4b bc 0c 31 31 3d
       -0.10899099 -0.10427565 -0.0124308495 0.043259665
000250 28 34 1f 3a 31 e8 f1 bd 0d 9f 4d 3d 29 27 f0 bd
       0.00060731405 -0.11811865 0.05020051 -0.11726219
000260 48 bb a0 bb 1a 0c c9 3c 14 f9 44 bd 87 5c be 3d
       -0.004905138 0.024541903 -0.048089102 0.09294992
000270 f9 75 e9 3d 53 46 f5 3c c4 0e 59 b9 a1 1f b7 3d
       0.113994546 0.02994076 -0.00020700233 0.089415796
000280 1f 94 8f bc ef 91 e6 bc 48 5d f4 bd ac 78 69 bc
       -0.017526684 -0.028145758 -0.119318545 -0.014249962
000290 a8 87 4d 3b 0f 3a 93 3d d7 7a e6 3d d3 4d a2 3b
       0.0031361375 0.07188808 0.112538986 0.004953125
0002a0 3a 4a 9f bd 25 7d 62 3d 01 fd c2 bc fb ea 57 3d
       -0.077778295 0.05529513 -0.023802282 0.05271433
0002b0 0d 2e ba bd 30 64 2c b8 e8 ec 17 bc 26 9b 92 3d
       -0.09090815 -4.1101302e-05 -0.009272791 0.071584985
0002c0 94 41 81 3d 91 af 5b bc 43 fd 80 3c 30 35 dc 3d
       0.06311336 -0.0134085575 0.015745765 0.10752332
0002d0 70 a8 b9 3c 2b 0f 0e 3d 1f 2b 9c 3c 24 00 77 3d
       0.022663325 0.034682434 0.01906353 0.06030287
0002e0 aa 4b d2 bd 01 82 85 bd d9 88 ab 3d 53 ca dd bd
       -0.10268338 -0.06518937 0.08375711 -0.10829606
0002f0 d5 2c c7 3b f0 d0 a9 3d 24 f0 f2 bd 14 20 01 3e
       0.0060783424 0.08291805 -0.118622094 0.12609893
