models/demo/checkpoint/trained_irdpg_80.pth (torch, 409346 bytes, 22 tensors)

weight_ih_l0 f4 [192, 64]
00000000: 5485 3b3d 9a3e 91bc 72fe bebc 795e 3ebd
00000010: 5c1a bdbd 3a30 8abd b0a1 b13d 43d6 f1bd
00000020: bdb6 9cbd f0b9 423d 85ef c0bb b6cc 9a3d
00000030: c388 44bd da52 e83d 2cc5 13bd 8a9a c1bd
00000040: cdff 73bd 433c 9dbb 5a81 ac3d 3816 d23d
00000050: dff4 d33b 3008 ba3d 40e6 c1bd 28e3 bebd
00000060: 9453 dc3d a507 853d d837 7f3d 446c 063c
00000070: dc22 953d 6b93 fd3d a3df d33d 164a aebd
00000080: 1d6f ae3d 3e0a bc3c ace1 933d cb69 cdbd
00000090: a668 863d 4e06 c3bd 40e1 1c3d b4b9 c3bd
000000a0: d09e af3c 9487 f53d 6819 bf3d b82f 85bd
000000b0: 8f7b 8b3d 32f1 913d f1ac b63b e8d4 7b3d
000000c0: 0ac9 64bc a407 fabd b1c5 c8bd 5707 19ba
000000d0: 317c 243d 54d9 e3bd 5538 a8bb 5cb0 28bd
000000e0: 9cc6 89bd da17 d83d cb29 193d e274 b1bb
000000f0: fee8 9c3d ca07 3bbc 11f6 ecbd aaa4 a8bc
00000100: 1b6a f23d aefa a9bd 9a7c 9dbb fea9 2b3d
00000110: cf6c d8bd ef92 e13d 7b19 d63d d093 37bd
00000120: 2d5c 213d 68dc ba3d ad0c 64bd 65b8 89bd
00000130: 0d69 5d39 c86d 7bbd 71ae 38bc 655a 983c
00000140: 6927 93bd 9d29 f5bd dc44 f8bc cf57 013b
00000150: c5d5 c0bd af55 9a3d eaa2 1c3d c31f 06bc
00000160: 8458 aabb f7c1 a73d 5aa2 643d cebf ccbd
00000170: 49eb 1a3d b6b0 1f3d 0052 02be 74d2 cebd
00000180: 1c97 cbbc df34 48bd 43bd 3a3d d65c 983d
00000190: f211 813d 3eb0 3d3d 47c9 bcbd c10c f33d
000001a0: 26af 093b 9ec2 11bd 9793 c4bc 6f21 d6ba
000001b0: ce98 e63d 289b 043d 99ef b53d 9b6d 423d
000001c0: 49b6 f5bd 7962 9d3d 7815 223d b154 9d3d
000001d0: bbe5 a5bd 5a21 123b d5ff ca3d 619a 77bd
000001e0: f4ad c8bc 995e 233d 5154 683d 40ce 03be
000001f0: e1fb ee3d acac b13d 88b7 973c 49f7 213d
00000200: 3e84 01be bcc6 213d 9ee7 f3bb 09ad 143c
00000210: 4f18 d23d 0ac6 153c ca15 773d 6ebc c4bd
00000220: b400 d13b 5ac3 ec3d 2529 9abd fc99 b2bc
00000230: fd0b 06bd 11f0 8b3d 7674 fa3c a6e1 8c3a
00000240: edf6 973d ff00 9dbd 5570 16bc 43ab d2bd
00000250: 4ee1 72bd fed4 ab3d 6fe5 303d a906 f43c
00000260: 8f72 b1bd 622e ec3d 68fb cdbd e8a2 45bd
00000270: 72b6 19bc 5a6e 0e3d 104d c0bd 3c8f d1bd
00000280: da3e 8fbd c2f5 9ebd 3049 1cbc 0d3b e3bc
00000290: ec88 02be 4495 023d 5e0b 9a3d 1753 be3c
000002a0: ec90 853b a11e 80bd ec54 fc3b 8d1d b73d
000002b0: 3694 c83c 7e35 973d bf5c b43c dd13 d53b
000002c0: 6b60 e33d 1828 3fbc 0f9b eb3d 7a9a bebd
000002d0: f760 5fba d310 70bd 1e70 76bc fa0a a8bd
000002e0: 4bbb e13d 8397 68bc f5ca 8ebd cf42 5dbd
000002f0: f9bc e5bd c532 8bbc f4ba d6bd 686e 913d
00000300: c660 c13d 12db d33d 1f02 5abd db9f ff3c
00000310: 5855 eb3d 89b6 aabc 6e9e 283d c35d bcbd
00000320: 6e3a 2bbd 776d 1a3d 12ee 45bd 6413 d7bd
00000330: af21 87bd f2f8 4a3a 7aca 81bd 91b7 c13d
00000340: f788 8ebd d6ee a53d 4c21 fabd 54e9 453d
00000350: deb9 0e3d ed8d 843d b4ac 893d b7b8 963c
00000360: ccc8 cc3d bfbf cb3d 3cd6 55bc e662 0dbd
00000370: e4df f8bc 7fb9 c6bd 1dcd d1bd 9dc2 1abc
00000380: 97ef e93d d085 c33d e209 f0bd d59f 8c3d
00000390: 4c16 a8bd 2426 eb3c 32b7 31bd 4239 02be
000003a0: 4abd 64bd 7438 fdbc 4e24 b23b 6aee be3d
000003b0: 2a6c d33d fd6a b6bd 623c c73d 15cb 9f3d
000003c0: 16e0 963c 3e49 ad3d aa4a a9bd 9dd1 a9bd
000003d0: 5bb9 dcbb 0cee 27bd 2269 1b3c c8ea a63d
000003e0: 7d20 2ebc 8478 963c 7f83 ae3d bed0 00bd
000003f0: 534a d73d 2a8d d73d a4b6 cc3d d88a ee3c
0.04578145 -0.017730046 -0.023314688 -0.046476815 -0.09233543 -0.0674748 0.086734176 -0.11808445
-0.07652042 0.047540605 -0.005887928 0.07558577 -0.04798199 0.11343928 -0.03607671 -0.09453304
-0.059570123 -0.0047984435 0.08423109 0.10258144 0.0064684 0.09083593 -0.09467745 -0.0932067
0.10758129 0.06495599 0.062309116 0.0082045235 0.072820395 0.12381633 0.1034539 -0.085102245
0.08517287 0.022954103 0.07220778 -0.10029944 0.06562929 -0.09522687 0.038300753 -0.095569044
0.021438032 0.1198875 0.09331018 -0.06503242 0.06810676 0.071260825 0.0055748154 0.06148234
-0.013963947 -0.122084886 -0.09803332 -0.00058375805 0.0401575 -0.111254364 -0.0051336684 -0.041183814
-0.06727335 0.10551424 0.037393373 -0.005415545 0.07661627 -0.011415431 -0.11570371 -0.02058633
0.11836644 -0.082997665 -0.0048061134 0.041910164 -0.105676286 0.110143535 0.10454079 -0.0448187
0.039394546 0.091240704 -0.05567615 -0.067246236 0.00021115337 -0.061383992 -0.011272059 0.018597791
-0.07185251 -0.11970828 -0.030306272 0.0019736176 -0.09415773 0.07535874 0.038241304 -0.0081862835
-0.00519854 0.08191293 0.055818893 -0.09997521 0.03782204 0.038986884 -0.12726593 -0.100987345
-0.024852328 -0.048878547 0.04559065 0.07439582 0.06302251 0.046310656 -0.09218078 0.11867667
0.0021008938 -0.035585992 -0.023996158 -0.0016336868 0.11259614 0.03237453 0.0888359 0.04746781
-0.11997659 0.07684798 0.039571255 0.07682169 -0.08100458 0.002229771 0.09912077 -0.06044996
-0.02449701 0.039885137 0.056721035 -0.12871647 0.11669136 0.08675513 0.018520132 0.03954247
-0.12648103 0.03949617 -0.0074433824 0.009074458 0.10258543 0.0091414545 0.060323514 -0.096062526
0.0063782576 0.11560698 -0.07527379 -0.021801941 -0.032726277 0.068328984 0.030573111 0.0010748401
0.07420144 -0.076662056 -0.0091820555 -0.10286572 -0.0592969 0.083902344 0.043187555 0.029788332
-0.086644284 0.11532284 -0.100577176 -0.048251063 -0.009381877 0.03477321 -0.093896985 -0.10232398
-0.0699441 -0.07761718 -0.009538934 -0.027738119 -0.12747544 0.031880632 0.07521699 0.02323298
0.004076114 -0.06255842 0.007700553 0.08941183 0.024484735 0.0738325 0.022016881 0.006502612
0.11102375 -0.011667274 0.115041845 -0.09306808 -0.0008521224 -0.058609795 -0.015041379 -0.082052186
0.110220514 -0.014196279 -0.06972305 -0.05401879 -0.11217684 -0.016991982 -0.10484877 0.071011364
0.09442286 0.10344519 -0.05322468 0.031204155 0.114908874 -0.020838993 0.041166715 -0.09197571
-0.04180377 0.03770205 -0.048322745 -0.10501745 -0.065982215 0.0007742784 -0.063374475 0.09458841
-0.06959718 0.08102195 -0.12213382 0.048318222 0.034845226 0.06472383 0.06722394 0.018398626
0.099992365 0.09948682 -0.013051566 -0.034518145 -0.030380197 -0.09703349 -0.102442004 -0.0094458135
0.11422651 0.09547007 -0.11720635 0.06866423 -0.08207378 0.02870471 -0.0433876 -0.12717155
-0.055844583 -0.030910708 0.0054364568 0.093228176 0.10323365 -0.08907125 0.09728314 0.07802407
0.0184174 0.084612355 -0.08266194 -0.08291934 -0.0067359633 -0.040998504 0.009485515 0.0815025
-0.010627863 0.018368013 0.08521175 -0.031449072 0.10512223 0.10524972 0.099957734 0.02911894

weight_hh_l0 f4 [192, 64]
00000000: 488b dbbd 6755 cabd 6596 3fbd 7f8e ee3d
00000010: 95c3 c73d d43a 3c3d 60ec 0f3d 70c8 c3bc
00000020: 7b89 eabd e79d 7e3d 5b57 68bd 85c8 b3bd
00000030: e0a1 393d 142a bc3d 63b7 bc3a da34 dcbb
00000040: 8479 e03d 8a55 c8bc 081d 183d 8aac 643b
00000050: 2cf6 e6ba bea4 363d 1211 33bd 2c92 80bd
00000060: 0154 68bd 0346 b0bd 96c6 0abc 637b 9c3d
00000070: 8c25 c23d 1842 333d 3abb e3bd b082 8dbd
00000080: 9c5e b0bd 4770 d13d 7841 c5bd c214 cfbd
00000090: 722e 63bd c8c7 0dbd ebd0 2cbd 481d 7d3c
000000a0: ebdf f33d ec3e fcbd f15f adbd d7f7 623d
000000b0: 634d d3bc e810 abbd 3459 1cbd 57ea 9ebd
000000c0: 2510 003d e840 34bd 6a04 4dbc 5396 eabd
000000d0: 9744 8d3d 1f34 093d ca88 033d e786 f33d
000000e0: 57f2 61bd 7978 d4bc 1a1d 903d 5537 dcbd
000000f0: 48b9 f6bd c827 9b3d 7dbd cebd be50 ccbc
00000100: dbe2 d9bd e7ed 01bd 4b00 9c3d 98f8 703c
00000110: 7871 d8bd 2eed cdbd 5501 873d fdda be3d
00000120: c3ac 4b3d b623 bebd fd83 033d 53f2 ce3d
00000130: 41e7 453d eb35 cf3d 6a11 42bd b582 403d
00000140: 6394 90bc 76c5 8c3d 9d6c bfbc 82c1 023d
00000150: 529b f7bd 6235 e2bd 0534 b9bd c5e8 dcbd
00000160: e758 e8bc 1c99 813d 29e2 a1bd d8bc 423d
00000170: f653 c2bd 1749 df3d 0793 933d a6a1 813d
00000180: ead1 833c 8c79 c43d 052d 773d 51e7 13bd
00000190: 8b4c 15bd 8447 cd3d f069 c83d cac4 d3bd
000001a0: 1c96 42bd 2b31 dbbc 5726 c03d c009 21bd
000001b0: ba1e 023e 1bc5 cb39 cc65 ccbd 87aa f63c
000001c0: bc5b ffbd 4eaa 7dbc 79f8 2cbd 4664 d03d
000001d0: bb91 8f3c f892 03bc 1594 cf3d 0b84 c9ba
000001e0: 0b29 a83d 39c6 fcbd 82ba cabd 5804 b5bd
000001f0: 56ac c03d 6065 2abd debe b3bc 2cbc 163d
00000200: 297e cb3d 19eb 8f3d 5a85 913c a869 883d
00000210: f87c 753d d76f 6a3d 53ea ea3d 245d 62bd
00000220: 1d8b 133d eaac 833c 36c1 ca3d d4eb e9bd
00000230: c187 693d 7089 76bd d8e5 903c 6987 59bd
00000240: d9e2 943c a853 653c 962b 1b3d 8a9f b03a
00000250: 32f5 b43d 6f65 f0bd 26ef 963d 777f 7d3d
00000260: 114e eabc bb4b 313d 70bc e8bd 4d2f e83d
00000270: eb47 043d d855 5fbd 8420 d13d fec3 5e3d
00000280: 83db a13c 695b cd3d e5e8 723d 1340 f5bd
00000290: b75c 9a3d 3180 6cbc 7ece a3bd bc6f a03d
000002a0: a57d fcbd 24ae e7bd b4e4 4b3d 799f 133d
000002b0: 3f18 f13d f272 c33c 7666 a33c dda9 a13d
000002c0: e6fc 4a3c e07c 793d 62ca 43bd 8bb0 bcbc
000002d0: 91d3 d33d 797a b5bb b29b 84bd 31a0 cebd
000002e0: 0df6 a53c 4131 24bc 9546 6e3d 312f bc3d
000002f0: f54a 86bd 4495 cdbd a90a b63d e366 73bd
00000300: 15b8 80bd 68bf 0ebd 99fc bebd 57dc c83c
00000310: ea3b e3bd 1871 e13d 77e2 c5bd cc62 f1bd
00000320: c1f5 3bbd a8ed 853d 5f7d cb3d 2f4a 87bc
00000330: 7e26 783c 079c 8fbc 2ce8 41bd a273 c0bd
00000340: 5225 793d 9ac1 8bbc c132 783d 6f5f e83c
00000350: 58bf b0bd 9772 ed3d b728 59bd 1433 c7bd
00000360: 91e5 dbbd 1c86 a3bd cbb9 cf3d ec57 abbd
00000370: c9f4 f13c 2fd2 9ebd d27a 0ebc ad83 393d
00000380: 2d34 b73d bc62 543d 6141 debd aaf3 d4bd
00000390: d892 8d3d 55b8 ef3d 251d 62bd e53c b43c
000003a0: 8428 97bd 0c5a c03c b48e 913b fa9e 663d
000003b0: 7d74 5cbd 6284 53bc bddd eabc 0613 783d
000003c0: b2b4 d9bd 663d c53d c6e8 2f3d f1ff 8bbc
000003d0: 1c76 fcbd 3d35 2cbd 83c0 d9bd 19dc afbc
000003e0: ca25 55bd e6bb 443d a1fa e83d 3585 2abd
000003f0: 1393 023d 889d 953c f42a d43d 8583 c9bd
-0.10719925 -0.098795705 -0.046774287 0.11648273 0.09754101 0.04595454 0.035137534 -0.023899287
-0.114520036 0.062162306 -0.056723934 -0.087784804 0.04532039 0.09187713 0.0014397915 -0.0067201676
0.10960677 -0.02445485 0.03713706 0.003489288 -0.0017620972 0.044590704 -0.04371745 -0.0627788
-0.056720737 -0.08607104 -0.008470198 0.07640722 0.09479818 0.043764204 -0.11119695 -0.06909692
-0.08611795 0.10226493 -0.09631628 -0.10111381 -0.055464216 -0.034614354 -0.042191427 0.015448876
0.11907943 -0.12316689 -0.08465565 0.05541214 -0.025793737 -0.08352834 -0.03817101 -0.077595405
0.031265397 -0.044007212 -0.012513259 -0.11454453 0.06897848 0.033496972 0.032112874 0.11890965
-0.055162754 -0.025936352 0.07036801 -0.10752741 -0.12047058 0.07575947 -0.10094736 -0.024940845
-0.10638972 -0.031721022 0.076172434 0.014707707 -0.105685174 -0.10055004 0.06592051 0.093191124
0.049725305 -0.09284155 0.032108296 0.101048134 0.048316244 0.10117706 -0.04737989 0.046999652
-0.017648881 0.068736 -0.02336722 0.031922825 -0.12090172 -0.11045338 -0.09043125 -0.10786585
-0.028362704 0.063280314 -0.07904465 0.047543377 -0.094886705 0.10902613 0.072057776 0.0632966
0.016091306 0.09593496 0.06034567 -0.036109272 -0.03644995 0.10023406 0.09785831 -0.10340269
-0.047506437 -0.026756844 0.09382313 -0.03931594 0.12707034 0.00038866032 -0.09980354 0.03011061
-0.12468669 -0.015482498 -0.04222915 0.10175376 0.017525544 -0.008030646 0.10135666 -0.0015374435
0.08210953 -0.123424955 -0.09898855 -0.08838719 0.094078705 -0.041600585 -0.021941599 0.03680055
0.099361725 0.07027263 0.017763782 0.06660777 0.059933633 0.057235565 0.11470475 -0.055264607
0.03602134 0.016073663 0.09900133 -0.11421934 0.05701423 -0.060189664 0.017687723 -0.053107653
0.018174576 0.013996996 0.037883364 0.0013475281 0.0883583 -0.11738097 0.07369833 0.061889138
-0.028601678 0.043285113 -0.113640666 0.11337147 0.03229515 -0.054525226 0.1021128 0.05438613
0.019757992 0.10027201 0.059304137 -0.11975112 0.07537215 -0.01443486 -0.0799837 0.07833812
-0.12328652 -0.113125116 0.049778655 0.036040757 0.11772203 0.023858521 0.019946318 0.07893727
0.012389397 0.060910106 -0.04780043 -0.023033401 0.103430875 -0.0055382815 -0.06475009 -0.10089148
0.020258928 -0.010021509 0.05817278 0.091886885 -0.06557266 -0.10038236 0.08888752 -0.059424292
-0.06285111 -0.034850508 -0.09325523 0.024519129 -0.11095412 0.11007899 -0.09662335 -0.11786422
-0.045888666 0.0653947 0.09936022 -0.016514866 0.015145896 -0.017530454 -0.047340557 -0.09397055
0.060826607 -0.01706009 0.060595278 0.028365819 -0.08630246 0.11594122 -0.053017344 -0.09726539
-0.10737146 -0.07984564 0.10142859 -0.08366379 0.029535668 -0.07754933 -0.008696275 0.04529159
0.089454986 0.051851973 -0.10852314 -0.10398038 0.06912774 0.117050804 -0.055203576 0.022001693
-0.073807746 0.023480438 0.0044420604 0.056303956 -0.05382203 -0.0129099805 -0.028670186 0.060565017
-0.10630168 0.096308514 0.0429466 -0.017089816 -0.12327215 -0.04204296 -0.10632422 -0.021467255
-0.05203799 0.048030756 0.11375929 -0.041630942 0.031878542 0.018263593 0.10359755 -0.098395385

bias_ih_l0 f4 [192]
00000000: 20ee e7bc b277 313d b765 b03d 5d8d be3c
00000010: 9d01 d9bb 9bdf 52bd 9736 203d 8975 633d
00000020: 27c5 e03c 7770 abbd 3a0c 67bd 7e39 27bd
00000030: dbff 87bd 62cb 963d 9592 6dbc 1956 dcbd
00000040: 3b8f 343b b6c3 a73d 5354 77bc 3d44 adbd
00000050: a178 af3c 2064 0fbd 987e 853d 1059 ff3d
00000060: e279 81bd 13cf 8a3d 82a4 14bd 298b 37bd
00000070: 9f92 273d 1400 d13b 4d33 09bd 8520 f6bb
00000080: fabf 8c3d 8c83 993d 96b4 913d beef c83d
00000090: 2cda e0bd 37e9 90bd 370c 6f3d 966e bd3d
000000a0: b49e 02bd 17e9 64bc a39e debd 4a82 39bd
000000b0: c65a e2bd 9392 d13d d12a b73d 12d3 d7bd
000000c0: 4336 7dbd b2c7 973d 0afd e93c f868 b2bb
000000d0: 7043 b6bd d10c df3d 04b9 30bd 1038 62bd
000000e0: 4096 ad3c f838 83bd c1ea b3bd ab73 4abd
000000f0: 3968 4bbd a5a4 8fbd fcf0 cebd 5257 f53b
00000100: c88f 973d 23a2 fdbd 5eae 0c3d fa73 983d
00000110: 2336 d2bb 021e e0bd f011 3cbc d80f c23d
00000120: 1b32 3c3d aa32 f73c 0d73 dfbd 9b52 083d
00000130: a93e a6bc e737 9abd 20e6 8abd 2d6e d23d
00000140: ba07 69bd aa9c 80bc 34ee 093d 5343 8f3c
00000150: 7583 b6bd 9a05 a53d 5d06 b93c df76 69bd
00000160: ed21 d03d 3192 ad3c bb33 e63c 142c af3d
00000170: 9f3c d83b 08e0 c9bc d78f ecbd 0f4a 00be
00000180: 38fb c83d 000b 04be dd98 a6bd 76d8 f43a
00000190: f42f 273d b258 e3bd 85bf 963d 6361 95bd
000001a0: ac36 14bd 1d3a 873d fa7a a2bd 01b6 443c
000001b0: 0cc8 503d 0986 f23c 96f5 213d 83f1 b0bd
000001c0: 2e02 423d de1a 88bd cd96 2a3d d603 c3bd
000001d0: 5409 83bd aa4d d5bd 3113 f7bc 9e36 e6bd
000001e0: b333 7bbd 483a 86bd f58f 7bbd 3cf3 9bbd
000001f0: 3d0a 9cbd 7343 c53d ea5e d13d 0d59 dabd
00000200: c015 9d3d 50dc 8abd 8e56 d53b 69d1 8dbc
00000210: 63f0 643d 284f 3a3a 4daf 19bb 590d fabd
00000220: 74b3 ec3d e270 ed3d 2b47 01bd cc79 4dbd
00000230: 7d9b 37bd dc3b 33bd 97e3 233d 2d00 ed3d
00000240: ee59 703d c4e8 4b3d 4c0e c93d 0527 97bd
00000250: 7c89 5f3d 9e88 96bb e667 fc3c 7a41 453d
00000260: 55fb a43d 3bfa ae3d 079c 353c 4b44 1a3b
00000270: 4fc6 e1bc cf61 d8bd 1dad dfbd 6b7d 013d
00000280: 194e 0abc 7019 b33d 6f84 f43d cb96 8a3d
00000290: 1357 0a3d 7a34 373c 1057 a3bd 8187 a1bd
000002a0: 5c13 963c e8d1 f3bc 6f4a 313d 9594 9c3b
000002b0: a46f fcbd 9178 f13c 203c f8bd a15d cbbd
000002c0: d58f dc3b c14a 3e3d cf4f 003c bcbc a2bd
000002d0: 2b02 e53c 96e7 2d3d 9474 eeba 5f60 b3bd
000002e0: 8943 fb3c dc19 e63d cfa7 8a3d da48 14bd
000002f0: af2b e5bc 4711 9f3d fd0d 2b3a 3655 8b3d
-0.028311789 0.04332704 0.086131506 0.023260767 -0.006622507 -0.051482778 0.03911456 0.055532012
0.02743776 -0.0837106 -0.056408145 -0.040826313 -0.066405974 0.07363011 -0.01450028 -0.10758609
0.0027551192 0.08191626 -0.015095788 -0.08460281 0.021419825 -0.035007596 0.065182865 0.12468159
-0.063220754 0.067777775 -0.0362897 -0.044810448 0.040911313 0.006378183 -0.03349619 -0.007511201
0.06872554 0.07495794 0.07114522 0.09811352 -0.10979113 -0.07075732 0.05836126 0.09249608
-0.031889632 -0.013971589 -0.10870101 -0.04529027 -0.1105247 0.10233035 0.089437135 -0.10538305
-0.061819326 0.07411136 0.028563041 -0.005444642 -0.088995814 0.108911164 -0.043145195 -0.055229247
0.021189809 -0.0640735 -0.0878501 -0.049426716 -0.04965994 -0.07013825 -0.10104558 0.007487216
0.07400471 -0.12384441 0.034345977 0.07443996 -0.006415145 -0.109432235 -0.011478886 0.09475678
0.04594622 0.030175526 -0.10910616 0.033281904 -0.02029355 -0.07530194 -0.06782174 0.102749206
-0.056892134 -0.015699703 0.033674434 0.017488157 -0.08911792 0.08057709 0.022586042 -0.05699813
0.10162721 0.021187874 0.028100839 0.08553329 0.0065990235 -0.02464296 -0.11550873 -0.12528251
0.09813541 -0.12894821 -0.08134625 0.0018680233 0.040817216 -0.11100902 0.07360748 -0.07293966
-0.03618495 0.06602881 -0.07933612 0.012006284 0.05097203 0.029604929 0.03954085 -0.08639815
0.04736536 -0.066457495 0.04164772 -0.09522216 -0.063982636 -0.10415204 -0.030160518 -0.11240886
-0.0613286 -0.06554085 -0.061416585 -0.07614753 -0.0761914 0.096320055 0.102231815 -0.10661516
0.07670164 -0.067803025 0.0065105623 -0.017311769 0.055893313 0.0007107132 -0.0023450435 -0.12209577
0.115576655 0.11593796 -0.03156201 -0.050164983 -0.04482602 -0.04375826 0.04001197 0.11572299
0.058679514 0.04978253 0.0981718 -0.07380489 0.054574475 -0.0045939228 0.030811261 0.048158146
0.0805575 0.085438214 0.011084563 0.002353924 -0.027560381 -0.105655305 -0.109216906 0.03161375
-0.0084414715 0.08745086 0.11939322 0.06767043 0.033774447 0.011181945 -0.0797559 -0.078871734
0.018319778 -0.029763177 0.043283876 0.0047784545 -0.12325981 0.029476436 -0.12120843 -0.09929968
0.0067310133 0.04645801 0.007831528 -0.079461545 0.027955135 0.042457186 -0.0018192702 -0.08758616
0.030671852 0.11235401 0.06770288 -0.03620229 -0.027974932 0.07766967 0.0006525217 0.06803362

bias_hh_l0 f4 [192]
00000000: e59e c03d 2917 6ebd 36c8 643d 3f5e 8dbd
00000010: d69e 853d 12ed 01be 04be b6bd 862e eabc
00000020: ca84 b53d e128 163d 7a64 04bd e6dd babc
00000030: 2fe5 fe3c 80ce c3bd 9c15 2bbc 0350 3d3d
00000040: 5dc3 003c e30e 1ebc 2015 65bd 4766 6e3c
00000050: 7b7a 913d 6912 e5bd 32a1 e83d e4a7 babd
00000060: 0b79 fa3d abe1 dc3d 2222 623c 7519 05bd
00000070: c2f1 edbd 8c5c 31bd 6f1b c7bd 3b0a 023e
00000080: f93b 1cbc 9f48 03bd cccf c0bd e511 fcbc
00000090: 6095 f13d 898d 1e3d 0701 c23d 3d68 e9bb
000000a0: ed9b c23d b2d3 4bbd d964 bdbd 2468 023c
000000b0: 6e13 edbd 3904 febd 9189 dcbd fcb0 b43d
000000c0: f4f2 e73d 0466 adbd ff51 a13d 3cf6 8a3d
000000d0: 2fbc 4d3d 49ff a13d fd89 e03d 2c0f 223d
000000e0: 7df5 f23d e8e5 c6bd 178a 893d 851d 433d
000000f0: 9e02 973d 39fa cb3d 56af 78bd f8d9 fb3d
00000100: 8cfe 8a3d f7a0 c03d 6ea0 69bd e6bb db3d
00000110: 0a11 cc3c a3a7 343d 2082 d3bd 6b89 80bb
00000120: a921 c5bd 5b2a bebd a0e4 063d 25de 57bd
00000130: f3c3 8fbc 17c8 703d a297 063b 13be dc3d
00000140: 8e16 0f3d 0266 47bc 6af5 fbbd c1d9 6e3c
00000150: 1732 733d 458e 62bd a3b3 8cbd 5e80 a6bd
00000160: fb86 003e 0cf5 b13d 12d5 dcbd a74b 54bd
00000170: bfae c1bd 1c81 6f3d a9d8 4f3d 033a 67bd
00000180: 9c4d 103d b0a5 64bb 5679 82bc 0bd9 50bd
00000190: 39c7 df3d 1402 afbd f4ce 8d3c 79f4 c63d
000001a0: f547 8dbd 099e ee3d 833e 60bd d76b 33bd
000001b0: a2ab cf3b 0149 073d c226 14bd 8d8b b33d
000001c0: 2e59 1f3d e580 ccbc 44ae 6b3c b04f 343d
000001d0: 2346 77bd 34b7 8b3c f837 e3bd ab5e 853d
000001e0: 64a3 9fbd f4b3 533d a574 7b3d 624a 3f3d
000001f0: c5c3 bcbd 9402 8a3c f9a7 663d b7f4 eebc
00000200: fcce 61bd 6624 ea3d 2dd2 debd 88b7 bfbd
00000210: 1fc9 6b3d 5fce fa3c 5cbe 38bc 0a32 de3d
00000220: 3149 abbd 2468 a73d 42fe 7ebd 3972 a0bd
00000230: fbeb babd 19c1 d6bd c5fc 033c 9948 563d
00000240: f8b4 903c 0d44 e73d 2c42 cd3d 1627 a8bc
00000250: 178a dcbd b345 cabd 52ba 1c3d b455 87bd
00000260: 455a 6dbd c1d8 8f3d 1be4 cbbd 356b 2e3c
00000270: 2395 903b 0ea4 f53d 0b57 02bd f7c2 cabd
00000280: 6eff ee3c e579 acbd 7073 e9bd f9a9 f63d
00000290: 9c25 bfbd 9de0 693d 218b efba f61e d5bd
000002a0: f6cb 693d 7712 a93d fb68 c2bd 921d 30bd
000002b0: 595a 953d 7cd6 e63d a214 0cbd e42a be3c
000002c0: 847d c4bd a182 babd c681 fc3c 75fa eabb
000002d0: 4089 4dbd dc36 973d 8e49 0b3c 6b90 0cbd
000002e0: 18cf cdbd 2a0d c0bd f103 913c 13d5 e23d
000002f0: 3453 383d e983 df3b e61b 023d 2389 fa3b
0.09405307 -0.058127556 0.055855 -0.06902742 0.06524436 -0.12688091 -0.08922961 -0.028586637
0.08863218 0.03666008 -0.032322384 -0.022810888 0.031115143 -0.09560871 -0.010442164 0.046218883
0.007859078 -0.009647104 -0.05592835 0.014550752 0.071034394 -0.11185152 0.113588706 -0.09114054
0.12230118 0.1078523 0.013802083 -0.03249498 -0.11618377 -0.04330115 -0.097220294 0.12699215
-0.009535783 -0.03205168 -0.09414634 -0.030770252 0.11796069 0.038709197 0.09472852 -0.007123022
0.09502397 -0.049762435 -0.09247751 0.007959399 -0.115759715 -0.12403149 -0.10768426 0.088228196
0.113256365 -0.084667236 0.07876968 0.06785247 0.050228294 0.0791002 0.10963819 0.03956525
0.118632294 -0.0971182 0.06715792 0.047635574 0.07373546 0.099598356 -0.06071409 0.122974336
0.06786832 0.094057016 -0.057037763 0.10729198 0.024910469 0.044105183 -0.10327554 -0.0039226315
-0.09625561 -0.092854224 0.032932878 -0.052702088 -0.01754949 0.05878457 0.0020537158 0.10778441
0.03493362 -0.012170317 -0.123026684 0.014578284 0.05937394 -0.05531146 -0.068702005 -0.08129953
0.12551491 0.08689317 -0.107828274 -0.05182996 -0.09457158 0.058472738 0.050743733 -0.05645181
0.035230264 -0.0034888797 -0.015926998 -0.05098824 0.109266706 -0.08545318 0.017310597 0.09714598
-0.0689849 0.116512366 -0.054747116 -0.043804016 0.006337599 0.033028606 -0.036169775 0.087668516
0.038903408 -0.024963805 0.01438481 0.04402131 -0.060369622 0.017055131 -0.110946596 0.06512197
-0.07794836 0.05168529 0.061390538 0.046701796 -0.092170276 0.016846932 0.056312535 -0.029169424
-0.055129036 0.11432724 -0.108799316 -0.09361178 0.05756485 0.030615984 -0.011275854 0.10849388
-0.083635695 0.0817416 -0.062254198 -0.07834286 -0.09127041 -0.10486049 0.00805587 0.05231533
0.017664418 0.112922765 0.10022387 -0.02052645 -0.10768526 -0.09876575 0.038263626 -0.066081434
-0.057947416 0.070237644 -0.09955617 0.010645677 0.0044123097 0.119941816 -0.031821292 -0.09900468
0.029174533 -0.08421687 -0.11398971 0.120441385 -0.09333345 0.057098974 -0.0018275717 -0.10406296
0.057079278 0.08255475 -0.0949268 -0.04299695 0.07292623 0.112713784 -0.034199364 0.023213811
-0.09594253 -0.09106947 0.0308236 -0.00717097 -0.05017972 0.073835105 0.0085014235 -0.034317415
-0.100492656 -0.09377511 0.017702075 0.11075797 0.045001224 0.006821145 0.031764887 0.0076457425

weight f4 [2, 64]
00000000: 7ffc ec3d 38b6 b6bd 4e38 003d 3019 5b3d
00000010: 78cd 34bd 5886 acbd ea3f 98bd c9a9 0dbd
00000020: 650a aabb b535 86bd b6c2 65bd e177 1c3d
00000030: ec66 573b a3dc 083c bba5 52bc b4e1 4bbd
00000040: 6724 e13d 6e89 d73d 1def 483c 12b4 d13d
00000050: 5ea5 f73d 0d37 10bd e07b de3d c425 fcbb
00000060: 8dcc ed3d 16c4 8ebd ab40 833d c4a3 f8bd
00000070: 9ad1 a13d 7a74 60bd 5006 93bd 5074 1ebb
00000080: ab8c f03c d9e3 8dbd 917d bdbd aa14 0abd
00000090: d902 84bd 87d4 ca3d 4b26 a1bc 981f b8bd
000000a0: 053d 963d 1e99 313d 8ffc 863d 8f3d 453d
000000b0: 4729 af3d 8bc3 90bd 6e34 ba3c 3f6d eb3d
000000c0: 73c1 2abd 9e75 33ba ad5a bd3c 5608 b93d
000000d0: cf7e e7bd 55aa 2fbd ec41 4e3d 4a69 bd3d
000000e0: 3f0e 3dbd ee73 90bd 5117 cabc d611 d03d
000000f0: ece7 aebd 32e1 94b9 1f8d a13d bf6e 913c
00000100: 0741 d4bd d2e0 a23c 3692 f73d 9138 96bd
00000110: 0210 b13c b822 f2bd 4fcb 32bd c9bd f43d
00000120: a039 8a3d c976 e73d 7c29 a7bd 47de 20bc
00000130: 047e ad3d 9878 8b3d d41f 913d 9054 d83c
00000140: fb6a 01be 40e4 ebbd f3d9 74bd 1555 6d3c
00000150: 9265 a43d 867c b73d ed44 73bd 51df 4dbd
00000160: 71f9 88bd 34a5 e43c 3f90 d53c 5cb1 59bd
00000170: 61be 5cbd 51e2 f8bc 9910 82bc 5589 2bbd
00000180: 5f34 ea3d 87b4 cf3d 5d70 613d 52f2 17bd
00000190: 27e5 cbbc 5ba3 c83d cd7f 203d 1ad8 a0bd
000001a0: 64bd 88bc 29da e23d 86d7 cc3d 3773 5cbd
000001b0: 767c 023d 1b4a 36bd 4329 3bbc 4d77 a93b
000001c0: 3815 aebd 5df3 7abd 3908 f7bd 1267 afbd
000001d0: 3b63 f93d 12b0 b4bd 370c cf3d 1694 d13d
000001e0: 0308 2f3d b03e dd3a 0c12 8abd 6087 8f3c
000001f0: 6e1f 6c3d b933 343d c1f6 cfbd 970e d4bd
0.11571597 -0.08921474 0.031303696 0.053490818 -0.044141263 -0.084240615 -0.07434066 -0.034585748
-0.0051892274 -0.065532126 -0.056093894 0.038200263 0.0032867743 0.008353385 -0.012856896 -0.049775794
0.10993271 0.105242595 0.01226404 0.10239424 0.12092088 -0.03520875 0.10863471 -0.0076949317
0.116112806 -0.06970994 0.06408819 -0.12140611 0.079013065 -0.05479858 -0.071789384 -0.0024178214
0.02936395 -0.06928224 -0.092524655 -0.033711113 -0.06445856 0.099038176 -0.01967158 -0.08990401
0.07335857 0.043358915 0.065911405 0.04815441 0.08552795 -0.07068547 0.022730079 0.114954464
-0.041688394 -0.00068458344 0.023114527 0.09034793 -0.11303484 -0.04288705 0.050355837 0.09248598
-0.046156164 -0.07053362 -0.024669321 0.10159652 -0.08540329 -0.00028396543 0.07888245 0.017753003
-0.103639655 0.019882593 0.120884344 -0.07335008 0.021614078 -0.11823028 -0.04365092 0.11950261
0.06749272 0.11301953 -0.081622094 -0.00981862 0.08471301 0.06810111 0.07086149 0.02640751
-0.12638466 -0.115181446 -0.059778165 0.014485617 0.080271855 0.08959298 -0.059391905 -0.0502618
-0.06688202 0.027910806 0.026069758 -0.05314766 -0.053892497 -0.030381354 -0.015877055 -0.041879017
0.1143577 0.10141855 0.0550388 -0.03709633 -0.024889542 0.097967826 0.03918438 -0.07853718
-0.016691871 0.11076767 0.10002045 -0.053820815 0.031856976 -0.044504266 -0.011423412 0.0051716925
-0.08500141 -0.061267246 -0.12062115 -0.08564581 0.1217713 -0.08822645 0.10109752 0.10233323
0.04273225 0.0016879644 -0.067417234 0.017520607 0.05764716 0.04399464 -0.101544864 -0.10354345

bias f4 [2]
00000000: 660a 5ebd 2db1 b33d
-0.054209135 0.08774028

weight_ih_l0 f4 [192, 66]
00000000: ede0 4b3d aa8e 12ba b8fb 603d 64c6 6abd
00000010: 1e3f 903d 3829 9ebd b9e0 c13b a738 ad3b
00000020: a68f a53d 0fa9 8ebd 9bf1 f0bd 6a4b d83d
00000030: 8711 85bd b707 fd3d 51b0 163d 863d bfbd
00000040: 8a8b a3bc 7d7c 88bd 91be 9e3c 0727 b53d
00000050: 8d75 d53d 92ae f13c 0302 b2bd 367e b53d
00000060: d191 d2bd 4687 26bd 4e91 debd 59bf ca3d
00000070: 3025 fc3d 9255 83bd cce6 7cbd 2695 ac3d
00000080: cb74 3e3d 4f62 a93d eab7 a1bc 635d f4bd
00000090: 53c6 85bd 90c5 aabd d9e7 473d 1d6b 1cbb
000000a0: e08b b6bc 9acc 9b3d e200 f53d 13b5 a3bd
000000b0: 7105 c73d e727 033e 031c cb3d 4e12 c5bb
000000c0: bb9b 76bc a3a9 22bd 7d4c e83d 9960 bd3d
000000d0: b31d c7bd d63c babd 2dee 683d 8925 233d
000000e0: 697f ad3d dd1f 00be 0fcf 7a3d 2f11 433c
000000f0: fcf1 5dbd b522 bebd 3338 a03c c8d5 123d
00000100: abf9 493d 83cc 813c 0f9e 99bc 197f 9fba
00000110: 9de0 353d c0af ff3b 22f1 5f3d 992d 553d
00000120: c6a3 453d 00a6 2dbd f228 8abd 486c 8f3c
00000130: 78a7 09bd d2cf 983d 1400 af3d 15b5 24bd
00000140: acd4 f93d d7f5 d2bd 0cf9 10be d068 f3bd
00000150: 2262 8d3d 04e1 c7bc 81d0 b33d 1565 8ebd
00000160: 8ec5 fb3d e286 cd3d a011 b73d a153 95bd
00000170: b931 2fbe cea2 ec3d 0881 8c3d 8ef9 8b3d
00000180: b361 5e3d 8b87 b4bc 8fc9 c83d 9034 8cbd
00000190: 0f94 713d 3a41 f5bd fffd 0ebe 5772 a13b
000001a0: a450 613b 0fe9 4e3d b1eb 36bd 16db 55bb
000001b0: 4556 f13c f697 233e 92e6 6f3c 51c4 883d
000001c0: 51dd 3fbd 5055 a9bd 23c5 113e b6b3 bd3b
000001d0: ae9d 4fbc 1bfc 133e 21ea b7bd eac1 c9bb
000001e0: 1e4a 4dbc 1d85 283e 2647 05be 0b52 dabd
000001f0: 0aec 1abc 36aa edbc 1863 92bd 4d72 3bbd
00000200: 886f 6ebd d270 773d e484 2d3d 71fb f23c
00000210: df1c 503d 9b84 273c 0c2a fa3b 5c76 fe3c
00000220: 3ccb d73d 6393 813d 2cf9 bf3d 8052 053c
00000230: 97cb b83c eb71 773d c3d5 b63d ac48 c53d
00000240: 4f74 e1bd 2a6e 023d 2420 84bd d10d e2bd
00000250: ae3b 0fbe 1546 b13d 73b5 7f3d 9485 143d
00000260: 7779 d6bd f443 bdbd e48a 95bc 1cf0 c9bc
00000270: bc30 b53d 2679 9dbd f995 303c 518a 9bbd
00000280: ccdb ea3d c1f2 ab3d c124 163e 039e 7e3c
00000290: 246b f3bd 3965 63bc 60c2 7abd 5c8e 0a3d
000002a0: a845 27bd 50c4 93bd 0e6d b5bd 4f9f 533d
000002b0: 515e ad3b 0500 0d3c a9b8 af3d 9f2b 743d
000002c0: e8dd 06be 3665 0bbe 5db8 c23d 921b fc3d
000002d0: 1074 64bc 389f 103e 019c b4bd acb5 52bd
000002e0: 77c4 dbbc 6dec ca3c a377 413d 337a 9abd
000002f0: 73cd ed3d 8793 71bd 986e 5a3d aabc ce3d
00000300: 5946 babd ad62 d9bc 5a65 ccbb deb4 b13d
00000310: 61c4 0c3e 6d5d 083e 94a3 983d 4a18 4fbd
00000320: f9ed 0e3e 7dce 783d 7bce e43d cba6 f33b
00000330: 25fd b53d 51b8 a23c b369 913d 07be 89bd
00000340: 31bd c03d 2b84 e2bd 9901 ed3d 157b 0c3c
00000350: f2cf 42bd 0d8a 00be 93b3 e7bd 795a fabc
00000360: 92ce 553d 9e04 a23d 3b72 613d 6f4e 383d
00000370: 3a7d 053e 891e c93b c72b 1dbd 1f46 b43d
00000380: 2aa5 98bd 69b8 82bc e3ae 16bd b24e 94bc
00000390: f9e6 943d 0f24 9c3d b9b8 bebd 8060 e03c
000003a0: 274f a4bc df16 05bd f232 bbbb 616f 02be
000003b0: 99f8 a03d 484b 703d 3d14 49bd 8d3b 8ebd
000003c0: 1a0c d8bd 56e0 34bd e349 7dbc f786 c13c
000003d0: cec6 a5bd 7a5d 5b3d 9209 3a3d 8dd3 6dbd
000003e0: 1fea fdbc b900 46bd 9aec 9f3d ddda 8dbd
000003f0: 879d 703b 6a72 3cbc af18 183e 0124 5abc
0.049775053 -0.00055907166 0.054927558 -0.057318106 0.07043289 -0.077227056 0.0059166816 0.0052862945
0.080840394 -0.06965839 -0.117648326 0.10561259 -0.06497484 0.12354987 0.036789242 -0.093379065
-0.019963998 -0.06664369 0.019377979 0.088453345 0.10422812 0.029502187 -0.0869179 0.088619635
-0.102817185 -0.04065635 -0.108675584 0.09899778 0.123117805 -0.064128056 -0.061743543 0.08426885
0.0464981 0.08270704 -0.019741017 -0.119318746 -0.06531968 -0.08338463 0.04880509 -0.0023867555
-0.022283494 0.07607384 0.11963059 -0.079935215 0.09717835 0.1280819 0.09917452 -0.006014145
-0.0150517775 -0.03971256 0.11342714 0.0924694 -0.097224616 -0.09093635 0.056867767 0.03983072
0.08471567 -0.12512155 0.061232623 0.011905952 -0.054185852 -0.092839636 0.019558048 0.03584841
0.049310368 0.01584459 -0.018752126 -0.0012168615 0.04440366 0.0078029335 0.05467332 0.05204544
0.04825189 -0.042394638 -0.06746091 0.017507687 -0.033606976 0.074615136 0.08544937 -0.040211756
0.12198767 -0.103007965 -0.14157504 -0.11885226 0.06903483 -0.024399288 0.08780003 -0.069528736
0.1229354 0.100354925 0.089389086 -0.072913416 -0.17108811 0.1155449 0.06860548 0.06834708
0.054292392 -0.022037288 0.09804069 -0.06845963 0.05897909 -0.119753316 -0.1396408 0.0049269604
0.003438034 0.05051523 -0.044658367 -0.0032631806 0.029460082 0.15975937 0.014642375 0.066780694
-0.046841923 -0.08268225 0.14235358 0.0057892455 -0.012671871 0.1445164 -0.089802034 -0.0061571496
-0.012529878 0.16457029 -0.13015422 -0.1066018 -0.00945569 -0.029011827 -0.07147807 -0.045763303
-0.058211833 0.06041033 0.042363063 0.029660912 0.050808784 0.010224487 0.007634407 0.031062298
0.10536811 0.0632694 0.09373698 0.008137345 0.022558017 0.060411375 0.089274906 0.09633002
-0.11008512 0.031843342 -0.06451443 -0.110377915 -0.1398761 0.08655945 0.062428903 0.036260203
-0.10472386 -0.09241477 -0.018254705 -0.024650626 0.08847186 -0.07689123 0.010777944 -0.07594741
0.11467704 0.08395911 0.14662458 0.015540603 -0.1188567 -0.013879114 -0.061220527 0.03382717
-0.040837914 -0.07215178 -0.08858691 0.0516656 0.0052907844 0.008605962 0.08580143 0.059611913
-0.13170588 -0.13612828 0.09507821 0.12309946 -0.013943687 0.14123237 -0.08818818 -0.051442787
-0.02682708 0.02477094 0.047233235 -0.07542839 0.11611452 -0.058978584 0.053328127 0.100945786
-0.09095449 -0.02653631 -0.006237668 0.08677076 0.13746788 0.13316889 0.07453075 -0.050560273
0.13957967 0.060743798 0.111721955 0.0074356548 0.08886174 0.01986328 0.07100239 -0.06725698
0.094110854 -0.11060365 0.1157257 0.008574267 -0.047561593 -0.12552662 -0.11313548 -0.030560719
0.052198954 0.07911037 0.05504058 0.044996675 0.13036051 0.0061376733 -0.038371827 0.08802437
-0.074533775 -0.015957074 -0.03678788 -0.018103931 0.07270617 0.07624065 -0.09312577 0.027389765
-0.020057274 -0.032492515 -0.0057128603 -0.127378 0.07859916 0.058665544 -0.049091566 -0.06944952
-0.10549183 -0.044159256 -0.0154595105 0.023623927 -0.080945596 0.053555943 0.045419283 -0.05806308
-0.030995427 -0.048340533 0.078088 -0.069265105 0.0036714987 -0.011501888 0.14853166 -0.013314248

weight_hh_l0 f4 [192, 64]
00000000: 8cab 0bbe 11a3 f43c 17bd ebbd 354d 6b3d
00000010: a4cd f13d 3eef e6bd b819 afbb ca0d 1c3e
00000020: 89c6 123d acd6 a8bd 886e a9bd 409a 9e3d
00000030: 967c fa3c fe20 4c3d 8543 92bd fb82 02bb
00000040: bab0 a5bd 0d39 f73d d4e0 abbd 9c3e d3bd
00000050: 12c9 6a3d 119d 1bbd 707b 413d f079 c33d
00000060: 3f75 e0bd 8d77 25bd 54b7 573d ff63 293a
00000070: cfb0 b7bd 8c59 103e 9051 9b3d a4c3 1e3e
00000080: fdd1 8f3d 2d9f cfbc c2d5 7c3d e4ac a7bd
00000090: 4b58 d43d f9fa 9ebd ffbd 9f3c c931 be3d
000000a0: 3330 973d ea97 d23d b774 b23c e3d4 e0bd
000000b0: 2a18 983d 85b5 e43c 29e0 913d 7055 8b3d
000000c0: 9705 f13d 31e6 d93d 6842 40bd 781c 83bb
000000d0: 07ec 0e3c 08bd aa3c 943d 8e3d 7d9c bf3d
000000e0: be25 cc3d aa59 3dbd 020b dd3d a71e babd
000000f0: 6667 c13d 4bdf cebd f2d8 b0bd 2240 a5bd
00000100: 8c2a 94bd 6291 a33d 43ac a13d 1b5e 593c
00000110: 4915 fd3d 814c 4c3d 4a15 2ebc 1a15 c83d
00000120: 4dd1 853a 4819 9d3d 187c b4bd ccef 1bbe
00000130: 62df 013e 6750 a0bd fb39 15bc c960 c13d
00000140: 7d23 57bc ff6e b93d 182f f43d 8a74 e13d
00000150: 8599 bebd 9c74 76bc d37c 863c a61e 903c
00000160: e316 d03d 6fae a03c cf23 1a3a e1e4 b33d
00000170: 7894 b9bc 549d 36bd f2b7 41bd d59c c1bd
00000180: 2b0c d6bd e0f8 02be 4ce6 523d bbc2 b33d
00000190: a7d4 cc3c 0e86 c03c 04a6 b03d efc2 d2bd
000001a0: d4c1 06bc 8c74 9bbd 5824 ea3d affa 323d
000001b0: 24e0 963d 6be1 a13d 424b 72bd 19a6 a73c
000001c0: 8472 1cbd a3c6 bdbd 97d2 53bd 7e70 183c
000001d0: 00c5 1dbe a24c 88bd c980 af3c cce7 96bd
000001e0: 941c f73c adfe b83d 13d1 bfbd 05de 753c
000001f0: fdd4 0d3d 631f da3d 23b3 ddbc 1f02 8ebd
00000200: a746 0fbe 4cb2 1c3d d664 d4bd 95fc 00be
00000210: ad35 90bd 09ca 993d 65c6 e43c 83e2 16be
00000220: ab54 53bc b9c8 f13d 4281 083d cbe4 983d
00000230: d0be dabc 3b32 69bd e029 f7bd cfbe 9b3d
00000240: b185 03bd 3647 e03d 5bc5 cbbc 3ae1 0bbc
00000250: cba3 cc3d f388 b63c 4e1d 843d 2970 b03c
00000260: c2e8 6e3d 853b 8dbc 68bb 95bd 4dd6 f33a
00000270: b3d0 acbd 8dfc 04be 1312 f93c 2161 133d
00000280: 1f1a 003c 43e1 683d 4482 a73d 2c29 6c3c
00000290: 9d3d a3bd 3fe2 6bbd 04f7 5bbd fddc 973d
000002a0: 7d30 a6bd 0f8c 0fbe a849 5bbd 7c34 e8bd
000002b0: 5266 2fbd de4f 663d e1fb 0b3d b3b0 d03d
000002c0: 68d9 1ebe 81ff 87bc 761b 043e ca36 973d
000002d0: aa32 bdbd c400 15bd 147c efbd 8d59 b8bd
000002e0: dd1b 963d 54fc 45bc ce56 13be 2256 603c
000002f0: c62f 03bc 7874 91bd 6b4d 423d 62e3 8ebc
00000300: 6c78 b33c a31a aa3d f940 303d 0dbd 00be
00000310: b28b 603d 7e3d c13c 07e5 b0bb ef31 1fbe
00000320: df09 913d 4c59 f2bc 2c06 eb3d dc56 d13d
00000330: 7bbf 023d f9bf 9fbd 88ac 88bd 2ccb 4f3d
00000340: ea01 a5bd 369d 033e 8736 583c 579b b1bd
00000350: 9d81 87bd 1ae1 d5bc c780 c3bd dc6b 28be
00000360: e326 2bbd 948b a2bc ac57 943d 904e adbd
00000370: 04ca 14be 9ecb 5b3d d19f 2bbd e7e1 baba
00000380: f426 a9bd 3278 663d 77c1 d33d b088 6f3d
00000390: cf87 0b3d 1053 d6bd a436 073d 50ba c63a
000003a0: d35d 0f3e 6e5d 263d dc84 2b3c d7b8 cabd
000003b0: 44a9 0d3d 5747 1abd 7da2 7cbc 73a5 3cb9
000003c0: dd08 c4bd ae1e 673d 202c 033e 3378 103e
000003d0: a894 6b3d b220 bebc 6288 9cbb f820 fe3c
000003e0: 48cc 263c 8f11 e83d c807 bcbd ac77 0a3d
000003f0: a74f 3fbd a968 4b3d a6d0 cb3d 9db0 08bd
-0.13639659 0.029862912 -0.115106754 0.057446677 0.11806801 -0.112761006 -0.005343642 0.15239635
0.03583387 -0.082440704 -0.08273035 0.077442646 0.030576985 0.04983615 -0.071417846 -0.0019914496
-0.080903485 0.120714284 -0.08392492 -0.10314676 0.05732066 -0.037991587 0.04723686 0.09544742
-0.10959863 -0.040397216 0.05266507 0.0006461739 -0.089692704 0.1409666 0.07583916 0.15504318
0.07022474 -0.025344456 0.061727293 -0.08187273 0.10368403 -0.07762713 0.019499777 0.092868395
0.0738224 0.102828816 0.02178417 -0.10978105 0.07426484 0.027918587 0.07122833 0.06803405
0.11768644 0.10639609 -0.04693833 -0.0040011965 0.0087232655 0.02084209 0.06945339 0.0935602
0.09968136 -0.04622809 0.10793115 -0.09087878 0.0944355 -0.101011835 -0.08635129 -0.08068873
-0.07234678 0.07986714 0.078941844 0.013267065 0.123575754 0.049877647 -0.010625193 0.0976965
0.0010209471 0.07670838 -0.088127315 -0.15228194 0.1268287 -0.078278355 -0.009108062 0.094422884
-0.01313102 0.09054374 0.11923045 0.11008556 -0.09306625 -0.01504245 0.016416943 0.01759274
0.10160615 0.019614426 0.00058799697 0.087838896 -0.022653803 -0.044583634 -0.047294565 -0.094537415
-0.104515396 -0.12790251 0.05148916 0.08777376 0.025003744 0.023501422 0.08625415 -0.10291087
-0.008224923 -0.07590589 0.11432713 0.0436961 0.0736697 0.07904323 -0.059153803 0.020464944
-0.038195148 -0.092664026 -0.051714506 0.009304164 -0.15407181 -0.066552415 0.021423714 -0.073684305
0.030164994 0.090329506 -0.093660496 0.015006547 0.03462695 0.10650518 -0.027062958 -0.06933998
-0.13991795 0.038255975 -0.103707954 -0.12596352 -0.07041488 0.07509238 0.027926633 -0.14734845
-0.012898604 0.11805863 0.033326395 0.07465514 -0.026702315 -0.05693267 -0.12068534 0.07604753
-0.03210992 0.109510824 -0.02487438 -0.008537585 0.099921785 0.0222821 0.06450902 0.021537857
0.058327444 -0.017240295 -0.073111355 0.0018603295 -0.08438244 -0.12986965 0.030404126 0.0359813
0.007818728 0.05685545 0.08179143 0.014414113 -0.07970736 -0.057588812 -0.05370237 0.07415197
-0.08114717 -0.14018272 -0.05353704 -0.113381356 -0.04282219 0.05622851 0.034175757 0.10189953
-0.15512621 -0.016601326 0.129011 0.07383497 -0.09238179 -0.036377683 -0.11693588 -0.090014555
0.07329533 -0.0120840855 -0.14388582 0.013692411 -0.008006996 -0.07102293 0.047437113 -0.017442409
0.021908008 0.08305862 0.043030713 -0.12572117 0.054820724 0.023588892 -0.005398396 -0.15546392
0.07081961 -0.029583596 0.114757866 0.10221645 0.03192089 -0.07800288 -0.06673533 0.05073087
-0.08057006 0.1285294 0.013196594 -0.08672207 -0.06616519 -0.026108313 -0.09546047 -0.16447395
-0.041785132 -0.019841947 0.072432846 -0.0846225 -0.14530188 0.05366098 -0.04190046 -0.0014257998
-0.08259383 0.05626697 0.10339635 0.058479965 0.034065064 -0.10465062 0.033011094 0.0015161727
0.14000635 0.040616445 0.010468688 -0.09898537 0.034585252 -0.03766569 -0.0154196 -0.00017990712
-0.09572003 0.056425743 0.12809801 0.14108352 0.057514817 -0.02320895 -0.0047770003 0.03102158
0.01018054 0.11331474 -0.09181172 0.033805534 -0.04670682 0.04966036 0.09951906 -0.033371557

bias_ih_l0 f4 [192]
00000000: bdc2 e4bd ecdd 23bd f567 093d b65d 2abd
00000010: 180f 073e 8206 e1bc 759a 33bd 6593 153e
00000020: 795f 8a3d 0d9e 5b3a 31eb 373d 340b c33d
00000030: 1317 f4bc 9e2a 1dbd 542c 163e 328c 133e
00000040: 232f fcbd 70c1 37bd 07dd 8dbd b657 053e
00000050: 7b8d 14bd a508 33bd e8c9 423b 7747 1b3e
00000060: ec2e a8bc c6f3 adbd 0a96 123e 9368 03bd
00000070: 7c28 f93d 38a0 423b 16bc e03d 0be8 843d
00000080: bcad eb3d 5e70 2a3d 4af9 95bd 78a5 843b
00000090: e90b 98bd 2e69 80bd 3f53 473d 5411 823d
000000a0: a430 543d ac0d e93d 84d6 843d 5239 c33d
000000b0: 4040 883a f70a 12bd 23fc 173e 49a8 893c
000000c0: 580b 123e f1fe af3a 514d 913d d480 de3d
000000d0: f3f6 89bd 8bc4 9abd c62c 203e ac90 8ebd
000000e0: 1a6b 173d 8db0 2e3e cf59 46bd ec32 04bd
000000f0: 51d8 0a3d 5930 3b3b 7e59 d3bb 5427 043d
00000100: c7c2 fdbd 5242 0dbe eecf 8f3d bb9e 963d
00000110: 32ea 3ebd 89e1 863d 1442 a8bd 33ee cbbd
00000120: 7c51 01be 87e3 053d e662 a3bd f8e4 fabd
00000130: 4826 00be cc35 0abd be71 12be c565 5a3d
00000140: 97e3 8dbd 720f afbd a1b2 8b3d 4226 463d
00000150: b815 5abc 4b63 ad3c a45d 12be 7b49 3a3d
00000160: 712b e3bd 9ccb 813d c3bc 11be 5e91 cabc
00000170: 402c 16bd 9b16 953d 84c8 1e3d 1655 35bc
00000180: 3c6d 2fbd fac8 acbd e121 06bd 6af4 a63c
00000190: 5faf 4dbd f09f 0fbd ef8c 20be afbe 93bd
000001a0: 3c3d 283d 9a69 9f3a c973 c1bd 0e84 2cbe
000001b0: bf4a aa3d 106f 4bbd df74 173d 3417 c6bd
000001c0: e862 97bd e83f 2dbe c52b 333d b706 c7bd
000001d0: 0e85 81bd 950b ae3c 1bd0 9a3d 3d0a afbc
000001e0: e21a 9abd 0bef 8ebd 09d5 32be 2c9b a6bd
000001f0: 6817 093c 4f9e 1f3d ce3c eebc 138f e13d
00000200: 42db 1dbe 2f62 f2bc 262d c63c 5366 d83d
00000210: 07b2 0e3e ee93 92bd 8cd6 d93d 46e1 83bd
00000220: f88a 293e c60f 823d d434 ff3c a378 fe39
00000230: 6a3d 99bd 72f7 883d 42ac c23d eb95 e83d
00000240: efc8 12be 50ea 093d 1b3b 913d 5ff4 37bc
00000250: 02de 563d bfb7 a4bb 80b2 993d a416 d93c
00000260: 1391 9cbd 1393 1a3e df2a bc3b 329c 213e
00000270: 9916 68bc e330 b73d 29ff a0bd c4e7 76bd
00000280: 321d 18be c32b e33b baea 1a3e 9fae e13d
00000290: c0d7 cc3d 69f1 273d 6ee7 f83d 3de6 56bd
000002a0: 2d2a 60bd e9ab 50bd ebf2 0e3e ca49 1abe
000002b0: 9d2c 603c 6a1a 51bd c433 ed3d f58b 03be
000002c0: 884a 9b3d 9c03 20bc d2f5 6f3d b899 253e
000002d0: 2c1e efbd 1ab6 36bd a851 a2bc eac5 733d
000002e0: 7137 eb3c c3f9 3c3d 9dcb a5bd 72a7 9e3d
000002f0: 1184 3f3d dae4 aabc 110a e33c 7dc9 1cbd
-0.11169956 -0.040006563 0.033546407 -0.041593276 0.13189352 -0.027468923 -0.043848474 0.14607008
0.06756491 0.00083777384 0.04490203 0.09523621 -0.029796159 -0.03837072 0.14665347 0.14408949
-0.12313678 -0.04486221 -0.06926923 0.1302174 -0.03626774 -0.043709416 0.0029722396 0.1516398
-0.020530187 -0.08493762 0.14315048 -0.03208215 0.12165925 0.0029697549 0.109733745 0.06489571
0.115077466 0.041611068 -0.07322939 0.0040480457 -0.07424147 -0.062700614 0.048663374 0.06350961
0.0518042 0.11379561 0.06486228 0.09532417 0.0010395125 -0.03565499 0.14842276 0.016803877
0.1426214 0.0013427419 0.07094825 0.10864416 -0.06736555 -0.07557019 0.1564208 -0.06961188
0.036967374 0.17059536 -0.048425492 -0.032275125 0.0338977 0.0028562753 -0.0064498773 0.03226407
-0.123906665 -0.1379483 0.07022081 0.07354494 -0.046610065 0.06585986 -0.082157284 -0.09957542
-0.1262874 0.03268769 -0.07977848 -0.122507036 -0.12514603 -0.03374271 -0.14301202 0.05331971
-0.06928175 -0.08547868 0.0682118 0.04837633 -0.013310842 0.02116551 -0.14293534 0.045480233
-0.1109227 0.063376635 -0.14232163 -0.02472752 -0.036663294 0.07279702 0.038765445 -0.011067649
-0.042828783 -0.08436771 -0.032747153 0.020380218 -0.050216075 -0.035064638 -0.15678762 -0.072141044
0.041074023 0.0012162209 -0.094459124 -0.1684725 0.08315038 -0.049666464 0.03697669 -0.096723944
-0.07391912 -0.1691891 0.043742914 -0.09718078 -0.06324206 0.021245757 0.07559224 -0.021367187
-0.07524659 -0.069791876 -0.17464079 -0.081350654 0.008367397 0.038969334 -0.029081728 0.11013617
-0.15415671 -0.029587833 0.02419145 0.10566392 0.139351 -0.071571216 0.10636625 -0.06439452
0.16556919 0.06350665 0.03115312 0.00048536537 -0.07482417 0.066878214 0.09505512 0.113567196
-0.14334463 0.033670723 0.070913516 -0.011227696 0.052457817 -0.005026787 0.07504749 0.026500054
-0.07644858 0.15095167 0.0057424153 0.1578224 -0.014165544 0.08944871 -0.07861168 -0.060279623
-0.14854887 0.006932707 0.15128604 0.110196345 0.100020885 0.04100171 0.12153517 -0.052465666
-0.054727722 -0.050945196 0.13959853 -0.15067211 0.013682512 -0.05105058 0.11582139 -0.12846358
0.07582575 -0.009766486 0.058584042 0.1617192 -0.11675677 -0.04460726 -0.019814327 0.059514917
0.02871296 0.04613663 -0.08095477 0.077467814 0.046756808 -0.020861078 0.027714761 -0.03827809

bias_hh_l0 f4 [192]
00000000: 1acd 66bd 268e 0c3d 3776 d93d ad58 a4bc
00000010: 805d 41bd bc46 27bd 1823 a7bc fa08 5d3c
00000020: 6e6d 8c3c 7f4f 913c adcf 803c 605f 1e3d
00000030: cf90 433d 9098 85bd 7f86 72bc ae34 74bd
00000040: a08d c3bd 41f5 bf3c abb6 95bd 906c 1dbd
00000050: d438 e1bc a64a 023e 35f7 91bd ca4a 86bc
00000060: 0099 443d 6eef 153e 1014 7dbd 4d94 1f3e
00000070: 5c7e 103d 36bc 093e dce1 913d 6b51 06bc
00000080: 23f6 413d 22cf 9cbd be2f 5e3d f967 483d
00000090: 335b 96bd e822 cfbd 9a28 d43d 0136 653d
000000a0: cba2 8fbd 2896 923c f2e7 c13d 4634 873c
000000b0: 26f2 3e3d b470 f0bd 92dc e93d c45b 8a3d
000000c0: edb0 073e fd94 263c ec84 e03d 89dc 0cbc
000000d0: 2be3 1ebd d475 343c 7fcb 08bd 4cec 873d
000000e0: 899c 8dbc 5db2 823d 8f7f ba3c 403a 2b3d
000000f0: 83cf 8cbc 8068 eb3d f9fc af3d b1d1 933c
00000100: 74ab b93c d141 18be e209 893d b526 683d
00000110: 5dc7 6cbd b708 9b3d 5d09 963d 9d95 12be
00000120: c12e 533b 175d e03c 8374 a6bd b71a f8bd
00000130: d98c 2fbe 90f6 e8bd 7afd f0bd 5a08 2dbe
00000140: 0f7e 9a3d 1826 8dbd d22d 47bd f88d 963d
00000150: 13ae 84bd 290d d7bb 8f89 bc3d 9244 a2bd
00000160: e36d a63d ec56 17be 7860 3dbd f15d 29be
00000170: bf8c 98bd 8298 0cbe 0f73 193c a2bc 083d
00000180: 2cca 0e3d d187 dabc 6676 213d fbb7 5dbd
00000190: ecd6 fabd 1427 10bd 4a25 24be e85b 253d
000001a0: 2ff6 25be 6d28 81bd 6b92 2f3d 6cf2 5c3c
000001b0: d3f3 53bd c0ce fa3c 0b9c 8e3d b010 f5bd
000001c0: 9f43 59bd 804d d5bd 48ff a23c db15 48bd
000001d0: e3cc c4bd c9c7 b93d 1899 083d d5e1 e03a
000001e0: a665 b2bd c7e3 5bbd d2d6 833d 3a78 c5bc
000001f0: 4167 e9bd 45cd a9bd 0582 f4bd 46bd 29bd
00000200: 5d2d 9f3d c7fd 2bbe a1d2 613d ce60 1d3c
00000210: 4a87 883d 6acd 8cbb 50d0 673d d0a0 dc3d
00000220: 4960 b43c ef84 ba3c 627b 073e 73e2 d63d
00000230: 4966 3fbd 1bae 3d3d 4b40 2e3d f445 7d3c
00000240: 8a8c c03c d433 8abd 74fa a13d cfc2 86bd
00000250: a459 e2bb 9236 0fbe 2191 13be 6489 1cbc
00000260: f8af 45bd 01fc c63d 98b4 f13c 2908 fc3d
00000270: 6f22 edbb 8f46 c13d 8f2d f03c bd6b d63d
00000280: 75c5 e1bd 17b5 023e 9613 ad3d c227 153e
00000290: a8c2 323d ffb9 6d3d 9f8b 433d c44a bd3d
000002a0: 5501 a0bd 760a 0ebe 3664 493d 18df bfbc
000002b0: 79eb da3d 665e 1f3d 4a23 263e aff7 ed3c
000002c0: 0d4b 0bbe cb0f dfbd 9ef2 283e a9a8 353d
000002d0: 9ef8 96bc dafe 853d b5b5 0cbd 0248 f33d
000002e0: 7699 1f3d 0d2e 273c 874c 27be c307 02be
000002f0: 9b60 d9bc c73f 843d a12b 7f3d c6bf 713c
-0.056347944 0.03431525 0.10618251 -0.020061815 -0.04720831 -0.040838942 -0.020402476 0.01349091
0.017142024 0.017738102 0.015724028 0.038665175 0.047745522 -0.065232396 -0.014802574 -0.05962055
-0.09548497 0.023432376 -0.07310232 -0.03843361 -0.027492918 0.12723789 -0.07127229 -0.016393084
0.047997475 0.14642116 -0.06178671 0.15583916 0.035276756 0.13450703 0.071231574 -0.0081981225
0.047353875 -0.07656695 0.05424475 0.04892728 -0.073416136 -0.1011408 0.10359307 0.055959705
-0.07013472 0.017893866 0.09468068 0.016504418 0.04661765 -0.117402464 0.114190236 0.06755784
0.13251086 0.0101673575 0.10962853 -0.008597502 -0.038790863 0.011014421 -0.033397194 0.06636867
-0.017286556 0.06381676 0.022765903 0.0418036 -0.017188793 0.11494541 0.085931726 0.018044325
0.022664763 -0.14868857 0.06691338 0.05667754 -0.057807315 0.075700216 0.07326005 -0.14314885
0.0032223912 0.027388139 -0.081276916 -0.121144705 -0.17143573 -0.11375153 -0.11767097 -0.16897717
0.07543575 -0.068920314 -0.048627682 0.07351297 -0.064785145 -0.006562848 0.09205925 -0.07923235
0.08126428 -0.14779252 -0.046234578 -0.16539742 -0.0744872 -0.13730052 0.009365811 0.03338302
0.034860775 -0.02667609 0.039419554 -0.054130536 -0.12248024 -0.035193518 -0.1602985 0.04037085
-0.16207193 -0.06306539 0.042864244 0.013485532 -0.0517462 0.030616164 0.069633566 -0.119660735
-0.053043004 -0.104151726 0.019897118 -0.048848968 -0.096093915 0.09071309 0.033349127 0.0017157147
-0.08710794 -0.053684022 0.06437458 -0.02410518 -0.11396647 -0.08291105 -0.11938862 -0.04144027
0.07772324 -0.16796027 0.055132512 0.0096056 0.06666429 -0.004296948 0.056595147 0.1077286
0.022018569 0.022768466 0.1323066 0.104924105 -0.046728406 0.046308618 0.042541783 0.015458573
0.023504514 -0.06748167 0.07909098 -0.065801255 -0.0069076587 -0.1398566 -0.14410831 -0.009554241
-0.04826352 0.09716035 0.02950506 0.12306244 -0.007236771 0.09437286 0.029318599 0.10469768
-0.1102399 0.12764393 0.08451001 0.14565948 0.04364267 0.058038708 0.047740575 0.09242776
-0.07812754 -0.13871178 0.049167834 -0.02342181 0.10689444 0.038908385 0.16224399 0.029048769
-0.13602848 -0.10891684 0.16498801 0.0443503 -0.018429097 0.0654275 -0.034352977 0.11878969
0.03896471 0.01020385 -0.16337787 -0.12698273 -0.026535323 0.06457477 0.062297467 0.014755195

weight f4 [1, 64]
00000000: 9d35 00be 24ba ccbd c40b a83c d813 5a3d
00000010: 5ce5 f83d 3a68 ffbd 4411 cc3d 07b2 6a3d
00000020: e3ed 553d b124 863d e1b3 d93d c31f 523d
00000030: 7699 1c3e 38d2 0b3e 00c6 1a3d d349 6e3d
00000040: b871 88bd eaae cc3d 990e 75bd 2c92 cbbd
00000050: 8b91 6cbd c4f5 98bd dde2 7bbd eff5 bcbd
00000060: f74c 59bd c81c f63d d77b 233e 4c62 7a3d
00000070: c50f ccbd dec9 46bd de9a fb3d 0e9c 003e
00000080: efd4 dbbd 747d 2c3e c34d a93d f8a2 af3d
00000090: 1fe2 0b3e da35 10be 06e5 8c3d b5c4 ad3d
000000a0: 4401 873d 0792 96bd 9ddb fa3d 3774 a8bd
000000b0: 1f8a b63d c98a fabd ac1c 803d eb11 19be
000000c0: 898d d8bd 6aaf acbd 3f14 e33d ca15 623d
000000d0: 8881 99bd 7182 c33d 48e4 c4bd 1d36 113e
000000e0: 810c a6bd 2e6d 033e ca3f e5bd 664b 98bd
000000f0: f435 bfbd c633 c4bc 1bc5 1e3e 08f4 ac3d
-0.12520452 -0.09996441 0.020513423 0.05324158 0.12153122 -0.124710515 0.09964231 0.057298686
0.05222882 0.06549967 0.10630012 0.05129982 0.15292916 0.13654411 0.037786484 0.058175873
-0.06662315 0.099943 -0.059828375 -0.099399894 -0.057755988 -0.07468751 -0.06149565 -0.092265956
-0.053051915 0.12017208 0.1596521 0.0611289 -0.09963945 -0.04853236 0.12285398 0.1255953
-0.10733973 0.16844732 0.08266785 0.08576006 0.13660477 -0.14083043 0.0687962 0.084847845
0.06592038 -0.07352071 0.12248919 -0.08225291 0.08913063 -0.122335024 0.06255469 -0.14948241
-0.10573871 -0.08431895 0.11087846 0.05519656 -0.07495409 0.09546364 -0.09613854 0.14180799
-0.08107854 0.12834617 -0.111938074 -0.07436256 -0.093364626 -0.023950469 0.15504877 0.08444983
