models/demo/checkpoint/trained_irdpg_100.pth (torch, 409362 bytes, 22 tensors)

weight_ih_l0 f4 [192, 64]
000000 34 dd 33 3d 3b 90 a0 bc e7 90 c0 bc 59 b6 36 bd
       0.043912128 -0.019600024 -0.023506595 -0.044607494
000010 5c 1a bd bd 2a 5c 86 bd a0 cd ad 3d 43 d6 f1 bd
       -0.09233543 -0.06560548 0.084864855 -0.11808445
000020 3b e4 98 bd f0 b9 42 3d 87 30 fe bb c6 a0 9e 3d
       -0.074654065 0.047540605 -0.0077572498 0.07745509
000030 c3 88 44 bd da 52 e8 3d 2c c5 13 bd 6f c6 bd bd
       -0.04798199 0.11343928 -0.03607671 -0.09266364
000040 ad 57 6c bd 3d e5 3f bb 91 10 ac 3d 28 42 ce 3d
       -0.0577008 -0.0029280924 0.08401597 0.10071212
000050 e1 f4 d3 3b 30 08 ba 3d 50 ba c5 bd b5 96 be bd
       0.006468401 0.09083593 -0.09654677 -0.09306089
000060 94 53 dc 3d d2 12 81 3d fc 6f 83 3d 44 6c 06 3c
       0.10758129 0.06302418 0.06417844 0.0082045235
000070 cc 4e 91 3d 6b 93 fd 3d 2c c4 cf 3d a4 fd ad bd
       0.070951074 0.12381633 0.10144839 -0.08495644
000080 1d 6f ae 3d 3e 0a bc 3c c2 ee 8f 3d 3d b6 cd bd
       0.08517287 0.022954103 0.07027961 -0.10044525
000090 da 17 86 3d 3e 32 bf bd 40 e1 1c 3d c7 1a c4 bd
       0.06547518 -0.09335755 0.038300753 -0.0957542
0000a0 d0 9e af 3c 84 b3 f1 3d 78 ed c2 3d c8 03 89 bd
       0.021438032 0.11801818 0.0951795 -0.06690174
0000b0 b3 cd 8b 3d 59 80 95 3d d0 b0 66 3b e8 d4 7b 3d
       0.068263434 0.07299871 0.0035200603 0.06148234
0000c0 b9 95 35 bc b4 db fd bd ea 99 cc bd e1 c3 20 bb
       -0.01108306 -0.12395421 -0.09990294 -0.0024530815
0000d0 51 24 2c 3d 44 05 e0 bd a2 ee 55 bb 7c 58 30 bd
       0.04202682 -0.10938504 -0.0032643457 -0.043053135
0000e0 26 17 8a bd da 17 d8 3d cb 29 19 3d 25 57 68 bb
       -0.067426965 0.10551424 0.037393373 -0.0035452333
0000f0 37 bd a0 3d c6 07 3b bc 11 f6 ec bd 45 40 a9 bc
       0.0784859 -0.011415428 -0.11570371 -0.020660529
000100 33 10 f6 3d b7 54 a6 bd 11 6c a5 bb cc 5d 24 3d
       0.120148085 -0.08121627 -0.005048283 0.040128514
000110 cf 6c d8 bd d7 ec dd 3d 93 bf d9 3d d0 93 37 bd
       -0.105676286 0.10836189 0.10632243 -0.0448187
000120 98 07 1a 3d 68 dc ba 3d 7b c0 5c bd 7d 5e 8d bd
       0.0376049 0.091240704 -0.0538945 -0.06902788
000130 f0 68 5d 39 c8 6d 7b bd 71 ae 38 bc ba b7 89 3c
       0.00021115295 -0.061383992 -0.011272059 0.01681124
000140 81 cd 96 bd aa cf f8 bd 93 49 fa bc fc 1a 76 3b
       -0.073634155 -0.12148984 -0.030552661 0.0037552705
000150 c5 d5 c0 bd af 55 9a 3d 1c ef 23 3d e1 9a 03 bc
       -0.09415773 0.07535874 0.040022954 -0.0080325315
000160 84 58 aa bb 12 65 ac 3d 28 56 5d 3d ce bf cc bd
       -0.00519854 0.08417715 0.054037243 -0.09997521
000170 7b 37 22 3d b6 b0 1f 3d 7c b1 04 be d8 81 ce bd
       0.03960369 0.038986884 -0.1295833 -0.100833595
000180 1c 97 cb bc df 34 48 bd b0 98 31 3d 3a 0c 98 3d
       -0.024852328 -0.048878547 0.043358505 0.07424207
000190 f2 cc 80 3d 0c 64 36 3d 47 c9 bc bd 7b 95 f2 3d
       0.0628909 0.044529006 -0.09218078 0.118449174
0001a0 28 af 09 3b 6d 76 0a bd fe 2b d3 bc 5a 27 1b 39
       0.0021008942 -0.033804346 -0.025777813 0.00014796612
0001b0 7c e5 e6 3d 25 66 fa 3c 0b 0b b8 3d 9b 6d 42 3d
       0.112742394 0.030566284 0.08986481 0.04746781
0001c0 e7 ae f0 bd 91 08 a1 3d 91 61 29 3d c9 fa a0 3d
       -0.1175211 0.07862962 0.041352812 0.078603335
0001d0 d3 8b a9 bd 51 f1 ea 39 bd 59 c7 3d 2f 4e 70 bd
       -0.082786225 0.00044811753 0.09733913 -0.05866831
0001e0 a9 22 ca bc 99 5e 23 3d 51 54 68 3d 49 a1 05 be
       -0.02467473 0.039885137 0.056721035 -0.13049807
0001f0 d4 55 eb 3d ac ac b1 3d 88 b7 97 3c e0 99 21 3d
       0.1149098 0.08675513 0.018520132 0.039453387
000200 19 78 fd bd 78 e7 2c 3d 23 b6 f7 bb e1 53 d0 3b
       -0.123764224 0.042212933 -0.007559554 0.0063576554
000210 4f 18 d2 3d e4 85 d2 3b 48 1b 81 3d 6e bc c4 bd
       0.10258543 0.0064246524 0.063040316 -0.096062526
000220 9c 0d 6f 3b 5a c3 ec 3d bf 98 94 bd 88 db c8 bc
       0.0036476618 0.11560698 -0.072556965 -0.024518743
000230 fd 0b 06 bd 11 f0 8b 3d 76 74 fa 3c ee 19 d9 ba
       -0.032726277 0.068328984 0.030573111 -0.0016563514
000240 87 66 92 3d 4b 91 a2 bd 9a b8 16 bc dd 1a cd bd
       0.07148462 -0.07937869 -0.009199286 -0.100148894
000250 4e e1 72 bd fe d4 ab 3d 34 06 3c 3d 39 37 f5 3c
       -0.0592969 0.083902344 0.045904353 0.029933559
000260 8f 72 b1 bd f0 e4 f2 3d ce 8b d3 bd e8 a2 45 bd
       -0.086644284 0.118600726 -0.103294 -0.048251063
000270 b4 66 da bb 5a 6e 0e 3d e2 54 bd bd 18 43 d1 bd
       -0.006665075 0.03477321 -0.09244706 -0.10217875
000280 da 3e 8f bd c2 f5 9e bd dc 52 03 bc 9d 6b e4 bc
       -0.0699441 -0.07761718 -0.008015361 -0.027883345
000290 76 b5 02 be fb e8 ee 3c 5e 0b 9a 3d 51 2a bd 3c
       -0.12764534 0.029163828 0.07521699 0.023091467
0002a0 ec 90 85 3b 7d 1c 75 bd be 4e a3 3b f3 ad bc 3d
       0.004076114 -0.05984162 0.004983752 0.09212866
0002b0 8e fd c9 3c 52 ff 90 3d 17 2a cc 3c dd 13 d5 3b
       0.024657037 0.070799485 0.024922414 0.006502612
0002c0 42 e0 dc 3d ff a4 12 bc 76 2b f1 3d 14 0a b9 bd
       0.10784961 -0.008950471 0.11775868 -0.090351254
0002d0 a0 e4 69 bb 98 31 7b bd 9c 79 91 bc 94 7a a2 bd
       -0.003568925 -0.061326593 -0.017758183 -0.07933536
0002e0 5a 64 e1 3d 83 97 68 bc f5 ca 8e bd 73 63 68 bd
       0.11005469 -0.014196279 -0.06972305 -0.056735467
0002f0 60 4d eb bd c5 32 8b bc f4 ba d6 bd b6 76 91 3d
       -0.114893675 -0.016991982 -0.10484877 0.071027204
000300 19 bc bf 3d b4 36 d2 3d b8 e6 5a bd 45 19 03 3d
       0.09362049 0.1026434 -0.053442687 0.03200652
000310 58 55 eb 3d d7 23 a4 bc 17 55 25 3d c3 5d bc bd
       0.114908874 -0.020036621 0.04036435 -0.09197571
000320 95 f4 27 bd 77 6d 1a 3d 69 37 49 bd b7 6e d5 bd
       -0.041004736 0.03770205 -0.04912511 -0.10421508
000330 af 21 87 bd ea f8 4a 3a 7a ca 81 bd 88 5e c3 3d
       -0.065982215 0.00077427796 -0.063374475 0.09539515
000340 4a e4 8c bd 09 93 a7 3d b4 a2 fa bd fd 9f 42 3d
       -0.0687948 0.081823416 -0.122380644 0.047515858
000350 de b9 0e 3d ed 8d 84 3d 07 08 88 3d 71 f7 97 3c
       0.034845226 0.06472383 0.06642156 0.018550606
000360 cc c8 cc 3d 06 bb c8 3d da b0 48 bc e6 62 0d bd
       0.099992365 0.09801297 -0.012249196 -0.034518145
000370 91 72 ff bc 7f b9 c6 bd ba ae d5 bd 2d 45 18 bc
       -0.03118256 -0.09703349 -0.10433717 -0.009293837
000380 97 ef e9 3d d0 85 c3 3d 4b e6 f3 bd 26 50 8c 3d
       0.11422651 0.09547007 -0.11909159 0.068512246
000390 cf 64 a8 bd d5 b8 f1 3c 32 b7 31 bd e5 6e 02 be
       -0.08222353 0.02950708 -0.0433876 -0.12737615
0003a0 4a bd 64 bd 95 e5 01 bd 10 6f cc 3b bd 49 bd 3d
       -0.055844583 -0.031713087 0.0062388256 0.0924258
0003b0 3c be d3 3d ef d4 b3 bd 50 c8 c6 3d 15 cb 9f 3d
       0.10339019 -0.08780848 0.09706175 0.07802407
0003c0 b0 4c af 3c 91 a4 ab 3d 61 ef aa bd 4a 76 ab bd
       0.021398872 0.08380998 -0.08346439 -0.08372171
0003d0 99 6e c2 bb b5 a4 24 bd 84 8e 28 3c 1b 46 a5 3d
       -0.0059335944 -0.04019614 0.010287885 0.08070012
0003e0 47 ce 30 bc 84 78 96 3c 7f 83 ae 3d 23 10 fb bc
       -0.010791368 0.018368013 0.08521175 -0.030647343
0003f0 0a ef d8 3d 2a 8d d7 3d a4 b6 cc 3d b5 d5 ed 3c
       0.10592468 0.10524972 0.099957734 0.029032568

weight_hh_l0 f4 [192, 64]
000000 50 b4 d7 bd 84 57 ca bd 73 ee 44 bd dd 19 f3 3d
       -0.10532439 -0.098799735 -0.048078965 0.118701674
000010 95 2f c2 3d a9 ef 45 3d d1 74 08 3d 44 8a b3 bc
       0.09481732 0.04832426 0.03331453 -0.021916516
000020 c3 b4 ed bd 5f 64 7a 3d 6d 62 6f bd e7 56 b7 bd
       -0.11606743 0.061130878 -0.058443476 -0.08952122
000030 44 e8 42 3d 3b a5 c0 3d 6e d3 89 3b ca 20 f8 bb
       0.047584787 0.09406515 0.0042061126 -0.007572268
000040 5d 52 e5 3d 57 64 d9 bc 7a e9 0e 3d 99 60 b4 3b
       0.1119735 -0.026537104 0.03489063 0.0055046794
000050 60 dc 0c b9 7e a8 2d 3d 95 86 3c bd db 50 84 bd
       -0.00013433537 0.042397015 -0.046026785 -0.064607345
000060 aa bd 6f bd 28 65 b4 bd 6d f7 f5 bb b7 58 9c 3d
       -0.058530487 -0.088083565 -0.007506302 0.076341085
000070 f2 d5 c5 3d 3b e7 2b 3d e5 c7 e8 bd 58 92 8a bd
       0.096599475 0.041968565 -0.11366252 -0.06766194
000080 cc a9 ab bd 0a 98 d7 3d 41 1d c9 bd 7d d3 ca bd
       -0.083819956 0.10527046 -0.09820033 -0.099036194
000090 c8 8c 64 bd 54 63 02 bd 77 2a 26 bd dc d4 71 3c
       -0.055798322 -0.031833008 -0.04056784 0.014760222
0000a0 3d 9c f0 3d f2 fa f9 bd 43 32 b3 bd 13 dc 6b 3d
       0.1174855 -0.12206067 -0.08749821 0.057582926
0000b0 95 29 bd bc d4 ba ab bd dd fe 17 bd f0 ab 9b bd
       -0.023091117 -0.08385244 -0.03710829 -0.07601154
0000c0 01 14 04 3d 6c dc 2f bd 37 94 71 bc ef f9 eb bd
       0.03224564 -0.04293482 -0.01474481 -0.115222804
0000d0 b6 47 92 3d 7e 1e fc 3c 02 c2 fc 3c ba 68 f8 3d
       0.07142584 0.030776259 0.030854229 0.1212935
0000e0 d7 9e 68 bd 07 45 ca bc 08 c3 94 3d e7 f6 df bd
       -0.056792106 -0.024691118 0.07263762 -0.10935765
0000f0 bf dc fa bd af 07 a1 3d b0 78 ca bd 5d d9 e2 bc
       -0.12249135 0.07862794 -0.098863006 -0.027691538
000100 95 7a d4 bd 23 d9 01 bd ea 3f 99 3d 22 e1 72 3c
       -0.10374943 -0.03170122 0.07482894 0.014824184
000110 30 c6 dc bd be 6b cb bd ce 11 88 3d 4b 30 c0 3d
       -0.10779989 -0.099326596 0.06644021 0.09384211
000120 9c 14 56 3d ce 89 bf bd 04 a8 ef 3c 7a bb cd 3d
       0.05226575 -0.09352456 0.02925492 0.10045524
000130 32 24 4f 3d 0f a5 cf 3d 66 c4 37 bd a0 fc 35 3d
       0.050571628 0.10138904 -0.044865035 0.044430375
000140 ee 8b a3 bc 75 8f 8a 3d 71 8d d8 bc 0c d2 00 3d
       -0.019964185 0.067656435 -0.026434632 0.031450316
000150 66 9f fb bd 38 ae e2 bd cb e7 bb bd ba b1 dd bd
       -0.12286262 -0.11068386 -0.091750704 -0.10824914
000160 90 d2 dd bc ce 60 83 3d 15 0f a8 bd 64 4a 4e 3d
       -0.027077943 0.064149484 -0.08206002 0.050363913
000170 87 f3 c5 bd b4 5a e0 3d 42 dd 91 3d cb 9e 7f 3d
       -0.0966559 0.109548 0.0712228 0.062407296
000180 8e ac 8e 3c ff 88 ca 3d 58 b2 7e 3d a7 0c 16 bd
       0.017416265 0.09889411 0.0621818 -0.03663316
000190 83 ca 10 bd f1 ba cf 3d 3f 52 c5 3d bf a7 d8 bd
       -0.03534938 0.10143078 0.09634828 -0.1057887
0001a0 ba be 3e bd 41 ed eb bc 50 c0 bb 3d 1d 66 1e bd
       -0.04656861 -0.028799655 0.0916754 -0.0386716
0001b0 f0 15 04 3e 7a bb 4a 3b 0f 06 ce bd cc 97 ea 3c
       0.12898993 0.0030934499 -0.10059749 0.028636836
0001c0 58 47 01 be e8 28 52 bc 1b ab 32 bd 8c 5e cc 3d
       -0.12624872 -0.012827136 -0.04362021 0.09978971
0001d0 be 4f 9e 3c 34 74 03 bc bc cf d5 3d e0 19 7c b9
       0.019325133 -0.00802331 0.10440013 -0.00024042232
0001e0 d1 34 ab 3d 46 07 ff bd a9 c9 c9 bd a6 c6 b4 bd
       0.08359683 -0.12452559 -0.09852917 -0.08826952
0001f0 15 92 c0 3d 39 c1 1e bd 6c 9d ad bc e7 55 0c 3d
       0.09402863 -0.03875849 -0.021193229 0.03426161
000200 c7 4a cc 3d 55 a8 8f 3d 53 7d 90 3c b6 00 82 3d
       0.099752 0.07014529 0.017637884 0.06347792
000210 af ef 80 3d 17 b2 5d 3d 37 d2 f0 3d cc 40 6e bd
       0.06295716 0.054124918 0.11758845 -0.058167264
000220 61 7a 20 3d 46 8e 8f 3c 25 5f cd 3d c9 49 e4 bd
       0.03917921 0.017523896 0.10027913 -0.11146886
000230 d4 8f 5f 3d 87 a6 81 bd ab 12 82 3c bf 35 5b bd
       0.054580525 -0.06330591 0.015878042 -0.053518053
000240 b1 bf 72 3c 34 be 8a 3c b6 4a 22 3d ed a4 eb ba
       0.014816211 0.016936399 0.03962203 -0.0017978229
000250 59 c2 ae 3d d7 0a ea bd 4c 40 9d 3d d6 bf 84 3d
       0.085331626 -0.11427849 0.07678279 0.06481902
000260 8c a4 cf bc 3f fe 3d 3d 22 db ee bd ba 7b ec 3d
       -0.025347017 0.046385046 -0.1166289 0.115470365
000270 2f 8c ee 3c e6 2f 53 bd a4 c2 d7 3d f6 75 53 3d
       0.02911958 -0.05155935 0.10535172 0.05162617
000280 d9 34 89 3c de 48 c8 3d 58 ec 7f 3d 1d 94 fb bd
       0.016748833 0.09779523 0.062481254 -0.1228411
000290 3b 03 9d 3d 95 de 8f bc db 1e aa bd cb e4 9f 3d
       0.07666632 -0.01756219 -0.083066665 0.07807311
0002a0 76 51 f6 bd 8a 69 ee bd e7 cb 58 3d d6 90 07 3d
       -0.12027256 -0.11641224 0.05292883 0.03309711
0002b0 c2 3e ea 3d e6 6c de 3c cd 2c 90 3c 62 f6 9b 3d
       0.11437751 0.027151536 0.017599488 0.07615353
0002c0 11 8d 22 3c 79 8c 7a 3d 83 ab 37 bd d2 f8 c1 bc
       0.009921328 0.06116912 -0.0448413 -0.023678217
0002d0 ac c0 cd 3d 0c 73 15 bb 24 51 7b bd 32 cf d4 bd
       0.10046515 -0.002280417 -0.06135668 -0.10391082
0002e0 5c 9b be 3c 2a e1 51 bc dc d6 61 3d 5a 50 c2 3d
       0.02326744 -0.012810031 0.055136546 0.09487982
0002f0 92 16 80 bd bb 9f d1 bd cf 00 b0 3d 64 79 67 bd
       -0.06254305 -0.10235544 0.08593904 -0.05651225
000300 37 73 78 bd 3a 55 0e bd a2 9b c1 bd 21 a0 dc 3c
       -0.060656752 -0.034749247 -0.09453513 0.026931824
000310 b3 e4 e8 bd 53 ca e6 3d 2a e9 c9 bd 95 b1 ec bd
       -0.11371746 0.11269059 -0.09858926 -0.115573086
000320 5e 4e 40 bd a1 43 83 3d 07 f9 c5 3d e1 70 98 bc
       -0.046949737 0.064093836 0.09666639 -0.018608512
000330 9c f9 90 3c 76 d5 77 bc e1 23 37 bd 83 76 c4 bd
       0.017697148 -0.015126577 -0.04471195 -0.09592917
000340 02 2e 7e 3d 5a 9c 9f bc f7 df 6b 3d 3e a3 fa 3c
       0.062055595 -0.019483734 0.057586636 0.030595418
000350 04 a8 ad bd e7 85 e8 3d 81 d0 63 bd f1 a2 cb bd
       -0.08479312 0.11353665 -0.055618767 -0.09943188
000360 39 b3 df bd cc d1 a7 bd aa 25 cf 3d 90 41 a8 bd
       -0.10922856 -0.081943125 0.10114606 -0.0821563
000370 78 34 00 3d 17 f6 a2 bd b2 17 3a bc f9 0d 40 3d
       0.031300038 -0.07957094 -0.011358188 0.046888325
000380 29 75 bc 3d c5 d0 60 3d 63 10 e2 bd 9c 84 d0 bd
       0.09202034 0.0548866 -0.11038282 -0.10181543
000390 9d 8d 8d 3d 3b 46 f5 3d 3f f2 5b bd 73 1b a6 3c
       0.06911776 0.11976286 -0.05369782 0.02027676
0003a0 5e e7 9a bd f0 6f c4 3c ff bf ce 3a 98 37 70 3d
       -0.07563661 0.023979157 0.0015773772 0.05864677
0003b0 82 b9 50 bd d9 33 40 bc 05 b4 e1 bc a4 40 7e 3d
       -0.050958164 -0.011731111 -0.02755166 0.062073365
0003c0 bb 31 d8 bd 02 80 c9 3d ac 87 25 3d c6 bd 96 bc
       -0.1055636 0.09838869 0.04041259 -0.018401038
0003d0 27 0d f7 bd fb 50 36 bd 38 80 d9 bd 51 10 9b bc
       -0.120630555 -0.044510823 -0.10620159 -0.018928679
0003e0 79 17 5c bd ba 33 4a 3d fb ed ed 3d fc 21 33 bd
       -0.053733323 0.049365737 0.11617657 -0.043733582
0003f0 7d 5f f2 3c c5 87 ac 3c cd 02 d9 3d 6b 68 cf bd
       0.029586548 0.021060834 0.10596237 -0.10127338

bias_ih_l0 f4 [192]
000000 5e 3e f7 bc e4 c3 38 3d 1d f6 b5 3d b0 fa b7 3c
       -0.030181106 0.04510869 0.08884833 0.022458404
000010 58 95 b4 bb 15 9f 48 bd 4e d6 17 3d d6 e6 6a 3d
       -0.005510967 -0.048979837 0.03706961 0.05734905
000020 d9 80 cf 3c a6 57 a8 bd 68 34 5a bd e8 72 28 bd
       0.025329994 -0.082198426 -0.053272635 -0.04112521
000030 13 f3 83 bd ff 03 91 3d e0 a6 41 bc 20 c3 e1 bd
       -0.06442847 0.0708084 -0.011819571 -0.11023545
000040 8c b8 77 3b 25 a3 ab 3d 5a ed 4b bc b3 da a6 bd
       0.0037799207 0.08380727 -0.012446726 -0.08147182
000050 1a 1a ba 3c 53 17 15 bd 2f 82 8b 3d b4 11 02 3e
       0.022717524 -0.036399197 0.0681194 0.12702066
000060 d8 90 81 bd e8 2f 8b 3d dd 50 15 bd 35 34 2b bd
       -0.06326455 0.06796247 -0.03645407 -0.041797835
000070 6b b5 31 3d 88 6c 10 3c f5 c8 f7 bc 07 ae 9a bb
       0.043385904 0.008814938 -0.030247191 -0.0047204527
000080 b0 ca 88 3d a8 b5 9c 3d 0d ee 94 3d df 30 c4 3d
       0.066792846 0.07651836 0.07271967 0.09579634
000090 07 e4 e0 bd 0d ee 95 bd bd 4d 64 3d 6d 03 c4 3d
       -0.10980993 -0.07320795 0.0557382 0.09570966
0000a0 9a d0 f0 bc ca fa 5a bc 14 22 d8 bd 39 d8 44 bd
       -0.029396344 -0.013365457 -0.10553375 -0.04805777
0000b0 7b da dd bd 62 08 cd 3d 7d 46 bb 3d 44 c9 d2 bd
       -0.108326875 0.100113645 0.09144304 -0.102922946
0000c0 ed 71 71 bd dd 4a 93 3d 79 6c 00 3d d0 fe 2f bb
       -0.05894654 0.071920134 0.031353448 -0.002685476
0000d0 c9 cb b0 bd 8f 39 e5 3d ec 37 26 bd ed 05 57 bd
       -0.08632619 0.11192619 -0.040580675 -0.052495886
0000e0 76 e4 b5 3c 79 c5 85 bd 0f d9 b6 bd 3f ed 3f bd
       0.022203665 -0.065318055 -0.089281194 -0.046857115
0000f0 19 0f 4e bd 0c 98 89 bd da b8 d1 bd 67 e2 2b 3c
       -0.050307367 -0.06718454 -0.10240336 0.01049099
000100 8b 72 9b 3d 60 8f fc bd 9b 2c 00 3d 0e 8b 94 3d
       0.07590207 -0.12332034 0.03129254 0.07253085
000110 ad 55 22 bc fd f6 e4 bd 2d f9 3f bc 24 92 c5 3d
       -0.009908122 -0.11179922 -0.011717123 0.09647015
000120 6b e4 31 3d 0a 9c e6 3c ed 5d e4 bd 41 b4 10 3d
       0.043430727 0.028150577 -0.111507274 0.035328154
000130 4b 15 b8 bc 1b d3 96 bd ea 7c 8d bd bb 1e d3 3d
       -0.02247109 -0.07364484 -0.06908591 0.10308596
000140 bf 65 69 bd e6 39 60 bc 16 bd 08 3d 95 85 7e 3c
       -0.0569818 -0.013685679 0.03338345 0.015534778
000150 fe d4 b8 bd 58 b6 a0 3d 97 20 cc 3c 48 0e 63 bd
       -0.09025 0.07847279 0.024917884 -0.05543354
000160 24 9f d4 3d 7a 8c a1 3c 7b b1 d4 3c de 76 ab 3d
       0.10381916 0.019720305 0.025963536 0.083722815
000170 1d d7 b1 3b 1a 98 db bc 27 31 f2 bd 4d ec 01 be
       0.005427255 -0.026805926 -0.11825781 -0.12687798
000180 8a 03 ce 3d 8f 29 04 be fc 52 a8 bd ca f2 89 3b
       0.10059269 -0.12906478 -0.08218953 0.004209851
000190 fd ab 21 3d 20 7f dc bd 2e a0 98 3d e4 50 9a bd
       0.03947066 -0.10766435 0.07452427 -0.0753496
0001a0 4b e8 0e bd 95 12 8a 3d 70 da a5 bd 0c d6 24 3c
       -0.0348895 0.067418255 -0.08098304 0.010060798
0001b0 c2 e2 42 3d 0b 8c ea 3c b2 50 1d 3d d1 1a b5 bd
       0.047579534 0.02863123 0.038407035 -0.088430054
0001c0 64 ee 3b 3d 49 5d 88 bd b9 95 33 3d 76 6f bc bd
       0.045881644 -0.06658418 0.04384396 -0.09200947
0001d0 14 fd 7c bd f3 67 d1 bd 1d 87 00 bd 9a d3 e1 bd
       -0.06176479 -0.10224905 -0.031378854 -0.11026688
0001e0 27 3e 80 bd 07 84 84 bd d0 f0 81 bd a5 d2 98 bd
       -0.062618546 -0.06470495 -0.063447595 -0.07462052
0001f0 d3 a4 9f bd 4b 85 c2 3d 88 34 cd 3d a3 3b d3 bd
       -0.077951096 0.0949808 0.10019785 -0.10314109
000200 3e 92 a0 3d f7 59 8a bd 93 44 ad 3b 9f 72 91 bc
       0.078403935 -0.06755441 0.0052877157 -0.01775485
000210 63 88 6a 3d 95 89 8d 3a 9e a2 49 bb a4 04 fe bd
       0.057258975 0.0010798449 -0.0030767093 -0.12403229
000220 b0 32 eb 3d 08 d2 e9 3d b1 45 f9 bc 33 28 4a bd
       0.11484277 0.114170134 -0.03042874 -0.049354743
000230 0a 61 38 bd db a3 3c bd e2 43 1d 3d ec 2c eb 3d
       -0.04501442 -0.046054702 0.038394816 0.114831775
000240 18 b3 6f 3d 53 2b 4a 3d 76 5f cc 3d 10 bb 95 bd
       0.058520406 0.049357723 0.09979145 -0.0731107
000250 9b 39 5d 3d 61 20 81 bb bd 98 fe 3c bd 8d 3e 3d
       0.054010015 -0.0039406274 0.03107869 0.04652189
000260 9f 3f a6 3d 84 cf ac 3d 19 33 37 3c 79 77 01 3b
       0.081176035 0.08438018 0.011181616 0.001975505
000270 d2 b0 e2 bc d3 be db bd 77 47 dc bd 8b 1e fe 3c
       -0.027672205 -0.10729756 -0.10755818 0.031020423
000280 c8 03 2b bc ce 9a b0 3d 1c 42 f5 3d 05 a7 85 3d
       -0.010437913 0.08623277 0.119755 0.06525997
000290 e5 90 01 3d a6 3c 0b 3c 93 49 a5 bd e8 d8 9e bd
       0.031632323 0.008498346 -0.08070674 -0.07756215
0002a0 e3 91 a0 3c e4 c7 ee bc 45 ef 38 3d 04 2e d0 3b
       0.019600814 -0.02914805 0.04515006 0.0063531417
0002b0 ab 30 fb bd e1 f1 de 3c 2b 58 f4 bd a1 52 ca bd
       -0.12265142 0.027214946 -0.11930879 -0.098790415
0002c0 4e 10 0d 3c 1d 78 3f 3d 22 59 1e 3c a4 cf a1 bd
       0.008609844 0.04674541 0.009664806 -0.079009324
0002d0 08 bd e6 3c d7 4e 35 3d df f0 88 ba ef 15 b4 bd
       0.028166309 0.04426464 -0.0010447762 -0.08793246
0002e0 ef 65 01 3d fe 94 e8 3d 95 32 88 3d a9 98 0d bd
       0.031591352 0.11356543 0.06650273 -0.034569416
0002f0 07 c2 e2 bc 41 82 9c 3d 98 01 ab 3a 1b a2 8b 3d
       -0.02768041 0.076420315 0.001304674 0.068180285

bias_hh_l0 f4 [192]
000000 d5 ca bc 3d f7 ca 66 bd fb e8 6f 3d ec 02 8f bd
       0.09218375 -0.056345906 0.058571797 -0.06982979
000010 9a e5 87 3d e1 b9 fe bd 29 ee ba bd ea 4b db bc
       0.0663559 -0.12437797 -0.09127457 -0.026769597
000020 b9 33 b1 3d 81 5a 1c 3d 52 19 ef bc b8 50 bd bc
       0.086524434 0.03817225 -0.029186878 -0.023109779
000030 28 8c 07 3d e3 95 c9 bd cf 53 fe bb f1 75 32 3d
       0.033092648 -0.09843042 -0.0077614556 0.04356951
000040 b2 8d 11 3c d7 26 fe bb 62 3b 5a bd 53 d9 90 3c
       0.00888388 -0.007756095 -0.053279288 0.017681753
000050 da 22 94 3d 04 ec e7 bd c9 a4 ee 3d 8b dd b5 bd
       0.0723321 -0.11324313 0.11652524 -0.088801466
000060 15 62 fa 3d 80 42 dd 3d b6 70 5f 3c 02 85 f1 bc
       0.12225739 0.108036995 0.013637712 -0.029482368
000070 5a e0 e8 bd 6c 61 27 bd 04 74 c0 bd cc e5 04 3e
       -0.11370917 -0.040864393 -0.09397128 0.12978286
000080 3d e6 3b bc d0 c8 f9 bc 55 96 bd bd ac 86 07 bd
       -0.011468467 -0.030491263 -0.09257189 -0.033087417
000090 85 8b f1 3d de 83 14 3d ca a1 bc 3d c3 1a 80 bb
       0.11794189 0.03625857 0.09210546 -0.0039094402
0000a0 23 b7 c7 3d 1f 58 49 bd 4a e8 b6 bd e0 20 aa 3b
       0.097517274 -0.049156304 -0.089310244 0.0051919073
0000b0 23 93 e8 bd 37 47 01 be e5 6d d8 bd ca ba b9 3d
       -0.11356189 -0.12624823 -0.10567836 0.0906883
0000c0 1f d5 ed 3d d9 e2 b1 bd fa 08 a7 3d d6 9c 90 3d
       0.11612915 -0.08685846 0.08156009 0.07061164
0000d0 81 ab 58 3d 07 2c a8 3d 87 ca e5 3d 4f 41 2d 3d
       0.052897934 0.082115225 0.1122027 0.04229861
0000e0 0b 09 f5 3d 69 72 c9 bd c9 9b 86 3d f1 a3 4d 3d
       0.119646154 -0.09836275 0.065726824 0.050205175
0000f0 2f af 95 3d d2 06 d2 3d 16 3f 7e bd 69 00 01 3e
       0.07308804 0.10255207 -0.062071882 0.12597813
000100 4f e1 8e 3d ba b3 c1 3d 31 22 76 bd fa d2 d7 3d
       0.06976568 0.09458108 -0.0600912 0.105382875
000110 bd 73 af 3c af f5 2a 3d 07 ff d3 bd b1 c9 10 bb
       0.021417493 0.04173821 -0.10351377 -0.0022092874
000120 81 48 ca bd 06 50 c2 bd be 1d fa 3c 7f 7c 4f bd
       -0.0987711 -0.094879195 0.03053176 -0.050655838
000130 95 9a a1 bc b5 91 77 3d 86 f8 4e 3a a1 6e dd 3d
       -0.01972703 0.06044169 0.0007895309 0.108121164
000140 89 b8 0e 3d 93 66 26 bc fb 8d fc bd ae d8 4e 3c
       0.034843955 -0.010156292 -0.12331768 0.012624903
000150 07 8f 6e 3d c5 2c 6b bd 14 ed 87 bd 12 4c a3 bd
       0.05824187 -0.057415742 -0.06637016 -0.07973494
000160 98 c5 02 3e 9c f3 ae 3d a3 35 e1 bd 10 b6 5b bd
       0.12770689 0.085425586 -0.109965585 -0.053640425
000170 19 15 c4 bd 15 a5 66 3d 0a 96 44 3d fa c2 6d bd
       -0.095743366 0.05630978 0.04799465 -0.058047272
000180 3f 5e 1a 3d 7c 49 6c bb d6 61 89 bc 75 41 47 bd
       0.037687536 -0.0036054542 -0.016770285 -0.04864641
000190 3d 05 dd 3d 82 28 a8 bd a2 51 95 3c f8 04 c2 3d
       0.10792015 -0.08210851 0.018227402 0.09473604
0001a0 c6 a0 8a bd 81 76 f1 3d 6e fd 66 bd d5 63 3b bd
       -0.06768946 0.11790181 -0.056394033 -0.045749504
0001b0 a6 02 41 3b 03 4c 03 3d a6 cb 18 bd 3f 62 af 3d
       0.0029451041 0.032054912 -0.03730359 0.08563661
0001c0 64 45 19 3d 97 8a cd bc f7 d4 87 3c 70 78 41 3d
       0.03741969 -0.025090499 0.016581042 0.047234
0001d0 8c 30 6e bd 12 4e 9b 3c ba b6 e5 bd af c1 89 3d
       -0.058151767 0.018958125 -0.11216493 0.06726395
0001e0 b1 47 a2 bd 75 20 57 3d 01 23 73 3d 96 8b 45 3d
       -0.0792383 0.052521188 0.059359554 0.048228823
0001f0 5b 5e c0 bd d6 13 7e 3c 30 53 5e 3d 11 7f d2 bc
       -0.09392997 0.015507659 0.054278553 -0.025695356
000200 3c 44 5c bd fa 77 ea 3d 27 bf e0 bd 33 2a c1 bd
       -0.05377601 0.11448665 -0.109739594 -0.09431877
000210 52 03 71 3d 68 3b 00 3d a2 89 4f bc fb 5c db 3d
       0.058841057 0.031306654 -0.012667092 0.10711094
000220 c6 f0 ab bd 32 3b a3 3d d9 eb 77 bd 7f 76 9f bd
       -0.08395533 0.07970275 -0.060527656 -0.07786273
000230 3d 00 bb bd 63 42 db bd d1 f2 c9 3b 27 9c 52 3d
       -0.09130905 -0.10706022 0.006162979 0.05141845
000240 99 a0 8e 3c 9e 34 e7 3d bf f9 d0 3d c0 91 9f bc
       0.017410563 0.11289333 0.10203885 -0.019478679
000250 ac a2 dd bd dc c1 c8 bd a5 02 1d 3d 35 bf 8a bd
       -0.10822043 -0.09802601 0.0383326 -0.06774751
000260 a0 14 6b bd bb 2f 8f 3d ca c3 ca bd 1b c1 1e 3c
       -0.057392716 0.06991526 -0.09900625 0.009689595
000270 da 6b 84 3b d8 fa f2 3d 78 2d f6 bc 4a 7a cb bd
       0.004041177 0.11864251 -0.030050978 -0.09935434
000280 28 7c dd 3c b8 dc ae bd 7b e2 e8 bd 27 ae f2 3d
       0.027036741 -0.085381925 -0.11371323 0.11849623
000290 22 01 c4 bd 85 81 5f 3d 8b ce 0a bb fd ef d2 bd
       -0.095705286 0.05456688 -0.0021180238 -0.102996804
0002a0 2d 62 6f 3d cd f2 aa 3d 2f 61 be bd cc ea 2b bd
       0.058443237 0.08347092 -0.0929588 -0.041971967
0002b0 35 6c 96 3d 5b 12 e2 3d 3a 8d 04 bd ed 68 c0 3c
       0.073448576 0.11038657 -0.032361247 0.023487533
0002c0 fa a4 c0 bd 9c 5b ba bd 5e ec 03 3d 80 60 dc bb
       -0.09406467 -0.09099504 0.03220784 -0.006725371
0002d0 4d fc 4c bd 2c e8 9a 3d b1 40 16 3c e9 3c 0d bd
       -0.0500453 0.075638145 0.009170697 -0.034481917
0002e0 20 96 cb bd f6 6d bd bd 6d ad 87 3c 08 e8 e4 3d
       -0.099407434 -0.09249489 0.016562188 0.11177069
0002f0 c3 24 3a 3d 8e e5 c2 3b a9 aa 06 3d f3 2a f9 3b
       0.045445215 0.005947775 0.032877598 0.007603997

weight f4 [2, 64]
000000 e6 00 e8 3d 3a 23 b7 bd 44 9e ef 3c c5 cf 58 3d
       0.11328296 -0.08942266 0.029250272 0.05293252
000010 4a 86 2d bd b6 7d af bd 08 44 96 bd b6 07 14 bd
       -0.042364396 -0.08568899 -0.07337195 -0.036140166
000020 8c c6 f0 bb 83 c1 84 bd 5c 62 5a bd c8 d5 1f 3d
       -0.0073478874 -0.06482222 -0.05331646 0.039022237
000030 bf 95 09 3a 0d 96 e8 3b d8 b2 74 bc f6 6b 46 bd
       0.0005248449 0.0070979656 -0.014935218 -0.048442803
000040 5f 50 e0 3d 7f 04 db 3d 57 1b 6a 3c 73 9b d1 3d
       0.109528296 0.10694217 0.014288745 0.10234728
000050 bf 76 f8 3d c4 52 0c bd 7d 6b e2 3d 65 07 d7 bb
       0.12132024 -0.03425862 0.11055658 -0.006562161
000060 36 6a ec 3d 18 98 8e bd cc dc 86 3d e2 0b fe bd
       0.11543696 -0.06962603 0.065850824 -0.1240461
000070 e4 2b a2 3d 80 d8 5e bd de e2 92 bd 25 1c 08 bb
       0.07918528 -0.05440569 -0.07172178 -0.0020768729
000080 11 e8 e0 3c 61 43 93 bd ac 98 bd bd bd b7 0c bd
       0.027454408 -0.07190586 -0.092576355 -0.034354914
000090 24 cc 85 bd 96 80 ca 3d a9 83 a2 bc 3c b9 b5 bd
       -0.06533077 0.09887807 -0.019838171 -0.08873221
0000a0 08 a0 96 3d 91 78 35 3d 7d 5f 8b 3d 81 80 40 3d
       0.07354742 0.044304434 0.06805322 0.04699755
0000b0 5f ea aa 3d 7f 15 92 bd f1 8c b5 3c d4 9b ed 3d
       0.08345484 -0.07133006 0.022161933 0.116019875
0000c0 79 ac 26 bd a6 32 02 bb 56 fc cf 3c 48 e6 b5 3d
       -0.040691826 -0.0019866615 0.025388878 0.08881813
0000d0 70 7b eb bd 03 96 2a bd 52 1e 49 3d be 5b ba 3d
       -0.11498153 -0.04164697 0.04910118 0.0909953
0000e0 b7 3e 3e bd 1e f3 8f bd 94 89 d4 bc 15 63 d2 3d
       -0.04644653 -0.07028793 -0.025944509 0.10272805
0000f0 ba 2b ad bd b5 30 39 bb 0a 9b 9e 3d 6d 8e a7 3c
       -0.08455606 -0.0028257791 0.07744415 0.020453656
000100 6e 45 cf bd e1 94 a4 3c cc c6 fb 3d d9 13 95 bd
       -0.101206645 0.020090522 0.12293777 -0.07279176
000110 a0 81 a2 3c 5a 2b ef bd 15 c3 36 bd c1 ec f7 3d
       0.0198372 -0.116781905 -0.04461964 0.12105704
000120 64 a5 8e 3d 97 02 e6 3d a9 d9 ac bd ee 55 2e bc
       0.069651395 0.11230963 -0.08439953 -0.010640604
000130 0f 26 b3 3d ca 0a 8e 3d 75 61 95 3d 16 69 cd 3c
       0.087474935 0.069356516 0.07293979 0.025074523
000140 f9 00 01 be 51 5f ef bd 02 25 7d bd fb 19 6e 3c
       -0.12598027 -0.11688102 -0.06180287 0.014532561
000150 31 94 a3 3d 62 8a b5 3d 25 24 7b bd 1c 83 52 bd
       0.0798725 0.08864285 -0.061313767 -0.051394567
000160 1a 97 87 bd 3a f5 e3 3c b1 1f c7 3c 20 e1 4e bd
       -0.06620617 0.027826894 0.024307104 -0.050507665
000170 f6 72 5d bd 4a 1a fc bc 60 9e 82 bc d7 ee 2c bd
       -0.054064713 -0.030774254 -0.01594466 -0.042219963
000180 87 1d ee 3d 0f 14 d5 3d 94 a6 61 3d 3f 4f 15 bd
       0.11626726 0.104042165 0.055090502 -0.036452528
000190 00 c0 c4 bc 4c f7 c8 3d 7c 2e 21 3d 76 3e a3 bd
       -0.024017334 0.09812793 0.03935097 -0.07970898
0001a0 6d 49 8a bc 6e ea e0 3d 98 74 c8 3d 29 b6 57 bd
       -0.016880715 0.10982214 0.097878635 -0.052663956
0001b0 47 fa 0a 3d 32 a6 33 bd 46 da 31 bc dd 8d 86 3b
       0.03393009 -0.043859668 -0.010855263 0.004106267
0001c0 b5 1f b0 bd 07 9e 75 bd a3 b0 fb bd 04 45 ac bd
       -0.08599798 -0.05996516 -0.1228955 -0.08411601
0001d0 dc 5f fd 3d 3f 3a b7 bd 05 9e d1 3d a2 a1 d4 3d
       0.12371799 -0.089466564 0.10235218 0.103823915
0001e0 7b 38 30 3d 9d 0a bd 3a 7b 75 87 bd 61 42 86 3c
       0.043022614 0.0014422719 -0.066142045 0.016389074
0001f0 0b a7 68 3d ff 9c 3e 3d ac 04 cd bd 83 96 d9 bd
       0.05679993 0.046536442 -0.10010657 -0.10624411

bias f4 [2]
000000 6b 05 5f bd b2 2e b4 3d
       -0.054448526 0.08797969

weight_ih_l0 f4 [192, 66]
000000 03 62 8f 3d 62 12 a1 3c fa 53 58 3d bc d4 9e bd
       0.07001116 0.019662086 0.05281446 -0.077554196
000010 99 40 90 3d cb 9a c7 bd 58 3e d6 3c 38 3d ad 3b
       0.07043571 -0.09746321 0.026152775 0.005286839
000020 7d 35 78 3d b5 a9 8e bd 12 80 c7 bd e1 d9 ae 3d
       0.060597885 -0.06965963 -0.09741224 0.08537651
000030 05 11 85 bd 03 08 fd 3d 44 b1 16 3d 20 a7 e8 bd
       -0.06497387 0.12355044 0.036790147 -0.113600016
000040 cb a8 24 bd cc e6 b1 bd 45 56 8c 3c 8a 98 de 3d
       -0.040200036 -0.08686599 0.01713098 0.10868938
000050 f4 74 d5 3d 6a a9 f1 3c 73 90 88 bd 71 91 b8 3d
       0.10422698 0.029499728 -0.066681765 0.09012116
000060 b7 90 d2 bd 23 e4 a2 bc 6e 01 04 be a1 be ca 3d
       -0.102815084 -0.019884175 -0.1289117 0.09899641
000070 5d cb 12 3e e0 56 83 bd ab 9a a1 bd 60 a8 af 3d
       0.1433539 -0.064130545 -0.07890829 0.08577037
000080 e8 76 3e 3d 67 63 a9 3d 39 53 15 bd 9d 70 f7 bd
       0.046500117 0.082709126 -0.03645632 -0.12082026
000090 fd 05 89 bd 21 37 d4 bd 37 e5 47 3d d5 12 91 bb
       -0.06690595 -0.103620775 0.04880258 -0.004427294
0000a0 aa 8f b6 bc 11 3e c5 3d 58 8f cb 3d 1c 87 74 bd
       -0.022285301 0.09630979 0.0993945 -0.059699163
0000b0 ea 65 ca 3d 62 c5 dc 3d 40 47 f3 3d 59 fc c4 bb
       0.0988272 0.10779835 0.11878824 -0.0060115275
0000c0 14 6c 14 3b f4 8c 9f bc 96 de 08 3e 2c d2 e6 3d
       0.0022647427 -0.019476391 0.1336616 0.11270556
0000d0 44 8f f0 bd 65 ae e3 bd 0d 0b 16 3d a5 08 76 3d
       -0.11746076 -0.111172475 0.036631633 0.060066838
0000e0 59 33 aa 3d 76 20 00 be a3 d0 7a 3d 63 48 08 bc
       0.08310575 -0.12512383 0.061234128 -0.00831804
0000f0 af 69 98 bd a9 23 be bd 5e 39 a0 3c 5a 77 0c 3d
       -0.074420325 -0.092841454 0.019558605 0.03429351
000100 8c 13 8a 3d 96 d6 18 3d 84 46 1d bc a6 16 02 3c
       0.067420095 0.03731402 -0.009599332 0.00793997
000110 91 52 2e 3d da ed b0 ba 10 f0 5f 3d 32 b0 2f 3d
       0.04255921 -0.001349862 0.0546723 0.042892642
000120 2d 21 6b 3d 10 a6 2d bd b6 32 9d bd a6 6c 8f 3c
       0.057404686 -0.042394698 -0.07675688 0.017507862
000130 20 54 c8 bc 21 11 86 3d 04 00 af 3d 25 b5 24 bd
       -0.024454176 0.06546236 0.08544925 -0.040211815
000140 9e d4 f9 3d 7e d2 e5 bd 67 58 1a be ac 16 03 be
       0.12198757 -0.11221789 -0.15072785 -0.12801617
000150 e1 22 89 3d 6d cc 79 bc 95 d0 b3 3d bc 64 8e bd
       0.06696106 -0.015246493 0.08780018 -0.06952807
000160 21 42 07 3e 80 80 d0 3d 65 11 b7 3d cd 3b 7b bd
       0.1320882 0.101807594 0.089388646 -0.061336327
000170 14 91 38 be eb a2 ec 3d b9 3f 9f 3d ea f9 8b 3d
       -0.18024093 0.11554512 0.07775826 0.06834777
000180 18 4b 05 3d 0f a1 a8 bc 5a c9 c8 3d cb 34 8c bd
       0.032542318 -0.020584611 0.0980403 -0.06846007
000190 0a d9 1b 3d d8 3a f8 bd a2 5f 10 be e3 78 8a bb
       0.03804878 -0.121205986 -0.14098981 -0.0042258366
0001a0 64 5c 61 3b f1 ad 47 3d 59 eb 36 bd a4 f9 c0 3b
       0.0034387344 0.048749868 -0.04465804 0.0058891345
0001b0 76 5b a6 3c 51 f7 2c 3e ec 47 83 3c 12 cb 71 3d
       0.020307284 0.16891219 0.016025506 0.059031554
0001c0 42 5e 1a bd ba 55 a9 bd 5b 70 28 3e 79 cf 74 3c
       -0.037687548 -0.08268304 0.1644911 0.014942043
0001d0 bb d2 66 bb 76 5b 1d 3e d2 a8 ca bd 91 d6 7a bc
       -0.003522082 0.15366921 -0.09895481 -0.015309946
0001e0 df 9f b1 bc 78 e4 31 3e 05 d5 06 be c3 51 da bd
       -0.021682678 0.1737231 -0.13167198 -0.10660126
0001f0 06 ed 1a bc d3 5b 1c bd 37 20 a5 bd f4 71 3b bd
       -0.009455925 -0.038173508 -0.08062785 -0.04576297
000200 98 6f 6e bd 22 21 77 3d 29 a2 48 3d 91 e4 25 3d
       -0.058211893 0.060334332 0.048982773 0.04050118
000210 99 7f 41 3d f0 31 da 3b 16 21 22 3c 72 d8 0d 3d
       0.047240827 0.006658785 0.009895584 0.034630246
000220 34 cc d7 3d 04 e2 88 3d 8e aa b8 3d 2a 53 05 3c
       0.105369955 0.06683734 0.09016906 0.008137504
000230 a4 a5 d9 3c 76 71 77 3d 25 87 af 3d 4a 97 cc 3d
       0.026568241 0.06041094 0.08570699 0.099897936
000240 24 74 e1 bd 57 6e 02 3d fc 1f 84 bd 24 0e da bd
       -0.1100848 0.03184351 -0.06451413 -0.10647228
000250 5d 94 0b be 8e 92 b8 3d 5c 75 84 3d 50 e8 05 3d
       -0.13630815 0.09012328 0.06467697 0.032692254
000260 ac 79 d6 bd a8 44 bd bd 69 c5 b2 bc ca 3f d5 bc
       -0.10472426 -0.09241611 -0.021822648 -0.026031394
000270 3f 31 b5 3d 0c 25 af bd 03 0b 6b 3c 95 8a 9b bd
       0.088472836 -0.08551988 0.014345887 -0.07594792
000280 2e 8d e3 3d 08 f2 ab 3d 17 44 2c 3e b2 fe 67 3c
       0.11110912 0.08395773 0.16822849 0.014159845
000290 ab 6a f3 bd 1f 61 63 bc 22 75 23 bd 2e 36 10 3d
       -0.1188558 -0.013878136 -0.03990663 0.03520792
0002a0 9e 8c 20 bd b2 75 8c bd cc 6d b5 bd 05 8c 5c 3d
       -0.039196603 -0.06858386 -0.08858833 0.05384447
0002b0 f0 57 ad 3b df 15 a5 3b 47 07 b7 3d 60 8e 65 3d
       0.005290024 0.0050380076 0.08936935 0.056043983
0002c0 2a 97 08 be dc 96 02 be 50 04 78 3d 5e 1c fc 3d
       -0.13338915 -0.12752861 0.060550988 0.12310098
0002d0 cc d8 44 bd e7 f7 0c 3e 34 ea bb bd f0 52 61 bd
       -0.048058316 0.13766442 -0.0917553 -0.055010736
0002e0 ef 89 be bc f3 26 e8 3c e8 14 50 3d d1 c8 a1 bd
       -0.023259131 0.028338885 0.050801188 -0.07899631
0002f0 28 11 f1 3d bb 94 71 bd 30 6f 5a 3d 34 09 d6 3d
       0.117708504 -0.05897973 0.053328693 0.10450974
000300 27 f8 b2 bd 4d 64 d9 bc ff 63 cc bb 84 2a b5 3d
       -0.087387376 -0.026537085 -0.0062375064 0.08846
000310 24 7f 10 3e d7 d2 fd 3d b8 40 a1 3d 5b e2 3d bd
       0.14111 0.1239373 0.07873672 -0.046358448
000320 37 e4 10 3e 35 94 67 3d 3e ce e4 3d 0a a9 53 3b
       0.14149557 0.056537826 0.1117215 0.00322968
000330 49 9a be 3d 47 b8 a2 3c 7c ad 89 3d 00 be 89 bd
       0.09306771 0.01986326 0.06722543 -0.06725693
000340 55 5a c9 3d 4f 21 eb bd 95 01 ed 3d fb 7a 0c 3c
       0.098316826 -0.114809625 0.115725674 0.008574243
000350 fc cf 42 bd 20 7d 04 be b7 50 f0 bd 70 65 0e bd
       -0.04756163 -0.12938356 -0.11734145 -0.034764707
000360 f3 41 5c 3d c2 a1 aa 3d 4a 72 61 3d b7 4e 38 3d
       0.05377383 0.08331634 0.055040635 0.044996943
000370 cf cb 09 3e 8b 1b 99 3b f7 2b 1d bd 6f 49 bc 3d
       0.13456653 0.004672473 -0.038372006 0.09193694
000380 4e 42 a1 bd 3f b8 82 bc 9b 74 05 bd 1a 4e 94 bc
       -0.07873975 -0.015956996 -0.032581907 -0.018103648
000390 74 00 c5 3d e0 23 99 3d cd b8 be bd 21 60 e0 3c
       0.09619227 0.07477546 -0.09312592 0.027389588
0003a0 76 8b 71 3b 01 2d fe bc 36 ff 90 bb f6 bd 06 be
       0.0036856807 -0.031027319 -0.0044249548 -0.13158402
0003b0 c1 f8 a0 3d bf bc 77 3d 1a 14 49 bd 6d 9e 85 bd
       0.07859946 0.060482737 -0.049091436 -0.06524358
0003c0 3e a9 e0 bd 0e a6 23 bd 70 c4 89 bc cc 38 a2 3c
       -0.109697804 -0.039953284 -0.016817302 0.019802473
0003d0 54 26 cd bd 21 5d 5b 3d 91 52 62 3c 45 99 5c bd
       -0.10017076 0.05355561 0.013813631 -0.053857107
0003e0 c5 74 db bc 71 c6 34 bd 76 4f 97 3d 01 78 96 bd
       -0.026789078 -0.04413456 0.07388203 -0.07347108
0003f0 05 1c 0c ba 91 12 ef bb 7d ef 19 3e 1b 23 5a bc
       -0.00053447514 -0.0072959145 0.15032764 -0.013314034

weight_hh_l0 f4 [192, 64]
000000 76 58 24 be ae e2 fd 3b 7b 2c b8 bd 51 48 a7 3d
       -0.1604937 0.0077479696 -0.08992859 0.0816809
000010 1c 03 11 3e 60 28 0b be ea a7 96 3c cb b2 35 3e
       0.14161342 -0.1358962 0.018390615 0.17743985
000020 21 03 6a 3d 2b 42 71 bd 32 dd 6d bd 4e c9 9d 3d
       0.05713189 -0.058900993 -0.058072276 0.077044114
000030 07 74 64 3d e9 19 98 3d 04 f7 3e bd 84 82 ca 3c
       0.055774715 0.07426817 -0.04662229 0.024720438
000040 6b c1 d4 bd 69 f8 12 3e 74 ce 94 bd db d1 fa bd
       -0.10388454 0.14352573 -0.0726594 -0.12247058
000050 be b6 04 3d 6c c0 7e bd de 5b 06 3d ba 43 a9 3d
       0.03240084 -0.062195227 0.032802455 0.08264871
000060 f9 36 0a be 3b 0d 6b bc a2 01 94 3d 67 a6 de 3c
       -0.13497533 -0.014346416 0.07226874 0.027178956
000070 7b e8 e7 bd 32 5b 16 3e c6 95 c8 3d 6b c0 39 3e
       -0.11323639 0.14683226 0.09794192 0.18139808
000080 d4 89 39 3d df bf 3f bb c9 3d b2 3d 7a da 67 bd
       0.04529746 -0.0029258651 0.08703191 -0.05660484
000090 cb 8c 03 3e 69 d5 d1 bd 68 75 2a 3d 2a e6 bb 3d
       0.12846677 -0.10245783 0.041615874 0.0917476
0000a0 b2 cb c6 3d 1c f1 aa 3d 64 f0 2f 3d 4a 6f 07 be
       0.097068205 0.08346769 0.042953864 -0.13226047
0000b0 20 5d ca 3d 5e d9 a9 3b bb cf c2 3d 27 f0 3c 3d
       0.098810434 0.005183383 0.09512278 0.046127465
0000c0 99 a2 c6 3d 69 27 a6 3d 48 f3 bc bc d4 c1 93 3c
       0.09698982 0.08112986 -0.023065224 0.01803676
0000d0 e9 d8 78 bc 66 37 3a 3d 95 7b 85 3d af 4a f0 3d
       -0.015188434 0.04546299 0.06517712 0.11732995
0000e0 e4 fb 96 3d 1b fb aa bc 9a 1f aa 3d 66 b3 e7 bd
       0.07372263 -0.02087169 0.08306809 -0.113135144
0000f0 06 b8 90 3d c9 70 b7 bd 10 9e 82 bd 4e 76 76 bd
       0.0706635 -0.08957059 -0.06377804 -0.060171418
000100 c2 fc a3 bd 44 42 98 3d e6 bb d7 3d 18 dd 1b 3d
       -0.08007194 0.07434514 0.10533886 0.03805265
000110 a5 53 17 3e 17 68 21 3d b3 70 6a 3b 11 3d fe 3d
       0.14778002 0.03940591 0.003577274 0.12413991
000120 26 44 e0 ba c3 3a b4 3d c5 eb 9e bd 1b f3 29 be
       -0.0017110154 0.088002704 -0.07759813 -0.16596644
000130 fd 15 1a 3e da 51 88 bd 20 9e 8b 3c 29 08 eb 3d
       0.1504745 -0.06656237 0.017043173 0.11476166
000140 f1 93 c1 bc a3 8a c7 3d a7 19 0d 3e cd 37 de 3d
       -0.023630114 0.0974324 0.13779317 0.10850487
000150 ca 60 d8 bd b0 d1 ad bc 69 2d a3 3c a4 dd be 3c
       -0.10565336 -0.02121815 0.019919114 0.023299046
000160 ad d8 b2 3d 18 d6 3d 3d 46 da 4c 3b 87 5a ec 3d
       0.08732734 0.046346754 0.003125803 0.11540704
000170 e6 33 f1 bc d0 b9 01 bd 3c b8 2a bd 5c ac 88 bd
       -0.029443692 -0.031671345 -0.041679606 -0.066735
000180 29 40 fd bd f1 60 fb bd d4 4d 94 3d de 68 db 3d
       -0.12365753 -0.122743495 0.07241407 0.10713361
000190 36 16 27 3d 23 30 85 3c 44 7a c0 3d 5c ba e3 bd
       0.040792666 0.016258305 0.0939832 -0.111195296
0001a0 92 e0 24 3b 1b f9 9c bd bd e5 f1 3d 0c 9a 06 3d
       0.0025158268 -0.076647006 0.11811397 0.032861754
0001b0 7f 07 bb 3d 82 dc 91 3d 72 70 4c bd 72 1d 18 3c
       0.09132289 0.07122137 -0.049911924 0.009284364
0001c0 63 84 20 bd 76 98 f3 bd 54 e2 2b bd ec 76 a1 3c
       -0.039188754 -0.11894314 -0.04196389 0.019710027
0001d0 85 76 30 be a2 4d 25 bd fd 60 f2 3c 03 75 83 bd
       -0.17232712 -0.04035724 0.029587263 -0.064188026
0001e0 bd 32 5c 3b 71 af da 3d 71 a1 eb bd 48 f1 31 3c
       0.0033599578 0.10677994 -0.11505402 0.010860749
0001f0 55 f1 ee 3c e8 63 04 3e 2c b3 af bc 14 20 36 bd
       0.02916781 0.12928736 -0.02144774 -0.044464186
000200 a5 69 14 be b4 03 09 3d 33 d7 11 be 7e b7 27 be
       -0.14493425 0.033450797 -0.14242248 -0.1637859
000210 53 36 dd bd 8f 1f 9d 3d be d3 d5 3c c2 e1 3d be
       -0.10801377 0.07672035 0.026101943 -0.18543151
000220 9a 73 98 3b 70 2a e9 3d c0 be f1 3c 2f 3d df 3d
       0.0046524527 0.113850474 0.029509902 0.10900342
000230 81 5a 79 bd cf e4 93 bd c3 af 23 be b0 28 72 3d
       -0.060877327 -0.07221376 -0.15985017 0.059120834
000240 40 7d 01 bd 6c 0d e8 3d 8f b5 79 bd 56 02 98 bc
       -0.03161359 0.11330685 -0.060964163 -0.018555801
000250 8a 5c de 3d 9e 91 3c 3c 1d 5b 23 3d a6 de 79 b9
       0.10857494 0.011509327 0.039881814 -0.00023829433
000260 41 28 58 3d d3 3c 62 bd 9a f5 8b bd bd 49 19 bd
       0.052772764 -0.055233788 -0.06833954 -0.037423838
000270 23 45 b2 bd 96 71 29 be bf dd 0e 3d dc d2 eb ba
       -0.08704593 -0.16547236 0.034879442 -0.0017991918
000280 30 2a e8 3c 90 0e 6a 3d f3 60 61 3d a3 8d f1 bb
       0.028340429 0.057142794 0.0550241 -0.0073716207
000290 4d a9 be bd 33 eb 87 bd 42 76 53 bd 66 48 dc 3d
       -0.09309635 -0.066366576 -0.05162645 0.107559964
0002a0 1a bc a8 bd af d6 21 be 25 59 40 bd 71 02 df bd
       -0.082390025 -0.15804552 -0.046960015 -0.108891375
0002b0 2f 3e a1 bd 86 d5 5d 3d 63 a3 09 3d ef 26 e3 3d
       -0.07873189 0.05415871 0.033603083 0.1109141
0002c0 66 e1 29 be d2 d4 bc 3c 30 7f fd 3d cc 5c 93 3d
       -0.16589889 0.0230507 0.12377775 0.07195434
0002d0 23 2f 8b bd 8f d7 97 bd f1 30 17 be d6 63 c4 bd
       -0.067961 -0.074141614 -0.14764763 -0.09589355
0002e0 a7 a8 e5 3d d4 f8 e3 bc 1e 0d ea bd e8 49 a8 3b
       0.112138085 -0.027828611 -0.11428283 0.0051357634
0002f0 40 56 6b bc ab f8 db bd 59 12 57 3d e2 65 60 bd
       -0.014363825 -0.10740789 0.052507732 -0.054784663
000300 c1 37 c5 3b 22 63 8a 3d 2a b6 0d 3c a1 34 24 be
       0.0060186093 0.06757189 0.008649388 -0.16035701
000310 19 3d a2 3c b3 98 58 3c 32 2c ac 3b 1b 77 42 be
       0.019804524 0.01322 0.005254292 -0.18990748
000320 17 35 c1 3d db 33 b5 bc cd 37 f9 3d 93 39 06 3e
       0.09433954 -0.022119453 0.12168846 0.131079
000330 8d be a0 3a 17 51 b6 bd 9c b4 cf bd 4b 89 21 3d
       0.001226382 -0.089021854 -0.101418704 0.039437573
000340 80 05 bd bd b5 f1 11 3e 99 cd 8a bc 1b 60 d8 bd
       -0.09229565 0.1425236 -0.01694374 -0.10565206
000350 85 f5 87 bd b7 8d 40 bd 6b 75 f4 bd 1d e8 40 be
       -0.06638626 -0.04701015 -0.11936458 -0.18838544
000360 6f e8 78 bd 08 7f 57 bd 24 be af 3d 6c 16 f2 bd
       -0.06076854 -0.05261138 0.08581188 -0.11820683
000370 06 26 23 be 12 f1 c5 3c dd 55 d9 bc 2c b9 08 bd
       -0.15932474 0.024162803 -0.0265302 -0.03337972
000380 f1 6c 8f bd 56 33 88 3d ba e3 9f 3d e7 38 1f 3d
       -0.07003201 0.066504166 0.07807107 0.038872626
000390 f3 76 dc 3c 0f 61 00 be 62 bf 3e 3d 6b 9b f1 3c
       0.026912188 -0.12537025 0.046569236 0.029493054
0003a0 9f d1 1a 3e da 2d a7 3c d4 61 de 3c fb 85 d9 bd
       0.15119027 0.020407606 0.027146257 -0.10621258
0003b0 6e b1 a8 3b 2b a8 52 bd 2a 03 80 bb 71 4b 85 3a
       0.0051481044 -0.05142991 -0.003906627 0.0010169578
0003c0 bd 59 eb bd fb d6 b9 3d 0f d9 07 3e c3 0c 1b 3e
       -0.114917256 0.090742074 0.13266395 0.15141587
0003d0 90 ea a2 3d cf 13 6e bd 84 48 02 bd cd 3b 0c 3d
       0.079548955 -0.05812436 -0.031807438 0.034236718
0003e0 a1 74 31 3d c7 03 d1 3d c2 9b 83 bd 11 0b 88 3c
       0.043324117 0.102057986 -0.06426193 0.01660684
0003f0 60 f8 82 bd 26 b1 94 3c e0 e5 eb 3d 07 22 8a bd
       -0.0639503 0.018150877 0.115184546 -0.067447715

bias_ih_l0 f4 [192]
000000 41 51 bb bd 0e c1 fc bc 65 95 f5 3c 6e 23 19 bd
       -0.09146357 -0.030853774 0.029978463 -0.037387304
000010 ca af 20 3e e8 3b c8 bc f2 a8 0a bd 41 e2 28 3e
       0.15692058 -0.024442628 -0.033852525 0.16492559
000020 fc 47 c4 3d 2b b1 8f 3b 33 3f 80 3d 7b 01 c4 3d
       0.095840424 0.0043851337 0.06262054 0.09570595
000030 de ed 16 bb e4 5e d2 bc 15 80 1e 3e dd b0 33 3e
       -0.0023029963 -0.025680013 0.15478547 0.17547937
000040 af 94 c0 bd 47 f2 0a bd 2c be 2e bd ed 0a 06 3e
       -0.09403359 -0.03392246 -0.04266183 0.13090105
000050 32 f3 54 bb 56 af a1 bc 25 ad cc 3b 9b 12 2a 3e
       -0.0032493589 -0.019736927 0.0062462264 0.1660866
000060 05 85 ec bb 2e 37 81 bd 3b ce 15 3e d7 fe 88 bb
       -0.0072180056 -0.06309353 0.14629452 -0.00418077
000070 ea ba 01 3e da 58 08 3d c1 78 e8 3d 39 cb bb 3d
       0.12668958 0.03328786 0.11351157 0.09169621
000080 ee 7d 02 3e 58 22 4d 3d 51 08 2f bd 52 c0 f5 3c
       0.12743351 0.05008158 -0.04273254 0.029998932
000090 5b cf 21 bd b2 f6 07 bd fe 3c 8f 3d e3 bc 8c 3d
       -0.03950439 -0.03319425 0.06994055 0.06871965
0000a0 5d 6a a0 3d 01 45 fe 3d 04 34 9d 3d 41 7e fb 3d
       0.07832787 0.12415505 0.07675937 0.122799404
0000b0 08 ef ff 3c f4 d9 c8 bb 19 0b 1a 3e 42 37 46 3d
       0.031241909 -0.0061294977 0.15043296 0.04839254
0000c0 68 ee 14 3e d0 3e e1 3c 94 b8 a5 3d 8c 94 fa 3d
       0.1454407 0.027495772 0.08091846 0.12235364
0000d0 f7 36 10 bd cd 25 5c bd e3 21 2d 3e 2f 0d 33 bd
       -0.03520867 -0.053746987 0.16907458 -0.043713745
0000e0 bc 40 70 3d c0 b1 49 3e 7d 34 c3 bc b3 68 f8 bc
       0.058655486 0.19696712 -0.02382874 -0.030323362
0000f0 f8 52 6e 3d ae 33 0f 3d f3 63 89 bb 33 f5 6c 3d
       0.058184594 0.034961395 -0.004192823 0.057851028
000100 9c de 02 be 08 a1 11 be 26 e5 07 3d 03 b7 24 3d
       -0.12780231 -0.14221585 0.033177517 0.040213596
000110 cf cc a8 bd 6b 75 81 3d d9 cc b2 bd c1 98 09 be
       -0.08242189 0.06321224 -0.08730478 -0.13437177
000120 66 a8 f4 bd fe b0 b5 3c 1d 2c b8 bd e1 59 11 be
       -0.11946182 0.022179123 -0.08992789 -0.14194442
000130 80 e4 0e be c1 07 1d bd 96 80 29 be bd bf f2 3c
       -0.13954353 -0.038337473 -0.16552958 0.029632444
000140 18 da 98 bd a4 11 91 bd d2 64 1f 3d 0a a9 29 3d
       -0.07463473 -0.07083443 0.03891451 0.041420974
000150 c3 8f f6 bc e4 a0 68 3c d7 58 09 be c5 79 37 3d
       -0.030097848 0.014198516 -0.13412796 0.044793863
000160 85 e2 f8 bd 33 02 42 3d e0 38 13 be 6e fe 5f bd
       -0.1215258 0.04736538 -0.14377165 -0.054686002
000170 46 f2 36 bd 51 49 31 3d 0a e3 00 3d 09 10 0c bd
       -0.044664644 0.04328281 0.03146652 -0.03419498
000180 3d 22 65 bd 4e a1 b7 bd 6f 6f 56 bd 67 9a cc b9
       -0.055940855 -0.08966313 -0.052352365 -0.0003902495
000190 6c 40 84 bd 10 cf 51 bd 29 e9 23 be 01 79 b1 bd
       -0.064576 -0.05122286 -0.16006912 -0.08665658
0001a0 e2 10 e1 3c 83 0d 1c 3c f3 9f d1 bd f5 9a 3c be
       0.02747387 0.009524706 -0.10235586 -0.18418486
0001b0 2a 5d 8a 3d d5 42 72 bd 2c 9d b8 3c 13 74 d8 bd
       0.06756051 -0.059145767 0.022535883 -0.105690144
0001c0 25 87 a6 bd 97 47 43 be ae c6 0c 3d f2 fc cf bd
       -0.081312455 -0.19070278 0.034369163 -0.10155667
0001d0 3e 2d a6 bd 3d 6b 79 bc 97 d4 a2 3d 1d ca fc bc
       -0.08114098 -0.0152233215 0.079507045 -0.030858094
0001e0 b3 27 c0 bd e6 ad ab bd e7 34 41 be b9 ca a3 bd
       -0.09382572 -0.08382778 -0.18867837 -0.07997651
0001f0 61 c5 04 bb db b8 44 3a 6d 58 06 bd c0 3e b2 3d
       -0.0020259249 0.0007504352 -0.032799173 0.08703375
000200 21 0b 21 be e8 09 07 bd ec ee 73 3d 8f c9 fb 3d
       -0.15726902 -0.03296843 0.059554026 0.122943036
000210 9f ea 21 3e 52 13 94 bd 42 01 f5 3d e3 67 20 bd
       0.15812157 -0.072302476 0.119631305 -0.039161574
000220 fb 73 34 3e cd f5 84 3d d2 e6 03 3d ad 15 0b bd
       0.17622368 0.06492195 0.03220255 -0.03395622
000230 d8 ed 8d bd 4d f2 85 3d e8 2f e7 3d eb 24 fa 3d
       -0.06930131 0.06540356 0.11288434 0.12214073
000240 78 9b 19 be 50 ff 00 3d e8 73 d8 3d de e7 56 bc
       -0.15000713 0.031493485 0.10568982 -0.013116805
000250 3e 48 35 3d 5a 06 93 bc b9 1a c6 3d 5b 54 0e 3d
       0.04425835 -0.017947365 0.09673066 0.034748416
000260 3e 8a bc bd 12 84 20 3e e9 ed 1a ba 77 71 2d 3e
       -0.09206055 0.15675381 -0.0005910085 0.16937815
000270 24 6d 84 bc 6d 1c ff 3d 3f e4 9b bd 99 51 54 bd
       -0.016165324 0.12456594 -0.07611894 -0.05183563
000280 17 e4 24 be c5 64 95 3b 3c 17 14 3e db 44 e5 3d
       -0.16102634 0.004559132 0.14461988 0.11194774
000290 18 8d c0 3d 9d ce a9 3c d4 e9 fd 3d 40 e4 a5 bd
       0.094019115 0.020728404 0.12398115 -0.08100176
0002a0 ee f8 2c bd f3 38 0d bd 45 f0 11 3e 6c b2 1a be
       -0.042229585 -0.03447814 0.14251812 -0.15107125
0002b0 2d d3 86 3c bf 12 7b bd f2 de fa 3d 5a ee de bd
       0.016458118 -0.061297175 0.12249555 -0.10885306
0002c0 7f 04 98 3d 09 04 b9 bc 1e 14 6a 3d c0 aa 28 3e
       0.074227326 -0.022584932 0.05714809 0.16471386
0002d0 26 39 e0 bd 95 5c be bc 1f 69 94 3b 45 dd 62 3d
       -0.109484 -0.023237506 0.004529133 0.0553868
0002e0 4d 70 6e 3c 00 2c 32 3d 24 d1 9f bd 04 dd ab 3d
       0.014553142 0.043498993 -0.07803562 0.08391765
0002f0 a0 1e 1f 3d c1 a8 4d 3c b0 78 e8 3c 80 97 52 bc
       0.038847566 0.012552441 0.02837786 -0.012853503
