models/demo/checkpoint/trained_irdpg_20.pth (torch, 409346 bytes, 22 tensors)

weight_ih_l0 f4 [192, 64]
0	0x3d442d2d	0.047894645
1	0xbc7ff0a2	-0.015621336
2	0xbca8770c	-0.020564578
3	0xbd470651	-0.04859001
4	0xbdbd133c	-0.09232184
5	0xbd8e8423	-0.06958797
6	0x3db5f599	0.08884735
7	0xbdf1d5f0	-0.118083835
8	0xbda0f93f	-0.0786004
9	0x3d42b800	0.047538757
10	0xbb77619c	-0.0037747389
11	0x3d9678cd	0.0734726
12	0xbd448763	-0.047980677
13	0x3de8532e	0.1134399
14	0xbd13c3eb	-0.036075514
15	0xbdc5e1a9	-0.09662182
16	0xbd7ca7a5	-0.061683316
17	0xbbe24054	-0.006904641
18	0x3db32909	0.08748061
19	0x3dd66a21	0.10469461
20	0x3bd3e6c3	0.006466718
21	0x3dba0408	0.090828
22	0xbdbd9257	-0.09256428
23	0xbdbfada9	-0.09359295
24	0x3ddc5639	0.10758633
25	0x3d8a12fa	0.06741901
26	0x3d768fff	0.06019592
27	0x3c0662d6	0.008202275
28	0x3d9976c5	0.074933566
29	0x3dfd8f0b	0.12380799
30	0x3ddb5d87	0.10711198
31	0xbdaf182e	-0.08549534
32	0x3dae7181	0.08517743
33	0x3cbc14d2	0.022959147
34	0x3d9bd598	0.07609099
35	0xbdcca09b	-0.099915706
36	0x3d8be539	0.0683083
37	0xbdc75a37	-0.09734004
38	0x3d1cd83c	0.038292155
39	0xbdbe1f59	-0.09283323
40	0x3caf972e	0.021434393
41	0x3df9db7d	0.12200067
42	0x3dbac57f	0.09119701
43	0xbd80dbcf	-0.06291925
44	0x3d8614a0	0.06546903
45	0x3d8c54d5	0.06852118
46	0x3bdc6b0e	0.006726629
47	0x3d7bdf33	0.061492156
48	0xbc9612e2	-0.01831955
49	0xbdf5b3bb	-0.119971715
50	0xbdc47293	-0.09592166
51	0x3ac87755	0.0015294353
52	0x3d1bd457	0.0380443
53	0xbde82d3d	-0.113367535
54	0xbbed7715	-0.0072468617
55	0xbd200883	-0.039070617
56	0xbd84e0b6	-0.06488173
57	0x3dd81490	0.10550797
58	0x3d192c7c	0.03739594
59	0xbbf67df4	-0.007522339
60	0x3d9895df	0.07450461
61	0xbc3b1780	-0.011419177
62	0xbdecf5bd	-0.11570308
63	0xbca4a13d	-0.020096416
64	0x3dec5008	0.11538702
65	0xbdb01582	-0.08597852
66	0xbadc0a83	-0.0016787801
67	0x3d37de23	0.04488958
68	0xbdd86b38	-0.10567325
69	0x3de7ad02	0.113122955
70	0x3dcfff68	0.10156137
71	0xbd3793af	-0.044818576
72	0x3d2d9e3b	0.04238723
73	0x3dbadc38	0.09124035
74	0xbd7040cf	-0.058655556
75	0xbd839e52	-0.064266816
76	0x395db2c5	0.00021142799
77	0xbd7b6da7	-0.06138387
78	0xbc38ad65	-0.011271809
79	0x3cb0d5a2	0.021586243
80	0xbd8d0d56	-0.06887309
81	0xbdef0e32	-0.116726294
82	0xbcdcdb60	-0.026960075
83	0xba83d4c0	-0.0010057911
84	0xbdc0d5f1	-0.09415806
85	0x3d9a54cc	0.07535705
86	0x3d106ec5	0.035261888
87	0xbc0cfdad	-0.008605403
88	0xbbaa4f78	-0.0051974617
89	0x3da2bad5	0.07945792
90	0x3d70d67f	0.05879831
91	0xbdccc00a	-0.09997566
92	0x3d0eb725	0.03484263
93	0x3d1faed1	0.038985077
94	0xbdfd029c	-0.12354013
95	0xbdcfaef5	-0.10140792
96	0xbccb9514	-0.02485136
97	0xbd4833c4	-0.048877493
98	0x3d4aa758	0.049475998
99	0x3d99384d	0.07481442
100	0x3d86d742	0.06584026
101	0x3d49e463	0.049290072
102	0xbdbcca42	-0.09218265
103	0x3df969fb	0.12178417
104	0x3b09a23c	0.002100124
105	0xbd1df6c3	-0.03856541
106	0xbcac2b4f	-0.021016745
107	0xbb972973	-0.0046130954
108	0x3de0c43c	0.10974929
109	0x3cf9ea99	0.030507373
110	0x3dbbebdb	0.09175845
111	0x3d426fda	0.04746995
112	0xbdfeac46	-0.12435202
113	0x3d974866	0.07386856
114	0x3d15e0d5	0.03659137
115	0x3d973a9e	0.07384227
116	0xbd9fcba8	-0.07802516
117	0x3baab1ca	0.0052091824
118	0x3dd119e8	0.10210019
119	0xbd81e742	-0.06342937
120	0xbcb303ae	-0.02185234
121	0x3d235d34	0.039883807
122	0x3d6854e1	0.05672157
123	0xbe00c095	-0.12573464
124	0x3df51632	0.11967124
125	0x3db1ac44	0.08675435
126	0x3c97b7cc	0.018520258
127	0x3d235ce1	0.039883498
128	0xbdffac22	-0.124840036
129	0x3d288080	0.041138172
130	0xbb9b87cb	-0.0047464124
131	0x3bf3941c	0.0074334275
132	0x3dd218d2	0.1025864
133	0x3bf5c61e	0.007500424
134	0x3d7dce8b	0.061964553
135	0xbdc4bc6c	-0.09606251
136	0x3b9abad7	0.00472198
137	0x3decc34c	0.115606874
138	0xbd96ccc3	-0.07363274
139	0xbcc00b74	-0.023442961
140	0xbd060be8	-0.0327262
141	0x3d8bf013	0.068329
142	0x3cfa749f	0.030573187
143	0xba172823	-0.00057661737
144	0x3d949a8b	0.07256039
145	0xbda05e64	-0.078305036
146	0xbbe2a5fb	-0.006916759
147	0xbdcf4ee1	-0.10122467
148	0xbd72e169	-0.059297
149	0x3dabd4b6	0.08390181
150	0x3d379e30	0.044828594
151	0x3cf0e122	0.029404227
152	0xbdb17265	-0.08664397
153	0x3de967f5	0.11396781
154	0xbdd157ca	-0.102218226
155	0xbd45a30d	-0.0482512
156	0xbbfda6f1	-0.007740848
157	0x3d0e6dc0	0.034772635
158	0xbdbe40e3	-0.0928972
159	0xbdd258dc	-0.10270855
160	0xbd8f3eb3	-0.06994381
161	0xbd9ef598	-0.07761687
162	0xbc20dcd6	-0.009818276
163	0xbce015dd	-0.027354175
164	0xbdff3670	-0.12461555
165	0x3cf7b905	0.030239591
166	0x3d9a0b11	0.07521642
167	0x3cd4adb1	0.025961729
168	0x3b858eda	0.004075867
169	0xbd79847e	-0.06091737
170	0x3bc68efd	0.006059526
171	0x3dba79ef	0.09105288
172	0x3cb153cf	0.021646408
173	0x3d94eca3	0.07271697
174	0x3c9ad01d	0.018898064
175	0x3bd519b7	0.0065033096
176	0x3deac7a9	0.114638634
177	0xbc24451e	-0.010026244
178	0x3deef79a	0.1166832
179	0xbdbb3e18	-0.09142703
180	0xbb236418	-0.0024931487
181	0xbd76c994	-0.060250834
182	0xbc88a98c	-0.016682409
183	0xbda4ae98	-0.080411136
184	0x3de6f1a7	0.1127656
185	0xbc689954	-0.0141967125
186	0xbd8ecae1	-0.0697229
187	0xbd63fd85	-0.055661697
188	0xbde91984	-0.1138182
189	0xbc8b3349	-0.016992228
190	0xbdd6baf2	-0.10484876
191	0x3d90d6d7	0.070722274
192	0x3dbd438c	0.09241399
193	0x3dcfbb92	0.10143198
194	0xbd4df63d	-0.05028366
195	0x3d080a63	0.03321303
196	0x3deb5981	0.11491681
197	0xbc9a419b	-0.018830111
198	0x3d2063f9	0.03915784
199	0xbdbc5d95	-0.09197537
200	0xbd22d809	-0.03975681
201	0x3d1a6c5e	0.037701003
202	0xbd4e2887	-0.05033162
203	0xbdd2f62c	-0.1030086
204	0xbd872151	-0.065981515
205	0x3a4b11dc	0.00077464967
206	0xbd81ca21	-0.06337381
207	0x3dc5e43f	0.09662675
208	0xbd8a6bbf	-0.06758832
209	0x3daa101c	0.08303854
210	0xbdf34531	-0.118784316
211	0x3d3daee0	0.046309352
212	0x3d0eb8e2	0.034844287
213	0x3d848b8e	0.064719304
214	0x3d858f7a	0.065215066
215	0x3c93591b	0.017986825
216	0x3dccca4c	0.099995226
217	0x3dc96bae	0.098349914
218	0xbc34ec65	-0.011042689
219	0xbd0d6436	-0.034519397
220	0xbd04aa67	-0.03238907
221	0xbdc6bc01	-0.09703828
222	0xbdca0fbd	-0.09866283
223	0xbc219241	-0.00986153
224	0x3de9f0f4	0.11422911
225	0x3dc3874e	0.09547292
226	0xbde7eef4	-0.113248736
227	0x3d8d76fe	0.069074616
228	0xbda25f57	-0.07928341
229	0x3cfb9b11	0.03071359
230	0xbd31bc5f	-0.043392535
231	0xbdfe773c	-0.12425086
232	0xbd64bf6f	-0.055846628
233	0xbd06d6af	-0.032919582
234	0x3bf3f7f7	0.007445331
235	0x3dbad132	0.09121932
236	0x3dcdc18d	0.100466825
237	0xbdbb540c	-0.0914689
238	0x3dcd7704	0.10032466
239	0x3d9fce08	0.07802969
240	0x3c66f89a	0.014097357
241	0x3da92c04	0.082603484
242	0xbdad68cc	-0.08467254
243	0xbdadeed7	-0.08492821
244	0xbb9ae5ab	-0.0047270856
245	0xbd1fb395	-0.038989622
246	0x3c3c52fb	0.011494393
247	0x3da2cd8e	0.07949363
248	0xbc064d0a	-0.0081970785
249	0x3c967100	0.01836443
250	0x3dae843e	0.08521317
251	0xbcf11da0	-0.029433072
252	0x3ddb6875	0.10713283
253	0x3dd78c0f	0.10524761
254	0x3dccb6d3	0.099958085
255	0x3cf1b306	0.02950431

weight_hh_l0 f4 [192, 64]
0	0xbddf1ffc	-0.108947724
1	0xbdc55cc8	-0.09636837
2	0xbd315474	-0.04329343
3	0x3de8a1a8	0.113589585
4	0x3dd11fe0	0.10211158
5	0x3d2ea7d0	0.042640507
6	0x3d1a9c1b	0.03774653
7	0xbcd8c6fd	-0.026462073
8	0xbde24bdf	-0.110496275
9	0x3d849920	0.06474519
10	0xbd6da74c	-0.058020875
11	0xbdaeea55	-0.08540789
12	0x3d2e6b42	0.042582758
13	0x3db7575b	0.089522086
14	0xba9432e3	-0.0011306669
15	0xbbf70241	-0.0075381105
16	0x3ddab716	0.10679452
17	0xbcb1e706	-0.021716606
18	0x3d14e4ef	0.03635114
19	0x3a42cb4a	0.0007430805
20	0xbb8b93a2	-0.0042595426
21	0x3d427f91	0.047484938
22	0xbd2707a8	-0.040778786
23	0xbd76c399	-0.06024513
24	0xbd606e86	-0.054792903
25	0xbdaac710	-0.083387494
26	0xbc3284d1	-0.010895924
27	0x3da14d22	0.0787604
28	0x3dbd1c59	0.092339225
29	0x3d3e50a9	0.046463642
30	0xbddc647f	-0.107613556
31	0xbd9256c4	-0.071454555
32	0xbdb614b8	-0.088906705
33	0x3dd1548f	0.102212064
34	0xbdbff371	-0.09372605
35	0xbdd41851	-0.103562005
36	0xbd5afe0b	-0.05346493
37	0xbd167eff	-0.036742207
38	0xbd34e98e	-0.044168048
39	0x3c687eec	0.014190417
40	0x3df848b9	0.12123246
41	0xbdff7bfd	-0.12474821
42	0xbda3b5ef	-0.079936855
43	0x3d55a6d5	0.052161057
44	0xbcfb5b66	-0.03068323
45	0xbda76433	-0.08173408
46	0xbd25f0cb	-0.04051284
47	0xbda4ed9b	-0.08053132
48	0x3cec4b14	0.028844394
49	0xbd31a416	-0.043369375
50	0xbc1ec0bf	-0.009689509
51	0xbde7e297	-0.113225155
52	0x3d86f010	0.06588757
53	0x3d1447e5	0.036201376
54	0x3d0cd99f	0.034387227
55	0x3ded741b	0.11594411
56	0xbd5809eb	-0.052743834
57	0xbce53ee6	-0.027984094
58	0x3d89bbac	0.06725249
59	0xbdd7822f	-0.105228774
60	0xbdf0e3d0	-0.11762202
61	0x3d95c805	0.07313541
62	0xbdd49c1c	-0.10381338
63	0xbcacf58b	-0.021113178
64	0xbde18988	-0.1101256
65	0xbcf15c08	-0.02946283
66	0x3da26d56	0.079310104
67	0x3c5dc418	0.013535522
68	0xbdcfb44d	-0.101418115
69	0xbdd36b0b	-0.10323151
70	0x3d8883bc	0.06665751
71	0x3dbb7b7e	0.09154414
72	0x3d505b0b	0.050868075
73	0xbdb92710	-0.09040654
74	0x3d0764aa	0.033054985
75	0x3dd27ea2	0.102780595
76	0x3d387471	0.045032922
77	0x3dcdc7c5	0.10047869
78	0xbd4ff8b3	-0.050774287
79	0x3d489b2f	0.04897612
80	0xbc7110a9	-0.014713445
81	0x3d9120b0	0.07086313
82	0xbca2b9d1	-0.019863995
83	0x3cfda4a3	0.030962294
84	0xbdf6a004	-0.12042239
85	0xbddf4abc	-0.10902926
86	0xbdb4aa51	-0.08821548
87	0xbdd9c25e	-0.10632776
88	0xbceee259	-0.029160665
89	0x3d81984e	0.06327878
90	0xbd9ee587	-0.077586226
91	0x3d42daa3	0.04757179
92	0xbdc0dbda	-0.09416933
93	0x3de16515	0.11005608
94	0x3d99f154	0.07516733
95	0x3d7eebe0	0.062236667
96	0x3c63314c	0.013866734
97	0x3dbcef22	0.092252985
98	0x3d73f319	0.059558008
99	0xbd137e72	-0.03600926
100	0xbd10b121	-0.035325173
101	0x3dc93c98	0.098260105
102	0x3dcaab32	0.09895934
103	0xbdd16dce	-0.10226022
104	0xbd4115b0	-0.047139823
105	0xbcccfa20	-0.025021613
106	0x3dc8d0de	0.09805463
107	0xbd28aa26	-0.04117789
108	0x3dfb42b2	0.122685805
109	0xbb37cd56	-0.0028045974
110	0xbdce8595	-0.100840725
111	0x3cf1ebd2	0.029531393
112	0xbe00378e	-0.12521192
113	0xbc9344c7	-0.017977132
114	0xbd2306d9	-0.039801452
115	0x3dd51b5f	0.10405611
116	0x3c768bb1	0.015047953
117	0xbc1f25b2	-0.009713577
118	0x3dca1bb0	0.09868562
119	0xbb47fd8f	-0.0030516123
120	0x3da8a0e0	0.082338095
121	0xbdfd6fee	-0.123748645
122	0xbdcdd373	-0.10050096
123	0xbdb343b3	-0.08753147
124	0x3dc41fda	0.09576388
125	0xbd3c1640	-0.045919657
126	0xbcc4a1f9	-0.024003016
127	0x3d28487b	0.041084748
128	0x3dc9e530	0.09858167
129	0x3d9483c1	0.072516926
130	0x3ca5be87	0.020232452
131	0x3d87b47f	0.06626224
132	0x3d7a49a1	0.061105374
133	0x3d6703ee	0.056400232
134	0x3dec366b	0.11533817
135	0xbd665d52	-0.05624134
136	0x3d14fdb1	0.03637475
137	0x3c9119e0	0.017712533
138	0x3dc7bb70	0.09752548
139	0xbde767e0	-0.112991095
140	0x3d618050	0.05505401
141	0xbd788bb5	-0.06068011
142	0x3c76b389	0.015057453
143	0xbd5d9a9f	-0.054102536
144	0x3cb60e37	0.022223575
145	0x3c773220	0.015087634
146	0x3d186b8d	0.037211943
147	0x3a59a8f9	0.0008303072
148	0x3db4087e	0.08790682
149	0xbdef5d51	-0.116877206
150	0x3d988d63	0.074488424
151	0x3d80ae19	0.062832065
152	0xbce7f4fa	-0.028315056
153	0x3d31b054	0.04338105
154	0xbde91491	-0.11380876
155	0x3dea71ea	0.11447509
156	0x3d04081a	0.03223429
157	0xbd5c90d7	-0.053849068
158	0x3dd3c410	0.1034013
159	0x3d5a311b	0.053269487
160	0x3c9a6471	0.018846722
161	0x3dcba1fe	0.09943007
162	0x3d7306dd	0.059332717
163	0xbdf5a9e3	-0.11995294
164	0x3d9d67cc	0.07685813
165	0xbc483f5c	-0.012222137
166	0xbda3f62e	-0.080059394
167	0x3d9e2a50	0.07722914
168	0xbdfab871	-0.12242211
169	0xbde5bd91	-0.112177975
170	0x3d527df4	0.05138965
171	0x3d11f210	0.03563124
172	0x3df1f42c	0.1181415
173	0x3cb53f3b	0.022124877
174	0x3c9a314e	0.018822338
175	0x3da05018	0.07827777
176	0x3c3df1da	0.011593306
177	0x3d7d0982	0.061776645
178	0xbd3f126b	-0.046648424
179	0xbcaaf50c	-0.0208688
180	0x3dd2c233	0.10290947
181	0xbc192685	-0.009347563
182	0xbd85b313	-0.06528296
183	0xbdce7d86	-0.100825354
184	0x3cab3fa2	0.020904366
185	0xbc333c94	-0.010939736
186	0x3d6cc2de	0.057803027
187	0x3dbdd43d	0.09268997
188	0xbd8471f9	-0.06467051
189	0xbdd3d2ce	-0.10342942
190	0x3db407c1	0.087905414
191	0xbd6f3f60	-0.05841005
192	0xbd876b9d	-0.066123225
193	0xbd0542dd	-0.03253447
194	0xbdb89748	-0.090132296
195	0x3cbab040	0.02278912
196	0xbdda76eb	-0.10667213
197	0x3ddb556c	0.10709652
198	0xbdc3397e	-0.0953245
199	0xbdf52afb	-0.119710885
200	0xbd3151bc	-0.04329084
201	0x3d8b1ac0	0.067922115
202	0x3dccbaf9	0.099966
203	0xbc702ed8	-0.014659606
204	0x3c463ed3	0.012099939
205	0xbc98711c	-0.018608622
206	0xbd4ea1db	-0.050447326
207	0xbdbd54b8	-0.092446744
208	0x3d8075c4	0.06272462
209	0xbc726b3b	-0.014796074
210	0x3d81d86f	0.063401096
211	0x3cdbc4c8	0.026827231
212	0xbdb1a2fa	-0.086736634
213	0x3df159f4	0.11784735
214	0xbd4f6c54	-0.05064042
215	0xbdc39398	-0.09549636
216	0xbddc0d06	-0.107446715
217	0xbda1cc67	-0.07900315
218	0x3dd02496	0.10163228
219	0xbda9b6e1	-0.082868345
220	0x3cf0058b	0.029299518
221	0xbd9b8d04	-0.07595256
222	0xbbab3747	-0.0052250954
223	0x3d339137	0.04383966
224	0x3db26c88	0.08712107
225	0x3d491e83	0.049101364
226	0xbdddad45	-0.10824064
227	0xbdd61c47	-0.10454612
228	0x3d903699	0.07041664
229	0x3deac1e9	0.11462767
230	0xbd60b188	-0.054856807
231	0x3cba0261	0.022706212
232	0xbd958554	-0.07300821
233	0x3cc717fc	0.024303429
234	0x3c0eb031	0.0087089995
235	0x3d5cc620	0.053899884
236	0xbd6f6d2f	-0.058453735
237	0xbc76f953	-0.015074092
238	0xbcf63c9e	-0.030058201
239	0x3d722dff	0.059125897
240	0xbddbea72	-0.10738076
241	0x3dc1543c	0.094398946
242	0x3d3a31c2	0.04545761
243	0xbc7a9bea	-0.015295962
244	0xbe00c605	-0.12575538
245	0xbd2f1f55	-0.04275449
246	0xbddc9e0e	-0.10772334
247	0xbcbe60aa	-0.023239452
248	0xbd517966	-0.051141165
249	0x3d41c1b9	0.04730389
250	0x3de4d6f5	0.11173812
251	0xbd25b429	-0.040455017
252	0x3d0b40df	0.033997413
253	0x3c6d1e0a	0.014472494
254	0x3dcf5ba7	0.10124903
255	0xbdc14952	-0.09437813

bias_ih_l0 f4 [192]
0	0xbcd69e72	-0.0261986
1	0x3d254391	0.04034764
2	0x3db3c219	0.087772556
3	0x3cae1876	0.021251898
4	0xbc145711	-0.009053961
5	0xbd4f39e9	-0.050592337
6	0x3d2ae762	0.04172457
7	0x3d5fa2b5	0.05459853
8	0x3cf8840f	0.030336408
9	0xbdabc5b6	-0.0838732
10	0xbd75fde4	-0.060056582
11	0xbd2fc39b	-0.042911153
12	0xbd853a8e	-0.06505309
13	0x3d9ea357	0.07745998
14	0xbc90674a	-0.017627377
15	0xbdd6ebeb	-0.104942165
16	0x3ba84681	0.005135358
17	0x3da8747c	0.08225343
18	0xbc6f8831	-0.014619873
19	0xbdb68a1e	-0.089130625
20	0x3c998923	0.01874215
21	0xbd03a3bd	-0.032138575
22	0x3d852598	0.06501311
23	0x3df8319a	0.12118836
24	0xbd80ac89	-0.062829085
25	0x3d873a3b	0.066029035
26	0xbd154b57	-0.036448803
27	0xbd3ff1b2	-0.046861358
28	0x3d1c96e3	0.038229834
29	0x3b6e6b8b	0.0036380019
30	0xbd19f5c4	-0.037587896
31	0xbc385e6e	-0.011252983
32	0x3d8baee9	0.06820471
33	0x3d9ec065	0.0775154
34	0x3d94a544	0.072580844
35	0x3dcd4bd4	0.10024229
36	0xbddc73f0	-0.10764301
37	0xbd8a4493	-0.06751361
38	0x3d7a479c	0.06110345
39	0x3dbf85aa	0.09351666
40	0xbcfc211e	-0.03077751
41	0xbc84fa51	-0.016232641
42	0xbddc1201	-0.107456215
43	0xbd2c3e47	-0.04205158
44	0xbde43c3d	-0.11144302
45	0x3dd44db8	0.10366386
46	0x3db9bdcf	0.09069406
47	0xbdd90c89	-0.10598094
48	0xbd85f134	-0.065401465
49	0x3d9a1388	0.075232565
50	0x3cd5f3d6	0.026117247
51	0xbbdbaa64	-0.0067036618
52	0xbdb938de	-0.0904405
53	0x3ddd9f5e	0.108214125
54	0xbd34a979	-0.044106934
55	0xbd596bf1	-0.053081457
56	0x3cbea172	0.023270342
57	0xbd7a9518	-0.061177343
58	0xbdaeacce	-0.08529054
59	0xbd4a4aea	-0.04938785
60	0xbd534f8c	-0.051589534
61	0xbd951d3f	-0.07280969
62	0xbdc8c0ab	-0.098023735
63	0x3b95e3c8	0.004574273
64	0x3d9193be	0.07108258
65	0xbdf6f816	-0.120590374
66	0x3d0831d7	0.033250656
67	0x3d9f33fc	0.07773587
68	0xbbb382ef	-0.005478255
69	0xbdd8ac7e	-0.10579775
70	0xbc0b2bc0	-0.0084943175
71	0x3dbb9985	0.09160141
72	0x3d4c5361	0.049884204
73	0x3d0b1786	0.03395798
74	0xbdd7b7d9	-0.10533113
75	0x3cf66b5d	0.030080492
76	0xbc848021	-0.016174378
77	0xbda080e9	-0.07837088
78	0xbd842201	-0.06451798
79	0x3dccba50	0.09996474
80	0xbd5d26e3	-0.053992163
81	0xbc9b3e2e	-0.018950548
82	0x3d1627c0	0.036659002
83	0x3caa9e09	0.02082731
84	0xbdaff5fb	-0.08591839
85	0x3dabf91c	0.08397123
86	0x3c9dba15	0.01925377
87	0xbd75e719	-0.060034845
88	0x3dc9a9b5	0.09846822
89	0x3cc77e5d	0.024352247
90	0x3d01747f	0.03160524
91	0x3db66422	0.089058176
92	0x3c1ecb91	0.009692089
93	0xbcad6ebd	-0.021170968
94	0xbde4d922	-0.11174227
95	0xbdf9cb10	-0.12196934
96	0x3dc21a8d	0.094777204
97	0xbe00a1b7	-0.1256169
98	0xbda061bf	-0.078311436
99	0xbabaaa00	-0.0014241338
100	0x3d348fc4	0.044082418
101	0xbde51e0f	-0.11187374
102	0x3d90cfe6	0.070709035
103	0xbd98f11d	-0.07467864
104	0xbd208ae0	-0.03919494
105	0x3d814f32	0.063139334
106	0xbda6bb96	-0.08141248
107	0x3c7cc783	0.015428427
108	0x3d5ab10a	0.053391494
109	0x3d063aed	0.03277104
110	0x3d2f0f6e	0.042739324
111	0xbda9aa41	-0.082844265
112	0x3d4f6449	0.05063275
113	0xbd8d850c	-0.06910142
114	0x3d1d2133	0.03836174
115	0xbdc98293	-0.09839358
116	0xbd8999e8	-0.067188084
117	0xbddb7fc8	-0.10717732
118	0xbcdcf8dd	-0.026974136
119	0xbdec5704	-0.115400344
120	0xbd6e4773	-0.058173608
121	0xbd8c354c	-0.06846103
122	0xbd6d7c54	-0.057979897
123	0xbda237f8	-0.079208314
124	0xbd954193	-0.07287898
125	0x3dcc986d	0.099900104
126	0x3dd8521f	0.10562538
127	0xbde1107c	-0.10989472
128	0x3d9ef25c	0.0776107
129	0xbd901fae	-0.070372924
130	0x3b9fc62a	0.004875918
131	0xbc6f0701	-0.014589072
132	0x3d591049	0.052994046
133	0x3b361809	0.0027785322
134	0xbb91bb10	-0.0044473484
135	0xbdfb965f	-0.122845404
136	0x3de8b6df	0.11363005
137	0x3deb4459	0.11487646
138	0xbcef6366	-0.029222202
139	0xbd44f2e5	-0.048083205
140	0xbd424f54	-0.047438934
141	0xbd31ec69	-0.04343835
142	0x3d1eb763	0.03874911
143	0x3de975b7	0.113994054
144	0x3d7ac7ff	0.061225887
145	0x3d56fb5c	0.05248581
146	0x3dcbf241	0.09958316
147	0xbd92b56b	-0.07163509
148	0x3d6a24e9	0.057164107
149	0xbbf25a52	-0.007396021
150	0x3d07e7b6	0.03317996
151	0x3d5231a6	0.05131688
152	0x3da996aa	0.0828069
153	0x3dac11dd	0.08401845
154	0x3c5cbb57	0.0134724
155	0x36ae1e78	5.189151e-06
156	0xbccec059	-0.025238203
157	0xbdd90721	-0.10597063
158	0xbde62ad0	-0.112386346
159	0x3d0cde04	0.034391418
160	0xbc12690c	-0.008936178
161	0x3daf5b5c	0.08562347
162	0x3def2676	0.11677258
163	0x3d8c452b	0.0684913
164	0x3d07eb23	0.03318323
165	0x3c6ea82a	0.014566461
166	0xbda7a0a3	-0.08184936
167	0xbda6e4bb	-0.081490956
168	0x3ca58aa7	0.020207716
169	0xbd0546b3	-0.032538127
170	0x3d24892b	0.040169876
171	0x3bc26161	0.0059320186
172	0xbdf8c520	-0.121469736
173	0x3cfbc3e2	0.030733053
174	0xbdf84219	-0.12121982
175	0xbdc6c4e9	-0.097055264
176	0x3be67ec7	0.007034156
177	0x3d47a571	0.04874176
178	0x3c0c41ec	0.008560639
179	0xbd9ddd81	-0.07708264
180	0x3ccf9cb6	0.02534328
181	0x3d317aed	0.04333012
182	0xbb96bfa3	-0.0046004816
183	0xbdb8c928	-0.090227425
184	0x3ce3bd28	0.027800158
185	0x3ddff838	0.10936016
186	0x3d905265	0.070469655
187	0xbd0d561d	-0.034505952
188	0xbcfaba63	-0.030606454
189	0x3d9abb8e	0.075553045
190	0x3b2e5bbc	0.002660497
191	0x3d907be0	0.07054877

bias_hh_l0 f4 [192]
0	0x3dc4f2ce	0.09616624
1	0xbd7a4b4a	-0.061106957
2	0x3d6b80f7	0.057496037
3	0xbd917b76	-0.071036264
4	0x3d80a40e	0.06281291
5	0xbe0103a8	-0.12599051
6	0xbdb1659e	-0.0866196
7	0xbcf1d429	-0.029520111
8	0x3dbb7482	0.091530815
9	0x3d157e5f	0.03649747
10	0xbd135624	-0.035970822
11	0xbccbf223	-0.024895733
12	0x3d04fd36	0.032468043
13	0xbdbbf68b	-0.09177884
14	0xbc5e5195	-0.013569255
15	0x3d482461	0.04886282
16	0x3c27c2cf	0.010239317
17	0xbc1888a5	-0.009309922
18	0xbd632219	-0.05545244
19	0x3c24372f	0.010022922
20	0x3d8bfe9c	0.06835672
21	0xbddf3238	-0.1089825
22	0x3de84832	0.11341895
23	0xbdc1cf5a	-0.09463377
24	0x3dfb4665	0.12269286
25	0x3dd94cd3	0.10610356
26	0x3c5f86db	0.013642992
27	0xbd0d7ffe	-0.03454589
28	0xbdf36f9d	-0.11886523
29	0xbd3c95d3	-0.04604132
30	0xbdcf7cac	-0.10131201
31	0x3dfc6ab6	0.12325041
32	0xbc24c47d	-0.010056612
33	0xbcf19ddd	-0.02949422
34	0xbdbddf1e	-0.09271072
35	0xbceaa181	-0.028641464
36	0x3df5fb9c	0.12010881
37	0x3d2bd6d8	0.041952938
38	0x3dc79ebf	0.09747075
39	0xbbc7f6f9	-0.0061024395
40	0x3dc4e302	0.09613611
41	0xbd551695	-0.05202349
42	0xbdbad837	-0.09123271
43	0x3c377833	0.011198091
44	0xbdeef4e5	-0.11667804
45	0xbdfb4914	-0.12269798
46	0xbdd9f693	-0.106427334
47	0x3db37785	0.08763031
48	0x3de09ce4	0.109674245
49	0xbdab1a2e	-0.08354603
50	0x3d9c4fb0	0.07632387
51	0x3d886223	0.06659343
52	0x3d47d152	0.048783608
53	0x3da091d6	0.07840316
54	0x3dde91c4	0.10867646
55	0x3d2adb4b	0.04171304
56	0x3df73849	0.120712824
57	0xbdc0f77d	-0.09422205
58	0x3d8ec80a	0.06971748
59	0x3d434646	0.04767444
60	0x3d930ef7	0.07180589
61	0x3dc6819f	0.09692692
62	0xbd6c4eb4	-0.057692245
63	0x3df5e2bf	0.12006139
64	0x3d850282	0.06494619
65	0x3dc74b04	0.09731105
66	0xbd6e1cf5	-0.058133084
67	0x3de27be8	0.110587895
68	0x3cd3bdda	0.025847364
69	0x3d438aac	0.04773967
70	0xbdcd6559	-0.10029096
71	0xbbe7eeb2	-0.0070780152
72	0xbdbd1105	-0.09231762
73	0xbdb66b45	-0.08907179
74	0x3d165b0d	0.036707927
75	0xbd64fb12	-0.0559035
76	0xbc5c0acf	-0.013430311
77	0x3d643611	0.055715624
78	0x3baf8dd5	0.005357484
79	0x3dd70a36	0.104999945
80	0x3d1af765	0.03783359
81	0xbc7ca90e	-0.015421165
82	0xbdf5d89d	-0.12004206
83	0x3c92c799	0.017917441
84	0x3d802685	0.06257347
85	0xbd54a73b	-0.051917296
86	0xbd9386b4	-0.07203427
87	0xbdacb879	-0.08433623
88	0x3dfa95c3	0.12235596
89	0x3db87014	0.09005752
90	0xbdd5a7c2	-0.10432388
91	0xbd45db86	-0.048305057
92	0xbdbb5914	-0.0914785
93	0x3d7db9bd	0.061944712
94	0x3d5f4609	0.05451015
95	0xbd59a7ea	-0.05313865
96	0x3d028c4a	0.03187207
97	0xb92539b6	-0.00015757125
98	0xbc5339b8	-0.012892179
99	0xbd5e551d	-0.05428039
100	0x3de67727	0.11253195
101	0xbdb0c771	-0.086317904
102	0x3c6c20f5	0.014412154
103	0x3dc364bf	0.095407
104	0xbd937211	-0.07199491
105	0x3de8b31e	0.11362289
106	0xbd68bfb8	-0.056823462
107	0xbd256777	-0.040381875
108	0x3c0f79bd	0.008757052
109	0x3d1440e9	0.036194716
110	0xbd070cea	-0.0329713
111	0x3dbad2cf	0.0912224
112	0x3d2cbb49	0.042170797
113	0xbce229a2	-0.027607743
114	0x3c35d7dd	0.011098829
115	0x3d275237	0.04084989
116	0xbd8233a2	-0.063575044
117	0x3c65dd75	0.01402985
118	0xbddcb167	-0.10776024
119	0x3d7e7c8a	0.06213049
120	0xbd992d42	-0.07479335
121	0x3d47bde3	0.048765074
122	0x3d84c424	0.06482723
123	0x3d32c0f2	0.04364104
124	0xbdb5fb1b	-0.08885785
125	0x3ca7568c	0.020427011
126	0x3d748e64	0.059706107
127	0xbd04e93b	-0.03244899
128	0xbd5c39a7	-0.05376592
129	0x3de5094d	0.111834146
130	0xbde283eb	-0.110603176
131	0xbdb9efff	-0.09078979
132	0x3d5fca8e	0.05463653
133	0x3d054694	0.03253801
134	0xbc5034e1	-0.01270792
135	0x3ddb0cf6	0.106958315
136	0xbdafd50e	-0.08585559
137	0x3da67d80	0.08129406
138	0xbd77099d	-0.060311902
139	0xbd9bdc14	-0.07610336
140	0xbdc07084	-0.09396461
141	0xbdd5a989	-0.10432727
142	0x3bee2788	0.007267896
143	0x3d5018c7	0.05080488
144	0x3ca60555	0.020266214
145	0x3dec89f7	0.11549752
146	0x3dcfdd49	0.10149629
147	0xbc982189	-0.018570678
148	0xbdd781fd	-0.1052284
149	0xbdd00802	-0.10157777
150	0x3d26c19e	0.04071199
151	0xbd80d1c3	-0.06290009
152	0xbd6417a4	-0.055686608
153	0x3d8bce1b	0.06826421
154	0xbdc76ee0	-0.097379446
155	0x3c0c52fc	0.008564707
156	0x3bd83ef1	0.0065993
157	0x3df3332e	0.11874996
158	0xbd0f81a6	-0.03503575
159	0xbdc53b85	-0.09630493
160	0x3cee8cb9	0.029119836
161	0xbdb034db	-0.086038314
162	0xbdeec0a5	-0.11657838
163	0x3df76010	0.12078869
164	0xbdbf155f	-0.09330248
165	0x3d76fb4b	0.060298245
166	0xbb8849b5	-0.004159177
167	0xbdda5ebd	-0.10662601
168	0x3d71a040	0.058990717
169	0x3da3212d	0.07965312
170	0xbdc8c587	-0.098033
171	0xbd2a2ef1	-0.041548673
172	0x3d98cd34	0.074610144
173	0x3de9b9fe	0.11412428
174	0xbd0bf0ad	-0.034165073
175	0x3cd1ee77	0.025626404
176	0xbdc33ed2	-0.095334664
177	0xbdb5bf07	-0.08874326
178	0x3d04a965	0.03238811
179	0xbb9c3e55	-0.0047681727
180	0xbd582cb1	-0.052776996
181	0x3d98f9ec	0.07469544
182	0x3bbafac0	0.0057061613
183	0xbd1780dc	-0.036988124
184	0xbdd3c687	-0.103406005
185	0xbdc62454	-0.09674898
186	0x3ca709c3	0.020390397
187	0x3de73d70	0.11291015
188	0x3d2d2eb4	0.042280868
189	0x3b9200e5	0.004455673
190	0x3d08c3e2	0.033389933
191	0x3c281f4b	0.010261367

weight f4 [2, 64]
0	0x3df3c9b7	0.119037084
1	0xbdba1b66	-0.09087257
2	0x3cef2ef1	0.029197188
3	0x3d518b7d	0.051158417
4	0xbd424d01	-0.047436718
5	0xbdaf7115	-0.085664906
6	0xbd936a92	-0.07198061
7	0xbd142a8c	-0.03617339
8	0xbb178c03	-0.0023124225
9	0xbd889d91	-0.066706784
10	0xbd777521	-0.060414437
11	0x3d228958	0.039681762
12	0x3bdd019c	0.0067445766
13	0x3bcbee43	0.0062234714
14	0xbc1d1613	-0.009587782
15	0xbd58837f	-0.05285978
16	0x3ddb9edd	0.1072366
17	0x3dd9e794	0.10639873
18	0x3c1086f8	0.008821242
19	0x3dcce1a1	0.10003973
20	0x3df1fb25	0.1181548
21	0xbd082972	-0.03324265
22	0x3de07de7	0.10961514
23	0xbbc3e45f	-0.0059781517
24	0x3df2fe8b	0.118649565
25	0xbd8984fc	-0.06714818
26	0x3d798cc4	0.06092526
27	0xbdf13802	-0.11778261
28	0x3d9c3a12	0.076282635
29	0xbd573a3f	-0.052545782
30	0xbd8e09cb	-0.069354616
31	0xbba6258f	-0.0050703953
32	0x3ceace25	0.02866275
33	0xbd86cbd0	-0.06581843
34	0xbdb7cb2c	-0.08974299
35	0xbd140080	-0.03613329
36	0xbd7f8e33	-0.06239147
37	0x3dcd74e7	0.10032063
38	0xbcb622bd	-0.022233361
39	0xbdbd7c29	-0.09252197
40	0x3d9b1829	0.075729676
41	0x3d270daa	0.040784515
42	0x3d800593	0.06251063
43	0x3d3cdc93	0.046108793
44	0x3db5e5ef	0.08881747
45	0xbd8abaa7	-0.06773882
46	0x3ca6f165	0.020378778
47	0x3de5f1b7	0.11227744
48	0xbd3626c8	-0.04447058
49	0x3b145add	0.0022637167
50	0x3cbd94a3	0.023142165
51	0x3db9b99b	0.090686046
52	0xbde9b80e	-0.11412059
53	0xbd26a3bb	-0.04068349
54	0x3d5ad8be	0.053429358
55	0x3dba7786	0.091048285
56	0xbd31e60f	-0.04343229
57	0xbd95ac22	-0.07308222
58	0xbcda2e96	-0.026633542
59	0x3dd3fe3f	0.10351228
60	0xbdaa43b7	-0.08313697
61	0x3b6f32df	0.0036498827
62	0x3d9e5649	0.07731301
63	0x3c681a85	0.014166479
64	0xbddb0e3f	-0.106960766
65	0x3cb07579	0.02154039
66	0x3dfbe2a3	0.12299087
67	0xbd9171bc	-0.07101771
68	0x3ccc0f18	0.024909541
69	0xbdef37fb	-0.11680599
70	0xbd3c75fd	-0.04601096
71	0x3df7fe26	0.12109022
72	0x3d845559	0.06461591
73	0x3de9dea5	0.11419419
74	0xbd9e5040	-0.0773015
75	0xbc392421	-0.011300118
76	0x3da66921	0.081255205
77	0x3d8fd54a	0.070231035
78	0x3d8a6dde	0.06759237
79	0x3cf1981f	0.029491482
80	0xbdfd5067	-0.12368851
81	0xbdee4266	-0.11633758
82	0xbd66bfe5	-0.05633535
83	0x3c89f44f	0.016840128
84	0x3daa0fcb	0.083037935
85	0x3db375b5	0.08762685
86	0xbd774907	-0.06037238
87	0xbd54e77c	-0.051978573
88	0xbd8e2b6f	-0.06941878
89	0x3ccfa8d6	0.025349062
90	0x3cef7966	0.029232692
91	0xbd6888df	-0.056771155
92	0xbd518f53	-0.051162075
93	0xbd05ab61	-0.032634143
94	0xbc9602ac	-0.01831182
95	0xbd20abea	-0.03922645
96	0x3deba3ff	0.11505889
97	0x3dc89c7e	0.097954735
98	0x3d560b91	0.052257124
99	0xbd0e067c	-0.034674153
100	0xbcdcd419	-0.026956605
101	0x3dc602fb	0.09668537
102	0x3d2afe08	0.04174617
103	0xbd9b7b89	-0.07591922
104	0xbc9c29ef	-0.019062964
105	0x3de81fe4	0.11334208
106	0x3dd3ce82	0.103421226
107	0xbd54123b	-0.0517752
108	0x3cea0660	0.028567493
109	0xbd425be1	-0.047450904
110	0xbc14a335	-0.009072115
111	0x3c0097f2	0.007848727
112	0xbda8628d	-0.08221922
113	0xbd838370	-0.06421554
114	0xbdf716b8	-0.1206488
115	0xbdb01857	-0.085983925
116	0x3dfb9c7a	0.12285705
117	0xbdb9335e	-0.09043001
118	0x3dc8c0ce	0.098023996
119	0x3dd485da	0.10377093
120	0x3d23dfd3	0.040008377
121	0x3b8ad2bc	0.0042365473
122	0xbd860c3c	-0.06545302
123	0x3c7fab76	0.015604844
124	0x3d62d70e	0.055380873
125	0x3d2416c7	0.040060785
126	0xbdccbfeb	-0.09997543
127	0xbdccb63a	-0.099956945

bias f4 [2]
0	0xbd530e0e	-0.051527075
1	0x3dae3300	0.08505821

weight_ih_l0 f4 [192, 66]
0	0x3d0b099f	0.033944722
1	0xbc865ffd	-0.016403193
2	0x3dae2b6d	0.085043766
3	0xbd29ef21	-0.041487817
4	0x3d8dd895	0.06926075
5	0xbd7b7b0a	-0.061396636
6	0xbc226cb9	-0.009913617
7	0x3ba28df4	0.00496077
8	0x3dc656db	0.09684535
9	0xbd8d5593	-0.069010876
10	0xbe08ae99	-0.13347854
11	0x3df8b709	0.12144286
12	0xbd862905	-0.065507926
13	0x3dfc5834	0.12321511
14	0x3d149cde	0.036282413
15	0xbd9e9696	-0.07743566
16	0xbb877494	-0.0041337702
17	0xbd4fff3c	-0.05078052
18	0x3d54189c	0.05178128
19	0x3d94bb6c	0.072623104
20	0x3dd6b662	0.104840055
21	0x3cfa7862	0.030574981
22	0xbdd26daf	-0.10274827
23	0x3dad00a8	0.08447391
24	0xbdd48a19	-0.103779025
25	0xbd84ef63	-0.06490972
26	0xbdbe25a5	-0.09284524
27	0x3dcc3339	0.099707074
28	0x3ddbb98c	0.1072875
29	0xbd811d6b	-0.06304439
30	0xbcd7022a	-0.02624615
31	0x3da66223	0.08124187
32	0x3d3aa197	0.04556426
33	0x3da76aa0	0.08174634
34	0x3c8dffdd	0.01733392
35	0xbdea86db	-0.11451503
36	0xbd1c2961	-0.0381254
37	0xbd8a59e0	-0.067554235
38	0x3d4c5eb7	0.049895015
39	0x3ce42610	0.02785018
40	0xbcaf73b1	-0.02141747
41	0x3d76c21f	0.060243722
42	0x3e0ab640	0.13546085
43	0xbdc420b0	-0.09576547
44	0x3d8fbd4d	0.07018528
45	0x3de137be	0.1099696
46	0x3de482bc	0.11157748
47	0xbbe9a68c	-0.0071304496
48	0xbd6f7fbb	-0.058471423
49	0xbd638102	-0.055542953
50	0x3dc7de50	0.097591996
51	0x3d9cf4e5	0.076638974
52	0xbda6b203	-0.08139422
53	0xbd99d12d	-0.075106
54	0x3d94e2c2	0.07269813
55	0x3cc49c71	0.024000378
56	0x3de32c49	0.11092431
57	0xbdfe29a8	-0.12410289
58	0x3d77b7b8	0.060477942
59	0x3ce37b90	0.02776888
60	0xbd1d15a0	-0.0383507
61	0xbdbc5853	-0.09196534
62	0x3c9d8298	0.019227311
63	0x3d298370	0.041385114
64	0x3d1b7cd4	0.037960842
65	0xbb60c46c	-0.0034296764
66	0xbd3ef153	-0.046616863
67	0xbceeada0	-0.029135525
68	0x3d9425a6	0.07233743
69	0x3d121843	0.03566767
70	0x3d623743	0.055228483
71	0x3da3a7f3	0.07991018
72	0x3ca702fc	0.020387165
73	0xbd2d7bdf	-0.04235446
74	0xbd206cba	-0.03916619
75	0x3c8e826c	0.017396174
76	0xbd7bc9bf	-0.061471697
77	0x3dd1e0fa	0.10247989
78	0x3daf2a4b	0.085529886
79	0xbd248966	-0.040170096
80	0x3df9fbb5	0.122062124
81	0xbd993b22	-0.07481982
82	0xbde8e0ee	-0.11371027
83	0xbdba281a	-0.0908968
84	0x3dd183d7	0.102302246
85	0xbd5612ca	-0.052264012
86	0x3db39b8c	0.087699026
87	0xbd8f2d72	-0.0699109
88	0x3dc2b466	0.095070645
89	0x3dc5b0bd	0.09652851
90	0x3db79e40	0.08965731
91	0xbdca1345	-0.098669566
92	0xbe12a925	-0.14322336
93	0x3dec5d89	0.11541278
94	0x3d26dfc2	0.040740736
95	0x3d8b297e	0.067950234
96	0x3dbb2051	0.09137023
97	0xbcd6b3ee	-0.026208844
98	0x3dc94af8	0.09828752
99	0xbd8ba873	-0.068192385
100	0x3dc93d93	0.098261975
101	0xbdedb629	-0.1160701
102	0xbde5f232	-0.11227836
103	0x3d065097	0.0327917
104	0x3b46bb7d	0.0030324154
105	0x3da002fa	0.07813068
106	0xbd37c0d1	-0.04486162
107	0xbcfefefe	-0.03112745
108	0x3d6acd6c	0.05732481
109	0x3e070f62	0.13189462
110	0xbc481e48	-0.012214251
111	0x3d448ee3	0.04798783
112	0xbc89c87d	-0.016819233
113	0xbda86b69	-0.08223612
114	0x3dc34953	0.0953547
115	0xbcb4d7ab	-0.022075495
116	0xbd26180f	-0.040550288
117	0x3deee70d	0.11665163
118	0xbd7db1f2	-0.06193728
119	0x3cb1d41d	0.021707589
120	0x3c7b3f17	0.015334866
121	0x3e0bfc89	0.13670553
122	0xbdd90378	-0.10596365
123	0xbddaf9a5	-0.10692147
124	0xbc1878d9	-0.009306156
125	0xba8b7e44	-0.0010642488
126	0xbd329587	-0.04359963
127	0xbd3c4c74	-0.04597135
128	0xbd6e448a	-0.058170833
129	0x3d871dda	0.065974906
130	0x3c899187	0.016793026
131	0x3988415a	0.00025988632
132	0x3c72861d	0.014802483
133	0xbcd31665	-0.025767514
134	0xbcbc04e0	-0.022951543
135	0x3d895b3c	0.06706855
136	0x3dd5fcb2	0.104485884
137	0x3dcb512a	0.0992759
138	0x3d6c770b	0.057730716
139	0x3c03a136	0.008034041
140	0x3d6e5819	0.058189485
141	0x3d7886af	0.06067532
142	0x3d5a3053	0.05326874
143	0x3e078322	0.13233617
144	0xbde1dbd4	-0.11028257
145	0x3d01fe11	0.031736437
146	0xbd84807d	-0.0646982
147	0xbd98c791	-0.07459939
148	0xbdd4b9cb	-0.10387
149	0x3dfaf7c4	0.12254289
150	0x3cf265cf	0.029589562
151	0x39853677	0.00025408316
152	0xbdd5faa8	-0.104481995
153	0xbdbbd6f3	-0.09171858
154	0xbd5e40dd	-0.054261077
155	0xbcac37e0	-0.021022737
156	0x3db41528	0.08793098
157	0xbddaf251	-0.106907494
158	0x3d3fa0d7	0.04678425
159	0xbd9aea0c	-0.07564172
160	0x3da11e2d	0.07867084
161	0x3dad6920	0.08467317
162	0x3de09535	0.10965959
163	0x3ca26e0a	0.019827861
164	0xbdf47584	-0.11936477
165	0xbc6c3c01	-0.014418603
166	0xbdcd90bf	-0.10037374
167	0x3cfa00f8	0.03051804
168	0xbd90cf7d	-0.07070825
169	0xbd140d2a	-0.036145367
170	0xbdb3f136	-0.08786242
171	0x3caff0a0	0.021477044
172	0x3bbbacdb	0.005727393
173	0xbce0768b	-0.027400276
174	0x3df97651	0.1218077
175	0x3cc160e7	0.023605777
176	0xbdd14aa2	-0.10219313
177	0xbdcb1525	-0.099161424
178	0x3daa2655	0.083080925
179	0x3dfa8762	0.122328535
180	0x3cf6acaf	0.030111639
181	0x3dd780ad	0.1052259
182	0xbdfe5603	-0.12418749
183	0xbdb3189e	-0.0874493
184	0x3c1664e9	0.009179332
185	0x3d78f195	0.060777266
186	0x3daa7985	0.08323959
187	0xbde437df	-0.11143469
188	0x3db91bcc	0.09038505
189	0xbd6f0eba	-0.058363654
190	0x3d590a8c	0.052988574
191	0x3e0c375f	0.13692997
192	0xbd611894	-0.05495508
193	0xbcd5bdf3	-0.026091551
194	0xbbcfd8f6	-0.0063430024
195	0x3da3b9ea	0.07994445
196	0x3dd1b7b6	0.10240118
197	0x3dc589ba	0.0964541
198	0x3d434cb5	0.047680575
199	0xbd9e80a8	-0.07739383
200	0x3de254b0	0.11051309
201	0x3db3647a	0.08759399
202	0x3de56102	0.112001434
203	0x3d0c6f4f	0.03428584
204	0x3d7dffd4	0.062011555
205	0x3ca2d7aa	0.019878227
206	0x3dc80aed	0.09767709
207	0xbd89d49c	-0.06730005
208	0x3d89bff7	0.067260675
209	0xbdab86f1	-0.083753474
210	0x3ded11a0	0.11575627
211	0x3c0cbc26	0.00858978
212	0xbd42b25e	-0.047533385
213	0xbdca58de	-0.09880231
214	0xbdb0b658	-0.08628529
215	0xbb75f732	-0.0037531373
216	0x3cb1705e	0.021660026
217	0x3d560ec9	0.052260194
218	0x3d61498f	0.05500179
219	0x3d379a00	0.0448246
220	0x3dd3fd36	0.103510305
221	0x3c27f59d	0.01025143
222	0xbd1cb563	-0.03825892
223	0x3d7b343e	0.06132912
224	0xbd434fe0	-0.047683597
225	0xbc832497	-0.016008658
226	0xbd8254ab	-0.063638054
227	0xbc95c8d7	-0.018284244
228	0x3d221747	0.03957298
229	0x3da441bc	0.0802035
230	0xbdbe82e8	-0.09302312
231	0x3ce14c54	0.027502216
232	0xbd5e330f	-0.054247912
233	0xbd162c16	-0.036663137
234	0xbd053193	-0.03251798
235	0xbdcde184	-0.10052779
236	0x3da09770	0.078413844
237	0x3cf29734	0.029613115
238	0xbd496ab6	-0.049174033
239	0xbdc538c4	-0.09629968
240	0xbda10ee0	-0.07864165
241	0xbd916d67	-0.07100945
242	0x3c3f1453	0.0116625605
243	0x3d676b8c	0.05649905
244	0xbdae3d6a	-0.085078076
245	0x3d5c38b3	0.05376501
246	0x3db9445c	0.09046242
247	0xbdade702	-0.08491327
248	0xbd6ce4f7	-0.057835545
249	0xbd99fd98	-0.07519072
250	0x3dd6e9d4	0.10493818
251	0xbd2dbb48	-0.042414933
252	0x3cfa089d	0.030521685
253	0xbd1d1710	-0.038352072
254	0x3df74b93	0.120749615
255	0xbc5c6993	-0.013452905

weight_hh_l0 f4 [192, 64]
0	0xbdfa35f0	-0.12217319
1	0x3d1299c1	0.035791162
2	0xbe0859bf	-0.13315485
3	0x3ca1c77d	0.019748444
4	0x3d974297	0.07385748
5	0xbdc28313	-0.09497657
6	0xbb0da03f	-0.0021610407
7	0x3dcf1b6b	0.101126514
8	0x3d32e21f	0.043672677
9	0xbdce9e32	-0.10088767
10	0xbdc3ab08	-0.09554106
11	0x3dc3d8b9	0.09562821
12	0x3b92b0f5	0.0044766613
13	0x3d34e16f	0.044160303
14	0xbdcab5f0	-0.09897983
15	0xbca1c1d1	-0.01974574
16	0xbd80d4fc	-0.062906235
17	0x3ddbc75c	0.10731384
18	0xbdd90f6e	-0.10598646
19	0xbddbce5e	-0.10732721
20	0x3d97ac12	0.07405867
21	0xbcee4112	-0.029083762
22	0x3d0ec565	0.03485622
23	0x3d9c9bf7	0.076469354
24	0xbdd683d9	-0.10474367
25	0xbd93c3b2	-0.0721506
26	0x3d78e890	0.060768664
27	0xbccfe61c	-0.02537828
28	0xbda7d63e	-0.0819516
29	0x3ded3e37	0.11584132
30	0x3d8d44c9	0.06897885
31	0x3e02eecb	0.12786405
32	0x3dbe0608	0.09278494
33	0xbcc28af4	-0.023747899
34	0x3d29ca08	0.041452438
35	0xbdd619dc	-0.10454151
36	0x3dab0506	0.083505675
37	0xbd9e33e2	-0.077247396
38	0x3c003964	0.007826183
39	0x3df21e58	0.11822194
40	0x3d69a4ea	0.05704204
41	0x3dcb9996	0.099414036
42	0x3cb89bf5	0.022535304
43	0xbdbffc77	-0.09374326
44	0x3d9e232b	0.077215515
45	0x3d1fbde2	0.038999446
46	0x3d6d5cd7	0.057949867
47	0x3daaf686	0.08347802
48	0x3ddf08db	0.10890361
49	0x3e0c6a19	0.13712348
50	0xbd719e07	-0.058988597
51	0xbcbcace2	-0.023031656
52	0x3d0b1b15	0.033961374
53	0xbccca9ee	-0.024983373
54	0x3d40d639	0.0470793
55	0x3dac3ded	0.08410249
56	0x3dfe728e	0.12424193
57	0xbd80e609	-0.06293876
58	0x3e054f7c	0.13018602
59	0xbdad9dba	-0.084773496
60	0x3dc2134f	0.09476339
61	0xbdf15696	-0.11784093
62	0xbdc0ed13	-0.09420218
63	0xbdbeab49	-0.09310014
64	0xbd96d7df	-0.07365393
65	0x3d985960	0.07438922
66	0x3d829ab1	0.06377161
67	0xbc825b65	-0.015912721
68	0x3daa3580	0.083109856
69	0x3d675936	0.056481563
70	0x3c1f0a11	0.00970699
71	0x3d2c1c25	0.04201903
72	0x3cdead18	0.027182147
73	0x3d901146	0.07034545
74	0xbdae5121	-0.08511568
75	0xbe01fdc8	-0.12694466
76	0x3dd8837d	0.105719544
77	0xbd8e7c35	-0.06957284
78	0xbcfef588	-0.031122938
79	0x3dbb566c	0.09147343
80	0xbb8ba3a5	-0.0042614513
81	0x3dbbf44c	0.09177455
82	0x3dbb428b	0.091435514
83	0x3dc80778	0.097670496
84	0xbdbc6c67	-0.092003636
85	0xbc8ad35e	-0.01694649
86	0xbb1c52c6	-0.0023853048
87	0xbc1fb918	-0.00974872
88	0x3da90f8e	0.0825492
89	0xbc28d0f9	-0.010303729
90	0x3c8655fa	0.016398419
91	0x3d919a81	0.071095474
92	0xbcf2e739	-0.029651271
93	0xbd8e66b8	-0.06953186
94	0xbd2cb561	-0.042165164
95	0xbde9d228	-0.11417037
96	0xbdbacca0	-0.0912106
97	0xbdea2f3b	-0.1143479
98	0x3d27934d	0.04091196
99	0x3d97a03d	0.0740361
100	0x3c85ca38	0.016331777
101	0x3c048601	0.00808859
102	0x3daeb6f2	0.08530988
103	0xbda2bf4d	-0.07946644
104	0xbc7e9a0d	-0.015539658
105	0xbdbc440e	-0.09192668
106	0x3dffe3e1	0.12494636
107	0x3d5207eb	0.051277082
108	0x3dacc068	0.08435136
109	0x3da134bc	0.078713864
110	0xbd6f9de2	-0.05850018
111	0x3cee5550	0.029093415
112	0xbd63d49f	-0.055622693
113	0xbd84db07	-0.06487089
114	0xbd4c2892	-0.04984338
115	0xbb691a82	-0.0035568778
116	0xbe06f585	-0.13179596
117	0xbdea0659	-0.11426992
118	0xbad88171	-0.0016518069
119	0xbd9021a3	-0.07037666
120	0x3d442744	0.04788901
121	0x3db61262	0.08890225
122	0xbda1a487	-0.07892709
123	0x3bbc6c38	0.0057502054
124	0x3cabe0b9	0.02098118
125	0x3d9a6386	0.07538514
126	0xbcb40202	-0.021973614
127	0xbd9267b2	-0.071486846
128	0xbdccee29	-0.10006363
129	0x3d9a6c43	0.075401805
130	0xbda9efa2	-0.082976595
131	0xbdd1122f	-0.10208546
132	0xbd100aab	-0.035166424
133	0x3de39850	0.11113036
134	0xbc5b746a	-0.0133944545
135	0xbdeece11	-0.11660398
136	0xbd684e9f	-0.056715604
137	0x3da78855	0.081803
138	0xbbb6bced	-0.005576721
139	0x3cf18908	0.029484287
140	0xbd66c69b	-0.05634175
141	0xbdc5435f	-0.09631991
142	0xbdf527bd	-0.1197047
143	0x3d151e65	0.03640594
144	0x3b4dbadb	0.0031391892
145	0x3d91fdc3	0.07128479
146	0x3cb2735e	0.021783527
147	0x3cf2d16b	0.029640874
148	0x3e0c4568	0.13698351
149	0x3d7fa038	0.062408656
150	0x3ddec5f5	0.10877601
151	0x3d88aaac	0.06673178
152	0x3dbcd7a3	0.09220817
153	0xbd32a419	-0.043613527
154	0xbdece6c4	-0.115674525
155	0xbc8d1e8d	-0.017226482
156	0xbd39c920	-0.045357823
157	0xbdaae237	-0.08343928
158	0xbbde5175	-0.006784613
159	0x3c417695	0.011808057
160	0x3d2c22b2	0.042025276
161	0x3c73d3ce	0.014882041
162	0x3d3d3f71	0.04620308
163	0xbcb4d1b6	-0.022072654
164	0xbdec822d	-0.115482666
165	0xbc8f764f	-0.017512469
166	0xbdb6f15c	-0.089327544
167	0x3cdc71b2	0.026909683
168	0xbdee906c	-0.1164864
169	0xbdc54424	-0.096321374
170	0xbdbbcc43	-0.09169819
171	0xbda24d24	-0.0792487
172	0xbd9c23ac	-0.07623991
173	0x3dbd3d7f	0.09240245
174	0xbb467d06	-0.0030286922
175	0x3e0adaa5	0.13559969
176	0xbde4dc06	-0.11174779
177	0xbb8ba4c9	-0.0042615873
178	0x3dbb6896	0.091508076
179	0x3d23ec06	0.04002001
180	0xbd749d13	-0.05972011
181	0x3a0e0c90	0.0005418742
182	0xbd906b4d	-0.07051716
183	0xbe0263be	-0.12733361
184	0x3dc594ee	0.09647547
185	0xbd5075c7	-0.05089357
186	0xbde17879	-0.110093065
187	0x3d5e7c85	0.05431797
188	0x3d0c27f9	0.03421781
189	0xbce9ed28	-0.028555468
190	0x3c1b52ad	0.009480161
191	0x3c14bf35	0.00907879
192	0x3d64cf23	0.055861603
193	0x3defa91e	0.117021784
194	0x3d1c8c48	0.03821972
195	0xbde55803	-0.111984275
196	0x3de5b6da	0.11216517
197	0x3d605d44	0.054776445
198	0xbd303dee	-0.04302781
199	0xbdd486e1	-0.103772886
200	0x3d04a0ac	0.03237979
201	0xbd788fa9	-0.06068388
202	0x3da6af2c	0.0813888
203	0x3d7d6eb3	0.06187315
204	0x3b8ed1bf	0.0043585
205	0xbde5c792	-0.11219706
206	0xbdae3034	-0.08505288
207	0x3c8ba30c	0.01704552
208	0xbd4aabfb	-0.04948042
209	0x3dc34540	0.09534693
210	0x3d6018a3	0.054710995
211	0xbd50c973	-0.050973367
212	0xbd0f083b	-0.03491996
213	0x3bef0a47	0.0072949263
214	0xbd6c2700	-0.05765438
215	0xbdfda361	-0.12384678
216	0xbc078ced	-0.008273345
217	0xbd46ca4d	-0.048532773
218	0x3d13ab00	0.03605175
219	0xbde5a48a	-0.11213024
220	0xbde51be1	-0.11186958
221	0x3dc2902c	0.09500155
222	0xbd9acf8f	-0.0755912
223	0xbcf59a5a	-0.029980827
224	0xbd5709be	-0.052499525
225	0x3caa8f94	0.020820417
226	0x3d94c6be	0.072644696
227	0x3ce39996	0.027783196
228	0x3b41b7c4	0.0029558996
229	0xbd8dae5c	-0.06918022
230	0x3a1bf67e	0.0005949511
231	0xbd2424c0	-0.04007411
232	0x3dde6f2d	0.10861049
233	0x3d9db61c	0.0770075
234	0xbcc9ba43	-0.02462495
235	0xbd8b767f	-0.06809711
236	0x3ad84d48	0.0016502524
237	0xbba33aa3	-0.0049813553
238	0xbd434c2d	-0.04768007
239	0x3cfd51a7	0.030922724
240	0xbd704808	-0.058662444
241	0x3da3e04a	0.08001764
242	0x3dc3445b	0.09534522
243	0x3de2c922	0.11073519
244	0x3db03827	0.0860446
245	0x3cdb91b8	0.026802883
246	0x3d125969	0.0357298
247	0xbb16c47e	-0.0023005302
248	0x3d1ab1e4	0.037767306
249	0x3da4ca56	0.08046405
250	0xbd7e6518	-0.06210813
251	0x3d8b66a3	0.06806686
252	0xbc37911f	-0.011204033
253	0x3da7238f	0.08161079
254	0x3d86d441	0.06583453
255	0xbcacf5a6	-0.021113228

bias_ih_l0 f4 [192]
0	0xbe029726	-0.12752971
1	0xbd8b001a	-0.06787129
2	0xbb212fff	-0.0024595258
3	0xbd8c2c17	-0.06844347
4	0x3dcfab1d	0.10140059
5	0xbd51238b	-0.051059287
6	0xbda1f48a	-0.0790797
7	0x3dd32273	0.10309305
8	0x3d849c24	0.06475094
9	0xbcc8d55e	-0.024515804
10	0x3c82160b	0.015879652
11	0x3d8fc0a6	0.07019167
12	0xbd7ab265	-0.061205287
13	0xbd89a53a	-0.067209676
14	0x3de4be5d	0.111691214
15	0x3ddecc91	0.10878862
16	0xbe02aba0	-0.12760782
17	0xbd956ef3	-0.072965525
18	0xbdd2a115	-0.1028463
19	0x3dddc1a0	0.10827947
20	0xbd536bd2	-0.051616497
21	0xbd9b3bf0	-0.075797915
22	0xbcb1f0bd	-0.021721238
23	0x3df62a28	0.120197594
24	0xbd4084e0	-0.04700172
25	0xbdf0687f	-0.11738681
26	0x3df4b011	0.119476445
27	0xbd84905b	-0.06472846
28	0x3dc44d51	0.095850594
29	0xbd011b12	-0.031519957
30	0x3dade2c5	0.084905185
31	0x3d32c587	0.043645408
32	0x3dc1be83	0.09460165
33	0x3c95daff	0.018292902
34	0xbde89ae9	-0.11357672
35	0xbcb4e084	-0.022079714
36	0xbdd7a27c	-0.10529038
37	0xbd699dd2	-0.057035275
38	0x3cab14ff	0.020884035
39	0x3d32d144	0.043656603
40	0x3d940afa	0.07228656
41	0x3dad0bf1	0.08449543
42	0x3d58e2cd	0.05295067
43	0x3d918a61	0.07106472
44	0xbcfd9720	-0.030955851
45	0xbd1705ec	-0.036870882
46	0x3df86392	0.121283665
47	0xbc543ac0	-0.01295346
48	0x3decc9eb	0.1156195
49	0xbd35f9bc	-0.04442762
50	0x3d40c02c	0.04705827
51	0x3da538ef	0.080675
52	0xbdb80335	-0.08984987
53	0xbde1057d	-0.10987375
54	0x3e033e31	0.12816693
55	0xbdce417d	-0.10071085
56	0x3c0f33f4	0.008740414
57	0x3e12b9de	0.14328715
58	0xbd9f2231	-0.07770193
59	0xbd690c16	-0.05689629
60	0x3cb2e07b	0.021835556
61	0xbd250723	-0.04029001
62	0xbd09d8a6	-0.033653878
63	0x3cc51698	0.024058625
64	0xbdc3425d	-0.09534142
65	0xbddcbc18	-0.107780635
66	0x3dcce74a	0.100050524
67	0x3ddf1983	0.10893538
68	0xbc9312f6	-0.017953377
69	0x3dbe861a	0.093029216
70	0xbd3a1823	-0.045433175
71	0xbd7d718d	-0.06187587
72	0xbdb4ac8b	-0.088219725
73	0x3d76b577	0.060231652
74	0xbd44e608	-0.048070937
75	0xbdd0c3e1	-0.10193611
76	0xbdc37a8d	-0.09544859
77	0xbba9c345	-0.0051807486
78	0xbdda217b	-0.10650917
79	0x3db77621	0.08958078
80	0xbd23259a	-0.03983078
81	0xbd854e78	-0.06509107
82	0x3db60353	0.08887353
83	0x3da20f43	0.07913067
84	0x3ca4cf0b	0.020118257
85	0x3d54cafe	0.0519514
86	0xbdee6348	-0.1164003
87	0x3d9f3242	0.07773258
88	0xbd9e250a	-0.077219084
89	0x3dc53c6c	0.09630665
90	0xbde92233	-0.11383476
91	0x3c66d020	0.014087707
92	0xbbc17702	-0.0059040794
93	0x3dd8902d	0.10574374
94	0x3d8c304f	0.06845152
95	0x3ccc40fc	0.02493333
96	0xbc4cfd85	-0.012511616
97	0xbd6b4142	-0.05743528
98	0xba486424	-0.00076443166
99	0x3d5ba18a	0.053620853
100	0xbc9ab092	-0.018883023
101	0x3b4ded1c	0.0031421846
102	0xbe02214b	-0.12708013
103	0xbd24cadd	-0.040232528
104	0x3d9576e1	0.07298065
105	0x3cefcdcd	0.029272938
106	0xbd82a32e	-0.0637878
107	0xbe0b05ca	-0.13576427
108	0x3df208fe	0.118181214
109	0xbca258b5	-0.01981769
110	0x3d8f3889	0.06993205
111	0xbd8dfd7f	-0.06933116
112	0xbd2c9847	-0.04213741
113	0xbe0b43db	-0.13600104
114	0x3d97ce47	0.07412391
115	0xbd91698d	-0.0710021
116	0xbce70336	-0.028199773
117	0x3d79f11b	0.06102095
118	0x3dcb77a4	0.09934929
119	0x3c17fda5	0.009276782
120	0xbd2ee1c2	-0.04269577
121	0xbd1c8636	-0.03821393
122	0xbe135630	-0.14388347
123	0xbd654401	-0.055973057
124	0x3d374117	0.04473981
125	0x3d6855fb	0.056722622
126	0xbaacdf1a	-0.0013189048
127	0x3dd069e2	0.101764455
128	0xbe01bf7b	-0.126707
129	0xbbbc8002	-0.0057525644
130	0x3c7e1eae	0.015510244
131	0x3dadcdb3	0.084865
132	0x3dd99a7a	0.10625167
133	0xbd492854	-0.049110726
134	0x3d9c0b4b	0.076193415
135	0xbdbfa7ac	-0.09358153
136	0x3e05d675	0.1307009
137	0x3d1dc4be	0.038517706
138	0x3bb33c8f	0.0054698656
139	0xbbfb9ad8	-0.007678371
140	0xbdc84d65	-0.09780387
141	0x3d337c83	0.043819916
142	0x3d857042	0.06515552
143	0x3da85970	0.08220184
144	0xbdea757f	-0.11448192
145	0x3c4c5bc5	0.012473051
146	0x3d937f19	0.07201976
147	0x3c3d630f	0.011559262
148	0x3da82c02	0.08211519
149	0x3cea521b	0.028603604
150	0x3dc1a1fb	0.094547234
151	0x3d506702	0.050879486
152	0xbd4a6882	-0.049416073
153	0x3dff88ff	0.12477302
154	0xbc78d0d5	-0.015186508
155	0x3e009108	0.12555325
156	0x3c39a93d	0.011331853
157	0x3dc3de8d	0.095639326
158	0xbdd1f89e	-0.10252498
159	0xbdba697e	-0.09102152
160	0xbdf6ce2c	-0.12051043
161	0xbc7a7d2a	-0.0152886305
162	0x3e006f8f	0.12542556
163	0x3daa5356	0.08316676
164	0x3d99599b	0.07487794
165	0x3d92dd09	0.07171065
166	0x3dc37bf4	0.095451266
167	0xbd870776	-0.0659322
168	0xbda9b280	-0.08285999
169	0xbd004a06	-0.031320594
170	0x3dec3c42	0.11534931
171	0xbe008d9f	-0.12554024
172	0xbc3f66bd	-0.01168221
173	0xbcd03c52	-0.025419388
174	0x3db39459	0.087685294
175	0xbde09a8b	-0.10966977
176	0x3dcdd546	0.10050444
177	0x3c802f5c	0.015647583
178	0x3d0c90c2	0.03431774
179	0x3e0b7b38	0.13621223
180	0xbdbd1bca	-0.09233816
181	0xbd94e156	-0.07269542
182	0xbb723b0f	-0.0036961471
183	0x3d15659d	0.03647386
184	0x3d546228	0.05185142
185	0x3cb02a1c	0.021504454
186	0xbd6f3805	-0.058403034
187	0x3dcbd139	0.099520154
188	0x3d9b89bd	0.07594631
189	0xbc0a5b49	-0.008444616
190	0x3bafd1c9	0.0053655845
191	0xbd4c1e5e	-0.049833648
