models/demo/checkpoint/trained_irdpg_40.pth (torch, 409346 bytes, 22 tensors)

weight_ih_l0 f4 [192, 64]
000000 93 ae 41 3d 84 f5 84 bc 33 70 a8 bc b7 87 44 bd
       0.047285628 -0.016230352 -0.020561313 -0.04798099
000010 89 19 bd bd d7 44 8d bd 4d b6 b4 3d 3c d6 f1 bd
       -0.09233386 -0.06897896 0.088238336 -0.1180844
000020 f3 b9 9f bd ba b9 42 3d 98 a5 8f bb 19 b8 97 3d
       -0.07799139 0.047540404 -0.004383754 0.07408161
000030 9e 88 44 bd e1 52 e8 3d 0a c5 13 bd 5d a2 c4 bd
       -0.04798185 0.11343933 -0.036076583 -0.09601281
000040 0b 29 7a bd 92 4b ce bb f3 ea b2 3d d5 2a d5 3d
       -0.061074298 -0.00629563 0.08736219 0.1040856
000050 40 f3 d3 3b b6 07 ba 3d a3 d1 be bd bb ad bf bd
       0.0064682066 0.09083502 -0.09317329 -0.09359308
000060 df 53 dc 3d b4 57 88 3d 99 0e 79 3d 30 6b 06 3c
       0.10758185 0.06657353 0.060804937 0.008204266
000070 79 37 98 3d e9 92 fd 3d e3 1b db 3d 08 15 af bd
       0.074324556 0.123815365 0.10698678 -0.08548933
000080 60 6f ae 3d 77 0b bc 3c 8a 93 9b 3d 5d 9f cc bd
       0.08517337 0.022954686 0.075965 -0.09991334
000090 1c e2 8b 3d eb 1a c6 bd 35 e0 1c 3d a5 1a be bd
       0.06830236 -0.09673103 0.038299758 -0.09282426
0000a0 f0 9d af 3c 31 9c f8 3d cb 04 bc 3d 1b 1b 82 bd
       0.021437615 0.12139166 0.09180602 -0.06352826
0000b0 95 16 86 3d e4 b5 8e 3d 78 db e6 3b 1a d6 7b 3d
       0.06547276 0.06968287 0.0070452057 0.06148348
0000c0 5d 6f 94 bc 07 f3 f6 bd df b1 c5 bd 37 48 71 3a
       -0.018119508 -0.120580725 -0.09653067 0.0009204181
0000d0 f1 52 1e 3d f1 ed e6 bd 49 82 d9 bb 1d 87 22 bd
       0.038653318 -0.112758525 -0.0066378457 -0.039679635
0000e0 20 dd 84 bd 7b 17 d8 3d 18 2a 19 3d 32 89 e2 bb
       -0.06487489 0.105513535 0.03739366 -0.0069133276
0000f0 2b d5 99 3d 98 09 3b bc 0a f6 ec bd f7 a5 a4 bc
       0.07511362 -0.011415862 -0.11570366 -0.02009867
000100 34 0d f0 3d 56 58 ac bd 61 f3 db ba c9 63 30 3d
       0.11721268 -0.08415286 -0.0016780907 0.043063913
000110 a3 6c d8 bd d6 ef e3 3d 94 bc d3 3d d0 93 37 bd
       -0.10567596 0.111297294 0.10338703 -0.0448187
000120 e0 23 26 3d 66 dc ba 3d 78 c6 68 bd 7e 5b 87 bd
       0.040561557 0.09124069 -0.0568299 -0.066092476
000130 6e 71 5d 39 c8 6d 7b bd 55 ae 38 bc f2 e0 a1 3c
       0.00021118458 -0.061383992 -0.011272033 0.019760583
000140 82 ca 90 bd 5e cb f2 bd 25 ae dd bc 42 ec 56 3a
       -0.07069875 -0.118551955 -0.027060578 0.00081986573
000150 c6 d5 c0 bd 98 55 9a 3d 1f e9 17 3d ce fd 0c bc
       -0.09415774 0.07535857 0.037087556 -0.008605434
000160 7b 57 aa bb 13 e2 a5 3d 25 5c 69 3d d2 bf cc bd
       -0.0051984168 0.08099761 0.05697264 -0.09997524
000170 7e 31 16 3d 81 b0 1f 3d 1b 38 fd bd 48 ae cf bd
       0.036668293 0.038986687 -0.12364217 -0.101406634
000180 e3 96 cb bc c2 34 48 bd b5 34 4a 3d 91 38 99 3d
       -0.024852222 -0.04887844 0.04936667 0.07481492
000190 98 d6 86 3d 09 6a 42 3d 61 c9 bc bd 03 6b f9 3d
       0.06583899 0.047464404 -0.092180975 0.12178614
0001a0 ad ad 09 3b 69 7c 16 bd fd 1f bb bc 77 ad 36 bb
       0.002100806 -0.03673974 -0.022842402 -0.002787439
0001b0 a7 c4 e0 3d 78 ea 01 3d d8 27 b8 3d db 6d 42 3d
       0.109750085 0.031717747 0.089919746 0.047468048
0001c0 bf 10 fe bd 92 05 9b 3d 2f 5b 1d 3d ca f7 9a 3d
       -0.12405538 0.07569422 0.038417038 0.07566793
0001d0 d4 88 a3 bd 1b be 5d 3b bc 5c cd 3d 2c 54 7c bd
       -0.07985082 0.0033835236 0.10027453 -0.06160371
0001e0 93 00 b3 bc 73 5e 23 3d 5f 54 68 3d 29 9f 02 be
       -0.02185086 0.039884996 0.056721088 -0.12756027
0001f0 06 59 f1 3d a3 ac b1 3d 8d b7 97 3c 61 5c 23 3d
       0.11784558 0.08675506 0.018520141 0.03988302
000200 b6 54 01 be e9 85 22 3d ec 85 9b bb 6c b4 11 3c
       -0.12629971 0.039678488 -0.0047461893 0.008893114
000210 5b 18 d2 3d 6d cd 12 3c f4 d3 77 3d 6e bc c4 bd
       0.10258552 0.00896011 0.06050487 -0.096062526
000220 92 8f ca 3b 5a c3 ec 3d 10 ca 99 bd 47 16 b4 bc
       0.0061816657 0.11560698 -0.075092435 -0.021983279
000230 fd 0b 06 bd 11 f0 8b 3d 77 74 fa 3c a6 7d 67 3a
       -0.032726277 0.068328984 0.030573113 0.0008830674
000240 d8 97 97 3d 17 61 9d bd 36 65 e0 bb 2e 4c d2 bd
       0.07402009 -0.07684534 -0.006848003 -0.10268436
000250 4e e1 72 bd f8 d4 ab 3d 99 a3 31 3d 20 e1 f0 3c
       -0.0592969 0.0839023 0.04336891 0.029404223
000260 8e 72 b1 bd 37 f5 e8 3d 7d 5a ce bd e8 a2 45 bd
       -0.08664428 0.11374896 -0.10075853 -0.048251063
000270 d5 bd 16 bc 4b 6e 0e 3d 1a 1d be bd a4 58 d2 bd
       -0.009200533 0.034773152 -0.092828944 -0.10270813
000280 da 3e 8f bd c1 f5 9e bd d4 5a 1f bc 88 15 e0 bc
       -0.0699441 -0.077617176 -0.009726245 -0.027354017
000290 a8 36 ff bd 1a d7 01 3d 58 0b 9a 3d 0c af d4 3c
       -0.12461597 0.031699277 0.07521695 0.025962375
0002a0 b2 90 85 3b 15 7f 7f bd b4 63 f6 3b a2 7c b7 3d
       0.004076087 -0.062377054 0.0075192098 0.08959319
0002b0 57 54 b1 3c 57 9d 97 3d 94 d3 a6 3c 86 14 d5 3b
       0.021646662 0.07403057 0.02036456 0.0065026907
0002c0 13 22 eb 3d 7b 2f 3c bc 4d fa eb 3d 65 3b be bd
       0.114811085 -0.01148593 0.115223505 -0.09288672
0002d0 56 75 87 ba fd ce 70 bd bb 68 79 bc e5 ab a7 bd
       -0.0010334651 -0.05879115 -0.015222724 -0.08187083
0002e0 e6 f1 e6 3d b6 97 68 bc f5 ca 8e bd ed 02 5e bd
       0.11276607 -0.014196327 -0.06972305 -0.05420201
0002f0 37 1c e6 bd d1 32 8b bc f4 ba d6 bd c3 d6 90 3d
       -0.1123585 -0.016992005 -0.10484877 0.070722125
000300 46 8e c0 3d 4c 06 d3 3d 4f f4 4d bd f5 74 01 3d
       0.094021365 0.103039354 -0.05028182 0.03160568
000310 d2 55 eb 3d 7a 6c a7 bc 67 f9 26 3d c1 5d bc bd
       0.11490978 -0.020437468 0.040765192 -0.0919757
000320 78 6d 29 bd 5a 6d 1a 3d 19 93 47 bd e4 40 d6 bd
       -0.041364163 0.037701942 -0.048724268 -0.10461596
000330 a7 21 87 bd c8 fb 4a 3a 72 ca 81 bd 84 99 c2 3d
       -0.065982156 0.0007743207 -0.063374415 0.09501937
000340 77 b6 8d bd 61 c5 a6 3d a0 7a f3 bd 4d 44 44 3d
       -0.06919568 0.08143116 -0.11888623 0.0479167
000350 c4 b9 0e 3d aa 8d 84 3d 34 da 88 3d ef 58 93 3c
       0.03484513 0.06472333 0.06682244 0.017986743
000360 f5 c8 cc 3d ad 1e cc 3d 1e 42 4f bc 0b 63 0d bd
       0.09999267 0.099667884 -0.012650041 -0.034518283
000370 f3 29 fc bc c7 b9 c6 bd 42 47 ca bd da 83 21 bc
       -0.030781722 -0.09703403 -0.098768726 -0.009858096
000380 bc ef e9 3d f9 85 c3 3d 2a 2b e8 bd b3 77 8d 3d
       0.11422679 0.09547038 -0.11336358 0.069075964
000390 1d 61 a2 bd 33 70 ee 3c ca b7 31 bd 85 74 fe bd
       -0.07928679 0.029106235 -0.043388166 -0.12424568
0003a0 86 bd 64 bd 3f 41 00 bd 82 4c bf 3b ea 1b be 3d
       -0.055844806 -0.031312224 0.005837978 0.09282668
0003b0 a9 c2 cd 3d bc 02 b9 bd e7 f1 c9 3d 69 cb 9f 3d
       0.10046894 -0.09033725 0.09860592 0.07802469
0003c0 c7 f5 69 3c be 76 ac 3d 12 1e aa bd 1d a4 aa bd
       0.014279789 0.08421086 -0.08306517 -0.083320834
0003d0 27 91 cf bb 05 49 26 bd 3f fd 21 3c 48 18 a6 3d
       -0.006334442 -0.04059698 0.009887039 0.081101
0003e0 a7 3c 06 bc a7 77 96 3c 92 83 ae 3d 7f 48 fe bc
       -0.008193172 0.018367602 0.08521189 -0.031040428
0003f0 bb 1d d8 3d 0d 8d d7 3d a6 b6 cc 3d 5e b0 f1 3c
       0.10552546 0.1052495 0.09995775 0.029503044

weight_hh_l0 f4 [192, 64]
000000 82 36 df bd d5 25 c8 bd f0 26 37 bd 25 a8 ea 3d
       -0.108990684 -0.09772841 -0.044714868 0.11457852
000010 e6 82 ce 3d ba 37 33 3d f6 7c 16 3d 3d 93 d0 bc
       0.10083561 0.043754317 0.036740266 -0.025460834
000020 e2 e0 e4 bd ab 13 82 3d 12 f9 68 bd fd 00 b1 bd
       -0.111757055 0.063514076 -0.056878157 -0.086427666
000030 79 d0 32 3d 0e 2e b9 3d 53 64 4d 38 12 6b da bb
       0.043655846 0.09041987 4.8969243e-05 -0.006665596
000040 0d c5 db 3d 2a 5b ba bc 8f ba 18 3d 3d ab e3 3a
       0.10730944 -0.022748549 0.03728729 0.0017369759
000050 9d c4 55 bb 69 5f 3e 3d 3b 21 2b bd b7 d7 7a bd
       -0.0032618411 0.04647771 -0.041779738 -0.061240878
000060 2f 8f 63 bd 4e b9 ac bd 13 33 22 bc 28 f0 9e 3d
       -0.055556472 -0.084337816 -0.009899872 0.0776065
000070 64 0c bf 3d a8 11 3a 3d 03 f4 de bd ad 24 90 bd
       0.09328535 0.045426995 -0.10886385 -0.07038245
000080 32 0d b4 bd 53 00 d1 3d ef f9 c1 bd 6e 47 d2 bd
       -0.08791579 0.1020514 -0.09471499 -0.102675304
000090 b1 5e 5f bd 73 31 18 bd f6 81 31 bd 36 03 76 3c
       -0.054533664 -0.037156533 -0.04333683 0.015015414
0000a0 ad 53 f6 3d 1c 26 fe bd 06 9e a6 bd 4e 07 5a 3d
       0.12027679 -0.124096125 -0.08135609 0.053229623
0000b0 ee 43 f1 bc 39 03 a9 bd 37 9b 21 bd dd a7 a2 bd
       -0.029451337 -0.08252568 -0.039454665 -0.07942174
0000c0 84 e4 f4 3c 9b ba 34 bd 7f b5 2f bc 34 d5 e9 bd
       0.029894121 -0.044123273 -0.010724424 -0.114176184
0000d0 48 cd 88 3d 33 f6 12 3d ad 1f 09 3d 25 1e ef 3d
       0.06679779 0.035879325 0.033477474 0.116756715
0000e0 58 35 5c bd af 86 dd bc 3b d6 8b 3d ea 6d d9 bd
       -0.05376181 -0.027041761 0.068279706 -0.106166676
0000f0 7e 1b f3 bd a7 f2 96 3d 9e 68 d2 bd a1 eb b4 bc
       -0.11870478 0.07370501 -0.102738604 -0.022085013
000100 d8 4d de bd 81 64 fc bc e9 09 9f 3d 5a a5 5f 3c
       -0.10854691 -0.030809643 0.07765562 0.013650263
000110 b7 e0 d2 bd f3 b5 d1 bd c1 41 88 3d f0 8e bc 3d
       -0.10296767 -0.10239782 0.066531666 0.09206951
000120 0b b8 50 3d ff bb bb bd 15 63 09 3d f2 02 d1 3d
       0.050956767 -0.09166717 0.033541758 0.1020564
000130 da 0a 3e 3d 04 ec cd 3d c8 19 49 bd 48 05 47 3d
       0.046397068 0.10054782 -0.049096853 0.04858902
000140 36 8e 87 bc fa af 8f 3d 5e ab aa bc 74 a5 fe 3c
       -0.016547304 0.07015987 -0.020833667 0.031084754
000150 1c 63 f7 bd 8a d9 df bd ee d3 b5 bd 03 c2 da bd
       -0.120794505 -0.10930164 -0.08878313 -0.10681536
000160 7e cc e9 bc 95 60 82 3d 1e 43 a0 bd 65 63 41 3d
       -0.028539892 0.06366078 -0.078253016 0.04721393
000170 1f f6 c1 bd 30 e8 e0 3d 5d 77 97 3d 96 a2 80 3d
       -0.09470772 0.10981786 0.073958136 0.06281011
000180 53 87 6e 3c 2b ce bf 3d 27 53 76 3d ce 2a 15 bd
       0.014558631 0.09365495 0.060137894 -0.036417775
000190 7e cb 13 bd 61 f3 c8 3d 26 48 c9 3d 10 1c d2 bd
       -0.036082737 0.09812046 0.09828214 -0.10259259
0001a0 21 97 41 bd bf fc d4 bc e0 70 c5 3d 16 51 27 bd
       -0.04726327 -0.025999425 0.0964067 -0.040848814
0001b0 38 a2 fd 3d f0 32 a3 ba ae 86 cd bd 9f 6a f1 3c
       0.123844564 -0.0012451094 -0.10035454 0.029469786
0001c0 20 06 00 be b6 e7 8c bc c4 7c 26 bd 99 a6 d2 3d
       -0.12502337 -0.017200332 -0.04064633 0.10285682
0001d0 da 4b 7d 3c 64 fa 04 bc a5 da cc 3d f3 72 53 bb
       0.015459979 -0.008116338 0.10002641 -0.003226456
0001e0 0a 88 a8 3d 30 1f fd bd cb 86 cd bd 9d b8 b3 bd
       0.082290724 -0.12359464 -0.10035475 -0.087754466
0001f0 f1 fa c2 3d be 16 35 bd f2 c6 be bc ee 06 23 3d
       0.095205195 -0.04421114 -0.023288224 0.03980153
000200 0b 14 cc 3d a1 ba 91 3d ce 03 98 3c 2a ab 89 3d
       0.099647604 0.07115675 0.018556502 0.067221
000210 7a 6a 74 3d ee e0 6b 3d 74 3c ea 3d 98 fe 61 bd
       0.059671856 0.057587557 0.11437312 -0.05517444
000220 58 24 11 3d 62 2c 86 3c ae ef c9 3d f7 b6 e9 bd
       0.03543505 0.016378585 0.098601684 -0.11411851
000230 cd 2f 67 3d b7 d0 74 bd da 71 88 3c 2f 78 5a bd
       0.05644207 -0.05976936 0.016655851 -0.053337272
000240 10 ed ab 3c bf ba 64 3c 43 fa 1a 3d 9d 6b ea 3a
       0.020987064 0.013960539 0.037836324 0.0017884854
000250 f3 c0 b5 3d 55 6b f1 bd 49 54 96 3d 5e 0a 7d 3d
       0.08874693 -0.1178805 0.07340295 0.061777465
000260 6a d0 ec bc b6 61 2e 3d fa 90 e7 bd 30 48 e8 3d
       -0.028907973 0.042573653 -0.11306949 0.11341894
000270 77 2e 07 3d cf aa 60 bd 85 06 d1 3d 74 a9 5e 3d
       0.033003297 -0.054850396 0.102063216 0.05436082
000280 d9 91 a3 3c 77 70 ce 3d d2 c6 6f 3d 91 15 f4 bd
       0.019967007 0.10080045 0.05853922 -0.11918176
000290 c7 14 9b 3d 07 05 54 bc 80 a3 a2 bd 4a b2 9f 3d
       0.07572322 -0.012940652 -0.079413414 0.07797678
0002a0 65 a6 fc bd fe 43 e5 bd d4 df 4b 3d 93 31 16 3d
       -0.12336425 -0.11194609 0.049774006 0.03666837
0002b0 42 35 f4 3d 6e 45 b5 3c 1e e4 a2 3c 28 48 a2 3d
       0.119242206 0.022127833 0.019884165 0.07923919
0002c0 09 1c 4e 3c 17 c8 7a 3d 6f e3 43 bd 43 af b5 bc
       0.012579926 0.061225977 -0.04782432 -0.022178298
0002d0 62 d6 d4 3d 28 82 06 bc 79 8c 86 bd 0b f0 cc bd
       0.10392453 -0.008209743 -0.06569762 -0.10006722
0002e0 64 72 a3 3c eb c1 23 bc 77 c6 70 3d 23 dc bb 3d
       0.019952007 -0.009994964 0.05878302 0.09172847
0002f0 46 b1 86 bd ee 2e d0 bd 53 5c b6 3d 60 f9 74 bd
       -0.06576781 -0.10165201 0.08904328 -0.059808135
000300 ca 91 84 bd 21 c5 0a bd 80 dc bb bd 6d 57 bb 3c
       -0.064731196 -0.033879403 -0.091729164 0.022868836
000310 46 80 dd bd 69 dd dc 3d 1a 5d c3 bd 93 4f f4 bd
       -0.10815482 0.10784418 -0.09539242 -0.1192924
000320 2c b0 31 bd 41 a0 88 3d 5f 95 cd 3d f9 21 7a bc
       -0.0433809 0.06671191 0.10038256 -0.015266889
000330 fd f1 5a 3c 0d 5a 98 bc 03 00 48 bd ed 25 be bd
       0.013363359 -0.018597627 -0.048828136 -0.092845775
000340 8b d3 79 3d 78 19 7c bc 36 05 80 3d f7 72 dc 3c
       0.06099276 -0.015386932 0.06250994 0.026910288
000350 2f 5d b2 bd 5c ea f0 3d 6c 54 51 bd b3 5e c4 bd
       -0.087091796 0.117634505 -0.0511059 -0.09588375
000360 c7 02 db bd 21 1d a1 bd d8 fc ce 3d ae 5d aa bd
       -0.10693889 -0.07866884 0.1010682 -0.08318649
000370 e7 0b ec 3c e6 ec 9b bd 84 5f d1 bb 15 84 35 3d
       0.02881427 -0.07613544 -0.00638956 0.044315416
000380 87 9a b3 3d b8 bb 4d 3d c0 9a dc bd 11 e2 d6 bd
       0.08769708 0.05022785 -0.10771704 -0.104923375
000390 8d df 8e 3d c0 d5 ea 3d 41 2b 63 bd 5b 5e b7 3c
       0.06976233 0.11466551 -0.055461172 0.02238386
0003a0 31 a2 95 bd 70 bc c0 3c 06 43 e9 3b fa f6 5d 3d
       -0.07306326 0.023527354 0.0071185855 0.054190613
0003b0 0b c4 6a bd 3f ec 5f bc 7b 07 f3 bc bc da 71 3d
       -0.057315867 -0.013667165 -0.029666653 0.059046492
0003c0 72 a9 db bd 80 c6 c2 3d 1c 38 37 3d db f3 85 bc
       -0.107256785 0.09510517 0.044731244 -0.01635163
0003d0 d0 70 00 be ef 60 29 bd 64 36 da bd 74 74 bf bc
       -0.12543035 -0.04135221 -0.106549054 -0.023370959
0003e0 27 7a 51 bd a0 1c 42 3d c6 0c e5 3d 88 4a 26 bd
       -0.051141884 0.04739058 0.11184077 -0.040598422
0003f0 6b 50 09 3d 57 6f 83 3c f2 9e d0 3d f7 98 c3 bd
       0.03352396 0.016044302 0.101865664 -0.0955066

bias_ih_l0 f4 [192]
000000 a3 9b db bc e8 bd 2c 3d cc c4 b0 3d 4f 43 bb 3c
       -0.026807612 0.042173296 0.08631286 0.022859244
000010 74 ed 00 bc 0f 67 55 bd cf a2 26 3d a6 df 63 3d
       -0.007869113 -0.052100237 0.04068261 0.05563321
000020 0f 1c ef 3c 22 aa aa bd 53 9e 70 bd b0 b6 29 bd
       0.029188184 -0.083332315 -0.05874474 -0.04143399
000030 02 7a 88 bd 1d 10 9b 3d 00 31 88 bc 77 fd d6 bd
       -0.06663896 0.07571433 -0.016624928 -0.10497563
000040 83 96 5d 3b 82 57 a6 3d d8 9a 85 bc 54 c2 b2 bd
       0.0033811636 0.081221595 -0.016309187 -0.087284714
000050 93 01 a8 3c e0 2c 0a bd 95 40 82 3d bd e9 fb 3d
       0.020508563 -0.033734202 0.06359974 0.123004414
000060 87 06 80 bd d9 b1 89 3d 1a 6e 13 bd 25 78 42 bd
       -0.06251245 0.06723375 -0.035993673 -0.04747786
000070 c9 52 1f 3d b0 3c 9c 3b 04 1a 12 bd 07 88 19 bc
       0.03889731 0.0047679767 -0.03566934 -0.00937081
000080 48 09 8e 3d 15 a4 9b 3d 36 e0 91 3d b9 46 cc 3d
       0.06935364 0.075996555 0.07122843 0.09974427
000090 67 1b df bd 52 38 8d bd 0e 19 77 3d d1 a6 bc 3d
       -0.108938985 -0.06895508 0.06032663 0.09211505
0000a0 aa 4b 05 bd c9 12 72 bc a0 a4 de bd b3 1f 2e bd
       -0.032542862 -0.014774987 -0.108712435 -0.0425107
0000b0 04 5d e4 bd 4c d3 d4 3d 3d 21 b8 3d d1 d3 d9 bd
       -0.11150554 0.10391864 0.08990715 -0.10636104
0000c0 f9 18 83 bd 9b ee 9a 3d b0 5d d9 3c c0 83 cf bb
       -0.064012475 0.07565042 0.026533931 -0.0063328445
0000d0 56 c4 b9 bd 43 cd d9 3d fd c7 37 bd 24 31 60 bd
       -0.09070651 0.10634854 -0.044868458 -0.054734364
0000e0 0f 10 b0 3c c9 d2 80 bd ee 9b b0 bd 64 b7 4d bd
       0.021492032 -0.06290204 -0.08623491 -0.050223723
0000f0 fc 25 4b bd 73 38 94 bd 6a b7 cb bd 9b 89 a6 3b
       -0.04959677 -0.07237329 -0.09947093 0.005082322
000100 cf 2b 95 3d 60 48 fa bd 0f 03 0f 3d 21 75 9b 3d
       0.072837465 -0.12220836 0.034915026 0.075907
000110 b5 c8 8d bb 58 7b dc bd 3c 55 29 bc 62 54 bf 3d
       -0.0043269047 -0.107657135 -0.010335263 0.093422666
000120 57 89 44 3d 47 63 03 3d 67 90 db bd f8 9d 02 3d
       0.04798254 0.0320771 -0.10720902 0.031888932
000130 62 3e 93 bc 46 cb 9c bd 27 f3 87 bd 95 6c d0 3d
       -0.017974082 -0.07655959 -0.066381745 0.101769604
000140 b9 ad 64 bd e9 54 8c bc b0 9d 0e 3d 2a 93 9b 3c
       -0.055829737 -0.017130332 0.03481835 0.018991072
000150 61 be b3 bd ea 38 a8 3d 4f 94 ac 3c e6 8d 6e bd
       -0.08776546 0.082139805 0.021066813 -0.058240794
000160 ba 51 cd 3d 56 81 b8 3c eb a4 f3 3c fa 8c b2 3d
       0.10025354 0.02252261 0.029741725 0.087182954
000170 61 cd 00 3c a2 92 bc bc 66 ac e8 bd 83 94 fd bd
       0.007861466 -0.023019139 -0.113610074 -0.12381842
000180 cc d0 c5 3d 39 90 02 be 4f 22 a4 bd 80 ae cc 39
       0.096589655 -0.12750329 -0.08014356 0.00039039925
000190 73 01 2d 3d 90 2e e4 bd 52 80 94 3d 67 87 95 bd
       0.04223771 -0.111416936 0.07251038 -0.073012166
0001a0 4d 21 19 bd 77 ea 84 3d 1c 36 a3 bd 3e 69 5e 3c
       -0.037385274 0.06490033 -0.07969305 0.013574896
0001b0 11 54 5c 3d cb 59 fd 3c e4 7c 27 3d 4d 7a ad bd
       0.05379111 0.030926606 0.04089059 -0.08470593
0001c0 ed d3 47 3d 2a df 89 bd cc 94 24 3d 4f 1c c6 bd
       0.048786093 -0.06732018 0.040180966 -0.09673368
0001d0 e0 e9 85 bd b6 d4 d7 bd 9a 16 ec bc ca bc e8 bd
       -0.06538749 -0.10538618 -0.028819371 -0.11364134
0001e0 01 cd 75 bd b9 81 88 bd 2e 11 75 bd bb 83 9e bd
       -0.06000996 -0.06665368 -0.059830837 -0.07739969
0001f0 26 07 99 bd 31 b9 c8 3d 55 8b d4 3d db cc dd bd
       -0.074720666 0.098009475 0.10378138 -0.10830089
000200 a2 7d 9c 3d 8a 8b 8c bd 95 86 d0 3b f0 47 86 bc
       0.0764115 -0.068625525 0.0063636997 -0.016391724
000210 f7 6a 60 3d 56 68 9a 3a 6f 9c 31 bb 3d 0b f9 bd
       0.05478951 0.0011780362 -0.0027101298 -0.12160347
000220 3a fc eb 3d 4a e6 ed 3d 1e f2 fd bc cf e3 4b bd
       0.11522718 0.1161619 -0.03099924 -0.049777802
000230 21 da 3a bd c9 09 2f bd a0 7a 24 3d 5c 94 ec 3d
       -0.04561818 -0.04273394 0.040156007 0.11551735
000240 d6 89 73 3d 4f a4 4f 3d 80 e4 c8 3d bf 22 96 bd
       0.059457622 0.050693806 0.09809208 -0.07330846
000250 88 d3 62 3d 6c cb b6 bb df f2 00 3d b2 04 4b 3d
       0.055377513 -0.005578449 0.03148162 0.049565025
000260 c7 18 a6 3d 68 cf ae 3d 4d cc 40 3c 98 f7 e2 3a
       0.08110195 0.08535653 0.011767459 0.001731622
000270 ee b1 dc bc 4c 3e d7 bd b5 61 e2 bd 55 31 05 3d
       -0.026940312 -0.10509929 -0.110537924 0.03251775
000280 d6 4f 01 bc 06 9a b2 3d 75 cb f2 3d c4 0b 8d 3d
       -0.0078925695 0.08720784 0.118552126 0.0688701
000290 b3 f9 0c 3d 4d a3 56 3c 50 38 a4 bd ec 81 a3 bd
       0.03441782 0.013100457 -0.08018553 -0.07983765
0002a0 df f4 97 3c 64 f3 fb bc da e5 2b 3d e4 0a 98 3b
       0.01854938 -0.030755706 0.04196725 0.00463997
0002b0 b4 c8 fb bd 68 82 fc 3c d1 d3 f9 bd b0 3d ca bd
       -0.122941405 0.030823901 -0.12198604 -0.09875047
0002c0 e9 5c c7 3b ec bd 40 3d c1 11 f3 3b 7d 6f a1 bd
       0.006084074 0.047056124 0.007417888 -0.07882593
0002d0 c7 13 de 3c c0 ac 2c 3d 1b 88 34 bb 92 52 b5 bd
       0.02710904 0.042156935 -0.0027546945 -0.0885364
0002e0 0c d5 f2 3c 9f b7 e3 3d 0e b0 8c 3d e0 07 14 bd
       0.029642604 0.11119007 0.06869517 -0.036140323
0002f0 38 26 ec bc a3 36 9e 3d 1e 87 8c 3a 73 e7 8c 3d
       -0.028826818 0.07725265 0.001072142 0.06880083

bias_hh_l0 f4 [192]
000000 82 b3 c3 3d f3 d0 72 bd 60 86 65 3d c0 30 8e bd
       0.09555723 -0.0592813 0.056036353 -0.06942892
000010 42 11 83 3d f1 8e 02 be e5 87 b3 bd 46 5a e9 bc
       0.06399776 -0.1274984 -0.08766154 -0.028485429
000020 83 1a b9 3d 87 b5 17 3d 93 f6 0d bd 4c d8 bf bc
       0.0903826 0.037038352 -0.03465898 -0.023418568
000030 9a fc fc 3c c5 89 bf bd 03 e5 4d bc 46 01 48 3d
       0.030882169 -0.09352449 -0.012566808 0.04882934
000040 2f 05 0b 3c 73 70 29 bc 78 0d 6a bd 7f 75 42 3c
       0.008485123 -0.010341751 -0.05714175 0.011868834
000050 b8 9c 8f 3d c8 76 e2 bd 2f 63 e5 3d 37 17 be bd
       0.070123136 -0.11057812 0.112005584 -0.09281772
000060 67 ec fb 3d 71 c4 db 3d cf fb 66 3c 71 06 10 bd
       0.123009495 0.107308276 0.014098122 -0.035162393
000070 a8 11 f2 bd f5 f4 37 bd c9 8e cb bd c0 22 00 3e
       -0.11819774 -0.044911344 -0.099393435 0.12513256
000080 86 f1 11 bc 1d 0f fe bc 2c a4 c0 bd f6 b5 ee bc
       -0.008907681 -0.031013066 -0.09406313 -0.0291395
000090 25 54 f3 3d 5b ef 25 3d 75 07 c6 3d 82 e4 f5 bb
       0.11881284 0.04051147 0.09669391 -0.007504047
0000a0 74 45 c1 3d 20 1e 4f bd d6 6a bd bd 79 f2 2f 3c
       0.09437075 -0.05056584 -0.09248893 0.010738962
0000b0 ac 15 ef bd 80 c3 fa bd 25 93 db bd 3d b0 b2 3d
       -0.116740555 -0.1224432 -0.10721425 0.08725021
0000c0 1f 75 e3 3d 1b 3f aa bd 27 2a 9d 3d 8d 24 89 3d
       0.111063235 -0.08312818 0.076740555 0.06696425
0000d0 61 ba 46 3d bb bf 9c 3d 84 02 dd 3d 18 16 24 3d
       0.04851759 0.07653757 0.107914954 0.040060133
0000e0 f1 93 f3 3d b9 7f c4 bd ea d8 8c 3d cc d9 3f 3d
       0.11893452 -0.09594674 0.068773106 0.046838567
0000f0 bf 23 97 3d 6b 66 c7 3d 34 3c 72 bd 1b ed f6 3d
       0.07379865 0.097363316 -0.059139445 0.12056943
000100 93 9a 88 3d ba fa c3 3d bd 4b 67 bd 0d bd de 3d
       0.06670108 0.09569307 -0.056468714 0.10875902
000110 68 2c dd 3c f9 ec 3b 3d 89 2a d1 bd e0 40 ac bb
       0.026998714 0.04588029 -0.10213191 -0.005256757
000120 09 f6 c0 bd 64 45 ba bd ed a9 0e 3d c8 92 5d bd
       -0.094219275 -0.090952665 0.034830023 -0.05409506
000130 58 87 79 bc 57 a1 6b 3d 8b f6 64 3b 7b bc da 3d
       -0.015230022 0.057526913 0.003493699 0.10680481
000140 8f 70 13 3d 7d d6 5e bc a5 9d f9 bd ba bc 83 3c
       0.035996016 -0.013600943 -0.121882714 0.016081203
000150 40 bc 78 3d 9e 27 5c bd 24 d0 8f bd e1 0b a9 bd
       0.060726404 -0.05374872 -0.070221215 -0.08254219
000160 c8 3d fe 3d d4 b0 b4 3d c7 78 d9 bd d8 89 4d bd
       0.124141276 0.0882279 -0.106187396 -0.050180286
000170 db 18 bf bd cd 27 76 3d 82 9f 57 3d cd 3a 61 bd
       -0.09330913 0.06009655 0.052642353 -0.054987717
000180 c3 f8 09 3d 25 f4 05 bb 31 3e 71 bc 72 e6 56 bd
       0.033684503 -0.002043971 -0.0147243 -0.052465864
000190 fc af e2 3d f2 d7 af bd 25 d2 84 3c 75 ce c6 3d
       0.110687226 -0.0858611 0.016213486 0.09707347
0001a0 44 bd 8f bd 63 4e ec 3d c6 b4 61 bd 06 ff 2c bd
       -0.070185214 0.115383886 -0.05510404 -0.042235397
0001b0 db 05 16 3c e2 b2 0c 3d 74 9f 0e bd c3 02 b7 3d
       0.0091566695 0.034350283 -0.034820035 0.08936074
0001c0 ed 2a 25 3d 12 92 d3 bc 44 a6 53 3c bc 1e 2e 3d
       0.04032414 -0.025826488 0.012918059 0.04250978
0001d0 35 07 7d bd 03 9b 81 3c d5 78 e0 bd 7f d8 82 3d
       -0.06177445 0.015820986 -0.10960547 0.063889496
0001e0 0b f0 9c bd 0d 25 4f 3d b6 f9 80 3d 6d 29 3a 3d
       -0.07662972 0.050572444 0.062976286 0.045449663
0001f0 ae c0 b9 bd 93 d9 97 3c cc 00 6d 3d f4 c3 fc bc
       -0.09069954 0.018536365 0.057862088 -0.030855156
000200 17 e4 61 bd 7e 9b e8 3d 11 6c df bd b2 a7 bd bd
       -0.055149164 0.11357783 -0.10909284 -0.09260501
000210 25 30 67 3d ae df fd 3c 05 9d 36 bc c2 16 de 3d
       0.0564424 0.030990448 -0.011145835 0.108441845
000220 1f 65 ac bd 5d a4 a8 3d cd fa 7d bd c4 5a 9f bd
       -0.08417725 0.08234475 -0.06200676 -0.07780984
000230 54 b6 bc bd 32 98 d4 bd 8f e0 0a 3c 8a ed 55 3d
       -0.09214464 -0.103805915 0.0084763905 0.052228488
000240 72 7d 97 3c ef e8 e8 3d 56 e6 cc 3d 2a 9e a5 bc
       0.018492434 0.113725536 0.100048706 -0.02021702
000250 38 1c db bd bd 4d cc bd 98 d4 1f 3d 2f 69 84 bd
       -0.10698742 -0.09975765 0.039021105 -0.06465375
000260 5b 0f 6b bd 67 e1 8e 3d 20 dd ca bd d3 a5 27 3c
       -0.05738769 0.06976586 -0.099054575 0.010232407
000270 b0 ab a4 3b 84 cc f5 3d 18 ec 07 bd f0 14 c9 bd
       0.0050253496 0.12001899 -0.03318414 -0.09818447
000280 ac aa f5 3c b4 fd ac bd 39 24 eb bd 9e 4c f8 3d
       0.02998861 -0.084468275 -0.11481518 0.121239886
000290 32 fa bc bd d3 fe 70 3d bb be 21 bb fe fe d6 bd
       -0.092274085 0.05883677 -0.0024680335 -0.10497855
0002a0 c1 d2 6a 3d 73 d4 a6 3d cf 19 c5 bd 9d a5 2f bd
       0.057329897 0.0814599 -0.09624063 -0.04288255
0002b0 7f fe 95 3d 91 f4 e9 3d ee 3d 0f bd 94 ed c3 3c
       0.07323932 0.114236005 -0.03497117 0.023916997
0002c0 d4 95 c5 bd 13 3c b9 bd d5 41 fd 3c 39 92 d5 bb
       -0.09647718 -0.090446614 0.03091518 -0.0065176752
0002d0 a7 e8 50 bd 9f 9b 96 3d 34 6c f7 3b 4c 8b 10 bd
       -0.051003125 0.07353901 0.0075507406 -0.035289094
0002e0 2d 06 d0 bd 39 69 c2 bd 67 b8 98 3c d7 cc e3 3d
       -0.10157428 -0.09492726 0.018642617 0.111230545
0002f0 cc 95 34 3d 7c a7 ca 3b 30 9b 02 3d c6 18 0b 3c
       0.04408817 0.0061845165 0.03188628 0.008489793

weight f4 [2, 64]
000000 eb 62 f0 3d 79 e2 b7 bd 16 9e fc 3c 70 cc 58 3d
       0.11737617 -0.08978743 0.0308371 0.05292934
000010 f3 3f 3c bd e2 20 ac bd 4e 15 97 bd 97 05 0e bd
       -0.045959424 -0.084047094 -0.073771104 -0.0346733
000020 48 af 8d bb 28 b4 87 bd 84 a5 6f bd ca 58 1d 3d
       -0.0043238737 -0.06626159 -0.058507457 0.038414754
000030 2a 3c b0 3b ff bc 00 3c 95 68 3a bc 7a 6d 51 bd
       0.005378266 0.00785756 -0.011377473 -0.051129796
000040 37 6f df 3d 78 1c d7 3d 51 1a 2f 3c 7b 6b d0 3d
       0.109098844 0.10503477 0.010687427 0.1017675
000050 74 bd f5 3d 37 f7 0e bd 01 a6 dd 3d 2e 9c f5 bb
       0.11999026 -0.03490373 0.10822678 -0.0074954247
000060 b9 98 ef 3d 85 36 8d bd 05 a9 80 3d 90 3b f5 bd
       0.116990514 -0.068951644 0.06282238 -0.11974251
000070 4f f6 9f 3d f0 57 5e bd d3 14 92 bd 9a e0 5b bb
       0.078106515 -0.054283082 -0.07132878 -0.003355062
000080 66 3f f4 3c 89 4e 8a bd 6e 9a bb bd 58 cf 0c bd
       0.029815387 -0.06753261 -0.091603145 -0.034377426
000090 7c 6f 82 bd 86 26 cc 3d a3 df a7 bc dd 22 ba bd
       -0.0636892 0.09968285 -0.02049238 -0.09088681
0000a0 a1 be 97 3d 61 d8 2d 3d ed 81 83 3d 0f 62 44 3d
       0.074094065 0.042442683 0.06421266 0.04794508
0000b0 0d dc b3 3d d8 82 8e bd 9a 28 b5 3c fc d0 e9 3d
       0.08782206 -0.0695855 0.022114087 0.11416814
0000c0 9b b0 2e bd 05 9c 15 3a b0 f2 b5 3c 69 72 b9 3d
       -0.042648893 0.00057071476 0.022210449 0.09055025
0000d0 3d 97 e6 bd df d3 2d bd 12 2a 53 3d 36 bc bd 3d
       -0.11259315 -0.042438384 0.051553793 0.09264414
0000e0 3c 47 39 bd 4c 33 92 bd 4e ac cb bc ad d6 d0 3d
       -0.04523395 -0.0713869 -0.024862435 0.10197196
0000f0 58 e7 ad bd 4b 63 f7 3a 54 79 a1 3d 07 f8 70 3c
       -0.08491391 0.0018874196 0.0788447 0.014707572
000100 73 a7 d7 bd cd 91 a7 3c da 86 f8 3d 33 12 95 bd
       -0.10529985 0.020455265 0.12135096 -0.07278862
000110 fa f4 bf 3c 2e 88 f2 bd 80 20 35 bd ad eb f4 3d
       0.023432244 -0.118423805 -0.044220448 0.11959014
000120 ed 73 88 3d 3c f5 e8 3d 10 38 a2 bd ea 61 24 bc
       0.06662736 0.113749 -0.07920849 -0.01003311
000130 78 35 a9 3d 8d 7c 8c 3d 2e 18 8e 3d 15 6c e3 3c
       0.082621515 0.06859694 0.06938206 0.027761498
000140 61 90 00 be 4a 77 eb bd bb 64 6e bd d0 99 77 3c
       -0.12555076 -0.11497362 -0.058201533 0.015112355
000150 7c 4d a6 3d 98 dc b6 3d 36 99 71 bd 82 b0 4e bd
       0.08120248 0.08928794 -0.058984004 -0.0504613
000160 9d c5 8a bd f5 6e de 3c dc ee df 3c c5 81 60 bd
       -0.06775973 0.027152518 0.027335577 -0.054811258
000170 cd 07 59 bd 61 1b fd bc 8f d6 85 bc 92 b2 27 bd
       -0.052985955 -0.030896844 -0.016337661 -0.040941782
000180 b0 47 e9 3d 37 1f cc 3d 15 aa 5d 3d a4 37 15 bd
       0.113906264 0.09966891 0.05411728 -0.036430016
000190 94 32 d2 bc 5c 51 c7 3d 7a dc 23 3d d5 d4 9e bd
       -0.025658883 0.09732315 0.040005185 -0.07755438
0001a0 d1 c3 8e bc 8b ba e4 3d 28 52 d0 3d b7 97 5b bd
       -0.017427357 0.11168393 0.1017192 -0.053611483
0001b0 dc 2d f2 3c 81 cb 3a bd 9a 11 31 bc 80 3b c3 3b
       0.029562883 -0.045604233 -0.010807419 0.0059580207
0001c0 a3 1d ac bd d1 0b 80 bd 39 2e f5 bd 25 d1 af bd
       -0.0840409 -0.06252254 -0.11971707 -0.08584813
0001d0 a9 7b f8 3d 4c 9b b5 bd 23 98 cc 3d 2a 41 d1 3d
       0.12132961 -0.08867511 0.09989955 0.10217507
0001e0 00 41 2b 3d fc 8a 26 3b ce ac 89 bd 04 74 8c 3c
       0.041810036 0.002541243 -0.06722413 0.017145164
0001f0 4f 1e 6a 3d de 4e 2b 3d f6 e2 cf bd e9 d1 cd bd
       0.05715781 0.04182326 -0.10150711 -0.10049803

bias f4 [2]
000000 c6 74 5a bd 5a e6 b1 3d
       -0.05333402 0.08686514

weight_ih_l0 f4 [192, 66]
000000 84 d3 09 3d 36 cc 88 bc 14 a1 ac 3d 04 b9 28 bd
       0.033648983 -0.016698938 0.08429161 -0.04119207
000010 cf e6 8f 3d ef 44 7a bd 27 45 27 bc 39 ee ab 3b
       0.07026445 -0.061100896 -0.010209358 0.005246904
000020 e0 f1 c6 3d 4a 7d 8e bd 20 fc 08 be 16 52 f9 3d
       0.09714103 -0.06957491 -0.13377428 0.1217386
000030 bd 34 85 bd 6f f2 fc 3d ae 6d 16 3d 8b fb 9d bd
       -0.065042 0.12350928 0.036725692 -0.07713994
000040 8b 87 7b bb 29 c9 4e bd 62 1b 52 3d 60 20 94 3d
       -0.003838035 -0.05048481 0.051295646 0.072327375
000050 a0 9e d5 3d 1e eb f2 3c bd 08 d3 bd 05 2f ad 3d
       0.10430646 0.029653128 -0.10304401 0.08456234
000060 24 d7 d2 bd 67 e2 73 bd 97 8a bd bd e4 ef ca 3d
       -0.10294941 -0.059542086 -0.092549495 0.09909037
000070 81 1e db 3d 73 05 83 bd 96 16 d9 bc 2c 8e a4 3d
       0.106991775 -0.06397524 -0.026500028 0.0803493
000080 f7 ee 3d 3d 15 1d a9 3d 20 9e 8b 3c 9a e4 eb bd
       0.046370473 0.082575 0.017043173 -0.11518212
000090 51 84 18 bd d2 be 89 bd 3b 89 48 3d cf 42 dc 3c
       -0.03723556 -0.06725849 0.048959 0.026887326
0000a0 18 97 b5 bc 01 8c 75 3d c7 03 0b 3e bc bb c4 bd
       -0.022166774 0.05994797 0.1357566 -0.0960612
0000b0 d1 20 8e 3d 68 b1 fc 3d 50 85 df 3d 11 44 ca bb
       0.06939853 0.12338525 0.10914099 -0.006172665
0000c0 c2 0c 67 bd 1d b7 64 bd 42 43 c7 3d d7 59 9c 3d
       -0.05640865 -0.055838693 0.09729625 0.07634323
0000d0 f5 16 a6 bd 1e 36 99 bd d0 7d 95 3d 3c 30 c2 3c
       -0.081098475 -0.07481025 0.072993875 0.02370464
0000e0 c2 4b e1 3d 74 f5 ff bd cf 66 7a 3d b6 e7 e5 3c
       0.11000778 -0.12497988 0.061133202 0.02806459
0000f0 85 df 1b bd d1 e4 bd bd 2f e4 9f 3c 48 2f 2c 3d
       -0.03805496 -0.09272159 0.019517986 0.04203728
000100 10 9c 16 3d fe 87 43 bb f8 44 e1 bc e8 1f 24 bc
       0.036769927 -0.0029835696 -0.027498707 -0.010017373
000110 81 84 94 3d db 92 87 3c ff 3a 60 3d 0f 01 79 3d
       0.072518356 0.016549518 0.054743763 0.060792025
000120 53 d0 21 3d 2b a1 2d bd a8 bb 6e bd 1c 51 8f 3c
       0.039505314 -0.04239003 -0.05828443 0.01749473
000130 eb 7a 2d bd 8f b9 aa 3d f2 04 af 3d 12 b0 24 bd
       -0.04235355 0.08336174 0.08545865 -0.040206976
000140 2d d9 f9 3d 95 62 c0 bd 2d 04 08 be 8d 4f e1 bd
       0.12199626 -0.09393803 -0.13282843 -0.11001501
000150 f3 b9 ce 3d f6 c3 07 bd 5b ca b3 3d a2 7d 8e bd
       0.10094061 -0.033145867 0.087788306 -0.06957556
000160 d1 db e9 3d f5 ab c5 3d 79 22 b7 3d 8a 6c a6 bd
       0.1141888 0.09651939 0.08942122 -0.08126171
000170 da 3c 26 be ba 9a ec 3d 97 2e 75 3d fd df 8b 3d
       -0.1623415 0.11552949 0.059858885 0.06829832
000180 f2 d2 b7 3d 49 42 d4 bc fe d8 c8 3d ca 23 8c bd
       0.089757815 -0.025910513 0.09807013 -0.06842764
000190 e2 0e c6 3d 43 6e ed bd f5 8c e6 bd 03 07 60 3c
       0.096708074 -0.115932964 -0.11257354 0.013673547
0001a0 d7 0a 5e 3b 85 d4 a0 3d e8 04 37 bd a7 c2 44 bc
       0.0033880973 0.07853035 -0.044682413 -0.012009299
0001b0 96 7e 1c 3d 17 a3 1a 3e 98 c9 44 bc a7 07 77 3d
       0.03820666 0.15101276 -0.012010954 0.060310032
0001c0 50 c1 13 bd 48 38 a9 bd 0a d1 cd 3d f3 cf 41 bb
       -0.03607303 -0.08262688 0.10049637 -0.002957341
0001d0 6e 92 af bc 3c 07 0b 3e 64 00 a6 bd 89 b3 29 3b
       -0.021432128 0.13576978 -0.08105543 0.0025894365
0001e0 15 f1 77 bb 3e 90 1f 3e 6c 57 d8 bd 56 66 da bd
       -0.0037832905 0.15582368 -0.105635494 -0.1066405
0001f0 9f a2 1a bc ae 55 a5 bc 2f 72 80 bd 21 8c 3b bd
       -0.009438186 -0.020182457 -0.06271779 -0.045787934
000200 9a 6a 6e bd 4f d9 86 3d 82 bc 0f 3d b6 eb a2 3c
       -0.058207132 0.06584417 0.035091884 0.019887786
000210 a7 71 9f 3c c4 e7 ac bc 65 2d bf bc 33 9f 7f 3d
       0.019463373 -0.021106608 -0.023337075 0.062407684
000220 ba 8c d7 3d 79 c5 c1 3d 50 8e 7f 3d 3e 20 05 3c
       0.10524888 0.09461493 0.06239158 0.008125363
000230 fe 40 5b 3d 02 93 77 3d 8f 47 6d 3d 54 bd 02 3e
       0.05352878 0.060442932 0.05792957 0.12767535
000240 8a 80 e1 bd 28 61 02 3d 79 2b 84 bd 30 53 a2 bd
       -0.11010845 0.031830937 -0.06453604 -0.07926023
000250 64 45 de bd 29 6c f1 3d 55 20 ff 3c 0a 0d a1 3b
       -0.10853079 0.11788208 0.031143347 0.0049148845
000260 5f 6a d6 bd 73 14 bd bd 89 29 4b bd e3 04 ac bc
       -0.104695074 -0.09232416 -0.049600158 -0.020998424
000270 f7 0c b5 3d 3f 02 da bd 89 89 2c 3d 00 77 9b bd
       0.088403635 -0.1064496 0.04212335 -0.07591057
000280 ce a9 aa 3d a5 23 ac 3d f2 6f e4 3d 59 d9 9d 3c
       0.08333169 0.08405236 0.111541644 0.019268679
000290 8a 8c f3 bd 9a 82 64 bc 52 d7 c9 bd 20 7b f7 3c
       -0.1189204 -0.013947153 -0.09855522 0.030210078
0002a0 78 ac 8f bd 84 24 27 bd 5c 3b b5 bd 3f 61 aa 3c
       -0.07015318 -0.04080631 -0.088492125 0.020798324
0002b0 00 23 af 3b fe 47 ba bc ae ea ef 3d 57 8f e7 3c
       0.0053447485 -0.022739407 0.117146835 0.028266592
0002c0 fb 27 d2 bd fe 81 d1 bd 56 c7 a0 3d 2e e6 fb 3d
       -0.10261532 -0.10229872 0.0785052 0.12299763
0002d0 d8 b7 f4 3c 5b 0c e1 3d 59 ca f4 bd ed 8c a9 bd
       0.02987282 0.10988685 -0.11952657 -0.082788326
0002e0 03 0f 94 3b 46 da 65 3d db ed a0 3d 3a ac da bd
       0.004518391 0.056116365 0.07857867 -0.10677381
0002f0 e2 e2 b7 3d fa 40 71 bd 6a 43 5a 3d 92 71 07 3e
       0.08978821 -0.058899857 0.053286947 0.13226917
000300 f4 2f 74 bd 37 ef d8 bc da cb cc bb 0d 55 a4 3d
       -0.059616044 -0.026481254 -0.006249887 0.08024035
000310 9d 6f d9 3d 56 bb d0 3d 29 fb 72 3d 6d a9 86 bd
       0.10616992 0.101919815 0.059321556 -0.06575284
000320 57 7b e2 3d 3f 8d 9b 3d 12 e0 e4 3d b6 81 b9 3c
       0.110586815 0.075953 0.111755505 0.022644859
000330 26 d7 96 3d e3 bb a2 3c e5 33 b0 3d 9e c0 89 bd
       0.07365255 0.019864982 0.08603648 -0.06726192
000340 32 97 a1 3d 2c 5e c3 bd 6e 03 ed 3d 81 82 0c 3c
       0.07890166 -0.09539446 0.1157292 0.008576036
000350 8e cc 42 bd f7 2f e2 bd 94 8d c8 bd 8c 36 7c bc
       -0.04755836 -0.11044305 -0.09792629 -0.015393864
000360 e6 b6 ba 3c 9f de 82 3d 92 6d 61 3d 3d 39 38 3d
       0.02279229 0.06390118 0.055036135 0.04497646
000370 71 d4 eb 3d 9c e7 27 3c 03 1e 1d bd 4d 72 95 3d
       0.11515129 0.010248091 -0.0383587 0.07297192
000380 54 fe 72 bd d7 c4 82 bc e4 fa 54 bd 34 7b 94 bc
       -0.059324577 -0.015963001 -0.05199708 -0.018125154
000390 f7 2b 26 3d bc 86 a4 3d 7b b2 be bd e7 7b e0 3c
       0.040569272 0.08033511 -0.09311386 0.027402831
0003a0 8a f4 59 bd 1a f3 15 bd d0 b9 05 bd bf b8 e5 bd
       -0.053211726 -0.036608793 -0.032647908 -0.11216878
0003b0 26 ed a0 3d 39 25 f4 3c 39 1e 49 bd 89 61 ad bd
       0.078577325 0.029802905 -0.04910109 -0.08465869
0003c0 1b e6 b8 bd 57 2c 73 bd ef 74 40 3c b3 e4 2c 3d
       -0.09028264 -0.059368458 0.011746629 0.042210292
0003d0 1b 2f c2 bd 6e 77 5b 3d c1 3f a8 3d c7 0f 96 bd
       -0.09481641 0.053580694 0.08215285 -0.07327228
0003e0 83 36 3d bd 5d 26 82 bd 99 12 bf 3d bc 69 5d bd
       -0.046194565 -0.063549735 0.09329719 -0.054055914
0003f0 b6 ab 9a 3c 39 d1 da bc 15 99 f7 3d ec 67 5a bc
       0.018880706 -0.026711093 0.12089745 -0.013330441

weight_hh_l0 f4 [192, 64]
000000 7c 3d fb bd 9e e6 1f 3d 95 27 0b be 94 70 a7 3c
       -0.122675866 0.039038293 -0.13589318 0.020439424
000010 7e 8f ad 3d dc 64 c4 bd ba af 62 bb 0e 2a e4 3d
       0.084746346 -0.0958955 -0.0034589604 0.11140834
000020 ff e4 26 3d 0e 05 cd bd 2e 0e c6 bd 3b 2b b3 3d
       0.04074573 -0.1001073 -0.09670673 0.0874848
000030 77 ba 0c 3c db fa 23 3d 13 75 c8 bd eb 00 86 bc
       0.008589379 0.040034156 -0.09787955 -0.01635786
000040 1e c3 83 bd f9 d8 d9 3d 81 f0 c6 bd 58 80 ce bd
       -0.064337 0.106370874 -0.09713841 -0.100830734
000050 c5 3f 99 3d 36 7b 07 bd f1 3b 34 3d 89 87 ad 3d
       0.07482866 -0.033076487 0.044002477 0.08473117
000060 03 79 d9 bd 21 1f 7e bd cc 2e 55 3d 17 e9 b6 bc
       -0.10618784 -0.062041406 0.052046582 -0.022327943
000070 ff 00 a0 bd 83 a4 02 3e 40 48 87 3d 02 49 0a 3e
       -0.0781269 0.12758069 0.066055775 0.13504413
000080 5c 1e b8 3d b6 78 f8 bc 01 a7 32 3d 2f 3f ce bd
       0.089901656 -0.030330997 0.0436163 -0.10070645
000090 4f 10 ae 3d 2d 8c 96 bd 97 47 de 3b bb 8c d9 3d
       0.08499204 -0.07350955 0.0067834365 0.10622545
0000a0 81 ad 6d 3d c4 db d7 3d f5 77 8a 3c fd 70 c1 bd
       0.058026794 0.10539964 0.016902903 -0.09445379
0000b0 09 5d 8c 3d aa 95 25 3d 9c 50 67 3d 17 0d a9 3d
       0.068536825 0.040425934 0.05647336 0.0825445
0000c0 4b 06 f0 3d dd c2 07 3e e4 a5 78 bd 94 d2 aa bc
       0.1171995 0.13257928 -0.06070508 -0.020852365
0000d0 ff 6c ed 3c 2e 1a 74 bc 4a 85 6e 3d 3f ee a6 3d
       0.028982637 -0.01489882 0.058232583 0.081509106
0000e0 37 30 f9 3d 9f d5 7d bd 0a 07 02 3e ca 1c a5 bd
       0.121673994 -0.061971303 0.12697998 -0.08062132
0000f0 05 5b cc 3d f4 4d f3 bd 3d 07 c7 bd f8 12 c1 bd
       0.09978298 -0.11880103 -0.097181775 -0.09427446
000100 d2 fb 99 bd a5 6f 9c 3d 37 ff 7f 3d a9 f8 53 bc
       -0.07518734 0.07638482 0.06249925 -0.012937703
000110 2a 41 c5 3d 1a 0e 55 3d 99 bd e7 3a 53 f5 7c 3d
       0.0963157 0.0520154 0.0017680406 0.061757397
000120 6a 98 a3 3c 39 55 98 3d 81 fc af bd 67 c8 0c be
       0.019970138 0.0743813 -0.08593083 -0.13748322
000130 6c 37 f0 3d 5f c6 97 bd 0d d8 de bc 75 d6 c4 3d
       0.11729321 -0.07410883 -0.02720263 0.09611217
000140 e8 eb 2b bc 98 4b bc 3d ac 74 d1 3d 4c 9c d4 3d
       -0.010493256 0.09194106 0.102273315 0.10381374
000150 40 1b bc bd ce 87 c6 bc 12 60 eb 3b 40 9b 25 3b
       -0.09184885 -0.024234679 0.0071830833 0.0025269538
000160 bc c2 bc 3d 0f 8a 0e 3c 2e 09 f7 3b 8a d9 9c 3d
       0.0921683 0.008699908 0.007538936 0.0765868
000170 58 b3 d2 bc 50 78 6c bd 0e ca 34 bd 56 ec d6 bd
       -0.025720283 -0.057731926 -0.044138007 -0.10494296
000180 00 e7 ca bd 1a 28 f9 bd b9 28 44 3d 49 82 ab 3d
       -0.09907341 -0.12165852 0.0478904 0.08374459
000190 b7 58 b0 3c 73 ab 8b 3c 26 c0 b1 3d 27 f9 bb bd
       0.021526678 0.017049527 0.086792275 -0.091783814
0001a0 cc 7a 25 bc 7b 71 ac bd b7 4d f5 3d ac d1 3c 3d
       -0.010100078 -0.08420082 0.119777136 0.046098396
0001b0 7e 4f 9b 3d c0 9d 9f 3d 29 12 70 bd 83 2b bb 3c
       0.07583521 0.0779376 -0.05861107 0.022847896
0001c0 08 4d 40 bd 00 1c 9d bd 8f 95 4e bd de 6f ac 3b
       -0.046948463 -0.07671356 -0.0504356 0.005262359
0001d0 99 19 16 be 3b b0 cc bd 68 0d 1d 3c 14 82 92 bd
       -0.14658202 -0.09994551 0.009585716 -0.07153717
0001e0 b8 88 25 3d 63 60 ba 3d f1 bb b4 bd a0 0a 30 3c
       0.04041359 0.091004156 -0.088249095 0.010744721
0001f0 11 a2 e6 3c 79 42 9f 3d 10 85 c4 bc e2 6c ad bd
       0.028153451 0.077763505 -0.02398923 -0.084680334
000200 37 21 d5 bd 5b b5 95 3d 74 bc ab bd 03 96 cd bd
       -0.10406726 0.073099814 -0.08385554 -0.10038378
000210 cd 59 0c bd 9b d1 de 3d 1d bd ec bb 06 5f e9 bd
       -0.03426533 0.10879823 -0.0072246925 -0.113950774
000220 2f 0d 4f bd 37 73 ac 3d d1 cd 06 bb f8 5a 14 3d
       -0.050549682 0.08420413 -0.0020569453 0.036219567
000230 0b 69 5e bd 04 40 bd bd 43 33 f1 bd 02 18 2a 3d
       -0.054299396 -0.09240726 -0.117773555 0.041526802
000240 33 e9 a0 3a dd 2a 98 3d 13 1a 69 3c b4 b9 dd 3c
       0.001227653 0.074300505 0.014227408 0.02706609
000250 fc 18 09 3e cb 52 6a 3d e6 16 d1 3d c8 ce 74 3d
       0.13388437 0.057207864 0.10209446 0.059767514
000260 58 c1 b3 3d fc ef 23 bd 68 27 e1 bd 64 d5 59 bc
       0.08777112 -0.04002379 -0.10993844 -0.013295505
000270 88 9e 48 bd f1 b6 b9 bd 0e 4d 8e bb 98 b1 90 3c
       -0.048979312 -0.090680964 -0.0043426817 0.017662808
000280 bc df 21 3d 56 73 a8 3c 5e 84 47 3d 8a 06 9e bc
       0.03952001 0.020562809 0.04871022 -0.019290227
000290 57 9e e7 bd b2 68 bc bc f0 0e b3 bd 63 74 0f 3d
       -0.11309498 -0.022999141 -0.087430835 0.035023104
0002a0 06 a5 ea bd a4 c0 d3 bd 9f 3b b6 bd 83 7f a5 bd
       -0.11457257 -0.10339478 -0.088980906 -0.080809616
0002b0 5d 87 92 bd 16 fb b8 3d d3 74 b4 b9 11 7b 09 3e
       -0.07154725 0.09032266 -0.00034419316 0.13425852
0002c0 94 47 f1 bd 55 22 d7 bb aa 35 c1 3d 9a 94 29 3d
       -0.117812306 -0.006565372 0.09434064 0.041401483
0002d0 0a 80 7a bd 30 9f b3 39 e4 fc 9f bd ac b6 ff bd
       -0.061157264 0.00034260144 -0.07811907 -0.12486014
0002e0 39 78 c0 3d f3 b3 40 bd d6 0f e6 bd a6 25 4b 3d
       0.09397931 -0.047046613 -0.11233489 0.04959645
0002f0 76 31 e7 3c b5 8f 08 bd fc d7 48 3c 9a fd 43 3c
       0.028221827 -0.033340175 0.012258526 0.011962319
000300 fe cb 2d 3d cd 3f d4 3d 7f 06 4f 3d 66 c2 cb bd
       0.04243087 0.103637315 0.050543305 -0.09949188
000310 65 50 c8 3d bd 75 2b 3d 73 ae ee bc 11 5e d6 bd
       0.09780959 0.04186033 -0.029135918 -0.104671605
000320 1a 37 3e 3d 5c 4d 43 bd 55 32 c2 3d da 31 9c 3d
       0.046439268 -0.047681198 0.09482256 0.07626696
000330 0b ad 8a 3c 42 e3 c9 bd fd 4e 94 bd 0a cd f9 3c
       0.016928216 -0.09857799 -0.07241628 0.030493278
000340 ea 45 7f bd 63 c0 de 3d ca c0 24 3d 09 3b 84 bd
       -0.062322535 0.108765386 0.04022292 -0.064565726
000350 fa ff 44 bd 3b d1 80 bb 0b 36 93 bd c9 c0 0d be
       -0.04809568 -0.003931192 -0.07188042 -0.13843073
000360 cd a4 a0 bc fd 1c 13 bd 2f 24 4d 3d 4a 37 cb bd
       -0.019609833 -0.035916317 0.050083335 -0.09922655
000370 e7 5f 00 be 02 ba a4 3d 7a 32 7f bd 10 21 8e bc
       -0.12536584 0.08043291 -0.062303998 -0.01734975
000380 03 8a 85 bd b2 2f 0e 3d d8 10 af 3d 27 e3 24 3d
       -0.06520464 0.034713455 0.085481346 0.04025569
000390 f0 e3 83 3c 94 24 ab bd 89 13 60 3c e7 8f d0 bc
       0.0160999 -0.08356586 0.013676533 -0.025459243
0003a0 0b cd f8 3d 90 dd 80 3d bd f5 34 bc 8a b8 a5 bd
       0.12148484 0.0629226 -0.011044917 -0.08091839
0003b0 c5 7a 80 3c e2 96 94 bc 72 ff 0c bd c5 cd 94 3c
       0.015683541 -0.018138353 -0.0344233 0.018164525
0003c0 73 fd 94 bd 62 22 8a 3d 87 7b de 3d 2c c1 fc 3d
       -0.07274904 0.06744839 0.10863405 0.12341532
0003d0 de f6 96 3d 17 13 93 3c 31 97 ae 3c 79 65 36 3c
       0.07371305 0.017953439 0.021312328 0.011132591
0003e0 85 d3 cb 3c ba d8 bf 3d 9e f5 98 bd 27 a7 5e 3d
       0.024881134 0.09367509 -0.07468723 0.054358628
0003f0 b7 2c cf bc c1 ea a2 3d f8 2e a2 3d 86 0a ed bb
       -0.025289876 0.07954932 0.07919115 -0.0072339205

bias_ih_l0 f4 [192]
000000 ab e4 02 be 5f b1 47 bd dd 41 10 3b b7 a9 68 bd
       -0.12782542 -0.04875314 0.0022011914 -0.056802478
000010 bb b3 e8 3d 08 cf 0b bd 80 58 80 bd b4 74 ef 3d
       0.11362406 -0.034132987 -0.0626688 0.11692181
000020 fc 34 60 3d 56 8a d1 bb 0a 62 10 3d 73 66 b1 3d
       0.05473803 -0.0063946648 0.035249747 0.08662119
000030 fc f8 41 bd 76 af 45 bd 58 87 00 3e 1e 88 fd 3d
       -0.04735659 -0.048263036 0.1255163 0.12379478
000040 c6 39 0b be e5 d1 66 bd 90 70 ae bd 81 71 fd 3d
       -0.13596258 -0.056352515 -0.08517563 0.12375165
000050 cf f8 5d bd d6 99 80 bd 9d 46 82 bb 28 37 0f 3e
       -0.05419236 -0.06279342 -0.003975703 0.13985884
000060 33 f0 12 bd ef 76 d1 bd ba 56 0c 3e 32 b9 56 bd
       -0.035873603 -0.10227763 0.13704959 -0.05242271
000070 d6 3a e8 3d 10 f7 5a bc 76 54 d1 3d ee 9f 56 3d
       0.11339347 -0.013364568 0.10221188 0.052398615
000080 4a 75 de 3d a0 7f 13 3d 10 49 cf bd 96 fc ee bb
       0.10862215 0.036010385 -0.101213574 -0.007293294
000090 49 64 b5 bd 7f b9 87 bd 30 67 11 3d b9 62 70 3d
       -0.088570185 -0.066271774 0.035498798 0.0586879
0000a0 45 99 60 3d cf 73 d5 3d f1 76 82 3d f8 d9 b4 3d
       0.05483367 0.10422479 0.063703425 0.08830637
0000b0 bd 93 87 bc 5f 8d 1e bd 6a 2f 0f 3e 26 bd b0 3b
       -0.01654994 -0.03870904 0.13982931 0.005393642
0000c0 cc fd 08 3e 68 e7 e2 bc 5e b0 81 3d 21 55 bf 3d
       0.13378066 -0.027698234 0.063324675 0.09342409
0000d0 47 aa b9 bd e9 93 c1 bd 99 6e 16 3e 97 8f a7 bd
       -0.09065681 -0.0945204 0.14690627 -0.081816845
0000e0 fb f3 17 3c 48 fe 25 3e 04 d5 76 bd 69 d2 20 bd
       0.009274478 0.16210282 -0.06026174 -0.039263163
0000f0 6f 2b aa 3c 9c f5 be bc bd 25 78 bc 6d 11 83 3c
       0.020772664 -0.023310475 -0.015145716 0.01599952
000100 90 33 e9 bd e4 67 01 be fb 73 b1 3d 3a 4c b8 3d
       -0.11386788 -0.12637287 0.086647 0.08998914
000110 02 1b dc bc 4b 96 99 3d c5 e8 79 bd 91 ec a6 bd
       -0.026868347 0.07499369 -0.061013002 -0.0815059
000120 1f 55 d7 bd a6 1f 2c 3d 6f 8b 88 bd f5 ed f2 bd
       -0.105142824 0.04202237 -0.0666722 -0.11861793
000130 9d f8 e8 bd c2 ef c0 bc 03 73 00 be d2 fe 8f 3d
       -0.11375544 -0.023551825 -0.12543873 0.07031025
000140 51 98 6e bd 83 21 a9 bd d3 72 8e 3d 8a e7 77 3d
       -0.05825073 -0.08258345 0.06955495 0.060523547
000150 f5 fc d0 3a 52 e1 1d 3d 46 95 0a be 7e 7c 75 3d
       0.0015944528 0.03854496 -0.13533506 0.059933178
000160 f9 88 ba bd d7 6d 9e 3d 7e 52 07 be 09 b5 a3 bb
       -0.09108157 0.07735794 -0.13215062 -0.0049959463
000170 56 ef c7 bc 28 bf b0 3d c0 96 4c 3d 4a e9 f2 3b
       -0.024406116 0.0863021 0.049948454 0.007413064
000180 11 39 fd bc 30 5c 9a bd ed cf 9e bc 49 46 0f 3d
       -0.030911 -0.075371146 -0.019386256 0.03497914
000190 d0 e8 18 bd 06 cc 74 bc 67 28 15 be 32 7f 70 bd
       -0.037331402 -0.014941221 -0.14566194 -0.058715053
0001a0 7a f8 5e 3d 5c 92 27 3c e4 a7 a8 bd 28 f9 1d be
       0.054436184 0.010227766 -0.082351476 -0.15427077
0001b0 ce eb ca 3d 34 e6 1c bd 87 69 52 3d 82 48 b2 bd
       0.099082574 -0.038305476 0.05137017 -0.08705236
0001c0 08 ad 79 bd f3 54 1e be 0a 1d 64 3d 94 2b b6 bd
       -0.06095603 -0.15462093 0.055691756 -0.088950306
0001d0 8e a6 40 bd a3 74 37 3d b3 b1 a5 3d 1b f2 16 bc
       -0.04703384 0.044788968 0.08090534 -0.009212996
0001e0 b9 25 7b bd f9 8c 68 bd 79 3e 26 be 05 0a 98 bd
       -0.061315272 -0.056775067 -0.16234769 -0.07423786
0001f0 24 4a d4 3c da cd 6b 3d 4c c6 a0 bc 0c e4 db 3d
       0.02591426 0.057569362 -0.019625805 0.10736856
000200 f4 83 14 be 6e b4 b4 bc eb 5a 49 3c d5 1c c9 3d
       -0.14503461 -0.022058692 0.012289743 0.098199524
000210 4c 97 f9 3d 49 13 86 bd 9c aa c0 3d 03 4b 97 bd
       0.12187061 -0.06546647 0.09407541 -0.07387354
000220 01 56 17 3e 01 29 68 3d 7d b1 bb 3c 43 13 dc 3b
       0.14778902 0.05667973 0.022911781 0.0067161634
000230 0e 2c a6 bd 17 1a 7a 3d b1 45 ac 3d bf 6a cf 3d
       -0.081138715 0.061060037 0.0841173 0.10127782
000240 66 1f 08 be 3e c4 ef 3c 52 44 69 3d 34 34 86 bb
       -0.13293228 0.02926838 0.05694992 -0.0040955786
000250 75 41 81 3d f7 7d 3a 3c 08 c1 9e 3d 53 80 08 3d
       0.06311313 0.011382571 0.077516615 0.033325505
000260 9d d8 80 bd 81 f2 12 3e e1 68 a1 3a e0 a0 15 3e
       -0.06291316 0.1435032 0.0012314582 0.1461215
000270 c2 4b cb bb 5a 05 a9 3d e7 1c b0 bd 43 1b 95 bd
       -0.0062040994 0.08252974 -0.08599263 -0.072805904
000280 88 ab 0e be b4 a5 a8 3a 23 42 14 3e 52 aa d1 3d
       -0.13932621 0.0012866766 0.14478354 0.10237564
000290 01 a0 bd 3d 4a eb 63 3d d0 1d e9 3d 48 18 51 bd
       0.09259034 0.05564431 0.113826394 -0.051048547
0002a0 72 7d 84 bd a3 c6 46 bd 57 25 07 3e e4 a6 11 be
       -0.06469239 -0.04852928 0.13197838 -0.1422382
0002b0 0c 8c e0 3b 13 37 2d bd 15 4d d9 3d c3 06 fe bd
       0.0068526324 -0.04228885 0.10610405 -0.124036334
0002c0 aa 98 aa 3d 22 0c 6c bb 14 17 52 3d aa 07 1e 3e
       0.083298996 -0.0036017974 0.05129154 0.15432611
0002d0 06 b6 e1 bd 15 44 78 bd d6 62 a5 bc 6c e1 57 3d
       -0.11021046 -0.060611803 -0.02018873 0.052705213
0002e0 aa 57 07 3d 64 92 21 3d 78 90 9b bd 6b d3 a7 3d
       0.033042587 0.03944625 -0.075959146 0.08194622
0002f0 a6 6c 71 3d 07 28 b9 bc 39 79 af 3c 39 a5 20 bd
       0.058941506 -0.022602094 0.021420108 -0.03922007
