models/demo/checkpoint/trained_irdpg_60.pth (torch, 409346 bytes, 22 tensors)

weight_ih_l0 f4 [192, 64]
000000 5d b7 3e 3d 8a e2 8a bc 6e 6a b7 bc 81 90 41 bd
       0.046561588 -0.016953725 -0.022389617 -0.04725695
000010 45 1a bd bd 3b c9 8b bd b1 3a b3 3d 43 d6 f1 bd
       -0.09233526 -0.06825491 0.08751429 -0.11808445
000020 07 42 9e bd ec b9 42 3d 4d 5f a7 bb b5 33 99 3d
       -0.077274375 0.04754059 -0.0051077963 0.074805655
000030 c3 88 44 bd da 52 e8 3d 2c c5 13 bd 47 29 c3 bd
       -0.04798199 0.11343928 -0.03607671 -0.095293574
000040 d5 31 77 bd 4d a2 b6 bb 17 95 ae 3d 39 af d3 3d
       -0.060350258 -0.005573547 0.085245304 0.103361554
000050 b2 f4 d3 3b 24 08 ba 3d 3f 4d c0 bd bb ad bf bd
       0.006468379 0.09083584 -0.093897335 -0.09359308
000060 9b 53 dc 3d 39 b6 86 3d cf 05 7c 3d 26 6c 06 3c
       0.10758134 0.06577725 0.061528977 0.0082044955
000070 dd bb 96 3d 5e 93 fd 3d bb 9b d6 3d a9 14 af bd
       0.07360051 0.12381624 0.10478922 -0.085488625
000080 23 6f ae 3d 61 0a bc 3c 98 e2 96 3d 38 9f cc bd
       0.085172914 0.022954168 0.07367438 -0.09991306
000090 37 25 88 3d 4f 9f c4 bd 23 e1 1c 3d 35 d9 c1 bd
       0.06647723 -0.09600698 0.038300645 -0.09465257
0000a0 b8 9e af 3c 95 20 f7 3d 67 80 bd 3d b7 96 83 bd
       0.021437988 0.120667614 0.092530064 -0.06425231
0000b0 7c d3 89 3d c6 73 90 3d bf 5e d5 3b 0a d5 7b 3d
       0.067297906 0.07053332 0.0065115388 0.061482467
0000c0 00 af 82 bc a3 6e f8 bd 20 2d c7 bd 00 ea 4d 39
       -0.015952587 -0.12130477 -0.09725404 0.00019637495
0000d0 28 4a 21 3d 55 72 e5 bd 91 c8 c1 bb 53 7e 25 bd
       0.03937736 -0.11203448 -0.005913802 -0.040403675
0000e0 32 97 88 bd d1 17 d8 3d d2 29 19 3d ed df ca bb
       -0.06669463 0.105514176 0.0373934 -0.006191245
0000f0 6d 50 9b 3d fc 07 3b bc 11 f6 ec bd 82 a6 a4 bc
       0.075836994 -0.011415478 -0.11570371 -0.020098928
000100 84 47 f1 3d d8 1d ab bd 1a 53 64 bb 29 ef 2d 3d
       0.11781219 -0.083553016 -0.0034839571 0.04246441
000110 cd 6c d8 bd 86 b5 e2 3d e4 f6 d4 3d d0 93 37 bd
       -0.10567627 0.11069779 0.10398653 -0.0448187
000120 00 ac 23 3d 68 dc ba 3d d8 51 66 bd ce 95 88 bd
       0.039958954 0.091240704 -0.056230396 -0.06669198
000130 f3 69 5d 39 c8 6d 7b bd 71 ae 38 bc 3b f3 9c 3c
       0.00021115672 -0.061383992 -0.011272059 0.01915895
000140 d2 04 92 bd 26 06 f4 bd a4 ba ee bc 03 0a ba 3a
       -0.07129826 -0.11915235 -0.029141732 0.0014193658
000150 c5 d5 c0 bd af 55 9a 3d bf 5d 1a 3d ce fd 0c bc
       -0.09415773 0.07535874 0.03768706 -0.008605434
000160 67 58 aa bb 29 8d a6 3d 85 e7 66 3d ce bf cc bd
       -0.0051985267 0.08132393 0.056373138 -0.09997521
000170 1e a6 18 3d b3 b0 1f 3d 5f ce 00 be 35 ae cf bd
       0.037267797 0.038986873 -0.12578724 -0.10140649
000180 18 97 cb bc df 34 48 bd a0 30 41 3d 97 38 99 3d
       -0.02485232 -0.048878547 0.047165513 0.07481497
000190 a6 25 83 3d 69 f5 3f 3d 47 c9 bc bd 3a b8 f5 3d
       0.06403665 0.0468649 -0.09218078 0.11998029
0001a0 fd ae 09 3b c9 07 14 bd 3d 09 c0 bc 85 63 0f bb
       0.0021008842 -0.036140237 -0.023441905 -0.0021879387
0001b0 9b 75 e4 3d 3b 55 05 3d 66 37 b6 3d a0 6d 42 3d
       0.11155244 0.032551985 0.08897285 0.047467828
0001c0 e0 96 f9 bd e2 3f 9c 3d 29 d0 1f 3d 1a 32 9c 3d
       -0.1218698 0.07629372 0.039016876 0.076267436
0001d0 24 c3 a4 bd 29 74 36 3b 6c 22 cc 3d 8c df 79 bd
       -0.080450326 0.0027840233 0.09967503 -0.061004207
0001e0 46 ff c0 bc 98 5e 23 3d 51 54 68 3d 8d 3c 03 be
       -0.023559224 0.039885134 0.056721035 -0.12816067
0001f0 89 1e f0 3d ac ac b1 3d 88 b7 97 3c 54 5c 23 3d
       0.11724574 0.08675513 0.018520132 0.039882973
000200 43 da 01 be 83 6f 20 3d ee 8d d6 bb 45 0d 1a 3c
       -0.12680916 0.039168846 -0.006547681 0.009402578
000210 4f 18 d2 3d 46 26 1b 3c bd bd 75 3d 6e bc c4 bd
       0.10258543 0.009469574 0.0599954 -0.096062526
000220 eb 51 db 3b 5a c3 ec 3d 2c d5 9a bd dc e9 af bc
       0.006693115 0.11560698 -0.075601906 -0.021473818
000230 fd 0b 06 bd 11 f0 8b 3d 76 74 fa 3c 85 a5 b6 3a
       -0.032726277 0.068328984 0.030573111 0.0013934827
000240 f4 a2 98 3d ac 55 9c bd 66 c7 09 bc 4a 57 d3 bd
       0.07452956 -0.07633528 -0.008409357 -0.103193834
000250 4e e1 72 bd fe d4 ab 3d 62 8d 2f 3d 20 e1 f0 3c
       -0.0592969 0.083902344 0.042859443 0.029404223
000260 8f 72 b1 bd ec 38 e9 3d 61 4f cd bd e8 a2 45 bd
       -0.086644284 0.1138781 -0.10024906 -0.048251063
000270 ae 16 1f bc 5a 6e 0e 3d 4b ac c0 bd a0 58 d2 bd
       -0.009709997 0.03477321 -0.09407862 -0.1027081
000280 da 3e 8f bd c2 f5 9e bd 8f a7 2e bc 80 15 e0 bc
       -0.0699441 -0.07761718 -0.010660066 -0.027354002
000290 8e 73 01 be 51 ed 03 3d 5e 0b 9a 3d 0d ed c5 3c
       -0.12641737 0.032208744 0.07521699 0.024160886
0002a0 e8 90 85 3b a6 ca 80 bd b2 8a 03 3c 86 71 b6 3d
       0.004076112 -0.06288652 0.008028673 0.089083716
0002b0 2a 16 c0 3c ef a6 98 3d 27 78 ab 3c ef 13 d5 3b
       0.023448069 0.07453715 0.020931317 0.0065026204
0002c0 64 7d e8 3d 54 88 44 bc 17 ef ea 3d 81 46 bf bd
       0.11352041 -0.011995394 0.11471384 -0.093396194
0002d0 35 5d 09 ba c6 b8 6e bd e2 0f 71 bc 01 b7 a8 bd
       -0.0005240024 -0.058281682 -0.014713259 -0.0823803
0002e0 a9 5a e3 3d 86 97 68 bc f5 ca 8e bd 17 ec 5b bd
       0.111012764 -0.014196282 -0.06972305 -0.05369195
0002f0 01 11 e5 bd c5 32 8b bc f4 ba d6 bd c3 d6 90 3d
       -0.11184884 -0.016991982 -0.10484877 0.070722125
000300 f3 5e c1 3d 6b d7 d3 3d e3 65 55 bd 2c a7 ff 3c
       0.09441938 0.10343822 -0.05209912 0.031207643
000310 64 55 eb 3d 38 af aa bc c6 9a 28 3d c3 5d bc bd
       0.11490896 -0.020835504 0.04116323 -0.09197571
000320 5e 16 2b bd 77 6d 1a 3d ba f1 45 bd 91 11 d7 bd
       -0.041769378 0.03770205 -0.04832623 -0.105013974
000330 af 21 87 bd 3f f9 4a 3a 7a ca 81 bd de c5 c1 3d
       -0.065982215 0.0007742829 -0.063374475 0.09461568
000340 24 87 8e bd 67 f3 a5 3d 88 c7 f7 bd ac e5 45 3d
       -0.0695937 0.08103066 -0.120986044 0.048314735
000350 de b9 0e 3d e7 8d 84 3d e1 aa 89 3d ed 58 93 3c
       0.034845226 0.06472378 0.06722046 0.017986739
000360 cd c8 cc 3d 25 67 cc 3d 99 c7 55 bc e6 62 0d bd
       0.09999237 0.09980611 -0.013048076 -0.034518145
000370 36 e7 f8 bc 85 b9 c6 bd 94 ba ce bd 2f 82 21 bc
       -0.030383687 -0.09703354 -0.10094181 -0.009857698
000380 97 ef e9 3d d1 85 c3 3d 33 c8 ec bd c7 77 8d 3d
       0.11422651 0.09547008 -0.115616225 0.06907611
000390 f4 17 a6 bd 75 2d eb 3c 42 b7 31 bd a7 16 01 be
       -0.081100374 0.028708199 -0.04338766 -0.12606297
0003a0 4f bd 64 bd c1 3f fd bc 91 41 b2 3b 97 ec be 3d
       -0.0558446 -0.03091419 0.005439945 0.0932247
0003b0 83 79 d1 3d 4a 53 b7 bd 28 06 c8 3d 1d cb 9f 3d
       0.10228255 -0.08951433 0.09766799 0.07802413
0003c0 ee 40 86 3c 6b 47 ad 3d f3 4c a9 bd 70 d3 a9 bd
       0.016388383 0.084608875 -0.0826663 -0.08292282
0003d0 19 9c dc bb 64 ea 27 bd c4 77 1b 3c f5 e8 a6 3d
       -0.0067324755 -0.040995017 0.009489004 0.08149902
0003e0 31 8b 22 bc 6c 78 96 3c 7f 83 ae 3d 39 c8 00 bd
       -0.009920881 0.018367968 0.08521175 -0.031440947
0003f0 9c 4c d7 3d 2a 8d d7 3d a4 b6 cc 3d 10 b0 f1 3c
       0.10512659 0.10524972 0.099957734 0.029502898

weight_hh_l0 f4 [192, 64]
000000 d2 e3 dd bd 7f 97 c9 bd 3d 9d 3b bd 78 85 ec 3d
       -0.10834469 -0.09843349 -0.04580425 0.11548895
000010 08 3c cb 3d 80 7c 37 3d 60 2a 13 3d 2f 48 ca bc
       0.099235594 0.044796467 0.035929084 -0.024692623
000020 2d cf e7 bd 71 71 80 3d c8 42 67 bd be 6f b2 bd
       -0.113188125 0.06271637 -0.056460172 -0.087127194
000030 a4 de 35 3d b5 a2 ba 3d 97 82 13 3a bb 0a d3 bb
       0.04440178 0.09113065 0.00056270644 -0.006440488
000040 c3 01 de 3d bf 24 c1 bc 83 e2 19 3d 7e 27 2a 3b
       0.1084018 -0.023577092 0.037569534 0.002596348
000050 cf 2a 22 bb 20 aa 3a 3d 10 d5 2e bd 8c ff 7d bd
       -0.0024744754 0.0455724 -0.04268366 -0.062011287
000060 0f d1 65 bd 28 77 ae bd a5 0d 15 bc fd 5a 9d 3d
       -0.056107577 -0.08518821 -0.009097491 0.0768337
000070 8e a2 c0 3d b6 a7 36 3d ae 41 e1 bd b2 af 8e bd
       0.09406005 0.044593535 -0.109988555 -0.06967105
000080 5e 52 b2 bd 56 3f d0 3d 37 aa c3 bd 81 ba d0 bd
       -0.087071165 0.1016833 -0.0955395 -0.10191823
000090 8c d4 61 bd 50 61 14 bd ea 0d 2f bd b3 f3 7b 3c
       -0.05513434 -0.036225617 -0.04273788 0.015377927
0000a0 a9 04 f5 3d 27 1b fd bd 7d e3 a9 bd dd 52 5e 3d
       0.119637795 -0.123586945 -0.08295343 0.054278243
0000b0 89 4d e2 bc 87 55 aa bd 02 b2 1e bd 05 bf a0 bd
       -0.027624862 -0.08317094 -0.03874398 -0.07848934
0000c0 55 28 fb 3c 2a 5b 35 bd c8 a0 3d bc db 7b ea bd
       0.03065888 -0.044276394 -0.011573978 -0.11449405
0000d0 3f cd 8a 3d ca ff 0e 3d e9 fd 05 3d d5 17 f1 3d
       0.06777429 0.03491191 0.03271285 0.11772124
0000e0 60 47 5f bd ea 85 d8 bc 7c df 8d 3d 20 d5 da bd
       -0.054511428 -0.026431043 0.06927392 -0.106851816
0000f0 c4 e8 f4 bd 49 46 98 3d e8 9c d0 bd 43 50 bf bc
       -0.11958459 0.07435281 -0.101861775 -0.023353701
000100 c3 56 dc bd a0 19 01 bd 30 57 9d 3d 60 e2 69 3c
       -0.10758736 -0.03151858 0.07682645 0.014275163
000110 0b a8 d5 bd 87 b7 cf bd b3 3e 87 3d 6f de bd 3d
       -0.10432442 -0.10142427 0.06603756 0.092709415
000120 22 f2 4c 3d 12 42 bd bd e0 a9 08 3d 15 c8 cf 3d
       0.050035603 -0.092411175 0.03336513 0.101455845
000130 3b b6 41 3d 42 c0 ce 3d d4 14 46 bd c1 10 45 3d
       0.04729293 0.10095264 -0.048359707 0.04811168
000140 93 3d 8b bc c5 20 8e 3d 52 09 b2 bc 2b 9c 01 3d
       -0.016997134 0.06939844 -0.02173296 0.031643074
000150 42 f2 f6 bd 5f 3d e1 bd 30 84 b7 bd a8 06 dc bd
       -0.12057926 -0.10998034 -0.0896076 -0.10743457
000160 ca 72 e9 bc a6 b2 81 3d 12 4b a0 bd dd ea 3f 3d
       -0.028497119 0.063329026 -0.078268185 0.046854842
000170 4f b2 c1 bd 7b c5 df 3d 5c 4e 95 3d 64 a4 81 3d
       -0.09457838 0.10926338 0.072903365 0.06330183
000180 c9 48 7b 3c b8 52 c1 3d bf bd 75 3d ee 1c 14 bd
       0.015337178 0.094396055 0.05999541 -0.036160402
000190 8c 95 15 bd 83 ae ca 3d 10 28 c9 3d f5 71 d2 bd
       -0.036519572 0.09896567 0.098220944 -0.10275642
0001a0 e4 c7 42 bd b6 51 d7 bc e0 cc c2 3d fd d2 23 bd
       -0.04755391 -0.02628408 0.09511733 -0.039996136
0001b0 7b 82 00 3e c0 38 25 ba b0 87 cc bd 25 0e f6 3c
       0.12549774 -0.0006302707 -0.09986818 0.030036042
0001c0 85 27 ff bd c9 e8 87 bc 8a d6 29 bd 4c 91 d1 3d
       -0.124587096 -0.016590493 -0.041464366 0.10232791
0001d0 ef 57 86 3c ba cd 01 bc c6 99 cd 3d 3b 82 23 bb
       0.016399352 -0.007922584 0.100390956 -0.002494945
0001e0 f5 cd a7 3d b0 92 fc bd 11 f7 cb bd ac 99 b4 bd
       0.0819358 -0.12332666 -0.099592336 -0.08818373
0001f0 33 83 c1 3d e6 99 30 bd a8 6d b8 bc 67 60 1d 3d
       0.094488524 -0.04311552 -0.022513226 0.038422015
000200 16 18 cc 3d 7f 53 90 3d e7 b7 92 3c c7 45 8a 3d
       0.099655315 0.070471756 0.017909957 0.0675159
000210 25 30 72 3d 7b 8e 6d 3d fc 80 e9 3d 93 52 60 bd
       0.059127945 0.057997208 0.11401555 -0.05476625
000220 7c b2 0e 3d f5 37 82 3c 7d c8 ca 3d 0a 98 ea bd
       0.034838185 0.015895823 0.09901521 -0.114547804
000230 96 77 69 3d 43 94 73 bd be 2e 8d 3c f1 24 59 bd
       0.05699881 -0.059467565 0.017234202 -0.053013746
000240 c6 d7 a4 3c 11 9c 5d 3c 15 04 1c 3d 14 29 0b 3b
       0.02012242 0.013525979 0.03808983 0.0021234201
000250 08 7b b6 3d 11 18 f2 bd c7 8e 95 3d 39 74 7b 3d
       0.08910185 -0.118209966 0.07302623 0.061390135
000260 ee 29 ef bc 07 61 2d 3d 27 ef e6 bd 86 5a e7 3d
       -0.029194798 0.04232886 -0.112760834 0.11296563
000270 32 0d 08 3d cc 19 62 bd 19 ee cf 3d a6 66 60 3d
       0.03321571 -0.055200383 0.101528354 0.054785393
000280 26 cd a6 3c 4e e1 cd 3d 7c e1 6e 3d 3f 84 f3 bd
       0.020361494 0.10052739 0.058320507 -0.11890458
000290 20 1c 9a 3d 51 fc 56 bc be 3d a2 bd cb 7a a0 3d
       0.07524896 -0.01312168 -0.07921933 0.07835921
0002a0 18 6a fd bd eb 9b e5 bd 73 4d 49 3d 2b 85 17 3d
       -0.123737514 -0.112113796 0.049146127 0.036992233
0002b0 fd 93 f4 3d 0c 60 b8 3c a1 62 a6 3c 33 29 a3 3d
       0.11942289 0.022506736 0.020310702 0.079668425
0002c0 86 1e 54 3c 85 70 79 3d 31 b4 45 bd 45 b4 b9 bc
       0.0129467305 0.060898323 -0.048267547 -0.022668967
0002d0 3f 8f d5 3d 43 f9 f2 bb c1 d9 86 bd db 78 cc bd
       0.10427713 -0.007414968 -0.06584502 -0.09983989
0002e0 8b a2 a0 3c 0c b6 1d bc 31 1b 72 3d 7a 1e bb 3d
       0.019608757 -0.009625923 0.059107963 0.09136672
0002f0 34 8c 87 bd ed 8c ce bd d9 36 b7 3d ad ad 76 bd
       -0.066185385 -0.10085473 0.08946008 -0.060224224
000300 5d bf 82 bd ec 81 0d bd 23 9c bd bd 9d a0 c0 3c
       -0.06384156 -0.03454773 -0.09258296 0.023514086
000310 e1 2d e0 bd 66 e0 de 3d 6f 66 c4 bd 72 11 f3 bd
       -0.10946251 0.10882644 -0.0958985 -0.11868562
000320 3f 84 36 bd c5 12 87 3d 09 6e cd 3d b2 d1 81 bc
       -0.044559713 0.06595377 0.10030753 -0.01584706
000330 0c 46 68 3c 84 1b 95 bc ed 1f 45 bd 4e e9 be bd
       0.014176857 -0.018201597 -0.04812615 -0.09321843
000340 d5 88 78 3d fa 05 84 bc 82 3a 7d 3d ed 3a e1 3c
       0.06067737 -0.016116131 0.061823376 0.027493918
000350 9f c3 b1 bd 81 82 ef 3d 40 91 54 bd b9 98 c5 bd
       -0.0867989 0.116948135 -0.051896334 -0.0964827
000360 67 17 db bd 3b f1 a1 bd 1f 51 cf 3d 4c 4b ab bd
       -0.10697823 -0.07907339 0.101228945 -0.08363971
000370 a0 e2 ed 3c 90 21 9d bd 76 b1 f4 bb d1 93 37 3d
       0.029038727 -0.07672417 -0.007467444 0.044818703
000380 17 1f b5 3d 94 df 4f 3d d9 24 dd bd 3f 4b d6 bd
       0.088438205 0.05075033 -0.10798044 -0.10463571
000390 f6 fc 8d 3d ee 99 ec 3d 20 22 63 bd f8 65 b6 3c
       0.06933014 0.11552797 -0.055452466 0.02226542
0003a0 b3 45 96 bd bd c9 bf 3c 4c f0 bf 3b 7b 9b 61 3d
       -0.07337513 0.023411626 0.005857503 0.05507992
0003b0 f8 ed 63 bd e3 41 59 bc a0 04 ef bc a5 71 74 3d
       -0.055646867 -0.0132603375 -0.02917701 0.059678692
0003c0 eb b4 da bd b0 c7 c3 3d 95 04 34 3d 73 a7 89 bc
       -0.106790386 0.09559572 0.043949682 -0.016803479
0003d0 ad 21 ff bd 14 25 29 bd 15 dc d9 bd 94 da b9 bc
       -0.12457595 -0.041295126 -0.106376804 -0.022687234
0003e0 19 18 53 bd 08 4d 43 3d 51 9f e6 3d 7b fe 27 bd
       -0.051536653 0.047680885 0.11260856 -0.041014176
0003f0 ac 55 06 3d a7 2a 8b 3c 4f 31 d2 3d 31 34 c6 bd
       0.032796547 0.016988112 0.10263311 -0.096779235

bias_ih_l0 f4 [192]
000000 12 8a e1 bc 87 32 2f 3d b0 b9 af 3d 0b 86 be 3c
       -0.027531657 0.042772796 0.08580339 0.023257276
000010 88 92 eb bb 16 1c 56 bd f7 87 23 3d 8d 6c 63 3d
       -0.0071890987 -0.05227288 0.039924588 0.055523444
000020 88 ed e7 3c 48 16 ab bd df 5d 6c bd ea a0 27 bd
       0.028311506 -0.08353859 -0.05770671 -0.040924944
000030 9c a2 88 bd 59 27 99 3d ea 76 80 bc c7 2a d9 bd
       -0.0667164 0.07478208 -0.015681703 -0.10603862
000040 ed 19 42 3b e3 a1 a6 3d e6 2d 84 bc e5 8d b0 bd
       0.0029617504 0.08136346 -0.016135167 -0.08620814
000050 58 07 ac 3c 46 1e 0d bd 80 c9 82 3d ee 9b fd 3d
       0.020999596 -0.0344527 0.06386089 0.12383257
000060 07 c5 80 bd 83 a1 8a 3d 34 1d 14 bd 57 e5 3e bd
       -0.0628758 0.06769087 -0.036160663 -0.046605434
000070 90 13 23 3d a1 dc b5 3b a9 52 0e bd ef 32 0c bc
       0.039813578 0.0055499827 -0.0347468 -0.008557065
000080 8b 2d 8e 3d 0a 3a 9a 3d a5 69 91 3d cd c6 ca 3d
       0.069422804 0.07530601 0.07100228 0.099011995
000090 9e 3f e0 bd 47 f4 8e bd f0 72 73 3d 44 06 bc 3d
       -0.10949634 -0.06980186 0.059435785 0.091808826
0000a0 c6 53 05 bd 43 da 6a bc cf 8d df bd 38 04 33 bd
       -0.032550596 -0.014334264 -0.1091572 -0.043705195
0000b0 6e 90 e3 bd ec 8c d3 3d e0 2e b7 3d db 29 d9 bd
       -0.11111532 0.10329613 0.089444876 -0.106036864
0000c0 d6 15 81 bd 60 d1 99 3d b1 6c e0 3c 30 f4 c1 bb
       -0.06302993 0.07510638 0.027395578 -0.005919002
0000d0 d1 77 b8 bd 6f 7c db 3d f9 5e 35 bd b9 3a 62 bd
       -0.09007228 0.10717093 -0.044280026 -0.055231784
0000e0 a2 50 ad 3c 37 0c 82 bd fb 5a b2 bd 12 1d 4d bd
       0.021156613 -0.06349986 -0.087087594 -0.05007655
0000f0 c6 55 4a bd 9c 4c 92 bd eb 4d cd bd 89 93 c6 3b
       -0.049398206 -0.07143518 -0.10024627 0.006060068
000100 b9 73 96 3d 2f a1 fc bd 05 d6 10 3d 40 ed 99 3d
       0.07346291 -0.12335431 0.035360355 0.07515955
000110 f8 70 95 bb a0 2b de bd 11 00 36 bc 92 d5 c0 3d
       -0.004560586 -0.108481646 -0.011108414 0.09415735
000120 f7 a5 40 3d f8 37 ff 3c 73 6b dd bd 25 89 05 3d
       0.047033276 0.031154618 -0.1081151 0.032601494
000130 f7 3f 9c bc e2 53 9b bd fe a7 89 bd 79 dc d1 3d
       -0.01907347 -0.07584359 -0.06721495 0.1024713
000140 84 cd 67 bd fd 50 86 bc e0 67 0b 3d e4 48 95 3c
       -0.05659248 -0.01639604 0.03403461 0.018223234
000150 0d 5e b5 bd 5d ac a6 3d 5e 7a b2 3c 78 bd 6b bd
       -0.088558294 0.081383444 0.021786865 -0.05755374
000160 de b0 ce 3d 4c 57 b2 3c d7 d1 ec 3c f5 c5 b0 3d
       0.100923285 0.021770142 0.028908653 0.08631507
000170 a6 ed e8 3b 97 1a c3 bc f7 68 ea bd 3f 3b ff bd
       0.007108408 -0.02381639 -0.11445802 -0.12462472
000180 ff 4a c7 3d d8 88 03 be d6 ae a5 bd 5a 29 93 3a
       0.09731101 -0.1284517 -0.08089988 0.0011227534
000190 63 bf 29 3d 23 0f e4 bd 70 ee 95 3d b6 8b 94 bd
       0.041442286 -0.111356996 0.07320869 -0.0725321
0001a0 55 34 16 bd 0c 32 86 3d bc 16 a2 bd ff 41 51 3c
       -0.036671 0.065525144 -0.079144925 0.012772082
0001b0 2f 28 59 3d 78 df f6 3c 68 3a 24 3d 1e 2d af bd
       0.053016838 0.030135855 0.040094763 -0.08553527
0001c0 ac 98 44 3d 60 81 88 bd 20 91 27 3d 74 38 c5 bd
       0.04799716 -0.06665301 0.040909886 -0.09629908
0001d0 30 7f 84 bd 6e 6f d6 bd 06 86 f2 bc 69 6f e7 bd
       -0.064695716 -0.10470472 -0.029604923 -0.11300547
0001e0 61 f2 78 bd f0 0d 87 bd 5d 57 78 bd a2 0e 9d bd
       -0.060778026 -0.06594455 -0.06063019 -0.076688066
0001f0 89 a1 9a bd 56 d5 c6 3d 50 f0 d2 3d 45 38 dd bd
       -0.07550342 0.09708659 0.10299742 -0.10801748
000200 5f 6b 9c 3d fc 7d 8b bd 63 23 d9 3b 97 23 8b bc
       0.07637667 -0.06811139 0.006626533 -0.016984744
000210 37 09 63 3d ab a4 4b 3a 0e a7 1c bb 17 28 f9 bd
       0.05542871 0.0007768373 -0.0023903283 -0.1216585
000220 d5 aa ec 3d 82 17 ee 3d ef 9a 00 bd 83 6a 4d bd
       0.11556021 0.116255775 -0.031397756 -0.050150406
000230 f6 cc 38 bd e1 45 30 bd 84 e8 24 3d 3e 15 ed 3d
       -0.04511734 -0.04303539 0.040260807 0.11576317
000240 e6 83 71 3d 73 4c 4d 3d 28 95 c8 3d d1 00 97 bd
       0.05896368 0.050121736 0.09794074 -0.073732026
000250 94 d2 60 3d d7 72 a2 bb 75 ed fd 3c ae e5 47 3d
       0.054888323 -0.0049575376 0.030997017 0.048803024
000260 76 36 a5 3d af 23 af 3d f2 8e 39 3c df 30 0e 3b
       0.08067028 0.08551728 0.011325585 0.002169661
000270 f5 db df bc b3 88 d7 bd c9 ea e0 bd 1e f6 02 3d
       -0.027326563 -0.1052412 -0.10982282 0.031972997
000280 d1 77 02 bc 8a 36 b3 3d 36 e0 f3 3d 05 32 8c 3d
       -0.007963137 0.08750637 0.11907999 0.06845478
000290 47 ae 0c 3d e2 11 48 3c a8 77 a3 bd df 46 a2 bd
       0.03434589 0.012211295 -0.07981807 -0.07923674
0002a0 30 78 95 3c 09 09 f7 bc 6b c2 2e 3d 87 89 94 3b
       0.018245786 -0.030155675 0.04266588 0.004532996
0002b0 70 68 fc bd 4e 0b f8 3c f9 56 f9 bd 94 13 cb bd
       -0.12324607 0.030278828 -0.12174792 -0.099158436
0002c0 6f c7 cc 3b 84 e4 3e 3d 0d 6c f3 3b 38 65 a2 bd
       0.0062493603 0.04660465 0.007428652 -0.07929462
0002d0 03 73 e2 3c f5 8c 2c 3d 79 e5 10 bb e3 16 b4 bd
       0.027642732 0.042126615 -0.0022109433 -0.08793428
0002e0 27 b1 f7 3c d7 02 e5 3d 0a 98 8b 3d a5 1c 15 bd
       0.03023584 0.11182182 0.068161085 -0.03640427
0002f0 45 ae e7 bc d4 f7 9e 3d 3a 57 3a 3a 63 dc 8b 3d
       -0.02828134 0.07762113 0.00071083347 0.06829145

bias_hh_l0 f4 [192]
000000 e6 37 c2 3d 54 5c 70 bd 29 70 63 3d 13 60 8d bd
       0.09483318 -0.0586818 0.055526886 -0.0690309
000010 c7 75 84 3d 31 bc 02 be 52 15 b5 bd 7a 40 ea bc
       0.06467777 -0.12767102 -0.08841957 -0.028595198
000020 e2 4e b7 3d 3d dd 16 3d 1f b6 09 bd c1 ac bb bc
       0.089505926 0.036832083 -0.03362095 -0.022909524
000030 33 5a fc 3c 89 72 c1 bd db 70 3e bc a6 a6 43 3d
       0.03080473 -0.09445674 -0.0116235865 0.04776635
000040 0b 26 04 3c 71 1d 27 bc fe 56 69 bd fd 18 54 3c
       0.008065711 -0.0101998905 -0.056967728 0.012945411
000050 29 9e 90 3d 7a ef e3 bd 1a ec e5 3d 06 65 bc bd
       0.07061417 -0.11129661 0.112266734 -0.09198956
000060 e6 2d fb 3d 1b b4 dc 3d 63 3f 64 3c a3 73 0c bd
       0.12264614 0.1077654 0.013931128 -0.034289967
000070 46 31 f0 bd f7 c0 34 bd 1c ab c9 bd 11 f8 00 3e
       -0.11728148 -0.044129338 -0.0984709 0.1259463
000080 6d cf 10 bc a4 db 01 bd bd 1a c1 bd a9 b5 f4 bc
       -0.008838517 -0.031703606 -0.09428928 -0.029871779
000090 ee 2f f2 3d 6f 77 22 3d 64 34 c4 3d 5c ed ff bb
       0.11825548 0.039664682 0.09580305 -0.007810278
0000a0 64 41 c1 3d ff 4f 4d bd 05 54 be bd 65 60 1c 3c
       0.094363004 -0.05012512 -0.09293369 0.009544467
0000b0 16 49 ee bd e0 09 fc bd 82 85 dc bd 33 5a b3 3d
       -0.11635034 -0.12306571 -0.10767652 0.087574385
0000c0 42 78 e5 3d 56 5c ab bd e8 ed 9e 3d 87 fd 89 3d
       0.11204578 -0.08367221 0.07760221 0.0673781
0000d0 6b 53 49 3d e7 6e 9e 3d 05 37 de 3d 83 0c 22 3d
       0.04915182 0.07735997 0.10850338 0.039562713
0000e0 15 e4 f2 3d 27 b9 c5 bd dd 19 8b 3d 1e 74 40 3d
       0.118599094 -0.09654456 0.067920424 0.046985738
0000f0 d8 8b 97 3d 42 52 c9 3d 35 69 75 bd ba ed f8 3d
       0.0739972 0.098301426 -0.059914786 0.12154718
000100 7d e2 89 3d eb a1 c1 3d c7 78 65 bd 2c 35 dd 3d
       0.06732652 0.094547115 -0.056023385 0.10801157
000110 56 42 db 3c 69 8c 38 3d e4 bf d2 bd c9 2d 94 bb
       0.02676503 0.04505578 -0.102905065 -0.0045220596
000120 ba e7 c2 bd 07 29 bc bd d3 f3 0a 3d 9b a7 5a bd
       -0.095168546 -0.09187513 0.033923935 -0.053382497
000130 41 c5 85 bc 20 90 6e 3d ba 5b 2e 3b 5f 2c dc 3d
       -0.01632941 0.058242917 0.0026604966 0.107506506
000140 c4 50 10 3d a7 ce 52 bc 90 38 fb bd e7 e4 7a 3c
       0.035233274 -0.012866653 -0.12266648 0.015313364
000150 ec 7c 75 3d bd 40 5f bd a1 56 8e bd ab a3 a7 bd
       0.059933588 -0.0545051 -0.06950117 -0.08185514
000160 ec 9c ff 3d 50 26 b3 3d 8c 2d db bd e4 17 51 bd
       0.12481102 0.08747542 -0.10702047 -0.051048175
000170 ad a3 c0 bd d4 e3 72 3d 63 26 54 3d 45 88 64 bd
       -0.09406219 0.059299305 0.05179442 -0.05579402
000180 2a ed 0c 3d ef 1b 44 bb 67 a2 7d bc 84 e6 53 bd
       0.034405865 -0.0029923876 -0.015480614 -0.05173351
000190 f2 0e e1 3d 85 b8 af bd a0 8a 8a 3c 26 ca c7 3d
       0.10989179 -0.08580116 0.016911805 0.09755354
0001a0 c8 46 8e bd f8 95 ed 3d 0c 76 5f bd d7 48 30 bd
       -0.06947094 0.1160087 -0.054555938 -0.043038215
0001b0 56 56 09 3c b9 75 09 3d f0 e1 11 bd f2 4f b5 3d
       0.0083824005 0.033559535 -0.03561586 0.08853139
0001c0 ac ef 21 3d ec 1a ce bc 92 97 5f 3c 70 e6 2f 3d
       0.03953521 -0.025159322 0.013646977 0.04294437
0001d0 d6 31 7a bd 25 30 87 3c af 14 e2 bd e0 25 84 3d
       -0.061082684 0.01650245 -0.11039101 0.064525366
0001e0 bc 82 9e bd a5 0c 52 3d 3d ad 7e 3d 99 13 3d 3d
       -0.07739779 0.05128159 0.06217693 0.046161268
0001f0 11 5b bb bd 27 4a 90 3c c7 ca 69 3d 9e 71 fa bc
       -0.09148229 0.017613484 0.05707815 -0.030571755
000200 d8 8d 62 bd 88 91 e9 3d 71 c6 de bd 4b e6 be bd
       -0.055311054 0.11404711 -0.108776934 -0.09321269
000210 a7 e8 69 3d 86 c1 fa 3c 8e 12 35 bc ee 7a de 3d
       0.05710664 0.030609857 -0.011051787 0.10863291
000220 92 86 ab bd 26 74 a8 3d 63 10 7f bd 81 3c a0 bd
       -0.083752766 0.082252786 -0.062271487 -0.0782404
000230 24 91 bb bd 8e 4e d5 bd 19 8b 0a 3c c7 a9 56 3d
       -0.09158543 -0.10415374 0.008456015 0.052408006
000240 98 37 93 3c 98 cd e7 3d 4c a8 cc 3d e7 59 a8 bc
       0.017970845 0.11318511 0.099930376 -0.020550681
000250 3d f1 db bd 38 0e cb bd 74 b2 1d 3d 29 ff 85 bd
       -0.10739372 -0.099148214 0.038500264 -0.065428086
000260 d2 da 6c bd e8 92 8f 3d f4 9e cb bd 67 55 2d 3c
       -0.05782587 0.07010442 -0.09942427 0.010579444
000270 25 e4 99 3b c5 00 f6 3d 1d f4 04 bd 89 23 ca bd
       0.0046963864 0.120118655 -0.032459367 -0.09870059
000280 38 fc f3 3c 7e 68 ac bd 78 0e ea bd e3 b9 f7 3d
       0.029783353 -0.08418368 -0.11428541 0.12096002
000290 2d 85 bd bd 2b 96 6d 3d 16 09 05 bb fb c3 d5 bd
       -0.09253917 0.05800454 -0.0020299605 -0.10437771
0002a0 c6 71 69 3d 3e 28 a8 3d 10 af c3 bd 6c 6e 30 bd
       0.05699327 0.082108006 -0.09554875 -0.043074057
0002b0 ad 6d 95 3d 90 b3 e8 3d 99 33 0e bd a3 f9 bf 3c
       0.072963096 0.11362374 -0.034717176 0.023434466
0002c0 f2 68 c5 bd c1 28 ba bd 8e 69 fb 3c d8 7b e5 bb
       -0.09639157 -0.090898044 0.03068998 -0.0070032887
0002d0 ae c6 4e bd c7 8e 96 3d 28 2b 05 3c 0a 0e 0e bd
       -0.050482444 0.07351451 0.008127965 -0.034681357
0002e0 2e c6 ce bd 93 26 c1 bd 88 9b 94 3c 73 f3 e2 3d
       -0.100963935 -0.094311856 0.01814057 0.110815905
0002f0 00 ef 36 3d 18 9e d9 3b aa a9 01 3d a8 31 02 3c
       0.044661522 0.0066411607 0.031655945 0.007946409

weight f4 [2, 64]
000000 9d ca ee 3d 30 17 b7 bd 9b 43 01 3d 43 80 5a 3d
       0.11659739 -0.089399695 0.031558614 0.053344976
000010 06 e9 37 bd 4f 11 ac bd a3 25 98 bd b4 ea 0c bd
       -0.044899963 -0.08401739 -0.07429054 -0.034403518
000020 d7 22 9d bb 26 97 86 bd 91 54 6b bd 61 99 1c 3d
       -0.004795413 -0.06571798 -0.057453696 0.03823221
000030 75 ff 91 3b b4 25 08 3c b7 48 47 bc 65 40 4e bd
       0.0044555017 0.00830977 -0.012163333 -0.05035438
000040 dd b6 e0 3d 40 f1 d6 3d f6 45 3d 3c 8f 3e d1 3d
       0.109723784 0.104952335 0.0115523245 0.1021701
000050 0b f1 f6 3d c0 1b 10 bd 4b a8 dd 3d ad a1 fe bb
       0.12057694 -0.035182714 0.10823115 -0.007770738
000060 5a 8a ee 3d 59 43 8e bd 10 0b 82 3d 34 b7 f6 bd
       0.11647482 -0.06946439 0.06349766 -0.12046662
000070 55 2e a1 3d 31 f5 5f bd 7b ad 92 bd ce 95 37 bb
       0.07870165 -0.054677192 -0.07161995 -0.0028012875
000080 4c a1 f3 3c 32 13 8c bd 0d d6 bc bd 95 9f 0a bd
       0.029739998 -0.06839599 -0.092205144 -0.033843596
000090 98 4f 83 bd 0c c6 ca 3d 1c 14 a3 bc 8c e0 b8 bd
       -0.06411666 0.09901056 -0.01990705 -0.09027204
0000a0 f3 b9 96 3d 63 f8 2f 3d c1 6d 85 3d d5 b2 45 3d
       0.07359686 0.04296149 0.065150745 0.04826625
0000b0 ea 16 b1 3d ce e7 8f bd ea 97 b9 3c 44 aa ea 3d
       0.08646949 -0.07026635 0.022655446 0.11458257
0000c0 f1 54 2c bd 88 93 2f b9 71 d8 b7 3c f9 ce b9 3d
       -0.042073194 -0.0001674426 0.022442074 0.0907268
0000d0 b8 74 e6 bd 26 be 2f bd 2e 5f 50 3d c1 12 be 3d
       -0.11252731 -0.04290595 0.05087202 0.09280921
0000e0 5d 9d 3b bd 9d 0b 91 bd 57 1b c9 bc 4c 10 d0 3d
       -0.04580437 -0.07082293 -0.02454917 0.101593584
0000f0 d1 c1 ae bd 33 71 6d 3a 67 dd a1 3d ed 3d 84 3c
       -0.08533061 0.00090577005 0.07903557 0.01614281
000100 25 0f d6 bd b2 64 a4 3c 91 0c f7 3d 1b ec 95 bd
       -0.10452107 0.020067547 0.12062944 -0.07320424
000110 1f 47 b7 3c c1 97 f2 bd db ff 32 bd 3e 5e f4 3d
       0.02237278 -0.11845351 -0.043701034 0.11932038
000120 27 6b 89 3d 3a d8 e7 3d 8e 60 a4 bd 46 64 21 bc
       0.06709891 0.11320539 -0.08026229 -0.009850567
000130 44 19 ab 3d 77 8f 8b 3d 30 b4 8f 3d ee 11 dd 3c
       0.083544284 0.06814473 0.0701679 0.026986089
000140 36 34 01 be 12 4c eb bd a6 ef 71 bd 29 01 71 3c
       -0.12617573 -0.11489119 -0.059066437 0.014709749
000150 e5 19 a5 3d de 6e b7 3d c3 9d 71 bd d3 8f 4d bd
       0.080615796 0.08956693 -0.058988344 -0.05018599
000160 3e b7 89 bd 46 a2 e2 3c b1 66 da 3c 7d 8a 5d bd
       -0.06724404 0.027665269 0.026660295 -0.05408715
000170 d5 77 5b bd e0 e0 f9 bc ee 73 83 bc 3d f7 29 bd
       -0.053581078 -0.030502737 -0.01604649 -0.04149555
000180 38 6f e9 3d e0 e3 cd 3d 55 21 60 3d 67 67 17 bd
       0.113981664 0.10053229 0.054719288 -0.036963847
000190 26 b2 ce bc d6 b1 c8 3d b6 76 21 3d 26 17 a0 bd
       -0.025231432 0.097995445 0.039419852 -0.07816915
0001a0 11 b1 8a bc 87 aa e3 3d 54 66 ce 3d 7d e8 5c bd
       -0.016930135 0.1111651 0.10078111 -0.053932656
0001b0 62 42 fd 3c 93 01 38 bd 39 f0 39 bc 16 a7 b5 3b
       0.030915443 -0.044923376 -0.011348777 0.0055436
0001c0 78 4b ad bd 9f 11 7d bd a8 a7 f5 bd b5 2d b0 bd
       -0.0846166 -0.061784383 -0.119948685 -0.08602468
0001d0 24 59 f8 3d 28 a6 b4 bd 94 fd cd 3d 9f ea d0 3d
       0.12126377 -0.08820754 0.10058132 0.102010004
0001e0 21 97 2d 3d 3a 95 01 3b 0b 51 8a bd 82 8d 8f 3c
       0.042380456 0.0019772784 -0.06753739 0.01752353
0001f0 3c d3 6b 3d 33 54 2f 3d 09 47 d0 bd 61 c2 d0 bd
       0.057574496 0.042804908 -0.10169799 -0.10193325

bias f4 [2]
000000 39 c5 5c bd 95 0e b3 3d
       -0.053899024 0.08743016

weight_ih_l0 f4 [192, 66]
000000 92 fa 20 3d 80 e4 34 bc 23 ad 86 3d 0e e0 3f bd
       0.039301462 -0.011040807 0.06575992 -0.046844535
000010 36 34 90 3d 03 b6 88 bd 02 52 95 bb ee 13 ad 3b
       0.070412084 -0.06675341 -0.0045568952 0.005281917
000020 2a 41 bb 3d 05 a4 8e bd 60 32 03 be 93 be ed 3d
       0.091432884 -0.06964878 -0.12812185 0.11608615
000030 86 15 85 bd 58 05 fd 3d c4 a8 16 3d 2d a3 a9 bd
       -0.06498246 0.12354535 0.03678204 -0.082830764
000040 e3 7d 1b bc d1 01 66 bd 5b b2 f8 3c e0 b3 9f 3d
       -0.009490463 -0.056154076 0.030358484 0.0779798
000050 43 7a d5 3d 18 d5 f1 3c 35 75 c7 bd 70 34 ad 3d
       0.1042371 0.029520556 -0.09739152 0.08457267
000060 1f 9a d2 bd 63 09 54 bd 1e 1e c9 bd fa c4 ca 3d
       -0.102833025 -0.051766764 -0.098201975 0.099008515
000070 04 b2 e6 3d ce 4b 83 bd 3d c8 45 bd 66 4b a4 3d
       0.112644225 -0.06410943 -0.048286665 0.080221936
000080 d3 64 3e 3d 04 5a a9 3d f8 57 a8 bb a0 13 ec bd
       0.046482872 0.08269122 -0.00513744 -0.11527181
000090 ae 3d 64 bd 5b 52 95 bd 8a fb 47 3d 00 e5 08 3c
       -0.055722885 -0.07291099 0.04882387 0.008355379
0000a0 eb 6e b6 bc 86 59 86 3d 05 3a 05 3e 3a 28 b9 bd
       -0.022269687 0.06560044 0.13010414 -0.09040876
0000b0 a8 fd b3 3d 2c d2 09 3e a8 13 c1 3d 2d b5 c5 bb
       0.087886155 0.1345908 0.09427577 -0.0060335607
0000c0 5d d9 05 bd 08 90 4d bd bf d9 d2 3d 63 ed a7 3d
       -0.032677997 -0.050186187 0.10295438 0.08199575
0000d0 7e aa b1 bd a6 c9 a4 bd 48 ea 89 3d 56 7e f0 3c
       -0.08675097 -0.08046274 0.06734139 0.029357117
0000e0 0f 13 bb 3d 62 1b 00 be e7 c2 7a 3d 6d 76 b7 3c
       0.091344945 -0.12510446 0.06122103 0.022395337
0000f0 7d 0c 33 bd 5f 1b be bd dd 2e a0 3c e1 8a 2c 3d
       -0.04371308 -0.09282564 0.019553596 0.042124633
000100 db e6 26 3d 97 8d 83 3b 3f 65 b3 bc b9 45 90 bb
       0.040747505 0.0040146816 -0.021898864 -0.004402843
000110 60 f2 5c 3d 43 66 33 3c 8f f9 5f 3d 33 11 62 3d
       0.053942084 0.010949674 0.054681357 0.055192184
000120 2e c0 38 3d 7b a5 2d bd 03 06 83 bd 53 69 8f 3c
       0.04510515 -0.042394143 -0.06397631 0.017506277
000130 10 8b 16 bd a0 41 9f 3d 9a 00 af 3d 8a b4 24 bd
       -0.036753714 0.07776189 0.085450366 -0.040211238
000140 29 d5 f9 3d b2 01 cc bd 25 c0 0d be 42 d8 ec bd
       0.1219886 -0.09961261 -0.13842829 -0.115646854
000150 a6 43 a2 3d 34 a8 e1 bc d7 cf b3 3d d4 67 8e bd
       0.07923059 -0.027546026 0.08779877 -0.069533974
000160 c0 53 f5 3d 6a ab c5 3d 7c 13 b7 3d 68 43 9c bd
       0.11978865 0.09651835 0.08939263 -0.07630044
000170 d2 f8 2b be ec a1 ec 3d 3a 0f 86 3d b2 f6 8b 3d
       -0.16794136 0.11554322 0.06545873 0.06834163
000180 8b be 89 3d 63 f5 d3 bc 41 cb c8 3d b7 32 8c bd
       0.06725796 -0.025873845 0.098043926 -0.068456106
000190 7d 00 96 3d c5 65 ed bd 7d 44 06 be 8f 47 04 3c
       0.07324312 -0.115916766 -0.13112064 0.0080737015
0001a0 ae f2 60 3b 73 92 75 3d 77 ee 36 bd 68 06 d2 bb
       0.0034324336 0.059954118 -0.04466101 -0.006409455
0001b0 bb 8e 05 3d 0f 5f 20 3e 3b 2e d6 3b 05 62 89 3d
       0.03260682 0.15661262 0.006536273 0.06708149
0001c0 77 ec 3e bd 0b 52 a9 bd e5 b1 fd 3d dd 2d 2d 3b
       -0.04661223 -0.082676016 0.12387446 0.0026425042
0001d0 f8 93 81 bc 34 c3 10 3e 53 78 b1 bd 44 4a 45 bb
       -0.015817627 0.14136964 -0.08665528 -0.003010408
0001e0 ba bb 19 bc 36 4c 25 3e b4 59 fe bd 4d 54 da bd
       -0.009383136 0.16142353 -0.12419453 -0.1066061
0001f0 03 e4 1a bc 78 78 d3 bc cf f1 8b bd 23 75 3b bd
       -0.009453776 -0.02581428 -0.06833231 -0.045766007
000200 00 6f 6e bd 36 d1 86 3d cf 99 24 3d ed 8b d3 3c
       -0.058211327 0.065828726 0.040185746 0.025823558
000210 f7 ec 13 3d f0 2f 92 bb e6 f7 91 bb 16 6b 3b 3d
       0.03611466 -0.004461281 -0.0044546006 0.045756422
000220 d3 c3 d7 3d 59 ab 9f 3d 3a e1 a1 3d 06 4d 05 3c
       0.105353974 0.07796354 0.07904287 0.00813604
000230 66 6e 17 3d 93 75 77 3d d2 bd 98 3d 9d 60 e3 3d
       0.03697052 0.060414862 0.0745808 0.11102412
000240 a7 75 e1 bd bf 6c 02 3d 5f 21 84 bd 9e 4d c4 bd
       -0.110087685 0.03184199 -0.064516775 -0.09585117
000250 b4 2f 00 be d8 5a cf 3d 27 e5 53 3d 59 ab b0 3c
       -0.12518197 0.10124749 0.05173221 0.02156608
000260 ce 77 d6 bd 73 3e bd bd 5a f5 06 bd 03 ff ab bc
       -0.1047207 -0.09240427 -0.03294883 -0.020995623
000270 ab 2c b5 3d d0 a2 b9 bd cb aa d0 3c 2c 88 9b bd
       0.0884641 -0.09064257 0.025472065 -0.07594332
000280 da c3 cc 3d 6e f8 ab 3d f3 1a 08 3e 0a 40 9d 3c
       0.09998293 0.083969936 0.1329153 0.019195575
000290 ee 6e f3 bd a8 85 63 bc c7 8e 9c bd b5 2b f7 3c
       -0.118863925 -0.013886847 -0.0764442 0.030172208
0002a0 80 35 52 bd b8 58 6b bd 48 67 b5 bd 3f 88 22 3d
       -0.051320553 -0.057457656 -0.0885759 0.039680716
0002b0 31 91 ad 3b 09 7f c7 bb 9b d0 cd 3d b8 fb 37 3d
       0.005296849 -0.006088142 0.10049554 0.044917792
0002c0 cb b9 f8 bd 93 c0 f9 bd da c6 b1 3d 55 15 fc 3d
       -0.12144812 -0.12194934 0.08680506 0.12308756
0002d0 0e d6 c5 3b 3c 93 01 3e 52 b3 d2 bd cc 72 87 bd
       0.00603748 0.12653822 -0.10288109 -0.06613693
0002e0 4b c9 46 bc 1e a6 21 3d 8c a7 7d 3d 27 92 b8 bd
       -0.012132953 0.039465062 0.061927363 -0.09012251
0002f0 89 9d de 3d 12 8a 71 bd cb 69 5a 3d d3 d1 ec 3d
       0.10869891 -0.058969565 0.05332355 0.11563458
000300 06 2f 9c bd b3 55 d9 bc 80 70 cc bb 10 68 a4 3d
       -0.076261565 -0.026530122 -0.006238997 0.08027661
000310 6b f5 f9 3d 7f 02 f4 3d 86 fc 9f 3d 31 57 40 bd
       0.12205013 0.119145386 0.07811837 -0.046958152
000320 38 a2 03 3e 9a 1c 6a 3d 6e d0 e4 3d 5e 2f 7c 3b
       0.1285485 0.057156183 0.11172567 0.0038480381
000330 17 56 bd 3d b4 b8 a2 3c 3f c6 89 3d 4f be 89 bd
       0.09244936 0.019863464 0.067272656 -0.067257516
000340 23 16 c8 3d 1d dd e9 bd cb 01 ed 3d e1 7b 0c 3c
       0.09769847 -0.11419127 0.115726076 0.008574457
000350 93 cf 42 bd 01 52 04 be 85 0c ef bd 60 03 0c bd
       -0.04756124 -0.12921907 -0.1167231 -0.034182906
000360 71 7f 30 3d 90 5d a9 3d b9 71 61 3d 1e 4c 38 3d
       0.043090288 0.08269799 0.055040095 0.044994466
000370 b1 29 09 3e 00 e6 27 3c 47 2a 1d bd 4d c6 bb 3d
       0.1339481 0.010247707 -0.038370397 0.09168682
000380 1c fe 9f bd c2 b9 82 bc 00 fd 07 bd 91 53 94 bc
       -0.078121394 -0.015957717 -0.033200264 -0.018106254
000390 9d 73 7c 3d e0 8e a4 3d 09 b8 be bd 7b 63 e0 3c
       0.061633695 0.08035064 -0.09312446 0.027391186
0003a0 81 f5 01 bd 7f ec 15 bd 9a ef 70 bc d8 1b 06 be
       -0.03172827 -0.036602493 -0.014705563 -0.13096559
0003b0 56 f7 a0 3d d1 a4 43 3d 54 15 49 bd 98 e2 86 bd
       0.078596756 0.047764603 -0.049092606 -0.06586188
0003c0 0c 65 df bd 73 2e 26 bd 22 06 cb bb cf 29 b4 3c
       -0.10907945 -0.04057164 -0.0061957994 0.021992592
0003d0 18 f9 99 bd 53 60 5b 3d 45 65 6c 3d aa 21 5f bd
       -0.07518214 0.05355866 0.057713766 -0.054475464
0003e0 9d 75 e0 bc d6 4e 37 bd a8 93 98 3d cf 33 95 bd
       -0.027399832 -0.04475292 0.07450038 -0.07285272
0003f0 35 ea af 38 dc aa 01 bc 9a f6 0d 3e 6a 2b 5a bc
       8.388275e-05 -0.007914271 0.13863602 -0.013316015

weight_hh_l0 f4 [192, 64]
000000 76 f2 00 be aa 35 1d 3d df d5 05 be 63 47 16 3d
       -0.12592492 0.038381256 -0.13069867 0.036689173
000010 dc cd cb 3d 3c b1 cf bd 78 62 44 bc 04 28 06 3e
       0.09951374 -0.10141227 -0.011986367 0.13101202
000020 2a e3 02 3d 44 e2 c0 bd 4e b3 bf bd aa d0 9f 3d
       0.03195492 -0.09418157 -0.093603715 0.078034714
000030 7d da 88 3c 0f 0e 25 3d a8 29 b6 bd 41 ad 5f bc
       0.016705746 0.04029661 -0.08894664 -0.013652147
000040 40 cc 8e bd 17 b7 e1 3d e5 4f b2 bd dc 47 c8 bd
       -0.06972551 0.1102125 -0.08706645 -0.09779331
000050 f9 a8 8e 3d c6 ed f1 bc c5 41 4f 3d cf 2f c3 3d
       0.06965823 -0.029532325 0.050599832 0.09530603
000060 88 44 ce bd 69 6f 60 bd b0 49 41 3d ff 5c 7b bc
       -0.10071665 -0.05479375 0.047189415 -0.015341996
000070 e6 33 a3 bd c1 ad 0d 3e 44 7f 89 3d 6b 8d 0f 3e
       -0.07968883 0.13835813 0.06713727 0.1401879
000080 61 7b aa 3d 26 10 07 bd 7e 2a 4b 3d d5 b8 c0 bd
       0.08324314 -0.032974385 0.04960107 -0.09410254
000090 44 82 ba 3d 5d 18 8d bd eb de 20 3c d3 bd c4 3d
       0.091068774 -0.068894126 0.009818773 0.096065186
0000a0 0e ce 80 3d e8 9d e0 3d 35 cd 74 3c da 2e cb bd
       0.06289302 0.10967618 0.014941503 -0.099210456
0000b0 25 eb 83 3d fe 66 1a 3d 2e f3 76 3d 14 df 9f 3d
       0.06441335 0.037695877 0.060290508 0.07806221
0000c0 56 b5 fb 3d fb 52 fb 3d 02 ac 6b bd 76 79 74 bc
       0.122904465 0.12271687 -0.057537086 -0.014921537
0000d0 e1 44 ad 3c 44 5d b0 3a 07 14 8b 3d 4e 31 ab 3d
       0.021151008 0.001345553 0.06790929 0.083590135
0000e0 27 55 ea 3d 30 8c 6c bd 24 71 f6 3d 19 a6 a6 bd
       0.11442023 -0.05775088 0.120332986 -0.08137149
0000f0 66 96 d2 3d e4 59 dc bd f8 cc c3 bd 16 45 bc bd
       0.102825925 -0.10759333 -0.09560579 -0.091928646
000100 95 11 96 bd 34 4e a1 3d cc b8 85 3d f8 fb 71 bb
       -0.07327572 0.07876244 0.06529388 -0.0036923867
000110 51 1a dc 3d 9c aa 51 3d 2a 70 1c bc 38 b6 9f 3d
       0.10747207 0.051188096 -0.009548226 0.07798427
000120 ad 69 08 3c 12 01 9a 3d d8 1b b4 bd 54 32 15 be
       0.008325976 0.075197354 -0.08794373 -0.1456998
000130 55 3e f7 3d 72 b7 9e bd 66 c5 bc bc d1 1e bf 3d
       0.12072436 -0.07749833 -0.023043346 0.0933205
000140 6e 4e 3f bc 25 e8 b9 3d a5 8d e3 3d 05 93 dc 3d
       -0.011676414 0.09077481 0.11111001 0.10770229
000150 4a 1d bb bd b2 c0 88 bc b1 80 52 3c 20 b0 3a 3c
       -0.09136446 -0.016693447 0.012848065 0.011394531
000160 fa a9 d4 3d 77 4f 36 3c ed 13 38 3b 0d 82 9e 3d
       0.10383983 0.011127344 0.0028088049 0.07739649
000170 33 31 be bc 98 f8 4d bd 42 ae 3d bd f9 ff d5 bd
       -0.02321682 -0.050285906 -0.046308763 -0.104492135
000180 3c 33 ce bd e4 1c 01 be 9f d3 48 3d 19 23 af 3d
       -0.10068366 -0.12608677 0.049029943 0.08551616
000190 9a 13 b6 3c 6e 38 c0 3c 61 6c b0 3d 44 2c c9 bd
       0.022226144 0.023464408 0.08614422 -0.09822896
0001a0 29 1f 19 bc 31 9e a0 bd 9c ec ed 3d 17 a8 38 3d
       -0.009345808 -0.078426726 0.11617395 0.045082178
0001b0 4a 43 92 3d 11 bd a1 3d 38 e7 73 bd 4b 9d b1 3c
       0.071417406 0.0789739 -0.05954668 0.021681448
0001c0 83 78 29 bd 0e 7d a6 bd b8 50 54 bd 0a 68 f5 3b
       -0.041374695 -0.08129321 -0.051834792 0.007489209
0001d0 64 0a 1a be da b5 ae bd d4 96 85 3c 2a 6e 96 bd
       -0.15043026 -0.08530779 0.016307272 -0.07345231
0001e0 49 12 1e 3d 05 9d b7 3d e1 10 b9 bd b0 a0 63 3c
       0.038591657 0.08965496 -0.090364225 0.013893291
0001f0 9c af 07 3d 87 9e bd 3d 44 25 d6 bc 2b ca aa bd
       0.03312646 0.09258752 -0.026140817 -0.08339342
000200 fe 3f fd bd 09 b8 5f 3d 06 25 aa bd 6e 19 d6 bd
       -0.12365721 0.05461887 -0.08307843 -0.10454069
000210 69 f2 4a bd 89 3b b9 3d 08 7e 57 3c de 7b 00 be
       -0.049547587 0.090445586 0.013152607 -0.12547252
000220 75 29 fb bc 9c a7 d2 3d 55 46 8f 3c 8f 5d 66 3d
       -0.030659417 0.10285875 0.017489592 0.05624157
000230 a4 f3 13 bd b0 e7 94 bd d4 3e d4 bd f0 35 7c 3d
       -0.036121026 -0.072707534 -0.10363546 0.061574876
000240 6c 10 89 bc e0 70 bf 3d 14 70 c5 bb ec a2 0b 3c
       -0.016731463 0.09347701 -0.0060253236 0.00852273
000250 ef 01 eb 3d 98 ad 1e 3d dc 2d a8 3d 2e 9d 22 3d
       0.11474978 0.03873977 0.08211872 0.03970068
000260 8a ad 8f 3d 52 6b a7 bc 60 65 b8 bd 95 bf d8 3b
       0.07015522 -0.020436917 -0.09003711 0.0066146352
000270 95 db 8b bd 1b ad e3 bd f3 81 66 3c 52 05 17 3d
       -0.06828991 -0.111170016 0.014069068 0.03687031
000280 8d a7 a7 3c a9 4a 25 3d 49 31 8a 3d 7b 2d 40 b9
       0.020465637 0.040354405 0.06747682 -0.0001832749
000290 33 b5 c0 bd 91 ef 2a bd 68 72 8e bd ba d1 62 3d
       -0.09409561 -0.041732375 -0.06955415 0.055375792
0002a0 93 dd c5 bd 95 70 fc bd 63 d5 8f bd 9b 18 c9 bd
       -0.096614026 -0.12326161 -0.07023122 -0.09819146
0002b0 8d a4 53 bd 93 d6 93 3d 1b 75 97 3c 09 fb ef 3d
       -0.0516706 0.07218661 0.018488457 0.11717803
0002c0 22 33 0d be c2 78 cd bc 61 14 e8 3d 22 94 70 3d
       -0.13789037 -0.025081996 0.11332012 0.05873502
0002d0 da 89 a1 bd 5e 4a 7e bc 9e a6 c9 bd 8e f0 d8 bd
       -0.07887621 -0.01552066 -0.09846233 -0.10592757
0002e0 a5 69 99 3d 0f 6f e0 bc 45 fc 05 be 81 45 f6 3c
       0.07490853 -0.027396707 -0.13084514 0.030062439
0002f0 75 f1 0c 3c 4f cc 53 bd 8c 19 ff 3c a2 f8 2d 3b
       0.00860249 -0.051708516 0.031140111 0.0026545902
000300 87 db b7 3c f8 11 ac 3d 66 0d 7d 3d 0f 9b d1 bd
       0.022443546 0.08401865 0.061780356 -0.10234653
000310 45 1d 9b 3d 77 13 b8 3c db e5 fc bb d3 7f 06 be
       0.07573942 0.022470219 -0.0077178306 -0.13134699
000320 7a 93 89 3d 99 eb e7 bc a7 ef ea 3d 42 0a c6 3d
       0.06717582 -0.028310584 0.11471491 0.09669925
000330 90 99 13 3d 3a 1d a1 bd e3 84 61 bd 22 22 50 3d
       0.03603512 -0.07866903 -0.05505837 0.0508138
000340 03 67 a7 bd 98 6e 03 3e 93 98 a2 3c 89 95 ac bd
       -0.08173945 0.12835157 0.019848144 -0.08426959
000350 42 91 8a bd f4 d2 c8 bc 62 11 bc bd db 17 23 be
       -0.06765987 -0.024514653 -0.09183003 -0.15927069
000360 67 bd 26 bd ec d8 83 bc 2c 38 8f 3d 3a 9d a2 bd
       -0.040707972 -0.016094647 0.06993136 -0.07940145
000370 0c 79 14 be 73 f8 75 3d 39 d0 2e bd ee a0 42 3b
       -0.144993 0.060051393 -0.042679045 0.0029697972
000380 40 f7 ad bd f7 89 5f 3d 41 49 d7 3d 40 74 76 3d
       -0.08494425 0.054574933 0.10512019 0.06016946
000390 7f e7 11 3d 20 57 d4 bd 82 ad 07 3d 28 3a ad bb
       0.035621163 -0.1036818 0.033124454 -0.005286474
0003a0 f5 54 10 3e a5 be 2f 3d 10 e7 0d 3c 63 36 cd bd
       0.14094909 0.042906422 0.008661047 -0.10020139
0003b0 f0 df 10 3d 1b 21 1a bd 46 d5 74 bc 7c 51 97 ba
       0.035369813 -0.037629228 -0.0149434265 -0.001154467
0003c0 85 2a be bd 73 59 47 3d 9b 54 03 3e 43 0e 12 3e
       -0.09285454 0.04866929 0.12825243 0.14263253
0003d0 18 1f 5f 3d 44 70 1e bb ee fe 8f 3a db c4 fb 3c
       0.054473013 -0.0024175802 0.0010986009 0.030733516
0003e0 0f 1c b2 3b d5 cd e8 3d 6b 19 c1 bd bf d4 0d 3d
       0.0054354738 0.11367384 -0.09428676 0.03462672
0003f0 81 b8 39 bd 55 75 6d 3d 9d 5f ca 3d 0a de 67 bc
       -0.045341972 0.057973225 0.09881518 -0.014152059

bias_ih_l0 f4 [192]
000000 dd 35 fa bd 84 c1 30 bd 23 70 9a 3c d3 ab 1b bd
       -0.12217305 -0.0431533 0.0188523 -0.03800566
000010 b0 c6 03 3e a4 b2 e9 bc 89 64 5a bd a4 b8 0a 3e
       0.12868762 -0.028527565 -0.053318534 0.13546997
000020 2e 25 56 3d c7 03 18 3a c4 df 2c 3d 44 13 c4 3d
       0.05228155 0.0005798903 0.042205587 0.09573987
000030 d9 31 24 bd bd 59 29 bd e0 29 14 3e d7 e8 06 3e
       -0.0400866 -0.041345347 0.14469099 0.13174759
000040 b2 02 0b be 8c 67 47 bd db 37 9e bd 03 20 04 3e
       -0.13575247 -0.048682734 -0.07725497 0.12902837
000050 d5 eb 44 bd 42 37 75 bd ed 77 10 3b 6d 8d 17 3e
       -0.04807647 -0.05986715 0.0022044138 0.14800043
000060 58 18 ed bc 10 30 c2 bd 10 ab 11 3e 2b 8c 1e bd
       -0.028942272 -0.094818234 0.14225411 -0.038707893
000070 9c dc f4 3d 6c 72 b5 bb b8 96 dc 3d 9b 21 7e 3d
       0.119561404 -0.005537322 0.10770935 0.062043767
000080 1c 7c e9 3d e1 f4 26 3d a1 70 b8 bd 61 08 66 ba
       0.11400625 0.04076088 -0.09005857 -0.0008775052
000090 2b cb af bd d1 b7 92 bd cc bd 2d 3d 7c b8 81 3d
       -0.08583673 -0.071639664 0.042417333 0.06334016
0000a0 36 74 4d 3d c0 9e e4 3d 6f 85 80 3d 28 d1 be 3d
       0.050159656 0.11163092 0.062754504 0.09317237
0000b0 a0 e4 46 bc b8 e0 1f bd 39 dd 15 3e c2 25 4b 3c
       -0.012139469 -0.039032668 0.14635171 0.012399139
0000c0 ae 5d 10 3e d1 d6 60 bc ca cf 8c 3d 8e bb cf 3d
       0.14098236 -0.013723091 0.0687557 0.10143195
0000d0 55 2c b0 bd 02 3d a1 bd ef 7a 1d 3e 14 aa 99 bd
       -0.08602206 -0.078729644 0.15378927 -0.07503143
0000e0 5c 5b 9d 3c fd 29 2c 3e 20 2d 5c bd 29 c9 09 bd
       0.019208603 0.16812892 -0.053753972 -0.033639107
0000f0 8b d2 b5 3c c2 b1 2c bc 56 e5 06 bc 64 52 bb 3c
       0.022195121 -0.010540428 -0.008233389 0.022866435
000100 5f bb f9 bd a8 86 09 be f8 7b 9d 3d 26 07 a2 3d
       -0.12193941 -0.13430274 0.07689661 0.0791152
000110 ad 6e 28 bd 78 9e 8b 3d ed 41 99 bd 24 b4 c2 bd
       -0.041121174 0.06817335 -0.074832775 -0.09507015
000120 54 8e f6 bd 47 ea 0e 3d 9b 90 99 bd 67 cb 06 be
       -0.12038866 0.034891393 -0.074982844 -0.1316353
000130 8e fc f7 bd a3 0b 00 bd cf fd 0a be e4 91 73 3d
       -0.12108718 -0.031261098 -0.13573383 0.059465304
000140 e1 49 87 bd 74 2b b4 bd 43 4b 71 3d dd 37 57 3d
       -0.06605888 -0.087973505 0.058909666 0.05254351
000150 bd 24 ea bb c5 e2 c4 3c f9 ed 13 be 36 ec 45 3d
       -0.007145493 0.024033913 -0.14446248 0.04832097
000160 88 9f d6 bd 01 e3 8a 3d f9 33 0f be c7 5f 86 bc
       -0.10479647 0.06781579 -0.1398467 -0.016403092
000170 54 59 05 bd ed f4 96 3d 70 c9 2c 3d f4 00 94 bb
       -0.032555893 0.07370935 0.042184293 -0.004516715
000180 34 51 1e bd 50 51 a8 bd 76 6b e1 bc 08 36 db 3c
       -0.03865166 -0.08218634 -0.027517062 0.026759163
000190 5c f4 38 bd 83 cb e0 bc 21 32 1d be c8 ba 8b bd
       -0.045154914 -0.027440792 -0.15351154 -0.06822735
0001a0 87 34 3e 3d 2e 5b 2d 3a 47 e8 b8 bd 98 15 26 be
       0.046436813 0.0006613013 -0.090286784 -0.16219175
0001b0 c1 a6 b5 3d 00 18 3c bd b3 e7 2f 3d 49 61 bf bd
       0.088696964 -0.045921326 0.042945575 -0.093447275
0001c0 da c4 8f bd 64 58 27 be 79 1b 44 3d ff 16 c4 bd
       -0.07019968 -0.16342312 0.047877762 -0.09574699
0001d0 ab 42 64 bd 97 9a 00 3d 0b 62 94 3d ec b6 8a bc
       -0.055727642 0.03139743 0.07245263 -0.016932927
0001e0 8a 37 8f bd 3f 2e 85 bd 00 0d 2e be cc 8f a8 bd
       -0.06993015 -0.06502961 -0.16997147 -0.08230552
0001f0 2c 7d 76 3c 00 ae 34 3d 2b 3b db bc 4c 36 cf 3d
       0.015044492 0.04411125 -0.026761612 0.10117778
000200 84 74 1b be d5 d5 e0 bc 73 fc 86 3c 57 7c bd 3d
       -0.15181166 -0.027445713 0.016477799 0.092522316
000210 74 93 00 3e d0 63 90 bd c1 91 cf 3d 6b b1 98 bd
       0.12556249 -0.07050288 0.10135222 -0.07455715
000220 07 f2 20 3e 22 2b 80 3d 4f 6e ee 3c 0b 1b 4b 3c
       0.15717326 0.06258227 0.029105334 0.012396584
000230 36 ef 9e bd fb 68 88 3d c7 d6 b0 3d 58 d2 dd 3d
       -0.077604696 0.066606484 0.086347155 0.108311355
000240 6a c3 0e be c4 ea 0a 3d 78 d4 5c 3d 43 63 1a bc
       -0.13941732 0.033915296 0.053913563 -0.00942308
000250 7e de 68 3d 12 2f 9a 3b c1 08 93 3d 03 43 d3 3c
       0.05685281 0.0047053182 0.07179404 0.02578879
000260 6d da 8a bd 71 2b 18 3e ce 0a d2 3b ea 19 1a 3e
       -0.06779943 0.14860322 0.0064099794 0.15048948
000270 e6 1b 4a bc 7a a3 9b 3d 3b 95 a4 bd aa a9 88 bd
       -0.012335753 0.0759954 -0.08036276 -0.06672986
000280 54 1e 13 be 02 31 cd 3b 26 dc 1a 3e bc c4 de 3d
       -0.14367038 0.0062619457 0.15123042 0.10877368
000290 40 b6 c7 3d 6f 84 51 3d 2f ca f5 3d b7 67 3e bd
       0.09751558 0.05115169 0.12001454 -0.04648563
0002a0 63 28 6f bd 06 f3 5d bd dd 83 0c 3e 0d 72 17 be
       -0.058388125 -0.054186843 0.13722177 -0.147896
0002b0 86 0c 42 3c df 59 44 bd 66 e1 e6 3d e8 87 03 be
       0.011843806 -0.04793727 0.1127346 -0.12844813
0002c0 51 d2 9d 3d d8 22 eb bb 19 61 68 3d 3a ec 23 3e
       0.0770613 -0.0071757846 0.056733225 0.16008082
0002d0 a7 7f ec bd 8d a6 6f bd 1b a3 ce bc 43 91 6d 3d
       -0.11547785 -0.058508445 -0.02522426 0.05799986
0002e0 9c 13 e6 3c bc 12 3a 3d 64 56 a6 bd 92 34 9c 3d
       0.028085522 0.045428023 -0.081219465 0.076272145
0002f0 a1 32 54 3d 39 b7 ee bc ab 4b da 3c 20 e7 29 bd
       0.051806096 -0.029140102 0.02664741 -0.041480184
