models/one_month/trained_irdpg_200.pth (torch, 268082 bytes, 22 tensors)

weight_ih_l0 f4 [192, 18]
000000 a6 61 ca 3d c0 82 37 3d 08 2b ae bc 8c a4 49 bd
       0.09881906 0.044802427 -0.021260753 -0.04922919
000010 a0 c9 53 3c 48 08 9e bd 88 90 72 3d 1c 2b 2f 3d
       0.012926489 -0.07716423 0.059219867 0.04276572
000020 80 a8 76 bc a6 a2 c8 3d 44 82 8e 3d d4 5f 28 3d
       -0.015054822 0.09796648 0.0695844 0.041107014
000030 04 e8 23 3d fc e2 de 3d e8 48 e8 bc c8 15 b0 3d
       0.04001619 0.108831376 -0.028355077 0.085979044
000040 0e e8 ff bd 3e 02 98 3d 28 b4 a9 bc f8 0d 9e 3d
       -0.12495433 0.07422303 -0.020715788 0.07717508
000050 94 76 92 bd 40 6a 2d 3c 18 7e 19 bd 48 69 dd 3c
       -0.07151523 0.010584414 -0.037473768 0.027027741
000060 22 65 c4 3d b0 eb a6 3c fc 48 d2 bd e0 b9 25 3d
       0.09589602 0.020376056 -0.10267827 0.040460467
000070 ac 4c 34 3d 0a c7 9d bd 36 f7 dc bd e8 4c 72 bd
       0.044018432 -0.07703979 -0.10789339 -0.059155375
000080 80 c8 d8 bb 6a 58 8c 3d bc bd c9 3d a0 d8 0b bd
       -0.0066156983 0.06852801 0.09850642 -0.034142137
000090 ac 41 96 3d 1c af 01 3d 70 ca 31 3d f0 39 31 3d
       0.07336745 0.031661138 0.04340595 0.043268144
0000a0 58 74 b3 bc 10 93 41 bd c6 df ac 3d c4 06 bf bd
       -0.021906063 -0.04725939 0.08441119 -0.09327462
0000b0 aa e3 ea 3d 08 2f 56 3d 90 59 8d bc 7e 1b ec 3d
       0.11469205 0.052290946 -0.01725462 0.11528681
0000c0 a2 99 b9 bd 3c eb bf 3d e6 ba a8 bd 42 eb b9 3d
       -0.09062506 0.09371039 -0.08238773 0.09078075
0000d0 68 1d 80 bc 20 39 f0 bb 5c 34 d5 3d 68 6a 57 3d
       -0.015639022 -0.0073310286 0.104103774 0.05259171
0000e0 20 36 91 bc b4 67 20 bd e4 4d 0b bd 1c 98 7e bd
       -0.017726004 -0.0391614 -0.03400983 -0.06215678
0000f0 a2 1a e9 bd 90 85 37 3d c0 d1 98 bc c0 c9 ef 3c
       -0.11382033 0.04480511 -0.018654704 0.029271007
000100 54 41 0e bd a8 46 9b 3d 90 f2 ad bc 0a 07 de 3d
       -0.03473027 0.07581836 -0.021233827 0.10841186
000110 64 74 a5 3d 12 b9 d7 bd be 90 f9 3d 24 63 19 3d
       0.080788404 -0.10533346 0.121858105 0.037448063
000120 ec 46 94 3d 50 7e 32 3c 80 85 32 3c d4 c8 12 bd
       0.0724009 0.010894373 0.010896087 -0.035836056
000130 70 70 08 bd 00 44 d7 3c 98 5b a6 bc 6e 86 c1 3d
       -0.033310354 0.026277542 -0.020307347 0.094494686
000140 a8 e3 a7 bd cc 6d eb 3d 8c 1e 1a 3d 00 a3 7f ba
       -0.08197719 0.114955515 0.037626788 -0.0009751767
000150 e6 4e f7 bd 00 1c 32 bb 90 ed 8e bd 00 8c d0 3b
       -0.120755956 -0.0027177334 -0.06978905 0.0063643456
000160 44 de a1 3d e8 7f 85 bd ec 32 ed 3d 00 10 c4 3c
       0.07903722 -0.06518537 0.11581978 0.02393341
000170 f0 c0 4a 3d 7c 4e b0 3d 48 09 84 bd 40 b3 af 3c
       0.049500406 0.0860872 -0.06447083 0.021447778
000180 b0 24 c0 3c 6c a7 e8 3d 1c 54 da 3d f6 97 ce 3d
       0.023454994 0.11360058 0.10660574 0.10087578
000190 a6 0d e5 bd a0 a2 8d 3b bc 02 9c bd 40 bb 03 3c
       -0.11184244 0.004322365 -0.07617709 0.008040249
0001a0 b8 47 36 3d d8 58 04 3d b8 48 6a 3d a0 54 87 bc
       0.04450199 0.03231129 0.057198256 -0.016519845
0001b0 d6 66 8e 3d 78 6d b6 bd 94 e9 ae bd 36 db fd bd
       0.06953208 -0.08907598 -0.08540645 -0.12395327
0001c0 a0 c0 dc 3d a0 af ec 3d dc 69 32 3d ec 9f a3 3d
       0.10778928 0.11556935 0.043557987 0.07989487
0001d0 ea e8 8d bd 4c 12 c2 3d ac d7 52 bd cc 22 0b 3d
       -0.069291905 0.09476146 -0.051475212 0.03396873
0001e0 3e c2 9d bd 00 ac 31 3d 02 5b b8 bd e0 32 26 3c
       -0.077030644 0.043376923 -0.09001733 0.0101439655
0001f0 48 c1 58 bd 04 08 06 bd 18 09 b4 3c 14 af a0 3d
       -0.052918702 -0.032722488 0.021976992 0.078458935
000200 7a 14 9d bd 20 2d e9 3d 6a c9 d6 3d 24 dd bd bd
       -0.07669921 0.1138556 0.104876354 -0.09270695
000210 24 a1 e4 bd 68 96 ad 3d 78 05 6e bd c2 73 ac 3d
       -0.11163548 0.08475953 -0.058110684 0.084205166
000220 9c 36 2f 3d cc cf 01 3d fe 93 e2 3d 84 41 44 3d
       0.04277669 0.03169231 0.110633835 0.047914043
000230 9c 9a 42 3d dc 2e 64 bd 40 df 08 bd 1c 15 6f 3d
       0.04751073 -0.05570875 -0.033416033 0.05836974
000240 20 e9 9f bb c8 8a 7d bd 08 f2 7f bd 7a 4c d2 3d
       -0.0048800856 -0.06189993 -0.06248668 0.10268493
000250 26 10 a5 bd 10 58 1c bd f4 4c b9 bd f8 7b ec bc
       -0.08059721 -0.03816992 -0.09047881 -0.028867707
000260 90 0a 6d bc 2c 90 70 3d 74 ef 28 3d 96 70 ce bd
       -0.01446785 0.058731243 0.041243985 -0.10080068
000270 58 4b 9f bd 68 af 41 bd 14 10 79 3d c4 f3 5e 3d
       -0.077780426 -0.04728642 0.06080635 0.05443169
000280 72 33 9a bd 80 28 b5 bd 8c 9a 98 3d aa 95 8e 3d
       -0.07529344 -0.088456154 0.074513525 0.0696214
000290 46 4e 87 bd e8 8a ed bc f4 87 5f 3d 08 28 f1 3c
       -0.06606726 -0.0289969 0.054573014 0.029438034
0002a0 c0 fd 3d 3d a0 89 c3 bb d8 a9 d0 bc c6 05 af bd
       0.046384573 -0.005967334 -0.025471613 -0.08546023
0002b0 b8 4a 0c bd 8c 7e 8f 3d a0 c9 bf 3b f4 fa b0 3d
       -0.034250945 0.07006559 0.005852893 0.086416155
0002c0 ec 60 e0 3d 94 44 d8 3d b0 4f 27 bd 96 a3 a5 bd
       0.109559864 0.10559955 -0.04084748 -0.08087842
0002d0 24 63 1d bd 7c af 21 3d c6 87 bc 3d c0 16 74 bd
       -0.038424626 0.039473996 0.09205584 -0.05959201
0002e0 80 83 6e 3b 96 f2 af bd bc 1c 2e bd 42 be be 3d
       0.0036394298 -0.085911915 -0.042507872 0.093136325
0002f0 a8 96 11 bd f8 c6 db 3c 78 43 e5 3d 68 b6 c3 3c
       -0.035544068 0.026828274 0.11194509 0.023890689
000300 88 5f c2 bc 40 29 82 3b ca 00 f5 bd 70 fe 90 bd
       -0.023727193 0.0039722025 -0.11963041 -0.0707978
000310 58 c3 47 3d dc 2b b3 3d 08 26 fe 3c 62 be b3 bd
       0.04877028 0.087486 0.031023994 -0.08776547
000320 7a 40 c0 bd b0 79 31 3c 40 23 ff bb a2 af c4 3d
       -0.09387298 0.010832235 -0.0077861845 0.09603812
000330 3a 51 ac bd b0 f2 21 bd e0 63 47 3c c0 dd a4 3d
       -0.0841393 -0.039538085 0.012169808 0.08050108
000340 fa cb ef 3d 26 bd 8e bd da 57 cb 3d d0 6f a2 bc
       0.11708827 -0.06969671 0.09928866 -0.019828707
000350 00 e5 d7 ba cc c1 28 3d 14 ec ab bd 70 0a 79 bc
       -0.0016471446 0.041200444 -0.08394638 -0.015200242
000360 48 4c 97 3c 44 7b b0 3d 80 50 3d bc ea 64 8c bd
       0.01846899 0.08617261 -0.011554837 -0.06855185
000370 b0 03 60 bd 40 3a 97 3c 74 51 5d bd 62 fc fd bd
       -0.054691017 0.018460393 -0.054032758 -0.12401654
000380 5a 46 9b bd 0e 8a c0 bd a0 4a 1d 3d a4 7e ee bd
       -0.07581778 -0.09401332 0.038401246 -0.116452485
000390 4a f7 d2 3d 70 59 49 bd 38 57 0d 3d a6 4b fe bd
       0.10301073 -0.04915756 0.034507006 -0.124167725
0003a0 64 74 eb 3d 94 2f 9e bd a4 49 b1 bd 9c 51 48 3d
       0.11496809 -0.077239186 -0.08656624 0.048905954
0003b0 ec 06 17 3d 08 b5 ac bc 00 a9 ff ba 70 74 11 3d
       0.036871836 -0.021082416 -0.0019505322 0.035511434
0003c0 60 35 ea bd 9a 0b 98 3d 80 fb 34 bd 80 63 08 3c
       -0.11435962 0.07424088 -0.04418516 0.008324504
0003d0 b0 45 fd 3c 20 5d 56 3c 78 07 c4 bc 98 6c 97 3c
       0.030917019 0.013083726 -0.023929343 0.018484399
0003e0 84 b4 37 bd 58 9d 5b bd dc a4 02 3d 60 ac a6 3b
       -0.044849887 -0.05361685 0.031895503 0.0050864667
0003f0 2a 3e 9a bd 00 cc 1c bc e0 2b be bc 50 26 6c bc
       -0.07531388 -0.009570122 -0.02321428 -0.014413431

weight_hh_l0 f4 [192, 64]
000000 44 67 cf bd 1a 6c aa bd 9c 8b ce bd 38 3a 44 3d
       -0.10127118 -0.083214 -0.10085222 0.047907084
000010 20 94 06 3d d8 5c ca 3d 3c 95 4e bd 50 07 0c bd
       0.032856107 0.0988099 -0.05043529 -0.03418666
000020 f4 35 8d 3d 70 6b 28 bc 58 bf f5 bd 98 5c 8d 3c
       0.06895056 -0.010279521 -0.119993865 0.017256066
000030 9c a2 63 3d 5c aa 36 bd c8 fc e5 bd 10 7d 58 3d
       0.055575 -0.04459606 -0.11229855 0.052853644
000040 08 78 b8 bd 00 1a 33 bb 62 c5 9b 3d 76 76 82 3d
       -0.09007269 -0.002732873 0.07606007 0.06370251
000050 54 80 32 bd 40 91 a3 bd 4e 76 f3 bd 84 f1 21 3d
       -0.043579414 -0.079866886 -0.11887799 0.039536968
000060 d0 38 45 3c 48 3d f6 3c 6c f4 19 3d 28 11 96 bd
       0.012037471 0.030058518 0.037586614 -0.07327491
000070 f0 5d 2d 3c 8a 00 e7 3d 90 fe c2 bd b4 1c 53 3d
       0.0105814785 0.112794 -0.0952121 0.051541045
000080 2a c5 aa bd 88 34 f9 bd 56 96 e0 3d c6 db a8 bd
       -0.08338387 -0.12168223 0.10966174 -0.082450435
000090 cc 8b 91 3d 66 8a bd bd a0 05 c7 3d 84 0d 4a 3d
       0.07106742 -0.09254913 0.0971787 0.049329296
0000a0 0e d2 a3 3d e4 79 3a 3d e4 c7 a7 3d ac 3f ef 3d
       0.07999049 0.0455264 0.08192423 0.11682066
0000b0 dc da 44 3d 00 49 97 ba d6 ed ae bd 80 92 0d bd
       0.048060283 -0.0011542141 -0.08541457 -0.03456354
0000c0 5c ca 7c 3d 28 08 43 3d 20 d5 a8 bc 88 4d d2 bc
       0.061716422 0.0476152 -0.020609438 -0.025671735
0000d0 30 c3 35 bc 0e 8e ac bd 74 f1 ee 3d c8 79 69 bd
       -0.0110939 -0.08425532 0.11667147 -0.057000905
0000e0 92 7c f5 3d b4 8f 07 bd be bc e2 bd 8c 19 26 3d
       0.119866505 -0.03309603 -0.11071156 0.040551707
0000f0 6c 9b bc 3d 40 81 13 bd 34 b3 32 bd 8c 25 86 3d
       0.09209332 -0.036011934 -0.043627933 0.0655013
000100 98 22 d5 3d c0 22 22 bc a0 39 b3 3d fe 62 84 bd
       0.10406989 -0.00989598 0.087512255 -0.06464194
000110 ea 4e 8b 3d 04 d7 06 3d 6c 0f ac bd d4 55 72 3d
       0.06802161 0.0329199 -0.08401379 0.059163883
000120 1e 89 8c bd 98 23 7b 3d 6c 6e 34 bd 98 45 f4 bc
       -0.068620905 0.06131324 -0.04405062 -0.029818341
000130 56 34 bb 3d f6 15 ba bd 7c af 63 3d 1e 66 c2 3d
       0.09140842 -0.0908622 0.055587277 0.094921336
000140 32 35 f8 3d 28 57 ab 3c 5c 42 e2 3d 38 71 5e 3d
       0.12119521 0.020915583 0.11047813 0.054307193
000150 8e 80 80 bd 60 41 f7 3b e0 2f d3 3d 14 01 eb bd
       -0.0627452 0.007545635 0.10311866 -0.11474815
000160 d8 cb 5d 3d dc 10 a8 bd 14 95 e4 3d f4 20 21 bd
       0.05414948 -0.08206341 0.11161247 -0.039338067
000170 8a e1 f9 bd c8 e0 ec bc 3c fb f0 3d 78 f3 d1 3d
       -0.12201221 -0.028915778 0.11766669 0.10251516
000180 c4 01 d1 bd f4 49 25 bd 2c fb aa bd c8 17 c6 bd
       -0.10205415 -0.04035373 -0.083486885 -0.09672505
000190 84 1e 0f bd b4 e9 51 bd ba ab bd 3d 70 af 29 bc
       -0.03494121 -0.051248267 0.0926127 -0.010356769
0001a0 b0 a4 9f 3c 54 99 bd 3d 74 92 0c bd b4 e3 10 bd
       0.019487709 0.09257761 -0.034319356 -0.035373405
0001b0 e8 4a b6 bc 50 3d f8 3d f0 4c 1d bd 80 3d 11 bd
       -0.022252515 0.121210694 -0.03840345 -0.03545904
0001c0 fe 42 93 3d 68 e9 33 3d a0 62 e2 bc 6a 2a dd bd
       0.07190512 0.043923765 -0.027634919 -0.107991055
0001d0 f0 92 1e 3d 40 9d 3e 3c c0 b0 cb 3c ee 58 ab bd
       0.03871435 0.011634171 0.024864554 -0.08366571
0001e0 a8 4e b9 3c fe d4 95 bd cc 5e d5 3d 0e 56 86 3d
       0.022620514 -0.07316016 0.10418472 0.065593824
0001f0 1c b1 1b bd 64 f6 8a 3d 34 6f 4e 3d c4 d1 cc bd
       -0.0380107 0.067852765 0.05039902 -0.10000947
000200 c0 43 ed bb b8 b1 cd 3c 60 1f fd 3b f0 de ca 3d
       -0.0072407424 0.025109157 0.0077246875 0.09905803
000210 ce 30 82 bd d0 a6 6d 3c 80 65 b9 bc 2e 8b 99 bd
       -0.06356965 0.014505103 -0.022631407 -0.074972495
000220 d0 65 a3 3d 5e 47 8c 3d 9e cc d7 3d 2c 31 e3 bd
       0.079784036 0.0684955 0.105370745 -0.11093363
000230 c0 e6 2b bc f8 e2 3e 3d 2c ea 86 3d 28 5a 1a bd
       -0.010492027 0.046603173 0.065876335 -0.037683636
000240 a4 d0 59 bd 52 85 e8 bd f0 19 45 bc 88 11 95 bc
       -0.05317749 -0.11353554 -0.01203011 -0.018196836
000250 e8 4a d3 3d 34 3d 74 3d da 6a 87 3d 80 6e c9 ba
       0.103170216 0.05962868 0.06612177 -0.0015368015
000260 c6 d0 ed 3d 00 c1 3d bc 70 54 d2 3d d8 fd 35 bd
       0.11612086 -0.011581659 0.102700114 -0.044431537
000270 c6 ac a8 bd 44 bb 9a 3d 5c 3b 77 3d 18 21 5c bd
       -0.08236079 0.07555249 0.060359344 -0.0537425
000280 2e c8 d1 3d d0 de 5f bd 58 98 f0 3c 1c 46 60 bd
       0.10243259 -0.05465585 0.029369518 -0.05475436
000290 18 b9 d6 bd c0 a5 78 3c 30 f3 1f bc 22 87 bb 3d
       -0.104845226 0.015176237 -0.00976257 0.09156634
0002a0 58 cc df 3c 1c 05 3d 3d 5c bd db 3d ce 36 f9 bd
       0.027319118 0.04614745 0.10729477 -0.12168656
0002b0 b8 a2 39 3d 80 39 28 bc d0 d9 d0 3d 06 77 ae bd
       0.045321196 -0.010267615 0.101977944 -0.08518796
0002c0 d0 b5 17 bc 64 c0 09 3d d0 3e 0d 3c f8 73 83 3d
       -0.009259656 0.033630744 0.008620933 0.06418604
0002d0 ee 18 a1 3d e0 df 65 bd 18 43 f2 3c 6c 2f 48 bd
       0.07866083 -0.056121707 0.029573008 -0.04887335
0002e0 18 78 bb 3d 90 5b 10 3c 78 32 9b 3c 02 52 ee 3d
       0.091537654 0.008810893 0.018944964 0.116367355
0002f0 0c ed bf bd 58 16 21 bd 9e 28 f3 3d 00 f0 fc 38
       -0.09371385 -0.03932795 0.118729815 0.00012061
000300 ca 19 ca 3d f0 f4 2a bd 74 0c 47 bd 04 02 39 3d
       0.098682 -0.041737497 -0.04859586 0.045167938
000310 64 21 a2 3d a2 72 d2 bd 60 8b f7 3b d0 5f ad bc
       0.07916525 -0.10275771 0.0075544566 -0.021163851
000320 a8 76 30 3d 3c 12 de 3d 58 94 b9 bd 80 93 ee 3a
       0.04308191 0.10843322 -0.090614974 0.0018201917
000330 f4 21 e5 3d 36 53 d0 bd 44 9d 72 bd be 4d c8 bd
       0.11188117 -0.10172121 -0.05923201 -0.09780453
000340 10 b6 21 3d 5e c8 f1 3d 78 b0 c0 bc 6c 1e aa bd
       0.03948027 0.11805795 -0.023521647 -0.08306584
000350 74 49 86 bd 04 91 ee bd dc fb b8 3d 10 0b 8b 3c
       -0.06556979 -0.11648753 0.09032413 0.016973048
000360 90 2e 18 3d c8 9b 53 bd 86 f7 82 bd c0 15 f4 bb
       0.03715378 -0.051662236 -0.063948676 -0.007448882
000370 d8 f9 d4 bd 50 37 80 bd f8 e1 b2 3d a0 ec 83 3c
       -0.103992164 -0.0626055 0.08734506 0.016104043
000380 70 20 b8 3d 42 3d f2 3d 22 72 88 3d a0 82 9c bb
       0.08990562 0.1182809 0.06662394 -0.004776314
000390 50 62 b1 bc 20 8e 62 3c 90 d0 e7 bd 36 ad f8 3d
       -0.021653324 0.013827831 -0.11319077 0.12142412
0003a0 7e 2c 9b bd ee 20 ea 3d 7a bb c9 3d 82 24 d4 3d
       -0.075768456 0.11432062 0.098502114 0.10358526
0003b0 da 67 d6 3d 30 8a 83 3d 8c fe e8 bd 5a 2e fb 3d
       0.10469027 0.064228415 -0.11376676 0.122647
0003c0 64 87 72 3d 8a 95 ef bd 6a 26 97 3d 30 80 5f bd
       0.05921115 -0.11698444 0.07380374 -0.05456561
0003d0 e0 64 38 3c b6 24 ee 3d 6a a5 8f bd ba 80 86 bd
       0.011254519 0.11628096 -0.07013972 -0.065675214
0003e0 80 db 74 3d 28 fe c7 bd f4 b3 94 3d ca 24 ca 3d
       0.059779644 -0.09765273 0.07260886 0.09870298
0003f0 00 2f 74 bc 00 03 37 bd d4 a3 f6 bd 68 0f f4 3d
       -0.014903784 -0.044680595 -0.120429665 0.11917001

bias_ih_l0 f4 [192]
000000 6e ab de 3d f8 45 14 bd 14 c6 e0 bd 40 4f 74 bb
       0.10872541 -0.03619954 -0.109752804 -0.0037278682
000010 78 b2 7b bd 52 50 91 3d 80 ef 0f bc 3a 93 8a bd
       -0.061449498 0.07095398 -0.008785129 -0.067663625
000020 00 7c 79 3d 60 2c c1 3c 90 01 f1 3c d0 54 05 bc
       0.06090927 0.02358073 0.02941969 -0.008137897
000030 d2 d7 82 3d 38 39 0e bd a8 ae c8 3d 1c 0b dc bd
       0.06388821 -0.034722537 0.09798938 -0.107443064
000040 40 67 5e bb be 4a a6 3d 1a 78 c6 bd 54 ba 18 3d
       -0.0033936054 0.08119725 -0.09690876 0.03728707
000050 84 b4 29 3d 52 e8 ef 3d d4 07 02 bd 0c 88 62 3d
       0.04143192 0.117142335 -0.031745747 0.055305526
000060 e8 77 c9 bd 18 da 85 bd 3e 7c cf bd 18 b0 d2 3d
       -0.098373234 -0.06535739 -0.10131119 0.102874935
000070 00 0e 8c b9 50 e7 50 bd 2e f5 91 bd e8 9d d2 3c
       -0.00026713312 -0.051001847 -0.071268424 0.025710061
000080 50 35 7c 3c 0c dc 64 bd 70 2a 7c bc b6 c2 d7 3d
       0.01539357 -0.055873916 -0.015390977 0.10535185
000090 4a 17 e6 bd 40 ea 68 bb 98 d9 a8 bd 5c 25 6e 3d
       -0.11234911 -0.0035540015 -0.08244628 0.058141097
0000a0 a6 62 ba 3d 40 50 fb bb 94 a7 97 bd 80 fb 5d 3c
       0.09100847 -0.0076694787 -0.0740501 0.013548732
0000b0 18 b0 45 bd 98 89 7b 3d 9c f7 8a bd de 4f c3 3d
       -0.04826364 0.061410517 -0.06785509 0.09536718
0000c0 e2 78 d8 bd e0 c0 3d 3c 1c 0c ec bd 80 37 d9 bc
       -0.105699316 0.0115816295 -0.11525747 -0.026515722
0000d0 3e ab ab 3d d4 c7 70 3d 60 75 a0 bc 6c 43 a7 bd
       0.08382271 0.05878432 -0.019587219 -0.081671566
0000e0 38 0f 12 3d 00 56 ac bb b8 bd b8 3c 58 3d 87 3c
       0.035659045 -0.0052592754 0.022551402 0.016508743
0000f0 f0 31 fc bd 38 fc ec bc 60 fd 87 bb 64 42 43 3d
       -0.12314212 -0.028928861 -0.0041500777 0.047670737
000100 c8 c9 88 bc 60 07 d5 3d 06 a6 fc 3d 52 9c a6 3d
       -0.01669778 0.10401797 0.12336354 0.081352845
000110 68 4d 32 3d c0 fc 16 3b 50 4e 91 3d f4 fc a4 3d
       0.04353085 0.0023038834 0.07095015 0.080560595
000120 10 36 e8 3d c4 ed 4a 3d b0 a7 c3 bc 48 4f 5f bd
       0.113384366 0.049543157 -0.02388367 -0.054518968
000130 d6 cc e0 bd aa b6 af bd 98 43 9a 3c 00 ef 04 bd
       -0.10976569 -0.08579762 0.01883106 -0.03245449
000140 8c 55 ce bd 5c 00 cc bd e6 31 b9 3d 14 b2 e2 bd
       -0.100749105 -0.09961006 0.090427205 -0.11069122
000150 0e ae f4 bd 24 f0 76 bd 36 2e ca 3d 80 c6 55 bc
       -0.11947261 -0.06028761 0.09872095 -0.013047814
000160 28 b7 35 3d 60 6e f3 3c b8 a3 83 3c 4c 66 21 bd
       0.044364125 0.029715717 0.016069278 -0.0394042
000170 3a 95 f2 3d 3a e6 e9 3d 50 16 7d bc 80 21 47 3b
       0.11844869 0.11420865 -0.015447214 0.0030384958
000180 60 60 4e 3c de 6e f2 bd 3c cb 75 bd e0 31 43 3c
       0.01259622 -0.118375525 -0.060008273 0.011913747
000190 68 64 bb bc fa 36 ef 3d dc 46 c0 bd 14 ef e2 bd
       -0.022875026 0.11680408 -0.09388515 -0.11080757
0001a0 26 fa a9 bd a8 3a 40 3d 14 a1 97 bd 78 5d 62 3d
       -0.08299665 0.04693094 -0.0740377 0.05526492
0001b0 c0 16 a9 3d 6e 33 a4 3d 86 36 ec bd 64 6e 86 3d
       0.08256292 0.08017622 -0.11533837 0.06564024
0001c0 a0 ce 33 3c 00 1b 55 bc f8 08 3f 3d 80 cf 82 bb
       0.010974556 -0.013006926 0.046639413 -0.003992021
0001d0 aa 88 e0 bd b2 5a cd bd 60 90 88 bc 44 0d cb bd
       -0.109635666 -0.100270644 -0.016670406 -0.099146396
0001e0 02 04 c2 bd b2 b0 ea bd 0e e9 8f 3d 60 44 91 3c
       -0.09473421 -0.11459483 0.070268735 0.017732799
0001f0 d8 d0 e6 3d 30 ab ac 3c 06 27 ae 3d 10 e0 6f bc
       0.112703025 0.021077722 0.08503537 -0.014640823
000200 b0 d2 dc 3d 84 09 24 bd 30 e3 d2 bd 14 74 d6 3d
       0.10782373 -0.040048137 -0.10297239 0.10471359
000210 4c 39 cb 3d e0 f2 88 bd 8c cf ce 3d 04 c6 c3 3d
       0.09923038 -0.0668695 0.1009818 0.09559253
000220 38 a3 70 3d 9c d6 60 bd f4 59 db bd 58 d0 db 3d
       0.058749408 -0.054892167 -0.107105166 0.10733098
000230 18 a9 aa bc d0 cc 71 bd ec 5c 19 bd ba 9c ea 3d
       -0.020832583 -0.059033215 -0.037442133 0.114556745
000240 18 78 b9 bc 40 ad 78 3c 8c 52 72 bd 78 6b 76 bd
       -0.022640273 0.015178025 -0.059160754 -0.060161084
000250 34 ae e8 bd 3e 91 ee bd 70 3a 16 3c d0 de bb bd
       -0.113613516 -0.116487965 0.009169206 -0.091733575
000260 c4 09 e7 3d 04 16 18 bd 5c 6e 09 bd 40 32 37 3b
       0.112811595 -0.03713037 -0.033552513 0.0027953535
000270 60 59 8c 3b 64 8f e3 bd 40 51 4b bb d8 58 5a 3d
       0.0042831153 -0.11111334 -0.003102377 0.053307384
000280 96 58 d6 3d 48 78 93 3d 1e 98 9d 3d a0 c9 89 bc
       0.10466115 0.07200676 0.0769503 -0.016819775
000290 82 26 a0 bd c8 43 84 3c 78 70 cb 3c 48 b9 19 bd
       -0.07819845 0.016145602 0.024833903 -0.037530214
0002a0 38 44 e1 bd 36 7a e1 3d 00 d3 a0 3a 78 27 67 bd
       -0.1099934 0.11009638 0.0012269914 -0.056434125
0002b0 30 ae 48 3d 1e 23 ce 3d d0 af 90 3d ea 7f b9 3d
       0.048994243 0.10065292 0.070647836 0.09057601
0002c0 a8 a6 ae 3d a2 2d e7 bd a0 85 53 bd 90 96 70 3d
       0.08527881 -0.11288001 -0.051641107 0.058737338
0002d0 80 17 ba bd 40 96 04 3c 42 8f fb 3d 06 62 a5 3d
       -0.090865135 0.008092463 0.12283184 0.08075337
0002e0 48 78 2b bd 0c 86 d7 bd 30 d4 21 bc 68 66 73 3d
       -0.041862756 -0.10523614 -0.00987725 0.059423834
0002f0 f8 17 8d bd 18 a3 7c bd 82 cc ea bd 0c 37 a3 bd
       -0.06889337 -0.061678976 -0.11464788 -0.07969484

bias_hh_l0 f4 [192]
000000 00 09 00 bd 86 b0 fb bd 08 93 c0 3d 88 0c 8c bd
       -0.031258583 -0.122895285 0.09403044 -0.06838328
000010 c8 90 37 3d 3a 0b f0 3d 18 52 ec bd 1a d0 c5 3d
       0.04481581 0.11720891 -0.11539096 0.09658833
000020 12 2e a5 bd 28 51 90 bc ac e8 ed bd 38 3d 38 bd
       -0.08065428 -0.017616823 -0.11616644 -0.044980258
000030 04 53 8b bd ee 54 91 bd 92 1d cc 3d 8c 61 a1 bd
       -0.06802943 -0.07096277 0.099665776 -0.07879934
000040 28 66 8d bc 10 47 c1 bd be 8c ef bd cc 53 b0 3d
       -0.017260626 -0.09437382 -0.11696766 0.08609733
000050 8a 37 ae bd f8 d2 d9 3c 7a 0a f4 3d 98 8e 49 bd
       -0.08506687 0.026589856 0.11916061 -0.049208254
000060 f4 35 51 3d b6 1b bc bd 60 a0 bd 3d 28 0c d8 3d
       0.051076844 -0.09184973 0.09259105 0.105491936
000070 b0 c7 2d bc 66 7c fe bd a0 39 a5 bd 78 0d 8d 3d
       -0.010606691 -0.12426071 -0.08067632 0.068873346
000080 92 c1 a0 bd 10 7d 21 3c 58 0d 82 3c 90 16 7b bc
       -0.078494206 0.009856477 0.015875503 -0.015325204
000090 a4 d4 0c 3d a4 fd de bd 0e c0 cc 3d 38 15 40 bd
       0.034382477 -0.10888222 0.09997569 -0.046895236
0000a0 7a 01 fc bd b8 b0 f6 bd b8 00 be 3c a8 5a e8 bd
       -0.12304969 -0.12045425 0.023193702 -0.11345416
0000b0 cc 1c f6 3d c2 16 90 bd 60 f5 20 bc 28 5c bd bc
       0.12017211 -0.07035591 -0.009824127 -0.023115233
0000c0 60 eb 8c 3c de db dd 3d a2 96 9e 3d 22 e8 ab 3d
       0.01720208 0.10832952 0.07743575 0.08393885
0000d0 d0 15 1b 3c d0 6d 66 3d ec de 31 3d f4 6b 35 3d
       0.00946565 0.05625707 0.043425485 0.044292405
0000e0 e8 30 45 bd 76 4c f4 bd 70 4b a3 bc 00 c8 42 39
       -0.048142344 -0.11928646 -0.019933432 0.00018575788
0000f0 c2 ba 8a 3d 8c 16 fd 3d 16 b8 d5 3d d0 e6 72 bd
       0.067739025 0.12357816 0.10435502 -0.05930215
000100 22 3d e2 bd a0 8c eb 3c 7c 3e bf bd f4 4e f7 bd
       -0.110468164 0.028753579 -0.0933809 -0.12075606
000110 80 36 91 3b 60 6f e2 bb c4 93 74 3d 32 a2 af 3d
       0.0044315457 -0.0069102496 0.059711233 0.08575858
000120 10 ac b3 3c f8 e7 e2 3c 34 71 b8 bd 16 16 ea 3d
       0.021932632 0.027698502 -0.09005967 0.11429994
000130 58 b4 e5 3c c0 93 83 3d d6 8c c3 3d b2 9c a3 bd
       0.028040096 0.064246655 0.09548347 -0.07988872
000140 80 00 44 bc 86 47 b2 bd e0 77 e1 3c de 15 a1 bd
       -0.01196301 -0.08705048 0.027522981 -0.07865499
000150 b2 9e e8 3d 6e 44 f5 3d 92 38 98 3d 14 f1 fd bd
       0.11358394 0.119759426 0.07432665 -0.12399498
000160 b6 9c 80 3d 20 95 25 bc dc a3 36 3d 70 17 fa bd
       0.0627989 -0.010106355 0.044589862 -0.122115016
000170 98 5e d0 bc 68 9d f7 3c 08 c5 83 bd 9c e4 c8 bd
       -0.02543573 0.030226424 -0.06434065 -0.09809229
000180 54 6f 1b 3d 00 31 90 bc e2 a7 a7 3d ba 2f f8 3d
       0.037947968 -0.01760149 0.08186318 0.12118478
000190 28 41 e5 bc 86 f6 dc 3d b0 0e c4 bd 1e 27 87 bd
       -0.02798517 0.10789208 -0.09573114 -0.06599258
0001a0 00 c4 99 ba e2 a5 c1 bd 58 56 11 3d 9e 67 a9 3d
       -0.0011731386 -0.09455468 0.035482734 0.082717165
0001b0 7c 3c 5b 3d c0 94 bc bb 24 42 08 bd e0 3b ba bc
       0.05352448 -0.005755037 -0.0332662 -0.022733629
0001c0 c2 3f bd 3d 38 68 99 bd e6 d7 c5 bd d4 4b 22 3d
       0.092406765 -0.07490581 -0.0966032 0.039623097
0001d0 52 c0 b8 3d d0 3c 0b 3c 08 0c d6 3d a8 96 f2 bd
       0.09021057 0.008498386 0.104515135 -0.11845142
0001e0 14 f7 b2 3d 34 4e e6 3d 4a 2e ae bd c2 6b c8 3d
       0.08738533 0.11245385 -0.08504923 0.09786178
0001f0 b4 fc 76 3d b4 1a c2 bd 00 c6 db 3d 7e a1 9f 3d
       0.06029959 -0.094777495 0.10731125 0.07794474
000200 c8 15 9d 3d 14 15 de bd 28 8d bb bc f8 1b 77 bd
       0.0767017 -0.10843864 -0.022894457 -0.060329407
000210 14 ba 67 3d b6 6a a6 bd d6 42 9d 3d e6 08 c6 bd
       0.056573942 -0.08125822 0.076787636 -0.09669666
000220 40 9d 3b bc 80 e0 b4 3b 1a 05 f1 bd 78 6d d1 3d
       -0.011451066 0.0055199265 -0.11768551 0.10225958
000230 f8 22 6d 3d c6 e9 f2 3d 40 8e 43 3d 04 6e f3 3d
       0.057894677 0.11860995 0.047743082 0.11886218
000240 6e a5 c2 3d ae 96 ae bd 9c 61 66 3d 60 a3 f5 bc
       0.095042095 -0.085248336 0.05624543 -0.02998513
000250 9c 96 90 3d a8 1c b0 3d 00 56 f3 bd 60 e3 f6 3b
       0.070599765 0.08599216 -0.118816376 0.0075344294
000260 ca bd e6 bd c0 ae 8d bd f0 b2 c7 bc 96 6c f3 bd
       -0.11266668 -0.069180965 -0.024377316 -0.118859455
000270 10 76 79 bc 1e 2c db bd e8 db 43 bd 0c 41 d8 3d
       -0.015225902 -0.10701774 -0.04781714 0.10559282
000280 76 56 af bd 00 90 44 bc 70 46 2f bd d8 b9 a8 3c
       -0.08561413 -0.011997223 -0.042791784 0.02059643
000290 a0 d5 24 3c e0 3d b3 bc 18 27 a3 3d f8 e5 be 3c
       0.010060698 -0.02188009 0.07966441 0.023303017
0002a0 b4 24 dc bd dc 86 98 3d a8 ee 12 bd c0 34 7a 3c
       -0.10749188 0.074475974 -0.03587213 0.015271366
0002b0 30 61 61 bc ec e5 19 bd bc b4 36 bd d0 10 72 3c
       -0.013756081 -0.037572786 -0.044605955 0.014774516
0002c0 ea 0b a2 3d 98 72 73 bd f4 60 5a 3d c2 df b1 3d
       0.07912429 -0.059435457 0.053315118 0.086852565
0002d0 98 b6 c5 3d e6 a6 9b 3d b0 ec 0e bd 3c 5d 0b 3d
       0.096539676 0.07600193 -0.03489369 0.034024462
0002e0 50 d8 25 bd d0 ab a9 3d ea f9 b9 3d 70 d5 39 3d
       -0.040489495 0.08284724 0.090808704 0.045369565
0002f0 da 9b d4 3d f0 7e 1f bc 2c c5 49 bd da 65 9a 3d
       0.10381289 -0.009734854 -0.049260303 0.07538958

weight f4 [2, 64]
000000 41 dc c3 bd 42 81 8e 3d c2 09 b4 3b 88 c4 13 bd
       -0.095634945 0.06958248 0.0054943273 -0.0360761
000010 0a 6a 6a 3d 9a d8 9f 3d a7 8d d1 3d e3 c7 02 3e
       0.057230033 0.07804985 0.10232096 0.12771563
000020 a0 14 eb 3d 3c 41 45 3d 34 0b f5 bc b7 7f d5 bd
       0.11478543 0.048157915 -0.029912569 -0.1042475
000030 88 0a 9c 3d e9 96 3c 3c 9c 2a 07 bd fe e0 45 bd
       0.07619196 0.011510589 -0.03299962 -0.048310272
000040 27 0a 85 3d 83 83 e7 bd b0 b9 2e 3d f0 bb 69 bd
       0.06496077 -0.11304381 0.042657554 -0.057063997
000050 f8 95 f0 bc 72 8f b7 3d fc 5a 54 3d 2a 49 c0 3d
       -0.029368386 0.08962907 0.051844582 0.09388955
000060 9e c4 88 3d 6a 45 4e 3d 54 44 91 bd b0 e5 dc 3d
       0.06678127 0.050359167 -0.07093111 0.10785997
000070 2b 60 9e bd 0f b8 c9 3d 47 61 2b 3c 37 ab 9a 3d
       -0.07733186 0.098495595 0.010460204 0.07552188
000080 f8 d3 ed bc c8 df 41 bd 6e 01 81 bd e0 7d d9 bd
       -0.029031739 -0.047332555 -0.06299101 -0.10619712
000090 2e 29 ad bb bc 19 a7 bc 3a e4 bd 3d cf 2b 6f bc
       -0.00528445 -0.020398013 0.092720464 -0.014597847
0000a0 00 4c 14 bd 16 19 0c bd 33 04 b7 3d 20 b0 9a 3d
       -0.03620529 -0.03420361 0.08936348 0.075531244
0000b0 a7 e1 be bd 64 62 c2 bd 7c 79 ba 3d a2 8a e5 3d
       -0.093203835 -0.09491423 0.091052026 0.11208083
0000c0 56 82 2e bd b7 e4 a5 bd 9e 30 c7 bd 82 21 b6 bd
       -0.042604767 -0.081002645 -0.0972607 -0.0889311
0000d0 f5 b8 ab 3d 1b 3f 92 3d f8 87 52 bd bf 6a 88 bb
       0.08384887 0.07140943 -0.0513992 -0.0041631158
0000e0 6c d6 73 3d 20 2f 5d bc 70 0f 87 3d 64 de 11 3d
       0.05953066 -0.013500005 0.06594741 0.03561248
0000f0 39 c7 b0 3d 69 29 ec 3d c0 3f d2 3d f9 b6 f4 bd
       0.08631749 0.11531336 0.102660656 -0.11948962
000100 7a a7 1d 3d 74 8a 0d bd 4c a6 bd bc 30 27 00 3c
       0.038489796 -0.034555867 -0.023150586 0.007821843
000110 42 f2 a4 3d 07 46 6c bb 07 e1 f5 3d c5 77 61 bd
       0.080540195 -0.0036052482 0.12005811 -0.05504586
000120 08 bd be 3d d4 de 4c bd bb 39 11 3d cf e0 81 3d
       0.093133986 -0.050017193 0.035455447 0.06341707
000130 3c 2a 19 3d ce 3a 49 bd 53 10 74 bd 17 f8 af 3d
       0.037393793 -0.049128346 -0.05958588 0.08592241
000140 af 48 fe bd 09 0b be bc 80 af f0 3d a8 19 33 bd
       -0.12416207 -0.023198621 0.11752224 -0.04372564
000150 e8 d7 ef bd f6 09 cf bc 38 f8 41 3d ce c9 e8 3d
       -0.11711103 -0.025273304 0.04735586 0.11366616
000160 e0 f8 c4 3b ad 9b 9c bd b8 62 35 3d c2 b6 de 3d
       0.0060111135 -0.0764688 0.0442836 0.10874702
000170 ab fc c7 bd b4 4d d6 3c 94 61 3e 3d 73 57 03 3e
       -0.097649895 0.026160099 0.046479777 0.12826328
000180 90 06 49 bc 00 1b be bb 04 33 e2 3d e8 c1 99 3c
       -0.012269631 -0.0058015585 0.11044887 0.01876922
000190 89 f7 5e 3d c1 cf e6 bd c4 80 4c bd 7b b5 8d 3d
       0.054435287 -0.11270095 -0.049927488 0.0691938
0001a0 10 16 7c 3d 8c 66 91 3d fc 0c b0 3c 42 ac f3 bd
       0.061544478 0.070996374 0.021490566 -0.1189809
0001b0 e4 84 83 bc 10 86 a7 3c ca 6b c0 3d 40 d6 a9 3d
       -0.016054578 0.020449668 0.09395559 0.08292818
0001c0 02 cd ce bd 7d d2 48 bd 44 26 8b 3d c6 3c 8a bd
       -0.10097696 -0.049028862 0.06794408 -0.06749873
0001d0 fa 2f 59 bd 27 93 52 3b 94 2b c7 3d 05 c6 99 bd
       -0.05302427 0.0032131167 0.09725109 -0.07508472
0001e0 06 27 b0 3d 50 6d e4 3d 18 51 99 3d 88 fa 8b bd
       0.08601193 0.11153662 0.074861705 -0.068348944
0001f0 65 ca dc bd b9 06 05 3e 58 0b 94 bd be 19 58 bc
       -0.10780791 0.12990846 -0.07228726 -0.013189731

bias f4 [2]
000000 4d 00 fa bd e2 47 d7 bc
       -0.122070886 -0.026279394

weight_ih_l0 f4 [192, 20]
000000 7a 2d 91 bd 8c de ab bd 34 83 bf 3d de f9 aa 3d
       -0.07088752 -0.08392057 0.09351197 0.0834844
000010 a4 f0 47 bd fe e5 a3 3d d4 5e b0 bd 00 9e 84 b9
       -0.048813477 0.08002852 -0.08611837 -0.0002529472
000020 f0 b0 ce 3c 38 22 6e 3d 00 30 09 ba 6c 72 33 3d
       0.025230855 0.058138102 -0.0005233288 0.043810293
000030 dc 2c ca 3d 66 fd fd 3d 46 e4 92 bd b0 f2 58 3c
       0.098718375 0.124018475 -0.07172446 0.013241455
000040 90 f2 7b 3d 06 57 b8 bd 24 e4 01 3d bc cd c6 bd
       0.061510623 -0.090009734 0.031711712 -0.097072095
000050 00 9c d4 b9 52 12 d4 3d 1a 79 9b bd cc dd 13 bd
       -0.0004055202 0.10355057 -0.07591458 -0.036100194
000060 3a 41 e1 bd 70 1b c2 bc 60 d1 fc bd 7a 26 f2 3d
       -0.10998769 -0.023694724 -0.123446226 0.11823745
000070 b0 c9 1c bd 30 a0 9a bc f4 f5 d0 bd 58 ef 4a bd
       -0.03827828 -0.018875211 -0.10203162 -0.049544662
000080 ce a6 99 3d dc 26 97 3d 3a 5e 94 bd 80 71 7a 3c
       0.075025186 0.07380459 -0.07244535 0.01528585
000090 3a 7b b5 bd 80 a4 1b bb 90 40 10 3d 40 ab e1 3d
       -0.08861394 -0.0023749173 0.03521782 0.110189915
0000a0 ac 7a 96 bd b0 54 e2 bc 6c 1e 62 3d 14 00 27 bd
       -0.073476166 -0.027628273 0.055204794 -0.04077156
0000b0 2c 40 3f 3d e0 e5 72 bd 54 c3 dd bd 78 34 b3 bc
       0.04669206 -0.059301257 -0.108282715 -0.021875605
0000c0 50 3a f4 3c 72 89 e9 3d 80 bb 80 bc ca 92 81 bd
       0.029812962 0.11403169 -0.015714407 -0.06326826
0000d0 70 15 37 bc 38 42 d4 bd 92 cf ad bd e2 ac e7 3d
       -0.011174545 -0.10364193 -0.084868565 0.11312272
0000e0 40 f0 ec 3c 26 26 ba bd fa 89 a6 bd 94 38 dd 3d
       0.028923154 -0.090893075 -0.08131786 0.10801807
0000f0 80 7e b9 ba c0 d4 97 3d ec 27 6c bd ac 79 e8 3d
       -0.001415208 0.07413626 -0.05765526 0.11351332
000100 de 66 9c 3d fc 4c 78 3d 38 6a 91 bc 10 97 cd 3c
       0.07636808 0.060620293 -0.017750844 0.025096446
000110 90 30 b6 3c 4a 1f de bd 08 2a f9 3c b4 fc 1a 3d
       0.022239953 -0.10845812 0.03041555 0.037838653
000120 38 17 38 bd 48 31 5e bd d4 2a 32 bd ec ef 10 3d
       -0.044944018 -0.054246217 -0.043497875 0.035385057
000130 6c be 7d bd a2 ca a4 bd 82 19 d3 3d d0 9f b5 bc
       -0.06194918 -0.08046462 0.103075996 -0.022170931
000140 76 ce f5 3d e0 49 a0 bb 8e e4 b4 bd 36 3e c7 3d
       0.1200227 -0.004891619 -0.08832656 0.09728663
000150 94 36 fa bd 18 3d fd 3c ec 59 b0 bd cc b4 dd 3d
       -0.12217441 0.03091292 -0.08610901 0.108255
000160 98 e1 30 3d 08 32 f3 bc 80 b9 5d bc 94 3b 52 bd
       0.043183893 -0.029686943 -0.013532996 -0.05132635
000170 f8 1e d5 3c 28 f7 a1 bc fc 44 8b 3d 48 a7 f8 bc
       0.026015744 -0.019771174 0.06800267 -0.030353203
000180 6c d9 f5 3d 2e af fb 3d 50 8d 86 bd a4 f3 98 3d
       0.120043606 0.12289272 -0.06569922 0.07468346
000190 7a aa 86 3d c8 7f 1d bd d8 e5 99 3d c0 67 7a bc
       0.065754846 -0.03845194 0.07514542 -0.015283525
0001a0 10 78 ad bc aa 75 be 3d d8 fb 6b bd 08 72 19 bd
       -0.021175414 0.092997864 -0.057613224 -0.037462264
0001b0 5c 86 99 bd ec 33 2a 3d ac 7a 52 3d 56 33 cd 3d
       -0.0749633 0.041553423 0.05138652 0.10019557
0001c0 c8 11 8e bc 30 62 ab bc d0 b5 cd bd 0c 22 7c 3d
       -0.017342463 -0.020920843 -0.100444436 0.061555907
0001d0 76 ad 88 3d 26 b1 a4 3d c6 c8 9d 3d 1a 68 ae 3d
       0.0667371 0.08041601 0.0770431 0.085159495
0001e0 d8 18 42 3d 14 30 da bd 98 81 fc 3c 78 6b 88 3d
       0.047386974 -0.106537014 0.030823514 0.06661123
0001f0 c8 08 97 bd 6c 76 fb bd c0 87 62 bb a4 74 52 3d
       -0.07374722 -0.122784466 -0.0034565777 0.05138077
000200 24 20 7b 3d fc 3b 34 bd 92 55 f9 bd 50 2a 4c 3c
       0.06130995 -0.044002518 -0.12174524 0.01246126
000210 10 6a 3e bc e8 a0 dd bd cc 5e d1 bd 06 d5 dc bd
       -0.011621967 -0.10821706 -0.10223159 -0.107828185
000220 00 5d bb 3d b8 ad bc bd 90 cd 8a bd 48 8d 3a bd
       0.09148598 -0.09212822 -0.06777489 -0.045544893
000230 a0 e4 8f bc 20 7a 63 3d 44 68 f2 bd 68 27 b7 3d
       -0.017565072 0.05553639 -0.11836293 0.08943063
000240 50 5a d5 bd 88 d5 f4 bc 28 0b 88 3c a4 b4 d9 3d
       -0.10417616 -0.029886976 0.016606882 0.106301576
000250 aa 4e b5 3d 6e 13 cb bd 10 25 c7 bc 80 81 e1 3b
       0.088528946 -0.09915815 -0.024309665 0.0068818927
000260 ea 1c 86 3d 34 71 a7 bd 8a 9a da bd 7c 7b 32 bd
       0.06548484 -0.08175889 -0.10674007 -0.043574795
000270 60 6a cb 3b 80 3f cc 3c 10 74 d0 3c 28 97 b3 3d
       0.0062077492 0.024932623 0.025445968 0.08769065
000280 e0 32 cb bd 9e 30 e3 bd c0 33 30 bc c0 b7 13 3b
       -0.09921813 -0.11093257 -0.010754526 0.0022539943
000290 22 66 f6 bd 50 31 7c bc 34 91 52 bd 72 36 bd 3d
       -0.12031199 -0.015392616 -0.051408008 0.092389
0002a0 68 5e 42 bd 00 94 b5 bb 2e 71 fb 3d fa 7e be 3d
       -0.047453314 -0.0055413246 0.12277447 0.093015626
0002b0 da 6b b6 bd 0c 36 38 3d 80 01 39 bb 62 cd aa 3d
       -0.0890729 0.044973418 -0.0028229654 0.08339955
0002c0 88 7a 86 3c 4a fb 95 3d 02 69 c8 3d f8 d0 82 bc
       0.01641585 0.0732332 0.09785654 -0.015968785
0002d0 b4 50 12 bd 1e 93 de 3d ec 78 7a 3d a8 60 3e bd
       -0.035721496 0.10867904 0.061150476 -0.046478897
0002e0 e6 f6 be 3d b0 9e e2 3d 6c cb bb bd 90 5e 2e 3d
       0.09324436 0.110654235 -0.09169659 0.04257065
0002f0 98 5d d1 bd c8 d2 e4 3c 84 7f 67 3d c0 b9 aa 3d
       -0.1022293 0.02793254 0.056518093 0.0833621
000300 ec 36 8c 3d c0 49 bb 3d 0c cf 76 3d 2c 9b 38 bd
       0.06846413 0.09144926 0.06025605 -0.04506986
000310 96 01 c6 bd 98 59 c1 bc f8 f6 99 bd 6c ac 74 bd
       -0.09668271 -0.023602292 -0.07517809 -0.059734747
000320 b8 22 a3 3d 98 3a c3 bd 34 86 2a 3d 60 15 83 bc
       0.079656065 -0.0953266 0.041631892 -0.016001403
000330 82 30 ff bd 98 8d 97 3c ae 6a cc bd e6 f2 bd 3d
       -0.12460424 0.018500134 -0.09981285 0.09274845
000340 b0 43 e4 bd 68 66 ac 3c 3e 83 c3 bd c0 f0 85 3d
       -0.11145723 0.021044925 -0.09546517 0.0654006
000350 14 58 43 3d d8 f9 6f 3d b4 0b 65 3d ac ed d4 bd
       0.04769142 0.05858788 0.055919364 -0.10396895
000360 90 0f cf 3d 4a 21 86 bd 0e c9 96 3d 50 12 03 3d
       0.1011039 -0.06549318 0.07362567 0.031999886
000370 6c 82 0f 3d a0 59 43 bc 40 1f f9 bb 00 56 a8 bc
       0.03503649 -0.011923224 -0.0076026022 -0.02054882
000380 a0 58 39 3c e4 52 49 3d a8 18 a4 bc 74 f7 45 bd
       0.011312634 0.049151316 -0.020031288 -0.048331693
000390 e0 33 14 3c 58 55 52 bd 24 29 d6 3d e4 c9 63 bd
       0.009045571 -0.05135092 0.10457066 -0.05561246
0003a0 d2 db ba bd d8 9e 83 bc 38 28 34 bd 28 82 85 bd
       -0.09123959 -0.016066954 -0.043983668 -0.06518966
0003b0 6c 45 32 bd 90 d2 c3 bc 68 40 40 bd c0 16 52 bc
       -0.043523237 -0.023904115 -0.046936423 -0.012822807
0003c0 70 05 50 3c 98 f9 b5 3c ac 29 8e 3d 58 17 b0 bd
       0.012696609 0.022213742 0.06941542 -0.085982025
0003d0 8c 6d 34 3d e0 3a 70 bd 3c f7 e5 bd 58 36 e7 3c
       0.044049785 -0.058649898 -0.11228797 0.028224155
0003e0 8c d9 bc 3d 98 25 e0 bc 1c f4 df 3d 40 14 7d bc
       0.09221181 -0.027361676 0.10935232 -0.0154467225
0003f0 40 07 ef 3b e8 ac b9 3d c0 11 40 bc ac 2e 94 3d
       0.0072945654 0.090661824 -0.011722982 0.072354645

weight_hh_l0 f4 [192, 64]
000000 c0 61 a7 3c 00 5e 57 bb ec 7e 80 bd dc be 89 3d
       0.020432353 -0.0032862425 -0.062742084 0.06725857
000010 94 66 f1 3d d4 26 35 bd 3e 61 94 bd 9c e5 e3 bd
       0.11787143 -0.044226483 -0.0724511 -0.11127779
000020 fa 82 c4 3d d6 b2 c7 bd 18 9b ad 3c a8 ed e9 3c
       0.09595294 -0.09750907 0.021192119 0.028555706
000030 c6 4c 9d bd 70 3b a9 3c 08 87 a7 bc 90 c9 3b bd
       -0.07680659 0.020658225 -0.02045013 -0.04584652
000040 20 af 62 bd 58 43 b0 3d 34 23 9b 3d c8 10 a6 3d
       -0.055342793 0.08606595 0.07575074 0.081086695
000050 7e 79 a5 3d 86 90 cf bd 54 91 02 bd 98 63 86 3d
       0.080798134 -0.101349875 -0.031876877 0.06561965
000060 32 63 db 3d c8 07 bb 3c e0 e7 70 3d fc 0f bd bd
       0.107122794 0.022830859 0.058814883 -0.092315644
000070 9e 5f f2 bd b8 11 b8 3d 80 18 1a 3d ee 25 af bd
       -0.11834644 0.089877546 0.03762102 -0.085521564
000080 62 09 f3 3d f4 bc 02 3d d0 69 9d 3c 38 e5 18 3d
       0.11867024 0.03191848 0.019215494 0.037327975
000090 92 64 e8 3d c0 fd 06 bb b0 57 1b 3d e8 50 f7 bc
       0.11347307 -0.0020598024 0.037925422 -0.030189946
0000a0 cc f2 c5 3d 50 82 ea 3d 2a 62 96 3d 28 32 fc 3c
       0.096654505 0.114506364 0.07342942 0.030785635
0000b0 52 7c a9 3d fc 01 33 bd 1a a8 f9 3d 98 fb 61 3d
       0.08275665 -0.043703064 0.12190266 0.05517158
0000c0 aa ea fe 3d a8 9e b3 3c 82 3f e9 3d a4 c3 92 bd
       0.12447102 0.02192624 0.11389066 -0.07166222
0000d0 fe 4b d2 bd f8 8b e0 bc 50 3c f4 bd 08 4d 85 3c
       -0.102684006 -0.027410492 -0.11925566 0.016272083
0000e0 ac a6 14 bd d0 2b 90 bd cc 79 75 3d 00 5c cf 3d
       -0.036291763 -0.070396066 0.059930608 0.101249695
0000f0 ca c2 96 3d 10 be 30 bc 12 d7 aa 3d 50 66 88 3d
       0.07361372 -0.010787502 0.08341803 0.066601396
000100 bc c2 29 3d 3c b3 a1 bd 9c 61 38 3d 0c b1 55 bd
       0.04144548 -0.07895514 0.045014963 -0.0521708
000110 a4 d6 ce bd 38 e9 a9 bd d0 3c 15 3d 58 86 fc bc
       -0.10099533 -0.08296436 0.03643495 -0.030825779
000120 20 b5 b4 3d 94 7a ed 3d 96 e7 a1 3d 70 f6 36 3d
       0.08823609 0.115956455 0.079055 0.044668615
000130 b0 86 01 bc a8 6a 11 bd d0 07 37 3d 82 1e 96 bd
       -0.007905647 -0.035502106 0.044685185 -0.07330038
000140 94 49 a4 3d 00 4f 8e 3b 30 66 a2 3c 5c 5d 24 bd
       0.080218464 0.0043429136 0.019824117 -0.040128097
000150 18 1e 56 3d d8 fd c8 bd 3c fc 87 3d a0 55 d4 3d
       0.052274793 -0.09814042 0.06639907 0.10367894
000160 a0 93 02 bc 14 1a 9a bd 88 d0 8c bd 12 03 87 3d
       -0.007969767 -0.07524505 -0.06875712 0.065923825
000170 98 34 98 bd f8 f9 a2 bd 66 67 b3 3d 7c 61 9d bd
       -0.074319065 -0.07957834 0.08759956 -0.07684609
000180 e8 49 f6 3c 5e b8 e0 3d b8 fc 59 3d 5c 5b 50 3d
       0.030064538 0.10972665 0.053219527 0.050868377
000190 62 13 f0 bd f6 fb a8 3d 34 85 7c bd f8 39 8d 3d
       -0.11722447 0.08251183 -0.06165047 0.06895822
0001a0 50 8d ec 3c 80 5a aa bc 90 f0 b5 bd 84 63 84 3d
       0.028875977 -0.020795107 -0.08883774 0.064642936
0001b0 6e 6c b4 3d 80 a1 1c 3d cc f4 31 3d 98 c2 bc bd
       0.08809744 0.038239956 0.043446347 -0.09216803
0001c0 4a 28 8a 3d 74 8c 8d bd 68 fc cb 3c 20 46 0c 3d
       0.06745966 -0.06911555 0.02490063 0.034246564
0001d0 48 f7 c5 3c 00 be 16 bc f0 78 e8 bd 00 63 d4 3d
       0.024165764 -0.009200573 -0.11351192 0.10370445
0001e0 20 b5 82 bc 00 e3 3d 3b 50 78 45 3c b2 8a ff 3d
       -0.015955508 0.0028974414 0.0120526105 0.12477626
0001f0 48 66 ce bc 66 4b e7 3d 50 1d 23 3d 10 4e d5 bc
       -0.025195256 0.11293678 0.039822876 -0.0260382
000200 60 7b 8a 3c 70 b3 ac bd 00 d9 1d 3a ba 65 83 bd
       0.016904533 -0.084326625 0.000602141 -0.06415887
000210 90 ef f5 bd 68 76 c9 3d 68 ce a9 3c 46 6f 81 bd
       -0.120085835 0.09837037 0.020728305 -0.06320052
000220 84 f9 8b bd ea 7f ad bd 40 45 c5 3b 80 e9 9d ba
       -0.06834701 -0.08471663 0.006020218 -0.0012047738
000230 c0 1f 7f 3c e0 a0 c1 bd 80 3e b2 bc d0 d8 ff bd
       0.015571535 -0.094545126 -0.021758318 -0.124925256
000240 74 03 c1 bd 80 cd 9b 3d 48 82 3e bd c0 44 53 3d
       -0.09424487 0.076075554 -0.046510965 0.051579237
000250 60 b6 4c bd ac 39 cb 3d f8 ca 16 bd b8 aa 76 bd
       -0.049978614 0.099231094 -0.03681466 -0.060221404
000260 e0 50 9e 3d d6 2b c6 bd 80 e8 b5 3d 34 5c 59 3d
       0.077302694 -0.0967633 0.088822365 0.053066447
000270 6c 30 67 3d 3c 95 9d bd a2 f1 cd 3d d2 8c fb bd
       0.056442663 -0.0769448 0.100558534 -0.12282719
000280 a0 f1 c0 bd 6c 8b 99 bd 26 0e fa 3d 1a b7 a1 3d
       -0.09421086 -0.07497296 0.1220973 0.07896252
000290 40 ec bd bb c0 a3 7d bb e0 e0 ff 3b 58 c9 8f bc
       -0.0057959855 -0.003870234 0.0078087896 -0.017552063
0002a0 f8 e5 80 bc 0e 0a ec 3d 7a 79 dd 3d 18 b0 b9 3d
       -0.015734658 0.11525355 0.108141854 0.0906679
0002b0 76 a3 fa 3d 98 9f fb 3c 54 2e 1f 3d 80 95 68 3c
       0.12238209 0.030715749 0.03886254 0.0141958
0002c0 f8 6e 17 3d fc 70 4d bd 40 5f b3 bc 5c 40 bc 3d
       0.036971062 -0.05015658 -0.021896005 0.09191963
0002d0 50 08 2c bc e8 11 0d bd c4 91 02 bd 90 ba 02 3c
       -0.010500029 -0.034440905 -0.031877294 0.00797905
0002e0 1c d2 84 bd 60 6c dc bc 3c 72 56 bd 9c 10 c3 3d
       -0.06485388 -0.026907146 -0.052355036 0.09524652
0002f0 b8 dd d4 bd 8c fe ea 3d 68 27 c4 3c 3c 59 2c bd
       -0.10393852 0.11474332 0.023944572 -0.042077288
000300 4a a6 91 bd b6 7b 9c 3d ae 13 e9 bd d4 71 35 3d
       -0.07111795 0.076407835 -0.11380707 0.044298008
000310 b8 e7 ef bd ac 78 37 bd b8 0d 85 3d 58 6e b3 3c
       -0.11714119 -0.044792816 0.06496757 0.021903202
000320 f0 81 7f 3c f0 1f e4 3d e0 71 e1 bb fa a2 db bd
       0.015594944 0.11138904 -0.00688003 -0.10724445
000330 be a9 8a bd e0 1b 97 3d 80 ad 83 3b 20 ca b8 3b
       -0.06770657 0.073783636 0.0040184855 0.0056393296
000340 44 73 96 bd 3a ff af bd 6c 62 9b 3d c0 80 ae bb
       -0.07346204 -0.085936025 0.07587132 -0.005325407
000350 18 18 be 3c 38 9e bd 3d 44 4c 05 bd 6e 17 a5 3d
       0.023204848 0.092586935 -0.032543436 0.080611095
000360 e0 47 c2 bc 90 72 3b 3d 80 db ad bb e0 64 a1 bd
       -0.023715913 0.045763552 -0.0053057075 -0.078805685
000370 40 b9 18 bc c0 0c b0 3d 04 6b 9c bd b0 2f 25 bc
       -0.009321511 0.08596182 -0.07637599 -0.01008217
000380 6e b8 86 3d 8c 05 ee bd 5e 0d a6 3d a0 40 2f 3c
       0.06578146 -0.11622152 0.08108018 0.01069656
000390 5c 4f 39 bd 74 35 04 3d 20 35 9f bb dc 35 77 bd
       -0.0452417 0.03227754 -0.004858628 -0.0603541
0003a0 ae b7 9f bd c4 5c 17 3d 80 08 9c 3d f0 3b 12 bd
       -0.07798706 0.036953703 0.07618809 -0.035701692
0003b0 fa 40 fb bd b0 1d bb 3c 80 33 23 3b e0 a1 b5 3d
       -0.12268253 0.022841305 0.0024902523 0.08868766
0003c0 aa 58 b8 3d 4c 2e e3 3d ec 34 b3 3d 80 26 53 3b
       0.09001286 0.11092815 0.087503284 0.0032218993
0003d0 f4 db 29 3d 10 b2 1a bc 52 df 80 3d 7c f6 fb bd
       0.04146953 -0.0094418675 0.06292595 -0.123028725
0003e0 2c ce 0d 3d ee 3b b8 3d 9a eb ac bd 24 db 6f bd
       0.03462045 0.08995806 -0.08443375 -0.0585586
0003f0 0e 18 d5 3d 80 b8 4b bc 7a 52 a1 3d d2 5b b4 3d
       0.10404979 -0.012434125 0.07877059 0.08806576

bias_ih_l0 f4 [192]
000000 f8 15 15 bd 6e 44 8c 3d 04 c6 8b 3d 2e a6 a4 3d
       -0.036397904 0.068489894 0.06824878 0.08039509
000010 c8 f0 cb 3d 2c a6 b9 3d 48 7c 54 bd 9c 34 85 3d
       0.09958035 0.09064898 -0.051876336 0.06504175
000020 54 89 be bd d8 5a b1 3c d0 29 d7 bd 30 c2 0c 3d
       -0.09303537 0.021649763 -0.10506022 0.03436488
000030 32 71 a8 bd 30 73 1c 3c 70 ba f1 3d fa 06 ba 3d
       -0.08224715 0.009548947 0.11803138 0.09083362
000040 a8 7b a6 3c ac 0b f3 bd 0e b7 e0 bd 54 06 79 bd
       0.020322636 -0.118674606 -0.10972415 -0.06079705
000050 c4 f4 3b 3d 90 38 65 3c b8 ce 42 bd ee a3 84 bd
       0.045887724 0.013990536 -0.047560424 -0.064765796
000060 9c d6 52 3d c0 6e cb bc 28 32 17 3d f0 f7 25 3d
       0.0514742 -0.024833083 0.036913067 0.040519655
000070 84 d0 b8 3d e4 14 e3 3d be 4f a9 3d a0 2d 5c 3c
       0.09024146 0.11087969 0.08267163 0.013438612
000080 00 d4 ff bd 6a b2 df 3d 16 26 af 3d c4 b9 08 3d
       -0.12491608 0.10922702 0.08552186 0.033380285
000090 d0 60 3c bc d4 7f 3a 3d 40 9d 77 3d 76 62 91 bd
       -0.011497691 0.045532063 0.0604527 -0.07098858
0000a0 90 14 43 3d 70 8a b4 bc 5e 97 ac bd 7e 96 cd bd
       0.04762703 -0.022038668 -0.084273085 -0.1003847
0000b0 94 be 98 bd 94 5e 79 3d 58 5b bb bd 84 98 fa bd
       -0.07458225 0.060881212 -0.09148282 -0.12236121
0000c0 46 d6 d9 3d e0 71 c6 3d bc e8 db bd 80 31 0c bd
       0.106365725 0.09689689 -0.1073775 -0.034226894
0000d0 b6 84 e4 3d 18 cb 46 bd 9c 68 82 3d ba c7 cf bd
       0.11158125 -0.04853353 0.06367609 -0.10145517
0000e0 c8 a6 7d bd 78 c2 eb 3c 34 b5 1f 3d fc c9 f3 bd
       -0.061926633 0.028779253 0.03899117 -0.1190376
0000f0 28 94 e1 bc 8a d8 fe bd c0 c3 c8 3c bc af 30 bd
       -0.027536467 -0.12443645 0.024507403 -0.043136343
000100 80 df 1c bc 3e 2f f3 3d 38 4b b8 3d 12 58 ea bd
       -0.009574771 0.11874245 0.08998722 -0.11442579
000110 be e0 e8 3d 54 a1 f4 3d 40 2e 25 bd d8 79 8d 3c
       0.11370991 0.119448334 -0.04032731 0.017270014
000120 34 c3 49 bd 80 5e 78 bc 4d d9 a2 3b e7 aa d4 bc
       -0.049258426 -0.015159249 0.004969752 -0.025960399
000130 c0 ba ef bd 20 a7 cd 3b 30 ba 81 3d 10 a2 1d 3d
       -0.117055416 0.0062760264 0.063343406 0.038484633
000140 ec 51 51 3d 30 df ed bc b2 90 f6 bd 8c 4f 1c 3d
       0.051103517 -0.029037088 -0.12039317 0.0381618
000150 98 29 fd 3d 62 da c7 bd a4 86 a5 bd 5c f5 eb bd
       0.12361449 -0.0975845 -0.08082321 -0.11521408
000160 6c 54 c3 bd 64 70 81 bd 78 71 4d bd 44 43 40 3d
       -0.095375866 -0.06320265 -0.05015704 0.04693915
000170 c8 8a 2d bd e0 9c 79 3c e4 c9 7a bd 42 4b 80 bd
       -0.04236868 0.015235156 -0.061227694 -0.06264354
000180 88 7e ff bc c0 12 37 3c 94 c9 5f 3d 72 db ec bd
       -0.031188264 0.011173904 0.0546356 -0.11565293
000190 00 ca a8 3a 72 12 9a 3d c8 cc 57 bd b0 f1 dc 3c
       0.0012877584 0.075230494 -0.05268553 0.026970714
0001a0 d0 c3 03 bd 10 18 30 3d c8 5e d6 3d 5f d8 cb 3d
       -0.032169163 0.042991698 0.10467297 0.09953379
0001b0 86 2c ce bd 9a a8 b5 3d a2 12 d4 3d 84 46 ca 3d
       -0.10067086 0.08870049 0.103551164 0.09876731
0001c0 68 9d c5 3d 46 c1 9e bd ac 08 17 bd 92 ea c3 3d
       0.096491635 -0.07751708 -0.036873505 0.09566225
0001d0 ec 17 9b bd 58 b2 d3 bd 3a 61 b2 3d 18 45 98 bd
       -0.07572922 -0.10336751 0.08709951 -0.074350536
0001e0 32 26 af 3d 40 a2 b2 bb 68 aa f4 3c 1c 01 23 bd
       0.08552207 -0.0054514706 0.029866412 -0.03979598
0001f0 4c d2 79 bd 80 de b3 bc 90 ad fd bc 3c ff 68 3d
       -0.06099157 -0.021956682 -0.03096655 0.056884035
000200 3e a7 bf 3d 48 f7 d3 bd c0 22 31 bc f8 9f 3d 3d
       0.09358071 -0.103498995 -0.010811508 0.046295136
000210 b8 d5 01 bd f4 e3 da bd 4e 93 f9 3d fb 03 fb 3d
       -0.03169796 -0.1068801 0.12186299 0.122566186
000220 b4 8f af 3d 80 32 8e 3b 94 94 27 bd 80 23 96 ba
       0.08572331 0.004339516 -0.04091318 -0.0011454672
000230 8c 1b 87 3d f0 a4 e7 bd 8c 30 f6 3d 30 76 4b 3d
       0.06597051 -0.11310756 0.12020978 0.04967326
000240 68 37 e8 bc 62 23 fa bd 18 42 5b bd 98 16 10 3d
       -0.028346732 -0.1221378 -0.05352983 0.035177797
000250 70 f4 f3 bc e8 67 d7 3d a8 fd 9d 3d 4c df 81 bd
       -0.029779643 0.105178654 0.07714397 -0.063414186
000260 ec fd d7 3d c8 62 1a bd 00 4d 04 ba c0 8a 57 3c
       0.10546479 -0.03769186 -0.0005046874 0.013155639
000270 92 da e2 3d e6 b2 c2 bd 80 16 ae bc e8 6e ed bc
       0.11076845 -0.095067784 -0.021250963 -0.028983548
000280 a8 d6 3e 3d 02 ce d5 3d a2 29 93 3d 70 c0 31 3d
       0.04659143 0.104396835 0.07185675 0.043396413
000290 08 a4 85 bc a8 71 27 3d 08 1d cf bc 64 40 68 bd
       -0.016313568 0.040879875 -0.025282398 -0.056702033
0002a0 bc 4d c4 bd f4 5b 8c 3d 00 93 fa 3a 0a 74 1d bd
       -0.09585139 0.06853476 0.0019117296 -0.03844074
0002b0 d4 5b 3b 3d 40 de 31 3d 90 6c ad 3d a8 7e 88 bc
       0.04574187 0.043424845 0.08467972 -0.016661957
0002c0 3a 4f a8 3d 30 d2 12 bc 0c 5e 10 3d 00 bb cd 3b
       0.08218236 -0.008961245 0.03524594 0.0062783957
0002d0 60 b7 a3 bd 0a 78 9b bd 00 e4 8d bb 30 7a 57 3d
       -0.079939604 -0.07591255 -0.0043301582 0.05260676
0002e0 60 d7 33 3d d0 11 fe bc 7a 37 de bd 00 7c 0a 3d
       0.04390657 -0.031014353 -0.10850425 0.033809662
0002f0 b0 98 8f 3c c0 47 89 bd b0 7e 9b 3c 58 5a dd bd
       0.017528862 -0.06703138 0.018981308 -0.10808247
