models/gru_encoder/checkpoint/trained_irdpg_80.pth (torch, 409346 bytes, 22 tensors)

weight_ih_l0 f4 [192, 64]
0.120284855 0.041816615 0.10522344 0.03388895 0.08784953 0.0667849 -0.028566997 0.038827777
0.10272913 -0.009850651 -0.029225122 -0.09708199 -0.023525259 0.012210906 -0.003943511 0.01634261
-0.007699748 0.046478502 -0.039736863 -0.031828105 0.06344974 -0.089348495 -0.129624 -0.042814277
-0.10261206 0.076311454 0.1029824 -0.073780894 -0.07655594 0.026589125 -0.041643836 -0.08081534
-0.019731874 0.034046084 -0.1081549 -0.015177633 -0.024329474 -0.11126174 0.11622824 0.06588
-0.065006614 -0.11489074 0.12541266 5.77489e-05 0.06592654 0.026975885 -0.069565356 0.09822419
-0.07167355 -0.06731012 0.11188489 -0.098545745 0.103658654 0.07541212 0.057389155 -0.04679694
-0.034528747 0.111522526 0.11507407 0.10046984 0.112508036 0.024554506 -0.0054777116 -0.09238929
-0.056437984 0.08006354 -0.043171406 -0.055734754 -0.06360292 0.09302487 -0.10819784 -0.034613863
0.054884255 0.037604198 0.11684941 -0.056812793 -0.04324305 0.033605445 0.065923646 -0.080605745
0.05024557 -0.024379702 -0.08134037 0.06593968 -0.007624174 -0.09569697 -0.04736288 0.041438352
0.023920212 0.056253295 -0.067668125 -0.110878274 -0.11658394 -0.06144838 0.1156545 0.0072424025
-0.12059648 0.06302975 -0.1035436 0.056337837 0.11289782 -0.0077048987 -0.0896917 -0.12243666
0.1260911 -0.09538624 0.10423797 0.082846224 0.03640357 -0.07548356 -0.11818744 0.111443415
0.030807458 0.01867135 -0.12289816 -0.022685872 -0.100402474 0.06472868 -0.09105742 -0.09216356
-0.079008415 0.122035354 -0.06311096 0.05495003 0.013433628 0.012556645 0.00070507824 0.09009068
-0.02217992 0.027184943 -0.10116852 -0.0140673965 -0.1162402 -0.09452258 0.05028465 -0.044260472
0.008259833 -0.009796992 0.08864528 -0.11204663 0.019249566 -0.06377426 0.0009001895 -0.119247586
-0.044333577 0.048577666 -0.05172343 0.032119885 0.07778107 -0.07144311 0.039961785 -0.10809042
0.12099357 -0.06539958 -0.039488465 0.09326111 -0.06593284 -0.10785991 -0.05854304 -0.009122198
0.071486264 -0.09273228 -0.056484718 -0.054807507 0.04080343 0.09085286 -0.052403003 0.01264675
-0.050065856 -0.062107235 0.104212485 -0.008119649 -0.014647128 0.091824576 0.09691135 0.09557742
-0.0030106327 -0.01328899 -0.08404301 -0.11488535 -0.07633022 -0.010991154 -0.015047857 0.086449124
-0.05748242 -0.1076124 -0.04711604 0.0072086076 0.06359229 0.06256179 -0.007820293 -0.009462641
0.11513478 0.0050750487 -0.039130777 -0.1190795 0.04598666 -0.06759534 0.105601065 0.04503092
0.04836376 0.0131729245 0.05075049 0.12450485 -0.0013156952 0.124222815 0.062452964 -0.09911215
0.101224564 0.0429845 -0.11142858 -0.05676195 -0.10207245 -0.0740094 -0.0024580483 0.010745869
0.058947336 0.047755845 -0.0115903765 0.10494076 0.021832913 0.030804738 0.11675801 -0.076311804
0.120718434 0.025741518 -0.042222545 -0.12671067 -0.08449424 -0.0005478263 -0.10516116 0.017266586
-0.1129865 -0.042889223 -0.104051284 0.12247764 -0.04194834 0.021461532 0.060529765 -0.0073898435
0.036734574 0.12038887 0.02000226 -0.0914121 -0.06265878 0.09197161 0.095874205 -0.1181222
-0.041165467 -0.10054743 -0.00090546906 -0.120507464 -0.10141945 0.04934265 -0.015272394 -0.07811802
00000000: e857 f63d e647 2b3d 637f d73d 24cf 0a3d
00000010: 74ea b33d 86c6 883d 5605 eabc e009 1f3d
00000020: a663 d23d a064 21bc 8669 efbc ecd2 c6bd
00000030: 0bb8 c0bc 4010 483c 9138 81bb f0e0 853c
00000040: 2b4e fcbb 3e60 3e3d 1fc3 22bd 305e 02bd
00000050: f0f1 813d 58fc b6bd 27bc 04be 065e 2fbd
00000060: 4626 d2bd 2e49 9c3d 70e8 d23d 701a 97bd
00000070: 5cc9 9cbd 70d1 d93c ba92 2abd 8382 a5bd
00000080: bda4 a1bc e873 0b3d 5180 ddbd 9bab 78bc
00000090: 9b4e c7bc 32dd e3bd 1209 ee3d 18ec 863d
000000a0: 3022 85bd d64b ebbd 2d6c 003e 6937 7238
000000b0: 7e04 873d 88fc dc3c 4878 8ebd c429 c93d
000000c0: 95c9 92bd e3d9 89bd e823 e53d 5ad2 c9bd
000000d0: fd4a d43d ab71 9a3d e410 6b3d 26ae 3fbd
000000e0: 046e 0dbd ec65 e43d f4ab eb3d 22c3 cd3d
000000f0: 9d6a e63d 8826 c93c 607e b3bb 9936 bdbd
00000100: 842b 67bd 5af8 a33d 80d4 30bd 204a 64bd
00000110: 3f42 82bd d383 be3d d496 ddbd 44c7 0dbd
00000120: 50ce 603d dc06 1a3d be4e ef3d 88b4 68bd
00000130: a01f 31bd dda5 093d fa02 873d a014 a5bd
00000140: 4cce 4d3d f1b7 c7bc c895 a6bd 620b 873d
00000150: 35d4 f9bb c6fc c3bd 94ff 41bd 43bb 293d
00000160: 52f4 c33c db69 663d 9695 8abd 2614 e3bd
00000170: 90c3 eebd 4cb1 7bbd 44dc ec3d ad51 ed3b
00000180: 4afb f6bd be15 813d ab0e d4bd 81c2 663d
00000190: f936 e73d 6079 fcbb 48b0 b7bd 12c0 fabd
000001a0: 061e 013e dc59 c3bd b87a d53d 48ab a93d
000001b0: e91b 153d 2097 9abd 420c f2bd 723c e43d
000001c0: ec5f fc3c a9f4 983c 08b2 fbbd b9d7 b9bc
000001d0: d09f cdbd 7890 843d 507c babd 40c0 bcbd
000001e0: 2acf a1bd aced f93d 5240 81bd 4813 613d
000001f0: b818 5c3c 63ba 4d3c 00d5 383a 7681 b83d
00000200: aab2 b5bc f5b2 de3c 7131 cfbd f07a 66bc
00000210: 580f eebd 0e95 c1bd 47f7 4d3d 784a 35bd
00000220: 4054 073c 9083 20bc a88b b53d b478 e5bd
00000230: 44b1 9d3c 149c 82bd b2fa 6b3a 1438 f4bd
00000240: 2097 35bd 60f9 463d f3db 53bd 2490 033d
00000250: ae4b 9f3d c450 92bd f8ae 233d 835e ddbd
00000260: 7acb f73d 37f0 85bd a8be 21bd aeff be3d
00000270: cc07 87bd a8e5 dcbd d4ca 6fbd 4675 15bc
00000280: 6467 923d 6cea bdbd 855c 67bd d67d 60bd
00000290: 7f21 273d 1011 ba3d 88a4 56bd 5034 4f3c
000002a0: db11 4dbd 2864 7ebd 5b6d d53d 4708 05bc
000002b0: 82fa 6fbc 860e bc3d 7579 c63d 18be c33d
000002c0: 094e 45bb 10ba 59bc be1e acbd 0349 ebbd
000002d0: 0553 9cbd 3e14 34bc 498b 76bc 3d0c b13d
000002e0: b072 6bbd e463 dcbd c0fc 40bd 2f36 ec3b
000002f0: ad3c 823d 6520 803d b020 00bc 3109 1bbc
00000300: c9cb eb3d 984c a63b 9847 20bd f4df f3bd
00000310: 825c 3c3d 6d6f 8abd 5f45 d83d 5872 383d
00000320: 1419 463d 40d3 573c bfdf 4f3d 66fc fe3d
00000330: 6873 acba 8868 fe3d aece 7f3d 50fb cabd
00000340: d34e cf3d 8410 303d ab34 e4bd 387f 68bd
00000350: 5c0b d1bd 3e92 97bd 3517 21bb 710f 303c
00000360: c372 713d a29b 433d 90e5 3dbc 2eeb d63d
00000370: f0da b23c 385a fc3c d31e ef3d 5d49 9cbd
00000380: 3a3b f73d e0df d23c 8cf1 2cbd 71c0 01be
00000390: 510b adbd 009c 0fba bc5e d7bd a872 8d3c
000003a0: 7765 e7bd 9cac 2fbd d718 d5bd 8fd5 fa3d
000003b0: 06d2 2bbd 18d0 af3c 0fee 773d 8026 f2bb
000003c0: fe76 163d 718e f63d c8db a33c 4436 bbbd
000003d0: 3f53 80bd 9d5b bc3d b259 c43d 0dea f1bd
000003e0: 1f9d 28bd d0eb cdbd 005d 6dba 9ecc f6bd
000003f0: 00b5 cfbd 851b 4a3d 1039 7abc 57fc 9fbd

weight_hh_l0 f4 [192, 64]
-0.0025576348 0.08974852 0.10656963 0.06677723 -0.11551279 -0.11381179 0.09777822 0.030096151
0.07733352 -0.111111574 -0.042581182 -0.024424998 -0.0660602 -0.087631516 0.06497941 -0.03344496
-0.03251779 0.0698905 -0.10972969 -0.04708947 -0.04892123 -0.0014847423 -0.034994602 0.075356655
-0.025423713 -0.1061619 0.027134348 0.07070932 -0.005849593 0.016016796 -0.06524025 0.015065886
-0.07144914 -0.12545218 0.06681515 -0.061274838 0.07468946 -0.036568683 0.062093556 -0.012966308
0.06901237 -0.09243598 -0.05400602 -0.036664728 -0.11137442 0.08202834 0.080853656 -0.047456563
-0.10679601 0.045306157 -0.104639314 0.1144277 0.005343402 -0.01611101 0.10921961 -0.07386271
-0.11864845 -0.098788664 -0.06257178 -0.059166145 -0.035569623 -0.028018873 -0.10489355 -0.100835174
0.09396243 0.06816519 -0.035429943 0.101963624 0.05008964 0.11217434 -0.096035585 0.09550376
-0.08679895 0.023295747 -0.04284959 -0.0012999644 -0.033770308 -0.13285196 0.03445007 -0.055260647
0.06174829 -0.05965052 -0.038946457 -0.062117033 -0.05890823 0.05361115 -0.06750486 -0.022239882
-0.110710636 -0.05112382 -0.10842124 0.028611401 -0.043028012 -0.10901423 0.11783725 -0.11667743
-0.051416233 0.112002775 0.022049537 0.07199654 0.0063488716 0.117844895 0.09238981 0.0661068
-0.019525787 -0.11157404 -0.06413528 -0.12742722 -0.10616771 0.03864345 0.061923333 0.07087952
-0.010509125 -0.02649412 -0.11234734 -0.085723154 0.014403687 0.07901081 0.069000676 -0.0068829833
-0.06898196 -0.08646437 -0.11062068 -0.008639254 -0.027391613 -0.027857933 -0.106623754 0.009173158
-0.023284616 0.10491434 0.047160234 -0.060908508 -0.090178385 -0.07906346 -0.056430724 -0.05044244
-0.07916167 -0.034282453 0.031392466 0.014553183 0.002400259 0.015771836 -0.03458999 -0.027243199
-0.11296559 0.042361703 -0.09647672 0.08642488 -0.08801174 0.0930769 0.10921905 0.08590436
-0.099360935 -0.05734776 0.0033253983 0.020350538 0.10928855 0.11294128 -0.09842544 0.04869097
-0.10165523 -0.09174373 -0.05351101 -0.06253089 0.043275878 0.0030879981 0.09641091 0.116974816
-0.05757589 0.076717794 0.11829634 0.052304074 0.11825423 0.09392036 -0.07969836 -0.03712426
-0.047052104 -0.08692598 0.11233508 -0.04771431 -0.028495254 -0.041280873 0.10168551 -0.098894924
-0.009758571 -0.12856755 -0.04963095 0.003836885 -0.014064015 -0.023414012 -0.10617274 -0.008449533
0.119615614 0.029169105 -0.039593037 0.0869288 -0.067647144 0.112487115 -0.105864234 0.09115581
0.03531839 -0.030016119 -0.08025261 0.068840496 -0.10642854 0.09128676 0.019651262 0.09194757
0.090142146 0.008306374 -0.077520475 -0.018699111 -0.113916025 0.02093151 -0.07544564 -0.037824716
-0.12686999 0.10535954 -0.07584926 0.10660885 -0.10128981 0.11891295 0.12061355 0.024291761
-0.07843065 0.09197331 0.011014646 0.07263562 -0.04778682 -0.114477165 -0.021684151 0.032510895
-0.03606758 -0.05740342 -0.035176937 -0.078567475 0.06623876 0.06314883 0.07182485 0.11095066
0.081759304 -0.034701414 0.0461664 -0.044750158 -0.0012293214 0.0782012 0.07674818 0.092448
-0.033350296 -0.006665266 0.019372908 -0.007347943 -0.011804903 0.0859548 -0.03993491 -0.061619278
00000000: fe9d 27bb 12ce b73d 2e41 da3d 80c2 883d
00000010: f891 ecbd 2816 e9bd f33f c83d 348c f63c
00000020: 0961 9e3d 778e e3bd 9b69 2ebd ef16 c8bc
00000030: 924a 87bd 2778 b3bd ed13 853d 95fd 08bd
00000040: 6031 05bd c022 8f3d f6b9 e0bd e3e0 40bd
00000050: a161 48bd af9b c2ba 8056 0fbd 9754 9a3d
00000060: 6445 d0bc 696b d9bd da48 de3c 0cd0 903d
00000070: f1ad bfbb a835 833c ae9c 85bd e8d6 763c
00000080: ed53 92bd 8976 00be 62d6 883d 53fb 7abd
00000090: caf6 983d 0bc9 15bd d055 7e3d a370 54bc
000000a0: 5c56 8d3d 134f bdbd 6b35 5dbd c12d 16bd
000000b0: 4618 e4bd 79fe a73d 9a96 a53d d061 42bd
000000c0: deb7 dabd f392 393d 234d d6bd 1259 ea3d
000000d0: b417 af3b 3dfb 83bc 88ae df3d 5545 97bd
000000e0: f5fd f2bd b651 cabd a225 80bd 3358 72bd
000000f0: 74b1 11bd d687 e5bc 6ed2 d6bd ac82 cebd
00000100: 606f c03d 319a 8b3d fd1e 11bd 4ed2 d03d
00000110: cb2a 4d3d a9bb e53d 4eae c4bd 7a97 c33d
00000120: a6c3 b1bd b9d6 be3c 0d83 2fbd 9163 aaba
00000130: bc52 0abd 580a 08be 841b 0d3d fd58 62bd
00000140: c6eb 7c3d 1b54 74bd 5286 1fbd 6e6e 7ebd
00000150: c249 71bd 5d97 5b3d fd3f 8abd 6a30 b6bc
00000160: 42bc e2bd 3667 51bd f40b debd 7562 ea3c
00000170: 243e 30bd da42 dfbd a854 f13d 94f4 eebd
00000180: d499 52bd b661 e53d 3ba1 b43c ec72 933d
00000190: 320a d03b aa58 f13d de36 bd3d 0163 873d
000001a0: 8bf4 9fbc ee80 e4bd 5c59 83bd 487c 02be
000001b0: 756e d9bd 9848 1e3d 52a3 7d3d 4829 913d
000001c0: 772e 2cbc 320a d9bc 5d16 e6bd 9f8f afbd
000001d0: 71fd 6b3c 6bd0 a13d 3a50 8d3d a68a e1bb
000001e0: 6a46 8dbd 3b14 b1bd 188d e2bd a88b 0dbc
000001f0: 6064 e0bc 5236 e4bc 8e5d dabd 034b 163c
00000200: 61bf bebc 54dd d63d 172b 413d 337b 79bd
00000210: 72af b8bd 06ec a1bd e723 67bd bb9c 4ebd
00000220: 831f a2bd c26b 0cbd 6395 003d 7970 6e3c
00000230: aa4d 1d3b f033 813c 3cae 0dbd 212d dfbc
00000240: 815a e7bd 7783 2d3d 9695 c5bd 87ff b03d
00000250: 803f b4bd 1a9f be3d 3dae df3d a0ee af3d
00000260: bf7d cbbd 7ce5 6abd edee 593b 2cb6 a63c
00000270: add2 df3d c24d e73d 4793 c9bd 2f70 473d
00000280: 9e30 d0bd 23e4 bbbd 5c2e 5bbd 3210 80bd
00000290: 0c42 313d 0360 4a3b 1573 c53d 7e90 ef3d
000002a0: b2d4 6bbd 381e 9d3d 5a45 f23d cc3c 563d
000002b0: 462f f23d 5159 c03d e538 a3bd 9c0f 18bd
000002c0: b5b9 40bd 4006 b2bd ef0f e63d 1570 43bd
000002d0: e16e e9bc 2216 29bd 7e40 d03d 6c89 cabd
000002e0: 6ae2 1fbc 36a7 03be d349 4bbd 4074 7b3b
000002f0: c16c 66bc bece bfbc 1871 d9bd e96f 0abc
00000300: 08f9 f43d 0cf4 ee3c 4f2c 22bd ba07 b23d
00000310: 968a 8abd a55f e63d 59cf d8bd e6af ba3d
00000320: 04aa 103d 5de4 f5bc 7b5b a4bd 3ffc 8c3d
00000330: 35f7 d9bd 8ef4 ba3d affb a03c 024f bc3d
00000340: 729c b83d 7517 083c 0ec3 9ebd e12e 99bc
00000350: ce4c e9bd 8f78 ab3c 3e83 9abd 17ee 1abd
00000360: 35ea 01be bec6 d73d db56 9bbd be55 da3d
00000370: 0871 cfbd a288 f33d 3d04 f73d 84ff c63c
00000380: 40a0 a0bd 815c bc3d c676 343c fcc1 943d
00000390: 1dbc 43bd 0173 eabd f6a2 b1bc 252a 053d
000003a0: 99bb 13bd d91f 6bbd b115 10bd fce7 a0bd
000003b0: 30a8 873d 2c54 813d e818 933d 1a3a e33d
000003c0: 6c71 a73d 1223 0ebd fb18 3d3d f14b 37bd
000003d0: 2e21 a1ba f327 a03d 262e 9d3d 6155 bd3d
000003e0: 529a 08bd 4e68 dabb efb3 9e3c 03c7 f0bb
000003f0: 5a69 41bc 1209 b03d ca92 23bd 7f64 7cbd

bias_ih_l0 f4 [192]
-0.07097206 -0.06454842 -0.05098574 0.07155407 -0.12536971 0.021495787 0.06472947 -0.11981851
0.040458366 -0.10528889 -0.0073423344 0.038592387 0.12867317 -0.089067385 -0.10650586 0.039820574
0.10220489 0.0059097447 0.03769292 0.051599734 0.089418605 0.082963675 -0.042557716 -0.069762334
0.0813544 -0.005202226 -0.048063796 -0.10978333 0.06167275 0.046680134 -0.01872482 -0.03402236
0.0972395 -0.10928315 -0.05051262 -0.10125441 0.087032065 0.0970814 -0.10463906 0.083739035
-0.05455576 -0.09409144 -0.0071301605 0.061427105 0.08404999 0.088844135 0.04604064 -0.065837465
-0.008289741 -0.019697247 -0.12916464 -0.10411255 0.0017881662 0.096841335 -0.018821808 0.12050126
0.057296786 -0.019061478 0.026306113 -0.0041002547 -0.10065894 0.016618125 0.021884274 0.009315827
-0.06932357 -0.008005405 0.015329454 0.028071076 -0.057835143 0.020908425 0.11463586 0.113946155
0.020830559 -0.09108525 -0.050977692 -0.05732865 4.099012e-05 0.009548058 -0.06730424 -0.087895095
-0.11385737 0.054803193 -0.027991867 -0.06450881 0.12076099 0.08757685 -0.11506637 -0.10458488
0.11236163 0.07126874 -0.11837235 -0.079576306 -0.018513942 -0.05358996 -0.030925613 0.10226911
-0.0032843838 0.07015493 0.10634709 0.07518234 0.10568229 0.11139411 -0.09837721 -0.055487253
0.041293982 0.011745033 0.07339152 -0.017706651 0.089660525 -0.09003173 0.069339946 0.058230642
0.018915728 0.112673126 0.052133456 -0.0070636924 0.10367994 0.017238684 0.05844768 -0.05961682
-0.027116051 -0.003252796 0.011111796 -0.034768652 -0.07734445 -0.016705446 0.12856261 0.06920355
0.03875007 -0.11164761 -0.11415906 -0.08018436 -0.08072811 0.055682275 -0.11709082 0.059059974
-0.10457919 0.03840987 -0.12746453 0.043156598 -0.028586786 -0.031306457 -0.018001225 -0.008871483
0.016861863 -0.058589794 -0.028855113 0.086242445 0.097076535 0.10881245 -0.08066331 0.058686305
-0.03722605 -0.01647053 -0.096056506 0.12590386 0.04888934 -0.054969877 0.08143493 0.051988553
0.114957094 -0.0076175802 0.09135173 -0.0982749 0.07351346 -0.06142305 0.09439102 -0.11979219
0.0116369715 -0.08501215 0.024646027 -0.03933741 0.06021399 -0.04081718 -0.04659149 -0.021807032
0.025032582 0.061756566 0.06445307 0.05003834 0.016124573 -0.07805628 0.060940992 -0.03621162
-0.05478012 0.110902436 0.00139817 -0.08814877 -0.09968476 -0.08128064 -0.09361888 -0.003816764
00000000: cd59 91bd f631 84bd 6cd6 50bd f18a 923d
00000010: eb60 00be ef17 b03c e290 843d 6863 f5bd
00000020: acb7 253d b4a1 d7bd f797 f0bb 0d13 1e3d
00000030: e6c2 033e f668 b6bd bf1f dabd e61a 233d
00000040: cc50 d13d 88a6 c13b e463 1a3d 3e5a 533d
00000050: 1a21 b73d dce8 a93d 0051 2ebd 8edf 8ebd
00000060: 239d a63d 6f77 aabb 8bde 44bd 15d6 e0bd
00000070: 919c 7c3d ab33 3f3d cb64 99bc 085b 0bbd
00000080: 8125 c73d d8cf dfbd 52e6 4ebd 795e cfbd
00000090: de3d b23d 9dd2 c63d 014d d6bd 5f7f ab3d
000000a0: dc75 5fbd 03b3 c0bd 1fa4 e9bb fd9a 7b3d
000000b0: 6722 ac3d eaf3 b53d 1c95 3c3d cbd5 86bd
000000c0: b2d1 07bc 1f5c a1bc bc43 04be f638 d5bd
000000d0: e760 ea3a c054 c63d 3130 9abc 5dc9 f63d
000000e0: 09b0 6a3d d126 9cbc eb7f d73c 6e5b 86bb
000000f0: 4626 cebd bc22 883c a646 b33c 69a1 183c
00000100: 84f9 8dbd 1a29 03bc 6428 7b3c 50f5 e53c
00000110: 8be4 6cbd 2548 ab3c 35c6 ea3d 9a5c e93d
00000120: d9a4 aa3c e78a babd fccd 50bd 72d1 6abd
00000130: ceec 2b38 756f 1c3c ced6 89bd 5802 b4bd
00000140: 0e2e e9bd 5079 603d 334f e5bc 321d 84bd
00000150: 8a51 f73d 7e5b b33d eba7 ebbd 9930 d6bd
00000160: db1d e63d 58f5 913d 346d f2bd e7f8 a2bd
00000170: 8daa 97bc 2581 5bbd b657 fdbc 7872 d13d
00000180: d13e 57bb 63ad 8f3d 81cc d93d 33f9 993d
00000190: f56f d83d 9822 e43d fe79 c9bd 9a46 63bd
000001a0: e123 293d 3d6e 403c 4b4e 963d 8a0d 91bc
000001b0: f09f b73d 8e62 b8bd 1a02 8e3d 4183 6e3d
000001c0: 28f5 9a3c 2bc1 e63d e489 553d 8c76 e7bb
000001d0: 2656 d43d 2438 8d3c d666 6f3d c430 74bd
000001e0: 7b22 debc dc2c 55bb 400e 363c 9369 0ebd
000001f0: c466 9ebd dcd9 88bc eba5 033e 97ba 8d3d
00000200: 65b8 1e3d 81a7 e4bd 3acc e9bd b337 a4bd
00000210: c854 a5bd 1913 643d 50cd efbd dfe8 713d
00000220: 9d2d d6bd ab53 1d3d 1086 02be f9c4 303d
00000230: d62e eabc 333b 00bd 4e77 93bc b259 11bc
00000240: e421 8a3c dafb 6fbd 8f61 ecbc e19f b03d
00000250: 10d0 c63d 10d9 de3d ce32 a5bd 0d61 703d
00000260: 587a 18bd 34ed 86bc 46b9 c4bd f1ec 003e
00000270: 3040 483d 1828 61bd 5bc7 a63d f3f1 543d
00000280: a06e eb3d e59c f9bb 9e16 bb3d 5a44 c9bd
00000290: 3a8e 963d bc96 7bbd 1450 c13d 9c55 f5bd
000002a0: ffa8 3e3c da1a aebd 77e6 c93c 4420 21bd
000002b0: f2a2 763d ea2f 27bd b8d6 3ebd a9a4 b2bc
000002c0: 2111 cd3c 74f4 7c3d f9ff 833d 01f5 4c3d
000002d0: ae17 843c f9db 9fbd 439d 793d a352 14bd
000002e0: 1e61 60bd d120 e33d cd42 b73a 5887 b4bd
000002f0: 8627 ccbd 7776 a6bd 41bb bfbd ad22 7abb

bias_hh_l0 f4 [192]
0.02160733 -0.08258167 -0.056847215 0.1070733 -0.004822184 -0.08966255 0.038862173 0.10900104
-0.053055167 -0.035517972 -0.021406261 -0.05167235 0.08048949 0.075116634 0.10655757 0.09562362
0.08917877 0.06332192 -0.015397929 0.04596258 -0.057200495 0.014881541 0.00025587846 0.02331397
0.050140735 0.11474147 -0.080110736 0.06735948 -0.10205505 0.0797207 -0.056512617 0.12307051
-0.01831249 0.00980764 0.12404478 0.10287585 0.061737116 -0.006921165 -0.063113146 0.11188059
-0.0594714 -0.11489587 -0.039842945 -0.023368355 0.09032727 -0.053456113 0.022768104 0.07411512
-0.044540618 -0.09476222 0.046156775 -0.07188025 0.05844493 -0.062198743 0.059823114 0.081704326
-0.03681801 -0.03681521 -0.03462783 0.06691914 0.056906532 0.0693169 0.07163415 0.04626107
0.117176175 -0.1099467 -0.07639824 0.0015407333 -0.052409966 0.09560282 -0.058954034 0.11209676
0.055111643 0.1013821 -0.0825845 -0.089439064 -0.07526672 0.12183177 -0.03782128 -0.024141906
-0.10342325 -0.05533904 -0.07171843 -0.033748887 -0.079803616 -0.04797487 -0.12963927 -0.12787913
0.090377755 0.005539044 -0.10777052 -0.06293597 0.0036491745 0.019807775 -0.035408895 -0.107302964
-0.10213811 0.08957442 0.017150523 0.10015368 -0.038755387 -0.00441411 -0.015073052 0.014328158
0.13007405 0.05895556 -0.04872617 -0.115319654 -0.070503995 0.11170368 0.041758046 -0.060079288
0.08871678 0.030271051 0.026459362 0.051811144 0.013690427 0.056493547 0.073236905 -0.049293697
-0.023099547 -0.09939502 -0.11053986 0.016691212 -0.04175633 0.006201796 0.061624967 -0.05405848
-0.06284384 -0.053857073 -0.016163506 0.017555103 -0.006554543 0.03150005 -0.07969228 -0.0023077466
-0.11679419 0.024194155 0.0239266 0.11259712 0.031239303 0.06926143 0.01881263 0.036601517
0.08358948 0.040524963 0.07496001 0.11040338 -0.10355095 -0.012314012 -0.118105255 -0.05526593
0.07014463 -0.063520186 -0.10516139 -0.049636252 -0.101241 -0.11226511 0.038297158 -0.06224005
-0.08411005 -0.031130258 -0.06470459 -0.023203118 0.06489306 0.047846813 -0.08108401 -0.08885387
-0.0014881252 0.06789546 -0.09307415 0.021990186 -0.11057622 0.038326435 0.0869166 0.017650006
-0.11507446 0.020388197 0.065045424 0.025307253 0.106065154 -0.10595378 0.09691963 0.11502476
0.08390838 -0.029245282 -0.015286141 -0.10409895 -0.09377468 0.078071736 -0.09879837 -0.01544733
00000000: db01 b13c 9420 a9bd a0d8 68bd 3f49 db3d
00000010: 6903 9ebb 00a1 b7bd f12d 1f3d f03b df3d
00000020: 6050 59bd 4b7b 11bd 2f5c afbc 63a6 53bd
00000030: acd7 a43d c0d6 993d db3a da3d 51d6 c33d
00000040: 5ca3 b63d ecae 813d 9847 7cbc 4243 3c3d
00000050: 114b 6abd b5d1 733c 6d27 8639 f0fc be3c
00000060: 5f60 4d3d 93fd ea3d 1911 a4bd c4f3 893d
00000070: 3d02 d1bd 9b44 a33d c679 67bd 640c fc3d
00000080: 1304 96bc 39b0 203c 310b fe3d 93b0 d23d
00000090: 0fe0 7c3d f1ca e2bb 7741 81bd a721 e53d
000000a0: 4898 73bd 874e ebbd 5b32 23bd fe6e bfbc
000000b0: 81fd b83d ccf4 5abd 2d84 ba3c abc9 973d
000000c0: 3970 36bd b212 c2bd e30e 3d3d f435 93bd
000000d0: f363 6f3d 1cc4 7ebd 1509 753d 9954 a73d
000000e0: 7bce 16bd 8ccb 16bd e9d5 0dbd e70c 893d
000000f0: d316 693d 05f6 8d3d edb4 923d 3f7c 3d3d
00000100: 10fa ef3d bc2b e1bd ae76 9cbd 6ef2 c93a
00000110: d5ab 56bd 69cb c33d c979 71bd fc92 e53d
00000120: bfbc 613d 6ba1 cf3d 1022 a9bd d42b b7bd
00000130: 7025 9abd ef82 f93d 7dea 1abd 3fc5 c5bc
00000140: 92cf d3bd 30ab 62bd 1de1 92bd 463c 0abd
00000150: 1470 a3bd 4c81 44bd 28c0 04be bff2 02be
00000160: f917 b93d de80 b53b cab6 dcbd 93e4 80bd
00000170: fd26 6f3b ea43 a23c eb08 11bd a8c1 dbbd
00000180: c92d d1bd cb72 b73d 417f 8c3c 5f1d cd3d
00000190: f8bd 1ebd 3da4 90bb f6f4 76bc a7c0 6a3c
000001a0: 2232 053e 637b 713d 1895 47bd b62c ecbd
000001b0: 6664 90bd e6c4 e43d 7c0a 2b3d b315 76bd
000001c0: 25b1 b53d fffa f73c 4ec1 d83c ec37 543d
000001d0: d04d 603c c765 673d 3bfd 953d 30e8 49bd
000001e0: 433b bdbc 9e8f cbbd b962 e2bd 02bc 883c
000001f0: af08 2bbd 6f38 cb3b 766a 7c3d 6d6c 5dbd
00000200: 45b4 80bd 3c99 5cbd 5469 84bc b8cf 8f3c
00000210: 7ec7 d6bb 3206 013d b535 a3bd 903d 17bb
00000220: cb31 efbd d232 c63c b801 c43c 5299 e63d
00000230: 91e9 ff3c f0d8 8d3d f21c 9a3c 79eb 153d
00000240: f630 ab3d 81fd 253d a284 993d 2b1b e23d
00000250: 8512 d4bd b6c0 49bc 2be1 f1bd 875e 62bd
00000260: fda7 8f3d df16 82bd db5e d7bd 624f 4bbd
00000270: 7157 cfbd 40eb e5bd 7bdd 1c3d 6cef 7ebd
00000280: e441 acbd e204 ffbc d783 84bd 7714 bebc
00000290: a7e6 843d 05fb 433d 600f a6bd 05f9 b5bd
000002a0: 320d c3ba c60c 8b3d a99d bebd c324 b43c
000002b0: c975 e2bd 2efc 1c3d 5501 b23d bf96 903c
000002c0: 29ac ebbd 2605 a73c 8936 853d 2851 cf3c
000002d0: b038 d93d 4cfe d8bd cd7d c63d 1a92 eb3d
000002e0: 28d8 ab3d cd93 efbc b972 7abc d531 d5bd
000002f0: f00c c0bd 13e4 9f3d cd56 cabd cc16 7dbc

weight f4 [2, 64]
0.08310319 -0.010461448 0.0712185 -0.004719879 -0.05930247 0.045695357 0.09127974 0.049456935
0.020990351 0.059507336 -0.0068382225 0.07624405 0.020930722 0.04331503 0.07381326 -0.08786899
0.08410483 0.028527543 -0.093794614 0.02552968 -0.08981652 -0.054481868 0.11577287 -0.11371326
-0.004774347 0.03584885 0.0595154 -0.06110277 0.10814393 0.048451368 0.09126801 -0.08459371
-0.047346488 0.008264106 -0.08031365 0.08803356 0.08383201 0.109762944 0.01681783 0.07823361
0.019891758 0.109594464 -0.021655956 0.060512062 0.029787267 0.08033296 -0.11121765 0.012984399
-0.10767601 -0.003054407 -0.09204102 -0.04541693 0.12193863 0.021592405 0.12444486 -0.04375335
-0.059956145 -0.050806925 -0.088753305 -0.11925909 -0.07597933 0.090030104 0.038329016 -0.045508042
0.11789805 0.06236876 0.02556381 0.11406228 -0.116978526 0.11569439 0.03135432 0.113252975
-0.10386627 -0.10874171 0.10466274 0.03037071 -0.023950115 -0.0910005 0.11360192 0.0772202
-0.097943105 -0.114481755 -0.09432152 -0.10881734 0.07594734 -0.017953139 0.094091564 0.115508996
0.04110181 0.11571055 -0.073426984 -0.10260682 0.12062756 0.055425387 -0.106786035 -0.03548276
-0.07991734 0.081420295 -0.015202844 0.090379775 0.07603498 -0.11494874 -0.07023408 0.09813426
-0.076787226 0.09021339 0.06476119 0.030710194 0.12089554 0.055453017 0.10356879 0.008029278
0.09533734 -0.11779117 -0.042668816 0.026636226 0.11755441 0.026465463 -0.0928413 0.10570885
0.08303259 -0.09857541 0.108761765 -0.11141365 -0.062032104 -0.017440367 -0.016994024 -0.061080202
00000000: 0132 aa3d 7e66 2bbc 01db 913d 37a9 9abb
00000010: 26e7 72bd 0e2b 3b3d dff0 ba3d 5b93 4a3d
00000020: f5f3 ab3c f7bd 733d 2b13 e0bb d725 9c3d
00000030: e876 ab3c 1a6b 313d 682b 973d a8f4 b3bd
00000040: 273f ac3d 98b2 e93c 6417 c0bd 9f23 d13c
00000050: b9f1 b7bd 6128 5fbd 541a ed3d 7fe2 e8bd
00000060: 2072 9cbb 3ed6 123d 6cc6 733d e646 7abd
00000070: 917a dd3d f174 463d b9ea ba3d 783f adbd
00000080: 64ee 41bd 2c66 073c 7c7b a4bd f04a b43d
00000090: 1eb0 ab3d 65cb e03d 8cc5 893c f138 a03d
000000a0: 0af4 a23c 1073 e03d d567 b1bc 7fdb 773d
000000b0: 6d04 f43c 9b85 a43d 14c6 e3bd 84bc 543c
000000c0: 3d85 dcbd 722c 48bb 0180 bcbd 1a07 3abd
000000d0: f6ba f93d 8ee2 b03c f2dc fe3d b636 33bd
000000e0: 9394 75bd ec1a 50bd 4bc4 b5bd 1c3e f4bd
000000f0: 0d9b 9bbd b461 b83d e3fe 1c3d a466 3abd
00000100: 8874 f13d 6376 7f3d 326b d13c 7c99 e93d
00000110: 7092 efbd 2ef1 ec3d 636d 003d 2df1 e73d
00000120: d7b7 d4bd f9b3 debd 6b59 d63d ffcb f83c
00000130: 0833 c4bc 785e babd 20a8 e83d a025 9e3d
00000140: 6596 c8bd 6975 eabd a42b c1bd a0db debd
00000150: 478a 9b3d 7612 93bc 14b3 c03d fb8f ec3d
00000160: 5f5a 283d a7f9 ec3d e360 96bd 8623 d2bd
00000170: 950b f73d bb05 633d a3b2 dabd 5f56 11bd
00000180: b4ab a3bd afbf a63d 5915 79bc 0819 b93d
00000190: 3ab8 9b3d 3f6a ebbd e3d6 8fbd 9dfa c83d
000001a0: 9f42 9dbd ccc1 b83d 84a1 843d f293 fb3c
000001b0: 1598 f73d b422 633d e01b d43d 3c8d 033c
000001c0: 3940 c33d 7f3c f1bd 7fc5 2ebd 3734 da3c
000001d0: 5ec0 f03d 19ce d83c 9423 bebd e27d d83d
000001e0: fe0c aa3d e8e1 c9bd 7dbe de3d d72c e4bd
000001f0: 6015 7ebd 1adf 8ebc 0d37 8bbc 3c2f 7abd

bias f4 [2]
-0.045923997 -0.09526763
00000000: cd1a 3cbd ad1b c3bd

weight_ih_l0 f4 [192, 66]
-0.13849421 -0.051501747 -0.032174326 0.023563579 0.010707757 0.12369505 0.014405267 -0.047540262
-0.042616546 -0.023846403 -0.08048152 0.022333965 -0.0666046 0.032222934 0.072346725 0.06847566
-0.08054266 -0.060859334 0.028753787 0.04687731 0.012500233 -0.11931199 0.030148068 0.0036542933
-0.04273402 -0.07878984 0.09733212 0.033362985 0.033611044 0.030417308 -0.08005782 0.07314535
0.112602524 0.03490126 -0.07545138 -0.009957549 -0.13862693 -0.09251854 0.11993025 0.032255784
0.06873407 -0.071786255 -0.061760183 -0.037870876 0.037593335 0.12136945 0.081067614 0.09442966
-0.0682113 0.06203372 -0.084473684 0.13358673 0.042985767 -0.073687814 0.0149494875 0.1161951
0.11884845 0.08881579 0.046921507 -0.058424607 0.06799117 -0.08278765 -0.08298777 -0.011959495
0.029094456 -0.11628844 0.016044976 0.016540634 -0.05838477 -0.069664136 0.16025619 0.11850245
-0.03758139 -0.09252314 -0.081596956 0.11552115 -0.10678986 -0.10889897 -0.12687244 0.123663336
0.029252376 -0.09345581 0.09335057 -0.0932368 0.040111333 0.028642982 0.008723352 0.036206454
-0.04703977 -0.0655675 -0.04458581 -0.06776659 0.03747505 0.10263561 0.08292517 0.020602345
0.08294658 0.05247391 -0.047399644 0.059071884 -0.12919018 0.07360598 -0.056379635 -0.09624033
-0.025679186 0.042808607 -0.03394837 -0.033345476 0.12236722 -0.055530343 0.044846676 0.09891178
-0.05228512 -0.124529764 0.008614055 -0.04547186 -0.10182667 -0.05429379 0.0041543804 0.022561723
0.12867159 -0.021275032 -0.0064438013 -0.06639393 -0.025202855 0.00755527 -0.032912415 -0.07188501
-0.02198504 0.053345937 0.028959433 0.15131609 0.006332536 0.046483055 -0.16447923 0.06588313
-0.04363036 0.09326992 0.0030065207 0.079157084 -0.10125299 0.07586023 0.07930269 -0.087395474
-0.1564488 0.17270975 0.015597988 -0.044556856 -0.06744492 -0.010080789 -0.1156397 0.08038144
0.109005146 0.07285653 -0.09222415 0.011915824 -0.16249585 -0.049323883 0.014531791 -0.105398625
0.09362392 -0.09255634 -0.028167931 -0.0115211615 0.035944715 -0.07819204 0.009218745 -0.11214005
0.110781685 -0.07937761 -0.07248038 0.123691306 -0.015282018 0.045322776 0.14124672 0.14405984
-0.09993038 -0.033718944 0.02045773 0.03773181 -0.06077562 0.06764823 0.052723095 0.123131864
-0.012130952 -0.011267653 0.11035657 -0.054028902 -0.12290985 0.025493786 0.053712025 -0.01728485
0.016809897 -0.10899005 -0.06969899 0.052352678 0.122749604 0.08460185 -0.022194583 -0.06502217
-0.050384402 -0.08216667 0.059546176 0.117745265 -0.06282926 0.035109937 0.06738223 0.11264759
-0.00944736 0.013362512 -0.027492432 0.09411823 0.12700184 -0.016761571 -0.06252612 0.005617639
0.027003923 -0.045321062 0.011085472 -0.01095286 -0.013282159 -0.0036487617 -0.05982303 0.01853013
-0.051473677 0.09594533 0.007788196 0.108671755 -0.060166877 -0.054209564 -0.089744985 0.022393063
-0.10100626 -0.053870857 -0.091184415 0.05794254 -0.1044116 -0.004991293 0.06889295 0.032372683
0.040695406 0.07207822 0.027622944 0.053413257 -0.09047622 0.09760687 0.048403192 0.14457874
-0.0078148395 0.021556715 -0.04481717 -0.06495279 0.02010228 0.011332659 0.076095976 0.04038869
00000000: 6dd1 0dbe 7ff3 52bd 3ac9 03bd 6808 c13c
00000010: 976f 2f3c d553 fd3d 1204 6c3c 94b9 42bd
00000020: b08e 2ebd 8859 c3bc 7fd3 a4bd b8f5 b63c
00000030: fe67 88bd 32fc 033d 852a 943d f83c 8c3d
00000040: 8df3 a4bd a347 79bd 108d eb3c 6c02 403d
00000050: c7cd 4c3c d859 f4bd 15f9 f63c de7c 6f3b
00000060: de09 2fbd 915c a1bd 1056 c73d a0a7 083d
00000070: bcab 093d b82d f93c 5bf5 a3bd 3bcd 953d
00000080: 279c e63d a0f4 0e3d 4186 9abd fd24 23bc
00000090: 38f4 0dbe 5c7a bdbd fe9d f53d a41e 043d
000000a0: 73c4 8c3d ac04 93bd 3ff8 7cbd 7e1e 1bbd
000000b0: 78fb 193d 8c90 f83d c706 a63d 5664 c13d
000000c0: 5eb2 8bbd 1217 7e3d 8a00 adbd f6ca 083e
000000d0: d811 303d a3e9 96bd b2ee 743c b2f7 ed3d
000000e0: d166 f33d 0ee5 b53d c430 403d a44e 6fbd
000000f0: f43e 8b3d 928c a9bd 7ef5 a9bd c2f1 43bc
00000100: 7f57 ee3c a228 eebd c170 833c 3980 873c
00000110: de24 6fbd 12ac 8ebd 331a 243e 6ab1 f23d
00000120: f2ee 19bd c67c bdbd 4e1c a7bd 5a96 ec3d
00000130: a4b4 dabd 6c06 dfbd d9ea 01be 3443 fd3d
00000140: aea2 ef3c c265 bfbd 952e bf3d eff2 bebd
00000150: c84b 243d b0a4 ea3c 64ec 0e3c 384d 143d
00000160: c6ac 40bd 4148 86bd 9c9f 36bd 36c9 8abd
00000170: 707f 193d 9e32 d23d acd4 a93d 40c6 a83c
00000180: e6df a93d e2ee 563d 2126 42bd 5cf5 713d
00000190: 6e4a 04be bbbe 963d 55ee 66bd a619 c5bd
000001a0: 285d d2bc 1458 2f3d 720d 0bbd 4495 08bd
000001b0: aa9b fa3d c973 63bd 26b1 373d 4292 ca3d
000001c0: ec28 56bd 7609 ffbd f721 0d3c b340 3abd
000001d0: 808a d0bd 2a63 5ebd 7821 883b 5dd3 b83c
000001e0: 7cc2 033e fa48 aebc 8626 d3bb 8af9 87bd
000001f0: 3876 cebc 3392 f73b 2bcf 06bd 7338 93bd
00000200: f819 b4bc 4581 5a3d 553c ed3c 9bf2 1a3e
00000210: 2a81 cf3b 0465 3e3d 3e6d 28be bced 863d
00000220: c0b5 32bd 4d04 bf3d 0c09 453b 1c1d a23d
00000230: ba5d cfbd 9c5c 9b3d 7369 a23d 66fc b2bd
00000240: 1d34 20be d3da 303e b48e 7f3c 4081 36bd
00000250: 9020 8abd e529 25bc 82d4 ecbd 069f a43d
00000260: 173e df3d ce35 953d 04e0 bcbd 973a 433c
00000270: 5065 26be d707 4abd c016 6e3c 3cdb d7bd
00000280: e6bd bf3d 2e8e bdbd 6fc0 e6bc 41c3 3cbc
00000290: c43a 133d 2623 a0bd 380a 173c afa9 e5bd
000002a0: 82e1 e23d ba90 a2bd 9870 94bd de51 fd3d
000002b0: 6e61 7abc 60a4 393d fba2 103e 6c84 133e
000002c0: 4da8 ccbd e01c 0abd f896 a73c ac8c 1a3d
000002d0: dbef 78bd 288b 8a3d 2cf4 573d 8f2c fc3d
000002e0: e7c0 46bc f69b 38bc a002 e23d 694d 5dbd
000002f0: 29b8 fbbd 58d8 d03c 2401 5c3d f598 8dbc
00000300: e9b4 893c 2d36 dfbd 58be 8ebd c36f 563d
00000310: 2564 fb3d bc43 ad3d 6ad1 b5bc 582a 85bd
00000320: e05f 4ebd 0047 a8bd b1e6 733d 6e24 f13d
00000330: a1ac 80bd 70cf 0f3d b2ff 893d c8b3 e63d
00000340: 1ac9 1abc 70ee 5a3c cf37 e1bc 0fc1 c03d
00000350: c50c 023e 904f 89bc b20d 80bd 2c14 b83b
00000360: 5537 dd3c 94a2 39bd d79f 353c a073 33bc
00000370: 6a9d 59bc 1020 6fbb fe08 75bd 80cc 973c
00000380: 10d6 52bd fc7e c43d 2034 ff3b 4c8f de3d
00000390: 8b71 76bd d90a 5ebd 38cc b7bd a871 b73c
000003a0: 5fdc cebd b0a7 5cbd e5be babd 2855 6d3d
000003b0: c0d5 d5bd 008e a3bb bf17 8d3d 3899 043d
000003c0: 3ab0 263d bf9d 933d 8349 e23c dcc7 5a3d
000003d0: 994b b9bd 1ce6 c73d 6d42 463d 730c 143e
000003e0: d009 00bc b597 b03c 3592 37bd f805 85bd
000003f0: 89ad a43c 9eac 393c 35d8 9b3d 9c6e 253d

weight_hh_l0 f4 [192, 64]
0.041618615 0.034619633 -0.03123969 0.08150897 -0.12469085 0.021690087 0.14998192 -0.04947554
0.003194431 0.007123171 0.04284848 -0.054052226 -0.111701734 -0.06030731 -0.05883404 0.13174991
0.062389955 0.057067156 -0.11122157 -0.033184282 -0.0007157123 0.029924693 -0.00014892533 0.044262443
0.12151699 -0.017222805 -0.072672725 0.067319036 0.12673487 0.12025864 -0.06733779 0.084762804
-0.1778403 0.012899697 -0.17599209 0.09209847 -0.11148914 -0.035572205 0.094041884 0.10397867
-0.1081681 -0.12765779 0.043867745 0.04175973 0.06434934 -0.024804845 0.11003862 -0.014957203
-0.11114484 0.01898437 0.13927999 0.13208382 -0.035368744 0.11139627 0.023048254 -0.08193276
-0.00043371168 0.026668034 0.069889985 0.04889378 0.07729324 0.029972227 -0.035067547 -0.0037917919
-0.06054697 0.044082943 -0.01875394 -0.11081486 0.17467791 0.09653284 0.07383753 -0.05410938
0.042789552 0.047332834 -0.10403849 0.1110591 0.028051766 0.09891019 -0.10392057 0.056162935
-0.17273262 -0.08988742 -0.024755178 -0.10788689 -0.121348135 -0.07345979 -0.05040884 0.10071359
0.0074440874 -0.05955312 0.0057377806 -0.09227221 -0.11449263 0.062619194 -0.017983165 -0.12505071
-0.014672566 -0.031212447 0.12681566 0.09480482 0.08827478 0.07085943 0.058540717 -0.0631702
0.13186932 -0.0049741548 -0.025561186 -0.048096575 -0.073696375 -0.106101334 0.08442256 0.115573354
0.07023205 -0.02752543 0.027765337 -0.08945098 0.028147403 0.067673765 0.12582418 0.0032096745
0.12911145 0.08782875 -0.07169478 0.14536725 -0.013672562 0.0291562 0.09312627 0.049156323
0.14113495 0.03545131 0.09089973 0.016130196 -0.002005224 -0.1301122 0.1075885 -0.009768828
-0.023438236 0.1648352 0.009341168 -0.068695694 0.016153732 -0.13710736 -0.103750944 -0.01318361
-0.063002564 0.05170393 -0.03220193 0.12956843 -0.108087786 -0.07404904 0.09880122 -0.120763846
0.023763578 -0.020210855 0.07265311 -0.07348287 0.0069912057 -0.11316933 0.035869293 -0.08908176
0.091782466 0.015406606 0.05343476 -0.04504279 0.0038911318 0.077593684 -0.14932717 0.0063821813
0.078023605 -0.04405029 0.12600356 0.12104646 0.09697024 -0.03472862 -0.12023231 0.058931652
0.08931572 -0.16087505 0.094939984 -0.074031785 -0.09994697 0.058378033 0.14206198 0.013675191
-0.038643677 0.048586447 0.035814583 -0.095187515 0.060247142 0.09994007 -0.01395289 0.08872696
0.06268859 -0.07004404 -0.08492493 0.000998715 -0.10596619 -0.050043087 -0.11422644 -0.042088296
-0.13467099 0.12719858 -0.08138516 0.070656806 -0.016182845 -0.08789642 0.012557906 0.052401077
-3.0113201e-06 -0.029118119 -0.03388935 -0.00067352585 -0.13414967 -0.02017536 0.10087011 0.07277782
-0.041103624 -0.016808467 -0.05976095 -0.026179893 -0.14695267 0.010204799 0.06691961 0.16723718
-0.101761915 -0.079985574 0.102420524 0.061149742 0.0043876916 0.16299945 -0.03793667 0.069472104
-0.004641643 0.13629776 -0.026242768 0.17477116 0.14813495 -0.12266912 -0.13745476 -0.043711014
-0.06674985 -0.048904173 0.09169519 -0.11209177 0.012708661 0.14078298 0.14392777 0.11746507
-0.08419711 -0.048687425 0.0454401 -0.022099888 0.07827521 0.125949 -0.013338357 -0.024884652
00000000: 4878 2a3d 51cd 0d3d 61ea ffbc 2dee a63d
00000010: eb5d ffbd 69af b13c dc94 193e dda6 4abd
00000020: a959 513b 7d69 e93b e381 2f3d de65 5dbd
00000030: e1c3 e4bd cc04 77bd f6fb 70bd 73e9 063e
00000040: 9c8c 7f3d 40bf 693d 22c8 e3bd 3eec 07bd
00000050: a49e 3bba a124 f53c d728 1cb9 894c 353d
00000060: e6dd f83d d716 8dbc 70d5 94bd 90de 893d
00000070: c9c6 013e 294a f63d 65e8 89bd 1f98 ad3d
00000080: c51b 36be 4059 533c 4537 34be 1f9e bc3d
00000090: 6b54 e4bd 29b4 11bd 0899 c03d c5f2 d43d
000000a0: 3d87 ddbd b9b8 02be aaae 333d 400c 2b3d
000000b0: 96c9 833d 8833 cbbc ee5b e13d 0e0f 75bc
000000c0: e89f e3bd 1c85 9b3c 6a9f 0e3e fb40 073e
000000d0: d1de 10bd ba23 e43d b1cf bc3c 5dcc a7bd
000000e0: cc63 e3b9 ec76 da3c 7b22 8f3d d844 483d
000000f0: eb4b 9e3d 5188 f53c fda2 0fbd b67f 78bb
00000100: 1a00 78bd 5190 343d dda1 99bc e7f2 e2bd
00000110: c4de 323e 02b3 c53d 2238 973d cca1 5dbd
00000120: 1944 2f3d 13e0 413d 2212 d5bd f472 e33d
00000130: d1cc e53c 6d91 ca3d 4fd4 d4bd 1b0b 663d
00000140: d2e0 30be e516 b8bd 5fcb cabc cdf3 dcbd
00000150: 5f85 f8bd 1672 96bd 8079 4ebd ed42 ce3d
00000160: 88ed f33b f9ed 73bd fe03 bc3b 36f9 bcbd
00000170: 1d7b eabd 7e3e 803d 6e51 93bc 4b0d 00be
00000180: 3465 70bc 3fb1 ffbc f7db 013e 0829 c23d
00000190: 68c9 b43d c01e 913d 64c8 6f3d 615f 81bd
000001a0: c008 073e 3cfe a2bb b165 d1bc ea00 45bd
000001b0: 20ee 96bd a84b d9bd bce5 ac3d b9b1 ec3d
000001c0: d2d5 8f3d 037d e1bc 2274 e33c 1332 b7bd
000001d0: 6295 e63c 8b98 8a3d 0ed8 003e 6759 523b
000001e0: cb35 043e 8fdf b33d b6d4 92bd 27db 143e
000001f0: e202 60bc fcd8 ee3c fcb8 be3d 2458 493d
00000200: ae85 103e 6535 113d a329 ba3d 7923 843c
00000210: 146a 03bb 223c 05be 5c57 dc3d 6f0d 20bc
00000220: 8b01 c0bc 8fca 283e b30b 193c 54b0 8cbd
00000230: d554 843c df65 0cbe 607b d4bd 1100 58bc
00000240: 7d07 81bd 80c7 533d 2ce6 03bd 96ad 043e
00000250: 215d ddbd 06a7 97bd 4b58 ca3d 0953 f7bd
00000260: d6ab c23c 3c91 a5bc 27cb 943d 307e 96bd
00000270: 7c16 e53b 52c5 e7bd aeeb 123d 7f70 b6bd
00000280: 72f8 bb3d fd6b 7c3c 68de 5a3d ca7e 38bd
00000290: 5c02 7f3b 70e9 9e3d 39e9 18be 9e21 d13b
000002a0: d7ca 9f3d 146e 34bd 1407 013e 35e7 f73d
000002b0: 5598 c63d 993f 0ebd 5b3c f6bd 5162 713d
000002c0: 29eb b63d 6ebc 24be e56f c23d fa9d 97bd
000002d0: ffb0 ccbd ce1d 6f3d b278 113e e90d 603c
000002e0: d548 1ebd 9502 473d 50b2 123d acf1 c2bd
000002f0: b5c5 763d 61ad cc3d aa9a 64bc 7bb6 b53d
00000300: e062 803d 4073 8fbd 1fed adbd 51e7 823a
00000310: cd04 d9bd fbf9 4cbd 8def e9bd c764 2cbd
00000320: 31e7 09be 5840 023e 43ad a6bd 84b4 903d
00000330: e391 84bc 0a03 b4bd adbf 4d3c 83a2 563d
00000340: 1616 4ab6 1f89 eebc 8fcf 0abd 8e8f 30ba
00000350: 885e 09be cc46 a5bc fd94 ce3d 8a0c 953d
00000360: 465c 28bd e9b1 89bc e6c7 74bd 3777 d6bc
00000370: c37a 16be 0732 273c 260d 893d 3940 2b3e
00000380: 8d68 d0bd 7acf a3bd dac1 d13d 2778 7a3d
00000390: a0c6 8f3b 54e9 263e 7b63 1bbd 6447 8e3d
000003a0: ec18 98bb a491 0b3e 13fb d6bc 36f7 323e
000003b0: b0b0 173e f339 fbbd f1c0 0cbe 520a 33bd
000003c0: 25b4 88bd be4f 48bd b0ca bb3d 5f90 e5bd
000003d0: fd37 503c 6a29 103e cd61 133e 8791 f03d
000003e0: 896f acbd 776c 47bd 661f 3a3d d30a b5bc
000003f0: c14e a03d c6f8 003e 2089 5abc e6da cbbc

bias_ih_l0 f4 [192]
-0.105066635 0.11579641 0.15436378 0.12574849 0.18519232 0.11742501 0.09723965 0.15376253
0.037536412 0.1250237 -0.09053975 -0.0050569936 -0.024525642 0.05582185 0.03963608 -0.090158366
0.047104377 0.03518482 -0.060922742 0.074250214 0.056942485 -0.042522006 0.065115355 -0.07644386
0.043293335 0.16145448 0.0034659891 -0.056901243 -0.03555529 -0.06550903 0.029603869 0.13059738
0.12222585 -0.06380406 0.15334938 0.03164142 -0.08909945 0.037325524 0.045834105 0.105849616
0.160715 -0.055073384 -0.04383512 0.03279875 0.120311625 0.02262161 0.13540098 0.007083513
0.09593153 -0.06306275 -0.03900169 0.07350934 0.04640042 -0.033752255 0.0075504184 0.044043586
0.022186214 -0.04453271 -0.060639847 0.10801846 0.15276398 -0.006931833 0.04969456 0.035007276
-0.026400305 -0.14604552 0.015237411 -0.121772386 -0.13955744 -0.06587823 -0.12965338 -0.0058955657
-0.10283224 -0.009060544 -0.05923424 -0.10726584 0.0125360675 -0.108478196 -0.040245827 -0.088635854
0.008113212 -0.0960185 0.070306286 0.012957283 0.08023865 0.022134809 -0.06940606 0.18273324
-0.14623502 -0.15431823 0.021150576 -0.017884027 0.04038023 -0.059508055 -0.058198348 -0.13315678
-0.07656409 0.027411804 -0.025352227 -0.11782466 -0.016674105 0.021834655 -0.081457846 -0.14793877
0.044649757 -0.14323016 -0.1566476 -0.08152449 0.07231279 -0.04956091 -0.12635633 0.0012951011
0.048140433 -0.16291668 -0.06105439 -0.13815811 -0.12763992 -0.14806445 -0.078865014 -0.06723233
-0.01622899 0.02667602 0.0050777313 0.111768365 -0.112266235 -0.060532242 -0.11469447 -0.031774603
0.09894478 -0.120054446 0.12032924 0.09085768 0.09104342 0.050254956 -0.03531479 -0.08803199
0.02926907 0.13843453 -0.019466547 0.09333281 0.08187682 -0.13951746 0.14203154 -0.088476025
0.0015384478 -0.11596521 -0.08063073 0.027794799 0.07404311 -0.053056676 0.117649525 -0.027312407
-0.025352094 0.07019193 0.13879281 0.02388213 -0.12067467 0.03610641 -0.07186209 -0.092292964
-0.046344694 -0.13366185 -0.0017860746 0.06383516 0.0884303 0.055692006 -0.07682117 0.0548487
0.010250715 -0.07040938 0.083657324 0.111398526 0.11644942 -0.13813478 0.06615855 -0.05098332
0.06721337 -0.06371461 -0.04514643 -0.15050155 -0.14289759 0.14911409 0.019473843 -0.077795066
0.058258403 0.14468136 -0.13869756 -0.06813043 -0.11092922 0.13038178 0.134382 -0.042029258
00000000: 2d2d d7bd ab26 ed3d 8a11 1e3e 36c4 003e
00000010: 0ea3 3d3e 867c f03d 9525 c73d ed73 1d3e
00000020: c8bf 193d 3606 003e e86c b9bd 23b5 a5bb
00000030: 00ea c8bc 74a5 643d 7159 223d f3a4 b8bd
00000040: 85f0 403d f51d 103d 208a 79bd 7f10 983d
00000050: 863c 693d 8e2b 2ebd 335b 853d 998e 9cbd
00000060: 5a54 313d 5354 253e a625 633b 4711 69bd
00000070: 6ca2 11bd 9929 86bd d083 f23c 52bb 053e
00000080: 8c51 fa3d b4ab 82bd 9f07 1d3e 6f9a 013d
00000090: c679 b6bd a6e2 183d 8bbc 3b3d afc7 d83d
000000a0: 7992 243e a194 61bd 748c 33bd fb57 063d
000000b0: f165 f63d f450 b93c 8ea6 0a3e d01c e83b
000000c0: c077 c43d 0b27 81bd 3cc0 1fbd 118c 963d
000000d0: 5e0e 3e3d ce3f 0abd 8069 f73b 0c67 343d
000000e0: ddbf b53c ee67 36bd 7d61 78bd c838 dd3d
000000f0: 296e 1c3e 6e24 e3bb 868c 4b3d ca63 0f3d
00000100: 7445 d8bc f58c 15be 55a6 793c cd63 f9bd
00000110: 25e8 0ebe 2aeb 86bd dbc3 04be 972f c1bb
00000120: b699 d2bd ad72 14bc 9a9f 72bd 31ae dbbd
00000130: 1464 4d3c d129 debd cfd8 24bd b786 b5bd
00000140: 47ed 043c 59a5 c4bd befc 8f3d c94a 543c
00000150: 2954 a43d 0f54 b53c c424 8ebd 6c1e 3b3e
00000160: a2be 15be 9905 1ebe f943 ad3c 8681 92bc
00000170: bd65 253d b8be 73bd 6461 6ebd 405a 08be
00000180: a2cd 9cbd b88e e03c 79af cfbc 0e4e f1bd
00000190: 2298 88bc 97de b23c 5fd3 a6bd 437d 17be
000001a0: aae2 363d edaa 12be 3a68 20be 50f6 a6bd
000001b0: ba18 943d 6100 4bbd 8e63 01be 62c0 a93a
000001c0: e72e 453d a1d3 26be 2b14 7abd 5279 0dbe
000001d0: 0ab4 02be 359e 17be fb83 a1bd 1bb1 89bd
000001e0: a9f2 84bc ab87 da3c 1963 a63b d0e6 e43d
000001f0: d7eb e5bd a8f0 77bd efe4 eabd 1626 02bd
00000200: 90a3 ca3d 1bdf f5bd 2d6f f63d 9713 ba3d
00000210: f974 ba3d 24d8 4d3d 3ea6 10bd 1e4a b4bd
00000220: b0c5 ef3c c8c1 0d3e 4f78 9fbc 4625 bf3d
00000230: 09af a73d aadd 0ebe b770 113e eb32 b5bd
00000240: bea5 c93a 2b7f edbd b921 a5bd ebb1 e33c
00000250: eaa3 973d f551 59bd 3cf2 f03d 45be dfbc
00000260: 32af cfbc c9c0 8f3d b41f 0e3e 75a4 c33c
00000270: 4824 f7bd 51e4 133d 6e2c 93bd 1804 bdbd
00000280: efd3 3dbd a7de 08be b81a eaba 02bc 823d
00000290: f21a b53d 4d1d 643d 6b54 9dbd 08a9 603d
000002a0: 9df2 273c cb32 90bd 8854 ab3d e924 e43d
000002b0: 097d ee3d 3473 0dbe 227e 873d e3d3 50bd
000002c0: 2aa7 893d ce7c 82bd 77eb 38bd 141d 1abe
000002d0: bf53 12be 5db1 183e 9c87 9f3c 0553 9fbd
000002e0: 5da0 6e3d 5a27 143e bc06 0ebe f887 8bbd
000002f0: dc2e e3bd cd82 053e 6f9b 093e df26 2cbd

bias_hh_l0 f4 [192]
0.099113934 0.0443533 0.14620127 0.086057566 0.13870105 0.0414023 -0.04118365 -0.037753362
0.16464472 0.124895595 -0.056975927 -0.02598756 0.09130019 -0.00807593 0.07202915 -0.06708225
0.117355086 0.1488923 0.13496864 -0.0020505353 -0.03811934 -0.090677455 0.05781808 -0.010071741
0.087563835 0.04927897 -0.011395368 -0.016844971 0.06712269 0.0538926 -0.048131373 0.11334353
0.038463794 -0.0114369355 0.15261379 -0.04092614 0.06623876 0.063559905 0.09851586 -0.08299232
0.01908432 0.1256296 -0.019439764 -0.023940295 0.0017251507 0.058931984 0.00051084196 0.15277608
-0.052594602 0.07276571 -0.038952827 -0.011661647 -0.040821504 0.07639788 0.033108827 -0.06168125
0.11570067 0.06419129 0.050162043 -0.0023159576 0.05737648 0.007127439 0.12915541 -0.037848823
-0.10245984 -0.017470045 -0.014644186 -0.019331526 0.081802644 0.073045366 -0.064775094 0.07618195
0.015876232 -0.00033269037 0.019472254 0.054051097 -0.077081464 -0.1012808 0.048452333 -0.011498555
-0.077454 0.027750693 0.043741316 -0.12967935 0.0123129515 -0.13169 -0.058811814 0.0001740008
-0.06448949 -0.012316286 0.041874964 -0.13959548 0.06710726 -0.14733937 -0.13568209 -0.12918653
-0.07463466 -0.06268713 -0.05350764 0.029193819 -0.012909535 -0.08506488 0.081486195 0.0074571082
0.05883632 -0.04474194 0.0557839 0.031121735 -0.06528583 0.009241381 0.084782995 0.034338243
-0.09086928 0.023459824 0.03695439 -0.008378487 -0.12395 -0.06759518 -0.011802556 -0.1358003
-0.06919994 0.10626844 -0.059029248 -0.09755054 -0.15686573 -0.011795334 -0.098733045 -0.07739859
-0.017772287 -0.124387845 0.12465399 -0.08071327 -0.07247311 -0.10696169 0.025323631 0.059119023
-0.0872372 0.07206684 -0.06462409 0.13758853 -0.020334024 -0.0030179142 0.0034604464 0.038087085
0.050198577 -0.027294582 0.10565584 -0.13373657 -0.048612665 0.08122058 0.007653541 0.03363219
0.043470617 0.0032705958 0.05699543 -0.1124694 -0.12480429 -0.0112872105 -0.073366486 0.115017936
-0.04001272 -0.10183565 -0.10421872 -0.120829955 0.021856813 0.10592337 -0.048709016 0.12392878
-0.061611734 -0.027032033 0.007802904 -0.003526251 0.13647962 -0.020936834 -0.029402144 -0.07802422
0.008925614 -0.028547185 -0.041038662 -0.0041935584 -0.15473963 0.03966712 -0.049021885 -0.04907402
0.10771347 0.07498057 0.04887914 -0.017646044 0.11470299 0.108980276 0.103702486 0.038509578
00000000: 3ffc ca3d ceab 353d c9b5 153e f33e b03d
00000010: a607 0e3e 7595 293d 30b0 28bd 45a3 1abd
00000020: a098 283e 43c9 ff3d 975f 69bd dde3 d4bc
00000030: 98fb ba3d e850 04bc 0584 933d 6b62 89bd
00000040: dd57 f03d 3977 183e 3835 0a3e 4662 06bb
00000050: 0623 1cbd 1ab5 b9bd a7d2 6c3d f203 25bc
00000060: ab54 b33d bfd8 493d a3b3 3abc 77fe 89bc
00000070: 9f77 893d 7dbe 5c3d 6725 45bd a720 e83d
00000080: 368c 1d3d fc61 3bbc ca46 1c3e 2ba2 27bd
00000090: 30a8 873d b22b 823d afc2 c93d e1f7 a9bd
000000a0: b856 9c3c 0ca5 003e 2440 9fbc 701e c4bc
000000b0: 741e e23a aa62 713d 06ea 053a 5571 1c3e
000000c0: 706d 57bd 3006 953d 008d 1fbd 7e10 3fbc
000000d0: 7334 27bd 7e76 9c3d 1f9d 073d 7aa5 7cbd
000000e0: 79f4 ec3d b976 833d b776 4d3d 52c7 17bb
000000f0: 9a03 6b3d 4b8d e93b 5141 043e 5e07 1bbd
00000100: 77d6 d1bd 571d 8fbc 2bee 6fbc 265d 9ebc
00000110: 2588 a73d cf98 953d cea8 84bd 4805 9c3d
00000120: df0e 823c f26c aeb9 4784 9f3c af64 5d3d
00000130: e3dc 9dbd 4f6c cfbd f475 463d 6f64 3cbc
00000140: 34a0 9ebd 6c55 e33c 182a 333d aaca 04be
00000150: 43bc 493c bed9 06be a8e4 70bd fc73 3639
00000160: 1113 84bd 3fca 49bc 1585 2b3d 1ef2 0ebe
00000170: 886f 893d 22e0 16be 3ff0 0abe 7949 04be
00000180: 0eda 98bd 1c62 80bd d42a 5bbd e027 ef3c
00000190: 8482 53bc 7f36 aebd 3ce2 a63d c25a f43b
000001a0: 5afe 703d 5343 37bd a97d 643d 02f3 fe3c
000001b0: 94b4 85bd 2969 173c b5a2 ad3d 42a6 0c3d
000001c0: ac19 babd d12e c03c 7d5d 173d ec45 09bc
000001d0: 7fd9 fdbd 576f 8abd 825f 41bc 3c0f 0bbe
000001e0: b3b8 8dbd 45a3 d93d a7c8 71bd 94c8 c7bd
000001f0: 69a1 20be 3741 41bc 8d34 cabd 2783 9ebd
00000200: 3097 91bc 0ebf febd 974a ff3d 004d a5bd
00000210: c86c 94bd bb0e dbbd 8173 cf3c ca26 723d
00000220: 6ba9 b2bd c897 933d a359 84bd 02e4 0c3e
00000230: 8a93 a6bc 33c8 45bb a8c8 623b 3401 1c3d
00000240: 069d 4d3d e398 dfbc 1762 d83d 3df2 08be
00000250: 131e 47bd fa56 a63d 8eca fa3b e8c1 093d
00000260: 3f0e 323d 7e57 563b 0a74 693d 5b56 e6bd
00000270: 6499 ffbd feed 38bc 2b41 96bd 868e eb3d
00000280: 61e4 23bd 368f d0bd a070 d5bd b275 f7bd
00000290: 0f0d b33c 5aee d83d 1b83 47bd 5fce fd3d
000002a0: 965c 7cbd 4872 ddbc 81af ff3b ad18 67bb
000002b0: 50c1 0b3e b983 abbc c4dc f0bc 2acb 9fbd
000002c0: bd3c 123c c9db e9bc 2818 28bd 1e6a 89bb
000002d0: 1174 1ebe fd79 223d 2ccb 48bd d701 49bd
000002e0: e198 dc3d 6a8f 993d 7e35 483d 708e 90bc
000002f0: 67e9 ea3d 0d31 df3d f861 d43d 38bc 1d3d

weight f4 [1, 64]
0.058278758 -0.114998445 0.1030607 -0.12614454 0.0020457308 -0.10925497 -0.13191336 0.0776995
-0.13656208 0.15746155 -0.13144408 0.019438967 0.09952008 -0.15138093 0.07467378 -0.14319068
-0.075767405 -0.14646125 0.06715567 -0.051965952 -0.1463887 -0.14732577 0.13342115 0.029621767
-0.050436847 0.1199168 0.1381309 -0.05955464 -0.14448266 -0.12062341 -0.11755913 0.03259464
0.10404521 -0.01673934 0.1813596 -0.110537246 -0.08024581 0.095421806 0.06852144 0.08809147
-0.018397026 0.07904977 0.15654954 0.05971287 0.07085532 -0.077486604 -0.14439586 -0.049684364
0.0882483 -0.018549634 0.035388976 -0.10573678 -0.12658148 0.1237459 0.046034824 0.022176994
0.11091874 -0.017110346 -0.03294952 0.007850327 0.0283081 0.12222231 0.047029912 -0.03153293
00000000: b5b5 6e3d 4e84 ebbd 7d11 d33d 092c 01be
00000010: ab11 063b 12c1 dfbd 4c14 07be ea20 9f3d
00000020: eed6 0bbe 9a3d 213e 4799 06be 783e 9f3c
00000030: 2fd1 cb3d 9a03 1bbe 91ee 983d 94a0 12be
00000040: f12b 9bbd f0f9 15be e988 893d 40da 54bd
00000050: ebe6 15be 91dc 16be 8e9f 083e 59a9 f23c
00000060: de96 4ebd f096 f53d 3072 0d3e 91ef 73bd
00000070: 43f3 13be 6809 f7bd d7c2 f0bd f581 053d
00000080: a815 d53d f120 89bc 55b6 393e 5a61 e2bd
00000090: ea57 a4bd 826c c33d f854 8c3d 4d69 b43d
000000a0: 5cb5 96bc d9e4 a13d 864e 203e 7b95 743d
000000b0: 981c 913d 4cb1 9ebd 82dc 13be d581 4bbd
000000c0: 86bb b43d 67f5 97bc 08f4 103d 868c d8bd
000000d0: 939e 01be 7e6e fd3d 038f 3c3d 87ac b53c
000000e0: 5d29 e33d ff2a 8cbc 13f6 06bd a89e 003c
000000f0: 63e6 e73c b14f fa3d 70a2 403d ac28 01bd
