models/gru_encoder/checkpoint/trained_irdpg_40.pth (torch, 409346 bytes, 22 tensors)

weight_ih_l0 f4 [192, 64]
0.11746393 0.03683025 0.11020982 0.03388895 0.08296065 0.06860003 -0.033548716 0.038827777
0.10272913 -0.009850651 -0.027938047 -0.09708199 -0.018538887 0.007266751 -0.008933365 0.01634261
-0.0027133748 0.041492138 -0.034756374 -0.031828105 0.065171964 -0.089348495 -0.124637604 -0.037833083
-0.0976294 0.078041464 0.1029824 -0.073780894 -0.07655594 0.026589125 -0.036664113 -0.08580172
-0.020581692 0.034046084 -0.103174604 -0.010188402 -0.029422525 -0.11126174 0.11622824 0.06588
-0.06959425 -0.11489074 0.12042628 -0.004928625 0.0709136 0.026975885 -0.06547416 0.09822419
-0.073401995 -0.07229443 0.11188489 -0.096756734 0.10864504 0.0803985 0.052410245 -0.041810576
-0.029542662 0.111522526 0.11507407 0.10225888 0.115076326 0.029536245 -0.0054777116 -0.09694772
-0.059142694 0.07528185 -0.038389698 -0.055734754 -0.06818598 0.095797405 -0.11297955 -0.034613863
0.054884255 0.037604198 0.1150495 -0.056812793 -0.038461342 0.028823275 0.061135948 -0.080605745
0.055027276 -0.029161405 -0.07655851 0.06593968 -0.00422937 -0.09569697 -0.04258117 0.04622018
0.028697101 0.059035737 -0.067668125 -0.110878274 -0.11658394 -0.06144838 0.120435886 0.0024607028
-0.12269568 0.06302975 -0.09876228 0.061128188 0.10797716 -0.0077048987 -0.0896917 -0.12243666
0.121625416 -0.09538624 0.09945629 0.07806454 0.041186616 -0.07548356 -0.113900624 0.111443415
0.027414141 0.0138893295 -0.12289816 -0.019917252 -0.09562079 0.06951036 -0.0958383 -0.08738188
-0.074229024 0.122035354 -0.06311096 0.057718623 0.014571264 0.017338708 0.00070507824 0.08551247
-0.020450182 0.029962681 -0.10394625 -0.0140673965 -0.11452695 -0.09650884 0.053033944 -0.044260472
0.008259833 -0.009796992 0.0903232 -0.11204663 0.016471827 -0.060998403 0.003647704 -0.119247586
-0.047111303 0.05135539 -0.054473054 0.032119885 0.07563792 -0.07144311 0.03718406 -0.11084977
0.118230805 -0.06738591 -0.039488465 0.09326111 -0.06593284 -0.10785991 -0.061303783 -0.0063444627
0.072265096 -0.09273228 -0.059244 -0.05752727 0.044444375 0.09085286 -0.052403003 0.01264675
-0.046606205 -0.062107235 0.10699022 -0.0053419126 -0.017423414 0.091824576 0.09381425 0.09557742
-0.00087108166 -0.010524488 -0.08404301 -0.11686308 -0.079107955 -0.01376889 -0.012288585 0.08367139
-0.060252324 -0.1076124 -0.04711604 0.00523088 0.06406888 0.059799757 -0.007820293 -0.005965079
0.11463116 0.0019821385 -0.036037862 -0.1190795 0.0437341 -0.06712866 0.10250831 0.04503092
0.04836376 0.0131729245 0.052209463 0.12450485 0.0017772159 0.12119546 0.05938086 -0.09911215
0.10431748 0.039891586 -0.10833576 -0.05676195 -0.10060613 -0.0740094 0.000634863 0.013831604
0.06204761 0.04817349 -0.0115903765 0.10494076 0.021832913 0.030804738 0.11984647 -0.07940472
0.121319175 0.025741518 -0.039135586 -0.123656414 -0.087601654 -0.0005478263 -0.10516116 0.017266586
-0.116216555 -0.042889223 -0.1071442 0.11938473 -0.03885451 0.021461532 0.063401856 -0.0073898435
0.03527074 0.11729631 0.02000226 -0.09099727 -0.059565872 0.09506453 0.09278691 -0.11502928
-0.03806682 -0.10054743 -0.00090546906 -0.12009264 -0.10207944 0.052432604 -0.015272394 -0.0815997
00000000: ee90 f03d 51db 163d b0b5 e13d 24cf 0a3d
00000010: 46e7 a93d 2c7e 8c3d 616a 09bd e009 1f3d
00000020: a663 d23d a064 21bc 55de e4bc ecd2 c6bd
00000030: ddde 97bc ed1d ee3b 405d 12bc f0e0 853c
00000040: e0d2 31bb a9f3 293d b35c 0ebd 305e 02bd
00000050: e178 853d 58fc b6bd 0042 ffbd ddf6 1abd
00000060: ecf1 c7bd 34d4 9f3d 70e8 d23d 701a 97bd
00000070: 5cc9 9cbd 70d1 d93c 1c2d 16bd d0b8 afbd
00000080: f09a a8bc e873 0b3d 354d d3bd 41ed 26bc
00000090: 8207 f1bc 32dd e3bd 1209 ee3d 18ec 863d
000000a0: 6e87 8ebd d64b ebbd 0ea2 f63d 4e80 a1bb
000000b0: 263b 913d 88fc dc3c 5117 86bd c429 c93d
000000c0: c953 96bd 1a0f 94bd e823 e53d 6528 c6bd
000000d0: 4a81 de3d f8a7 a43d 20ac 563d 9141 2bbd
000000e0: 7403 f2bc ec65 e43d f4ab eb3d 1b6d d13d
000000f0: 23ad eb3d fff5 f13c 607e b3bb 878c c6bd
00000100: 9c3f 72bd 5f2d 9a3d 843e 1dbd 204a 64bd
00000110: 17a5 8bbd 6e31 c43d d361 e7bd 44c7 0dbd
00000120: 50ce 603d dc06 1a3d 129f eb3d 88b4 68bd
00000130: a489 1dbd ca1e ec3c b069 7a3d a014 a5bd
00000140: 4864 613d e6e3 eebc b5ca 9cbd 620b 873d
00000150: 8796 8abb c6fc c3bd 9869 2ebd 5f51 3d3d
00000160: 2f16 eb3c 75cf 713d 9695 8abd 2614 e3bd
00000170: 90c3 eebd 4cb1 7bbd 17a7 f63d be43 213b
00000180: df47 fbbd be15 813d e143 cabd 8d61 7a3d
00000190: 2123 dd3d 6079 fcbb 48b0 b7bd 12c0 fabd
000001a0: bf16 f93d dc59 c3bd bdaf cb3d 4de0 9f3d
000001b0: 4cb3 283d 2097 9abd bb44 e9bd 723c e43d
000001c0: 9f93 e03c 1290 633c 08b2 fbbd 8129 a3bc
000001d0: d5d4 c3bd 735b 8e3d df46 c4bd 45f5 b2bd
000001e0: 6305 98bd aced f93d 5240 81bd 5d6a 6c3d
000001f0: 50bc 6e3c e809 8e3c 00d5 383a 2921 af3d
00000200: 2487 a7bc 4c74 f53c c6e1 d4bd f07a 66bc
00000210: 1b8d eabd 6da6 c5bd 1f3a 593d 784a 35bd
00000220: 4054 073c 9083 20bc 5ffb b83d b478 e5bd
00000230: edef 863c 76d9 79bd 510e 6f3b 1438 f4bd
00000240: c8f7 40bd 085a 523d 231f 5fbd 2490 033d
00000250: 0ee8 9a3d c450 92bd 504e 183d 3405 e3bd
00000260: fe22 f23d a001 8abd a8be 21bd aeff be3d
00000270: cc07 87bd a8e5 dcbd ad19 7bbd 36e5 cfbb
00000280: b9ff 933d 6cea bdbd d6a9 72bd b7a1 6bbd
00000290: 4e0b 363d 1011 ba3d 88a4 56bd 5034 4f3c
000002a0: 26e6 3ebd 2864 7ebd b01d db3d 360b afbb
000002b0: 8cbb 8ebc 860e bc3d af21 c03d 18be c33d
000002c0: 4d59 64ba e76e 2cbc be1e acbd e955 efbd
000002d0: 5a03 a2bd e996 61bc 1056 49bc e85b ab3d
000002e0: 24cb 76bd e463 dcbd c0fc 40bd cd67 ab3b
000002f0: 8c36 833d 97f0 743d b020 00bc b676 c3bb
00000300: bec3 ea3d c4e6 013b 709c 13bd f4df f3bd
00000310: 8722 333d c07a 89bd e0ef d13d 5872 383d
00000320: 1419 463d 40d3 573c 97d9 553d 66fc fe3d
00000330: 78f1 e83a 5335 f83d 5839 733d 50fb cabd
00000340: 67a4 d53d 5c65 233d 24df ddbd 387f 68bd
00000350: 960a cebd 3e92 97bd ef6c 263a f49d 623c
00000360: a225 7e3d 9151 453d 90e5 3dbc 2eeb d63d
00000370: f0da b23c 385a fc3c 1172 f53d f19e a2bd
00000380: 3076 f83d e0df d23c a34c 20bd 933f fdbd
00000390: 7f68 b3bd 009c 0fba bc5e d7bd a872 8d3c
000003a0: f202 eebd 9cac 2fbd 6b6e dbbd fb7f f43d
000003b0: e825 1fbd 18d0 af3c d5d8 813d 8026 f2bb
000003c0: 0d78 103d 0c39 f03d c8db a33c c75c babd
000003d0: 58fb 73bd 31b1 c23d 1007 be3d 7994 ebbd
000003e0: f4eb 1bbd d0eb cdbd 005d 6dba 21f3 f5bd
000003f0: 070f d1bd 92c3 563d 1039 7abc be1d a7bd

weight_hh_l0 f4 [192, 64]
-0.007506955 0.09452371 0.11127562 0.071504384 -0.120189875 -0.11847878 0.09295676 0.034986865
0.08198299 -0.106538765 -0.04722899 -0.019756671 -0.07102959 -0.08314877 0.061328623 -0.028918566
-0.037371267 0.074474484 -0.10523006 -0.0517068 -0.04397192 -0.0061835335 -0.03201978 0.07072865
-0.020419264 -0.11080172 0.03175287 0.065894485 -0.00087872305 0.020891177 -0.06085707 0.010944391
-0.07621559 -0.120457955 0.07054454 -0.05621023 0.069706544 -0.041455172 0.057144754 -0.008281627
0.06414065 -0.08864933 -0.049255814 -0.031997744 -0.10667972 0.07804428 0.08442212 -0.051902205
-0.10183156 0.040573567 -0.099887975 0.11936099 0.00052448903 -0.01174167 0.104393534 -0.072983444
-0.12321774 -0.10359085 -0.06101719 -0.054957632 -0.03052708 -0.0235062 -0.10561934 -0.105744176
0.08904823 0.073118 -0.030675601 0.10688849 0.045232546 0.10750787 -0.10093986 0.10043729
-0.08209858 0.027686793 -0.047630176 0.0034094166 -0.03864922 -0.12813506 0.030502196 -0.050166484
0.056856584 -0.054938667 -0.034846056 -0.067181975 -0.054001607 0.048821438 -0.064364985 -0.026817279
-0.10566119 -0.055919316 -0.10364354 0.02371592 -0.03809068 -0.104062684 0.12204708 -0.12071934
-0.056277215 0.11687994 0.025142733 0.07697336 0.001424834 0.11286133 0.087328926 0.07099424
-0.024443397 -0.10744915 -0.05922223 -0.122553214 -0.10124542 0.035797708 0.06548751 0.06641382
-0.0055509172 -0.03137719 -0.10736598 -0.08074766 0.009502263 0.08351416 0.06410941 -0.006344676
-0.07367602 -0.09137326 -0.10903214 -0.00418997 -0.02248572 -0.023146356 -0.10773526 0.0041967453
-0.01967744 0.10132507 0.044238936 -0.06435231 -0.08715565 -0.07563997 -0.05348943 -0.053980216
-0.082125485 -0.037462965 0.03418061 0.011640199 0.006297956 0.01304422 -0.032912582 -0.030548992
-0.10965944 0.039587453 -0.09787586 0.08999455 -0.09139036 0.096017584 0.106511705 0.0889387
-0.10321788 -0.054505747 0.0005573137 0.02365412 0.10545991 0.10913251 -0.10111139 0.051065646
-0.09855081 -0.094781876 -0.054002378 -0.066512905 0.046301503 0.006480686 0.100529976 0.113943934
-0.05436673 0.0752042 0.11484064 0.04924761 0.11492571 0.09415009 -0.08157305 -0.03462046
-0.050885633 -0.08382425 0.108733535 -0.051471148 -0.025100568 -0.043591473 0.10494672 -0.097905494
-0.007138102 -0.12521556 -0.04928762 0.0016487039 -0.01775981 -0.026129149 -0.105316825 -0.004648397
0.11692325 0.032243747 -0.03718996 0.09006926 -0.07030643 0.111089036 -0.10764157 0.09391586
0.038058784 -0.027236732 -0.08255019 0.07133331 -0.109465316 0.09392542 0.018783884 0.09549198
0.08752491 0.010840181 -0.07440739 -0.022387441 -0.11150167 0.018390544 -0.07328273 -0.040653367
-0.12433144 0.103024185 -0.07347337 0.10387292 -0.09815317 0.12210183 0.121010885 0.022257026
-0.08113665 0.09573819 0.012791145 0.075093724 -0.05011692 -0.11658388 -0.023496296 0.035264216
-0.038369708 -0.056544073 -0.03201537 -0.075876825 0.06900205 0.06133402 0.07471589 0.108614504
0.08482521 -0.037275236 0.04935061 -0.042003125 -0.004002521 0.08008443 0.07416005 0.09480364
-0.03555197 -0.009392593 0.020987293 -0.0056712762 -0.009307657 0.088481866 -0.04164193 -0.0649451
00000000: e7fc f5bb a695 c13d 79e4 e33d e470 923d
00000010: 1c26 f6bd 01a5 f2bd 1d60 be3d 634e 0f3d
00000020: b3e6 a73d ff30 dabd 2f73 41bd bed8 a1bc
00000030: f677 91bd e749 aabd b933 7b3d a1e6 ecbc
00000040: 9d12 19bd 1486 983d dc82 d7bd 82ca 53bd
00000050: e61b 34bd 3d9f cabb 2c27 03bd 2fda 903d
00000060: 4d46 a7bc 03ec e2bd 4c0f 023d b0f3 863d
00000070: 1b5a 66ba f923 ab3c 4345 79bd 1a50 333c
00000080: eb16 9cbd a9b2 f6bd a879 903d b33c 66bd
00000090: 4ec2 8e3d e6cc 29bd 9e10 6a3d a9af 07bc
000000a0: 2c5c 833d c88d b5bd 77c0 49bd 1110 03bd
000000b0: e67a dabd aed5 9f3d 81e5 ac3d 6897 54bd
000000c0: 118d d0bd 7830 263d 1192 ccbd 8973 f43d
000000d0: dd7d 093a 2260 40bc 47cc d53d 5878 95bd
000000e0: 9559 fcbd 7127 d4bd 29ed 79bd 411b 61bd
000000f0: ed13 fabc 1390 c0bc f44e d8bd 6790 d8bd
00000100: eb5e b63d e4be 953d 664b fbbc 5ae8 da3d
00000110: c345 393d 162d dc3d 8fb9 cebd 11b2 cd3d
00000120: 4d23 a8bd 6acf e23c dc17 43bd 8570 5f3b
00000130: a54e 1ebd d635 03be bedf f93c 5f7b 4dbd
00000140: 73e2 683d 5e07 61bd bdba 0ebd b496 89bd
00000150: ca30 5dbd fdf8 473d cad1 83bd e9af dbbc
00000160: e564 d8bd a70b 65bd 1043 d4bd e447 c23c
00000170: f904 1cbd d11e d5bd d2f3 f93d b43b f7bd
00000180: f082 66bd c05e ef3d 22f8 cd3c 35a4 9d3d
00000190: 7fc1 ba3a d723 e73d 82d9 b23d 6e65 913d
000001a0: 853d c8bc 4d0e dcbd 0293 72bd 2efd fabd
000001b0: c259 cfbd 9ea0 123d 511e 863d f803 883d
000001c0: 78e4 b5bb 5e85 00bd b2e2 dbbd 075f a5bd
000001d0: 61af 1b3c 7909 ab3d cb4b 833d 00e7 cfbb
000001e0: 74e3 96bd e721 bbbd 3e4c dfbd 044c 89bb
000001f0: f933 b8bc 6d9d bdbc 4ea4 dcbd da84 893b
00000200: 9532 a1bc 8583 cf3d e333 353d 25cb 83bd
00000210: a97e b2bd 21e9 9abd bc17 5bbd 5c1a 5dbd
00000220: 6831 a8bd c472 19bd f800 0c3d 89b6 3e3c
00000230: 165f ce3b 6db7 553c 58cf 06bd e141 fabc
00000240: 2195 e0bd 7426 223d 2473 c8bd 104f b83d
00000250: de2a bbbd dea4 c43d cf22 da3d 7e25 b63d
00000260: e563 d3bd 6b41 5fbd b018 123a 49c6 c13c
00000270: 5efb d73d de80 df3d 7d13 cfbd 362a 513d
00000280: 02d5 c9bd 001d c2bd 9931 5dbd eb37 88bd
00000290: a5a6 3d3d ef5b d43b a9e2 cd3d 705b e93d
000002a0: a6af 5ebd a904 9a3d 9231 eb3d ddb7 493d
000002b0: 2c5e eb3d c3d1 c03d c50f a7bd 2fce 0dbd
000002c0: 746d 50bd 0cac abbd b0af de3d 69d3 52bd
000002d0: b59f cdbc f98c 32bd 4eee d63d ad82 c8bd
000002e0: bde6 e9bb 8238 00be d1e1 49bd 5319 d83a
000002f0: 057d 91bc cc0c d6bc 59b0 d7bd 9551 98bb
00000300: 7575 ef3d 0512 043d 8054 18bd 3b76 b83d
00000310: d1fc 8fbd a682 e33d 2f73 dcbd f556 c03d
00000320: 87e3 1b3d 911f dfbc 1310 a9bd 3317 923d
00000330: 5a2f e0bd f85b c03d a9e0 993c 4d91 c33d
00000340: 4340 b33d 049b 313c e762 98bd de65 b7bc
00000350: fd5a e4bd c4a7 963c 4215 96bd 2584 26bd
00000360: 7ba1 febd 58fe d23d 3579 96bd 53bb d43d
00000370: 8704 c9bd 8610 fa3d 8ed4 f73d 5e54 b63c
00000380: f92a a6bd 6212 c43d f391 513c bdca 993d
00000390: 6647 4dbd 87c3 eebd 4e7b c0bc 3671 103d
000003a0: 8e29 1dbd c29a 67bd 8c22 03bd 4f65 9bbd
000003b0: f250 8d3d 6239 7b3d a504 993d 4871 de3d
000003c0: d7b8 ad3d ebad 18bd dd23 4a3d 780b 2cbd
000003d0: 9427 83bb 4e03 a43d 39e1 973d 6928 c23d
000003e0: f19e 11bd 64e3 19bc 8bed ab3c 1dd6 b9bb
000003f0: 257f 18bc fb35 b53d ba90 2abd f001 85bd

bias_ih_l0 f4 [192]
-0.075958446 -0.0693301 -0.048208013 0.06846116 -0.12140238 0.02448122 0.060051546 -0.119755425
0.0435047 -0.10990127 -0.003007383 0.035490762 0.12413024 -0.09288109 -0.1111032 0.042592674
0.09792417 0.0017094583 0.042080253 0.047212936 0.08508511 0.07863076 -0.042524878 -0.07413387
0.07646061 -0.004148236 -0.05294196 -0.11446528 0.057133734 0.041711353 -0.014684139 -0.03853809
0.10064449 -0.106132835 -0.05511043 -0.106050715 0.08326064 0.09256546 -0.10937489 0.088061795
-0.0592188 -0.09849817 -0.010483145 0.05700073 0.079380125 0.084166706 0.04599313 -0.07004378
-0.012822384 -0.023924777 -0.12557246 -0.10899056 -0.002999539 0.10001607 -0.01780673 0.12309879
0.060720764 -0.023885723 0.021709003 -0.00847367 -0.105081365 0.012752208 0.025899068 0.013194597
-0.065693215 -0.012577123 0.019472186 0.02570048 -0.062528916 0.019509187 0.112224616 0.10953255
0.024968386 -0.09058504 -0.046549167 -0.053096265 -0.0031751308 0.013124611 -0.064396046 -0.08955299
-0.11796666 0.05905792 -0.025251508 -0.065245554 0.11740972 0.09039644 -0.11302458 -0.100773126
0.10926578 0.07527129 -0.114606276 -0.08420778 -0.02343188 -0.052286744 -0.031740528 0.104714036
-0.007999647 0.06874074 0.10992863 0.07556302 0.106912136 0.10780916 -0.10019065 -0.059189096
0.038095877 0.013929145 0.06900501 -0.016496083 0.086005814 -0.08776155 0.0668741 0.059636854
0.014004331 0.107970424 0.04771672 -0.010997799 0.1014996 0.017860804 0.05500792 -0.059807025
-0.023339147 -0.0072394963 0.013383627 -0.0338368 -0.08067418 -0.014280402 0.1259619 0.06580505
0.033767786 -0.10773779 -0.11584941 -0.07653377 -0.0848825 0.05701904 -0.12126701 0.06316753
-0.108147904 0.034530368 -0.123918675 0.040905543 -0.032848895 -0.034870856 -0.014126213 -0.0052002077
0.012947086 -0.06233848 -0.02457028 0.08243401 0.10088093 0.112817526 -0.08411998 0.06256283
-0.03293856 -0.012819085 -0.10006679 0.121778466 0.053321254 -0.050278183 0.07772831 0.055923577
0.11194788 -0.0050754063 0.0954515 -0.09372118 0.06987959 -0.06528661 0.090332955 -0.11633181
0.0074706036 -0.08912804 0.028569369 -0.0341549 0.064287715 -0.04484296 -0.042673655 -0.018170971
0.02895711 0.057941996 0.06821413 0.054079983 0.01180594 -0.081589535 0.056857254 -0.032613114
-0.050936673 0.10678687 0.00544398 -0.092318006 -0.09556235 -0.084907964 -0.09767281 -0.008065459
00000000: 1a90 9bbd f1fc 8dbd c475 45bd 5d35 8c3d
00000010: d0a1 f8bd d78c c83c 9cf8 753d 5542 f5bd
00000020: fc31 323d eb13 e1bd 8417 45bb c35e 113d
00000030: ff37 fe3d 7138 bebd 138a e3bd a875 2e3d
00000040: 788c c83d e70f e03a 585c 2c3d 5a62 413d
00000050: 1a41 ae3d 2a09 a13d 912e 2ebd 80d3 97bd
00000060: 6197 9c3d eded 87bb abd9 58bd c66c eabd
00000070: 1005 6a3d 86d9 2a3d be95 70bc 1eda 1dbd
00000080: b31e ce3d 2c5c d9bd 79bb 61bd 1e31 d9bd
00000090: 8e84 aa3d f692 bd3d f1ff dfbd be59 b43d
000000a0: 6a8f 72bd 69b9 c9bd 7fc1 2bbc 9979 693d
000000b0: 0c92 a23d 985f ac3d 4b63 3c3d 1d73 8fbd
000000c0: fa14 52bc e5fd c3bc 1196 00be 7136 dfbd
000000d0: ea93 44bb 3ad5 cc3d 6bdf 91bc 381b fc3d
000000e0: 56b6 783d feab c3bc 14d7 b13c 26d5 0abc
000000f0: e634 d7bd a3ee 503c 482a d43c 272e 583c
00000100: 2a8a 86bd 4710 4ebc 2284 9f3c d089 d23c
00000110: 290f 80bd bbd1 9f3c 05d6 e53d 9a52 e03d
00000120: 808a cc3c a684 b9bd 57aa 3ebd 787b 59bd
00000130: db15 50bb 9c08 573c 13e2 83bd 8f67 b7bd
00000140: 8198 f1bd b8e6 713d 40dc cebc 769f 85bd
00000150: 8274 f03d c521 b93d 6e79 e7bd 2462 cebd
00000160: bdc6 df3d d627 9a3d b2b6 eabd 2175 acbd
00000170: 37f4 bfbc a02a 56bd 5b02 02bd 5074 d63d
00000180: f410 03bc f2c7 8c3d 4322 e13d c9c0 9a3d
00000190: c0f4 da3d 0dcb dc3d c130 cdbd 4470 72bd
000001a0: 6c0a 1c3d 1237 643c 8052 8d3d cb22 87bc
000001b0: d123 b03d 54bc b3bd 4af5 883d c645 743d
000001c0: 6c72 653c 991f dd3d 9b72 433d 1d30 34bc
000001d0: 06df cf3d d250 923c fc4f 613d 36f8 74bd
000001e0: bd31 bfbc 4c39 edbb 0047 5b3c 7598 0abd
000001f0: 8138 a5bd 59f8 69bc 28fc 003e ccc4 863d
00000200: 1750 0a3d a1a5 dcbd 7542 edbd bdbd 9cbd
00000210: e0d6 adbd cc8c 693d d75a f8bd fa5d 813d
00000220: a67c ddbd b76f 0d3d 13c9 fdbd 928c 273d
00000230: 908c 06bd bed4 0ebd a271 67bc 8166 aabb
00000240: 0420 543c a256 7fbd 9d47 c9bc 2ad3 a83d
00000250: a99a ce3d e00c e73d 1947 acbd f120 803d
00000260: 95ea 06bd 2407 52bc d1ef ccbd fd66 f93d
00000270: 6367 5a3d 7ff0 4dbd 0530 9f3d 1f10 653d
00000280: ee44 e53d 984f a6bb 137c c33d e4f0 bfbd
00000290: 081d 8f3d fcb4 85bd 7c00 b93d 5f3f eebd
000002a0: f7cb f43b c388 b6bd 4f0a ea3c 02e6 0bbd
000002b0: 47a9 833d 40ad 37bd 92ca 2ebd 4adb 94bc
000002c0: 7637 ed3c 9654 6d3d dab3 8b3d f982 5d3d
000002d0: b46d 413c 6a18 a7bd 27e3 683d 5495 05bd
000002e0: f9a2 50bd 13b3 da3d 6a63 b23b 3911 bdbd
000002f0: 31b6 c3bd 3ae4 adbd af08 c8bd fd24 04bc

bias_hh_l0 f4 [192]
0.016620958 -0.087363355 -0.05406949 0.103980385 -0.00085484015 -0.08667711 0.034184262 0.109064125
-0.050008833 -0.040130377 -0.01707131 -0.054773975 0.07594653 0.07130293 0.101960234 0.098395735
0.084898055 0.059121627 -0.011010584 0.041575782 -0.061533988 0.010548636 0.00028871864 0.018942442
0.045246944 0.11579545 -0.08498891 0.062677525 -0.10659404 0.0747519 -0.052471943 0.11855476
-0.0149075035 0.012957941 0.11944697 0.09807955 0.057965696 -0.011437081 -0.06784897 0.11620335
-0.064134434 -0.11930261 -0.04319593 -0.02779474 0.0856574 -0.058133528 0.022720607 0.069908805
-0.049073264 -0.098989755 0.049748957 -0.07675826 0.05365723 -0.059024014 0.060838193 0.08430186
-0.03339403 -0.041639443 -0.039224945 0.062545724 0.0524841 0.06545097 0.07564895 0.050139833
0.12080653 -0.11451844 -0.07225554 -0.00082986325 -0.05710374 0.09420359 -0.06136527 0.10768315
0.059249464 0.10188231 -0.07815596 -0.085206665 -0.07848286 0.12540834 -0.03491309 -0.025799802
-0.10753254 -0.05108431 -0.068978086 -0.034485634 -0.08315489 -0.045155305 -0.12759747 -0.12406735
0.087281905 0.009541607 -0.10400444 -0.067567445 -0.0012687598 0.021110982 -0.03622381 -0.10485804
-0.10685335 0.08816023 0.020732054 0.10053436 -0.037525546 -0.007999052 -0.016886508 0.010626309
0.12687594 0.06113967 -0.053112704 -0.114109084 -0.074158706 0.113973856 0.03929225 -0.058673076
0.08380539 0.025568355 0.022042623 0.04787703 0.011510081 0.057115667 0.069797136 -0.049483903
-0.019322643 -0.10338171 -0.10826802 0.017623072 -0.04508608 0.008626841 0.05902426 -0.057457007
-0.06788998 -0.049820732 -0.017912956 0.02118651 -0.010616447 0.032923117 -0.083904 0.0017786423
-0.12022454 0.020214967 0.027534474 0.11010329 0.026886705 0.06560871 0.022830915 0.04021091
0.079722956 0.0366507 0.079131655 0.10656202 -0.099692605 -0.008348437 -0.12150534 -0.05128936
0.074484624 -0.05997393 -0.10926184 -0.05376578 -0.09675828 -0.10756545 0.03451173 -0.058177345
-0.08724797 -0.02819902 -0.06061788 -0.01861089 0.061189502 0.04397878 -0.085127845 -0.08557781
-0.0056721442 0.06377834 -0.08909116 0.027201965 -0.10651894 0.034353025 0.09082116 0.021330573
-0.11108927 0.016616922 0.0687393 0.029259186 0.101673126 -0.10949325 0.0928356 0.11871162
0.0876978 -0.033447467 -0.01123815 -0.10831925 -0.0895427 0.07431047 -0.10269599 -0.019579867
00000000: ad28 883c 8feb b2bd f877 5dbd abf3 d43d
00000010: 5a17 60ba c583 b1bd cc04 0c3d 035d df3d
00000020: 10d6 4cbd c05f 24bd 22d9 8bbc ad5a 60bd
00000030: db89 9b3d 4507 923d 87d0 d03d b483 c93d
00000040: 08df ad3d 8529 723d bd65 34bc 5e4b 2a3d
00000050: 100b 7cbd 30d4 2c3c 295f 9739 2e2d 9b3c
00000060: dc54 393d 2a26 ed3d aa0e aebd 135d 803d
00000070: fa4d dabd 8617 993d d2ec 56bd d7cc f23d
00000080: 9a3e 74bc 8b4d 543c 9da0 f43d eedd c83d
00000090: 706d 6d3d 9862 3bbc 67f4 8abd 06fc ed3d
000000a0: ea58 83bd ed54 f4bd 37ee 30bd cbb1 e3bc
000000b0: 266d af3d 6c1d 6ebd 9120 ba3c 592c 8f3d
000000c0: 0c01 49bd 24bb cabd 90c5 4b3d 6f33 9dbd
000000d0: afc7 5b3d 2ac3 71bd 7831 793d 74a6 ac3d
000000e0: 2ec8 08bd 1f8e 2abd 56aa 20bd f917 803d
000000f0: 91f9 563d 280b 863d d6ed 9a3d 6d5f 4d3d
00000100: 6a69 f73d a588 eabd b6fa 93bd 2e8b 59ba
00000110: 9ce5 69bd d0ed c03d 265a 7bbd fc88 dc3d
00000120: 91af 723d aca7 d03d 3b10 a0bd d580 aebd
00000130: 9fbb a0bd 0b6b 003e 0701 0fbd 1b5a d3bc
00000140: 053a dcbd c83d 51bd 6244 8dbd cf40 0dbd
00000150: 1c4d aabd c5f4 38bd e9a8 02be 0617 febd
00000160: dbc0 b23d 6754 1c3c 4800 d5bd cd60 8abd
00000170: 844c a6ba f0f0 ac3c 6b5f 14bd d0bf d6bd
00000180: eed5 dabd 5a8d b43d 45d6 a93c f5e4 cd3d
00000190: 63b4 19bd 750e 03bc 9355 8abc f819 2e3c
000001a0: c4eb 013e 976d 7a3d b58c 59bd 06b2 e9bd
000001b0: 85e0 97bd 206b e93d e9f0 203d 2e53 70bd
000001c0: 29a2 ab3d ba74 d13c bb92 b43c b41a 443d
000001d0: c794 3c3c 1ef2 693d cdf1 8e3d a2af 4abd
000001e0: 854a 9ebc cab9 d3bd a0bb ddbd 435e 903c
000001f0: 2eac 38bd 9857 0d3c 6cc3 713d 0a58 6bbd
00000200: e709 8bbd d310 4cbd 31be 92bc 558f ad3c
00000210: 9bf0 2dbc 64da 063d dcd5 abbd 5521 e93a
00000220: 4938 f6bd dc99 a53c fa8f e13c d57d e13d
00000230: 8241 dc3c dc5d 863d e607 bb3c 32b4 243d
00000240: ca45 a33d 0b1f 163d c70f a23d 303d da3d
00000250: a32b ccbd e2c7 08bc cbd7 f8bd cb14 52bd
00000260: 658b 983d 39a7 75bd acc4 dfbd 8239 5cbd
00000270: 3529 c6bd 464b dcbd 2c5c 0d3d 5e4b 6ebd
00000280: 10af b2bd a201 e7bc 744a 78bd dd75 98bc
00000290: d8a1 7a3d 1823 343d 8257 aebd 6b43 afbd
000002a0: 65dd b9bb 389e 823d 6d75 b6bd a8d6 de3c
000002b0: 9a26 dabd c2b5 0c3d 7200 ba3d 74bd ae3c
000002c0: c582 e3bd 3620 883c 31c7 8c3d f6b0 ef3c
000002d0: 003a d03d ff3d e0bd 9720 be3d 141f f33d
000002e0: e79a b33d 3600 09bd 3820 38bc 7cd6 ddbd
000002f0: 2a62 b7bd 1630 983d 4652 d2bd f565 a0bc

weight f4 [2, 64]
0.0787684 -0.00618786 0.0750367 -0.0005591053 -0.063098826 0.04090027 0.087435946 0.05375948
0.024845557 0.063706905 -0.010471282 0.07999808 0.016354857 0.04686703 0.07223698 -0.08338749
0.079978146 0.032114025 -0.09028967 0.02101621 -0.08556689 -0.058261577 0.11926907 -0.11771868
-4.9450762e-05 0.032169536 0.06309404 -0.06516869 0.11264593 0.052867014 0.09524926 -0.08780217
-0.051315617 0.012639722 -0.0771692 0.0926982 0.07966541 0.10567747 0.011997339 0.0821039
0.015831556 0.111299835 -0.017484069 0.06432035 0.033903062 0.07745692 -0.10821542 0.009588518
-0.1031287 -0.0069315587 -0.08787952 -0.04099696 0.11778833 0.024815086 0.120324194 -0.043269694
-0.06349016 -0.054952536 -0.08678036 -0.11645869 -0.07145513 0.09362756 0.03813768 -0.049920153
0.122232825 0.058095176 0.021745604 0.10990151 -0.113182165 0.12048948 0.03519812 0.108950436
-0.107721455 -0.112941265 0.10829581 0.026616678 -0.01937425 -0.0945525 0.115178205 0.0727387
-0.09381642 -0.11806823 -0.097826466 -0.104303874 0.07169771 -0.014173428 0.090595365 0.11951442
0.036376912 0.119389854 -0.0770056 -0.0985409 0.11612556 0.05100974 -0.11076728 -0.032274295
-0.07594821 0.077044666 -0.018347276 0.08571513 0.08020158 -0.11086327 -0.065413594 0.09426396
-0.072727 0.08850802 0.06058931 0.026901908 0.11677973 0.058329053 0.100566566 0.011425159
0.09079003 -0.11391402 -0.04683031 0.022216255 0.12170471 0.023242781 -0.088720635 0.10522517
0.08656662 -0.09442978 0.10678882 -0.11421404 -0.0665563 -0.021037834 -0.016802683 -0.05666809
00000000: 5451 a13d 88c3 cabb d7ac 993d ec90 12ba
00000010: f539 81bd 0b87 273d 9e11 b33d e732 5c3d
00000020: e988 cb3c c478 823d bd8f 2bbc 09d6 a33d
00000030: 9ffa 853c a5f7 3f3d fbf0 933d 0fc7 aabd
00000040: 95cb a33d ff89 033d cae9 b8bd 302a ac3c
00000050: b23d afbd b1a3 6ebd 5843 f43d 7e16 f1bd
00000060: 5a69 4fb8 34c4 033d 7337 813d 2a77 85bd
00000070: e9b2 e63d 158b 583d 0b12 c33d a0d1 b3bd
00000080: 5330 52bd d616 4f3c e30a 9ebd 8ed8 bd3d
00000090: 9e27 a33d 6e6d d83d 7d90 443c 1726 a83d
000000a0: 2eb1 813c 2bf1 e33d c03a 8fbc 63ba 833d
000000b0: f0dd 0a3d bca1 9e3d 0ca0 ddbd 2919 1d3c
000000c0: 2435 d3bd 2122 e3bb 2efa b3bd 6eec 27bd
000000d0: 023b f13d 0249 cb3c 886c f63d 903b 31bd
000000e0: 2107 82bd e915 61bd e7b9 b1bd e581 eebd
000000f0: 1157 92bd cebf bf3d 4236 1c3d 1379 4cbd
00000100: 3455 fa3d 35f5 6d3d d623 b23c 0b14 e13d
00000110: 0dcc e7bd 30c3 f63d e72b 103d 6821 df3d
00000120: 119d dcbd c04d e7bd 32ca dd3d 380b da3c
00000130: bfb6 9ebc bea4 c1bd 8de2 eb3d 07f8 943d
00000140: d322 c0bd c2cd f1bd 3e59 c8bd 459d d5bd
00000150: 40d6 923d aa37 68bc 108a b93d fac3 f43d
00000160: f5ff 143d ab82 f43d 1db5 9dbd d0cf c9bd
00000170: 3dd3 ed3d 97ef 503d f5d9 e2bd 0d32 04bd
00000180: bc8a 9bbd 98c9 9d3d 074d 96bc 6a8b af3d
00000190: ba40 a43d 480c e3bd 90f7 85bd 770d c13d
000001a0: e5f1 94bd b143 b53d 7f2c 783d 6461 dc3c
000001b0: 362a ef3d 72ea 6e3d d8f5 cd3d 9730 3b3c
000001c0: 20f0 b93d c14b e9bd 24d1 3fbd ddfe b53c
000001d0: 5240 f93d a567 be3c 2ab3 b5bd 4b80 d73d
000001e0: d749 b13d 6764 c1bd 19b4 da3d 0de9 e9bd
000001f0: ab4e 88bd 8957 acbc c8a5 89bc cd1c 68bd

bias f4 [2]
-0.04961273 -0.0915789
00000000: b836 4bbd b88d bbbd

weight_ih_l0 f4 [192, 66]
-0.113198295 -0.06709177 -0.016584305 0.023563579 0.00048772164 0.09676166 -0.0021969492 -0.047540262
-0.042616546 -0.023846403 -0.047936793 0.022333965 -0.051014584 0.01488353 0.05647219 0.06847566
-0.06495262 -0.076449364 0.045350127 0.04687731 -0.0055348435 -0.11931199 0.04573809 0.019672317
-0.026333576 -0.10530929 0.09733212 0.033362985 0.033611044 0.030417308 -0.064001665 0.057555325
0.10794734 0.03490126 -0.059434008 0.0062559713 -0.15599768 -0.09251854 0.11993025 0.032255784
0.060619634 -0.071786255 -0.077350214 -0.0534609 0.053234566 0.12136945 0.082999825 0.09442966
-0.050201207 0.045950335 -0.084473684 0.10720142 0.058575787 -0.058097787 -0.0010726514 0.13178514
0.13475288 0.08881579 0.046921507 -0.08480985 0.05502088 -0.06671361 -0.08298777 -0.029106893
0.010083075 -0.12629846 0.009869735 0.016392177 -0.058236305 -0.069664136 0.15116566 0.12405984
-0.03755121 -0.09252314 -0.081596956 0.11552115 -0.11395323 -0.10889897 -0.12672402 0.12357066
0.028777217 -0.09345581 0.093499035 -0.093385264 0.04006435 0.028642982 0.0054767886 0.036206454
-0.046891306 -0.06538211 -0.04450678 -0.06256033 0.03747505 0.10263561 0.08292517 0.020602345
0.08309051 0.052325446 -0.033054773 0.059071884 -0.12902334 0.07429019 -0.034991138 -0.09624033
-0.025679186 0.042808607 -0.0012980726 -0.033345476 0.12221874 -0.055678807 0.044983093 0.09891178
-0.082114406 -0.124529764 0.011858704 -0.04552641 -0.10182667 -0.047615282 0.0043028365 0.02271018
0.12851551 -0.021126576 -0.0062759565 -0.06639393 -0.025202855 0.0142349675 -0.039498612 -0.07175616
-0.02198504 0.08634511 0.03099736 0.14926638 0.0023871795 0.016872961 -0.13486914 0.06588313
-0.06991281 0.09836818 -0.026608981 0.079157084 -0.10125299 0.07586023 0.0892291 -0.087395474
-0.12683871 0.14027625 -0.013927878 -0.044556856 -0.03783481 -0.03969089 -0.08602477 0.08038144
0.12055708 0.07285653 -0.06261405 0.041513722 -0.13286677 -0.044432186 0.014531791 -0.105398625
0.09362392 -0.09255634 0.0014443051 -0.04113126 0.052609097 -0.07819204 0.03882026 -0.08266304
0.08031196 -0.07937761 -0.07248038 0.123691306 -0.03806464 0.045322776 0.11163662 0.11444975
-0.0703253 -0.033718944 0.04225935 0.03773181 -0.0723477 0.038036074 0.052723095 0.12809691
0.017479142 0.018342443 0.08075243 -0.024418807 -0.0932749 0.025493786 0.053712025 -0.012319777
0.0056317193 -0.07937438 -0.06969899 0.02704796 0.08992899 0.05953714 0.0017493811 -0.08483926
-0.030567313 -0.08216667 0.04265776 0.09403941 -0.082754396 0.035109937 0.06738223 0.11264759
0.012928041 0.013362512 -0.0076753404 0.0718539 0.107215844 -0.016761571 -0.04270903 -0.01419945
0.046927493 -0.045321062 -0.008715058 -0.01095286 0.0065349285 0.016215906 -0.039921574 -0.0038387834
-0.051473677 0.09594533 0.007788196 0.108671755 -0.04028941 -0.07402667 -0.076815836 0.022393063
-0.081138365 -0.034071505 -0.12055146 0.05794254 -0.1044116 -0.004991293 0.055385813 0.032372683
0.02087832 0.052261144 0.047440674 0.053413257 -0.0821741 0.09760687 0.068048246 0.124708466
-0.0078148395 -0.0006027482 -0.025000088 -0.045135703 0.0002318847 0.031149743 0.09594522 0.04038869
00000000: 82d4 e7bd 6967 89bd cfdb 87bc 6808 c13c
00000010: e4b4 ff39 fa2a c63d b1fa 0fbb 94b9 42bd
00000020: b08e 2ebd 8859 c3bc 5f59 44bd b8f5 b63c
00000030: abf4 50bd 0dda 733c 624f 673d f83c 8c3d
00000040: e105 85bd 7c91 9cbd 0ec1 393d 6c02 403d
00000050: a25d b5bb d859 f4bd dd57 3b3d d727 a13c
00000060: 83b9 d7bc 66ac d7bd 1056 c73d a0a7 083d
00000070: bcab 093d b82d f93c 4e13 83bd 22bf 6b3d
00000080: 7f13 dd3d a0f4 0e3d 1371 73bd e4fe cc3b
00000090: dbbd 1fbe 5c7a bdbd fe9d f53d a41e 043d
000000a0: 4b4c 783d ac04 93bd ca69 9ebd d1f9 5abd
000000b0: 7d0c 5a3d 8c90 f83d d0fb a93d 5664 c13d
000000c0: c89f 4dbd 6b36 3c3d 8a00 adbd 6b8c db3d
000000d0: 2aed 6f3d f2f7 6dbd 3598 8cba aff2 063e
000000e0: a9fc 093e 0ee5 b53d c430 403d c9b0 adbd
000000f0: 935d 613d 25a1 88bd 7ef5 a9bd 9471 eebc
00000100: 7b33 253c 6254 01be abb4 213c e348 863c
00000110: 3189 6ebd 12ac 8ebd 2ccb 1a3e 1613 fe3d
00000120: 4ccf 19bd c67c bdbd 4e1c a7bd 5a96 ec3d
00000130: 5060 e9bd 6c06 dfbd f1c3 01be 9d12 fd3d
00000140: 33be eb3c c265 bfbd 6c7c bf3d c640 bfbd
00000150: 841a 243d b0a4 ea3c a276 b33b 384d 143d
00000160: 1911 40bd 0ee7 85bd be4c 36bd a11f 80bd
00000170: 707f 193d 9e32 d23d acd4 a93d 40c6 a83c
00000180: 5b2b aa3d 3553 563d 7164 07bd 5cf5 713d
00000190: b21e 04be 7525 983d de52 0fbd a619 c5bd
000001a0: 285d d2bc 1458 2f3d 1724 aaba 4495 08bd
000001b0: d24d fa3d 760f 64bd 3140 383d 4292 ca3d
000001c0: 992b a8bd 7609 ffbd 024b 423c e779 3abd
000001d0: 808a d0bd 3e08 43bd cffe 8c3b b30a ba3c
000001e0: 9299 033e a411 adbc 8aa6 cdbb 8af9 87bd
000001f0: 3876 cebc c839 693c 4cc9 21bd e5f4 92bd
00000200: f819 b4bc b4d5 b03d 2dee fd3c 49d9 183e
00000210: 3a72 1c3b 2a39 8a3c 231b 0abe bced 863d
00000220: 732e 8fbd 4275 c93d 14fb d9bc 1c1d a23d
00000230: ba5d cfbd 9c5c 9b3d bfbd b63d 66fc b2bd
00000240: 02e2 01be 94a4 0f3e c131 64bc 4081 36bd
00000250: acf8 1abd ea92 22bd c12d b0bd 069f a43d
00000260: a1e6 f63d ce35 953d cc3b 80bd 4b0a 2a3d
00000270: 3a0e 08be 86fe 35bd c016 6e3c 3cdb d7bd
00000280: e6bd bf3d 2e8e bdbd d64e bd3a 4179 28bd
00000290: a37c 573d 2623 a0bd fe01 1f3d 3d4b a9bd
000002a0: 997a a43d ba90 a2bd 9870 94bd de51 fd3d
000002b0: abe9 1bbd 60a4 393d bda1 e43d a164 ea3d
000002c0: b606 90bd e01c 0abd 2418 2d3d ac8c 1a3d
000002d0: 082b 94bd b7cb 1b3d 2cf4 573d d62b 033e
000002e0: 6b30 8f3c e442 963c 8861 a53d f309 c8bc
000002f0: e906 bfbd 58d8 d03c 2401 5c3d e4d8 49bc
00000300: 498a b83b 098f a2bd 58be 8ebd af93 dd3c
00000310: b12c b83d 37dd 733d 7d4b e53a 35c0 adbd
00000320: 4d68 fabc 0047 a8bd e7b9 2e3d bc97 c03d
00000330: 237b a9bd 70cf 0f3d b2ff 893d c8b3 e63d
00000340: 22d0 533c 70ee 5a3c 6c81 fbbb 2328 933d
00000350: fb93 db3d 904f 89bc aaef 2ebd cfa4 68bc
00000360: 0b37 403d 94a2 39bd 9ac9 0ebc a073 33bc
00000370: f422 d63b 38d7 843c ce84 23bd 1994 7bbb
00000380: 10d6 52bd fc7e c43d 2034 ff3b 4c8f de3d
00000390: 8206 25bd 4b9b 97bd 9f51 9dbd a871 b73c
000003a0: df2b a6bd 908e 0bbd afe3 f6bd 2855 6d3d
000003b0: c0d5 d5bd 008e a3bb 3cdc 623d 3899 043d
000003c0: 0309 ab3c c80f 563d 2751 423d dcc7 5a3d
000003d0: e54a a8bd 1ce6 c73d e15c 8b3d 2767 ff3d
000003e0: d009 00bc bf01 1eba fccc ccbc 37e0 38bd
000003f0: 1326 7339 bf2d ff3c ed7e c43d 9c6e 253d

weight_hh_l0 f4 [192, 64]
0.024134846 0.053543486 -0.015833093 0.08657123 -0.100012586 0.039921835 0.114645034 -0.07019883
-0.01687148 -0.0033793496 0.060872868 -0.07348398 -0.12675925 -0.041959167 -0.0792153 0.14899908
0.03656549 0.06699982 -0.114631854 -0.0680159 -0.00269646 -0.008658093 -0.0015106918 0.0687116
0.12009427 -0.0035476042 -0.042150527 0.08522002 0.14626135 0.08824058 -0.04947861 0.065243885
-0.14346506 0.03761849 -0.14141588 0.096713565 -0.0899539 -0.039914336 0.11982239 0.091545075
-0.086839244 -0.14595586 0.0715226 0.023153855 0.046142984 -0.005255513 0.121819235 0.0052143876
-0.12937061 0.038747944 0.12203125 0.15076953 -0.017759632 0.09549961 0.0044674207 -0.09932946
0.0336883 -0.00084550283 0.09320492 0.07242619 0.08963298 0.01212684 -0.053297825 -0.036318365
-0.05701456 0.031065747 -0.022963425 -0.11980621 0.1462669 0.08545657 0.09195867 -0.032686938
0.047102306 0.05143227 -0.11122467 0.12237593 0.038137555 0.09259574 -0.08298838 0.041697383
-0.13957615 -0.09848249 -0.022746647 -0.07007944 -0.12559262 -0.049406435 -0.048308857 0.06636073
-0.0011504239 -0.062600374 -0.00021340133 -0.10211691 -0.12598348 0.09443011 -0.025938777 -0.11115827
-0.032204594 -0.05932505 0.09842017 0.090086624 0.069514774 0.079580866 0.028170224 -0.051111873
0.10671659 0.0040063253 -0.03060725 -0.04249102 -0.063276924 -0.11514728 0.080507345 0.096367784
0.07600107 -0.042724483 0.02423593 -0.10231567 0.018862687 0.07441573 0.13339102 0.01048699
0.11371882 0.10978688 -0.09531081 0.11735188 -0.01119863 0.04412233 0.09892461 0.062554106
0.10974646 0.06970137 0.07984248 0.04065517 0.027206613 -0.09748638 0.08994965 -0.04329236
-0.008741346 0.13515647 0.04264488 -0.10191274 -0.013905678 -0.101655565 -0.13395607 0.018281458
-0.09549051 0.08135711 -0.05885656 0.099488676 -0.08594517 -0.09900453 0.07080506 -0.0864253
0.045455415 -0.033875756 0.07907544 -0.039802067 0.040954724 -0.14478715 0.06766661 -0.1233312
0.115797445 0.050865017 0.081632055 -0.019168764 0.036957595 0.04905406 -0.116907194 -0.022476548
0.111166 -0.07772509 0.13168544 0.087164745 0.064886786 0.00081038335 -0.08690495 0.09156168
0.055882875 -0.12854673 0.05906157 -0.04191641 -0.06748821 0.023450345 0.10931585 -0.017206002
-0.014202434 0.008597963 0.072373815 -0.062526375 0.047833234 0.06857321 -0.048640724 0.056654368
0.03877403 -0.03575698 -0.09272718 0.01935218 -0.094142534 -0.02190723 -0.12550531 -0.0730613
-0.127253 0.10237528 -0.0522823 0.041297406 -0.041331504 -0.054376915 -0.009684483 0.08316636
-0.021342369 -0.0012987728 -0.054130767 -0.020748056 -0.120081946 -0.038270187 0.077420734 0.09895224
-0.027325375 -0.023928579 -0.053415693 0.0056971814 -0.115875654 -0.0026616005 0.09238921 0.1324731
-0.08684026 -0.04912039 0.115541525 0.081956774 0.03230392 0.13554299 -0.014797925 0.044776708
0.02335052 0.10615149 -0.019427592 0.14589904 0.120864846 -0.08918608 -0.105061784 -0.015462483
-0.095679834 -0.020797608 0.06351701 -0.08368418 0.041550677 0.10640335 0.11647455 0.09356907
-0.06791761 -0.08198933 0.079872265 0.0016125386 0.07297154 0.09745831 -0.044946916 -0.046422977
00000000: 71b6 c53c 6a50 5b3d 67b4 81bc 424c b13d
00000010: 66d3 ccbd 1485 233d 04cb ea3d 67c4 8fbd
00000020: 0f36 8abc 1478 5dbb d455 793d c57e 96bd
00000030: 2dcd 01be 60dd 2bbd a23b a2bd 3793 183e
00000040: b2c5 153d 3437 893d 1bc4 eabd ec4b 8bbd
00000050: 18b7 30bb adda 0dbc 6802 c6ba abb8 8c3d
00000060: fcf3 f53d ec7e 68bb 08a6 2cbd d587 ae3d
00000070: 89c5 153e 7ab7 b43d 15aa 4abd 969e 853d
00000080: 81e8 12be d915 1a3d 53cf 10be c311 c63d
00000090: c039 b8bd 377d 23bd 7165 f53d fc7b bb3d
000000a0: c6d8 b1bd 7475 15be 717a 923d 27ad bd3c
000000b0: 6d00 3d3d 7036 acbb 5d7c f93d 74dd aa3b
000000c0: bb79 04be 2ab6 1e3d 85eb f93d 5463 1a3e
000000d0: a67c 91bc 4d95 c33d 7163 923b 3e6d cbbd
000000e0: befc 093d bca4 5dba 39e2 be3d 2f54 943d
000000f0: 7f91 b73d a7af 463c d24e 5abd 91c2 14bd
00000100: 1988 69bd 987d fe3c cb1d bcbc f55c f5bd
00000110: fdc6 153e db03 af3d d454 bc3d bde2 05bd
00000120: 59ee 403d a5aa 523d c3c9 e3bd 3ba0 fa3d
00000130: 2036 1c3d d6a2 bd3d d0f5 a9bd e0ca 2a3d
00000140: 0ded 0ebe 30b1 c9bd 2d57 babc cf85 8fbd
00000150: 5a9b 00be 675e 4abd 82df 45bd 22e8 873d
00000160: d2c9 96ba a034 80bd 7cc4 5fb9 ac22 d1bd
00000170: d001 01be 9364 c13d 8f7d d4bc f2a6 e3bd
00000180: f7e8 03bd d3fe 72bd 8490 c93d 567f b83d
00000190: c35d 8e3d 4bfb a23d 3ec5 e63c af5a 51bd
000001a0: 3a8e da3d 7e47 833b 0ebc fabc 100b 2ebd
000001b0: 5597 81bd 56d2 ebbd 09e1 a43d 795c c53d
000001c0: 73a6 9b3d deff 2ebd 6e8a c63c e18a d1bd
000001d0: ec85 9a3c 4667 983d a897 083e a0d1 2b3c
000001e0: 6ae5 e83d f2d7 e03d 5032 c3bd 2f56 f03d
000001f0: 757a 37bc 9eb9 343d fc98 ca3d 5e1c 803d
00000200: c1c2 e03d 98bf 8e3d 7484 a33d 0986 263d
00000210: 67e0 de3c f0a6 c7bd 8637 b83d 5453 31bd
00000220: dd37 0fbc 7566 0a3e 66ac 2e3d a0b7 d0bd
00000230: a4d4 63bc cb30 d0bd c82b 09be ffc2 953c
00000240: 8790 c3bd 8e9e a63d 9413 71bd b8c0 cb3d
00000250: 0504 b0bd e3c2 cabd 3e02 913d bfff b0bd
00000260: 752f 3a3d 4ec1 0abd 4ef2 a13d 7e07 23bd
00000270: 24c0 273d 1543 14be cb94 8a3d 1195 fcbd
00000280: 3627 ed3d d657 503d b52e a73d d007 9dbc
00000290: d960 173d e9ec 483d 0a6d efbd bd20 b8bc
000002a0: 00ab e33d 552e 9fbd 8cd8 063e 6e83 b23d
000002b0: 5de3 843d e86f 543a 39fb b1bd b184 bb3d
000002c0: 71e5 643d c1a1 03be 8bea 713d 8bb0 2bbd
000002d0: 4237 8abd f01a c03c fde0 df3d 9af3 8cbc
000002e0: 53b1 68bc 78de 0c3c b938 943d d40d 80bd
000002f0: c8ec 433d 1c70 8c3d 7f3b 47bd 690e 683d
00000300: 84d1 1e3d e975 12bd bfe7 bdbd 7788 9e3c
00000310: cdcd c0bd cb76 b3bc 7784 00be 2aa1 95bd
00000320: 9c4e 02be 21aa d13d f725 56bd 7827 293d
00000330: 394b 29bd 54ba 5ebd aaab 1ebc 2053 aa3d
00000340: 31d6 aebc 953b aaba 39b8 5dbd d4f7 a9bc
00000350: 86ed f5bd 33c1 1cbd c38e 9e3d 79a7 ca3d
00000360: 77d9 dfbc de05 c4bc 6aca 5abd 6caf ba3b
00000370: 3750 edbd 3f6e 2ebb 8e36 bd3d 07a7 073e
00000380: 4ed9 b1bd 7632 49bd 09a1 ec3d f4d8 a73d
00000390: 1d51 043d c8cb 0a3e ff72 72bc c867 373d
000003a0: 9749 bf3c f465 d93d 9d26 9fbc 8f66 153e
000003b0: fd87 f73d 31a7 b6bd a22a d7bd 5b56 7dbc
000003c0: caf3 c3bd bf5f aabc 3515 823d 9d62 abbd
000003d0: 0b31 2a3d 00ea d93d 358a ee3d 24a1 bf3d
000003e0: 6318 8bbd 06ea a7bd 1294 a33d d15b d33a
000003f0: 1a72 953d 3998 c73d 421a 38bd 0526 3ebd

bias_ih_l0 f4 [192]
-0.12065666 0.11564794 0.124753706 0.105931394 0.1628224 0.104108185 0.061267875 0.14053844
0.0009829367 0.112485275 -0.08557221 -0.01099056 -0.04136794 0.059614517 0.025243498 -0.092533164
0.02093545 0.019047065 -0.09326963 0.03574899 0.019995736 -0.07014552 0.03207841 -0.10707116
0.010494771 0.12042782 -0.034208372 -0.06517025 -0.03946431 -0.08254997 0.011336437 0.12262694
0.08375381 -0.10115505 0.122191995 0.014349481 -0.08981596 0.0016020432 0.005796518 0.08870872
0.14062041 -0.061954092 -0.0808802 0.038653683 0.11197467 0.024041796 0.106519364 -0.00073319924
0.092652135 -0.07039045 -0.04881075 0.072984375 0.052715637 -0.05527512 0.030509382 0.06742888
-0.010555371 -0.0701065 -0.099049255 0.081022516 0.116135776 -0.004673944 0.049694065 -2.7220523e-05
-0.014353763 -0.14166526 0.026076702 -0.11484583 -0.11377508 -0.06086656 -0.12334732 -0.01715029
-0.097340405 -0.0032094156 -0.049123324 -0.108783364 0.019719547 -0.10100065 -0.03570626 -0.07974365
0.0077284137 -0.08862739 0.08239931 0.028692618 0.08893668 0.02843396 -0.059699595 0.1384527
-0.13462286 -0.14122652 0.031019878 -0.016408531 0.043942414 -0.044898678 -0.048296615 -0.13965699
-0.06406184 0.011234049 -0.0141641935 -0.11032555 -0.0124476375 0.026358835 -0.09085879 -0.14009775
0.02741574 -0.15137485 -0.14815749 -0.07325032 0.07805005 -0.043977965 -0.116365686 -0.0035356178
0.05873515 -0.15997626 -0.05867573 -0.13185471 -0.1174075 -0.14726588 -0.0678073 -0.05275294
-0.0030215827 0.017736396 -0.005021183 0.0979224 -0.09802914 -0.055269755 -0.10762098 -0.022160875
0.10951785 -0.11830113 0.13318904 0.08099355 0.08510119 0.045209274 -0.043018386 -0.08264578
0.02377703 0.14689435 -0.021574609 0.0922773 0.08514369 -0.1430815 0.14144474 -0.088416755
-0.006410682 -0.12178506 -0.06424619 0.019556226 0.058716934 -0.05645813 0.12563443 -0.027264899
-0.039281 0.08818683 0.14468092 0.028324477 -0.11850546 0.036880907 -0.08140183 -0.09015272
-0.034764238 -0.12223585 0.009330292 0.0653253 0.094218 0.05841795 -0.064961955 0.05655861
-0.008632417 -0.06727762 0.091704756 0.11122597 0.115869746 -0.13639528 0.061888114 -0.048249554
0.06957292 -0.05608292 -0.05530264 -0.15005523 -0.145136 0.14867927 0.022541031 -0.06265376
0.06939245 0.120088816 -0.12953706 -0.06640607 -0.08736006 0.13189037 0.13118479 -0.0542601
00000000: d71a f7bd d4d8 ec3d df7e ff3d 8ff2 d83d
00000010: eaba 263e ac36 d53d 06f4 7a3d 4fe9 0f3e
00000020: e2d5 803a ae5e e63d 7c40 afbd c011 34bc
00000030: 6e71 29bd 5a2e 743d 74cb ce3c 0782 bdbd
00000040: d280 ab3c 9708 9c3c 2604 bfbd 886d 123d
00000050: 19ce a33c 74a8 8fbd a764 033d 2048 dbbd
00000060: 43f2 2b3c dca2 f63d 141e 0cbd fb77 85bd
00000070: 54a5 21bd f50f a9bd 77bc 393c d523 fb3d
00000080: 1e87 ab3d 612a cfbd cc3f fa3d 161a 6b3c
00000090: 6ef1 b7bd a6fb d13a b8f0 bd3b ebac b53d
000000a0: ccfe 0f3e 93c3 7dbd 85a4 a5bd 5353 1e3d
000000b0: fa52 e53d 4df3 c43c d326 da3d 2b34 40ba
000000c0: 67c0 bd3d de28 90bd c8ed 47bd d578 953d
000000d0: 5aec 573d 2a68 62bd d0ee f93c 2718 8a3d
000000e0: 6ff0 2cbc ff93 8fbd 56da cabd 22ef a53d
000000f0: 98d8 ed3d e227 99bb 018c 4b3d a157 e4b7
00000100: 0c2c 6bbc b310 11be cf9e d53c 4a34 ebbd
00000110: e902 e9bd 374f 79bd 859d fcbd c47e 8cbc
00000120: 685a c7bd 0f55 52bb 8a35 49bd d0c9 debd
00000130: e38a a13c 6ed9 cebd ba40 12bd a450 a3bd
00000140: a23e fd3b 4782 b5bd f8c0 a83d c80c eb3c
00000150: 6f24 b63d 56ee e83c 9087 74bd 8bc6 0d3e
00000160: 93da 09be af9d 10be 661d fe3c 2f6b 86bc
00000170: f6fc 333d ade7 37bd acd2 45bd 3e02 0fbe
00000180: db32 83bd 040f 383c ef10 68bc 5df2 e1bd
00000190: 2df1 4bbc 7cee d73c 2c14 babd c975 0fbe
000001a0: f996 e03c 0202 1bbe 99b6 17be 4404 96bd
000001b0: b4d8 9f3d 3d22 34bd 2251 eebd d3b5 67bb
000001c0: 4594 703d d1d0 23be f655 70bd ec04 07be
000001d0: 5873 f0bd decc 16be 8ede 8abd 7813 58bd
000001e0: bf05 46bb eb4b 913c bc88 a4bb 8a8b c83d
000001f0: 80c3 c8bd 8a62 62bd 6368 dcbd b98a b5bc
00000200: e54a e03d dd47 f2bd b562 083e f2df a53d
00000210: 8849 ae3d 5c2d 393d 0c34 30bd 3142 a9bd
00000220: 0cc8 c23c 796b 163e 3cbd b0bc e2fb bc3d
00000230: d15f ae3d f583 12be e4d6 103e d813 b5bd
00000240: b310 d2bb 726a f9bd 8293 83bd 6134 a03c
00000250: 2b81 703d a440 67bd 50a6 003e a35a dfbc
00000260: 1de5 20bd 4c9b b43d 3c27 143e bc08 e83c
00000270: feb2 f2bd 6f10 173d 01b6 a6bd fda1 b8bd
00000280: f264 0ebd ca56 fabd 15de 183c 45c9 853d
00000290: 5ef5 c03d a947 6f3d c60a 85bd 00aa 673d
000002a0: fb6e 0dbc d9c8 89bd b4cf bb3d 71ca e33d
000002b0: 1e4d ed3d 34ab 0bbe 647e 7d3d 53a1 45bd
000002c0: 3f7c 8e3d 34b7 65bd 0585 62bd 14a8 19be
000002d0: 889e 14be 613f 183e f8a7 b83c 9d50 80bd
000002e0: a11d 8e3d 20f1 f53d 5da5 04be e8ff 87bd
000002f0: d5e9 b2bd 450e 073e 4e55 063e d73f 5ebd

bias_hh_l0 f4 [192]
0.08352391 0.044204835 0.11659116 0.066240475 0.116331145 0.028085465 -0.07715544 -0.050977517
0.12809129 0.112357184 -0.05200838 -0.031921122 0.074457884 -0.004283274 0.057636593 -0.06945705
0.09118614 0.13275452 0.10262175 -0.040551763 -0.07506608 -0.11830096 0.024781128 -0.04069904
0.054765288 0.0082522705 -0.04906973 -0.02511398 0.06321362 0.036851674 -0.066398814 0.10537312
-8.251759e-06 -0.048787937 0.1214564 -0.058218066 0.06552225 0.02783643 0.058478255 -0.10013322
-0.0010102913 0.1187489 -0.05648486 -0.018085353 -0.006611799 0.060352176 -0.028370775 0.14495939
-0.055874 0.06543801 -0.04876189 -0.012186612 -0.034506287 0.054875024 0.056067783 -0.03829596
0.0829591 0.038617495 0.011752617 -0.02931191 0.020748256 0.009385329 0.12915492 -0.072883315
-0.090413325 -0.01308984 -0.0038048904 -0.012404961 0.107585035 0.07805703 -0.05846902 0.06492723
0.02136807 0.005518438 0.029583164 0.05253357 -0.06989799 -0.09380326 0.0529919 -0.0026063586
-0.077838786 0.035141803 0.055834327 -0.11394401 0.021010982 -0.1253908 -0.04910536 -0.044106532
-0.052877314 0.0007754632 0.051744264 -0.13812003 0.07066946 -0.13272999 -0.12578034 -0.13568674
-0.06213241 -0.07886489 -0.04231961 0.03669291 -0.008683068 -0.08054072 0.072085254 0.015298114
0.041602295 -0.05288663 0.06427403 0.039395913 -0.05954858 0.014824326 0.094773665 0.029507525
-0.08027456 0.026400272 0.039333034 -0.0020750836 -0.113717586 -0.066796646 -0.00074484776 -0.12132092
-0.055992536 0.097328834 -0.06912815 -0.11139651 -0.14262868 -0.006532853 -0.09165955 -0.067784876
-0.017217815 -0.12194618 0.13888262 -0.09559085 -0.06903343 -0.103848815 0.012197758 0.06573829
-0.09544655 0.076277755 -0.06212334 0.13664982 -0.01648259 0.0010695374 0.0028123998 0.038766433
0.033852786 -0.032904983 0.11542324 -0.14550562 -0.06875498 0.067424275 0.011339703 0.0400053
0.028374529 0.025409246 0.068215646 -0.10771964 -0.12230234 -0.012847398 -0.08061043 0.11743017
-0.025908316 -0.09000872 -0.08913475 -0.11875063 0.024292123 0.1082651 -0.03172849 0.12631162
-0.082563534 -0.02262303 0.016210284 -0.0050553046 0.13670708 -0.01801795 -0.03395144 -0.07341318
0.0056323376 -0.021716148 -0.05298719 -0.0036981096 -0.15247108 0.03949078 -0.051036026 -0.041988507
0.11970067 0.05915338 0.05456532 -0.012363353 0.1377482 0.109578736 0.100096755 0.02524604
00000000: 950e ab3d 2110 353d 59c7 ee3d 16a9 873d
00000010: 063f ee3d 7d13 e63c ac03 9ebd cdcd 50bd
00000020: 5d2a 033e 861b e63d bd06 55bd b9bf 02bd
00000030: 607d 983d b55a 8cbb 5914 6c3d 7f3f 8ebd
00000040: cdbf ba3d cdf0 073e 5a2b d23d 9b19 26bd
00000050: 3fbc 99bd c647 f2bd cb01 cb3c 09b4 26bd
00000060: 9151 603d 8834 073c 57fd 48bd d5bb cdbc
00000070: 2476 813d c8f1 163d 1afc 87bd ddcd d73d
00000080: 0971 0ab7 dcd5 47bd 22be f83d 1176 6ebd
00000090: 8830 863d 3a09 e43c e586 6f3d a512 cdbd
000000a0: c06b 84ba a032 f33d ab5c 67bd bc27 94bc
000000b0: caa7 d8bb d833 773d d469 e8bc 3c70 143e
000000c0: 23dc 64bd 5d04 863d 8cba 47bd 5baa 47bc
000000d0: 7756 0dbd a2c4 603d 55a7 653d 39dc 1cbd
000000e0: 76e6 a93d 612d 1e3d 0c8e 403c 881f f0bc
000000f0: 3ff8 a93c ecc4 193c 3041 043e d943 95bd
00000100: 9f2a b9bd c576 56bc 785b 79bb 2d3e 4bbc
00000110: 8b55 dc3d 5ddc 9f3d 367d 6fbd 91f8 843d
00000120: 170c af3c 03d4 b43b 6458 f23c 712d 573d
00000130: ad26 8fbd ec1b c0bd 090e 593d 71cf 2abb
00000140: f169 9fbd daf0 0f3d 89b2 643d 7a5b e9bd
00000150: 391f ac3c 7266 00be b422 49bd 0da9 34bd
00000160: e295 58bd 7448 4b3a cbf1 533d 566f 0dbe
00000170: 26bb 903d 5fea 07be 90cc 00be 77f1 0abe
00000180: 8e7e 7ebd ea83 a1bd 5457 2dbd 4e4b 163d
00000190: 6d43 0ebc 88f2 a4bd 6fa1 933d f1a4 7a3c
000001a0: 2b67 2a3d a79f 58bd 1aa2 833d 9c5d 213d
000001b0: 36e9 73bd bbe1 723c b218 c23d c4b9 f13c
000001c0: fd66 a4bd 6245 d83c ad1b 213d 20fe 07bb
000001d0: c4e4 e8bd aecc 88bd e341 43ba 1a77 f8bd
000001e0: 6e58 65bd 5754 c73d 0f93 8dbd da23 e4bd
000001f0: 410d 12be 8b11 d6bb 01b8 bbbd ccd2 8abd
00000200: 600c 8dbc ebbe f9bd 3f37 0e3e 23c5 c3bd
00000210: 6661 8dbd b0ae d4bd 1bd9 473c cca1 863d
00000220: 7b79 c3bd 8337 9c3d 0b75 7ebd eeed 0b3e
00000230: 7f06 87bc b82f 8c3a 3d50 383b 8dc9 1e3d
00000240: 38a9 0a3d 60c7 06bd 0563 ec3d 6dff 14be
00000250: 69cf 8cbd bd15 8a3d 29ca 393c 99dc 233d
00000260: b371 e83c 0d27 d03c a5b4 8b3d 1d9c dcbd
00000270: a679 fabd e57d 52bc 1517 a5bd 3b7f f03d
00000280: ad3d d4bc 7e56 b8bd 488c b6bd 8833 f3bd
00000290: 4600 c73c 18ba dd3d bcf5 01bd d557 013e
000002a0: 1217 a9bd ef53 b9bc 6ecb 843c f8a6 a5bb
000002b0: f1fc 0b3e 619a 93bc aa10 0bbd a659 96bd
000002c0: 798f b83b 10e6 b1bc 1909 59bd fc5b 72bb
000002d0: 6121 1cbe 16c1 213d 270b 51bd 24fc 2bbd
000002e0: a025 f53d d14a 723d e37f 5f3d a98f 4abc
000002f0: dd0d 0d3e d16a e03d 87ff cc3d c9d0 ce3c

weight f4 [1, 64]
0.06201585 -0.122138776 0.099414214 -0.12563922 -0.016591998 -0.11362383 -0.11084725 0.086373515
-0.12554164 0.15673546 -0.1364011 0.02573569 0.10320153 -0.15546197 0.08505337 -0.14861779
-0.034654647 -0.14798334 0.066625625 -0.016012121 -0.14555275 -0.11841912 0.13154429 -0.0038087424
-0.05022437 0.11504666 0.124216095 -0.061946888 -0.15100695 -0.09026072 -0.12223786 0.040043462
0.08208738 -0.03914696 0.15581481 -0.10305278 -0.094503924 0.09366636 0.03736137 0.09321268
-0.028779246 0.08241173 0.14146689 0.06462187 0.076255776 -0.08403005 -0.1458418 -0.05553172
0.092907384 -0.02871706 0.024409844 -0.11153105 -0.13116343 0.12659962 0.051643517 0.026820652
0.08793492 0.011128261 -0.046226293 -0.01600097 0.025705246 0.12755269 0.052692734 -0.006615426
00000000: 5504 7e3d e523 fabd ae99 cb3d 91a7 00be
00000010: f1eb 87bc 9cb3 e8bd e203 e3bd 99e4 b03d
00000020: fd8d 00be 437f 203e bbac 0bbe a7d3 d23c
00000030: 535b d33d 6c31 1fbe 7630 ae3d 432f 18be
00000040: 08f2 0dbd f288 17be 0473 883d da2b 83bc
00000050: c80b 15be b985 f2bd 8cb3 063e 189c 79bb
00000060: 12b8 4dbd 959d eb3d 0265 fe3d 05bc 7dbd
00000070: 91a1 1abe 9dda b8bd d857 fabd 9d04 243d
00000080: 6e1d a83d 9058 20bd eb8d 1f3e 560d d3bd
00000090: 468b c1bd 26d4 bf3d 3c08 193d 4ae6 be3d
000000a0: 74c2 ebbc 7bc7 a83d b2dc 103e 7958 843d
000000b0: fd2b 9c3d f217 acbd 8e57 15be 3b75 63bd
000000c0: 3a46 be3d 0a40 ebbc 27f7 c73c 646a e4bd
000000d0: b54f 06be 55a3 013e 2788 533d fcb6 db3c
000000e0: 3917 b43d 4f53 363c c857 3dbd 7714 83bc
000000f0: cf93 d23c 2c9d 023e 56d4 573d 37c6 d8bb
