models/gru_encoder/checkpoint/trained_irdpg_60.pth (torch, 409346 bytes, 22 tensors)

weight_ih_l0 f4 [192, 64]
0	0x3df1d668	0.11808473
1	0x3d204cec	0.03913586
2	0x3ddcfce2	0.10790421
3	0x3d0acf24	0.03388895
4	0x3dae7482	0.08518316
5	0x3d8cbd86	0.06872086
6	0xbcfff95d	-0.031246835
7	0x3d1f09e0	0.038827777
8	0x3dd263a6	0.10272913
9	0xbc2164a0	-0.009850651
10	0xbce23244	-0.02761186
11	0xbdc6d2ec	-0.09708199
12	0xbcaac211	-0.020844491
13	0x3c1c3271	0.009533511
14	0xbbd93df4	-0.0066297
15	0x3c85e0f0	0.01634261
16	0xbba47647	-0.0050189826
17	0x3d336544	0.043797746
18	0xbd17c923	-0.037057053
19	0xbd025e30	-0.031828105
20	0x3d867f1d	0.06567214
21	0xbdb6fc58	-0.089348495
22	0xbe01fd68	-0.12694323
23	0xbd246577	-0.040135827
24	0xbdcca98d	-0.09993277
25	0x3da02e70	0.07821357
26	0x3dd2e870	0.1029824
27	0xbd971a70	-0.073780894
28	0xbd9cc95c	-0.07655594
29	0x3cd9d170	0.026589125
30	0xbd1f9b28	-0.038966328
31	0xbdab0002	-0.08349611
32	0xbca3a07b	-0.019973984
33	0x3d0b73e8	0.034046084
34	0xbdd80450	-0.105476975
35	0xbc4c9fb2	-0.012489246
36	0xbcde23e8	-0.02711673
37	0xbde3dd32	-0.11126174
38	0x3dee0912	0.11622824
39	0x3d86ec18	0.06588
40	0xbd8a442a	-0.067512825
41	0xbdeb4bd6	-0.11489074
42	0x3dfb5adc	0.122731894
43	0xbb2be6e8	-0.002623016
44	0x3d8c8234	0.06860772
45	0x3cdcfc88	0.026975885
46	0xbd89881b	-0.06715413
47	0x3dc929c4	0.09822419
48	0xbd97575e	-0.07389711
49	0xbd8f5724	-0.06999043
50	0x3de523e8	0.11188489
51	0xbdc5ed4e	-0.09664403
52	0x3dd9c87c	0.106339425
53	0x3d9fef2a	0.07809289
54	0x3d6019d6	0.05471214
55	0xbd34b32c	-0.044116184
56	0xbd0272b1	-0.03184766
57	0x3de465ec	0.111522526
58	0x3debabf4	0.11507407
59	0x3dd1a82d	0.10237155
60	0x3de97e8d	0.11401091
61	0x3cdf18c3	0.027233487
62	0xbbb37e60	-0.0054777116
63	0xbdc28225	-0.09497479
64	0xbd6b456c	-0.057439253
65	0x3d9ed98b	0.07756337
66	0xbd2696de	-0.040671222
67	0xbd644a20	-0.055734754
68	0xbd87665e	-0.06611322
69	0x3dc04c54	0.093895584
70	0xbde2b9d4	-0.110706
71	0xbd0dc744	-0.034613863
72	0x3d60ce50	0.054884255
73	0x3d1a06dc	0.037604198
74	0x3def7151	0.11691535
75	0xbd68b488	-0.056812793
76	0xbd26e1fe	-0.040742867
77	0x3cfec962	0.031101886
78	0x3d81df56	0.06341426
79	0xbda514a0	-0.080605745
80	0x3d580bee	0.052745752
81	0xbcdc3335	-0.026879886
82	0xbda172c6	-0.078832194
83	0x3d870b62	0.06593968
84	0xbbc98cab	-0.006150802
85	0xbdc3fcc6	-0.09569697
86	0xbd37c1f2	-0.044862695
87	0x3d33fcb9	0.043942187
88	0x3cd8785a	0.026424576
89	0x3d69f9ef	0.05712312
90	0xbd8a9596	-0.067668125
91	0xbde31426	-0.110878274
92	0xbdeec390	-0.11658394
93	0xbd7bb14c	-0.06144838
94	0x3df1fcf4	0.11815825
95	0x3b9b64a3	0.0047422214
96	0xbdf9d4df	-0.12198805
97	0x3d8115be	0.06302975
98	0xbdceee19	-0.10104007
99	0x3d7110c2	0.058853872
100	0x3de1cbc6	0.11025195
101	0xbbfc7960	-0.0077048987
102	0xbdb7b048	-0.0896917
103	0xbdfac012	-0.12243666
104	0x3dfd9ba5	0.123832025
105	0xbdc359dc	-0.09538624
106	0x3dd05be9	0.101737805
107	0x3da48c79	0.080346055
108	0x3d1f5ace	0.038904957
109	0xbd9a9720	-0.07548356
110	0xbdeda87d	-0.11604402
111	0x3de43c72	0.111443415
112	0x3cf04e62	0.02933425
113	0x3c8470e5	0.016167114
114	0xbdfbb208	-0.12289816
115	0xbcb2bb44	-0.02181781
116	0xbdc88101	-0.097902305
117	0x3d89af47	0.067228846
118	0xbdbf9cc6	-0.09356074
119	0xbdb7a171	-0.089663394
120	0xbd9caf4f	-0.07650625
121	0x3df9edac	0.122035354
122	0xbd814052	-0.06311096
123	0x3d64a181	0.055818085
124	0x3c6a438d	0.014298332
125	0x3c76c1fd	0.015060899
126	0x3a38d500	0.00070507824
127	0x3db3ae12	0.08773436
128	0xbcb3f583	-0.021967655
129	0x3ce91304	0.02845145
130	0xbdd1c973	-0.102435015
131	0xbc667af0	-0.0140673965
132	0xbdec37e0	-0.11534095
133	0xbdc215b1	-0.094767936
134	0x3d5336b3	0.051565837
135	0xbd354a78	-0.044260472
136	0x3c075440	0.008259833
137	0xbc208390	-0.009796992
138	0x3db58228	0.08862716
139	0xbde578b4	-0.11204663
140	0x3c935135	0.017983058
141	0xbd7ffd9d	-0.062497724
142	0x3b0dfc4b	0.002166527
143	0xbdf43814	-0.119247586
144	0xbd3ac726	-0.04560008
145	0x3d4c2966	0.049844168
146	0xbd591b6a	-0.05300466
147	0x3d039024	0.032119885
148	0x3d9e7449	0.077370234
149	0xbd9250c4	-0.07144311
150	0x3d1e7ef2	0.038695283
151	0xbddff959	-0.10936231
152	0x3df52eb4	0.119717985
153	0xbd86722e	-0.06564747
154	0xbd21bea8	-0.039488465
155	0x3dbeffae	0.09326111
156	0xbd8707cc	-0.06593284
157	0xbddce5a8	-0.10785991
158	0xbd75021c	-0.059816465
159	0xbc00b528	-0.007855691
160	0x3d938e50	0.07204878
161	0xbdbdea6c	-0.09273228
162	0xbd6c922d	-0.05775659
163	0xbd65afe1	-0.056075934
164	0x3d2d9bb9	0.042384837
165	0x3dba1110	0.09085286
166	0xbd56a488	-0.052403003
167	0x3c4f3450	0.01264675
168	0xbd47b3ee	-0.04875558
169	0xbd7e6428	-0.062107235
170	0x3dd8055d	0.10547898
171	0xbbe09050	-0.006853141
172	0xbc825e64	-0.01591415
173	0x3dbc0e86	0.091824576
174	0x3dc44a79	0.09584517
175	0x3dc3be18	0.09557742
176	0xbb2a64c8	-0.0026000012
177	0xbc44dad3	-0.012015062
178	0xbdac1ebe	-0.08404301
179	0xbdebca46	-0.1151319
180	0xbd9eeb07	-0.07759672
181	0xbc48d45c	-0.012257662
182	0xbc61b37a	-0.013775701
183	0x3dae743b	0.08518263
184	0xbd70a4ec	-0.05875103
185	0xbddc63e4	-0.1076124
186	0xbd40fcc0	-0.04711604
187	0x3be421f2	0.0069620544
188	0x3d82b18e	0.06381522
189	0x3d7b08bf	0.061287638
190	0xbc0020b0	-0.007820293
191	0xbc042425	-0.008065258
192	0x3de9f1b8	0.11423057
193	0x3b243879	0.0025058074
194	0xbd15c18b	-0.03656153
195	0xbdf3dff4	-0.1190795
196	0x3d33e348	0.043917924
197	0xbd8929ce	-0.06697427
198	0x3dd3022c	0.103031486
199	0x3d387258	0.04503092
200	0x3d461914	0.04836376
201	0x3c57d340	0.0131729245
202	0x3d543b90	0.051814616
203	0x3dfefc66	0.12450485
204	0x3aa44e0c	0.0012535467
205	0x3df93550	0.12168372
206	0x3d755088	0.059891254
207	0xbdcafb50	-0.09911215
208	0x3dd491d9	0.10379381
209	0x3d258a77	0.040415253
210	0xbddef176	-0.10885899
211	0xbd687f38	-0.05676195
212	0xbdcdef30	-0.10055387
213	0xbd97923e	-0.0740094
214	0x38e930a7	0.00011119368
215	0x3c5a1b5f	0.01331219
216	0x3d7bf878	0.061516255
217	0x3d460ffb	0.048355084
218	0xbc3de590	-0.0115903765
219	0x3dd6eb2e	0.10494076
220	0x3cb2daf0	0.021832913
221	0x3cfc5a38	0.030804738
222	0x3df46124	0.119325906
223	0xbda18c63	-0.07888105
224	0x3df80309	0.12109954
225	0x3cd2dfe0	0.025741518
226	0xbd226e1b	-0.039655786
227	0xbdfe4527	-0.124155335
228	0xbdb2e061	-0.08734203
229	0xba0f9c00	-0.0005478263
230	0xbdd75ebc	-0.10516116
231	0x3c8d72a8	0.017266586
232	0xbdeca0db	-0.11554118
233	0xbd2fac9c	-0.042889223
234	0xbdda5bdd	-0.10662053
235	0x3df59289	0.1199084
236	0xbd214c06	-0.039379142
237	0x3cafd018	0.021461532
238	0x3d80ef79	0.06295676
239	0xbbf22680	-0.0073898435
240	0x3d1041d2	0.03521902
241	0x3df14b4b	0.11781939
242	0x3ca3dbc8	0.02000226
243	0xbdb9fc51	-0.09081329
244	0xbd762073	-0.06008954
245	0x3dc19ea3	0.09454086
246	0x3dbf17e3	0.09330728
247	0xbdeca707	-0.115552954
248	0xbd1e16b3	-0.038595866
249	0xbdcdebd0	-0.10054743
250	0xba6d5d00	-0.00090546906
251	0xbdf592ab	-0.11990865
252	0xbdcfb8a5	-0.1014264
253	0x3d54a119	0.051911447
254	0xbc7a3910	-0.015272394
255	0xbda56150	-0.080752015

weight_hh_l0 f4 [192, 64]
0	0xbbad4029	-0.0052871895
1	0x3dbd6e24	0.09249523
2	0x3ddfa54c	0.109202
3	0x3d8e5df0	0.06951511
4	0xbdf218ac	-0.11821112
5	0xbdee5832	-0.11637916
6	0x3dc2bf7b	0.09509178
7	0x3d068055	0.03283723
8	0x3da3b74a	0.07993944
9	0xbddeb23d	-0.1087384
10	0xbd393833	-0.04521961
11	0xbcb2c46f	-0.021822182
12	0xbd8cdff5	-0.06878654
13	0xbdae20d6	-0.08502357
14	0x3d8113be	0.06302594
15	0xbcfaebd6	-0.030630033
16	0xbd1052d7	-0.035235252
17	0x3d947b64	0.072500974
18	0xbddaed23	-0.106897615
19	0xbd4c7e82	-0.049925335
20	0xbd3d3e64	-0.04620208
21	0xbb880ad5	-0.004151682
22	0xbd0b17cd	-0.033958245
23	0x3d9519b2	0.072802916
24	0xbcb953e5	-0.022623012
25	0xbddee26f	-0.108830325
26	0x3cf3fed8	0.029784605
27	0x3d8b3e4c	0.067989916
28	0xbb4a7531	-0.0030892605
29	0x3c99b511	0.018763097
30	0xbd813640	-0.063091755
31	0x3c547d50	0.01296933
32	0xbd97ddce	-0.07415353
33	0xbdfb18ea	-0.12260611
34	0x3d8ebd2b	0.06969675
35	0xbd6fa4af	-0.058506664
36	0x3d935abc	0.071950406
37	0xbd21125b	-0.039324146
38	0x3d73056a	0.059331335
39	0xbc27f17f	-0.010250448
40	0x3d87c43c	0.066292256
41	0xbdb8f9a6	-0.09031992
42	0xbd51ffcf	-0.05126935
43	0xbd0b1239	-0.033952925
44	0xbdde8893	-0.10865893
45	0x3da22765	0.0791767
46	0x3dab3f38	0.083616674
47	0xbd4c5b0e	-0.049891524
48	0xbdd50be3	-0.10402658
49	0x3d2e7268	0.042589575
50	0xbdd09ab0	-0.10185754
51	0x3deff9b9	0.11717553
52	0x3b2b9a3e	0.0026184465
53	0xbc5feb19	-0.0136668915
54	0x3dda23ae	0.106513366
55	0xbd9246db	-0.07142421
56	0xbdf844f7	-0.12122529
57	0xbdcfe73a	-0.10151525
58	0xbd75ba45	-0.059992094
59	0xbd686716	-0.056738935
60	0xbd0683ed	-0.032840658
61	0xbcd03237	-0.02541457
62	0xbddb0865	-0.106949605
63	0xbdd43444	-0.103615314
64	0x3dbb16c0	0.091351986
65	0x3d910446	0.07080893
66	0xbd06fa54	-0.032953575
67	0x3dd62fee	0.104583606
68	0x3d42a306	0.047518753
69	0x3de0cbcb	0.109763704
70	0xbdca1280	-0.0986681
71	0x3dc8f983	0.098132156
72	0xbdacca7f	-0.084370606
73	0x3cd08bff	0.02545738
74	0xbd39c9a2	-0.045358308
75	0x3a956d82	0.0011400434
76	0xbd14fb4b	-0.036372464
77	0xbe058a12	-0.13040951
78	0x3d05d4ee	0.03267377
79	0xbd570cdb	-0.052502494
80	0x3d724c76	0.05915495
81	0xbd6a51c2	-0.057206877
82	0xbd14b200	-0.036302567
83	0xbd84e335	-0.06488649
84	0xbd669923	-0.056298386
85	0x3d514bdc	0.051097736
86	0xbd8836f7	-0.06651109
87	0xbcc939bb	-0.02456366
88	0xbddd1e19	-0.10796756
89	0xbd5bbd6a	-0.053647436
90	0xbdd8ea23	-0.10591533
91	0x3cd51b11	0.026013883
92	0xbd2571be	-0.040391676
93	0xbdd9dcc3	-0.1063781
94	0x3df56bc8	0.11983448
95	0xbdf2afe9	-0.118499584
96	0xbd5d23a3	-0.053989064
97	0x3deaebfe	0.11470793
98	0x3ccc1276	0.024911147
99	0x3d98eb38	0.074667394
100	0x3b73e15b	0.003721318
101	0x3debd484	0.115151435
102	0x3db7a2f9	0.089666314
103	0x3d8cb43a	0.06870313
104	0xbcb57511	-0.022150548
105	0xbde07747	-0.1096025
106	0xbd7bff93	-0.06152303
107	0xbdffad7b	-0.12484261
108	0xbdd4117d	-0.10354898
109	0x3d12cf53	0.03584225
110	0x3d846a3f	0.06465577
111	0x3d8c9c2a	0.068657234
112	0xbc00ab27	-0.007853306
113	0xbcee4678	-0.029086336
114	0xbde09da5	-0.10967568
115	0xbdaa1c88	-0.08306223
116	0x3c415d29	0.011801996
117	0x3da66fed	0.08126817
118	0x3d880210	0.066410184
119	0xbb9820e5	-0.004642593
120	0xbd92401a	-0.07141133
121	0xbdb66aaf	-0.08907067
122	0xbddd6a16	-0.1081125
123	0xbbd283b3	-0.006424391
124	0xbccb050b	-0.024782678
125	0xbcd036ce	-0.025416758
126	0xbddea953	-0.1087214
127	0x3bd4ef84	0.006498279
128	0xbcb15e45	-0.021651397
129	0x3dd35f88	0.103209555
130	0x3d3bd3a1	0.045856122
131	0xbd80120b	-0.062534414
132	0xbdb5bdd6	-0.08874099
133	0xbd9f092d	-0.07765422
134	0xbd6104f9	-0.054936383
135	0xbd554aeb	-0.0520734
136	0xbda4c685	-0.08045677
137	0xbd115a3e	-0.035486452
138	0x3d05e8b5	0.03269263
139	0x3c5956f9	0.013265365
140	0x3b86f3a1	0.0041183983
141	0x3c6e246b	0.01453505
142	0xbd0b201a	-0.03396616
143	0xbcef3905	-0.029201994
144	0xbde43978	-0.11143774
145	0x3d286990	0.041116297
146	0xbdc77c92	-0.09740557
147	0x3db4f705	0.08836178
148	0xbdb778da	-0.089585975
149	0x3dc15d1c	0.09441587
150	0x3dde369c	0.1085026
151	0x3db27124	0.08712986
152	0xbdcf764c	-0.10129985
153	0xbd659077	-0.056045976
154	0x3b05db3b	0.002042486
155	0x3cb36519	0.021898793
156	0x3ddc593a	0.10759206
157	0x3de3c362	0.11121251
158	0xbdcbbbb3	-0.0994791
159	0x3d4ae618	0.04953584
160	0xbdcd38a5	-0.1002057
161	0xbdbf2ad7	-0.09334343
162	0xbd5da0a8	-0.054108292
163	0xbd83c3c3	-0.06433823
164	0x3d373802	0.044731148
165	0x3b9cb82a	0.0047826963
166	0x3dc97af1	0.09837902
167	0x3dec8bb3	0.11550083
168	0xbd6576cc	-0.056021497
169	0x3d9bd90c	0.07609758
170	0x3deef835	0.116684355
171	0x3d504cf7	0.05085465
172	0x3deee8ed	0.11665521
173	0x3dc1640b	0.0944291
174	0xbda67a73	-0.08128824
175	0xbd13d889	-0.036095176
176	0xbd47bf71	-0.048766557
177	0xbdaf0a44	-0.0854688
178	0x3de298c1	0.11064292
179	0xbd4aa852	-0.04947693
180	0xbcdca36e	-0.026933398
181	0xbd2d20ea	-0.042267717
182	0x3dd361c1	0.103213795
183	0xbdcaaec4	-0.09896615
184	0xbc0c3b00	-0.008558989
185	0xbe020fd9	-0.12701358
186	0xbd4bb275	-0.049730737
187	0x3b3f4005	0.0029182446
188	0xbc80bcc5	-0.015715012
189	0xbcc9f096	-0.024650853
190	0xbdd7a500	-0.10529518
191	0xbbdb36db	-0.006689889
192	0x3def636a	0.116888836
193	0x3d02bc72	0.031917997
194	0xbd186d6b	-0.037213724
195	0x3db79fe1	0.08966041
196	0xbd8fb5f5	-0.070171274
197	0x3de25d71	0.11052979
198	0xbddd643c	-0.10810134
199	0x3dc03d7d	0.09386728
200	0x3d1acb18	0.03779134
201	0xbce13cf8	-0.027494892
202	0xbda91e65	-0.082577504
203	0x3d91ec20	0.071251154
204	0xbddfaf57	-0.10922115
205	0x3dbfc4c9	0.09363706
206	0x3c9a48a6	0.01883347
207	0x3dc216b1	0.09476984
208	0x3db33ea8	0.08752185
209	0x3c2eb19e	0.010662464
210	0xbd99d86b	-0.075119816
211	0xbcb0be6c	-0.021575175
212	0xbde3f6a4	-0.11131027
213	0x3c974e6f	0.018470017
214	0xbd9840af	-0.074342124
215	0xbd25544a	-0.040363587
216	0xbdfe2ee8	-0.124112904
217	0x3dd2fe42	0.10302402
218	0xbd969149	-0.0735193
219	0x3dd4e631	0.10395468
220	0xbdc9a31d	-0.098455645
221	0x3df9426b	0.12170871
222	0x3df91ea8	0.1216405
223	0x3cb8c7c0	0.022556186
224	0xbda5e1ca	-0.080997065
225	0x3dc23b11	0.09483922
226	0x3c51171b	0.012761856
227	0x3d9a7697	0.075421505
228	0xbd4de0d5	-0.050263245
229	0xbdefb9d1	-0.117053635
230	0xbcc74091	-0.02432278
231	0x3d0fa28a	0.03506712
232	0xbd1e0de5	-0.03858747
233	0xbd67a5da	-0.056554653
234	0xbd04d2b1	-0.032427493
235	0xbd9baffc	-0.07601926
236	0x3d8d03c0	0.06885481
237	0x3d7b9f96	0.06143149
238	0x3d9840cf	0.07434236
239	0x3ddec465	0.10877303
240	0x3dad3de1	0.08459068
241	0xbd1880a6	-0.037232064
242	0x3d488668	0.048956305
243	0xbd2c08e8	-0.04200068
244	0xbb7f3e28	-0.003894696
245	0x3da3ddbc	0.08001277
246	0x3d97e70f	0.07417118
247	0x3dc11f50	0.094298005
248	0xbd1195eb	-0.035543364
249	0xbc188158	-0.009308182
250	0x3ca91d5a	0.020643879
251	0xbbbd10c0	-0.005769819
252	0xbc150c23	-0.009097132
253	0x3db4c488	0.08826548
254	0xbd2a57b0	-0.04158753
255	0xbd840d9d	-0.06447909

bias_ih_l0 f4 [192]
0	0xbd96d74c	-0.07365283
1	0xbd8950c5	-0.06704859
2	0xbd4ba666	-0.049719237
3	0x3d8d47eb	0.06898483
4	0xbdfc74e9	-0.12326986
5	0x3cbcefec	0.023063622
6	0x3d7eefb4	0.062240317
7	0xbdf809f3	-0.12111273
8	0x3d2b9b45	0.041896123
9	0xbddcbd39	-0.10778279
10	0xbba764f6	-0.005108471
11	0x3d18d538	0.037312716
12	0x3e0150c8	0.12628472
13	0xbdbaf554	-0.09128824
14	0xbddf09f9	-0.10890574
15	0x3d2867be	0.04111456
16	0x3dcc9c97	0.09990805
17	0x3b6c544c	0.0036060987
18	0x3d2421d7	0.040071335
19	0x3d49befc	0.049254403
20	0x3db26bcf	0.08711969
21	0x3da47393	0.080298565
22	0xbd309ce8	-0.043118387
23	0xbd93b649	-0.072125025
24	0x3da135ec	0.07871613
25	0xbbb7003b	-0.0055847443
26	0xbd4f8aae	-0.050669365
27	0xbde5f1f7	-0.11227792
28	0x3d71d8f8	0.05904481
29	0x3d344fa0	0.04402125
30	0xbc874389	-0.016511695
31	0xbd14fe9f	-0.036375638
32	0x3dcb7313	0.09934058
33	0xbddbb1f1	-0.10727299
34	0xbd5902ab	-0.05298106
35	0xbdd4a22d	-0.10382495
36	0x3dad0d59	0.084498115
37	0x3dc1d8c6	0.094651744
38	0xbddb7139	-0.10714955
39	0x3db0221d	0.086002566
40	0xbd69dd5d	-0.057095874
41	0xbdc57c9e	-0.096429095
42	0xbc1c8d63	-0.009555194
43	0x3d7065db	0.058690887
44	0x3da71b00	0.08159447
45	0x3db0d644	0.08634618
46	0x3d3a0e91	0.045424048
47	0xbd8b4d5d	-0.06801865
48	0xbc2e1654	-0.010625441
49	0xbcb42893	-0.021992004
50	0xbe024f40	-0.12725544
51	0xbdda8c96	-0.10671346
52	0xba46a25e	-0.0007577295
53	0x3dc93de9	0.098262616
54	0xbc9edbe8	-0.019391969
55	0x3df936a8	0.12168628
56	0x3d717cec	0.058957025
57	0xbcb0f748	-0.021602288
58	0x3cc2f123	0.023796624
59	0xbbd5e452	-0.006527462
60	0xbdd302af	-0.10303246
61	0x3c6dda90	0.014517441
62	0x3cc4d5ab	0.024027666
63	0x3c3a5014	0.011371631
64	0xbd8835ee	-0.06650911
65	0xbc34c056	-0.011032185
66	0x3c92c31a	0.017915297
67	0x3cd2bad3	0.02572385
68	0xbd784a63	-0.060617816
69	0x3c9c69dd	0.019093448
70	0x3de7c4b5	0.11316816
71	0x3de3cb2e	0.11122738
72	0x3cbf909e	0.023384389
73	0xbdbd3afd	-0.09239767
74	0xbd454c9a	-0.048168756
75	0xbd5fef3d	-0.054671515
76	0xbb2f35cc	-0.0026734946
77	0x3c480d19	0.012210154
78	0xbd865b49	-0.0656038
79	0xbdb80dad	-0.089869834
80	0xbdee5949	-0.116381235
81	0x3d6b8db4	0.057508186
82	0xbcdaddbc	-0.02671706
83	0xbd870ae4	-0.06593874
84	0x3df3315f	0.11874651
85	0x3db6d51e	0.08927368
86	0xbdeb71ca	-0.11496313
87	0xbdd22f0f	-0.10262882
88	0x3de0f304	0.109838516
89	0x3d96f263	0.0737045
90	0xbdedab4b	-0.11604937
91	0xbda8aebf	-0.08236455
92	0xbcb11341	-0.021615626
93	0xbd5e0529	-0.05420414
94	0xbd04778e	-0.03234058
95	0x3dd40a9c	0.10353586
96	0xbbcb558d	-0.006205267
97	0x3d8c8e7f	0.068631165
98	0x3dde55fa	0.108562425
99	0x3d9a4be0	0.07534003
100	0x3dd90f6d	0.10598645
101	0x3ddf9d1b	0.10918637
102	0xbdcc7e6e	-0.09985052
103	0xbd6d6de3	-0.057966124
104	0x3d211b55	0.039332706
105	0x3c540eb5	0.01294296
106	0x3d906788	0.07050997
107	0xbc843a09	-0.016140955
108	0x3db2c386	0.087286994
109	0xbdb59dd3	-0.08867993
110	0x3d88f4b1	0.06687296
111	0x3d70246e	0.058628492
112	0x3c82fefb	0.015990725
113	0x3de0ed86	0.10982804
114	0x3d4a7712	0.04942996
115	0xbc1c9e18	-0.009559177
116	0x3dd188af	0.102311485
117	0x3c8b7b7a	0.017026652
118	0x3d665309	0.056231532
119	0xbd78ecc7	-0.060772683
120	0xbcca644b	-0.024706027
121	0xbbbd93c7	-0.0057854387
122	0x3c4cb786	0.012494927
123	0xbd0dce7d	-0.03462075
124	0xbda31fdc	-0.07965061
125	0xbc6d7d86	-0.014495259
126	0x3e01a922	0.12662175
127	0x3d89b38b	0.06723698
128	0x3d136c61	0.03599203
129	0xbde07c6c	-0.109612316
130	0xbdeaa775	-0.11457721
131	0xbda05a1c	-0.07829687
132	0xbda9ce2d	-0.08291278
133	0x3d659b73	0.05605645
134	0xbdf4565e	-0.11930536
135	0x3d7ae45e	0.061252944
136	0xbdda0192	-0.10644831
137	0x3d14dff1	0.03634638
138	0xbe00b3b8	-0.12568557
139	0x3d2d9d24	0.04238619
140	0xbcfc5056	-0.030800026
141	0xbd07d037	-0.033157554
142	0xbc8301d6	-0.015992086
143	0xbbe39010	-0.006944664
144	0x3c727c9a	0.014800215
145	0xbd77eb45	-0.060527105
146	0xbcd8e806	-0.026477825
147	0x3dac8bc7	0.08425098
148	0x3dcadbfd	0.09905241
149	0x3de3384a	0.11094721
150	0xbda8b858	-0.08238286
151	0x3d78bf88	0.060729533
152	0xbd0f2f8b	-0.03495745
153	0xbc6fa1b9	-0.01462596
154	0xbdc902d2	-0.09814991
155	0x3dfd76ed	0.12376199
156	0x3d51f9e8	0.05126372
157	0xbd56ed09	-0.052472148
158	0x3da2d72a	0.079511955
159	0x3d5d7339	0.054064963
160	0x3de77b9b	0.11302873
161	0xbbc724e9	-0.006077398
162	0x3dbf8d4c	0.09353122
163	0xbdc44788	-0.09583956
164	0x3d919b0d	0.07109652
165	0xbd81f0ee	-0.06344782
166	0x3dbcf3af	0.092261665
167	0xbdf0ddf8	-0.11761087
168	0x3c1a551a	0.009419704
169	0xbdb299bc	-0.08720729
170	0x3cdab9f2	0.026699994
171	0xbd14df83	-0.03634597
172	0x3d7f6c50	0.062359154
173	0xbd300265	-0.042971034
174	0xbd366244	-0.044527307
175	0xbca3664c	-0.01994624
176	0x3cde09e2	0.027104322
177	0x3d74dc54	0.059780434
178	0x3d882f5e	0.066496596
179	0x3d559b71	0.052150194
180	0x3c62a50b	0.013833295
181	0xbda3733f	-0.07980966
182	0x3d70ba53	0.058771443
183	0xbd0c90e4	-0.034317866
184	0xbd5823cc	-0.052768514
185	0x3ddeb5f2	0.10874547
186	0x3b67ac67	0.0035350563
187	0xbdb91594	-0.09037319
188	0xbdc7a2d2	-0.097478524
189	0xbdaa38ba	-0.08311601
190	0xbdc424bc	-0.09577319
191	0xbbc894e0	-0.006121263

bias_hh_l0 f4 [192]
0	0x3c9b0be1	0.018926563
1	0xbdae3f63	-0.08508184
2	0xbd63a89a	-0.055580713
3	0x3dd60639	0.10450406
4	0xbb32694d	-0.0027223409
5	0xbdb46aff	-0.088094704
6	0x3d14fbe4	0.036373034
7	0x3ddc9565	0.10770682
8	0xbd536cc7	-0.05161741
9	0xbd1bb25a	-0.038011886
10	0xbc9d0f6e	-0.019172397
11	0xbd58e438	-0.05295202
12	0x3d9ff36f	0.07810103
13	0x3d954a62	0.07289578
14	0x3dd550a1	0.10415769
15	0x3dc67cc0	0.09691763
16	0x3db1ef27	0.08688193
17	0x3d79ee49	0.061018262
18	0xbc554fc3	-0.013019505
19	0x3d32a800	0.04361725
20	0xbd73b5a8	-0.059499413
21	0x3c48277e	0.012216447
22	0xb99fcc53	-0.00030479077
23	0x3caba205	0.02095128
24	0x3d4291f1	0.04750246
25	0x3dea3506	0.11435895
26	0xbda9672c	-0.082716316
27	0x3d84d7e2	0.06486489
28	0xbdd66407	-0.104682975
29	0x3d9dd294	0.0770618
30	0xbd5e6926	-0.054299496
31	0x3df73a97	0.12071722
32	0xbc84cdd2	-0.016211424
33	0x3c419f6b	0.011817793
34	0x3df8fd03	0.12157633
35	0x3dcd6cdf	0.10030531
36	0x3d727f05	0.059203167
37	0xbc193424	-0.00935081
38	0xbd8665af	-0.06562363
39	0x3de9c465	0.114144124
40	0xbd7dffc9	-0.062011514
41	0xbdf01822	-0.11723353
42	0xbd2d2130	-0.04226798
43	0xbcd5d945	-0.026104579
44	0x3db3f61a	0.087871745
45	0xbd653012	-0.055954047
46	0x3cb5771b	0.02215152
47	0x3d935219	0.07193393
48	0xbd400163	-0.046876322
49	0xbdc6c5ce	-0.09705697
50	0x3d44e0d1	0.048065964
51	0xbd988994	-0.07448116
52	0x3d64f663	0.055899035
53	0xbd78f1c6	-0.060777448
54	0x3d72b33b	0.05925296
55	0x3da9c1e4	0.08288935
56	0xbd100198	-0.03515777
57	0xbd2133c4	-0.03935601
58	0xbd181d4d	-0.03713732
59	0x3d841459	0.064491935
60	0x3d5f5dfe	0.054532997
61	0x3d89a8a7	0.06721621
62	0x3d9718ae	0.07377754
63	0x3d45e7e9	0.04831687
64	0x3df5bda6	0.11999063
65	0xbde75ea5	-0.11297349
66	0xbd972af7	-0.07381242
67	0xba536afa	-0.0008064952
68	0xbd6211ad	-0.05519264
69	0x3dc013d8	0.09378785
70	0xbd777cc9	-0.06042174
71	0x3de00190	0.10937798
72	0x3d6c32a1	0.05766547
73	0x3dccf155	0.10006968
74	0xbda3615e	-0.07977556
75	0xbdb1bab8	-0.08678192
76	0xbd9fb49c	-0.077981204
77	0x3dfef6a4	0.12449387
78	0xbd13f375	-0.03612085
79	0xbcd5f29a	-0.026116658
80	0xbdd8facd	-0.105947115
81	0xbd5796cc	-0.052634045
82	0xbd9044c0	-0.07044363
83	0xbd1017ac	-0.035178825
84	0xbda7903f	-0.0818181
85	0xbd3d8e10	-0.04627806
86	0xbe04a518	-0.12953603
87	0xbe00f1f9	-0.12592305
88	0x3db3ed22	0.08785464
89	0x3c02a8cf	0.007974817
90	0xbdd7f4e1	-0.10544754
91	0xbd869a6b	-0.06572422
92	0x3a0f8582	0.00054749113
93	0x3c9d3be0	0.01919359
94	0xbd16d49e	-0.03682386
95	0xbdd92984	-0.106036216
96	0xbdd7292b	-0.10505899
97	0x3db453e7	0.088050656
98	0x3c9ea529	0.019365864
99	0x3dcd700c	0.10031137
100	0xbd1d7f0c	-0.03845124
101	0xbbd8fbf2	-0.006621831
102	0xbc878c45	-0.016546378
103	0x3c422381	0.011849285
104	0x3e032ffc	0.12811273
105	0x3d766380	0.060153484
106	0xbd5362a2	-0.051607735
107	0xbde8f7d6	-0.11375396
108	0xbd9540d0	-0.07287753
109	0x3de789a1	0.113055475
110	0x3d20efb0	0.039291084
111	0xbd747486	-0.059681438
112	0x3dafb39a	0.08579178
113	0x3ce0ac66	0.027425956
114	0x3cc29bab	0.023755869
115	0x3d49ff37	0.049315657
116	0x3c49e222	0.012321981
117	0x3d668773	0.05628152
118	0x3d917354	0.07102075
119	0xbd4ea433	-0.05044956
120	0xbca97d13	-0.020689523
121	0xbdd0bf74	-0.10192767
122	0xbddf8d8f	-0.10915672
123	0x3c89f22f	0.016839115
124	0xbd347ae5	-0.044062514
125	0x3c09d26b	0.008411984
126	0x3d747757	0.059684124
127	0xbd657a88	-0.056025058
128	0xbd86706c	-0.065644115
129	0xbd53fb30	-0.051753223
130	0xbc879d06	-0.016554367
131	0x3c9f11ca	0.019417662
132	0xbc0e58e9	-0.00868819
133	0x3d02e83e	0.031959765
134	0xbda7ce11	-0.08193601
135	0xb904a91e	-0.00012651502
136	0xbdf2d290	-0.11856568
137	0x3cb4e88d	0.022083545
138	0x3cd2d7cd	0.025737667
139	0x3de4b99d	0.111682154
140	0x3ced471d	0.028964574
141	0x3d89f0fe	0.06735419
142	0x3cab4474	0.020906664
143	0x3d1da0e6	0.038483523
144	0x3da708cd	0.081559755
145	0x3d1dccb8	0.038525313
146	0x3d9e4724	0.07728413
147	0x3dddffe2	0.108398214
148	0xbdcfefbc	-0.101531476
149	0xbc26d98e	-0.010183705
150	0xbdf54b0a	-0.11977203
151	0xbd59be52	-0.05316002
152	0x3d945d84	0.07244399
153	0xbd7ce7dc	-0.061744556
154	0xbddbc5a0	-0.10731053
155	0xbd541c2d	-0.051784683
156	0xbdca6570	-0.09882629
157	0xbde0cb9d	-0.10976336
158	0x3d14db8d	0.036342192
159	0xbd7628e6	-0.060097598
160	0xbdb05259	-0.086094566
161	0xbcf0bf73	-0.029388165
162	0xbd8019b2	-0.06254901
163	0xbca9e34d	-0.020738268
164	0x3d7fcdce	0.06245213
165	0x3d3bb4e1	0.045826796
166	0xbdaa6c82	-0.083214775
167	0xbdb1af14	-0.086759716
168	0xbb7366ca	-0.0037140124
169	0x3d868c36	0.06569712
170	0xbdba5064	-0.090973645
171	0x3ccce653	0.02501217
172	0xbdde1132	-0.108431235
173	0x3d143bdb	0.036189895
174	0x3db637d8	0.0889737
175	0x3ca02329	0.019548016
176	0xbde75fcf	-0.11297571
177	0x3c970c9f	0.018438635
178	0x3d894dbb	0.06704279
179	0x3ce04288	0.027375475
180	0x3dd46a3a	0.103718236
181	0xbddc84ae	-0.10767494
182	0x3dc2158a	0.094767645
183	0x3def8412	0.11695112
184	0x3dafe061	0.08587719
185	0xbd00ce38	-0.031446666
186	0xbc574746	-0.0131395515
187	0xbdd9cddd	-0.106349684
188	0xbdbb6b32	-0.09151305
189	0x3d9bf4c9	0.076150484
190	0xbdce8c83	-0.10085394
191	0xbc90dad8	-0.017682478

weight f4 [2, 64]
0	0x3da594d6	0.08085029
1	0xbc06e4e6	-0.008233285
2	0x3d95e69c	0.07319376
3	0xbb27fc9a	-0.002563274
4	0xbd7b290d	-0.061318446
5	0x3d30aaf8	0.0431318
6	0x3db678a9	0.08909733
7	0x3d53ec00	0.05173874
8	0x3cbc28e1	0.022968711
9	0x3d7c3187	0.06157067
10	0xbc0f56a0	-0.00874868
11	0x3da016bb	0.078168355
12	0x3c986ffd	0.018608088
13	0x3d38b1a1	0.045091275
14	0x3d963b73	0.07335558
15	0xbdaf3553	-0.08555093
16	0x3da7c631	0.08192099
17	0x3cf8ae1e	0.030356463
18	0xbdbb6623	-0.091503404
19	0x3cbd9c03	0.023145681
20	0xbdb34d46	-0.08754973
21	0xbd673afc	-0.056452736
22	0x3df008d2	0.11720432
23	0xbdecff4b	-0.11572131
24	0xbb0de5da	-0.0021651895
25	0x3d0ae77f	0.033912178
26	0x3d7b64a2	0.061375268
27	0xbd81843d	-0.063240506
28	0x3de23edd	0.110471465
29	0x3d4fc506	0.050725006
30	0x3dbf446d	0.09339223
31	0xbdb01a4b	-0.08598765
32	0xbd4a9ee2	-0.04946793
33	0x3c305027	0.010761297
34	0xbd9eff04	-0.07763484
35	0x3db93c1f	0.0904467
36	0x3da706dd	0.08155606
37	0x3ddc2168	0.10748559
38	0x3c69e0c4	0.01427478
39	0x3da47cf4	0.080316454
40	0x3c90cac6	0.017674815
41	0x3de1a464	0.11017683
42	0xbc9fb30b	-0.019494554
43	0x3d800923	0.06251743
44	0x3d02fc6b	0.031979006
45	0x3d9f2bef	0.077720515
46	0xbddf3ad4	-0.108998924
47	0x3c3a3284	0.011364583
48	0xbdd7b672	-0.105328456
49	0xbba7fc3f	-0.0051265056
50	0xbdb8081d	-0.089859225
51	0xbd3069f1	-0.043069784
52	0x3df53feb	0.11975082
53	0x3cbdfd29	0.023192005
54	0x3dfa5b3a	0.12224431
55	0xbd2d79c5	-0.042352457
56	0xbd7d0deb	-0.06178085
57	0xbd591425	-0.052997727
58	0xbdb1a0dd	-0.0867326
59	0xbdf19be1	-0.1179731
60	0xbd96c4de	-0.07361768
61	0x3dbc1ea4	0.09185532
62	0x3d194f94	0.037429407
63	0xbd43adc9	-0.047773156
64	0x3df611b3	0.120150946
65	0x3d7655fd	0.0601406
66	0x3cc13cc0	0.023588538
67	0x3de52ece	0.11190568
68	0xbdeb717b	-0.11496254
69	0x3df2313a	0.118257955
70	0x3d095dcd	0.03353672
71	0x3de344dc	0.11097118
72	0xbdd8c510	-0.10584462
73	0xbde2edc1	-0.11080504
74	0x3dda430a	0.10657318
75	0x3ce9086b	0.028446397
76	0xbcb12c1d	-0.02162748
77	0xbdbe01bb	-0.09277674
78	0x3de99815	0.114059605
79	0x3d99664b	0.07490214
80	0xbdc41d6f	-0.095759265
81	0xbdee344b	-0.11631068
82	0xbdc5dce5	-0.09661273
83	0xbdd9f9b8	-0.10643333
84	0x3d96e5d4	0.07368055
85	0xbc82ed3e	-0.015982267
86	0x3dbdc496	0.092660114
87	0x3df0acc7	0.11751705
88	0x3d1daa79	0.038492654
89	0x3df0f106	0.117647216
90	0xbd9a2ffc	-0.075286835
91	0xbdcdc2bd	-0.10046909
92	0x3df24749	0.11830003
93	0x3d59b5a6	0.05315175
94	0xbddf0c57	-0.108910255
95	0xbd0ba0b6	-0.034088813
96	0xbd9f5373	-0.077795886
97	0x3da1a26f	0.0789231
98	0xbc927c87	-0.017881645
99	0x3db427d9	0.08796663
100	0x3da0617b	0.07831093
101	0xbde6c042	-0.11267139
102	0xbd8aa19a	-0.06769104
103	0x3dc4b69a	0.09605141
104	0xbd98b84e	-0.07457028
105	0x3db79078	0.08963102
106	0x3d803452	0.06259979
107	0x3ceb2661	0.028704824
108	0x3df31af9	0.11870379
109	0x3d6dd60a	0.05806545
110	0x3dcf90a0	0.10135007
111	0x3c1e173c	0.009649094
112	0x3dbe716e	0.09298979
113	0xbdecfe1f	-0.11571907
114	0xbd37b547	-0.044850614
115	0x3cc6f9e3	0.024289077
116	0x3df53b69	0.11974222
117	0x3ccbb37e	0.024865862
118	0xbdb9a1dc	-0.09064075
119	0x3dd59f67	0.10430794
120	0x3dadc9ab	0.08485731
121	0xbdc56549	-0.09638459
122	0x3dda9b0f	0.10674106
123	0xbde6cf12	-0.11269964
124	0xbd83e0de	-0.064393744
125	0xbc9dd2e3	-0.019265598
126	0xbc83d86f	-0.016094415
127	0xbd70e817	-0.058815088

bias f4 [2]
0	0xbd439ba3	-0.04775585
1	0xbdbf5b44	-0.093435794

weight_ih_l0 f4 [192, 66]
0	0xbe04d05d	-0.1297011
1	0xbd903ae5	-0.07042483
2	0xbc591bc5	-0.01325125
3	0x3cc10868	0.023563579
4	0xbb0d81ca	-0.0021592253
5	0x3dec66ce	0.11543046
6	0xbb9d5be3	-0.0048022135
7	0xbd42b994	-0.047540262
8	0xbd2e8eb0	-0.042616546
9	0xbcc35988	-0.023846403
10	0xbd8963d1	-0.067084916
11	0x3cb6f5b8	0.022333965
12	0xbd434db6	-0.047681533
13	0x3c34e0db	0.011039938
14	0x3d5b247e	0.0535016
15	0x3d8c3cf8	0.06847566
16	0xbd7c64ce	-0.061619572
17	0xbda364f8	-0.07978243
18	0x3d44722f	0.047960456
19	0x3d40026c	0.04687731
20	0x3c3f91bd	0.011692462
21	0xbdf459d8	-0.11931199
22	0x3d48fed2	0.04907114
23	0x3cb9a74c	0.022662781
24	0xbcc1258c	-0.023577474
25	0xbdb2009b	-0.08691522
26	0x3dc75610	0.09733212
27	0x3d08a7a0	0.033362985
28	0x3d09abbc	0.033611044
29	0x3cf92db8	0.030417308
30	0xbd79e42d	-0.06100862
31	0x3d5e182d	0.054222275
32	0x3de1f6ba	0.110333875
33	0x3d0ef4a0	0.03490126
34	0xbd672b16	-0.056437574
35	0x3c112a45	0.0088601755
36	0xbe27c24d	-0.16382714
37	0xbdbd7a5c	-0.09251854
38	0x3df59dfe	0.11993025
39	0x3d041ea4	0.032255784
40	0x3d49603f	0.049164053
41	0xbd9304ac	-0.071786255
42	0xbda53d46	-0.080683276
43	0xbd68a0c6	-0.05679395
44	0x3d678bfa	0.056529976
45	0x3df8908c	0.12136945
46	0x3dc69447	0.096962504
47	0x3dc16456	0.09442966
48	0xbd8a08cc	-0.06739959
49	0x3d300275	0.042971093
50	0xbdad008a	-0.084473684
51	0x3e007dfc	0.12548059
52	0x3d7d9420	0.06190884
53	0xbd6050fd	-0.054764736
54	0xbb856628	-0.004071016
55	0x3e0a5c6c	0.13511819
56	0x3e0d26cb	0.1378433
57	0x3db5e50e	0.08881579
58	0x3d4030c4	0.046921507
59	0xbd884144	-0.066530734
60	0x3d798838	0.060920924
61	0xbd82837f	-0.06372737
62	0xbda9f57e	-0.08298777
63	0xbd0a7daa	-0.03381125
64	0x3bdddaf3	0.0067704855
65	0xbe04c6c7	-0.12966453
66	0x3bd8a7cf	0.006611801
67	0x3c96d67c	0.018412821
68	0xbd76cfff	-0.060256954
69	0xbd8eac12	-0.069664136
70	0x3e221675	0.15828879
71	0x3e00f457	0.12593208
72	0xbd11b73b	-0.035575133
73	0xbdbd7cc6	-0.09252314
74	0xbda71c4e	-0.081596956
75	0x3dec965a	0.11552115
76	0xbde6f5f9	-0.11277384
77	0xbddf066c	-0.10889897
78	0xbe03d5a3	-0.12874465
79	0x3e00aab8	0.12565124
80	0x3cfe1434	0.031015493
81	0xbdbf65c2	-0.09345581
82	0x3dbb5907	0.0914784
83	0xbdbb1d61	-0.09136463
84	0x3d1c10f0	0.03810209
85	0x3ceaa4b0	0.028642982
86	0x3c7804d4	0.01513787
87	0x3d144d38	0.036206454
88	0xbd4857e7	-0.048911955
89	0xbd8a2a37	-0.06746333
90	0xbd3ea7ec	-0.04654686
91	0xbd786f14	-0.060652807
92	0x3d197f70	0.03747505
93	0x3dd2329e	0.10263561
94	0x3da9d4ac	0.08292517
95	0x3ca8c640	0.020602345
96	0x3da5f2fc	0.08102986
97	0x3d5e9a03	0.054346096
98	0xbd2f427e	-0.04278802
99	0x3d71f55c	0.059071884
100	0xbe063d33	-0.13109283
101	0x3d933aad	0.07188926
102	0xbd46765e	-0.048452727
103	0xbdc519a6	-0.09624033
104	0xbcd25d28	-0.025679186
105	0x3d2f5814	0.042808607
106	0xbcbb8fd7	-0.022895737
107	0xbd089544	-0.033345476
108	0x3dfe7138	0.124239385
109	0xbd5bc8a8	-0.053658158
110	0x3d300213	0.042970728
111	0x3dca9242	0.09891178
112	0xbd7ca3d5	-0.06167968
113	0xbdff0976	-0.124529764
114	0x3b1c8fd2	0.0023889435
115	0xbd324e27	-0.043531563
116	0xbdd08a80	-0.10182667
117	0xbd407fb9	-0.046996806
118	0x3b1590d8	0.002282193
119	0x3ca97d1a	0.020689536
120	0x3e05b682	0.13057902
121	0xbcbd9f3d	-0.02314722
122	0xbc0853e6	-0.008320784
123	0xbd87f98a	-0.06639393
124	0xbcce7638	-0.025202855
125	0x3c735742	0.014852347
126	0xbd03cc8b	-0.03217749
127	0xbd97275d	-0.07380555
128	0xbcb419f8	-0.02198504
129	0x3d84c1b7	0.06482261
130	0x3d0343c7	0.03204706
131	0x3e1bc28a	0.1521093
132	0xba97e0c9	-0.0011587377
133	0x3cd8a026	0.026443552
134	0xbe13e801	-0.14443971
135	0x3d86edbc	0.06588313
136	0xbd7b8ad4	-0.061411694
137	0x3dd0e95f	0.10200762
138	0xbc8b894e	-0.017033245
139	0x3da21d1c	0.079157084
140	0xbdcf5dba	-0.10125299
141	0x3d9b5c9c	0.07586023
142	0x3dae3b9f	0.085074656
143	0xbdb2fc66	-0.087395474
144	0xbe0baee0	-0.13640928
145	0x3e1b15ef	0.15145086
146	0xbb8fe1cd	-0.004390931
147	0xbd368140	-0.044556856
148	0xbd422c2c	-0.047405407
149	0xbcf6bed4	-0.03012029
150	0xbdc3c9ef	-0.0956
151	0x3da49f06	0.08038144
152	0x3dfea39e	0.12433551
153	0x3d9535ce	0.07285653
154	0xbd93d58a	-0.07218464
155	0x3d02d32c	0.03193967
156	0xbe11df35	-0.14245303
157	0xbd26bd34	-0.040707782
158	0x3c6e16c0	0.014531791
159	0xbdd7db3c	-0.105398625
160	0x3dbfbde6	0.09362392
161	0xbdbd8e2e	-0.09255634
162	0xbc054064	-0.008133028
163	0xbd0145c1	-0.031560663
164	0x3d3d58a0	0.046227098
165	0xbda02326	-0.07819204
166	0x3cef9303	0.029244905
167	0xbdbccc05	-0.09218601
168	0x3db58c9f	0.08864712
169	0xbda290ba	-0.07937761
170	0xbd947098	-0.07248038
171	0x3dfd51de	0.123691306
172	0xbd10464d	-0.035223294
173	0x3d39a460	0.045322776
174	0x3df83b7b	0.1212072
175	0x3dfdfe5f	0.12402033
176	0xbda39e07	-0.07989126
177	0xbd0a1ce0	-0.033718944
178	0x3d237416	0.03990563
179	0x3d1a8cac	0.03773181
180	0xbd9bd55a	-0.07609053
181	0x3d430105	0.047608394
182	0x3d57f42c	0.052723095
183	0x3e06eaa5	0.13175447
184	0x3c0192dc	0.007908549
185	0x3c0fb7ce	0.00877185
186	0x3db8fdfe	0.0903282
187	0xbd0b3878	-0.0339894
188	0xbdd2acc8	-0.10286862
189	0x3cd0d858	0.025493786
190	0x3d5c0124	0.053712025
191	0xbc0dec15	-0.008662243
192	0x3c83e964	0.0161025
193	0xbdb62c60	-0.088951826
194	0xbd8ebe58	-0.06969899
195	0x3d02ff92	0.031982012
196	0x3dcd9ad0	0.10039294
197	0x3d8b9f2a	0.068174675
198	0xbc4ac123	-0.012375149
199	0xbda22b99	-0.07918472
200	0xbd145d5b	-0.036221843
201	0xbda84700	-0.08216667
202	0x3d456ba0	0.048198342
203	0x3de05b15	0.109548725
204	0xbd9db987	-0.07701402
205	0x3d0fcf70	0.035109937
206	0x3d89ffb2	0.06738223
207	0x3de6b3c8	0.11264759
208	0xba1173c4	-0.00055485615
209	0x3c5aee70	0.013362512
210	0xbc5a6588	-0.013329871
211	0x3da06c99	0.07833213
212	0x3de73ed2	0.11291279
213	0xbc894f90	-0.016761571
214	0xbd4618de	-0.04836356
215	0xbc0bfffd	-0.008544919
216	0x3d28b53f	0.041188475
217	0xbd39a294	-0.045321062
218	0x3bd4fe77	0.006500061
219	0xbc3373a0	-0.01095286
220	0x3a66ca9e	0.0008803996
221	0x3c2c459e	0.010514645
222	0xbd3ae5d7	-0.04562935
223	0x3c341028	0.01099018
224	0xbd52d610	-0.051473677
225	0x3dc47efc	0.09594533
226	0x3bff3420	0.007788196
227	0x3dde8f4c	0.108671755
228	0xbd3c60b1	-0.04599065
229	0xbd8c06af	-0.06837212
230	0xbda8d643	-0.08243992
231	0x3cb771a8	0.022393063
232	0xbdb1d8ac	-0.08683905
233	0xbd2312d0	-0.039812863
234	0xbdedc4e5	-0.1160982
235	0x3d6d5528	0.05794254
236	0xbdd5d5c0	-0.1044116
237	0xbba38e00	-0.004991293
238	0x3d4977a6	0.04918637
239	0x3d049938	0.032372683
240	0x3cd95b69	0.026532846
241	0x3d6d38fc	0.057915673
242	0x3d2b275b	0.04178558
243	0x3d5ac7dc	0.053413257
244	0xbd968479	-0.07349486
245	0x3dc7e61c	0.09760687
246	0x3d58e79a	0.052955247
247	0x3e0588be	0.13040444
248	0xbc0009d0	-0.0078148395
249	0x3c65e942	0.014032664
250	0xbcfb1f62	-0.030654613
251	0xbd50096b	-0.05079023
252	0x3bc2646a	0.0059323804
253	0x3cd0db59	0.025495218
254	0x3db8dd1c	0.09026548
255	0x3d256e9c	0.04038869

weight_hh_l0 f4 [192, 64]
0	0x3ca9f7c3	0.020748025
1	0x3d713483	0.05888797
2	0xbcad8bd3	-0.021184837
3	0x3dbaaae5	0.09114627
4	0xbdccd800	-0.10002136
5	0x3d35b32d	0.04436033
6	0x3dfbd7ac	0.122969955
7	0xbd996ee2	-0.07491852
8	0xbc26f9c5	-0.010191386
9	0xbc04a7ad	-0.008096618
10	0x3d85fe12	0.06542601
11	0xbd9f229d	-0.07770274
12	0xbe060717	-0.13088642
13	0xbd15bd94	-0.03655775
14	0xbda9f637	-0.08298915
15	0x3e1dc800	0.15408325
16	0x3d0dfdd9	0.034665916
17	0x3d94c148	0.07263428
18	0xbdf4494a	-0.11928041
19	0xbd7df49c	-0.062000856
20	0x3ae3953e	0.0017363203
21	0x3ab49810	0.0013778228
22	0xbbec74c7	-0.0072160694
23	0x3d920960	0.071306944
24	0x3dfefa3a	0.12450071
25	0xbc0e26f3	-0.008676278
26	0xbd4c2117	-0.049836244
27	0x3db9f960	0.09080768
28	0x3e1a6fb4	0.15081674
29	0x3dbd1031	0.09231604
30	0xbd3b6497	-0.045750227
31	0x3d75d919	0.060021494
32	0xbe1ad679	-0.15120877
33	0x3d22bd88	0.039731532
34	0xbe179687	-0.14803515
35	0x3dcf22ce	0.1011406
36	0xbdb2e8c7	-0.08735805
37	0xbd3b2079	-0.045685265
38	0x3df5c6ea	0.120008305
39	0x3db167fb	0.08662411
40	0xbda74d03	-0.08168986
41	0xbe1a4926	-0.15066966
42	0x3d856e3a	0.06515165
43	0x3c991787	0.018687977
44	0x3d2c4c97	0.04206523
45	0xb987e25d	-0.0002591786
46	0x3e02d20a	0.12775436
47	0x3c2341d6	0.009964427
48	0xbe08dfcc	-0.13366622
49	0x3d312be4	0.043254748
50	0x3df23f14	0.118284374
51	0x3e1eb7df	0.15499829
52	0xbc5823ca	-0.0131921265
53	0x3db7b00c	0.08969125
54	0x39f579f3	0.000468209
55	0xbdd2a633	-0.10285606
56	0x3cd75ad6	0.026288431
57	0xba8b5602	-0.0010630491
58	0x3dc69038	0.09695476
59	0x3d9ae88f	0.07563888
60	0x3dadfae0	0.08495116
61	0x3be91936	0.007113601
62	0xbd6ec7c0	-0.058295965
63	0xbcf6db30	-0.030133814
64	0xbd6cefa2	-0.05784572
65	0x3d1bb341	0.038012747
66	0xbcb8d7f9	-0.022563921
67	0xbde88fe3	-0.11355569
68	0x3e26763e	0.16256043
69	0x3dbae2b8	0.091252744
70	0x3db1a150	0.08673346
71	0xbd3769b8	-0.044778556
72	0x3d42ff12	0.047606535
73	0x3d496692	0.049170084
74	0xbddce064	-0.107849866
75	0x3def1e0a	0.11675651
76	0x3d052c77	0.032513108
77	0x3dc2f884	0.09520057
78	0xbdc419a3	-0.09575202
79	0x3d4da00e	0.05020147
80	0xbe21f543	-0.15816216
81	0xbdbf0e06	-0.09328847
82	0xbcc32f35	-0.023826221
83	0xbdb37dda	-0.08764239
84	0xbdfaddf3	-0.12249365
85	0xbd6309ce	-0.055429272
86	0xbd4a90a5	-0.04945435
87	0x3db00a98	0.085957706
88	0x3badc540	0.005303055
89	0xbd7ec7b0	-0.062202156
90	0xbb3fd668	-0.0029272083
91	0xbdc47641	-0.09592868
92	0xbdf6748d	-0.12033949
93	0x3d9f8368	0.07788736
94	0xbcb704e0	-0.022341192
95	0xbdf2eb3e	-0.11861275
96	0xbce65415	-0.028116265
97	0xbd33e865	-0.0439228
98	0x3de454e2	0.111490026
99	0x3dc3da24	0.095630914
100	0x3da4419d	0.08020327
101	0x3d9682f0	0.07349193
102	0x3d2a0180	0.041505337
103	0xbd6feff6	-0.058578454
104	0x3df65022	0.12027003
105	0xb9d057ce	-0.0003973827
106	0xbd063400	-0.032764435
107	0xbd36a3b7	-0.044589724
108	0xbd8c9903	-0.06865122
109	0xbde3b0cd	-0.111177064
110	0x3da86ebd	0.08224247
111	0x3ddcfa4a	0.10789926
112	0x3d96eff1	0.07369984
113	0xbd0bff8c	-0.034179255
114	0x3cc9a0e3	0.02461285
115	0xbdc366fb	-0.09541126
116	0x3cc234fe	0.02370691
117	0x3d92051c	0.07129881
118	0x3e0528c5	0.13003834
119	0x3be7ee45	0.0070779645
120	0x3ded939f	0.11600422
121	0x3dce2289	0.10065181
122	0xbdaa5fb8	-0.08319038
123	0x3e086f42	0.13323691
124	0xbc725612	-0.014791029
125	0x3d0fc092	0.03509576
126	0x3dc5f037	0.09664958
127	0x3d79df6e	0.061004095
128	0x3df48786	0.119399115
129	0x3d6f881d	0.058479417
130	0x3db85b6a	0.09001811
131	0x3d013853	0.031547856
132	0x3caea638	0.021319494
133	0xbddc8ce2	-0.10769059
134	0x3da8ec1b	0.082481585
135	0xbd0903c2	-0.03345085
136	0xbcbf104d	-0.023323203
137	0x3e159604	0.14608008
138	0x3d024630	0.031805217
139	0xbdbc0b8b	-0.09181889
140	0xbb8a37b4	-0.004218066
141	0xbde9a9e0	-0.11409354
142	0xbe0184b3	-0.12648277
143	0x3c095109	0.008381137
144	0xbdb469d4	-0.088092476
145	0x3d8fb655	0.07017199
146	0xbd43c559	-0.047795627
147	0x3dd2fb9b	0.10301896
148	0xbdc502a7	-0.096196465
149	0xbdcf9297	-0.10135382
150	0x3daba1bf	0.0838046
151	0xbdc4a9a6	-0.0960267
152	0x3d159a28	0.036523968
153	0xbcbfc88e	-0.023411062
154	0x3db8bded	0.090206005
155	0xbd4d67d4	-0.050147846
156	0x3cf825a7	0.030291392
157	0xbe0e4a69	-0.13895573
158	0x3d6d4528	0.05792728
159	0xbde67b66	-0.11254005
160	0x3df04b7b	0.11733147
161	0x3d23af72	0.03996224
162	0x3da45769	0.08024485
163	0xbced839d	-0.028993422
164	0x3cdd4709	0.027011411
165	0x3d7a78ca	0.06115035
166	0xbdfc71df	-0.12326407
167	0xbc52d4cd	-0.0128681185
168	0x3dd19ea9	0.1023534
169	0xbd888e97	-0.06667822
170	0x3e1032b9	0.14081849
171	0x3dc9317d	0.09823892
172	0x3d992ff2	0.07479848
173	0xbc3986d4	-0.011323649
174	0xbdce7a8f	-0.1008197
175	0x3da86245	0.082218684
176	0x3d890f0e	0.066923246
177	0xbe0cbf5b	-0.13744871
178	0x3d8fba57	0.070179634
179	0xbd531991	-0.051538054
180	0xbd9f8741	-0.077894695
181	0x3d17f297	0.037096586
182	0x3df49461	0.119423635
183	0xbc06ad6b	-0.008220057
184	0xbc524c3c	-0.0128355585
185	0x3caaeed5	0.020865837
186	0x3d7842fa	0.06061075
187	0xbd90bf64	-0.07067755
188	0x3d69ed56	0.057111107
189	0x3d9f81c6	0.07788424
190	0xbd15ac3d	-0.036541212
191	0x3d8126a1	0.06306196
192	0x3d35a544	0.044347063
193	0xbd34d1ec	-0.04414551
194	0xbdaec1eb	-0.08533081
195	0x3c6e89c7	0.014559216
196	0xbdb92517	-0.090402775
197	0xbce034f0	-0.027368993
198	0xbe07a3e4	-0.13246113
199	0xbd8ba959	-0.0681941
200	0xbe0ce043	-0.13757424
201	0x3de05c55	0.10955111
202	0xbd72c6cf	-0.05927163
203	0x3d427146	0.047471307
204	0xbd1267af	-0.03574341
205	0xbd81b434	-0.06333199
206	0xbc201983	-0.0097717075
207	0x3d9cd502	0.076578155
208	0xbccdd5c1	-0.02512634
209	0xbc131d9d	-0.008979228
210	0xbd412192	-0.047151156
211	0xbcd82ae6	-0.026387643
212	0xbe00d912	-0.12582806
213	0xbd388028	-0.045044094
214	0x3db11bbd	0.08647869
215	0x3dc9700e	0.09835826
216	0xbd01648b	-0.031590026
217	0xbc8fa017	-0.017532391
218	0xbd3759ba	-0.044763304
219	0xba523cf8	-0.00080199493
220	0xbdfba63c	-0.12287566
221	0xbc15ad7d	-0.009135601
222	0x3db24bd7	0.087058716
223	0x3e1050d8	0.1409334
224	0xbda7d246	-0.08194403
225	0xbd5b96ce	-0.053610615
226	0x3dfbf25d	0.123020865
227	0x3d9ee1f6	0.077579424
228	0x3ce700bd	0.028198594
229	0x3e1433ab	0.14472835
230	0xbc808856	-0.01569001
231	0x3d4ac851	0.049507443
232	0x3cade739	0.02122842
233	0x3de8088f	0.113297574
234	0xbc5b734d	-0.013394189
235	0x3e1c87b0	0.15286136
236	0x3e01a9dc	0.12662452
237	0xbdc812a7	-0.09769183
238	0xbdec46e1	-0.115369566
239	0xbc96fb08	-0.018430248
240	0xbdb540db	-0.08850261
241	0xbcca22c4	-0.02467478
242	0x3d8e23a7	0.06940394
243	0xbdb6f359	-0.08933134
244	0x3d0eee3d	0.03489517
245	0x3dee5aef	0.11638438
246	0x3dfae6dc	0.12251064
247	0x3dc95685	0.098309554
248	0xbd815e92	-0.06316866
249	0xbd9d1dc2	-0.076716915
250	0x3d95ba70	0.07310951
251	0x3b3c5385	0.0028736305
252	0x3da1051b	0.07862302
253	0x3dd131b6	0.1021456
254	0xbd15faf2	-0.036616273
255	0xbd40b672	-0.047048993

bias_ih_l0 f4 [192]
0	0xbdfdee53	-0.12398972
1	0x3df0fc39	0.11766858
2	0x3e098c4d	0.13432427
3	0x3de4872b	0.11158594
4	0x3e325c40	0.17418003
5	0x3dd4640a	0.103706434
6	0x3da90e16	0.0825464
7	0x3e18df44	0.14928919
8	0x3c6fc9b3	0.014635491
9	0x3de471e6	0.11154537
10	0xbdbd997c	-0.092577904
11	0xbbb44bd6	-0.0055022044
12	0xbd2339e5	-0.039850134
13	0x3d6674ee	0.056263857
14	0x3d08a4f5	0.03336044
15	0xbdb8453e	-0.08997582
16	0x3d1086a7	0.035284664
17	0x3cac36eb	0.02102228
18	0xbdb586fe	-0.08863638
19	0x3d69ba5f	0.057062503
20	0x3d0c68b0	0.034279525
21	0xbd5e9f34	-0.054351047
22	0x3d20399a	0.039117433
23	0xbdb6ba6c	-0.08922276
24	0x3ca0626e	0.019578185
25	0x3e0d4c3e	0.13798615
26	0xbc628c52	-0.0138274
27	0xbd7c798f	-0.061639365
28	0xbd1154f8	-0.035481423
29	0xbd8fe617	-0.07026308
30	0x3c072a42	0.008249821
31	0x3e03fd5b	0.12889616
32	0x3dd88b71	0.10573471
33	0xbda73022	-0.081634775
34	0x3e0fc192	0.14038685
35	0x3ca6114e	0.020271923
36	0xbdbdf540	-0.09275293
37	0x3c950620	0.018191397
38	0x3caa5a4d	0.020795012
39	0x3dbf7bfe	0.093498215
40	0x3e1a1a69	0.15049137
41	0xbd7096f0	-0.058737695
42	0xbd8155f1	-0.0631522
43	0x3d038d75	0.032117326
44	0x3dee9fb9	0.116515584
45	0x3cceeaf8	0.025258526
46	0x3de7522b	0.11294969
47	0x3babe721	0.0052460586
48	0x3db4c6eb	0.08827003
49	0xbd8f5cda	-0.07000132
50	0xbd157d4f	-0.036496457
51	0x3d9a210c	0.075258344
52	0x3d4b7034	0.049667552
53	0xbd4450a7	-0.04792848
54	0x3c857ebd	0.016295785
55	0x3d45df2e	0.048308544
56	0x3c145575	0.009053578
57	0xbd937656	-0.07200305
58	0xbda6370c	-0.08115968
59	0x3dc64253	0.09680619
60	0x3e0551ab	0.13019435
61	0xbba9bb95	-0.005179832
62	0x3d4cef49	0.050032888
63	0x3ca6534b	0.020303389
64	0xbcb98f20	-0.022651255
65	0xbe1837a4	-0.14864975
66	0x3c94fe27	0.018187596
67	0xbdf9c46f	-0.1219567
68	0xbe02f133	-0.12787323
69	0xbd89c367	-0.06726723
70	0xbe0390a5	-0.12848146
71	0xbca88146	-0.020569455
72	0xbdd6fcdc	-0.10497448
73	0xbc16755f	-0.009183257
74	0xbd6707b5	-0.056403834
75	0xbdeb0417	-0.114753895
76	0x3c512341	0.012764753
77	0xbddc8731	-0.10767973
78	0xbd36d58e	-0.044637255
79	0xbdb2684a	-0.08711298
80	0x3a97fb41	0.0011595265
81	0xbdc36648	-0.09540993
82	0x3d96cb2b	0.0736297
83	0x3c4e91d6	0.012608012
84	0x3da883ae	0.08228241
85	0x3c9dd0fb	0.019264689
86	0xbd89e3f7	-0.06732934
87	0x3e1e2d82	0.15447047
88	0xbe124fb6	-0.1428822
89	0xbe18e273	-0.14930134
90	0x3cb8bbde	0.02255052
91	0xbcc38eb2	-0.023871753
92	0x3d1e7f68	0.038695723
93	0xbd5408f9	-0.05176637
94	0xbd63d26a	-0.05562059
95	0xbe15f392	-0.14643696
96	0xbd94666f	-0.072461
97	0x3b38924d	0.0028163374
98	0xbcaeab38	-0.021321878
99	0xbdf67ba7	-0.120353036
100	0xbcbdedfe	-0.023184773
101	0x3c9c05a7	0.019045664
102	0xbdb63b08	-0.08897978
103	0xbe17d38d	-0.14826794
104	0x3cf22dc5	0.02956284
105	0xbe1eae83	-0.15496258
106	0xbe1f07ee	-0.15530369
107	0xbda5f0b5	-0.08102552
108	0x3d91c382	0.07117368
109	0xbd519aeb	-0.051173132
110	0xbdff854a	-0.12476595
111	0xbc31c4dd	-0.0108501585
112	0x3d4f4f02	0.050612457
113	0xbe2cdcb8	-0.16881073
114	0xbd93b953	-0.07213082
115	0xbe0dac56	-0.13835272
116	0xbdff78fa	-0.12474246
117	0xbe1ceba6	-0.15324268
118	0xbd9cd2f9	-0.07657427
119	0xbd817536	-0.06321184
120	0xbc42981f	-0.011877089
121	0x3b829c53	0.0039859205
122	0xbc613ab5	-0.013746907
123	0x3dbb2e7a	0.09139724
124	0xbddcba3f	-0.10777711
125	0xbd7f1b66	-0.06228199
126	0xbdf00125	-0.11718968
127	0xbd0b0540	-0.033940554
128	0x3dd922f3	0.10602369
129	0xbdf9a160	-0.12188983
130	0x3e04b80e	0.12960836
131	0x3da66cdf	0.08126234
132	0x3dac6add	0.0841882
133	0x3d372b03	0.044718754
134	0xbd1d6259	-0.03842387
135	0xbda61125	-0.08108739
136	0x3cc3bb03	0.023892885
137	0x3e15f039	0.14642419
138	0xbcc0e646	-0.023547303
139	0x3dc5f2d1	0.09665454
140	0x3db2f76c	0.08738598
141	0xbe137667	-0.14400636
142	0x3e1453c8	0.14485085
143	0xbdbbf0f1	-0.09176815
144	0xb7aa80e1	-2.0325593e-05
145	0xbdfb2999	-0.122637935
146	0xbd89a5bf	-0.06721067
147	0x3cd41f4a	0.025893826
148	0x3d79e28a	0.06100706
149	0xbd66369f	-0.056204434
150	0x3e002864	0.12515408
151	0xbcff4068	-0.031158641
152	0xbd1808d3	-0.03711779
153	0x3daadf07	0.0834332
154	0x3e138609	0.14406599
155	0x3cce8401	0.025209429
156	0xbdf90a3e	-0.12160157
157	0x3d22aeac	0.03971736
158	0xbda2fe18	-0.07958621
159	0xbdb04cd4	-0.08608404
160	0xbd2d9dd0	-0.04238683
161	0xbe06c172	-0.13159731
162	0x3b824b4f	0.0039762626
163	0x3d817339	0.06320805
164	0x3db75072	0.089508906
165	0x3d750081	0.059814934
166	0xbd8aa598	-0.06769866
167	0x3d6ceecf	0.057844933
168	0xbbaf058f	-0.005341239
169	0xbd86b034	-0.06576577
170	0x3db6ead0	0.08931506
171	0x3de766c7	0.112989
172	0x3df42a80	0.11922169
173	0xbe0ea90a	-0.13931671
174	0x3d7b75fa	0.061391808
175	0xbd565415	-0.05232628
176	0x3d90c22b	0.070682846
177	0xbd7a19de	-0.061059825
178	0xbd50441d	-0.050846208
179	0xbe1caef0	-0.15301108
180	0xbe16e78e	-0.14736769
181	0x3e1bbca7	0.15208684
182	0x3cc0208f	0.023453025
183	0xbd8e7141	-0.06955195
184	0x3d7d8544	0.06189467
185	0x3e01d912	0.12680462
186	0xbe0d78a5	-0.13815553
187	0xbd933a84	-0.07188895
188	0xbdbee76e	-0.093214855
189	0x3e095cdf	0.13414334
190	0x3e0b2829	0.13589539
191	0xbd291676	-0.041281186
