models/gru_encoder/checkpoint/trained_irdpg_20.pth (torch, 409346 bytes, 22 tensors)

weight_ih_l0 f4 [192, 64]
0.11746393 0.034938082 0.11210199 0.03388895 0.08104429 0.067701906 -0.035470918 0.038827777
0.10272913 -0.009850651 -0.026989654 -0.09708199 -0.01664672 0.005989119 -0.010839213 0.01634261
-0.0008212103 0.03959997 -0.032834172 -0.031828105 0.06422721 -0.089348495 -0.12274544 -0.03592573
-0.09573722 0.077093676 0.1029824 -0.073780894 -0.07655594 0.026589125 -0.03475599 -0.087693885
-0.018770073 0.034046084 -0.10126725 -0.008270358 -0.031312726 -0.11126174 0.11622824 0.06588
-0.0700333 -0.11489074 0.11853412 -0.0068207895 0.07280576 0.026975885 -0.06628167 0.09822419
-0.0724621 -0.07420148 0.11188489 -0.097704545 0.1105372 0.082290664 0.050502434 -0.039918408
-0.027650496 0.111522526 0.11507407 0.10131107 0.11602414 0.031444386 -0.0054777116 -0.09608877
-0.059142694 0.07313893 -0.03624677 -0.055734754 -0.07032117 0.09688577 -0.11511723 -0.034613863
0.054884255 0.037604198 0.11388874 -0.056812793 -0.036318414 0.026669117 0.05899512 -0.080605745
0.057170205 -0.031304337 -0.07442083 0.06593968 -0.0030719936 -0.09569697 -0.040438242 0.048360802
0.030840032 0.060196802 -0.067668125 -0.110878274 -0.11658394 -0.06144838 0.122576214 0.00031777282
-0.12068 0.06302975 -0.096621655 0.0632669 0.106193975 -0.0077048987 -0.0896917 -0.12243666
0.120085604 -0.09538624 0.09731337 0.07592162 0.043329544 -0.07548356 -0.11257584 0.111443415
0.026263803 0.011748842 -0.12289816 -0.018756166 -0.09347787 0.071653284 -0.09797873 -0.085238956
-0.0720861 0.122035354 -0.06311096 0.058879703 0.013410181 0.019479044 0.00070507824 0.08397564
-0.020450175 0.03031576 -0.10429933 -0.0140673965 -0.11431217 -0.097528175 0.053362615 -0.044260472
0.008259833 -0.009796992 0.091431394 -0.11204663 0.016118748 -0.060628116 0.003987215 -0.119247586
-0.04746438 0.051708467 -0.054801725 0.032119885 0.07453124 -0.07144311 0.036830984 -0.11119052
0.11787773 -0.06849404 -0.039488465 0.09326111 -0.06593284 -0.10785991 -0.061644726 -0.0059913876
0.0722497 -0.09273228 -0.05958473 -0.057853248 0.046119004 0.09085286 -0.052403003 0.01264675
-0.045165308 -0.062107235 0.107343294 -0.0049888375 -0.017776493 0.091824576 0.092623994 0.09557742
0.00023271143 -0.010182174 -0.08404301 -0.11797123 -0.07946103 -0.014121963 -0.011947738 0.083318315
-0.0606054 -0.1076124 -0.04711604 0.004122734 0.06517702 0.059458815 -0.007820293 -0.0044872216
0.11463116 0.0013219687 -0.035377692 -0.1190795 0.043029968 -0.06812796 0.10183626 0.04503092
0.04836376 0.0131729245 0.053305835 0.12450485 0.0024373855 0.12064437 0.058713432 -0.09911215
0.10497766 0.039231416 -0.10766371 -0.05676195 -0.10170217 -0.0740094 0.0012950329 0.014497894
0.06270779 0.047077045 -0.0115903765 0.10494076 0.021832913 0.030804738 0.12051258 -0.0800649
0.122089975 0.025741518 -0.038469296 -0.12298187 -0.0859175 -0.0005478263 -0.10516116 0.017266586
-0.11477019 -0.042889223 -0.10780438 0.11872455 -0.03819434 0.021461532 0.062195357 -0.0073898435
0.036364034 0.11663101 0.02000226 -0.092093736 -0.058905702 0.09572471 0.092120744 -0.1143691
-0.03740665 -0.10054743 -0.00090546906 -0.1211891 -0.10098298 0.053098712 -0.015272394 -0.08027701
00000000: ee90 f03d 3c1b 0f3d ba95 e53d 24cf 0a3d
00000010: 8cfa a53d 4ca7 8a3d f449 11bd e009 1f3d
00000020: a663 d23d a064 21bc 6819 ddbc ecd2 c6bd
00000030: b45e 88bc 5f40 c43b f496 31bc f0e0 853c
00000040: 7e46 57ba 9433 223d 207d 06bd 305e 02bd
00000050: 8e89 833d 58fc b6bd f661 fbbd dc26 13bd
00000060: e011 c4bd 4ae3 9d3d 70e8 d23d 701a 97bd
00000070: 5cc9 9cbd 70d1 d93c 4c5c 0ebd da98 b3bd
00000080: b2c3 99bc e873 0b3d 3465 cfbd 6580 07bc
00000090: c641 00bd 32dd e3bd 1209 ee3d 18ec 863d
000000a0: 9e6d 8fbd d64b ebbd 04c2 f23d ee80 dfbb
000000b0: 301b 953d 88fc dc3c afbe 87bd c429 c93d
000000c0: 0267 94bd f2f6 97bd e823 e53d 5219 c8bd
000000d0: 5461 e23d 0288 a83d a4db 4e3d 7c81 23bd
000000e0: 4b83 e2bc ec65 e43d f4ab eb3d 2e7c cf3d
000000f0: 109e ed3d d4cb 003d 607e b3bb 30ca c4bd
00000100: 9c3f 72bd ddc9 953d 7e77 14bd 204a 64bd
00000110: 8c04 90bd 0c6c c63d 95c2 ebbd 44c7 0dbd
00000120: 50ce 603d dc06 1a3d 803e e93d 88b4 68bd
00000130: 9ec2 14bd 3179 da3c dea4 713d a014 a5bd
00000140: 4e2b 6a3d fa38 00bd f369 98bd 620b 873d
00000150: 8053 49bb c6fc c3bd 92a2 25bd fa15 463d
00000160: 3ca4 fc3c ec90 763d 9695 8abd 2614 e3bd
00000170: 90c3 eebd 4cb1 7bbd 3d09 fb3d bf9a a639
00000180: 1327 f7bd be15 813d 93e1 c5bd 1492 813d
00000190: 3a7c d93d 6079 fcbb 48b0 b7bd 12c0 fabd
000001a0: 71ef f53d dc59 c3bd 3b4c c73d cb7c 9b3d
000001b0: 527a 313d 2097 9abd 298e e6bd 723c e43d
000001c0: 3027 d73c 377e 403c 08b2 fbbd 88a6 99bc
000001d0: 5371 bfbd f5be 923d 13a9 c8bd c391 aebd
000001e0: e1a1 93bd aced f93d 5240 81bd d82b 713d
000001f0: 60b6 5b3c 8492 9f3c 00d5 383a 6cfb ab3d
00000200: 2087 a7bc c258 f83c e39a d5bd f07a 66bc
00000210: 801c eabd dabc c7bd c292 5a3d 784a 35bd
00000220: 4054 073c 9083 20bc 6240 bb3d b478 e5bd
00000230: 770b 843c 3055 78bd 2fa7 823b 1438 f4bd
00000240: 026a 42bd 42cc 533d c677 60bd 2490 033d
00000250: d6a3 983d c450 92bd 16dc 163d dbb7 e3bd
00000260: e169 f13d 9a46 8cbd a8be 21bd aeff be3d
00000270: cc07 87bd a8e5 dcbd 2e7f 7cbd 6753 c4bb
00000280: a7f7 933d 6cea bdbd 1e0f 74bd 87f7 6cbd
00000290: 48e7 3c3d 1011 ba3d 88a4 56bd 5034 4f3c
000002a0: 42ff 38bd 2864 7ebd cdd6 db3d 6779 a3bb
000002b0: 02a0 91bc 860e bc3d a6b1 bd3d 18be c33d
000002c0: 0004 7439 22d3 26bc be1e acbd e69a f1bd
000002d0: 77bc a2bd ce5f 67bc 72c0 43bc cba2 aa3d
000002e0: 5e3d 78bd e463 dcbd c0fc 40bd 0018 873b
000002f0: 887b 853d 168b 733d b020 00bc 8b09 93bb
00000300: bec3 ea3d e945 ad3a 33e8 10bd f4df f3bd
00000310: 3140 303d ac86 8bbd 878f d03d 5872 383d
00000320: 1419 463d 40d3 573c 3857 5a3d 66fc fe3d
00000330: 8bbc 1f3b 6514 f73d 7f7d 703d 50fb cabd
00000340: 87fe d63d 1fb1 203d cb7e dcbd 387f 68bd
00000350: 3a49 d0bd 3e92 97bd 18be a93a 9388 6d3c
00000360: f16c 803d dcd3 403d 90e5 3dbc 2eeb d63d
00000370: f0da b23c 385a fc3c 4dcf f63d 11f9 a3bd
00000380: 4f0a fa3d e0df d23c fb91 1dbd ebdd fbbd
00000390: 84f5 afbd 009c 0fba bc5e d7bd a872 8d3c
000003a0: a20c ebbd 9cac 2fbd 8bc8 dcbd db25 f33d
000003b0: ab71 1cbd 18d0 af3c 8fc0 7e3d 8026 f2bb
000003c0: 74f2 143d 3ddc ee3d c8db a33c a49b bcbd
000003d0: 1b47 71bd 510b c43d cda9 bc3d 593a eabd
000003e0: b737 19bd d0eb cdbd 005d 6dba fe31 f8bd
000003f0: 2ad0 cebd 097e 593d 1039 7abc 4668 a4bd

weight_hh_l0 f4 [192, 64]
-0.0072754454 0.09380451 0.110758975 0.07075602 -0.11947578 -0.11986266 0.09312903 0.03462867
0.08136229 -0.10629175 -0.046618927 -0.020314325 -0.072328374 -0.08396384 0.062123265 -0.029756999
-0.03696777 0.07373688 -0.104529954 -0.050642863 -0.044060662 -0.0055426126 -0.031636503 0.071173504
-0.019101242 -0.11013751 0.031063616 0.06642764 -0.0011487687 0.020345155 -0.05935253 0.011441863
-0.07565062 -0.11952011 0.07153722 -0.054716732 0.069481276 -0.041348558 0.055576768 -0.009003408
0.06449669 -0.08952524 -0.049966797 -0.03274789 -0.10733749 0.07707687 0.08335129 -0.05127781
-0.10207565 0.041215617 -0.10066104 0.11920583 0.0010454636 -0.012457376 0.10482253 -0.073262915
-0.12257441 -0.1030368 -0.060314428 -0.05578979 -0.028999278 -0.024308212 -0.104526885 -0.105334185
0.08704836 0.07515063 -0.028671693 0.10891969 0.043209832 0.10647427 -0.10290503 0.10244117
-0.080093116 0.029566346 -0.049638137 0.0054151015 -0.039843973 -0.12610689 0.028498447 -0.048407245
0.054853734 -0.052921154 -0.036667287 -0.06754842 -0.052012414 0.04680287 -0.0628214 -0.028812952
-0.10523657 -0.057939116 -0.10162767 0.021709543 -0.036105268 -0.10205737 0.12393104 -0.122692645
-0.05828292 0.11645761 0.023168387 0.078650005 -0.0005152243 0.11088137 0.085593335 0.07300834
-0.026434395 -0.10544641 -0.05719528 -0.120525844 -0.099234074 0.03778024 0.064092495 0.064413846
-0.0035838322 -0.033396937 -0.10534766 -0.07875265 0.0074825105 0.08550663 0.06211145 -0.008219822
-0.07568151 -0.09338959 -0.110987395 -0.0021661164 -0.020583125 -0.021120265 -0.108937934 0.00224035
-0.018550377 0.10058556 0.043413542 -0.06498022 -0.086528644 -0.073813304 -0.05252853 -0.054965883
-0.08288044 -0.03856119 0.03487541 0.010871067 0.0080663385 0.0125708785 -0.032384317 -0.02954379
-0.108754195 0.038923725 -0.09732811 0.08947102 -0.09242471 0.09674168 0.10560024 0.08970994
-0.10380519 -0.053813517 -8.188097e-05 0.024454452 0.10425021 0.10809463 -0.10237008 0.051779512
-0.09778787 -0.0943513 -0.053659797 -0.06840131 0.0472009 0.007440811 0.10250374 0.11335235
-0.053470146 0.074774064 0.1142561 0.048614528 0.11414119 0.09376765 -0.08079681 -0.03406047
-0.052143183 -0.08306447 0.10802276 -0.05255406 -0.024207158 -0.044240735 0.10583542 -0.09691999
-0.006520769 -0.12434485 -0.048777964 0.001089145 -0.019222023 -0.026636284 -0.10510001 -0.00410524
0.11740471 0.032465793 -0.037380956 0.09042768 -0.07052431 0.11268081 -0.107057445 0.09362822
0.038060095 -0.027753709 -0.08258668 0.071295105 -0.10789512 0.09435228 0.018561225 0.09675705
0.08776734 0.010962853 -0.074269645 -0.023304395 -0.11204461 0.018345317 -0.07339452 -0.040762957
-0.1252401 0.10293005 -0.07331313 0.103922315 -0.09828389 0.12210736 0.11992553 0.022254989
-0.081073545 0.096178204 0.0124307005 0.0734815 -0.04951245 -0.11619672 -0.021659506 0.03543654
-0.03802234 -0.05618829 -0.031531576 -0.07563523 0.06902705 0.061690383 0.07554152 0.10838942
0.08448109 -0.03727269 0.04962179 -0.04238381 -0.003888996 0.08010632 0.07444883 0.09546119
-0.035656426 -0.009277137 0.020882089 -0.005435001 -0.010512195 0.08884029 -0.042070914 -0.06564062
00000000: dc66 eebb 941c c03d 9ad5 e23d 88e8 903d
00000010: b8af f4bd 8e7a f5bd 6fba be3d cbd6 0d3d
00000020: 46a1 a63d 7daf d9bd 7df3 3ebd 3a6a a6bc
00000030: e620 94bd 3cf5 abbd f774 7e3d f3c4 f3bc
00000040: 846b 17bd 5d03 973d cd13 d6bd e46e 4fbd
00000050: f478 34bd ce9e b5bb 4795 01bd 6ac3 913d
00000060: 357a 9cbc c68f e1bd 2079 fe3c 370b 883d
00000070: 4892 96ba e2aa a63c a31b 73bd a776 3b3c
00000080: b6ee 9abd f6c6 f4bd 1b82 923d a71e 60bd
00000090: 334c 8e3d 1b5d 29bd 77a4 633d 0883 13bc
000000a0: d716 843d 0259 b7bd fca9 4cbd a722 06bd
000000b0: c2d3 dbbd 7ada 9d3d 15b4 aa3d ae08 52bd
000000c0: 0a0d d1bd b5d1 283d 6027 cebd 3022 f43d
000000d0: f007 893a 061a 4cbc 32ad d63d de0a 96bd
000000e0: 4b08 fbbd f504 d3bd 430c 77bd d683 64bd
000000f0: e58f edbc 0422 c7bc 3112 d6bd 73b9 d7bd
00000100: 6946 b23d 93e8 993d e6e0 eabc 4911 df3d
00000110: cbfc 303d 2f0f da3d dfbf d2bd adcc d13d
00000120: dc07 a4bd 1f35 f23c 5c51 4bbd 2a71 b13b
00000130: 6f33 23bd 2a22 01be 9375 e93c ad46 46bd
00000140: 4fae 603d dac3 58bd 7030 16bd d356 8abd
00000150: f80a 55bd 5eb4 3f3d 82a8 80bd 2409 ecbc
00000160: 4586 d7bd 9151 6dbd 2b22 d0bd 36d8 b13c
00000170: 1ee3 13bd 7403 d1bd 8fcf fd3d 4846 fbbd
00000180: 12ba 6ebd 5481 ee3d a1cb bd3c 4113 a13d
00000190: 1e10 07ba c615 e33d 8f4b af3d 6685 953d
000001a0: f28c d8bc 4af4 d7bd 9945 6abd 41d6 f6bd
000001b0: 3c3b cbbd 74bf 1a3d ed42 833d 68eb 833d
000001c0: bade 6abb 3acb 08bd 84c0 d7bd 1249 a1bd
000001d0: d92f f53b 1a1e af3d 9368 7e3d 6fac 06bc
000001e0: e8fe 9abd 0b43 bfbd 5c4d e3bd 67f5 0dbb
000001f0: f19d a8bc 6804 adbc da1a dfbd d6d2 123b
00000200: f6f6 97bc cdff cd3d 66d2 313d 5914 85bd
00000210: ee35 b1bd 6e2b 97bd 2828 57bd e823 61bd
00000220: 38bd a9bd 57f2 1dbd 85d9 0e3d 8f1c 323c
00000230: ad28 043c 16f6 4d3c 6ba5 04bd d105 f2bc
00000240: 85ba debd 7c6e 1f3d f653 c7bd 953c b73d
00000250: 2b49 bdbd 8020 c63d f044 d83d d8b9 b73d
00000260: d197 d4bd 906b 5cbd 83b7 abb8 b454 c83c
00000270: 2281 d53d b860 dd3d 68a7 d1bd c116 543d
00000280: 0245 c8bd 413b c1bd 60ca 5bbd fc15 8cbd
00000290: bb55 413d 0cd2 f33b 7bed d13d 4725 e83d
000002a0: 8303 5bbd 2523 993d 1aff e93d 0720 473d
000002b0: dbc2 e93d 4109 c03d cc78 a5bd fe82 0bbd
000002c0: 1794 55bd b41d aabd 093b dd3d ed42 57bd
000002d0: 174e c6bc c635 35bd 3ec0 d83d fd7d c6bd
000002e0: 2dac d5bb 83a8 febd 67cb 47bd a4c1 8e3a
000002f0: 8177 9dbc 5634 dabc ad3e d7bd 4085 86bb
00000300: e171 f03d dafa 043d c61c 19bd 2632 b93d
00000310: 0d6f 90bd 32c5 e63d ef40 dbbd 27c0 bf3d
00000320: e7e4 1b3d bf5b e3bc 3523 a9bd 2b03 923d
00000330: 1ef8 dcbd c53b c13d b60d 983c 8f28 c63d
00000340: 5dbf b33d 8a9d 333c af1a 98bd dce8 bebc
00000350: a577 e5bd eb48 963c de4f 96bd 0ff7 26bd
00000360: f13e 00be fdcc d23d 3225 96bd 39d5 d43d
00000370: 1049 c9bd 6c13 fa3d 849b f53d 1850 b63c
00000380: e309 a6bd 14f9 c43d 23aa 4b3c 787d 963d
00000390: 91cd 4abd 8cf8 edbd 476f b1bc e825 113d
000003a0: 50bd 1bbd b125 66bd 4127 01bd a5e6 9abd
000003b0: 0e5e 8d3d 0eaf 7c3d 83b5 9a3d 46fb dd3d
000003c0: 6c04 ad3d 40ab 18bd 3840 4b3d a59a 2dbd
000003d0: 87de 7ebb c80e a43d a178 983d 2881 c33d
000003e0: 790c 12bd 22ff 17bc ea10 ab3c 1818 b2bb
000003f0: 573b 2cbc e6f1 b53d 8d52 2cbd 976e 86bd

bias_ih_l0 f4 [192]
-0.07785061 -0.071473025 -0.047854938 0.06780098 -0.12036578 0.024295023 0.058911055 -0.11898053
0.043790355 -0.11094816 -0.002064504 0.034128424 0.122605965 -0.09285056 -0.11302278 0.042539097
0.09702162 0.0010305159 0.04326074 0.04536358 0.0841358 0.07893582 -0.04275976 -0.07497978
0.07513022 -0.003771981 -0.054023404 -0.11555238 0.057480805 0.039909296 -0.014446725 -0.039750382
0.099901825 -0.10633287 -0.056243535 -0.107744105 0.08379502 0.091764696 -0.1108354 0.088886276
-0.05952489 -0.09963732 -0.010275335 0.05541348 0.07856931 0.08295362 0.046351258 -0.07149535
-0.0142290145 -0.02440977 -0.12512034 -0.109898105 -0.0037808646 0.10092703 -0.016745333 0.12328272
0.061466083 -0.025838636 0.020613719 -0.008977284 -0.10637402 0.012426877 0.02660355 0.014254119
-0.06686047 -0.011628129 0.020583918 0.027235905 -0.06344244 0.021117996 0.11070307 0.10811457
0.026180161 -0.08905347 -0.046011664 -0.05249349 -0.0018987496 0.011930978 -0.06289248 -0.087984145
-0.11949165 0.06005335 -0.023658842 -0.0636907 0.115855895 0.09189624 -0.111364104 -0.09944425
0.108944364 0.07639933 -0.11327992 -0.08527414 -0.02496207 -0.05127761 -0.030197715 0.106108695
-0.008942244 0.07013967 0.11134397 0.076748 0.10560775 0.10623434 -0.10171829 -0.060543913
0.03657399 0.01543895 0.069854885 -0.017997054 0.08451914 -0.0862523 0.06830503 0.061192907
0.013617932 0.10694945 0.046349905 -0.012521195 0.099964745 0.019300062 0.0535235 -0.058264818
-0.022161381 -0.008741904 0.01479489 -0.032307565 -0.080361284 -0.015681181 0.12461654 0.06435121
0.031945072 -0.10710916 -0.11584983 -0.07616167 -0.0856681 0.056784436 -0.12196586 0.06368965
-0.10840349 0.033986982 -0.123604536 0.040727988 -0.033863757 -0.035122223 -0.013520746 -0.004939062
0.012384973 -0.062788434 -0.023899911 0.08192223 0.101405874 0.113363326 -0.08472818 0.06309779
-0.031915735 -0.012309445 -0.10064765 0.12094794 0.054513533 -0.048747096 0.07728297 0.05659997
0.11285497 -0.0056693195 0.09617713 -0.09274246 0.070870504 -0.06578048 0.089707814 -0.11719309
0.0068081478 -0.08981379 0.029240431 -0.033508867 0.06506754 -0.045472186 -0.04211137 -0.01755986
0.029506296 0.05751174 0.06829898 0.054767862 0.0107047735 -0.08206698 0.056166455 -0.032374226
-0.050456878 0.10581911 0.006096128 -0.093122095 -0.09481033 -0.085407145 -0.09839624 -0.00871043
00000000: 2470 9fbd 7360 92bd 8a03 44bd 3ddb 8a3d
00000010: 5682 f6bd 5b06 c73c b84c 713d 10ac f3bd
00000020: 845d 333d ca38 e3bd a14c 07bb 3fca 0b3d
00000030: d618 fb3d 6f28 bebd 7d78 e7bd 7a3d 2e3d
00000040: 45b3 c63d 6012 873a 2c32 313d 29cf 393d
00000050: 644f ac3d 1aa9 a13d dc24 2fbd 008f 99bd
00000060: dfdd 993d 5733 77bb a547 5dbd baa6 ecbd
00000070: fe70 6b3d ee77 233d f5b1 6cbc 4cd1 22bd
00000080: 5499 cc3d 0cc5 d9bd 9f5f 66bd f1a8 dcbd
00000090: b99c ab3d 21ef bb3d acfd e2bd 020a b63d
000000a0: 5fd0 73bd a70e ccbd e159 28bc 3ff9 623d
000000b0: f2e8 a03d 96e3 a93d d1da 3d3d 276c 92bd
000000c0: d020 69bc fff6 c7bc 8c1f 00be 4212 e1bd
000000d0: 62c8 77bb d5b2 ce3d 822d 89bc a77b fc3d
000000e0: dcc3 7b3d 8cab d3bc 1ade a83c 7515 13bc
000000f0: 9fda d9bd 1a9a 4b3c b0ef d93c 1c8a 693c
00000100: 24ee 88bd e883 3ebc 9b9f a83c d51d df3c
00000110: 1cee 81bd a6ff ac3c 4bb8 e23d 2c6b dd3d
00000120: c777 d63c aa61 b6bd ba76 3cbd 6a03 57bd
00000130: 77df f8ba 267a 433c c6cd 80bd 0831 b4bd
00000140: 0ab8 f4bd 80fa 753d 30d0 c1bc 4570 82bd
00000150: db45 ed3d 1934 bc3d dd12 e4bd 6da9 cbbd
00000160: 391e df3d 4077 9c3d 4dff e7bd 35a4 aebd
00000170: 417d ccbc 7908 52bd 3361 f7bc 844f d93d
00000180: 7d82 12bc 63a5 8f3d 4f08 e43d 0e2e 9d3d
00000190: e048 d83d 6491 d93d ae51 d0bd e5fc 77bd
000001a0: 9cce 153d a6f3 7c3c 1410 8f3d 8f6e 93bc
000001b0: 5f18 ad3d 0ca5 b0bd 82e3 8b3d 6aa5 7a3d
000001c0: bf1d 5f3c 5008 db3d 66d9 3d3d b325 4dbc
000001d0: 51ba cc3d 2a1b 9e3c 753b 5b3d 17a7 6ebd
000001e0: c98b b5bc 343a 0fbc 4466 723c f054 04bd
000001f0: 7594 a4bd d275 80bc f536 ff3d 91ca 833d
00000200: d6d8 023d 0c5c dbbd ad42 edbd a6fa 9bbd
00000210: c272 afbd cc96 683d 3dc9 f9bd b86f 823d
00000220: a602 debd ef35 0b3d 6024 fdbd 64d2 263d
00000230: b9b4 0abd 52dc 0fbd 1e86 5dbc dbd7 a1bb
00000240: 57ea 4a3c 3997 80bd bfc9 c3bc d8c6 a73d
00000250: e2ad cf3d 082b e83d f885 adbd 6a39 813d
00000260: 13ba 02bd 8ead 49bc 5b20 cebd 8eb3 f73d
00000270: 9549 5f3d 09ab 47bd 8946 9e3d 5fd5 673d
00000280: 8220 e73d b3c5 b9bb 84f8 c43d c2ef bdbd
00000290: 8e24 913d ebb7 86bd bbb8 b73d ee02 f0bd
000002a0: e216 df3b 4bf0 b7bd a189 ef3c 9840 09bd
000002b0: 2142 853d 0b41 3abd f97c 2cbd b2d9 8fbc
000002c0: 30b7 f13c 6e91 6b3d 56e0 8b3d 4454 603d
000002d0: 1363 2f3c bc12 a8bd cc0e 663d d69a 04bd
000002e0: dfab 4ebd b1b7 d83d 07c2 c73b ccb6 bebd
000002f0: eb2b c2bd f1e9 aebd f883 c9bd 31b6 0ebc

bias_hh_l0 f4 [192]
0.014728791 -0.089506276 -0.053716414 0.1033202 0.00018177216 -0.0868633 0.033043772 0.10983902
-0.04972318 -0.04117727 -0.016128432 -0.056136314 0.074422255 0.07133346 0.10004065 0.09834216
0.0839955 0.058442693 -0.009830093 0.039726425 -0.0624833 0.010853693 5.3839824e-05 0.01809653
0.043916553 0.1161717 -0.08607035 0.061590407 -0.106246985 0.07294986 -0.052234538 0.11734247
-0.015650172 0.0127579095 0.11831387 0.09638616 0.058500066 -0.012237836 -0.06930949 0.117027834
-0.06444052 -0.12044176 -0.04298813 -0.029381989 0.084846586 -0.05934662 0.02307874 0.06845724
-0.050479885 -0.09947475 0.05020108 -0.077665806 0.052875906 -0.058113057 0.061899584 0.08448579
-0.032648712 -0.043592356 -0.04032023 0.062042117 0.051191464 0.06512564 0.076353446 0.051199354
0.11963928 -0.11356943 -0.071143806 0.00070556125 -0.05801725 0.0958124 -0.06288681 0.10626517
0.06046124 0.10341388 -0.07761844 -0.0846039 -0.07720648 0.124214716 -0.03340952 -0.024230981
-0.10905753 -0.050088882 -0.06738543 -0.032930784 -0.08470871 -0.04365552 -0.12593697 -0.12273847
0.08696049 0.010669646 -0.10267808 -0.0686338 -0.0027989487 0.022120113 -0.034681 -0.10346338
-0.10779593 0.08955916 0.0221474 0.101719335 -0.038829926 -0.00957387 -0.01841416 0.009271485
0.12535404 0.06264947 -0.05226284 -0.11561006 -0.07564538 0.115483105 0.040723186 -0.057117023
0.08341898 0.024547374 0.020675806 0.046353634 0.0099752415 0.058554925 0.06831271 -0.047941696
-0.018144878 -0.1048841 -0.10685676 0.019152302 -0.04477319 0.0072260625 0.05767891 -0.058910843
-0.06969996 -0.049134023 -0.018003913 0.021598637 -0.011361483 0.03267044 -0.08462114 0.0023101969
-0.12049234 0.019700304 0.027910717 0.1098944 0.025867838 0.065317445 0.023519682 0.040456753
0.07920559 0.03612392 0.079647176 0.10602707 -0.099120796 -0.007885328 -0.122082874 -0.05077987
0.07553506 -0.05950072 -0.10983168 -0.05458869 -0.09561115 -0.10603222 0.03400165 -0.057421204
-0.08635671 -0.028737724 -0.059937228 -0.017699061 0.06218917 0.043497432 -0.0857598 -0.086469986
-0.006357943 0.06319483 -0.08838381 0.027938884 -0.10577848 0.03375043 0.091387644 0.021951623
-0.1105287 0.01624065 0.068768084 0.029876195 0.10053333 -0.1100481 0.09213164 0.119008824
0.08815592 -0.03446831 -0.010573645 -0.10921181 -0.088727064 0.073794164 -0.10341698 -0.020200191
00000000: 0751 713c 114f b7bd be05 5cbd 8b99 d33d
00000010: 189a 3e39 63e5 b1bd e858 073d 48f3 e03d
00000020: 88aa 4bbd 7fa9 28bd c61f 84bc 31ef 65bd
00000030: b26a 983d 4717 923d 1de2 cc3d 9d67 c93d
00000040: d505 ac3d 9b61 6f3d 660e 21bc 2db8 223d
00000050: 7dee 7fbd b0d3 313c 12d2 6138 2d3f 943c
00000060: d8e1 333d 6eeb ed3d a745 b0bd 3946 7c3d
00000070: 0598 d9bd bc66 953d e2f3 55bd 4051 f03d
00000080: ca34 80bc 8d06 513c 8b4e f23d 1b66 c53d
00000090: c49d 6f3d 3481 48bc 22f2 8dbd 4aac ef3d
000000a0: 64f9 83bd 2baa f6bd 5214 30bd 7fb2 f0bc
000000b0: 0cc4 ad3d 7115 73bd a00f bd3c 4f33 8c3d
000000c0: ffc3 4ebd 6bb9 cbbd a69f 4d3d 400f 9fbd
000000d0: 6894 583d f507 6ebd 6b8a 7d3d e306 ad3d
000000e0: a8ba 05bd e68d 32bd d326 25bd e01f 7e3d
000000f0: 24ae 513d 9760 853d 325f 9c3d 6ab6 513d
00000100: 7005 f53d 1797 e8bd d8b3 91bd 6af5 383a
00000110: 7fa3 6dbd 4b39 c43d cdca 80bd 8ea1 d93d
00000120: 35a6 773d a8ca d33d 6bf6 9ebd cf44 adbd
00000130: 6e1e 9ebd 4964 fe3d 6cd8 08bd 0d80 c6bc
00000140: 8e59 dfbd 002a 4dbd 5f01 8abd 6ee2 06bd
00000150: c37b adbd 21d0 32bd 9ff5 00be 4f5e fbbd
00000160: 5718 b23d bdcf 2e3c e348 d2bd e18f 8cbd
00000170: 916e 37bb 3d35 b53c aa0d 0ebd 9ce4 d3bd
00000180: 1dc4 dcbd cb6a b73d 776e b53c 3a52 d03d
00000190: 210c 1fbd b9db 1cbc 4bd9 96bc 6de7 173c
000001a0: cf5c 003e 5e4e 803d 8f11 56bd f8c4 ecbd
000001b0: f7eb 9abd 6882 ec3d 5bcd 263d 8af3 69bd
000001c0: 92d7 aa3d 9317 c93c 4f60 a93c 4fdd 3d3d
000001d0: 326f 233c 4ad7 6f3d 89e7 8b3d 835e 44bd
000001e0: 91a4 94bc 7acd d6bd b8d7 dabd 4ae5 9c3c
000001f0: 1864 37bd 9bc8 ec3b b940 6c3d 7f4c 71bd
00000200: dabe 8ebd c240 49bd f17c 93bc a0ef b03c
00000210: 8325 3abc 70d1 053d d94d adbd ac66 173b
00000220: b0c4 f6bd 8862 a13c 04a5 e43c 5110 e13d
00000230: cae8 d33c 27c5 853d 59ac c03c fbb5 253d
00000240: 8a36 a23d adf6 133d 0f1e a33d b824 d93d
00000250: d8ff cabd 7631 01bc 9606 fabd 8efe 4fbd
00000260: 20b2 9a3d 07b7 73bd 6fef e0bd 6498 5fbd
00000270: c7cf c3bd 6c27 d9bd 5045 0b3d 7f32 6bbd
00000280: c9db b0bd 606b ebbc bd80 75bd 9ffd 90bc
00000290: 12ba 7e3d 5d2a 323d d6a2 afbd 2d17 b1bd
000002a0: 4b56 d0bb 4b6c 813d 9202 b5bd 16e0 e43c
000002b0: 63a2 d8bd e43d 0a3d 7229 bb3d e4d3 b33c
000002c0: df5c e2bd 1d0b 853c 48d6 8c3d ecbe f43c
000002d0: 6be4 cd3d e660 e1bd 83af bc3d e6ba f33d
000002e0: 178b b43d a52e 0dbd 153d 2dbc 71aa dfbd
000002f0: 89b6 b5bd 6521 973d 48cc d3bd df7a a5bc

weight f4 [2, 64]
0.07796368 -0.005412755 0.07563671 0.00014377346 -0.063490145 0.03921202 0.086800665 0.054434642
0.025381668 0.06484686 -0.010899056 0.0804718 0.014566612 0.047348846 0.072054856 -0.08195343
0.079371676 0.03253944 -0.09049019 0.020008245 -0.08481075 -0.058752283 0.1195811 -0.11849034
0.00050762674 0.031689186 0.063544676 -0.06571259 0.11339234 0.053565823 0.09583817 -0.08838425
-0.051764656 0.012626257 -0.07726606 0.09423421 0.07902505 0.10512835 0.010392835 0.082463495
0.015319467 0.11156448 -0.016845897 0.06476936 0.03458172 0.0777068 -0.10854236 0.009156135
-0.101764314 -0.007377604 -0.08736603 -0.040303297 0.117185235 0.02515917 0.11974414 -0.043801673
-0.0638963 -0.055599477 -0.08690705 -0.1160483 -0.070302814 0.09410692 0.038423587 -0.050619345
0.12303755 0.057320073 0.0211456 0.109198645 -0.112790845 0.122177735 0.035833374 0.10827528
-0.10825758 -0.11408122 0.1087236 0.02614295 -0.017586006 -0.09503431 0.11536033 0.07130464
-0.09320995 -0.11849365 -0.09762594 -0.103295915 0.07094157 -0.013682727 0.090283334 0.12028608
0.035819832 0.11987021 -0.077456236 -0.097997 0.115379155 0.050310932 -0.11135619 -0.031692218
-0.07549916 0.07705814 -0.018250423 0.08417912 0.080841936 -0.110314146 -0.06380909 0.09390437
-0.07221492 0.08824337 0.059951134 0.026452906 0.116101086 0.058079187 0.100893505 0.011857542
0.089425646 -0.11346798 -0.04734382 0.02152259 0.12230781 0.022898696 -0.08814058 0.10575715
0.08697276 -0.09378283 0.10691551 -0.11462443 -0.06770861 -0.0215172 -0.017088592 -0.0559689
00000000: 6cab 9f3d 7b5d b1bb 6be7 9a3d e5c1 1639
00000010: 1f07 82bd c89c 203d 8cc4 b13d dcf6 5e3d
00000020: 37ed cf3c 6ece 843d f491 32bc 66ce a43d
00000030: cda8 6e3c ddf0 413d 7f91 933d 33d7 a7bd
00000040: 9e8d a23d 1348 053d ec52 b9bd 55e8 a33c
00000050: 42b1 adbd 3ca6 70bd f0e6 f43d 10ab f2bd
00000060: 4112 053a 85cc 013d b623 823d 5394 86bd
00000070: 3e3a e83d d667 5b3d cd46 c43d cd02 b5bd
00000080: 2d07 54bd 5cde 4e3c ab3d 9ebd defd c03d
00000090: e3d7 a13d 884d d73d b646 2a3c 9fe2 a83d
000000a0: 80fe 7a3c eb7b e43d 6800 8abc cca5 843d
000000b0: 90a5 0d3d be24 9f3d 754b debd 9d03 163c
000000c0: cf69 d0bd d4bf f1bb f6ec b2bd 1215 25bd
000000d0: d0fe ef3d 9b1a ce3c 6a3c f53d 6269 33bd
000000e0: 10dc 82bd 47bc 63bd 53fc b1bd bbaa edbd
000000f0: ecfa 8fbd 21bb c03d 0d62 1d3d 3b56 4fbd
00000100: 1cfb fb3d 74c8 6a3d 8a39 ad3c 8aa3 df3d
00000110: e3fe e6bd 5238 fa3d 04c6 123d 6ebf dd3d
00000120: 26b6 ddbd 6aa3 e9bd 7baa de3d bd29 d63c
00000130: 8710 90bc 59a1 c2bd 0942 ec3d 2b08 923d
00000140: dce4 bebd ccac f2bd 1cf0 c7bd cf8c d3bd
00000150: d049 913d 842d 60bc 78e6 b83d 8c58 f63d
00000160: d1b7 123d 837e f53d 60a1 9ebd a7b2 c8bd
00000170: e84b ec3d d612 4e3d b70e e4bd b3cf 01bd
00000180: 4e9f 9abd a8d0 9d3d e981 95bc 1a66 ac3d
00000190: 7590 a53d 62ec e1bd 57ae 82bd ef50 c03d
000001a0: 6ae5 93bd f1b8 b43d 528f 753d c4b3 d83c
000001b0: 68c6 ed3d 71e4 6d3d 41a1 ce3d 2346 423c
000001c0: cb24 b73d e661 e8bd 98eb 41bd 2550 b03c
000001d0: 847c fa3d 0c96 bb3c 0c83 b4bd 3497 d83d
000001e0: c61e b23d 3611 c0bd 85f6 da3d 37c0 eabd
000001f0: d0aa 8abd d744 b0bc 60fd 8bbc a53f 65bd

bias f4 [2]
-0.05041741 -0.090774216
00000000: 7c82 4ebd d5e7 b9bd

weight_ih_l0 f4 [192, 66]
-0.1131919 -0.055497173 -0.028178897 0.023563579 0.011334819 0.083548576 0.00923501 -0.047540262
-0.042616546 -0.023846403 -0.035326645 0.022333965 -0.06260918 0.029261254 0.06796331 0.06847566
-0.07654722 -0.06485476 0.033918172 0.04687731 -0.018123388 -0.11931199 0.034143493 0.0081616985
-0.03792813 -0.11791761 0.09733212 0.033362985 0.033611044 0.030417308 -0.075515136 0.06914993
0.09828158 0.03490126 -0.07094464 -0.0051330505 -0.13639736 -0.09251854 0.11993025 0.032255784
0.081795275 -0.071786255 -0.06575561 -0.041866302 0.04163997 0.12136945 0.0631887 0.09442966
-0.03765355 0.057483416 -0.084473684 0.09459382 0.04698119 -0.06969239 0.010439441 0.120190516
0.12315826 0.08881579 0.046921507 -0.097417444 0.06762858 -0.07822715 -0.08298777 -0.008057691
0.02209547 -0.115052946 0.009916589 0.005145379 -0.04698951 -0.069664136 0.13914223 0.11096467
-0.048860952 -0.09252314 -0.081596956 0.11552115 -0.10088827 -0.10889897 -0.11547723 0.112316385
0.017480563 -0.09345581 0.10474583 -0.10463206 0.051374093 0.028642982 -0.0074468255 0.036206454
-0.035644513 -0.054102015 -0.03325997 -0.075623944 0.03747505 0.10263561 0.08292517 0.020602345
0.09436887 0.041078653 -0.019964945 0.059071884 -0.11774326 0.085633785 -0.014576467 -0.09624033
-0.025679186 0.042808607 0.019211376 -0.033345476 0.11097195 -0.06692561 0.056229886 0.09891178
-0.10175455 -0.124529764 0.024560973 -0.056797173 -0.10182667 -0.060678497 0.0155496355 0.03395698
0.11723625 -0.009879775 0.0049708406 -0.06639393 -0.025202855 0.0011717528 -0.026435345 -0.060477804
-0.02198504 0.10746506 0.020004619 0.13784415 0.0024008304 0.009237312 -0.12723349 0.06588313
-0.077969864 0.08516061 -0.03427637 0.079157084 -0.10125299 0.07586023 0.102739036 -0.087395474
-0.11920306 0.13190031 -0.021586632 -0.044556856 -0.030199159 -0.047326535 -0.07835737 0.08038144
0.10711758 0.07285653 -0.05497841 0.04916605 -0.12523107 -0.057943165 0.014531791 -0.105398625
0.09362392 -0.09255634 0.009095844 -0.048766907 0.06151914 -0.07819204 0.046472583 -0.074982576
0.10007076 -0.07937761 -0.07248038 0.123691306 -0.01742138 0.045322776 0.104000956 0.10681409
-0.06268964 -0.033718944 0.022195369 0.03773181 -0.059016228 0.030386973 0.052723095 0.114586055
0.025114793 0.025978094 0.073100515 -0.016783156 -0.08563924 0.025493786 0.053712025 -0.025830626
0.019142583 -0.07172283 -0.06969899 0.04821061 0.08227444 0.051945865 0.0017795265 -0.094638474
-0.0207681 -0.08216667 0.03259412 0.08088794 -0.09260125 0.035109937 0.06738223 0.11264759
0.026279911 0.013362512 0.0021238695 0.06124656 0.09738582 -0.016761571 -0.03290983 -0.023998663
0.056774348 -0.045321062 -0.02201207 -0.01095286 0.016334139 0.026039675 -0.030122347 -0.017190665
-0.051473677 0.09594533 0.007788196 0.108671755 -0.03046634 -0.08382588 -0.06636623 0.022393063
-0.07131461 -0.024211561 -0.1014204 0.05794254 -0.1044116 -0.004991293 0.07625774 0.032372683
0.011079111 0.042461943 0.057239875 0.053413257 -0.102566615 0.09760687 0.08126627 0.11488933
-0.0078148395 -0.013954446 -0.015200877 -0.035336502 -0.009591514 0.040948942 0.10574443 0.04038869
00000000: 28d1 e7bd 0151 63bd 6ed7 e6bc 6808 c13c
00000010: adb5 393c 841b ab3d 704e 173c 94b9 42bd
00000020: b08e 2ebd 8859 c3bc acb2 10bd b8f5 b63c
00000030: 3e39 80bd 4cb5 ef3c 5930 8b3d f83c 8c3d
00000040: cac4 9cbd 93d2 84bd c8ed 0a3d 6c02 403d
00000050: 8077 94bc d859 f4bd 0cda 0b3d a5b8 053c
00000060: 875a 1bbd ca7e f1bd 1056 c73d a0a7 083d
00000070: bcab 093d b82d f93c aea7 9abd 7a9e 8d3d
00000080: da47 c93d a0f4 0e3d 6c4b 91bd 2633 a8bb
00000090: c0ab 0bbe 5c7a bdbd fe9d f53d a41e 043d
000000a0: 4884 a73d ac04 93bd e1aa 86bd 007c 2bbd
000000b0: ac8e 2a3d 8c90 f83d 1469 813d 5664 c13d
000000c0: 9c3a 1abd bb73 6b3d 8a00 adbd 68ba c13d
000000d0: 596f 403d e2ba 8ebd 300a 2b3c 7226 f63d
000000e0: 663a fc3d 0ee5 b53d c430 403d cc82 c7bd
000000f0: da80 8a3d 8e35 a0bd 7ef5 a9bd 6804 04bc
00000100: 8f01 b53c e1a0 ebbd 3079 223c 919a a83b
00000110: 1378 40bd 12ac 8ebd 4d7b 0e3e 7241 e33d
00000120: 6c22 48bd c67c bdbd 4e1c a7bd 5a96 ec3d
00000130: 829e cebd 6c06 dfbd 537f ecbd 2206 e63d
00000140: 6633 8f3c c265 bfbd fb84 d63d 5549 d6bd
00000150: a46d 523d b0a4 ea3c 8004 f4bb 384d 143d
00000160: fbff 11bd 139a 5dbd 9b3b 08bd bae0 9abd
00000170: 707f 193d 9e32 d23d acd4 a93d 40c6 a83c
00000180: 7744 c13d 1742 283d 868d a3bc 5cf5 713d
00000190: 6123 f1bd c460 af3d 22d2 6ebc a619 c5bd
000001a0: 285d d2bc 1458 2f3d 2d61 9d3c 4495 08bd
000001b0: 4345 e33d 4b10 89bd 4f51 663d 4292 ca3d
000001c0: b164 d0bd 7609 ffbd 1834 c93c 27a4 68bd
000001d0: 808a d0bd 048a 78bd e6c3 7e3c 7916 0b3d
000001e0: 8f19 f03d c8de 21bc 6fe2 a23b 8af9 87bd
000001f0: 3876 cebc 8095 993a f08e d8bc 93b7 77bd
00000200: f819 b4bc a416 dc3d bae0 a33c 0427 0d3e
00000210: 4057 1d3b 1858 173c 7f49 02be bced 863d
00000220: aaae 9fbd b068 ae3d 6165 0cbd 1c1d a23d
00000230: ba5d cfbd 9c5c 9b3d d868 d23d 66fc b2bd
00000240: bc20 f4bd e010 073e 73d6 b0bc 4081 36bd
00000250: 3a64 f7bc 78d9 41bd d479 a0bd 069f a43d
00000260: 7660 db3d ce35 953d 0b31 61bd 5762 493d
00000270: 933c 00be d055 6dbd c016 6e3c 3cdb d7bd
00000280: e6bd bf3d 2e8e bdbd bc06 153c cfbf 47bd
00000290: 7efb 7b3d 2623 a0bd 095a 3e3d 7790 99bd
000002a0: e6f1 cc3d ba90 a2bd 9870 94bd de51 fd3d
000002b0: 48b7 8ebc 60a4 393d 74fe d43d 58c1 da3d
000002c0: 6d63 80bd e01c 0abd 10d3 b53c ac8c 1a3d
000002d0: 00bb 71bd 1aee f83c 2cf4 573d 18ac ea3d
000002e0: 8abd cd3c 03d0 d43c b9b5 953d d47c 89bc
000002f0: a063 afbd 58d8 d03c 2401 5c3d c09a d3bc
00000300: e8d0 9c3c 6be3 92bd 58be 8ebd 7d78 453d
00000310: 807f a83d 30c5 543d 003f e93a d1d1 c1bd
00000320: dd21 aabc 0047 a8bd 6981 053d 94a8 a53d
00000330: b9a5 bdbd 70cf 0f3d b2ff 893d c8b3 e63d
00000340: f848 d73c 70ee 5a3c 9e30 0b3b acdd 7a3d
00000350: 3772 c73d 904f 89bc 75cc 06bd d898 c4bc
00000360: 388c 683d 94a2 39bd a852 b4bc a073 33bc
00000370: 2ccf 853c 2851 d53c 24c3 f6bc 70d3 8cbc
00000380: 10d6 52bd fc7e c43d 2034 ff3b 4c8f de3d
00000390: 8c94 f9bc e7ac abbd 05eb 87bd a871 b73c
000003a0: 650d 92bd 5357 c6bc 80b5 cfbd 2855 6d3d
000003b0: c0d5 d5bd 008e a3bb 052d 9c3d 3899 043d
000003c0: 2985 353c 93ec 2d3d 5c74 6a3d dcc7 5a3d
000003d0: 720e d2bd 1ce6 c73d ee6e a63d 194b eb3d
000003e0: d009 00bc 30a1 64bc 190d 79bc 02bd 10bd
000003f0: ba25 1dbc 14ba 273d 8990 d83d 9c6e 253d

weight_hh_l0 f4 [192, 64]
0.036429923 0.03491361 0.00043732167 0.071163364 -0.09759543 0.024021687 0.0973047 -0.055546146
-0.035711113 0.012709277 0.044767056 -0.057800103 -0.11188884 -0.06040399 -0.066389084 0.13048398
0.045557853 0.048826788 -0.09884759 -0.074901834 -0.017327465 -0.025442578 0.01687947 0.062746614
0.10493149 0.011638568 -0.023313737 0.06683849 0.12947069 0.07711683 -0.062923536 0.08385073
-0.12706327 0.032415107 -0.12478653 0.08500058 -0.0964131 -0.021193191 0.11516128 0.10864122
-0.10496524 -0.1294801 0.089094 0.038975406 0.061089803 -0.02285382 0.10341288 -0.00992787
-0.11396969 0.021812256 0.12675299 0.13490568 -0.03400164 0.113233306 0.01891931 -0.08685547
0.05081302 -0.0028630297 0.081379406 0.060885202 0.104944706 0.030218158 -0.036115017 -0.050074432
-0.06293805 0.024871781 -0.026477128 -0.12600026 0.12944901 0.079841204 0.098213926 -0.01844553
0.051188495 0.049933627 -0.11007344 0.12544376 0.041022476 0.09310945 -0.065411024 0.031723212
-0.11934314 -0.1036804 -0.025883418 -0.0635435 -0.12470218 -0.05411662 -0.04930534 0.047750134
-0.008214667 -0.06715705 0.0014397947 -0.11194705 -0.12817992 0.10630605 -0.02531159 -0.10349165
-0.030321674 -0.06966328 0.09347757 0.07780252 0.05810816 0.08393123 0.025955409 -0.04177701
0.09035831 0.005084335 -0.024643792 -0.046205 -0.061514277 -0.11444918 0.08152612 0.08106316
0.07279082 -0.05407637 0.021020956 -0.10795758 0.017076029 0.07426322 0.13241303 0.010633529
0.119441696 0.095950976 -0.10658956 0.098325856 -0.008132595 0.055672877 0.09539767 0.05261168
0.10903663 0.05949173 0.08186142 0.03464641 0.018969385 -0.10371547 0.08919199 -0.028938752
-0.013074661 0.13817827 0.03947858 -0.09716273 -0.009647934 -0.10731207 -0.11889638 0.006949384
-0.08127271 0.072829634 -0.056975886 0.09772188 -0.088426635 -0.1095312 0.0762095 -0.09570703
0.03929424 -0.03299503 0.086914204 -0.051456124 0.03574022 -0.13999477 0.06560249 -0.11199288
0.12084863 0.044515904 0.08300346 -0.03070949 0.029513236 0.058516614 -0.11623197 -0.0133979805
0.095346734 -0.07318078 0.13992561 0.08864824 0.06867034 -0.0036705644 -0.093539186 0.076542154
0.05766282 -0.13834809 0.0620869 -0.047932815 -0.0721175 0.030933445 0.11167303 -0.015181958
-0.0065684286 0.0031087578 0.061696663 -0.07754661 0.052470043 0.07984395 -0.046154514 0.049762316
0.031878516 -0.035253122 -0.099844955 0.020467319 -0.10390655 -0.020540932 -0.1164999 -0.0644564
-0.11864962 0.09640714 -0.046579324 0.038137745 -0.044520628 -0.048411857 0.003115698 0.0795895
-0.0079014255 0.00028147112 -0.060786642 -0.016385093 -0.11497797 -0.0379654 0.07110587 0.0924052
-0.026843272 -0.031118782 -0.05814736 0.0015443505 -0.11193165 0.0077131027 0.09710113 0.13378991
-0.09068115 -0.051718254 0.1071443 0.07521489 0.028908782 0.1332613 -0.012773828 0.046743497
0.011060127 0.1015513 -0.020119682 0.13897973 0.11706356 -0.0831897 -0.098694526 -0.026689665
-0.10231191 -0.024857718 0.062005155 -0.08213562 0.04563109 0.10104336 0.11133009 0.08948675
-0.06874605 -0.08798253 0.075654246 -0.011568078 0.069896564 0.10241028 -0.052390285 -0.04843384
00000000: 8b37 153d 9301 0f3d 5248 e539 19be 913d
00000010: 1de0 c7bd 21c9 c43c b047 c73d 5b84 63bd
00000020: d145 12bd 923a 503c a95d 373d cdbf 6cbd
00000030: fa25 e5bd 2d6a 77bd 00f7 87bd 989d 053e
00000040: df9a 3a3d 99fe 473d 9b70 cabd 2266 99bd
00000050: 54f2 8dbc f46c d0bc d046 8a3c 4c81 803d
00000060: 52e6 d63d b1af 3e3c 73fc bebc 9ee2 883d
00000070: f793 043e 6eef 9d3d 0ede 80bd eeb9 ab3d
00000080: e01c 02be b4c5 043d 1590 ffbd c914 ae3d
00000090: 3b74 c5bd 589d adbc add9 eb3d 4a7f de3d
000000a0: 04f8 d6bd 6e96 04be ea76 b63d ada4 1f3d
000000b0: 4d39 7a3d ef37 bbbc 22ca d33d 81a8 22bc
000000c0: f168 e9bd 9eaf b23c 89cb 013e b724 0a3e
000000d0: 4e45 0bbd dde6 e73d abfc 9a3c 48e1 b1bd
000000e0: 5021 503d aba1 3bbb 3faa a63d c362 793d
000000f0: 40ed d63d 128c f73c 57ed 13bd d91a 4dbd
00000100: aae5 80bd e8bf cb3c 90e6 d8bc 3606 01be
00000110: 488e 043e c983 a33d 6224 c93d 151b 97bc
00000120: 07ab 513d 3487 4c3d 2f6e e1bd 5474 003e
00000130: 2f07 283d 2bb0 be3d 37f6 85bd 33f0 013d
00000140: 2d6a f4bd 6456 d4bd 7609 d4bc 1823 82bd
00000150: db63 ffbd 64a9 5dbd 65f4 49bd a595 433d
00000160: d096 06bc a389 89bd 7eb7 bc3a 7f44 e5bd
00000170: 9941 03be fdb6 d93d 405a cfbc 6ef3 d3bd
00000180: 2965 f8bc 9fab 8ebd 2b71 bf3d ed56 9f3d
00000190: d202 6e3d 23e4 ab3d 70a0 d43c 5f1e 2bbd
000001a0: c70d b93d 7e9a a63b c7e1 c9bc 7441 3dbd
000001b0: 65f6 7bbd 5564 eabd 2bf7 a63d 7104 a63d
000001c0: 5a13 953d 2f7f 5dbd 2434 ac3c dd18 ddbd
000001d0: 07e3 8b3c 5117 983d 4897 073e 4138 2e3c
000001e0: d99d f43d f281 c43d a14b dabd 115f c93d
000001f0: 933e 05bc 3e09 643d db5f c33d 587f 573d
00000200: 994e df3d 9aad 733d f6a6 a73d 65e9 0d3d
00000210: af65 9b3c c768 d4bd 4aaa b63d f610 edbc
00000220: 1a37 56bc 9b7e 0d3e 4bb4 213d 41fd c6bd
00000230: 5e12 1ebc 6ec6 dbbd f27f f3bd a9b7 e33b
00000240: 4e72 a6bd b427 953d 8c5f 69bd 6922 c83d
00000250: 0619 b5bd e551 e0bd ba13 9c3d 0c02 c4bd
00000260: fff2 203d cc25 07bd 1300 b23d a8c3 52bd
00000270: 5664 123d ca5a 0fbe 995a 863d 865c e5bd
00000280: 7d7f f73d 4f56 363d b8fd a93d 7892 fbbc
00000290: bec5 f13c 1eaf 6f3d 070b eebd 3483 5bbc
000002a0: 2645 c33d cedf 95bd a948 0f3e 358d b53d
000002b0: 09a3 8c3d da8d 70bb 7991 bfbd 22c2 9c3d
000002c0: d92f 6c3d 1fab 0dbe d54e 7e3d 3355 44bd
000002d0: 57b2 93bd 2368 fd3c d4b4 e43d bfbd 78bc
000002e0: f93b d7bb 4dbc 4b3b a4b5 7c3d c2d0 9ebd
000002f0: d4ea 563d 3a85 a33d 840c 3dbd 92d3 4b3d
00000300: 0c93 023d 9465 10bd 837b ccbd 14ab a73c
00000310: f5cc d4bd 7545 a8bc 8097 eebd b801 84bd
00000320: 92fe f2bd 1b71 c53d f6c9 3ebd 5336 1c3d
00000330: 435b 36bd 834b 46bd bd30 4c3b d2ff a23d
00000340: fb74 01bc 6a92 9339 6afb 78bd 083a 86bc
00000350: 9279 ebbd 9b81 1bbd f49f 913d f03e bd3d
00000360: 6ce6 dbbc d1ec febc ed2b 6ebd ce6b ca3a
00000370: 6c3c e5bd 32be fc3b f5dc c63d 3900 093e
00000380: 0ab7 b9bd 85d6 53bd 796e db3d 440a 9a3d
00000390: 1cd2 ec3c a675 083e 5149 51bc 1c76 3f3d
000003a0: 8935 353c 21fa cf3d 08d2 a4bc b450 0e3e
000003b0: 05bf ef3d 5d5f aabd 5b20 cabd 49a4 dabc
000003c0: e888 d1bd 6aa2 cbbc 1ef9 7d3d b836 a8bd
000003d0: aae7 3a3d d2ef ce3d 0801 e43d d444 b73d
000003e0: bbca 8cbd 2f30 b4bd 9df0 9a3d 0988 3dbc
000003f0: ee25 8f3d 7bbc d13d 3297 56bd 9062 46bd

bias_ih_l0 f4 [192]
-0.10906206 0.10440115 0.117118046 0.09613218 0.14240538 0.10036492 0.043114223 0.12389326
-0.0145102395 0.10275627 -0.09079697 -0.026017874 -0.04947343 0.06235982 0.013102293 -0.103601746
0.019944021 0.009084858 -0.094471805 0.024309175 0.0072803292 -0.074222594 0.031474322 -0.121876195
0.020676684 0.11500826 -0.035574015 -0.07486424 -0.050782174 -0.09776299 0.020316515 0.10799406
0.080723375 -0.10131568 0.10741607 0.011626023 -0.08233454 -0.01168868 0.015676571 0.08760023
0.12221886 -0.07485558 -0.084196284 0.049585346 0.10126809 0.020331431 0.10454217 -0.013811943
0.09819442 -0.06337207 -0.051652517 0.062852435 0.044457097 -0.06026739 0.044343196 0.081593476
-0.017351644 -0.061433513 -0.10695305 0.0686632 0.11648638 -0.014014627 0.03896273 0.0059812544
0.002029206 -0.12418522 0.04238815 -0.09810493 -0.09636455 -0.04418536 -0.10709718 0.0010506866
-0.07952932 0.012067532 -0.032980602 -0.0910345 0.03594153 -0.0845984 -0.016192377 -0.0626845
-0.001734886 -0.071583144 0.099548034 0.050799586 0.104367346 0.04853681 -0.04276815 0.13102588
-0.11725139 -0.12537204 0.049048055 0.0022796215 0.059005626 -0.029372348 -0.03217097 -0.12074626
-0.046512853 0.02117726 0.0020428651 -0.08949484 0.0061618527 0.04399235 -0.09873542 -0.121954605
0.045746993 -0.13602081 -0.13135387 -0.056631595 0.094801925 -0.026770912 -0.09824084 0.016278967
0.07551963 -0.1410951 -0.038199108 -0.11577988 -0.10126601 -0.12955146 -0.05048543 -0.03388164
0.015017541 0.01818654 0.015610416 0.11207111 -0.07943663 -0.037832137 -0.0887695 -0.0017899735
0.10054532 -0.10646547 0.12305813 0.09117248 0.09849272 0.05605123 -0.032332152 -0.0938898
0.03488339 0.1366784 -0.010516842 0.07775606 0.07417909 -0.1321893 0.1304482 -0.07683381
0.002192643 -0.11079872 -0.074843824 0.02882308 0.06782365 -0.04657982 0.11508959 -0.018100219
-0.02867978 0.0785583 0.1341394 0.041528035 -0.10766232 0.044428997 -0.07210895 -0.104234666
-0.045307692 -0.109458156 0.00019447324 0.076472424 0.10498765 0.047153033 -0.070654586 0.046018027
0.0014898224 -0.07925587 0.080809906 0.10013008 0.10449272 -0.12448166 0.073384546 -0.037368413
0.05838911 -0.043342758 -0.06687129 -0.1391476 -0.13442753 0.13708252 0.010745076 -0.077282935
0.05905341 0.11157691 -0.11634467 -0.059193388 -0.10099346 0.120686784 0.117434524 -0.058030304
00000000: ee5b dfbd 45d0 d53d 96db ef3d f3e0 c43d
00000010: b7d2 113e 208c cd3d 8a98 303d c0bb fd3d
00000020: 5bbc 6dbc e171 d23d c3f3 b9bd 7023 d5bc
00000030: a7a4 4abd 036d 7f3d 00ab 563c 272d d4bd
00000040: a561 a33c a8d8 143c 6f7a c1bd 0924 c73c
00000050: d48f ee3b 0402 98bd 38eb 003d 3a9a f9bd
00000060: 2662 a93c 7389 eb3d 0fb6 11bd 6c52 99bd
00000070: f800 50bd f637 c8bd d26e a63c fd2b dd3d
00000080: 4c52 a53d 987e cfbd f5fc db3d 137b 3e3c
00000090: 039f a8bd e181 3fbc 276c 803c c067 b33d
000000a0: e24d fa3d e24d 99bd 1a6f acbd 011a 4b3d
000000b0: a565 cf3d 1a8e a63c 351a d63d 7d4b 62bc
000000c0: 281a c93d 37c9 81bd 9791 53bd c7b8 803d
000000d0: a518 363d f0da 76bd 36a1 353d 7b1a a73d
000000e0: 0925 8ebc b5a1 7bbd 330a dbbd 4b9f 8c3d
000000f0: 6990 ee3d 9b9d 65bc 6297 1f3d 66fe c33b
00000100: 6dfc 043b d254 febd 329f 2d3d 3deb c8bd
00000110: c75a c5bd b5fb 34bd c455 dbbd 31b7 893a
00000120: 45e0 a2bd e6b6 453c ab16 07bd 4c70 babd
00000130: 6d37 133d ed41 adbd e0a5 84bc bb60 80bd
00000140: 1d65 e3ba 2f9a 92bd d7df cb3d 3a13 503d
00000150: 8cbe d53d 89ce 463d a82d 2fbd a62b 063e
00000160: 7f21 f0bd 8761 00be 9de6 483d b465 153b
00000170: e2af 713d 479e f0bc b5c5 03bd d149 f7bd
00000180: 4384 3ebd ef7b ad3c 97e1 053b 1249 b7bd
00000190: 5ee9 c93b 5331 343d cc35 cabd 56c3 f9bd
000001a0: 3361 3b3d 0a49 0bbe a181 06be 88f6 67bd
000001b0: 8327 c23d ac4e dbbc 7e32 c9bd 785b 853c
000001c0: 09aa 9a3d 3c7b 10be ab76 1cbd 001e edbd
000001d0: 8e64 cfbd 23a9 04be cfc9 4ebd 79c7 0abd
000001e0: 220c 763c f0fb 943c d5c2 7f3c 8a85 e53d
000001f0: acaf a2bd dff5 1abd c9cc b5bd 8b9d eaba
00000200: b4ea cd3d 910a dabd e705 fc3d a3b8 ba3d
00000210: 8db6 c93d f995 653d b86e 04bd 4c49 c0bd
00000220: e3e1 0e3d 6cf5 0b3e d54e 2cbc 923e 9f3d
00000230: 35eb 973d a25c 07be 3794 053e 0b5b 9dbd
00000240: 72b2 0f3b 70ea e2bd b847 99bd 611e ec3c
00000250: 20e7 8a3d 7bca 3ebd 17b4 eb3d e946 94bc
00000260: dcf1 eabc 2de3 a03d d75b 093e 4d19 2a3d
00000270: 107e dcbd 2efb 353d dbad 93bd fc78 d5bd
00000280: 8f94 39bd 992b e0bd 83eb 4b39 939d 9c3d
00000290: c403 d73d 8a23 413d 5ab3 90bd 667d 3c3d
000002a0: 2546 c33a e750 a2bd aa7f a53d 0011 cd3d
000002b0: 4700 d63d 3ef0 febd a34a 963d 9f0f 19bd
000002c0: 6b29 6f3d 2d88 31bd d1f3 88bd b57c 0ebe
000002d0: 5fa7 09be 5c5f 0c3e 1e0c 303c 8446 9ebd
000002e0: fde1 713d 6f82 e43d 1d46 eebd c474 72bd
000002f0: a9d5 cebd a22a f73d 8381 f03d 2fb1 6dbd

bias_hh_l0 f4 [192]
0.09511851 0.032958042 0.1089555 0.056441262 0.09591415 0.0243422 -0.09530911 -0.06762271
0.1125981 0.10262818 -0.057233144 -0.04694844 0.06635238 -0.001537966 0.04549539 -0.08052563
0.0901947 0.12279235 0.101419576 -0.051991582 -0.0877815 -0.12237804 0.02417704 -0.055504076
0.0649472 0.0028327126 -0.05043537 -0.034807947 0.051895753 0.02163864 -0.057418715 0.09074024
-0.0030386918 -0.04894855 0.106680475 -0.06094152 0.07300367 0.01454571 0.0683583 -0.10124171
-0.019411873 0.10584742 -0.059800945 -0.0071536913 -0.017318366 0.056641813 -0.030347988 0.13188064
-0.050331697 0.07245639 -0.051603656 -0.02231854 -0.042764828 0.049882755 0.0699016 -0.024131346
0.07616283 0.047290485 0.0038488195 -0.041671216 0.021098852 4.4644796e-05 0.11842359 -0.06687483
-0.07403036 0.004390243 0.0125065595 0.0043359315 0.12499557 0.09473822 -0.042218875 0.0831282
0.039179172 0.020795383 0.045725886 0.07028243 -0.053676005 -0.077401005 0.07250579 0.014452799
-0.08730209 0.052186046 0.07298305 -0.09183705 0.03644164 -0.10528796 -0.032173917 -0.051533327
-0.035505824 0.016629916 0.06977244 -0.11943188 0.085732654 -0.117203675 -0.109654695 -0.11677601
-0.04458342 -0.06892168 -0.02611255 0.05752363 0.009926422 -0.0629072 0.06420862 0.03344124
0.059933547 -0.037532575 0.08107767 0.05601463 -0.042796705 0.032031376 0.11289851 0.049322102
-0.06349008 0.04528144 0.059809655 0.013999736 -0.0975761 -0.049082212 0.016577026 -0.102449626
-0.037953414 0.09777897 -0.048496556 -0.097247794 -0.12403613 0.0109047685 -0.07280808 -0.047413964
-0.026598468 -0.10929839 0.12857294 -0.0849907 -0.05223681 -0.09167554 0.023123188 0.053231947
-0.08274383 0.06532765 -0.050210062 0.121495575 -0.028213182 0.011878225 -0.008828716 0.051283553
0.04142816 -0.021295436 0.10458251 -0.13551143 -0.059124228 0.07719634 7.206557e-05 0.048947264
0.038239937 0.0149847055 0.057404093 -0.09393889 -0.11038342 -0.0068707084 -0.072202526 0.10257932
-0.036223654 -0.079526275 -0.09803187 -0.10668193 0.035122335 0.09565702 -0.035662107 0.1161496
-0.071371 -0.035659112 0.005159841 -0.015331868 0.12425745 -0.005395273 -0.023343185 -0.06155477
-0.0059658317 -0.008781995 -0.06293403 0.00800492 -0.14048365 0.028255837 -0.061669067 -0.056524888
0.109172456 0.051844914 0.066608876 -0.0040564905 0.12374906 0.09757187 0.08581069 0.019330055
00000000: 7ecd c23d 03ff 063d 1024 df3d f42e 673d
00000010: a36e c43d 4b69 c73c 6c31 c3bd c67d 8abd
00000020: d599 e63d b92e d23d 4d6d 6abd 024d 40bd
00000030: c2e3 873d 9395 c9ba 6059 3a3d 9fea a4bd
00000040: 00b8 b83d 8e7a fb3d 11b5 cf3d 20f5 54bd
00000050: c9c6 b3bd 56a1 fabd ee0e c63c 3e58 63bd
00000060: 0a03 853d 08a5 393b 5295 4ebd c792 0ebd
00000070: a490 543d 8443 b13c e32f 6bbd 05d6 b93d
00000080: ca24 47bb 467e 48bd 4b7b da3d d19d 79bd
00000090: f382 953d 2151 6e3c 70ff 8b3d d057 cfbd
000000a0: a605 9fbc 88c6 d83d d6f1 74bd 8369 eabb
000000b0: 3fdf 8dbc 3f01 683d 589c f8bc b80b 073e
000000c0: 9c28 4ebd 0464 943d 5b5e 53bd 5fd5 b6bc
000000d0: 2c2a 2fbd dc51 4c3d 9228 8f3d 1aaf c5bc
000000e0: 42fb 9b3d abb3 413d 7a3c 7c3b 70af 2abd
000000f0: 80d7 ac3c fc40 3b38 1188 f23d acf5 88bd
00000100: 3b9d 97bd 07dc 8f3b 50e8 4c3c 6e14 8e3b
00000110: adfd ff3d 1d06 c23d b3ed 2cbd 1e3f aa3d
00000120: 577a 203d 145b aa3c 114b 3b3d 3cf0 8f3d
00000130: 5fdb 5bbd 6b84 9ebd ea7d 943d 6fcb 6c3c
00000140: 70cb b2bd 09c1 553d 2378 953d 1015 bcbd
00000150: d443 153d 37a1 d7bd ccc8 03bd 9c14 53bd
00000160: 8e6e 11bd 763b 883c dae4 8e3d b498 f4bd
00000170: 9a94 af3d 7b08 f0bd a492 e0bd 4328 efbd
00000180: 1b9d 36bd cf26 8dbd fde9 d5bc e69d 6b3d
00000190: 6ea2 223c 7dd5 80bd cf7f 833d aff9 083d
000001a0: e17c 753d c2bb 19bd 0d0c a63d 996f 653d
000001b0: 994b 2fbd 5533 033d 5637 e73d f905 4a3d
000001c0: 1607 82bd 0879 393d f8fa 743d 265f 653c
000001d0: fad5 c7bd 6e0a 49bd 8bcc 873c 1cd1 d1bd
000001e0: 0a75 1bbd 5740 c83d 53a4 46bd da29 c7bd
000001f0: a806 febd eaa9 323c 671c 95bd 2535 42bd
00000200: 08e5 d9bc d6d7 dfbd a0a8 033e 9b0f aebd
00000210: 44f6 55bd 63c0 bbbd d76c bd3c be09 5a3d
00000220: 9975 a9bd 81ca 853d 11a9 4dbd acd2 f83d
00000230: 551f e7bc e39c 423c 52a6 10bc b40e 523d
00000240: 93b0 293d c473 aebc 5b2f d63d 82c3 0abe
00000250: 3f2c 72bd 1d19 9e3d e921 9738 ed7c 483d
00000260: 7ba1 1c3d 6982 753c 8e20 6b3d 0863 c0bd
00000270: b410 e2bd ae23 e1bb ebde 93bd 1b15 d23d
00000280: 415f 14bd acde a2bd efc4 c8bd 0e7c dabd
00000290: 70dc 0f3d d4e7 c33d 6e12 12bd d7df ed3d
000002a0: f52a 92bd 4a0f 12bd e213 a93b 8432 7bbc
000002b0: b17a fe3d d5ca b0bb 353a bfbc db20 7cbd
000002c0: 067d c3bb 5be2 0fbc 8fe3 80bd 1127 033c
000002d0: f2da 0fbe c978 e73c b498 7cbd a486 67bd
000002e0: cf95 df3d 555b 543d 3c6a 883d 4fec 84bb
000002f0: 2670 fd3d c3d3 c73d 84bd af3d 105a 9e3c

weight f4 [1, 64]
0.04947044 -0.10860152 0.08566226 -0.113273285 -0.027913338 -0.100764394 -0.09584351 0.07645891
-0.1096084 0.14278306 -0.12326635 0.012804528 0.0905433 -0.1411805 0.08667776 -0.1350188
-0.018590016 -0.13369973 0.05312999 -0.0020049377 -0.13244042 -0.106133774 0.11671259 -0.008511963
-0.038407974 0.10162852 0.109986335 -0.048942257 -0.13760099 -0.07490974 -0.10967192 0.02659152
0.068282746 -0.03713926 0.13991052 -0.097317964 -0.09138915 0.07880396 0.040219255 0.08288046
-0.022596963 0.06835546 0.12748136 0.051387828 0.063722655 -0.06997324 -0.1305188 -0.049720947
0.07954761 -0.019535279 0.010615032 -0.0984553 -0.117788255 0.11204633 0.039056186 0.014880303
0.07432475 0.0064912722 -0.03663991 -0.024483964 0.013306766 0.115131065 0.038830593 -1.2794972e-05
00000000: 84a1 4a3d 796a debd b26f af3d d3fb e7bd
00000010: 83aa e4bc 905d cebd 9a49 c4bd 7d96 9c3d
00000020: 5e7a e0bd b935 123e 1173 fcbd 15ca 513c
00000030: c46e b93d 9f91 10be 1c84 b13d 5e42 0abe
00000040: 174a 98bc 95e8 08be d59e 593d 4665 03bb
00000050: 769e 07be aa5c d9bd 0307 ef3d c375 0bbc
00000060: ae51 1dbd 9d22 d03d 8440 e13d ad77 48bd
00000070: 46e7 0cbe 476a 99bd ac9b e0bd 76d6 d93c
00000080: d3d7 8b3d 561f 18bd b444 0f3e a44e c7bd
00000090: 3c2a bbbd f863 a13d f2bc 243d 3bbd a93d
000000a0: 441d b9bc f3fd 8b3d 798a 023e 0b7c 523d
000000b0: 0681 823d 214e 8fbd b8a6 05be 31a8 4bbd
000000c0: dbe9 a23d 7308 a0bc acea 2d3c efa2 c9bd
000000d0: f83a f1bd 8c78 e53d 61f9 1f3d 84cc 733c
000000e0: 9337 983d bdb4 d43b bb13 16bd 9892 c8bc
000000f0: 9f04 5a3c d6c9 eb3d d40c 1f3d fca9 56b7
