models/gru_encoder/checkpoint/trained_irdpg_100.pth (torch, 409362 bytes, 22 tensors)

weight_ih_l0 f4 [192, 64]
00000000: c046 f73d 22df 283d c8b3 d83d 24cf 0a3d
00000010: 6987 b13d 73f3 873d f7e5 eebc e009 1f3d
00000020: a663 d23d a064 21bc 8faa f2bc ecd2 c6bd
00000030: 7fe6 bbbc 8d43 413c 1353 95bb f0e0 853c
00000040: f907 e9bb 7af7 3b3d ce52 20bd 305e 02bd
00000050: 1ff7 803d 58fc b6bd f621 04be 07e9 2cbd
00000060: 79ee d0bd 1b79 9b3d 70e8 d23d 701a 97bd
00000070: 5cc9 9cbd 70d1 d93c 3d21 28bd e8b6 a6bd
00000080: 176d 90bc e873 0b3d 1546 dcbd de49 6ebc
00000090: 4fd9 c3bc 32dd e3bd 1209 ee3d 18ec 863d
000000a0: 9df2 83bd d64b ebbd f5a3 ff3d 1b0e 0bba
000000b0: f438 883d 88fc dc3c ca8a 8fbd c429 c93d
000000c0: aece 91bd 2810 8bbd e823 e53d 3fa2 cabd
000000d0: 627f d53d 10a6 9b3d 029d 683d 6245 3dbd
000000e0: a604 0bbd ec65 e43d f4ab eb3d 3df3 cc3d
000000f0: 06bf e53d c602 ce3c fded b4bb 3cf3 bbbd
00000100: 3265 66bd 5fca a23d 8d78 2ebd 204a 64bd
00000110: 1fb1 84bd ca30 be3d eec7 debd 44c7 0dbd
00000120: 50ce 603d dc06 1a3d 0e38 ef3d 88b4 68bd
00000130: adc3 2ebd 47d5 073d 2fcc 853d a014 a5bd
00000140: 3f2a 503d d96f ccbc ae64 a5bd 620b 873d
00000150: fd9d 01bc c6fc c3bd a1a3 3fbd e71d 2c3d
00000160: e1b5 c83c 17c4 653d 9695 8abd 2614 e3bd
00000170: 90c3 eebd 4cb1 7bbd bf0c ee3d 1272 da3b
00000180: 8257 f2bd be15 813d 82dd d2bd 633c 693d
00000190: bf1a e83d 6079 fcbb 48b0 b7bd 12c0 fabd
000001a0: aa9f 013e dc59 c3bd bd4c d43d 4d7d a83d
000001b0: 4b78 173d 2097 9abd 6cf7 f2bd 723c e43d
000001c0: c3b9 fe3c 8236 943c 08b2 fbbd 9d22 bbbc
000001d0: d571 ccbd 73be 853d 5ead bbbd 4592 bbbd
000001e0: b5a0 a0bd aced f93d 5240 81bd d86d 603d
000001f0: 11d9 583c e339 573c 3d26 263a 5097 b93d
00000200: 20ca b5bc 7bac e13c d4ef cfbd f07a 66bc
00000210: f19c ecbd f289 c1bd 1d7c 4f3d 784a 35bd
00000220: 4054 073c 9083 20bc 5b95 b53d b478 e5bd
00000230: beb7 9a3c d008 82bd 7417 a73a 1438 f4bd
00000240: e113 37bd 2176 483d c660 55bd 2490 033d
00000250: 5f64 9f3d c450 92bd 3732 223d fb1f debd
00000260: 150b f73d cae4 85bd a8be 21bd aeff be3d
00000270: cc07 87bd a8e5 dcbd 214d 71bd 3d82 0fbc
00000280: f021 903d 6cea bdbd 56df 68bd 1a10 62bd
00000290: 4fec 253d 1011 ba3d 88a4 56bd 5034 4f3c
000002a0: 2cd7 4dbd 2864 7ebd be2b d63d 7e2a febb
000002b0: 8cf0 75bc 860e bc3d 76c8 c63d 18be c33d
000002c0: 1464 48bb f7b6 53bc be1e acbd ae3d ebbd
000002d0: 6811 9dbd 4707 3abc 0980 70bc da4d b03d
000002e0: 6af1 6cbd e463 dcbd c0fc 40bd 79eb ec3b
000002f0: 5a24 823d f5be 7e3d d1eb ffbb 3a7c 1ebc
00000300: 873f ec3d 77e4 9a3b 93da 1ebd f4df f3bd
00000310: 01ac 393d 6cb5 8abd e48d d73d 5872 383d
00000320: 1419 463d 40d3 573c bbd5 4e3d 66fc fe3d
00000330: c1a5 7dba 92f8 fd3d 1756 7e3d 50fb cabd
00000340: 5405 d03d 7fa3 2e3d 307d e3bd 387f 68bd
00000350: bdbb d1bd 3e92 97bd f146 0abb 62d3 353c
00000360: 17e1 723d 1614 433d 90e5 3dbc 2eeb d63d
00000370: f0da b23c 385a fc3c a4d6 ef3d deff 9cbd
00000380: 559c f93d e0df d23c da80 2bbd 1c60 01be
00000390: 9a3d acbd 009c 0fba bc5e d7bd a872 8d3c
000003a0: d223 e6bd 9cac 2fbd 58cf d5bd 0e1f fa3d
000003b0: 0965 2abd 18d0 af3c 81aa 753d 8026 f2bb
000003c0: 22d7 173d 74d7 f53d c8db a33c 027a bbbd
000003d0: 7b39 7fbd 1e12 bd3d 69a1 c33d 8c33 f1bd
000003e0: 1d30 27bd d0eb cdbd 005d 6dba 5c10 f7bd
000003f0: 85c7 cfbd 438a 4b3d bbb3 7abc eea8 9ebd
0.12074041 0.04122842 0.105811656 0.03388895 0.086684056 0.06638231 -0.02916239 0.038827777
0.10272913 -0.009850651 -0.029622344 -0.09708199 -0.022937058 0.0117958905 -0.0045570224 0.01634261
-0.007111546 0.04589031 -0.03914147 -0.031828105 0.062971346 -0.089348495 -0.1290358 -0.04221442
-0.10201735 0.075914584 0.1029824 -0.073780894 -0.07655594 0.026589125 -0.041047323 -0.08140355
-0.017630143 0.034046084 -0.107555546 -0.0145439785 -0.023907332 -0.11126174 0.11622824 0.06588
-0.06442759 -0.11489074 0.12482444 -0.0005304531 0.06651488 0.026975885 -0.07008894 0.09822419
-0.07119499 -0.06790191 0.11188489 -0.09894227 0.10424687 0.07600033 0.05679036 -0.046208747
-0.03393998 0.111522526 0.11507407 0.100073315 0.112180755 0.025147807 -0.0055215345 -0.09177253
-0.05624885 0.079487555 -0.042595435 -0.055734754 -0.06479096 0.092866495 -0.10877977 -0.034613863
0.054884255 0.037604198 0.116806135 -0.056812793 -0.04266708 0.03316238 0.065330856 -0.080605745
0.05082154 -0.024955677 -0.08075844 0.06593968 -0.0079112025 -0.09569697 -0.046786908 0.042020705
0.02450079 0.05609521 -0.067668125 -0.110878274 -0.11658394 -0.06144838 0.11623525 0.0066664303
-0.11833097 0.06302975 -0.102961555 0.056942355 0.113332264 -0.0077048987 -0.0896917 -0.12243666
0.12658563 -0.09538624 0.10366199 0.08227024 0.036979955 -0.07548356 -0.11863598 0.111443415
0.031094437 0.018092398 -0.12289816 -0.022843653 -0.09982649 0.06530466 -0.091639265 -0.09158758
-0.078431524 0.122035354 -0.06311096 0.054792255 0.013235346 0.01313636 0.00063380954 0.09062064
-0.022191107 0.027548065 -0.101531655 -0.0140673965 -0.11553372 -0.09450139 0.050655473 -0.044260472
0.008259833 -0.009796992 0.08866378 -0.11204663 0.018886443 -0.06349337 0.0012748078 -0.119247586
-0.044696692 0.04894078 -0.052094243 0.032119885 0.07782816 -0.07144311 0.03959867 -0.108459435
0.120626606 -0.06537779 -0.039488465 0.09326111 -0.06593284 -0.10785991 -0.058911446 -0.008759079
0.07037723 -0.09273228 -0.056853615 -0.055191137 0.040508565 0.09085286 -0.052403003 0.01264675
-0.050254032 -0.062107235 0.10457562 -0.0077565303 -0.015010964 0.091824576 0.09706204 0.09557742
-0.003057723 -0.01292204 -0.08404301 -0.11486374 -0.076693356 -0.011354274 -0.014678963 0.08608599
-0.057847418 -0.1076124 -0.04711604 0.007230219 0.0635459 0.06219383 -0.007810094 -0.009673173
0.115355544 0.004726942 -0.038782667 -0.1190795 0.04533005 -0.06772885 0.1052511 0.04503092
0.04836376 0.0131729245 0.050496798 0.12450485 -0.00096758833 0.12400927 0.06209382 -0.09911215
0.10157266 0.04263639 -0.11107862 -0.05676195 -0.10240886 -0.0740094 -0.0021099413 0.011097761
0.059296694 0.047626577 -0.0115903765 0.10494076 0.021832913 0.030804738 0.11710861 -0.0766599
0.12188021 0.025741518 -0.04187093 -0.12634319 -0.08410187 -0.0005478263 -0.10516116 0.017266586
-0.11237301 -0.042889223 -0.10439938 0.122129545 -0.04160026 0.021461532 0.05997706 -0.0073898435
0.0370704 0.12003985 0.02000226 -0.091541305 -0.062310677 0.09231971 0.09552271 -0.1177741
-0.04081737 -0.10054743 -0.00090546906 -0.12063667 -0.10145477 0.049692404 -0.01530164 -0.077470645

weight_hh_l0 f4 [192, 64]
00000000: 6ac0 4abb 4d1c b93d 3688 db3d 9be5 893d
00000010: b7cb edbd e14f e8bd ddf5 c53d 5f9c fa3c
00000020: ccee 9e3d 791d e7bd 1b58 31bd 8630 c4bc
00000030: 34fc 87bd 5584 b2bd a6bf 853d f61a 06bd
00000040: b3a4 07bd b6ed 8f3d 516d e2bd 3674 43bd
00000050: 82e7 45bd ecc0 eeba 626c 16bd e540 9d3d
00000060: 1110 cbbc b87f dabd 864f e33c 09a2 8f3d
00000070: 0cce b4bb 9e4a 883c 2b56 88bd 4658 883c
00000080: 3866 93bd bf50 01be 4070 883d 0c3e 79bd
00000090: 9aad 973d c77f 19bd 757b 7a3d 420b 4bbc
000000a0: 79b9 8b3d 4e4b bbbd d64f 5bbd 3f92 13bd
000000b0: 024d e2bd f54f a83d 5adf a73d 7341 3ebd
000000c0: 3214 dabd 0710 373d 3e79 d5bd 8dcc eb3d
000000d0: be91 9c3b 460b 7fbc 3741 de3d 3c68 94bd
000000e0: 93f7 f3bd 1a96 cbbd 21c6 81bd 773b 71bd
000000f0: 7a19 10bd 2813 e2bc d65b dabd c553 cfbd
00000100: 8e91 bf3d 85b5 8c3d 6e15 0fbd 20ca d13d
00000110: c215 4b3d 57b9 e63d cfad c6bd 1961 c43d
00000120: 8167 b1bd d07e b23c fefc 31bd 0eb3 74ba
00000130: df67 0bbd 0f9f 07be 3e9a 0d3d 17bb 5fbd
00000140: caf9 7a3d 37ff 72bd c888 22bd 855e 80bd
00000150: 2459 6fbd 427f 5a3d c883 8dbd e5a0 acbc
00000160: 75bc e1bd ff24 53bd 3efb dcbd 3775 e63c
00000170: 6a48 2fbd 7538 debd 22d5 ee3d c34a ecbd
00000180: 5249 54bd 69d2 e33d e149 b13c 011f 943d
00000190: 11b2 bf3b b5c7 ef3d f19a bb3d 8a65 883d
000001a0: 9d54 a5bc bb94 e2bd 4490 82bd 8dec 01be
000001b0: f7e9 d7bd c2b5 1f3d abe7 803d adb4 923d
000001c0: 2988 28bc 3630 ddbc 7859 e5bd 3163 aebd
000001d0: 1fa3 643c 01af a23d ea2a 8c3d a9ac b6bb
000001e0: 8d1e 8ebd 1a19 b2bd 8c99 e4bd a62d 09bc
000001f0: 8333 debc 682d e1bc d3ce ddbd 14f6 103c
00000200: e513 bfbc 41c6 d63d cd1f 413d 86be 79bd
00000210: 4b8a b8bd effb a2bd 3fe4 66bd 5f4c 4ebd
00000220: 3a0e a2bd 24c9 0abd f4ec 003d 3c47 6e3c
00000230: 1b49 173b f23b 803c 6273 0dbd 511f e1bc
00000240: de60 e7bd fc52 2d3d 625f c5bd 085c b13d
00000250: 5d21 b4bd 40a0 be3d ecc4 e03d 6963 af3d
00000260: b51f cbbd 65d0 6abd 45b0 533b e70a a73c
00000270: e800 e03d b048 e73d 43a5 c8bd 31fe 463d
00000280: dc37 d0bd a344 bbbd 90d2 59bd ff96 7fbd
00000290: 5e17 313d 7fe2 4d3b 5349 c53d a771 ef3d
000002a0: dec1 6bbd 4aab 9c3d f62c f23d 39cd 553d
000002b0: 6c04 f23d 41a4 bf3d bbeb a3bd b42a 18bd
000002c0: f43f 40bd a1f8 b1bd 5005 e63d e754 43bd
000002d0: a39d e9bc c537 29bd 713b d03d 2254 cbbd
000002e0: 73ea 1ebc e6a8 03be 731b 4abd 843c 773b
000002f0: eed9 63bc 6b82 c0bc 886d d7bd 8da2 09bc
00000300: 5d8c f33d 0234 f53c 8d2b 1fbd 4863 b33d
00000310: 19f7 8bbd 1e5e e63d 6551 dbbd 490a bc3d
00000320: 3213 123d 7dfe 02bd e300 a6bd b729 8e3d
00000330: 7e00 dbbd 9af9 bb3d f5a4 a33c c8e6 bd3d
00000340: 2c19 b73d 0f87 0f3c c36b a0bd d714 9fbc
00000350: 02b9 e7bd 40f2 a73c d5e2 9dbd c9fa 13bd
00000360: 0d0e 01be cb81 d63d 93f4 99bd 73e6 d83d
00000370: 1978 cebd b916 f53d 2e06 f53d 5802 d53c
00000380: e9f2 a1bd b981 ba3d 2c61 353c f907 963d
00000390: 6dfa 46bd d28b ecbd 82c8 babc 6afb 073d
000003a0: 418d 17bd 027f 68bd 63bf 0dbd 7870 9fbd
000003b0: 7eab 893d b903 813d 8065 953d aecb e53d
000003c0: a761 a83d 551b 11bd c641 3f3d aec4 33bd
000003d0: 6d20 fdba 9960 a13d 1c76 9b3d b5e0 bf3d
000003e0: 27f6 0abd e017 f3bb bbc5 9c3c dc02 e9bb
000003f0: c2d2 37bc fc07 b13d d727 2abd 166b 7ebd
-0.0030937442 0.09038601 0.107193395 0.06733247 -0.11611121 -0.11343361 0.09666035 0.030592142
0.07760391 -0.11284918 -0.043296915 -0.023948919 -0.06639901 -0.087166466 0.06530695 -0.032740556
-0.033116054 0.07027762 -0.11056007 -0.04771825 -0.048316486 -0.0018215454 -0.036724456 0.07678393
-0.024787934 -0.10668892 0.02774788 0.07013328 -0.0055177268 0.016637143 -0.0665706 0.016643655
-0.07197231 -0.12628458 0.06662035 -0.060850188 0.07406159 -0.037475374 0.061152894 -0.012392821
0.068224855 -0.091452226 -0.053542934 -0.036028143 -0.11049844 0.082183756 0.08196898 -0.046449136
-0.10648383 0.04469302 -0.10423516 0.11513624 0.004778116 -0.015566653 0.108522825 -0.07246444
-0.119124554 -0.09940739 -0.06336618 -0.0588946 -0.035180546 -0.027597025 -0.106620476 -0.101234
0.09353934 0.068705596 -0.034932546 0.102436304 0.049581297 0.112658195 -0.0970112 0.095888324
-0.0866232 0.021788985 -0.043454163 -0.00093345426 -0.034034606 -0.1324427 0.034570925 -0.054621782
0.061273374 -0.059325423 -0.039681226 -0.06268028 -0.05843462 0.05334402 -0.06909901 -0.021072814
-0.110222735 -0.051548954 -0.10790108 0.028132064 -0.04279367 -0.10850612 0.116617456 -0.11537697
-0.051827736 0.11124117 0.021641674 0.07232476 0.0058500846 0.11708013 0.09160412 0.06659992
-0.020181948 -0.11063524 -0.06375173 -0.12687893 -0.10542672 0.038991697 0.06294187 0.071633674
-0.010286369 -0.027000528 -0.111987054 -0.08515013 0.013954907 0.079435356 0.06844123 -0.005574782
-0.06939421 -0.08696194 -0.11162099 -0.0083727 -0.027124172 -0.027487472 -0.10830464 0.008847732
-0.023324916 0.10487033 0.04714947 -0.060972713 -0.09010752 -0.07958209 -0.056370016 -0.050365802
-0.0791287 -0.03388323 0.031475976 0.014543351 0.0023084346 0.015653584 -0.034533866 -0.027480753
-0.11297773 0.04231547 -0.096373335 0.08660132 -0.08795426 0.09307909 0.1097506 0.08563883
-0.09918157 -0.057327647 0.003230111 0.02039094 0.10937673 0.11293161 -0.09797146 0.04858226
-0.10166904 -0.09143951 -0.053179324 -0.06239986 0.043235175 0.003141552 0.09633126 0.11691599
-0.057557933 0.07649858 0.11824982 0.05219767 0.1181725 0.09357501 -0.080039464 -0.0371501
-0.04693599 -0.0869 0.11231482 -0.04768839 -0.02851755 -0.04131295 0.101675875 -0.099281564
-0.009699452 -0.12857398 -0.049342584 0.003772528 -0.013906939 -0.023499688 -0.10518938 -0.0084005715
0.118920065 0.029932026 -0.038859893 0.08759171 -0.068342395 0.1124842 -0.10708884 0.09181649
0.035662837 -0.03198098 -0.08105638 0.0694155 -0.10693453 0.09178467 0.019976119 0.09272534
0.08940348 0.008760228 -0.07833054 -0.019419117 -0.11314584 0.020501256 -0.077092804 -0.03612784
-0.12603016 0.10473975 -0.07517352 0.1059083 -0.100815006 0.11967225 0.11964069 0.026002094
-0.079076596 0.09106774 0.011070531 0.073257394 -0.04857867 -0.11550106 -0.022800688 0.03319875
-0.036999945 -0.05676175 -0.03460635 -0.077851236 0.06722163 0.06299538 0.0729475 0.112204894
0.08221751 -0.035426456 0.046693586 -0.04388874 -0.0019312032 0.07879753 0.07590887 0.09369031
-0.033926155 -0.0074186176 0.019137254 -0.0071109366 -0.011219682 0.08644101 -0.0415419 -0.062113844

bias_ih_l0 f4 [192]
00000000: 328e 92bd f15f 85bd ab59 4fbd 70d4 913d
00000010: 67fb ffbd 245a b33c 7edf 843d 43b3 f7bd
00000020: f9d1 293d e105 d9bd b9be efbb 318b 193d
00000030: cb16 033e 867c b8bd cfa7 dabd 497e 243d
00000040: 519d cf3d e2ed a43b 389d 1b3d c7d4 4d3d
00000050: d620 b63d 8e81 a83d 7cac 25bd ea29 90bd
00000060: 5cca a43d 4cbf edbb b44a 44bd c445 e1bd
00000070: bf67 793d 0daf 3b3d db36 98bc 9c3f 0dbd
00000080: d574 ca3d 6b12 dfbd 8e3e 51bd 9c9d d0bd
00000090: eaba af3d d0dc c53d 63d9 d6bd 6187 a63d
000000a0: c5d1 61bd 9b6b c1bd d682 00bc 5dcb 7b3d
000000b0: 7c1b ab3d c2ec b43d d37a 433d 02f3 85bd
000000c0: 5a67 12bc c55b a5bc cf66 03be e84c d6bd
000000d0: d85d a33a a464 c43d 28ea a7bc e604 f83d
000000e0: 8f80 6d3d f3f4 9fbc cd34 d13c f669 84bb
000000f0: 519e cfbd 23d8 7f3c 434d ba3c d550 203c
00000100: e9b7 92bd 9d7b bfbb 14fc 563c 5cbb f73c
00000110: 8002 64bd 8f15 bc3c bfee ee3d 3fb9 ed3d
00000120: f03f 993c 8165 b6bd e6ce 59bd b1e6 73bd
00000130: c84e 0d3b 5527 f13b 4b91 8dbd 14a1 afbd
00000140: dacd e4bd e47b 573d 1639 e5bc 9291 7fbd
00000150: 7675 fb3d e55f af3d 068d e7bd 6488 d8bd
00000160: 0c27 e83d 2490 8d3d bed1 f6bd cb8b 9ebd
00000170: a8d2 87bc 77f1 53bd c9a4 edbc 7c25 cf3d
00000180: 46d3 92ba fdb2 923d f08a d53d f0e4 9c3d
00000190: 446b dc3d 1870 e83d 6a80 c5bd 3e83 5abd
000001a0: 0187 313d 9d91 253c 45c1 9a3d c8ba a1bc
000001b0: 94de bb3d 8e2a bcbd bd66 923d 7d6f 6d3d
000001c0: 7977 ac3c a939 eb3d 546e 5e3d 8ce7 a3bb
000001d0: 1af1 d73d 4571 953c aeef 773d be45 6cbd
000001e0: 3dce efbc a426 99ba 8f1c 143c 6cdf 0ebd
000001f0: 6fa2 9abd f787 9abc eece 053e f4fa 913d
00000200: 9dbd 1e3d 9eb9 e2bd 5884 edbd fc6d a1bd
00000210: ddce a6bd 4329 6b3d 8379 f1bd f54e 763d
00000220: 6fc1 d8bd 9bbe 193d 7941 01be 8cdd 2a3d
00000230: 1600 f2bc fa7c 05bd cd4e 8dbc 12cb f9bb
00000240: dd1b 823c dfd4 74bd 79e5 e6bc bf27 ae3d
00000250: ffc1 c83d ab97 e03d fda3 a7bd 236e 743d
00000260: a549 15bd bc0a 7cbc 017a c6bd b39c ff3d
00000270: 7751 4b3d e876 5dbd d158 a43d 4ae8 573d
00000280: 76a8 e73d 343d b8bb 4015 bd3d abb2 c7bd
00000290: 03d3 933d 72b8 7fbd bb88 bf3d 0470 f2bd
000002a0: 3bc8 333c b646 afbd 347f d23c 6db1 24bd
000002b0: 1015 793d 51fa 2abd 71c7 3abd 987b b5bc
000002c0: fe5b d53c d466 783d 4961 863d edf5 503d
000002d0: a0c9 7e3c c8e6 9cbd dde5 763d 921e 0fbd
000002e0: e708 5cbd 10a6 e13d ef87 173b 1ebc b4bd
000002f0: 402b cabd 5336 a9bd 6f5f c1bd 584b 99bb
-0.07156028 -0.0651244 -0.050622623 0.07120597 -0.12499123 0.021893568 0.0648794 -0.12094738
0.04146001 -0.105968244 -0.007316437 0.03748626 0.12801664 -0.09008126 -0.10676538 0.040159497
0.101374276 0.0050332407 0.037991732 0.05025175 0.08892982 0.082278356 -0.040447697 -0.070392445
0.080464095 -0.0072554704 -0.047922805 -0.10999635 0.060889956 0.04582124 -0.018580845 -0.03448449
0.09885565 -0.10892185 -0.051085047 -0.101863116 0.08580573 0.09661257 -0.10490682 0.0813129
-0.055131692 -0.09444352 -0.007843694 0.06147324 0.083548516 0.088342205 0.047724556 -0.06540491
-0.008935774 -0.02018536 -0.12832187 -0.104638875 0.0012463881 0.09589508 -0.020497397 0.12110309
0.05798393 -0.01952598 0.025537873 -0.004040952 -0.10137618 0.015615496 0.02274192 0.009784897
-0.07163984 -0.0058435933 0.013121624 0.030240707 -0.055666447 0.022959499 0.11666631 0.116075985
0.018707246 -0.08906079 -0.05317583 -0.059546176 0.002156185 0.007359425 -0.06912478 -0.08575645
-0.111720756 0.052608386 -0.027981322 -0.062394686 0.12278263 0.08563212 -0.11306195 -0.105728894
0.113355726 0.06912258 -0.12051724 -0.07741507 -0.01657994 -0.05174395 -0.02900924 0.101145715
-0.001120188 0.071630456 0.10426891 0.07660854 0.10762647 0.11349505 -0.09643634 -0.05334782
0.04334164 0.010105518 0.075563945 -0.019742385 0.09173313 -0.09187804 0.07148502 0.05796765
0.021053063 0.11485607 0.054304436 -0.005001968 0.10544033 0.018242488 0.06053131 -0.0576837
-0.029273147 -0.001168449 0.009040012 -0.03488104 -0.07550513 -0.018863661 0.13067219 0.07127944
0.038755048 -0.1107056 -0.11597508 -0.07882306 -0.08144925 0.057412397 -0.11790755 0.060133893
-0.105837695 0.03753529 -0.12622632 0.04171519 -0.029541057 -0.03258989 -0.01724949 -0.007623085
0.015882427 -0.059773322 -0.028185593 0.08503675 0.09802627 0.10966428 -0.08185575 0.059675347
-0.036447186 -0.015383419 -0.09691239 0.1248106 0.049638238 -0.054068476 0.08024753 0.052711762
0.11311428 -0.0056225304 0.09232569 -0.09750875 0.07217982 -0.06243176 0.09352251 -0.118377715
0.010973032 -0.08558409 0.02569542 -0.04020827 0.060811102 -0.041742627 -0.04560036 -0.02215366
0.026044842 0.06064494 0.065615244 0.051015783 0.015551001 -0.076612055 0.06027781 -0.034941263
-0.053719427 0.11018002 0.0023121794 -0.08824943 -0.098715305 -0.08262315 -0.09442031 -0.004678171

bias_hh_l0 f4 [192]
00000000: 4f30 ac3c 8f4e aabd df5b 67bd be92 da3d
00000010: 769c 91bb 73d0 b6bd 24cb 1f3d 15ec dc3d
00000020: 1336 55bd a743 14bd df25 afbc 3f2e 58bd
00000030: 787f a33d 30c3 973d cbb2 d93d 0388 c43d
00000040: e1ef b43d c1c6 7f3d 4f62 77bc cbbd 363d
00000050: 944b 6cbd 4597 683c 420d 1b3b 7fd3 b93c
00000060: d4ba 493d 15c9 e63d 2cc7 a3bd 1584 893d
00000070: a69c d2bd 4c82 a13d cde2 66bd 181a fb3d
00000080: c7c6 88bc 969b 263c 16df fc3d 7071 d13d
00000090: 27da 773d cf27 f2bb d9cd 81bd a929 e03d
000000a0: 31f4 75bd 1f07 ecbd 8c1e 26bd 350e bfbc
000000b0: 96f6 b73d 2003 5dbd 9c4f c83c 74ac 983d
000000c0: a215 39bd 9c12 c3bd 9282 403d e649 94bd
000000d0: db2b 6d3d 2a52 81bd 1c2c 6e3d 2290 a83d
000000e0: f5fd 13bd 9db2 18bd 77fb 10bd fd2b 893d
000000f0: bc26 663d 5be8 8b3d 9576 943d 1b68 3f3d
00000100: ab3b eb3d 52be dcbd 36fc a0bd a029 733b
00000110: cac9 4dbd c0fe c73d b928 69bd a1ef e93d
00000120: 4b0a 593d d1c6 d33d 85a2 adbd 74b6 bbbd
00000130: 79d0 95bd 7707 f53d 7a5f 22bd 2d40 b4bc
00000140: 5e6f cfbd 9ca8 6bbd 94db 92bd 7593 01bd
00000150: 284c 9fbd 7e78 4cbd b7b2 02be a11e 04be
00000160: 2a21 bb3d 095b 5e3b 541b e1bd eeee 78bd
00000170: 13f3 b63b 4a63 b13c 732f 09bd a40e debd
00000180: 20bf ccbd 6578 ba3d f3f1 763c 1c09 d03d
00000190: 58c7 16bd 9498 17bb 4f28 57bc 0ee7 863c
000001a0: ea4a 073e 38c4 6a3d 27af 3ebd 0858 f0bd
000001b0: c225 8cbd e6fc e03d c4d3 333d 7729 77bd
000001c0: b811 ba3d 7aee 043d 2f8a ea3c cda9 5c3d
000001d0: 7225 7d3c 5982 6b3d a841 9a3d 2afd 41bd
000001e0: 05e7 cebc cf4a c7bd efa0 e6bd 50d0 873c
000001f0: 0480 23bd 0980 843b 3d87 823d b5eb 54bd
00000200: 06b5 80bd 66f3 58bd 2456 93bc c75f 9b3c
00000210: 9180 eebb 42c3 073d d8f1 a4bd b125 a8ba
00000220: cfdf f1bd 9ed7 be3c 1586 cc3c 68d3 e33d
00000230: dc11 f83c 933d 8b3d dde8 9f3c 2311 1b3d
00000240: a10c a93d 9969 213d 19d9 9a3d 4e8c df3d
00000250: 0b23 d2bd bd10 3abc e061 f4bd 58e6 5dbd
00000260: 7537 913d cc50 7fbd 9b26 d9bd 0611 50bd
00000270: abb7 cdbd f904 e4bd 7fd9 183d 4e52 7cbd
00000280: 4ee1 afbd 505d f0bc 0765 82bd 1f6e b7bc
00000290: f63b 823d a3a1 3f3d e209 a8bd fdf8 b2bd
000002a0: 1127 0abb 49c0 893d 2d89 bcbd e132 ad3c
000002b0: 3915 e1bd 5bc1 183d d30a b43d e3af 8d3c
000002c0: aaab e9bd 76c0 9c3c 6e90 873d e986 d83c
000002d0: 8fe1 d73d b657 d6bd 6d47 c53d d0e3 ed3d
000002e0: d40f ae3d 072f f5bc 2b95 69bc fc6b d5bd
000002f0: 4418 bebd 233e 9d3d a4f1 cbbd 23be 85bc
0.02101913 -0.08315765 -0.0564841 0.1067252 -0.0044437004 -0.08926477 0.03901209 0.107872166
-0.052053522 -0.03619733 -0.021380363 -0.05277848 0.07983297 0.07410276 0.10629805 0.09596255
0.08834816 0.062445406 -0.015099122 0.044614594 -0.057689264 0.014196222 0.0023659025 0.022683857
0.04925044 0.11268822 -0.079969734 0.06714646 -0.102837846 0.0788618 -0.056368638 0.12260836
-0.016696347 0.0101689305 0.12347238 0.102267146 0.06051078 -0.0073899995 -0.063380904 0.10945446
-0.060047332 -0.11524796 -0.040556476 -0.023322204 0.089825794 -0.05395806 0.024452023 0.07454768
-0.045186646 -0.09525034 0.04699952 -0.072406575 0.057903152 -0.063145 0.058147535 0.08230616
-0.036130864 -0.037279714 -0.035396066 0.06697843 0.056189284 0.06831428 0.0724918 0.046730142
0.1148599 -0.10778488 -0.078606054 0.0037103668 -0.05024127 0.097653866 -0.0569236 0.11422659
0.05298833 0.103406556 -0.08478264 -0.091656595 -0.07315154 0.119643144 -0.039641835 -0.022003258
-0.101286635 -0.057533845 -0.071707875 -0.031634767 -0.077781975 -0.049919598 -0.12763487 -0.12902309
0.09137185 0.0033928773 -0.109915406 -0.060774736 0.005583176 0.02165379 -0.033492517 -0.10842636
-0.09997392 0.09104995 0.015072334 0.101579875 -0.036811203 -0.0023131715 -0.013132169 0.016467597
0.13212171 0.057316035 -0.046553757 -0.11735541 -0.06843139 0.109857365 0.043903127 -0.06034228
0.09085411 0.03245399 0.028630344 0.053872872 0.015450822 0.057497356 0.07532054 -0.047360577
-0.025256643 -0.097310655 -0.112611644 0.016578823 -0.039917007 0.0040435833 0.06373451 -0.0519826
-0.062845275 -0.052966498 -0.017985411 0.018966569 -0.00727851 0.033145197 -0.080539405 -0.0012828616
-0.11810266 0.023296174 0.024966279 0.11124307 0.030281954 0.06798854 0.019520218 0.03785814
0.08254362 0.039407346 0.07560939 0.10915433 -0.1026059 -0.01135653 -0.11932731 -0.05417475
0.07090656 -0.062332913 -0.106030665 -0.050797485 -0.100447975 -0.11133761 0.037316795 -0.06160193
-0.08587895 -0.02934137 -0.06366926 -0.022391377 0.06359093 0.04678501 -0.0820501 -0.08738897
-0.0021080414 0.067261286 -0.09205852 0.021142425 -0.10990376 0.037293773 0.08791127 0.017295783
-0.114096954 0.019134741 0.06619345 0.026431518 0.10541069 -0.10465948 0.09632764 0.116157174
0.08499113 -0.029929651 -0.014256756 -0.10420987 -0.09281972 0.07677867 -0.09958199 -0.016326016

weight f4 [2, 64]
00000000: 7085 a83d af0c 1abc 98e8 933d 6142 6fbb
00000010: 7cb6 77bd 8bd5 403d 9d27 b83d d797 4d3d
00000020: 7244 b13c 2f54 6d3d 1f86 04bc 7611 9e3d
00000030: 9f32 a73c 5b67 363d 3e7c 943d dc3c b1bd
00000040: 9764 aa3d 1267 f23c 4114 c1bd f098 c73c
00000050: ad59 b6bd d1eb 62bd f7b6 e83d 5017 e7bd
00000060: 1712 8dbb 336c 0e3d 74ee 783d 0983 7ebd
00000070: a5a4 de3d 3d43 4a3d 5244 b73d 479a abbd
00000080: 8d9e 45bd 60d3 fa3b e74d a7bd 6078 b53d
00000090: 0c17 aa3d a245 de3d d89d 823c 1d81 a23d
000000a0: d938 9a3c d13b e43d 4964 a9bc 990e 7d3d
000000b0: aecb fd3c 4161 a73d d15c e0bd 4b94 513c
000000c0: 4161 dbbd ca6a 88bb f449 babd 9e5d 36bd
000000d0: d8df f73d 64e9 b83c 14f8 fc3d ecb8 2bbd
000000e0: e2f5 79bd c5fa 53bd 0f85 b9bd 1abe f1bd
000000f0: 38ca 9abd eea3 ba3d a319 133d 9f3a 3ebd
00000100: 1921 f33d ef1f 7b3d d634 c93c f968 e73d
00000110: c52a edbd ec1b ea3d e2ff 053d f06e e63d
00000120: f40b d6bd 157f dbbd fce8 d83d 7e1d f13c
00000130: bfee bfbc 9adc bcbd 4a57 eb3d d46d 9b3d
00000140: d5bb c6bd 88a2 ecbd c72e c0bd f578 dcbd
00000150: 3bf2 993d 938b 8bbc 7116 c53d ccc4 ea3d
00000160: 5e6e 263d ac2e ef3d eaf4 98bd 7305 d0bd
00000170: 81e1 f53d 6f37 5f3d 3c0c d7bd bba0 14bd
00000180: a0d3 a1bd 40ff a73d 1982 62bc 98eb b73d
00000190: 4c51 9d3d 7ce4 e8bd f70c 8ebd 71b2 c63d
000001a0: d213 9bbd 0bf9 b43d a1a0 823d b82d f13c
000001b0: 4526 f53d 676b 5d3d 9db2 d03d 75b5 063c
000001c0: 3d1c c23d 38f7 eebd 9831 33bd 3ae1 d23c
000001d0: 7c9b f23d 43c7 d03c b63e bcbd febe d43d
000001e0: a53d ac3d fcf1 c7bd 417f e23d d9ac e6bd
000001f0: 0ab7 7fbd 00e8 97bc 15d9 6ebc 415b 76bd
0.08228576 -0.009402438 0.07222098 -0.003650807 -0.060476765 0.04707865 0.08991931 0.050193634
0.021639083 0.05794161 -0.008088618 0.07718174 0.02040988 0.04453216 0.0725026 -0.08654186
0.08319967 0.029590163 -0.09427691 0.024364918 -0.08903823 -0.055400673 0.11363023 -0.112837434
-0.004305135 0.034771156 0.06077428 -0.062136684 0.10871247 0.04938053 0.08948578 -0.083790354
-0.04824691 0.0076545924 -0.081691556 0.0886085 0.08305177 0.10853125 0.015944406 0.07934783
0.018825935 0.111442216 -0.020677703 0.0617815 0.030980911 0.081728466 -0.10955203 0.012791703
-0.10711909 -0.004163121 -0.09096137 -0.044522874 0.12103242 0.022572227 0.12352005 -0.041924402
-0.061025508 -0.051752824 -0.09058582 -0.11803837 -0.075581014 0.09113298 0.03591312 -0.046442624
0.11871547 0.06130975 0.024561327 0.11299319 -0.11580423 0.11431107 0.032714732 0.112516284
-0.10451499 -0.10717598 0.10591313 0.029433008 -0.023429273 -0.09221764 0.114912584 0.075893074
-0.09703795 -0.11554438 -0.09383922 -0.10765258 0.07516905 -0.017034328 0.09623421 0.11463317
0.040632598 0.11678824 -0.07468589 -0.10157289 0.12005902 0.054496225 -0.105003804 -0.036286097
-0.079016924 0.08202982 -0.013824963 0.08980483 0.07681522 -0.11371705 -0.069360666 0.09702004
-0.0757214 0.08836564 0.06378294 0.029440746 0.1197019 0.054057505 0.10190318 0.008221974
0.09478042 -0.11668247 -0.04374847 0.025742162 0.118460625 0.02548564 -0.09191649 0.10387991
0.08410195 -0.09762952 0.11059428 -0.11263437 -0.06243042 -0.018543243 -0.014578124 -0.06014562

bias f4 [2]
00000000: ddca 41bd a743 c0bd
-0.047312606 -0.09387904

weight_ih_l0 f4 [192, 66]
00000000: a80d 10be 25b6 44bd 9406 12bd 6808 c13c
00000010: c3c9 593c c5be 003e 11e7 923c 94b9 42bd
00000020: b08e 2ebd 8859 c3bc 4706 aabd b8f5 b63c
00000030: af86 8fbd 510a 153d 5e46 9b3d f83c 8c3d
00000040: 3e12 acbd 490a 6bbd 34a8 ce3c 6c02 403d
00000050: 895d 5c3c d859 f4bd 5a7e da3c 474d 2339
00000060: e975 3dbd d048 9dbd 1056 c73d a0a7 083d
00000070: bcab 093d b82d f93c 7b22 abbd eceb 9c3d
00000080: 5816 ec3d a0f4 0e3d ebb0 a1bd 0311 5cbc
00000090: faca 04be 5c7a bdbd fe9d f53d a41e 043d
000000a0: 210c 933d ac04 93bd e5ba 6ebd 24e1 0cbd
000000b0: 8fbc 0b3d 8c90 f83d 3825 a13d 5664 c13d
000000c0: bfa3 8dbd 5d37 863d 8a00 adbd 52d4 0a3e
000000d0: 7ed4 213d 5408 9ebd df24 973c 01d9 e63d
000000e0: 3143 ec3d 0ee5 b53d c430 403d 3329 67bd
000000f0: d56b 8f3d 44b9 b0bd 91d4 abbd f29b ffbb
00000100: 5d3c 0f3d b665 efbd 0fd1 933c 85c6 af3c
00000110: 01a4 81bd 12ac 8ebd 8aa3 293e 11c3 ef3d
00000120: 0cf8 05bd c67c bdbd 4e1c a7bd 5a96 ec3d
00000130: 08cd d8bd 6c06 dfbd a3f3 06be 32b6 033e
00000140: c404 0c3d c265 bfbd 011d b53d 5be1 b4bd
00000150: ef54 103d b0a4 ea3c 4abd df3b 384d 143d
00000160: eacf 54bd 9252 90bd 79b0 4abd b099 8dbd
00000170: 707f 193d 9e32 d23d acd4 a93d 40c6 a83c
00000180: 84d7 9f3d 0612 6b3d 9ccd 58bd 5cf5 713d
00000190: fa4e 09be f4a4 8c3d db85 6bbd a619 c5bd
000001a0: 285d d2bc 1458 2f3d ac15 11bd 4495 08bd
000001b0: 9e56 023e a550 4fbd a78e 233d 4292 ca3d
000001c0: 0b6c 51bd 7609 ffbd c358 2b3c b132 26bd
000001d0: 808a d0bd f81e 64bd cbbd 47ba 118d 903c
000001e0: ebc6 083e 468f d6bc 3923 3abc 8af9 87bd
000001f0: 3876 cebc b4b3 c93b 69f0 08bd c440 9dbd
00000200: a445 acbc 87fc 533d 5c89 0f3d cfd9 1e3e
00000210: 7ead f33b 1f6f 5e3d c66f 30be bced 863d
00000220: 62c5 0fbd ed51 bc3d ffae 313c 1c1d a23d
00000230: ba5d cfbd 9c5c 9b3d 26b2 9f3d 66fc b2bd
00000240: a536 28be ca2b 393e 2444 c03c 4081 36bd
00000250: a025 9abd c405 14bb 17e2 fcbd 069f a43d
00000260: 4dfc d93d ce35 953d 14e5 ccbd ba87 853b
00000270: cb6a 2ebe 185a 4fbd c016 6e3c 3cdb d7bd
00000280: e6bd bf3d 2e8e bdbd d077 13bd 3a6b 72bb
00000290: 6a4d e43c 2623 a0bd bcbc b43a 0cda f5bd
000002a0: 76c0 ee3d ba90 a2bd 9870 94bd de51 fd3d
000002b0: 3477 3cbc 60a4 393d 83a5 183e f486 1b3e
000002c0: 7ead dcbd e01c 0abd 5718 8b3c ac8c 1a3d
000002d0: a66e 6ebd 8594 9a3d 2cf4 573d f882 f93d
000002e0: af74 a3bc 3662 9cbc b010 f23d 8457 7dbd
000002f0: e4de 05be 58d8 d03c 2401 5c3d 4f3f 98bc
00000300: 2190 8a3c 9040 efbd 66c3 8cbd 2bcf 663d
00000310: 946e 073e 59de b73d 71f6 c7bc 7c6f 68bd
00000320: 1445 70bd 0047 a8bd eb7e 8a3d 55c5 f43d
00000330: fb77 5fbd 70cf 0f3d b2ff 893d c8b3 e63d
00000340: 86dc 2fbc 70ee 5a3c 1c81 12bd c353 d33d
00000350: 5386 0a3e 904f 89bc 4e00 91bd ea9e 633c
00000360: ca74 993c 94a2 39bd d4a1 4f3c a073 33bc
00000370: 1e99 b0bc a75d 43bc fa78 8bbd 8a13 a53c
00000380: 10d6 52bd fc7e c43d 2034 ff3b 4c8f de3d
00000390: 5b2b 8cbd a525 3cbd 123b c6bd a871 b73c
000003a0: 0ecf dfbd e98e 7ebd 8b40 aabd 2855 6d3d
000003b0: c0d5 d5bd 008e a3bb abba 943d 3899 043d
000003c0: 6e95 483d 5b90 a43d 247f 9e3c dcc7 5a3d
000003d0: fab6 bebd 1ce6 c73d 03d0 3f3d 5e85 1c3e
000003e0: d009 00bc 72e0 bd3c 6977 59bd 94f8 95bd
000003f0: af78 e83c 375f 483b 2ee5 8a3d 9c6e 253d
-0.1406771 -0.04802527 -0.035650805 0.023563579 0.013292733 0.12572773 0.017932447 -0.047540262
-0.042616546 -0.023846403 -0.083019786 0.022333965 -0.07008111 0.03638679 0.07581781 0.06847566
-0.08401917 -0.057382856 0.02522669 0.04687731 0.013450035 -0.11931199 0.026671577 0.0001557368
-0.046255026 -0.076799035 0.09733212 0.033362985 0.033611044 0.030417308 -0.08356186 0.07662186
0.11527699 0.03490126 -0.078950725 -0.01343179 -0.12968054 -0.09251854 0.11993025 0.032255784
0.07180048 -0.071786255 -0.058283705 -0.0343944 0.03411537 0.12136945 0.07868427 0.09442966
-0.06915998 0.065535285 -0.084473684 0.13557556 0.03950929 -0.07716432 0.018450199 0.11271859
0.11536253 0.08881579 0.046921507 -0.056435775 0.07002989 -0.086290866 -0.08390153 -0.0078005726
0.034969676 -0.11689322 0.018044023 0.021456966 -0.063301094 -0.069664136 0.16566291 0.11707128
-0.03270726 -0.09252314 -0.081596956 0.11552115 -0.105859816 -0.10889897 -0.13178878 0.12862471
0.034184232 -0.09345581 0.08843423 -0.08832046 0.03523725 0.028642982 0.006827985 0.036206454
-0.051956095 -0.07046999 -0.049484704 -0.06914079 0.03747505 0.10263561 0.08292517 0.020602345
0.07804778 0.057390235 -0.05293046 0.059071884 -0.13409033 0.068674 -0.0575007 -0.09624033
-0.025679186 0.042808607 -0.03542106 -0.033345476 0.12728354 -0.050614018 0.039930966 0.09891178
-0.05112843 -0.124529764 0.010458174 -0.040575687 -0.10182667 -0.055693597 -0.0007619529 0.01764539
0.13357131 -0.026191365 -0.011360937 -0.06639393 -0.025202855 0.0061554555 -0.033432398 -0.07678369
-0.021029301 0.0517545 0.035043105 0.15512775 0.0074364534 0.054305192 -0.17230138 0.06588313
-0.03510035 0.091953136 0.010844945 0.079157084 -0.10125299 0.07586023 0.07797651 -0.087395474
-0.16427095 0.1808311 0.023469992 -0.044556856 -0.07526708 -0.0022586444 -0.12347811 0.08038144
0.10643826 0.07285653 -0.10004631 0.0040750178 -0.17032926 -0.05062303 0.014531791 -0.105398625
0.09362392 -0.09255634 -0.036002934 -0.0036990182 0.027868945 -0.07819204 0.0013789157 -0.1200448
0.11657803 -0.07937761 -0.07248038 0.123691306 -0.01150303 0.045322776 0.14906888 0.151882
-0.107752785 -0.033718944 0.01697938 0.03773181 -0.05821099 0.07547859 0.052723095 0.121831834
-0.0199531 -0.0190898 0.11819589 -0.06185104 -0.13073307 0.025493786 0.053712025 -0.018584875
0.01691443 -0.11682236 -0.06873207 0.056349915 0.13225776 0.08977956 -0.024409505 -0.056746945
-0.058659628 -0.08216667 0.06762489 0.119517006 -0.05455778 0.035109937 0.06738223 0.11264759
-0.010733729 0.013362512 -0.03576766 0.10318711 0.13527803 -0.016761571 -0.07080136 0.0138928685
0.018732447 -0.045321062 0.01267286 -0.01095286 -0.021557387 -0.011924184 -0.06810184 0.020150919
-0.051473677 0.09594533 0.007788196 0.108671755 -0.06844207 -0.045934338 -0.096792355 0.022393063
-0.109281644 -0.06214801 -0.08313092 0.05794254 -0.1044116 -0.004991293 0.072621666 0.032372683
0.048970632 0.08035346 0.019347735 0.053413257 -0.09312244 0.09760687 0.046829235 0.1528525
-0.0078148395 0.023178313 -0.053092394 -0.07322803 0.028377859 0.003057433 0.06781994 0.04038869

weight_hh_l0 f4 [192, 64]
00000000: 3e75 3d3d dca6 e53c 202e 43bd 5b77 b93d
00000010: 5305 0fbe b144 7b3c cadf 293e ff1e 1fbd
00000020: 9dd0 9f3c 0f29 ac3a 4a7c 1a3d d082 3ebd
00000030: 8f1b e6bd fd9c 87bd 19e8 47bd 5e27 033e
00000040: a4c0 993d ba67 813d 4e25 fdbd f6b1 96bc
00000050: ca07 583c 2a03 3a3d aaa9 61bc 7fc7 033d
00000060: e776 093e 0e22 07bd 64e1 b5bd b765 743d
00000070: 76b1 f43d 3767 0b3e 2a9a 94bd 16a8 be3d
00000080: d10a 46be 2fa7 e73a bd5a 44be d972 cb3d
00000090: f081 f3bd d5bd 41bd c643 a73d 32c2 d03d
000000a0: 5cf2 f8bd 589c f7bd f0d1 e53c ff92 423d
000000b0: 2725 8f3d c807 01bd ab07 ef3d d6f5 c8bc
000000c0: 541a dabd 6050 273c 8fa6 163e b800 013e
000000d0: 65bc 24bd 7c10 e43d d435 ee3c ed19 9cbd
000000e0: cc3e 82bc 1b00 1e3d 3fb3 713d 7bcb 153d
000000f0: cd38 7e3d 8d21 163d 4c93 fbbc d194 253c
00000100: e94d 54bd 9bbf 113d 20ab 1abc 1eb8 f0bd
00000110: 2566 393e 31ed b53d 1a4a 813d 714e 4fbd
00000120: 77eb 023d 2644 623d 8fab e7bd 9d87 f33d
00000130: 0cb6 0f3d 1eca b63d 0d09 d0bd 237b 4a3d
00000140: 14a9 33be 74df c7bd 7be0 8abc 8f90 f0bd
00000150: 0934 04be e7f3 aebd 70f6 2bbd 3b3d d03d
00000160: 6bf3 d139 3cd5 52bd a8db 8c3c 02fd cfbd
00000170: e793 fbbd 8e4b 5a3d a45f d5bc a016 f1bd
00000180: c9a8 9abb f72b 13bd 4a92 0b3e 5d84 ab3d
00000190: 0dc2 a03d 69a4 a33d 2c73 6c3d 0841 64bd
000001a0: 57c7 093e 486e 423b 6ea8 82bc e0f9 1ebd
000001b0: 1b29 86bd b02d edbd 1c37 993d bd45 e23d
000001c0: 43d2 a23d 2c05 0bbd d862 353d b52a c6bd
000001d0: fee0 9f3c c456 9e3d 3608 0a3e 43d6 443c
000001e0: 2f35 0e3e 664e cb3d 9076 9fbd 8d36 153e
000001f0: c7ea d4bb cf53 103d b29f d23d 65a8 363d
00000200: 3425 183e 7e5a e03c df5f 9e3d d96c 9b3c
00000210: be48 53bc a416 0dbe 4178 fc3d 03e3 8c38
00000220: 5222 16bc 7a02 283e e71c e73a b9da 74bd
00000230: 1ac9 8e3c b7ea 14be 3749 c2bd 24e5 92bc
00000240: ecb3 53bd 60f1 553d af97 1cbd 118d 123e
00000250: f4ba cdbd 1f7a 72bd 91bf ba3d 00e3 06be
00000260: e728 ed3c d1aa 04bd bc62 693d 1e35 abbd
00000270: 015f edba 2f9e cdbd a5db f03c 3a9d a3bd
00000280: 4f30 9e3d be1c 963b 7c5b 1e3d b441 45bd
00000290: dcea a3bb 6584 993d 1817 27be a859 213c
000002a0: f16d 893d fedc 12bd 5dcf e13d de75 043e
000002b0: 0720 d63d bef1 31bd 96e1 f3bd 4c61 4a3d
000002c0: 5575 c53d 4ea5 2ebe 77df de3d 7b54 a6bd
000002d0: e869 dbbd 594e 7d3d 54fe 193e 3fde b23c
000002e0: 64c8 5abd 1b60 823d 51b0 cc3c 9d21 d9bd
000002f0: a15f 423d 4fb2 db3d 977d e5bb eff9 d03d
00000300: 5e0c 963d 33e6 a9bd 7836 b8bd c9dd 0bbb
00000310: 84bf e7bd 53aa 7dbd eee1 d4bd 584a f2bc
00000320: 998f 00be 05c9 083e 703b bfbd 04ee a93d
00000330: 21f2 0cbc 5cc6 cebd f63b c33c 7494 2a3d
00000340: 803c 413c e0b5 12bd b6ad 07bd 66e9 363c
00000350: befd 06be 0e72 06bc a207 cb3d c96e 783d
00000360: df62 28bd 0fbd b3bc a8f1 8fbd 5b3b 25bd
00000370: 806f 23be 4ec1 9c3c 4f63 663d c4a1 383e
00000380: 0888 e5bd 366f bebd b3cc bb3d f83e 4d3d
00000390: 8b1c 06bc b947 2b3e ac32 4fbd cc8c a03d
000003a0: 5915 84bc 1f03 183e c1a3 14bd a16f 3f3e
000003b0: 1c72 233e 2205 0bbe c888 14be 5564 67bd
000003c0: de8c 61bd 62d3 7cbd 42a3 da3d fe0e fdbd
000003d0: 1674 793a 6a17 1b3e 4094 1f3e a7b5 033e
000003e0: dcce c2bd d991 0abd 5237 033d e7f2 0bbd
000003f0: 2d77 903d 913a 0d3e ca8d a2ba 7d1c 5abc
0.04625439 0.028033666 -0.04765141 0.090559684 -0.13966875 0.0153362015 0.16589275 -0.03884792
0.019508654 0.0013134795 0.037716188 -0.04651147 -0.11235725 -0.0662174 -0.04880533 0.12807986
0.075074464 0.063186124 -0.12360631 -0.018395405 0.013185451 0.045413174 -0.013773361 0.032172676
0.13424264 -0.03299146 -0.088808805 0.059667315 0.119479105 0.13613592 -0.07255967 0.093094036
-0.19340064 0.0017673726 -0.19175239 0.09934015 -0.11890018 -0.04730018 0.08167224 0.1019329
-0.121556014 -0.12090367 0.028054208 0.047503468 0.06989508 -0.03150156 0.116713844 -0.024531286
-0.10649553 0.010212034 0.14711975 0.1259793 -0.04021873 0.11135957 0.029078402 -0.076221325
-0.015899085 0.03857432 0.059008833 0.036571007 0.06206589 0.03665309 -0.030709885 0.010106281
-0.051832113 0.03558312 -0.009440213 -0.117538676 0.18105371 0.08883131 0.06312962 -0.050611917
0.031962838 0.055240773 -0.11312019 0.118911006 0.035085723 0.089252695 -0.10157976 0.04943384
-0.17544967 -0.09759417 -0.016952744 -0.11746322 -0.12910475 -0.085426144 -0.041983068 0.10167929
0.00040044947 -0.051472887 0.017194584 -0.10155679 -0.122840695 0.05329471 -0.026046582 -0.117718935
-0.004719828 -0.0359306 0.13630024 0.08374856 0.07849512 0.07990343 0.057727024 -0.05572608
0.13454948 0.0029667784 -0.015949454 -0.038812518 -0.06550809 -0.1158098 0.074812144 0.11048458
0.079502605 -0.03394048 0.044283718 -0.096761145 0.019516464 0.07731393 0.13479695 0.012013975
0.13887475 0.09927063 -0.07786286 0.1457159 -0.006497714 0.035236176 0.10284366 0.044594187
0.14857942 0.0273869 0.0773313 0.018972801 -0.012895761 -0.13778168 0.12327624 6.7180044e-05
-0.009163456 0.16407195 0.0017632515 -0.059778903 0.017429877 -0.14542662 -0.09486621 -0.017931528
-0.05168526 0.052232146 -0.038230594 0.14311625 -0.10045424 -0.059198495 0.0911857 -0.13172531
0.028950168 -0.032389466 0.056978926 -0.08359741 -0.0018109978 -0.10039937 0.02940161 -0.07988973
0.07724058 0.004581063 0.038661465 -0.048158363 -0.0050023627 0.074959554 -0.16317403 0.009848036
0.06710423 -0.035855286 0.110258795 0.12935588 0.104553275 -0.043443434 -0.119082615 0.049409196
0.0964152 -0.17055246 0.10882466 -0.08121582 -0.107135594 0.061842296 0.15038425 0.02183449
-0.053413764 0.06365987 0.024986418 -0.10602114 0.04745448 0.10727369 -0.007003497 0.10203921
0.073265776 -0.0829586 -0.08994764 -0.002134191 -0.113158256 -0.061930012 -0.10394655 -0.029576465
-0.12554778 0.13357933 -0.09337509 0.08297351 -0.00860265 -0.10096428 0.023832303 0.041645482
0.0117942095 -0.03581798 -0.033124648 0.011164045 -0.13182732 -0.008205904 0.09913565 0.060652528
-0.041109916 -0.021940736 -0.07028514 -0.04033981 -0.15960503 0.019135144 0.05624705 0.18030459
-0.112075865 -0.092985556 0.09169903 0.05010888 -0.008185516 0.16726579 -0.050585434 0.07839355
-0.01612346 0.1484494 -0.03628898 0.18694927 0.15961498 -0.13576177 -0.14505303 -0.05649217
-0.055065982 -0.061725028 0.1067567 -0.12356375 0.00095158943 0.1514565 0.15583897 0.12862264
-0.095121115 -0.033830497 0.03203518 -0.034167197 0.07053981 0.13791873 -0.0012401876 -0.013312456

bias_ih_l0 f4 [192]
00000000: 7c0e d0bd 3f38 f73d 1214 263e 833d 093e
00000010: 4984 473e 5b99 063e 6c57 cb3d b637 223e
00000020: b1f2 403d 6164 0e3e c625 9abd d38b 9cbb
00000030: 482b 3fbc 5c8c 8e3d a575 443d 2e9b a0bd
00000040: 432e 5b3d a437 473d fbce 3ebd eee6 a33d
00000050: 1638 783d d6e8 43bd a746 a53d 090f 8cbd
00000060: b965 483d 7956 2d3e 4403 453b aa0b 4dbd
00000070: 4882 0ebd 2d61 80bd 126b 433d 1308 063e
00000080: 5288 023e 6c94 6dbd 8306 1c3e 8595 3a3d
00000090: 094f 9cbd 4b2c 3a3d 20f2 623d bf1b e03d
000000a0: d591 2f3e 84bc 3abd b84d 1fbd 8dc3 0d3d
000000b0: e8b8 fb3d d748 0e3d 0d97 1d3e b012 2d3c
000000c0: 3b23 e83d 865b 4fbd 3c23 01bd 39e0 9a3d
000000d0: 4123 663d 32c2 b1bc 47f6 003c 8e55 243d
000000e0: 12e9 ca3c bcc6 f9bc c4a7 4dbd 123b ed3d
000000f0: c884 203e e677 8dbb cfa5 6b3d 0c40 1c3d
00000100: 4677 f3bc 7610 0ebe 45b3 413c 9960 f5bd
00000110: 8595 20be 85be 7bbd 3be4 0cbe d626 233c
00000120: 130a cdbd 92ac eebb 4663 7ebd 3cd0 bebd
00000130: acd6 6d3c 8280 ddbd f894 00bd 7e0f b6bd
00000140: 2e53 b8ba 8246 c3bd d7c2 883d 4602 e73b
00000150: 97e5 9f3d 9f67 bb3c 4417 93bd 123c 4e3e
00000160: 7ce0 19be cc4a 24be 91a3 983c ce86 b0bb
00000170: d24d 3c3d 28c0 99bd 90f0 74bd 4814 e9bd
00000180: a8aa acbd b906 473d 8396 07bd 0671 e4bd
00000190: 362d 19bb 1742 e83c def6 85bd c8e6 13be
000001a0: eaa0 ec3c 2f01 00be 0f15 23be 64f6 a1bd
000001b0: df14 9e3d ff7c 33bd 41a7 01be 23ea 953c
000001c0: 0e2d 403d c1e7 18be c174 39bd 639c 0abe
000001d0: 906e 05be 0d90 0dbe c08f a2bd 4c03 8dbd
000001e0: c392 c2bc 656a 473d f5a3 d03c e8a2 043e
000001f0: efc8 f2bd 2f37 62bd 09e7 d5bd a196 16bd
00000200: 5530 d53d 80e0 f1bd 041c 033e 3c1e ba3d
00000210: 3b82 db3d 8027 463d 33ee 3dbd b411 d2bd
00000220: 44fc be3c c467 0c3e 6f2e abbc ecfe af3d
00000230: 2880 a33d 13da 10be 55ac 0a3e b2d6 aebd
00000240: fc0b 43bc 451e efbd 6bac 9dbd 0dbf 2f3c
00000250: dc01 8b3d 7455 82bd da42 f73d 07c0 8bbc
00000260: 8f5e 03bd aa88 9e3d c904 173e ea2f d83c
00000270: b6dd f2bd 7d92 c43c d521 98bd 52b7 dbbd
00000280: 596a 0bbd 585a 01be 4d85 183c b71d 823d
00000290: a278 b13d 5940 733d 1ea9 97bd 1285 783d
000002a0: 1542 f23c 0db7 9bbd a1ca ba3d 9a03 eb3d
000002b0: e55c f03d 6a0c 10be 3e67 803d fe22 30bd
000002c0: db09 8f3d f173 81bd f33e 2cbd 880a 16be
000002d0: d564 12be 26c4 173e 8e40 bd3c c75c 90bd
000002e0: 0abc 8f3d 4716 133e db54 03be a5a0 61bd
000002f0: 92a9 d0bd c5ee 003e f4bb 083e e8c6 79bd
-0.10159013 0.12071275 0.16218594 0.13402371 0.19484057 0.13144438 0.09928784 0.15841565
0.04710645 0.13905479 -0.07526736 -0.0047774105 -0.011668034 0.06960365 0.047963757 -0.07842098
0.053510915 0.048637047 -0.04658411 0.08003031 0.060600363 -0.04782947 0.080701165 -0.06838805
0.048925135 0.16927518 0.003006176 -0.05005995 -0.034792215 -0.06268535 0.047709532 0.13089018
0.12747315 -0.058002874 0.15236859 0.04555275 -0.07632262 0.045452397 0.05540669 0.10942792
0.17145474 -0.04558994 -0.038892478 0.03461032 0.122911274 0.034737434 0.15389653 0.0105635375
0.11334845 -0.050624393 -0.031527743 0.07562298 0.056185964 -0.021699045 0.007871217 0.040120654
0.02476934 -0.030490272 -0.050208822 0.115835324 0.15675652 -0.0043172715 0.057531174 0.038147017
-0.02971996 -0.13873467 0.011822526 -0.11981315 -0.15682037 -0.06146099 -0.13758938 0.00995799
-0.10011687 -0.0072837556 -0.062106393 -0.09317061 0.014516514 -0.108155265 -0.031392068 -0.08889674
-0.0014062875 -0.09534933 0.06677788 0.0070498316 0.07807463 0.022876559 -0.07182172 0.20140103
-0.1502704 -0.16044158 0.018632682 -0.0053871637 0.045972653 -0.07507354 -0.05979973 -0.113808215
-0.084309876 0.048590396 -0.033102524 -0.1115437 -0.0023372895 0.028351827 -0.06541227 -0.14443505
0.028885324 -0.12500452 -0.15926002 -0.079083234 0.077188246 -0.043820377 -0.12661459 0.018300122
0.046917967 -0.14932157 -0.04527736 -0.1353622 -0.13030457 -0.13824482 -0.079375744 -0.068853945
-0.023751622 0.04868545 0.025468806 0.12952769 -0.11854731 -0.05522841 -0.10444457 -0.036764745
0.10409609 -0.11810398 0.12803656 0.09087798 0.10718199 0.048377514 -0.046369743 -0.10257283
0.023313649 0.13711458 -0.020896165 0.08593544 0.07983428 -0.14145689 0.13542302 -0.08537044
-0.011904713 -0.11675695 -0.07698902 0.010726702 0.06787464 -0.06363955 0.12073298 -0.01705934
-0.0320726 0.0774091 0.14747919 0.026390035 -0.11858694 0.023995632 -0.07428328 -0.10728325
-0.034036968 -0.1263212 0.009309125 0.06353324 0.08665587 0.05938754 -0.074053034 0.06067378
0.029572526 -0.076032735 0.0912068 0.11475296 0.11736468 -0.14067236 0.06269692 -0.04300212
0.06984302 -0.06320942 -0.04205222 -0.14652455 -0.14296277 0.14820918 0.023102071 -0.07048946
0.070182875 0.14363967 -0.12825339 -0.055084843 -0.10188593 0.12591083 0.13352948 -0.060980707

bias_hh_l0 f4 [192]
00000000: f01a d23d f2ce 493d 51b8 1d3e 8f31 c13d
00000010: e1e8 173e d401 633d 814c 20bd 2494 07bd
00000020: 5a65 323e cc42 0e3e 4ed1 2abd 8999 d2bc
00000030: ae50 d53d 3cf8 ba3b 2192 a43d 4bb1 62bd
00000040: bb76 fd3d a33d 263e 01e4 183e 5e6b 743b
00000050: 7627 0dbd c093 c4bd c854 963d 8f1d 04bb
00000060: 5add be3d 5ae1 693d 3b3c 42bc 82e6 23bc
00000070: b107 8b3d 534f 683d 7bf8 f5bc 30ba e83d
00000080: 6a0a 333d 1aac b8bb ae45 1b3e 264e ddbc
00000090: edd2 a13d 84d0 923d 7c5d dd3d d1a3 a2bd
000000a0: 8f51 f43c 145b 0a3e 5785 6dbc 4f47 b5bc
000000b0: 21b7 8d3b 8281 913d 4cb3 9b3c 9801 203e
000000c0: 7a16 10bd 797f ae3d 00f0 00bd 4c6f 1cbc
000000d0: 203f febc da25 b53d 83ed 083d 7d5b 86bd
000000e0: c53e f23d 0339 a03d 7030 783d 1641 b43b
000000f0: 105e 7b3d ed9c 1f3c a447 0c3e 1c2b 0ebd
00000100: eaa2 d8bd a972 26bc 9ef0 93bc 5850 8ebc
00000110: 662d 843d b6a4 9e3d 92e9 94bd 1c7d bc3d
00000120: 694d 983c e147 bd3a e5fc 873c 4c90 8b3d
00000130: 91ce 99bd 00c3 cebd cbb9 6a3d b1aa 40bc
00000140: 2a1f b2bd c2d0 e83c 4ab6 243d 45d7 0abe
00000150: c647 263c 4b17 06be adc9 7abd 205a 9a3c
00000160: c656 8cbd b20e 97bc e134 213d 2326 02be
00000170: 92e3 943d 86d0 26be 0a94 0cbe b9f2 e0bd
00000180: 14b7 a8bd da04 2abd 9be9 7abd 044e 113d
00000190: 9013 bb3a 9fdd a0bd bdbe c73d 3e95 333c
000001a0: 246c 303d ae38 d9bc 53ca 593d 5779 093d
000001b0: de70 77bd b876 753c 4e1b ad3d 504d 523d
000001c0: 969a bcbd e0c6 173d e7fc 573d eeed b6bb
000001d0: 46a7 01be 0fa6 6cbd a1bd 49bc 54b8 0cbe
000001e0: bd20 9dbd 455b 033e 1143 1ebd 9269 a3bd
000001f0: f30f 27be a1b6 d4bb a736 b5bd 6ebb a8bd
00000200: 5d04 67bc 2dc9 fabd 81ad 083e 182f a8bd
00000210: a890 6cbd c26c e4bd fa31 4d3c db4c 2e3d
00000220: 9225 c8bd 60dc 933d 2774 8bbd b268 043e
00000230: 7417 b3bc f180 a7bb 2782 98bb 5ac2 263d
00000240: 0521 233d b861 eebc ea0e e83d 2da0 1abe
00000250: 340c 65bd addb 8f3d 49b7 513c 2302 353d
00000260: 450c 113d 1b2d 433c b27a 8a3d 94fe dfbd
00000270: c5bf fabd d5af c0bc 636e 8abd 655f ca3d
00000280: 6a6d d7bc db4f bdbd 6391 bdbd 6893 f7bd
00000290: 6818 c13c 7d97 e63d c397 43bd 9c8c 083e
000002a0: 00dc 2abd c705 0ebd c911 913c 7652 32bb
000002b0: 604d 0d3e 13cb aebc 17a2 06bd 1ac3 8ebd
000002c0: af1e 3e3c d0f9 dabc 4bc8 12bd 3672 4f37
000002d0: ee75 21be 4261 203d 530a 45bd ad44 34bd
000002e0: 27db f73d e2e6 8f3d 97b0 833d 9951 77bb
000002f0: ee00 ff3d 47a2 d43d c7d7 d23d 84bc 9c3c
0.10259044 0.049269624 0.15402342 0.09433281 0.1483493 0.055421665 -0.03913546 -0.033100262
0.17421475 0.13892668 -0.041703515 -0.025707977 0.10415779 0.0057058614 0.080356844 -0.05534486
0.12376162 0.1623445 0.14930727 0.003729544 -0.03446146 -0.095984936 0.073403895 -0.002015922
0.09319563 0.057099678 -0.01185518 -0.010003688 0.067885764 0.056716274 -0.030025711 0.113636374
0.043711103 -0.0056357505 0.151633 -0.027014803 0.07901559 0.071686774 0.10808846 -0.07941402
0.029824046 0.13511306 -0.014497123 -0.02212873 0.004324809 0.0710478 0.019006394 0.15625608
-0.035177685 0.08520407 -0.03147888 -0.00954802 -0.03103596 0.0884511 0.033429634 -0.06560419
0.118283786 0.07823374 0.06059307 0.005500923 0.061369002 0.009742004 0.13699204 -0.03470908
-0.105779484 -0.010159173 -0.018059071 -0.017372295 0.064539716 0.0774626 -0.072711125 0.0920355
0.0185916 0.0014440977 0.016600082 0.06814632 -0.075101025 -0.10095787 0.057306092 -0.011759446
-0.0869735 0.028419856 0.040212907 -0.13558681 0.010148948 -0.13094823 -0.06122749 0.018841803
-0.06852488 -0.018439624 0.03935707 -0.1270986 0.07269968 -0.16290483 -0.13728347 -0.10983796
-0.082380444 -0.041508533 -0.06125794 0.035474792 0.0014272798 -0.07854771 0.09753177 0.010960875
0.04307188 -0.026516285 0.053171467 0.033562984 -0.060410373 0.014981918 0.084524736 0.051343262
-0.092091724 0.037054896 0.05273142 -0.0055825626 -0.12661466 -0.057775553 -0.012313277 -0.1374219
-0.0767226 0.12827785 -0.03863818 -0.0797912 -0.16314678 -0.0064914976 -0.08848315 -0.082388744
-0.014100161 -0.122454025 0.13347436 -0.082121074 -0.057755142 -0.111535564 0.012524122 0.042553764
-0.09772791 0.072197676 -0.06809264 0.12930563 -0.02186177 -0.0051118066 -0.0046541872 0.04071269
0.03982641 -0.02909933 0.1133097 -0.15100165 -0.05591984 0.07024322 0.012800046 0.04419149
0.03541209 0.011912609 0.067616835 -0.10937229 -0.122436084 -0.023521343 -0.06759336 0.09881476
-0.02629729 -0.09243747 -0.09256246 -0.120886624 0.023571208 0.11259363 -0.047752153 0.13334888
-0.041713715 -0.03467348 0.017708676 -0.0027209795 0.13799047 -0.021337068 -0.032869425 -0.069708064
0.011603995 -0.026730448 -0.035835546 1.2364753e-05 -0.15767643 0.039155252 -0.04810555 -0.044010807
0.12102347 0.07026459 0.06430166 -0.0037737845 0.12451349 0.103825144 0.102950625 0.01913286

weight f4 [1, 64]
00000000: 73a9 823d 2af3 fbbd edd6 e23d b789 0dbe
00000010: d88a 7abb c548 f1bd a1fc 15be ad34 b03d
00000020: 1536 1cbe 64d9 2c3e c96f 0dbe 611e d23c
00000030: 4779 e13d 74a5 22be bf35 af3d 3a11 1dbe
00000040: 2451 aebd d3c6 21be 8779 a03d 09bd 74bd
00000050: f6a0 20be 0f4a 25be 2c1d 173e 4ce1 173d
00000060: 39b5 7bbd 255c 043e 9fd8 1b3e 03f0 8dbd
00000070: 0976 1abe 8d11 07be 4382 febd 40d2 223d
00000080: 23e1 ee3d c439 adbc bb0d 423e 2ac1 02be
00000090: 3377 b5bd 9b3b e03d 35b0 a33d 7523 cb3d
000000a0: f563 d6bc dcd0 b13d 048c 2f3e a389 863d
000000b0: 0687 9f3d 5a4c acbd f0e0 20be 96d3 79bd
000000c0: 46e3 c23d 9b90 d2bc c9d6 4f3d 90f7 e7bd
000000d0: 86fa 08be 6d5f 0b3e 1014 543d da27 e43c
000000e0: bb13 fe3d 1458 a9bc 4a32 27bd 231f a93b
000000f0: c38d 123d 07cc 063e 39ce 5e3d aa83 28bd
0.06379976 -0.12302239 0.1107615 -0.13822065 -0.003822973 -0.11781458 -0.14647152 0.08603797
-0.15255006 0.16879803 -0.13812174 0.025649251 0.1100946 -0.15883428 0.08555173 -0.15338603
-0.0851157 -0.15798502 0.078356795 -0.05975059 -0.15686402 -0.16141532 0.14757222 0.037080094
-0.061452124 0.12925775 0.15219353 -0.06930544 -0.1508409 -0.13190289 -0.12427189 0.03975129
0.11664035 -0.021145709 0.1895055 -0.12768999 -0.08860626 0.10948869 0.07992593 0.09918872
-0.02617071 0.08682415 0.17143255 0.06569221 0.077894256 -0.084130004 -0.15710807 -0.0609928
0.09516005 -0.025703719 0.050741944 -0.11326516 -0.13376817 0.13610621 0.051776946 0.027851034
0.12406107 -0.020671882 -0.040819444 0.0051611825 0.035779726 0.13163768 0.054395888 -0.04114119
